experiment/saml_20/GCN/GCN_checkpoint.pt (torch_old, 24979 bytes, 6 tensors)

layers.0.linear.weight f4 [64, 23]
0	0x3d0c7225	0.034288544
1	0xbf7d410d	-0.98927385
2	0xbfb1ed1d	-1.3900486
3	0x3b46f26f	0.0030356904
4	0xbe66e74a	-0.22549167
5	0xbf29fa92	-0.66397965
6	0x3e539c5d	0.20665117
7	0x3f04b8cc	0.5184448
8	0xbe05e22d	-0.1307456
9	0xbf112e26	-0.5671104
10	0xbe08c6fb	-0.13357155
11	0x3f13f4f0	0.5779562
12	0xbedfca5b	-0.43709072
13	0xbe8294b2	-0.2550407
14	0x3e1ae59a	0.15126649
15	0x3db3fb69	0.08788187
16	0xbe01e4ab	-0.12684886
17	0xbfc6c603	-1.5529178
18	0xbf6915ee	-0.9104909
19	0x3d1b8c6e	0.03797572
20	0xbf61576f	-0.8802404
21	0xbf63add2	-0.88937104
22	0x3e4bf00d	0.19915791
23	0x3deb31c8	0.114841044
24	0x3e7b984a	0.24569812
25	0xbf6b8f1a	-0.9201523
26	0xbe38bcd0	-0.18040776
27	0xbd3909ac	-0.04517524
28	0xbf52cbc2	-0.8234216
29	0x3eb0c6e4	0.34526742
30	0xbebbf32a	-0.36708957
31	0x3ec948f4	0.3931347
32	0xbc1f9c20	-0.009741813
33	0xbeed8e85	-0.46397796
34	0x3f76051b	0.9610154
35	0x3da00487	0.078133635
36	0xbef59e34	-0.47972262
37	0x3e7d0f9c	0.24712986
38	0x3e1bd4d4	0.15217906
39	0x3f0c2f11	0.5475932
40	0xbef851c7	-0.4849989
41	0xbf5f5527	-0.8723931
42	0xbedc4569	-0.43021706
43	0x3dd245d0	0.10267222
44	0x3f309c85	0.6898883
45	0xbe6e33f6	-0.23262009
46	0xbd45e2da	-0.048312046
47	0xbf8f4b2d	-1.1194817
48	0xbe67981d	-0.2261662
49	0x3e63d308	0.22248471
50	0x3e11764b	0.14205281
51	0x3e4d14a2	0.20027402
52	0x3f565c7b	0.83734864
53	0x3f5fb0b5	0.8737901
54	0x3e0ce9d6	0.13761076
55	0xbf33e142	-0.7026559
56	0x3e9f6fd7	0.31140015
57	0xbd7f272a	-0.06229321
58	0xbfa02805	-1.2512213
59	0xbf1f0af8	-0.6212611
60	0xbf8a4a23	-1.0803875
61	0xbccb9fa0	-0.024856389
62	0x3f5b439f	0.85650057
63	0xc0061271	-2.0948756
64	0xbfe54d15	-1.7914149
65	0x3d91eaf2	0.071248904
66	0x3f7ca9a1	0.98696333
67	0xbef40b1b	-0.47664723
68	0x3b9ceab9	0.0047887233
69	0x3eb14a38	0.34626937
70	0x3c6433d3	0.0139283715
71	0x3e64144f	0.22273372
72	0x3f271083	0.6525957
73	0x3d124da3	0.03571857
74	0xbed51bf1	-0.4162288
75	0x3feff02d	1.8745171
76	0x3f591787	0.84801525
77	0x3e47927f	0.19489478
78	0xbbdaba83	-0.006675066
79	0x3f171a36	0.5902437
80	0x3f4e0b7b	0.8048627
81	0xbe9b5c60	-0.30343914
82	0xbf972d6b	-1.1810735
83	0xbeb2c0ad	-0.34912625
84	0x3e1f28a9	0.15542854
85	0xbfacb71d	-1.3493382
86	0xbedc4e0d	-0.43028298
87	0x3ec1d72e	0.37859482
88	0x3ea8d8ae	0.32977813
89	0xbda7b2a5	-0.081883706
90	0x3ec516af	0.3849387
91	0xbcc31904	-0.02381564
92	0xbf3f5b27	-0.7474846
93	0xbe7683c3	-0.240737
94	0xbf7339a3	-0.9500982
95	0xbef33a9c	-0.47505653
96	0x3dd6bc53	0.10485139
97	0xbed8df38	-0.42357802
98	0x3f31ab28	0.6940179
99	0xbca327cf	-0.019916443
100	0x3ef8cb2a	0.48592502
101	0xbf1b6ca9	-0.6071268
102	0x3e8d13e7	0.27554247
103	0x3e72bc61	0.23704673
104	0xbf669f4e	-0.9008683
105	0xbdd9c3da	-0.10633059
106	0x3e979e33	0.29612884
107	0xbfe4b387	-1.7867287
108	0xc0147a90	-2.3199806
109	0x3e16e6be	0.14736459
110	0xc0325aab	-2.786784
111	0xbf767e28	-0.9628625
112	0xbf9b4295	-1.2129694
113	0x3f004003	0.50097674
114	0xbffb9d43	-1.9657367
115	0xbf3b3ba5	-0.73137885
116	0xbd20f725	-0.039298195
117	0xbf19714e	-0.59938514
118	0xbf0a470d	-0.54014665
119	0x3eadc318	0.33937907
120	0xbd841875	-0.06449977
121	0x3e4db0c0	0.20086956
122	0x3ea94ac1	0.33064845
123	0x3eaacda3	0.33360013
124	0x3d39f1d7	0.045396652
125	0xbebef32e	-0.37294906
126	0x3f2c4190	0.6728754
127	0xbf4d6d10	-0.8024454
128	0xbf6a1563	-0.91438884
129	0xbe4bca82	-0.1990147
130	0x3ecc0390	0.39846468
131	0xbff50d06	-1.91446
132	0x3f22ecb4	0.6364243
133	0x3e7ce5dc	0.2469706
134	0x3d37171b	0.04469977
135	0xbc34c189	-0.0110324705
136	0x3e5d9484	0.21638685
137	0x3e8f1c9b	0.27951512
138	0xbeb44e52	-0.35216004
139	0xbe040718	-0.12893331
140	0x3f54e28d	0.8315819
141	0x3f24fee7	0.6445145
142	0xbe7d9912	-0.24765423
143	0xbf4bb161	-0.79567534
144	0x3f8617da	1.0476029
145	0x3f5cfa06	0.86319005
146	0x3f71b6c5	0.9441951
147	0xbf2a7e41	-0.665989
148	0x3f1b9740	0.60777664
149	0x3ea363c4	0.31912053
150	0xbd995260	-0.07486415
151	0xbf7e8497	-0.99421066
152	0xc0603c46	-3.5036788
153	0xbff38554	-1.9025064
154	0xbee50d81	-0.44736865
155	0xbf05c52f	-0.52254003
156	0xbf500665	-0.8125976
157	0xbeab653b	-0.3347567
158	0xbde67188	-0.11252123
159	0xbfd4d842	-1.6628497
160	0x3ebc1e61	0.36741927
161	0xbf0c891e	-0.54896724
162	0x3f368f4a	0.7131239
163	0xbec9e597	-0.39432976
164	0xbf24aa92	-0.6432277
165	0x3e700ae8	0.2344166
166	0xbf6cfab4	-0.9257004
167	0xbfdc120f	-1.7193011
168	0xbfb93a26	-1.447087
169	0xbd17fa71	-0.037104074
170	0xbd8f3714	-0.06992927
171	0xbe4ac84f	-0.19802974
172	0xbedfb97a	-0.43696195
173	0x3e4888a5	0.19583376
174	0xbee95ce3	-0.4557868
175	0xbbe37352	-0.0069412375
176	0x3e0bc754	0.13650256
177	0xc0248839	-2.5708144
178	0x3ebb7187	0.36610052
179	0xbecbd57c	-0.39811313
180	0xbe84c63f	-0.259325
181	0x3eb192b9	0.34682253
182	0x3ef08a3b	0.4698046
183	0xbfb306f3	-1.3986496
184	0x3f8cd37a	1.1002038
185	0xbf5be7f5	-0.85900813
186	0xbee5530a	-0.44789916
187	0xbedce6ba	-0.4314478
188	0xbe193ceb	-0.14964645
189	0xbd908785	-0.07057098
190	0x3daa1958	0.08305615
191	0x3f46cea4	0.7765906
192	0x3e5e6653	0.21718721
193	0xba4ad12c	-0.00077368575
194	0x3eb20746	0.34771174
195	0xbe3933a7	-0.1808611
196	0x3f1094f8	0.5647731
197	0xbd1d9fa8	-0.03848234
198	0xbdb875dd	-0.09006856
199	0x3d870117	0.06592005
200	0x3eabd510	0.3356099
201	0xbfff1dfe	-1.9931028
202	0xbfbaa1f0	-1.4580669
203	0xbe7397dc	-0.23788399
204	0xbe9b0e9a	-0.30284578
205	0xbf78c67e	-0.97177875
206	0xbd6b46c7	-0.057440545
207	0x3effda16	0.49971074
208	0xbecf3105	-0.40467086
209	0xbf4bfdc1	-0.7968407
210	0xbf16121a	-0.5862137
211	0xbf4a0a6e	-0.78922164
212	0xbf22fab5	-0.636638
213	0x3ebe9f02	0.37230688
214	0x3f085755	0.5325826
215	0xbc4f239d	-0.012642768
216	0x3efc3c02	0.49264532
217	0x3e9724a9	0.29520157
218	0x3f404105	0.7509921
219	0xbee07d9c	-0.43845832
220	0xbe92a410	-0.28640795
221	0x3e5ddd82	0.2166653
222	0xbe9f809a	-0.31152803
223	0x3f23d99b	0.64003915
224	0xbd79997a	-0.060937382
225	0xbeac524d	-0.3365654
226	0xbeff625f	-0.4987974
227	0x3dc9d953	0.098559044
228	0x3eb9c2cb	0.36281428
229	0xbcaa4456	-0.020784538
230	0x3ea59f34	0.32348025
231	0x3edde005	0.43334976
232	0xbf366f97	-0.7126402
233	0xbf0bfb6d	-0.5468052
234	0x3ec92ad1	0.3929048
235	0xbfb99929	-1.4499866
236	0xbf985d8f	-1.1903552
237	0xbf2c5db1	-0.6733046
238	0xbe991ca5	-0.29904667
239	0xbf0123d0	-0.5044527
240	0x3ed438ce	0.4144959
241	0xbe7ffdde	-0.24999186
242	0xbc1805c6	-0.00927872
243	0xbdcd1b16	-0.10014932
244	0xbf0103cb	-0.5039641
245	0x3db7c9a0	0.08974004
246	0xbfda2217	-1.7041653
247	0x3e0fa460	0.14027548
248	0xbf588a02	-0.84585583
249	0xbeb3c879	-0.35113886
250	0x3e316a31	0.17325665
251	0xbe32f383	-0.17475705
252	0xbfd85cdf	-1.6903342
253	0x3d8d9844	0.06913808
254	0xbf94ba65	-1.1619383
255	0x3e2fa023	0.17150931

layers.0.linear.bias f4 [64]
0	0x3fa168c3	1.2610096
1	0xbf326a04	-0.69693017
2	0x3ddf423f	0.10901307
3	0xbf8e99ac	-1.1140647
4	0xbf55b058	-0.83472204
5	0xbe954c08	-0.2915957
6	0xbe124f58	-0.1428808
7	0xbfe95c4a	-1.8231289
8	0x3fab1603	1.3366092
9	0xbf2f3320	-0.68437386
10	0xbfacd5e1	-1.3502771
11	0xbec57eb7	-0.38573238
12	0xbf01f9fc	-0.5077207
13	0x3edbd064	0.42932427
14	0xbed92a05	-0.4241487
15	0xbf33f02d	-0.70288354
16	0x3c1d1b55	0.009589036
17	0x3f7ccc02	0.9874879
18	0xbf69a9b9	-0.912746
19	0x3f7be049	0.98389107
20	0xbf9069ad	-1.128225
21	0x3f972b1b	1.181003
22	0xbf85afe3	-1.0444301
23	0x3f6fd8c1	0.93690115
24	0xbf12b828	-0.5731225
25	0xbfb6eade	-1.4290426
26	0xbf45248e	-0.77008903
27	0xbf7ba17e	-0.9829329
28	0xbfa8314a	-1.3140042
29	0x3f7cff9b	0.98827523
30	0x3e9e40b1	0.3090873
31	0x3fc520d5	1.5400645
32	0xbfbf9e17	-1.497012
33	0xbda02bcc	-0.078208536
34	0xbf90573c	-1.1276622
35	0xbf6f8e2e	-0.93576324
36	0x3f92e005	1.1474615
37	0xbee8df46	-0.45482844
38	0x3e8024ea	0.25028163
39	0xbf4de8d4	-0.8043339
40	0x3f80a4e2	1.0050318
41	0xbffab0c5	-1.9585196
42	0xbef229ef	-0.47297618
43	0xbf38ca13	-0.7218334
44	0xbf4042b4	-0.7510178
45	0xbf1a809f	-0.6035251
46	0xbfee9857	-1.864024
47	0xbe70c0a1	-0.23510982
48	0xbf227e25	-0.6347373
49	0xbf3b01be	-0.73049533
50	0xbf4b1ff4	-0.7934563
51	0x3f38c513	0.7217571
52	0xbf48bd31	-0.78413683
53	0xbe71a2fb	-0.23597328
54	0xbe81b70d	-0.2533497
55	0xbf7a9564	-0.978842
56	0x3f52586a	0.8216616
57	0xbf4b3448	-0.7937665
58	0x3fcde022	1.6084025
59	0xbe52fc2e	-0.20604011
60	0xbfb63335	-1.4234377
61	0x3edb4f97	0.4283416
62	0x3fbbd87f	1.4675444
63	0xbf4a82b0	-0.79105663

layers.1.linear.weight f4 [64, 64]
0	0x3f15215f	0.58254045
1	0xbe5f4038	-0.21801841
2	0x3e98fd0c	0.2988056
3	0x3f286d64	0.65791917
4	0x3f13e7d6	0.5777563
5	0xbe7f2387	-0.24915896
6	0x3fbf25a8	1.4933367
7	0x3f101879	0.5628734
8	0x3ce62682	0.028094534
9	0x3eb8b4b0	0.36075354
10	0x3eaeac6f	0.3411593
11	0x3f2b026a	0.6680056
12	0x3e98c841	0.29840282
13	0x3e791568	0.24324572
14	0xbe75b6a4	-0.23995453
15	0x3f3e84c4	0.74421334
16	0x3e7354d4	0.23762828
17	0xbe313deb	-0.17308776
18	0x3efd6cf3	0.49497184
19	0xbf35adf6	-0.7096857
20	0x3d28d1aa	0.041215576
21	0xbf9b05dd	-1.2111164
22	0xbe38246c	-0.17982644
23	0xbc1b5f8e	-0.009483231
24	0x3f38de4f	0.72214216
25	0xbf15cb59	-0.5851341
26	0x3f90caa8	1.1311846
27	0xbd65cf34	-0.056105807
28	0xbe6787ee	-0.22610447
29	0x3e721a59	0.23642863
30	0xbe234816	-0.15945467
31	0x3ea9247c	0.33035648
32	0x3d3bc8a8	0.045845658
33	0xbe99c4fd	-0.30033103
34	0x3f32e179	0.69875294
35	0x3d7b7556	0.061391197
36	0xbbea9fc0	-0.007160157
37	0x3f84649d	1.0343205
38	0x3d0eef92	0.03489644
39	0x3ee3cdf6	0.44493073
40	0xbdae43c8	-0.08509022
41	0xbebdfad4	-0.3710543
42	0xbef54319	-0.47902754
43	0x3e0f5b3b	0.13999645
44	0x3f6b74f4	0.9197533
45	0xbebba20c	-0.3664707
46	0x3e684a49	0.22684588
47	0x3e57ebec	0.21086091
48	0x3d8e2c4e	0.06942044
49	0x3ed311f6	0.4122464
50	0xbd305243	-0.0430472
51	0xbbd8e452	-0.006619015
52	0xbdfed01a	-0.12442036
53	0x3ea3d594	0.31998885
54	0xbe1d82a3	-0.15381865
55	0xbda7a2f3	-0.08185377
56	0x3d488a6b	0.04896013
57	0x3e51f11b	0.2050213
58	0xbe7e8cdd	-0.24858423
59	0x3e7dea75	0.2479647
60	0xbd8d0cd4	-0.068872124
61	0x3f1aee75	0.60520107
62	0xbec08e83	-0.37608728
63	0x3eef7409	0.46768215
64	0xbf500262	-0.81253636
65	0xbf4acb14	-0.7921612
66	0x3eb882cd	0.36037293
67	0xbf091c48	-0.5355878
68	0xbebebacb	-0.37251887
69	0xbdb9cef0	-0.09072673
70	0xbffef3aa	-1.991811
71	0xbe93324d	-0.28749314
72	0xbfe34e21	-1.7758218
73	0xbdc69da8	-0.09698039
74	0xbea1b1b9	-0.31580904
75	0x3d33e9c6	0.043924116
76	0x3e976829	0.29571655
77	0x3e5eacb4	0.21745569
78	0x3e8ee489	0.27908733
79	0xbfeb6afc	-1.8392024
80	0xbeb4cc79	-0.3531225
81	0x3f6103f5	0.8789666
82	0xbf0e3543	-0.5555002
83	0x3ed97239	0.42469957
84	0xbaf65843	-0.0018794615
85	0x3fb81e53	1.4384254
86	0xbe2881cd	-0.16455765
87	0xbfb560e8	-1.4170198
88	0x3d3de8c1	0.04636455
89	0x3eb51a35	0.35371557
90	0xbf077147	-0.5290722
91	0xbf184d94	-0.59493375
92	0x3e9bdafe	0.30440515
93	0xbf09e54b	-0.538655
94	0x3ead3f07	0.3383715
95	0xbeadc180	-0.3393669
96	0xbec2e526	-0.3806545
97	0xbe898bc6	-0.2686445
98	0xbfc1dab7	-1.5144871
99	0x3ee0436c	0.4380144
100	0x3f7e4de2	0.9933759
101	0x3df4ef5a	0.11959715
102	0xbeb6fe5f	-0.35740945
103	0x3e1bb18c	0.15204448
104	0x3f819dba	1.0126259
105	0x3eee1bfe	0.4650573
106	0x3f22acf6	0.6354517
107	0xbecd601d	-0.4011239
108	0x3ebab46e	0.36465782
109	0x3e31b5b6	0.17354473
110	0xbf8d7712	-1.1051962
111	0x3ee53cdd	0.44772997
112	0x3f7b135e	0.98076427
113	0x3e4c41d9	0.19946994
114	0x3e1495c0	0.1451025
115	0x3f3b8871	0.7325507
116	0xbd895222	-0.06705119
117	0xbe55e323	-0.20887427
118	0xbd71fbed	-0.059078146
119	0x3ec7715a	0.38953668
120	0x3ebfe32f	0.37478015
121	0x3e8904bb	0.26761422
122	0x3e9e0286	0.308613
123	0x3ee6c597	0.45072624
124	0x3d229979	0.039697144
125	0xbebb748e	-0.36612362
126	0xbef9c4dd	-0.48783007
127	0x3e89aa08	0.26887536
128	0xbd895e7e	-0.06707476
129	0xbf1da2be	-0.6157645
130	0xbefe19d2	-0.49629074
131	0x3e99f4c0	0.30069542
132	0x3e678810	0.22610497
133	0xbf703133	-0.9382507
134	0x3dacfd22	0.08446719
135	0xbf75cb89	-0.96013695
136	0xbdd8a683	-0.105786346
137	0xbe244624	-0.16042382
138	0xbdbe6440	-0.09296465
139	0xbd1c71c4	-0.038194433
140	0xbeb2bda4	-0.3491031
141	0x3edf6725	0.4363338
142	0xbeb29542	-0.348795
143	0x3e7ca018	0.24670446
144	0xbeb7f19a	-0.35926515
145	0x3e92c848	0.28668427
146	0xbe527afb	-0.20554726
147	0x3f99dd04	1.2020574
148	0xbf233d76	-0.63765657
149	0x3fbebc76	1.4901264
150	0x3f0f03f0	0.55865383
151	0x3d66dd42	0.05636335
152	0xbf09c74f	-0.53819746
153	0x3d06e699	0.03293476
154	0xbf898655	-1.074412
155	0xbda4ee95	-0.080533184
156	0x3ed07e24	0.40721238
157	0xbdf09f99	-0.11749191
158	0x3efa8ca1	0.48935416
159	0x3e02173b	0.12704174
160	0xbe0127dc	-0.12612861
161	0x3f15857a	0.58406794
162	0xbf13ac07	-0.5768437
163	0xbee9b9c8	-0.45649552
164	0x3fb25536	1.3932254
165	0x3f500ae7	0.81266636
166	0x3ebcaa5f	0.36848733
167	0x3e732af5	0.23746856
168	0x3f93909e	1.1528509
169	0x3e5e73b0	0.21723819
170	0x3f1d69f6	0.6148981
171	0xbe763b68	-0.24046099
172	0x3dc5560d	0.096355535
173	0x3f6eb820	0.932497
174	0xbd00e3e4	-0.031467333
175	0xbee95822	-0.45575052
176	0x3db161e3	0.086612485
177	0x3f1282e4	0.57230973
178	0xbf073d50	-0.5282793
179	0x3f5f5adf	0.87248033
180	0xbdc71e5a	-0.09722586
181	0x3f31c7bd	0.694454
182	0x3e15f129	0.14642777
183	0x3f107ce7	0.56440586
184	0x3f8fac0e	1.1224382
185	0xbee45e89	-0.44603375
186	0xbf08ec09	-0.5348516
187	0xbcbd825a	-0.023133446
188	0x3f2e4b0e	0.68083274
189	0x3f46ef40	0.77708817
190	0x3e059bf0	0.13047767
191	0x3e2095ee	0.15682194
192	0xbf13d888	-0.57752275
193	0x3f0f679a	0.5601746
194	0x3e42a609	0.1900865
195	0xbe915202	-0.2838288
196	0xbdbec922	-0.09315707
197	0xbec7612b	-0.3894132
198	0x3e9ad433	0.3024002
199	0x3ef25021	0.47326759
200	0xbf66740f	-0.9002084
201	0x3e6f5f96	0.23376307
202	0xbd82a71f	-0.06379532
203	0xbe506919	-0.20352592
204	0xbe515ceb	-0.20445602
205	0xbeaafb5f	-0.33394906
206	0xbf0554d1	-0.52082545
207	0xbe6efce4	-0.23338658
208	0x3e8e6ae6	0.27815932
209	0xbd10f285	-0.035387535
210	0x3c7f7d8a	0.015593896
211	0x3d0509f9	0.032480214
212	0x3d4925fe	0.049108498
213	0x3f933f60	1.1503716
214	0x3eea4901	0.45758823
215	0xbf69c25d	-0.913122
216	0xbe62abf0	-0.22135901
217	0xbec8904c	-0.3917259
218	0xbe621d11	-0.220814
219	0x3cdff25b	0.027337244
220	0xbdc4026e	-0.09570776
221	0xbc61fde9	-0.013793447
222	0x3dd3423a	0.10315366
223	0xbecc2f4f	-0.39879844
224	0xbbe8c742	-0.0071038315
225	0xbf1aa887	-0.604134
226	0xbf457811	-0.7713633
227	0xbe472ccd	-0.19450684
228	0x3dff1d2d	0.12456737
229	0x3a438541	0.0007458516
230	0xbf40530c	-0.7512672
231	0x3e7a6c39	0.24455346
232	0x3f1241e7	0.5713181
233	0xbe8fbcb1	-0.28073648
234	0xbf1a7961	-0.6034146
235	0x3e63f315	0.22260697
236	0xbf48a553	-0.78377265
237	0xbf3feb5d	-0.7496851
238	0x3d954dab	0.072902046
239	0xbe28f754	-0.16500598
240	0xbe1f8f77	-0.15582071
241	0xbef4c0a8	-0.47803235
242	0x3e9fbf24	0.31200516
243	0x3ec5e587	0.38651678
244	0xbeb1c6ba	-0.3472193
245	0xbe10e7e9	-0.14150967
246	0x3f035148	0.512959
247	0xbd931217	-0.07181185
248	0x3efa6936	0.48908395
249	0x3d45b7a8	0.04827085
250	0xbe118b20	-0.14213228
251	0x3eb47349	0.35244206
252	0x3e9839a7	0.29731485
253	0xbf3ab528	-0.7293267
254	0xbf0c99a6	-0.5492195
255	0xbedf4369	-0.43606117

layers.1.linear.bias f4 [64]
0	0xbf81c9da	-1.0139725
1	0x3f275022	0.6535665
2	0xbf78dc27	-0.97210926
3	0xbf4078ff	-0.75184625
4	0xbca9a88c	-0.020710252
5	0x3d8d62d4	0.069036156
6	0xbcb09b3f	-0.021558402
7	0xbf0bbef9	-0.54588276
8	0xbfbecd5e	-1.4906423
9	0xbdf56736	-0.119825765
10	0xbfa1635d	-1.2608448
11	0xbf370dcc	-0.7150543
12	0x3eaa21b2	0.33228832
13	0xbd10d663	-0.035360705
14	0xbeb22768	-0.3479569
15	0xbf489c6e	-0.7836369
16	0xbef068ef	-0.46955058
17	0x3c6c2534	0.014413167
18	0xbefabc06	-0.48971575
19	0x3e02c7f7	0.12771593
20	0xbfa03181	-1.2515107
21	0xbf25410d	-0.64552385
22	0xbe33664d	-0.17519493
23	0xbfc5e23e	-1.5459669
24	0x3f74dfa3	0.9565374
25	0xbda51163	-0.08059957
26	0xbe6cbfa8	-0.23119986
27	0xbe3a18eb	-0.18173568
28	0xbe45b426	-0.19307002
29	0x3db2bee3	0.08727815
30	0xbf8f760a	-1.1207898
31	0x3cfaf9e4	0.030636735
32	0xbea37fa4	-0.3193332
33	0xbf413132	-0.7546569
34	0xbfaf688a	-1.3703778
35	0xbf75ec89	-0.9606405
36	0xbe7156ef	-0.23568319
37	0xbe955961	-0.29169753
38	0x3e67a707	0.2262231
39	0xbe2674db	-0.16255514
40	0xbe69edd2	-0.22844627
41	0x3e9fbdcb	0.31199488
42	0xc013df59	-2.310507
43	0xbe8cb8b9	-0.27484682
44	0xbe9956ac	-0.29948938
45	0xbf291b72	-0.66057503
46	0xbf0fbdf7	-0.5614924
47	0xbf5d5e02	-0.8647157
48	0xc004f801	-2.077637
49	0xbe3735bd	-0.17891593
50	0x3e36fe82	0.17870525
51	0x3e18249f	0.1485772
52	0xbfdd3b76	-1.7283771
53	0x3e068e5e	0.13140246
54	0xbe817b0d	-0.25289193
55	0xbeece285	-0.4626657
56	0xbea27c61	-0.3173552
57	0xbf76abdf	-0.96356004
58	0x3f6a9c94	0.9164517
59	0x3eb8fae4	0.36128914
60	0xbe21374d	-0.15743752
61	0xbfae206a	-1.3603642
62	0xbf614031	-0.87988573
63	0xbf5d4b46	-0.86442983

fc.weight f4 [2, 128]
0	0xbcdb2ef8	-0.026755795
1	0xbdcf8d1d	-0.10134337
2	0xbdf0be2e	-0.11755024
3	0x3d74a66d	0.05972903
4	0x3dc1c4c5	0.09461359
5	0x3e1e6512	0.15468243
6	0x3e943b0b	0.28951296
7	0xbd9bb2db	-0.07602473
8	0xbdb56d34	-0.088587195
9	0xbb7c6b2b	-0.0038516026
10	0xbe0ee31a	-0.1395382
11	0xbe15fc3c	-0.14647001
12	0xbc15cce9	-0.009143093
13	0x3d97f61f	0.07419991
14	0xbdd93cfd	-0.10607336
15	0x3ea15f46	0.31518
16	0xbb9c26d4	-0.004765371
17	0xbc806047	-0.015670909
18	0xbb9f5484	-0.00486237
19	0xbd8c215e	-0.06842302
20	0xbd91c6c7	-0.07117992
21	0xbe383048	-0.17987168
22	0x3c47aaf3	0.012186754
23	0xbd8d3e84	-0.068966895
24	0xbe64d49b	-0.22346728
25	0xbbd88864	-0.006608056
26	0xbabc207a	-0.001435294
27	0x3d928569	0.07154352
28	0xbe390418	-0.18067968
29	0x3e9dd335	0.308252
30	0xbe0919a5	-0.13388689
31	0x3e052600	0.13002777
32	0xbd6b3fe9	-0.057433996
33	0xbd331525	-0.043721337
34	0xbdbb8e22	-0.09157969
35	0x3e629483	0.22126965
36	0x3d069c56	0.032863937
37	0xbe026cda	-0.12736836
38	0x3e1f7056	0.15570197
39	0x3e3c3268	0.18378603
40	0x3d828f6a	0.0637501
41	0xbddf8816	-0.10914628
42	0xbe186c93	-0.14885168
43	0x3ddfb08b	0.10922345
44	0xbdd257a5	-0.10270623
45	0x3ca3e2b8	0.020005569
46	0xbd1097fa	-0.035301186
47	0xbd426f40	-0.047469378
48	0xbe2c6368	-0.16834795
49	0x3ce6b68c	0.028163217
50	0xbc628da1	-0.013827712
51	0xbdf6ba93	-0.12047305
52	0xbd7fa5ca	-0.06241397
53	0xbd5ca0ac	-0.053864166
54	0xbd94a789	-0.07258517
55	0xbd4ad30f	-0.049517687
56	0x3d0d53a7	0.034503605
57	0xbe03a681	-0.12856485
58	0x3ec694dd	0.3878545
59	0x3e225cf0	0.15855765
60	0xbc246af6	-0.010035267
61	0x3cb2bcde	0.021818575
62	0xbe39eb92	-0.18156269
63	0xbd9905f3	-0.07471838
64	0x3e4e5d37	0.20152746
65	0x3f036280	0.51322174
66	0x3ebd7643	0.3700429
67	0xbf72bbd2	-0.9481784
68	0xbe394eb6	-0.18096432
69	0xbf889f66	-1.0673645
70	0xbf883efa	-1.0644219
71	0xbc156b8d	-0.00911988
72	0x3f4f6c88	0.8102498
73	0x3e7289d7	0.23685394
74	0x3e5d3495	0.2160209
75	0x3e898956	0.26862592
76	0xbd954dbf	-0.072902195
77	0xbda6d2e2	-0.081456915
78	0x3ec49b84	0.383999
79	0xbf7613f0	-0.9612417
80	0xbd631f12	-0.055449553
81	0xbb3cad0d	-0.002878967
82	0xbc7613ef	-0.015019401
83	0x3e40c4a7	0.18825017
84	0x3de233dc	0.11045048
85	0x3ec87454	0.3915125
86	0xbd0049f0	-0.031320512
87	0x3f892b10	1.0716267
88	0x3f228dc6	0.6349758
89	0x3c0beba6	0.00854007
90	0xbd2165d3	-0.039403748
91	0xbd0e8c2e	-0.034801655
92	0x3e716103	0.23572163
93	0xbf505fe6	-0.8139633
94	0x3e759142	0.23981193
95	0xbfba104f	-1.4536227
96	0xbce80fc5	-0.028327832
97	0x3dff6c06	0.12471776
98	0x3ea8f95a	0.3300274
99	0xbf5e6c03	-0.8688356
100	0xbb892077	-0.0041847783
101	0x3e032c18	0.12809789
102	0x3f6d884a	0.92786086
103	0x3f8bbf50	1.0917759
104	0xbbcef5a2	-0.006315903
105	0x3f1514ff	0.5823516
106	0x3f497a7e	0.78702533
107	0xbee95457	-0.4557216
108	0x3f82128b	1.0161909
109	0xbcd84980	-0.026402235
110	0x3e1abffd	0.151123
111	0x3e8d32f8	0.2757795
112	0x3ed0af9b	0.40758976
113	0xbdb0bfb4	-0.086303145
114	0xbf8256ea	-1.0182774
115	0x3e8f5f28	0.28002286
116	0x3ec1e8bb	0.37872872
117	0x3e6fb5be	0.23409173
118	0x3ebc1173	0.36732063
119	0x3b001400	0.001954317
120	0xbd754239	-0.059877608
121	0x3e8057b4	0.25066912
122	0xbf460ea8	-0.77366114
123	0xbe939fe1	-0.28832915
124	0x3f8efbdc	1.1170611
125	0x3f7fc9a4	0.99917054
126	0x3e932f37	0.2874696
127	0x3e2e758f	0.17037033
128	0x3e1d433a	0.15357676
129	0x3e7396c6	0.23787984
130	0x3e371727	0.17879926
131	0xbe3ad88b	-0.18246667
132	0x3c796d25	0.015223776
133	0xbe09025d	-0.13379808
134	0xbe2d650c	-0.16933078
135	0x3c9039f3	0.017605757
136	0x3e0aaa1f	0.13541459
137	0x3e0f6de9	0.14006771
138	0x3d2e9651	0.04262382
139	0x3e0248f6	0.12723145
140	0xbde84139	-0.11340565
141	0x3daedef1	0.085386164
142	0x3decd9ef	0.11565005
143	0xbeab6a0f	-0.33479354
144	0x3c1c6706	0.009546047
145	0xbcbd2010	-0.023086578
146	0x3c8fef7f	0.017570255
147	0x3dbe4aed	0.09291635
148	0x3d72b355	0.059253056
149	0x3d99661f	0.07490181
150	0xbc6119fc	-0.013739105
151	0x3db1dc63	0.086846136
152	0x3e033ee2	0.12816957
153	0x3cd037fd	0.025417322
154	0xbb890608	-0.004181627
155	0x3a4b6ffb	0.0007760522
156	0x3d8b99d5	0.068164505
157	0xbeb98bc6	-0.3623945
158	0x3df249e3	0.11830499
159	0xbe07fa0a	-0.13278976
160	0xbcdf0c22	-0.027227465
161	0x3d537dd6	0.05163368
162	0x3dab536a	0.08365519
163	0xbe4d95ca	-0.20076671
164	0xbc8eee8a	-0.017447729
165	0x3da23e11	0.079219945
166	0xbd9b4e34	-0.075832754
167	0xbe464220	-0.19361162
168	0x3d16c6fb	0.036810856
169	0x3e06b0dc	0.13153404
170	0x3e66b9b2	0.22531775
171	0xbdf2ceda	-0.1185586
172	0x3dae03b7	0.08496802
173	0x3ce44633	0.027865505
174	0x3d862846	0.0655065
175	0x3e1ef613	0.15523557
176	0x3e377def	0.17919134
177	0x3d445e23	0.04794134
178	0xbdffadc4	-0.12484315
179	0x3d979c52	0.074028626
180	0x3e26a27e	0.16272923
181	0x3d624797	0.055244055
182	0x3e172ae6	0.14762458
183	0xbcd16f32	-0.025565717
184	0xbc6890a7	-0.014194644
185	0x3e7d6c0f	0.24748252
186	0xbee3122a	-0.44349796
187	0xbe01f42f	-0.12690805
188	0xbb9ff534	-0.0048815254
189	0x3e03de7a	0.12877837
190	0x3dca4075	0.098755755
191	0x3da5ac8f	0.080895536
192	0xbe84fdd8	-0.25974917
193	0xbf01aa7a	-0.5065075
194	0xbeed4f0c	-0.4634937
195	0x3f7cd11a	0.98756564
196	0x3df1551b	0.11783811
197	0x3f82d30d	1.0220658
198	0x3f888889	1.0666667
199	0xbe00e12c	-0.12585896
200	0xbf50f0c6	-0.8161739
201	0xbe103ea8	-0.14086401
202	0xbe9eb2de	-0.3099584
203	0xbe5722f5	-0.21009429
204	0x3dda9aa3	0.10674026
205	0xbd2dd5e9	-0.04244033
206	0xbe84b3c1	-0.2591839
207	0x3f4f6ea0	0.81028175
208	0xbcd8f332	-0.026483152
209	0x3bb6b241	0.0055754487
210	0xbc9990ad	-0.018745745
211	0xbe80d5e6	-0.25163192
212	0xbe38468f	-0.17995666
213	0xbee10249	-0.43947056
214	0x3c91b3dc	0.017785959
215	0xbf83882f	-1.0275935
216	0xbf33d4e4	-0.7024672
217	0x3acb2af2	0.001550047
218	0x3da96016	0.0827028
219	0x3b46a994	0.0030313479
220	0xbe997e26	-0.29979056
221	0x3f64c6ed	0.89366037
222	0xbe78d6d6	-0.24300703
223	0x3fb7a7d8	1.4348097
224	0xbdbfe6cd	-0.09370194
225	0xbe50efbf	-0.20403956
226	0xbec530c6	-0.38513774
227	0x3f5b2a37	0.8561129
228	0x3e034d66	0.12822494
229	0xbe34a311	-0.1764033
230	0xbf607000	-0.876709
231	0xbf86141f	-1.047489
232	0x3c5036e4	0.012708399
233	0xbf355cbe	-0.7084464
234	0xbf583cd6	-0.8446783
235	0x3ef69f9e	0.48168653
236	0xbf828bb0	-1.0198879
237	0xbd9758c5	-0.07389978
238	0xbddf9e8d	-0.10918913
239	0xbeaaa3c0	-0.33328056
240	0xbed76ed0	-0.4207673
241	0xbca5d448	-0.020242825
242	0x3f80d2de	1.0064352
243	0xbeaee52c	-0.3415922
244	0xbed429db	-0.41438183
245	0xbe3b040e	-0.18263265
246	0xbee2b11d	-0.44275752
247	0xbe246f01	-0.1605797
248	0x3cbf2ff0	0.023338288
249	0xbe79d171	-0.24396302
250	0x3f484d7b	0.78243226
251	0x3e9a88a3	0.3018237
252	0xbf8d3f40	-1.1034927
253	0xbf5f4cf5	-0.872268
254	0xbeb042a2	-0.34425837
255	0xbda073e4	-0.078346044

fc.bias f4 [2]
0	0xbf8a8a3c	-1.0823436
1	0x3f80d2bb	1.006431
