experiment/saml_20/GraphSAGE/GraphSAGE_checkpoint.pt (torch_old, 46826 bytes, 6 tensors)

gcn_layers.0.layer.weight f4 [64, 46]
0.27888387 0.17336811 -0.04695075 -0.16164525 0.14011607 -0.026061727 -0.08179611 -0.20453975
0.123148955 -0.005087434 0.05920525 -0.039228674 0.06532729 -0.16145776 -0.3367055 0.28468567
-0.07669095 0.05406135 0.16513993 0.10346744 0.16531482 0.018864019 0.018521722 0.41883045
0.4542665 0.06769605 0.01266811 -0.2140594 -3.0008204 -0.6237104 0.13747902 0.074694246
0.26033327 -0.0037516973 0.046016086 -0.75261205 -0.5777965 0.16590928 -1.8423973 -1.889034
-0.25493672 -2.1713588 -0.10652932 0.30547377 -0.5138827 -1.659315 0.028692145 -0.43480945
-0.9802376 -0.5428332 -0.84412247 0.54057956 0.65860367 0.5520808 0.09249617 0.5112267
-0.5631149 0.37541237 -0.47026014 -0.30541363 0.22339855 0.011903434 -0.41404596 -0.053650733
-0.2553903 0.34839496 -0.33003262 0.80893666 -0.2667508 0.2561216 0.31503472 0.18858182
-0.05506169 -0.15237664 -0.17387204 -0.36053184 -0.35548642 -0.10140229 -0.51371306 0.3035962
-0.4524519 -0.27075732 -0.25360328 -0.16993192 -0.061792213 -0.36102566 -0.28607056 -0.5257857
0.1891024 0.072291076 -0.4394264 -0.5401307 0.14064704 -0.01250862 -0.10880441 0.20111594
-0.0017083071 0.02713352 0.41612533 -0.049588643 -0.074355714 0.6576159 0.5035584 0.2585681
0.15030782 -0.043066014 -0.13674428 0.1713255 -1.1297847 -0.19914332 0.23325793 0.21331713
0.25845554 -0.43858173 0.34518626 0.2462741 -0.27895275 -0.3138795 0.37580308 0.07380261
-0.30720067 0.431045 0.83664626 -0.45634973 -0.34889346 0.15533169 -0.09502051 0.032818902
-0.19365992 -0.1555688 -0.027099695 -0.151465 -0.23471914 0.14450909 0.5320584 0.3641073
-0.23951763 0.24432851 0.27024063 -0.1831581 -1.0907409 -0.41609198 0.28111747 0.25560656
0.14456567 -0.24085511 -0.32404834 -0.23762898 -0.48480722 0.35891822 -0.0875791 -0.25470865
-0.07642861 0.23785613 -0.18624185 0.23117709 0.12451072 0.0504037 -0.15182772 0.111435406
-0.18341172 0.24228607 0.2142365 -0.3392973 0.031085165 1.2884849 -1.7345102 -0.61992323
0.1639128 0.12733375 0.12262533 -0.015672421 -0.4370771 -0.5805302 -0.2312428 0.59317607
-0.6202264 -1.137917 0.02342195 -0.88403404 -0.99198675 -0.24369858 -0.2526644 -1.4988205
-0.63297856 -0.25051683 0.061374117 -0.3406316 0.65381277 1.300449 0.36626327 -0.070637025
-0.5248617 -0.2380592 -0.16973746 0.28445348 0.13840525 -0.10500897 0.0028267202 1.1570231
1.293101 0.84679985 1.7142072 0.19041745 0.069080934 -0.2826066 0.85874826 -0.6729047
-0.029675135 0.20813489 -0.08913488 0.54736745 0.21148707 0.13059929 -1.699263 -0.02844377
-0.34154546 -1.4159738 -0.7207723 -0.43474048 0.14527842 -0.07865325 0.2790212 -0.31184226
0.055475954 -0.24813528 -0.15542051 -0.14704245 -0.28740937 -0.33811766 1.5239292 0.6529436
-0.28486058 0.3793753 0.43329734 -0.7152403 -0.5655682 0.70666486 0.4879229 0.4733847
0.044066124 0.5072748 -0.15861838 -0.35007304 -0.12284521 0.17861149 -0.07187345 -0.033920266
-0.14826044 0.48274648 0.28001586 0.0209746 -0.29982302 0.94502306 0.18710458 6.785156e-05
00000000: dec9 8e3e 6987 313e 6e4f 40bd 5586 25be
00000010: 967a 0f3e 677f d5bc b884 a7bd de72 51be
00000020: 8535 fc3d 7db4 a6bb 3481 723d 3fae 20bd
00000030: 50ca 853d 2f55 25be aa64 acbe 52c2 913e
00000040: 2510 9dbd 6f6f 5d3d 711a 293e bde6 d33d
00000050: 4a48 293e b788 9a3c deba 973c f270 d63e
00000060: 9e95 e83e 3aa4 8a3d e88d 4f3c 6332 5bbe
00000070: 710d 40c0 7cab 1fbf 4dc7 0c3e 4cf9 983d
00000080: 674a 853e 09df 75bb 5d7b 3c3d 2fab 40bf
00000090: 79ea 13bf 1fe4 293e add3 ebbf decb f1bf
000000a0: 1187 82be 8bf7 0ac0 0b2c dabd 0f67 9c3e
000000b0: d18d 03bf 6f64 d4bf ca0b eb3c 589f debe
000000c0: daf0 7abf 1ef7 0abf 6918 58bf 6c63 0a3f
000000d0: 409a 283f 2b55 0d3f a26e bd3d c1df 023f
000000e0: 4c28 10bf 0d36 c03e f0c5 f0be 2d5f 9cbe
000000f0: 97c2 643e 9f06 433c d5fd d3be dfc0 5bbd
00000100: 84c2 82be d360 b23e 09fa a8be 7916 4f3f
00000110: 9093 88be 5f22 833e 3b4c a13e 981b 413e
00000120: 5e88 61bd 9f08 1cbe 830b 32be a197 b8be
00000130: 5102 b6be 01ac cfbd b382 03bf f670 9b3e
00000140: c7a7 e7be b4a0 8abe 4ad8 81be a202 2ebe
00000150: d519 7dbd 5bd8 b8be d777 92be e499 06bf
00000160: 0fa4 413e 580d 943d 7ffc e0be 0146 0abf
00000170: c705 103e f4f0 4cbc d9d4 debd 56f1 4d3e
00000180: 46e9 dfba 1e47 de3c 610e d53e 761d 4bbd
00000190: cf47 98bd 8459 283f 34e9 003f 0a63 843e
000001a0: 4bea 193e fd65 30bd b106 0cbe f46f 2f3e
000001b0: c99c 90bf 3aec 4bbe 2bdb 6e3e ce6f 5a3e
000001c0: 4954 843e c98d e0be 41bc b03e 472f 7c3e
000001d0: e5d2 8ebe d0b4 a0be 4369 c03e d325 973d
000001e0: 6849 9dbe eeb1 dc3e 732e 563f aca6 e9be
000001f0: 2aa2 b2be 450f 1f3e 1d9a c2bd 1d6d 063d
00000200: c94e 46be 6d4d 1fbe 2e00 debc a419 1bbe
00000210: 375a 70be 31fa 133e fb34 083f 466c ba3e
00000220: 1c44 75be 4131 7a3e fb5c 8a3e cc8d 3bbe
00000230: 669d 8bbf 020a d5be a1ee 8f3e ddde 823e
00000240: 0609 143e b9a2 76be aae9 a5be 0355 73be
00000250: a738 f8be 21c4 b73e ac5c b3bd 2c69 82be
00000260: 9a86 9cbd 8f90 733e 2fb6 3ebe b0b9 6c3e
00000270: 7aff fe3d 1c74 4e3d ba78 1bbe 3f38 e43d
00000280: 48d0 3bbe d719 783e d060 5b3e 60b8 adbe
00000290: 51a6 fe3c 13ed a43f 6e04 debf 4ab3 1ebf
000002a0: c2d8 273e c763 023e fd22 fb3d 7363 80bc
000002b0: 92c8 dfbe a19d 14bf eaca 6cbe 63da 173f
000002c0: 28c7 1ebf 44a7 91bf 64df bf3c 0e50 62bf
000002d0: d8f2 7dbf 1f8c 79be 3a5d 81be 5ad9 bfbf
000002e0: e20a 22bf be43 80be 6d63 7b3d 4467 aebe
000002f0: 4660 273f 1d75 a63f dc86 bb3e 25aa 90bd
00000300: 565d 06bf cac5 73be a8cf 2dbe e3a3 913e
00000310: 1bba 0d3e f10e d7bd 7f40 393b 5519 943f
00000320: 5584 a53f e0c7 583f 246b db3f cbfc 423e
00000330: 4e7a 8d3d d0b1 90be edd6 5b3f 7b43 2cbf
00000340: 4519 f3bc 5021 553e 598c b6bd 4620 0c3f
00000350: 1190 583e d2bb 053e 7381 d9bf e902 e9bc
00000360: 0cdf aebe a13e b5bf 8984 38bf 4e96 debe
00000370: dec3 143e f514 a1bd dedb 8e3e caa9 9fbe
00000380: c13a 633d 2d17 7ebe 8e26 1fbe 4c92 16be
00000390: 5227 93be c21d adbe 1d10 c33f 5027 273f
000003a0: 3fd9 91be 7b3d c23e 26d9 dd3e fd19 37bf
000003b0: 14c9 10bf fde7 343f 08d1 f93e 7b5f f23e
000003c0: ae7e 343d c3dc 013f db6c 22be c63c b3be
000003d0: 4596 fbbd eee5 363e 6332 93bd faef 0abd
000003e0: 96d1 17be 8c2a f73e 3d5e 8f3e edd2 ab3c
000003f0: 6782 99be 08ed 713f 5898 3f3e 874b 8e38

gcn_layers.0.layer.bias f4 [64]
-0.48241666 -0.60532033 -0.896597 -0.2662119 0.6295003 -1.7523279 -0.27832767 -0.9524189
-0.095610276 0.08683175 -1.4971015 -0.2797656 -0.40929914 0.0023997356 0.2954353 -0.55112815
-0.91735625 0.19821775 0.13228565 -0.76895195 -1.375566 -1.6881267 -1.1362491 -1.5304846
-1.2811983 0.15801038 -0.7394927 0.16612652 -0.22025736 -0.30863878 -0.3943447 -0.35838974
-0.35596284 -0.29900864 0.08329352 -0.9184634 -0.15551636 -0.26833278 -0.67525166 -0.22057478
-1.695281 -0.2548428 -0.5442014 -0.0562331 -0.17952842 0.45453677 -0.41808918 -1.6016383
-0.723726 0.07349496 -0.40214854 -1.6831597 -0.4667135 -0.22854237 -0.047031473 -1.3278271
-0.8470239 0.095681876 -0.9444177 -0.6192769 -0.43884036 -0.17205778 -0.7562693 -0.32414702
00000000: 51ff f6be 46f6 1abf 6287 65bf ed4c 88be
00000010: ef26 213f 484c e0bf f780 8ebe bad1 73bf
00000020: 52cf c3bd d8d4 b13d 06a1 bfbf 703d 8fbe
00000030: a88f d1be e244 1d3b 4c43 973e bc16 0dbf
00000040: dcd7 6abf 98f9 4a3e e475 073e 09da 44bf
00000050: 8c12 b0bf 8914 d8bf 9c70 91bf ebe6 c3bf
00000060: 4efe a3bf 79cd 213e 654f 3dbf 121d 2a3e
00000070: 258b 61be e705 9ebe 8ce7 c9be dc7e b7be
00000080: c340 b6be a917 99be cb95 aa3d 6b20 6bbf
00000090: ae3f 1fbe ea62 89be 4bdd 2cbf 5bde 61be
000000a0: f8fe d8bf c17a 82be c850 0bbf ae54 66bd
000000b0: 4cd6 37be 0bb9 e83e c90f d6be 7c02 cdbf
000000c0: 1b46 39bf 8784 963d 6ae6 cdbe c771 d7bf
000000d0: 12f5 eebe 0307 6abe 13a4 40bd 3df6 a9bf
000000e0: 8fd6 58bf dcf4 c33d 5cc5 71bf ee88 1ebf
000000f0: afaf e0be ea2f 30be dd9a 41bf 99f6 a5be

gcn_layers.1.layer.weight f4 [64, 128]
0.30969897 0.057859153 -0.5249102 0.6304867 -0.06151551 0.3855496 0.2773103 -0.0782674
-0.1350473 0.33177269 0.36000034 -0.27859536 0.36306456 0.059986044 -0.48467278 0.508763
0.29695788 -0.076573946 -0.16980396 0.6191901 0.5443517 0.54584944 0.62418467 0.6888449
-0.0155128455 0.004912745 0.47675088 0.10690661 -0.13906828 0.22477022 -0.5370193 -0.060388803
0.053449627 -0.09322271 -0.6235674 -0.037004437 -0.1408674 -0.027870676 -0.01280126 -0.44385886
0.39747447 0.0738456 -0.28451627 -0.12289841 0.09279159 -0.29264268 0.2897111 0.3243396
-0.019583015 0.07467603 -0.35039294 0.58907676 0.25567046 -0.38541037 0.034403373 0.08789678
0.13146926 0.02414033 -0.09107203 0.37563193 0.15095195 0.23376149 -0.013196422 -0.6114837
-0.096180305 -1.0427485 0.018334903 -0.13607201 -0.079979606 0.48614904 -0.13771354 -0.1207572
-0.15485302 -0.009260361 -0.093464226 -0.9712813 -0.33780345 -0.11089734 -0.13187037 0.3244854
0.13681604 -0.08800204 -0.27892575 0.14969839 -0.4261752 0.6936214 0.033730194 0.40131
0.09780974 -0.14252643 -0.21163651 -0.3718644 -0.82815284 0.038484737 -0.34954748 -0.24593958
-0.11292446 0.047349572 -0.9629854 -0.4807865 -0.32513955 -0.113954164 0.2087224 -0.0471719
0.34368324 0.21872772 0.09606686 -0.07052852 -0.48963782 -0.4601373 -0.26607105 -0.01364421
0.031419877 -0.52157533 -0.11025732 0.24752739 -0.20652218 -0.70791274 -0.36512443 0.33843574
-0.5368237 0.138593 -0.46350786 0.14664288 -0.63698846 0.11921476 -0.11037217 -0.010595127
0.35351017 0.62965566 -0.014922907 0.86530304 -0.5594201 0.12281609 0.24519394 0.18799827
0.3195421 -0.019802 0.078176886 -0.118582375 0.56012183 -0.052431036 -0.053546086 0.48197606
0.15195307 -0.66799134 -0.013390165 0.74828476 0.6257775 0.07832779 0.21236825 0.9314814
0.65667975 0.14574312 1.1407113 0.047258127 0.21581078 0.0033402792 -0.55969805 0.24981096
0.29198226 0.23923874 -0.2571053 -0.6667487 0.23677075 1.5610335 0.22244464 0.20401813
0.016481506 0.66168684 -0.06609099 0.20505017 0.13017727 -0.1646638 0.39638954 0.5043556
-0.4322351 -0.19891179 -0.096425205 0.47867155 0.053240776 -0.2533922 0.41867036 0.48292622
2.312284 -0.024346722 0.2094027 0.13515562 -0.4293624 0.2159562 0.33353868 -0.87837374
0.13903391 -0.120234795 0.23918241 0.4757515 -0.2279616 0.06743116 -0.013794968 -1.1006019
0.1603924 0.07184895 0.14209147 0.105698206 -0.17528057 -0.8681375 -0.53116614 -0.10602705
-0.10688304 -0.44985455 0.04398052 0.11387071 -0.24653652 0.006295809 0.63254094 0.6528776
0.20537668 0.22124977 0.04706363 -0.0834201 -0.4320278 0.217978 0.054977354 -0.25728583
0.56124496 0.3322243 -1.046259 1.7784393 0.0059348717 0.110270284 -0.19578348 -0.04861138
0.5659435 -0.16363147 0.09596922 0.26611707 -0.14069404 -0.348745 0.42736658 0.11909721
0.2797072 1.1703969 -0.23470567 -0.11350803 -0.23965918 -0.21611798 -0.20380937 -0.2130694
1.5938936 0.24285847 0.13518432 -0.18451422 -0.48210785 -0.36167255 -0.11266225 0.44541198
00000000: dd90 9e3e b8fd 6c3d 8460 06bf 9467 213f
00000010: b0f7 7bbd c266 c53e 9efb 8d3e a94a a0bd
00000020: d749 0abe 1cde a93e f751 b83e 0da4 8ebe
00000030: 99e3 b93e edb3 753d 0827 f8be 4b3e 023f
00000040: dd0a 983e cdd2 9cbd 17e1 2dbe 3e83 1e3f
00000050: a25a 0b3f cabc 0b3f 91ca 1f3f 2458 303f
00000060: 9729 7ebc 18fb a03b b118 f43e daf1 da3d
00000070: ea67 0ebe 2a2a 663e 197a 09bf 405a 77bd
00000080: ffed 5a3d 8ceb bebd 1da2 1fbf f791 17bd
00000090: 8b3f 10be 0b51 e4bc 60bc 51bc 7841 e3be
000000a0: c681 cb3e 5d3c 973d 1eac 91be 29b2 fbbd
000000b0: 8409 be3d 43d5 95be 0355 943e d70f a63e
000000c0: 8f6c a0bc bfef 983d b466 b3be bccd 163f
000000d0: 3de7 823e 8254 c5be 8dea 0c3d 3a03 b43d
000000e0: e19f 063e f1c1 c53c f983 babd d452 c03e
000000f0: 2693 1a3e 2c5f 6f3e ce35 58bc 328a 1cbf
00000100: 2efa c4bd c878 85bf 1433 963c 7656 0bbe
00000110: 59cc a3bd 87e8 f83e c704 0dbe 8d4f f7bd
00000120: ca91 1ebe c5b8 17bc 2c6a bfbd e4a5 78bf
00000130: 93f4 acbe 251e e3bd 0709 07be f322 a63e
00000140: 8119 0c3e 6a3a b4bd 5bcf 8ebe 894a 193e
00000150: a333 dabe 2c91 313f ac28 0a3d 8178 cd3e
00000160: 7950 c83d 73f2 11be 3eb7 58be 0365 bebe
00000170: d301 54bf 2ca2 1d3d e3f7 b2be 96d7 7bbe
00000180: f044 e7bd a0f1 413d 3686 76bf a629 f6be
00000190: b178 a6be cd60 e9bd 53bb 553e 5237 41bd
000001a0: 40f7 af3e 29fa 5f3e b4be c43d 4271 90bd
000001b0: cfb1 fabe 1e97 ebbe 773a 88be f78b 5fbc
000001c0: 21b2 003d f685 05bf 97ce e1bd d277 7d3e
000001d0: 8d7a 53be c539 35bf 97f1 babe 7347 ad3e
000001e0: 476d 09bf 53eb 0d3e e750 edbe 8d29 163e
000001f0: ad11 23bf de26 f43d ce0a e2bd 2f97 2dbc
00000200: 49ff b43e 1d31 213f 357f 74bc 8084 5d3f
00000210: 2836 0fbf 0187 fb3d 1f14 7b3e 9e82 403e
00000220: 069b a33e ce37 a2bc 341b a03d 51db f2bd
00000230: 2564 0f3f edc1 56bd 2453 5bbd 91c5 f63e
00000240: 9699 1b3e 7b01 2bbf 6c62 5bbc 978f 3f3f
00000250: f432 203f 526a a03d 1077 593e 9175 6e3f
00000260: 2a1c 283f af3d 153e d402 923f bd91 413d
00000270: 80fd 5c3e 96e8 5a3b 5f48 0fbf 72ce 7f3e
00000280: b37e 953e 00fb 743e 4ea3 83be 0bb0 2abf
00000290: 0874 723e f2cf c73f 87c8 633e 21ea 503e
000002a0: 3904 873c 4f64 293f b75a 87bd acf8 513e
000002b0: 314d 053e a19d 28be 92f3 ca3e 731d 013f
000002c0: eb4d ddbe 88af 4bbe 947a c5bd 7014 f53e
000002d0: 0013 5a3d 9fbc 81be f65b d63e 1b42 f73e
000002e0: 76fc 1340 c772 c7bc a96d 563e 3c66 0a3e
000002f0: 63d5 dbbe 9f23 5d3e 95c5 aa3e 1add 60bf
00000300: e85e 0e3e a93d f6bd 3cec 743e b395 f33e
00000310: c46e 69be 5919 8a3d 4a04 62bc 86e0 8cbf
00000320: e83d 243e 8b25 933d 6d80 113e 4d78 d83d
00000330: c07c 33be 423e 5ebf 81fa 07bf b624 d9bd
00000340: 7fe5 dabd 5653 e6be eb24 343d 0c35 e93d
00000350: 1274 7cbe 134d ce3b 34ee 213f fd22 273f
00000360: 444e 523e 4d8f 623e cbc5 403d 28d8 aabd
00000370: bf32 ddbe a035 5f3e ef2f 613d f8ba 83be
00000380: c0ad 0f3f 4e19 aa3e d1eb 85bf e6a3 e33f
00000390: 5079 c23b 63d5 e13d 777b 48be ba1c 47bd
000003a0: ace1 103f 028f 27be 838b c43d 7f40 883e
000003b0: 1912 10be b48e b2be cbcf da3e 3de9 f33d
000003c0: c835 8f3e 91cf 953f af56 70be e676 e8bd
000003d0: 3769 75be 084e 5dbe 67b3 50be dd2e 5abe
000003e0: b504 cc3f e4af 783e c26d 0a3e 4cf1 3cbe
000003f0: d7d6 f6be 252d b9be 77bb e6bd 0a0d e43e

gcn_layers.1.layer.bias f4 [64]
-0.6320093 -0.38190055 0.14017901 -0.41284844 -0.15422599 -0.012658547 -0.19944873 -0.0893356
-0.2724255 -0.10644706 -0.75653255 0.11822818 -0.08271926 -0.054307327 0.0067134495 -0.13271344
-0.32630727 0.0073612053 -0.013415638 -0.4411759 -0.06604327 -0.977957 -0.35947663 -0.31307578
-0.20083834 -0.033169672 -0.058387358 -0.47545746 -0.6647199 -0.30222932 0.20881426 -0.5360017
-0.52722555 -0.08373013 -0.10575539 0.0021343906 -0.27027848 -0.06068757 0.320345 -0.13886258
-0.07609203 0.0036771747 -0.111680515 0.19350426 0.01884508 -0.17875977 -0.19959745 -0.14196943
-0.44305226 -0.04117 -0.37072393 -0.8647276 -0.0628041 -0.24424101 -0.15194581 -0.52180475
-0.7435583 -0.065775506 -0.21428035 -0.0749356 -0.3476896 0.022088934 -0.5053611 0.22520839
00000000: 5dcb 21bf 7888 c3be 168b 0f3e df60 d3be
00000010: 6bed 1dbe cb65 4fbc 4a3c 4cbe 95f5 b6bd
00000020: 5b7b 8bbe eb00 dabd 1eac 41bf 9e21 f23d
00000030: b768 a9bd 5c71 5ebd 7ffc db3b 08e6 07be
00000040: bf11 a7be 4436 f13b 44cd 5bbc cfe1 e1be
00000050: b241 87bd 645b 7abf 520d b8be 784b a0be
00000060: 91a8 4dbe ecdc 07bd 9527 6fbd 296f f3be
00000070: 152b 2abf cdbd 9abe 68d3 553e 6837 09bf
00000080: 41f8 06bf b47a abbd 4896 d8bd 22e1 0b3b
00000090: f161 8abe 8893 78bd 4304 a43e fe31 0ebe
000000a0: 23d6 9bbd c1fc 703b c1b8 e4bd fb25 463e
000000b0: ff60 9a3c cd0c 37be 4663 4cbe 6f60 11be
000000c0: bfd7 e2be e0a1 28bd 87cf bdbe ca5e 5dbf
000000d0: 709f 80bd 511a 7abe af97 1bbe ff94 05bf
000000e0: d659 3ebf 4fb5 86bd 4f6c 5bbe d677 99bd
000000f0: 5f04 b2be daf3 b43c 585f 01bf 079d 663e

fc.weight f4 [2, 64]
-0.15136147 -0.07581691 -0.0046968386 -0.05890701 0.09079291 -0.31571853 -0.3347991 -0.08716051
-0.052620113 -0.003037942 -0.06890395 0.3004061 -0.031563714 -0.40801698 -0.5944526 -0.16507989
0.07238711 -0.12996359 -0.096452236 0.03846074 0.08977655 -0.16262572 0.008142037 -0.37866187
0.015724782 0.077874534 -0.103823096 -0.01403669 -0.038798332 0.17356068 -0.79275256 -0.24208117
0.07876431 -0.016654931 -0.008828607 -0.61726576 0.1942473 0.08315457 0.11083854 0.06444139
-0.06708222 0.042562157 0.057894822 0.11389414 0.028809749 -0.13769679 -0.30658513 -0.033596735
0.009161732 -0.1194332 -0.13447675 -0.022037208 -0.07794121 -0.08667987 -0.05586732 -0.0097883
-0.10068636 -0.31752247 -0.2684544 -0.5069749 -0.3842879 0.05161969 -0.19007178 0.11361435
0.16629887 0.026235895 -0.08759913 -0.033445653 0.012774009 0.3290311 0.29743752 -0.031779565
-0.002067665 0.038137488 0.17979808 -0.17145392 -0.011969801 0.38073903 0.6871992 0.19783036
0.1188048 -0.07756586 -0.059049595 0.07067454 0.075566135 0.13457502 0.05014438 0.36658776
0.015672943 0.108892135 -0.06849367 -0.05857459 -0.0033137265 -0.17791967 0.69152874 0.1625477
-0.05496448 0.007744423 -0.002082542 0.74026304 -0.09637874 0.07325545 -0.095078595 0.037716143
-0.027202034 0.05456629 0.041370325 -0.13320667 0.067984626 0.064974375 0.30552465 -0.0019494012
-0.028371988 -0.0670778 0.099199094 0.15607145 0.08035472 -0.0432696 -0.010466395 0.07229903
-0.07599234 0.13760614 0.33630925 0.43860438 0.55683535 0.072858736 0.07535781 -0.032677222
00000000: 80fe 1abe e545 9bbd f0e7 99bb 7a48 71bd
00000010: a2f1 b93d dca5 a1be ca6a abbe 3681 b2bd
00000020: 3088 57bd 3618 47bb 841d 8dbd d4ce 993e
00000030: f448 01bd 9ae7 d0be 0c2e 18bf b40a 29be
00000040: b13f 943d 2d15 05be c088 c5bd 0289 1d3d
00000050: c5dc b73d 5b87 26be 2e66 053c f8df c1be
00000060: 42d1 803c af7c 9f3d 34a1 d4bd 25fa 65bc
00000070: 00eb 1ebd e4b9 313e d5f1 4abf 20e4 77be
00000080: 2f4f a13d ec6f 88bc dda5 10bc 2105 1ebf
00000090: c4e8 463e f14c aa3d 51ff e23d d9f9 833d
000000a0: 6762 89bd a855 2e3d 1f23 6d3d 5541 e93d
000000b0: 6c02 ec3c 6300 0dbe baf8 9cbe bb9c 09bd
000000c0: 171b 163c 6599 f4bd 46b4 09be 6087 b4bc
000000d0: a49f 9fbd 3785 b1bd 22d5 64bd 1b5f 20bc
000000e0: a634 cebd 4e92 a2be db72 89be 1bc9 01bf
000000f0: 62c1 c4be 2b6f 533d 2da2 42be a4ae e83d
00000100: 404a 2a3e a9ec d63c 2c67 b3bd 4ffe 08bd
00000110: 144a 513c c476 a83e bb49 983e 4a2b 02bd
00000120: aa81 07bb 0e36 1c3d fd1c 383e 9e91 2fbe
00000130: fc1c 44bc 3af0 c23e 49ec 2f3f 0b94 4a3e
00000140: ee4f f33d d9da 9ebd fddd 71bd d0bd 903d
00000150: 6bc2 9a3d 09ce 093e 3264 4d3d 64b1 bb3e
00000160: 8b64 803c d702 df3d 6946 8cbd e9eb 6fbd
00000170: 1b2b 59bb 9330 36be 0708 313f e772 263e
00000180: 6f22 61bd eec4 fd3b 427b 08bb e181 3d3f
00000190: 3862 c5bd f406 963d 91b8 c2bd 3e7c 1a3d
000001a0: cdd6 debc e780 5f3d ee73 293d 5467 08be
000001b0: 863b 8b3d 4911 853d ba6d 9c3e 0d83 ffba
000001c0: 5f6c e8bc 1660 89bd e528 cb3d 32d1 1f3e
000001d0: 0491 a43d 773b 31bd 3e7b 2bbc 8411 943d
000001e0: dfa1 9bbd a0e8 0c3e ba30 ac3e c190 e03e
000001f0: c38c 0e3f f636 953d 3255 9a3d 8dd8 05bd

fc.bias f4 [2]
0.37829039 -0.31641442
00000000: 47af c13e 1201 a2be
