experiment/phish_eth/TGAT/TGAT_checkpoint.pt (torch_old, 617012 bytes, 24 tensors)

time_layers.0.basis_freq f4 [32]
1.2441312 0.6708822 0.09900392 0.2599952 0.22779304 0.01883027 0.08849749 -0.0032660118
0.12003014 0.06697681 -0.08738679 -0.002821738 0.3327371 0.20787355 -0.3250116 -0.12252253
0.11639152 -0.023895716 0.046407294 0.18660265 0.15657668 0.00058670447 -0.19278626 -0.034694076
-0.031513806 -0.6079249 -0.01487848 0.0050909203 -0.0010424304 0.0038810042 -0.07067421 -0.09488847
00000000: b13f 9f3f f0be 2b3f 91c2 ca3d 171e 853e
00000010: 9442 693e f041 9a3c 2c3e b53d 960a 56bb
00000020: 5dd2 f53d 232b 893d d8f7 b2bd e8ec 38bb
00000030: 845c aa3e cedc 543e ec67 a6be 18ed fabd
00000040: ad5e ee3d f3c0 c3bc 9315 3e3d c414 3f3e
00000050: a355 203e 12cd 193a c369 45be 601b 0ebd
00000060: 9f14 01bd f7a0 1bbf dec4 73bc bcd1 a63b
00000070: 29a2 88ba 7258 7e3b a4bd 90bd e354 c2bd

time_layers.0.phase f4 [32]
0.4244461 0.41189212 0.15420751 0.52014965 0.3968088 0.10353307 0.31328943 0.0030869585
0.187133 0.32980177 0.19520573 0.01911148 -0.4293433 -0.29865053 0.33919352 -0.37616986
0.26922765 -0.31029496 0.27695912 0.35285196 -0.21940276 0.0063333986 -0.38647628 -0.4142366
0.08310641 0.6438551 0.037485402 -0.10339081 0.008191518 -0.009010276 -0.23394136 -0.229669
00000000: 0051 d93e 86e3 d23e 93e8 1d3e 8728 053f
00000010: 862a cb3e 2509 d43d 7967 a03e 924e 4a3b
00000020: cb9f 3f3e c7db a83e 03e4 473e ae8f 9c3c
00000030: e3d2 dbbe b9e8 98be c6aa ad3e 5699 c0be
00000040: 35d8 893e fbde 9ebe 96cd 8d3e 03a9 b43e
00000050: 1eab 60be 6688 cf3b 38e0 c5be d216 d4be
00000060: b233 aa3d b0d3 243f 4b8a 193d 90be d3bd
00000070: b735 063c d69f 13bc 538e 6fbe 5a2e 6bbe

time_layers.1.basis_freq f4 [32]
1.7253631 0.95346236 0.18745925 0.44376945 0.55948853 0.09488187 -0.19797619 -0.023314485
0.23167081 0.07981791 -0.24276519 0.05438714 0.070588715 1.572028e-06 -0.13687977 0.09545459
-0.19808969 0.43431938 0.007565975 -0.55666125 0.12216627 -0.2276849 0.32360047 0.07174551
-0.19996917 0.25152275 0.010605147 -0.16813084 0.13080566 5.6749883e-08 -0.36194223 -0.319853
00000000: b3d8 dc3f 1c16 743f 51f5 3f3e c035 e33e
00000010: a43a 0f3f 6d51 c23d 45ba 4abe 05fe bebc
00000020: 1d3b 6d3e 9377 a33d 7097 78be 0dc5 5e3d
00000030: d190 903d 79fe d235 362a 0cbe b27d c33d
00000040: 06d8 4abe 1c5f de3e 00ec f73b 5a81 0ebf
00000050: 4f32 fa3d 3b26 69be f6ae a53e 4fef 923d
00000060: b8c4 4cbe 97c7 803e 36c1 2d3c 7e2a 2cbe
00000070: ebf1 053e 28bd 7333 7e50 b9be c6c3 a3be

time_layers.1.phase f4 [32]
-0.5231703 -0.6329569 0.39377648 -0.47677255 -0.4919348 0.2478309 -0.36114624 -0.05081704
-0.29154405 0.22391778 0.300505 -0.20068602 -0.21007785 2.2405868e-06 -0.3532819 -0.27724373
0.40706232 -0.55386794 0.09455335 0.5609141 0.3210714 -0.43967453 0.41645685 -0.25860903
-0.25517172 0.4395493 -0.16958179 -0.3729251 0.3600989 -2.0835712e-08 0.3915393 -0.33737803
00000000: 7dee 05bf 7709 22bf 129d c93e 881b f4be
00000010: e1de fbbe 62c7 7d3e 29e8 b8be 8725 50bd
00000020: 4345 95be b44a 653e cbdb 993e a380 4dbe
00000030: a61e 57be fd5c 1636 5de1 b4be e4f2 8dbe
00000040: 796a d03e 4aca 0dbf 30a5 c13d 1198 0f3f
00000050: 7863 a43e 051d e1be d539 d53e 6768 84be
00000060: dea5 82be 9b0c e13e d9a6 2dbe 0af0 bebe
00000070: e25e b83e 37fa b2b2 d777 c83e d0bc acbe

attn_layers.0.w_qs.weight f4 [256, 38]
-0.013930993 0.35186335 0.090306126 0.12497362 0.15604468 0.050402567 -0.093388945 0.15018323
0.1295055 0.032014422 -0.28443056 0.17576408 0.17525946 0.064878955 0.06042516 -0.08051982
-0.10269226 0.20521592 -0.1044249 0.086895555 -0.041951373 0.28664586 -0.18316437 0.17384462
-0.18640316 0.056820534 -0.16168018 -0.046894267 0.17405556 0.10619499 0.069901 -0.27237412
-0.21977559 -6.996737e-05 -0.0711291 0.0065564923 -0.18029007 -0.10605248 0.0034474276 0.4306221
-0.42662948 0.2949298 0.041230597 0.16280204 0.10295282 0.10965227 -0.24487622 -0.022554668
0.17869784 0.051468678 0.10428639 0.21735284 -0.036537975 0.031195888 -0.018387392 -0.038137067
-0.2784106 -0.19577658 0.04139184 0.006618782 -0.042911757 -0.33480045 0.076140255 -0.28254753
-0.04782588 -0.13050011 0.14470786 0.007576699 0.049274366 -0.044654053 0.11342628 -0.19603057
0.07498357 0.0053205388 -0.0661274 0.024654714 -0.10911331 -0.17740324 0.089561835 -0.095705636
0.07837643 0.29298776 0.22702205 -0.046018466 -0.0122649325 0.063312784 0.08814664 0.23947996
0.17700756 0.16219881 0.23556639 0.110898554 0.12512492 0.20442513 0.19792801 -0.1957825
0.0067387647 0.18011406 0.2899351 -0.09733218 0.21333653 0.3189808 0.34952897 -0.010138586
0.2187969 0.30640703 -0.02649198 0.19001387 0.19384885 0.23372722 0.1426745 0.379605
0.06082682 0.15915209 0.085560374 -0.05685366 0.07685059 0.27168527 0.20372976 -0.03597967
0.04586742 0.12442604 -0.10206852 -0.13105729 -0.08044639 0.07489342 -0.08092759 -0.17696398
0.0343825 -0.0032398107 -0.10085373 -0.0035412738 0.053855702 -0.03267938 -0.009963645 0.14507993
-0.061951324 0.021440646 0.16669399 -0.24811034 -0.05050376 -0.016730594 0.11824607 0.11155374
-0.1864981 -0.15940686 -0.37863803 0.22883786 -0.05303867 0.012712642 0.024340928 -0.12672743
0.28257838 0.14317562 -0.15104686 0.16054948 0.048605338 0.14663042 -0.23981048 -0.3723318
-0.12570558 -0.4435702 -0.15078136 -0.09021574 -0.054487653 -0.07740346 -0.1798948 -0.12164834
-0.29220968 -0.17558438 0.15735696 -0.08671262 -0.16488673 -0.26136497 -0.17001492 -0.35672036
-0.30674002 -0.14536086 -0.012429069 -0.031136945 -0.16140111 -0.19880776 -0.15618023 -0.1182643
-0.1386855 -0.23366153 -0.43359745 -0.22967255 -0.08636945 0.07383498 0.073403776 -0.19256696
-0.20513305 0.0038775732 0.10289794 0.03330295 -0.19660713 -0.21684529 -0.06586213 -0.11912849
-0.34660745 -0.21451247 -0.034897905 0.24145839 -0.23220293 -0.049008753 0.00613416 0.01306977
-0.028509174 0.12641098 0.021928467 0.010321575 -0.25073293 -0.094501056 -0.017360274 -0.24218336
-0.19306092 0.038611926 0.009298603 -0.08467973 0.11327041 -0.08049549 0.032902855 0.10472962
-0.29363513 -0.14534843 0.018411582 -0.041568153 -0.04821647 -0.21463652 0.1390751 -0.1683256
0.005034152 -0.20585497 -0.06925646 0.14745821 0.37752286 -0.023078613 0.04344651 -0.08600047
0.13404861 -0.016767511 0.026193578 0.19088593 -0.04079293 0.11386112 -0.028394686 -0.15840638
-0.17951769 -0.122254655 0.07921118 0.16997994 -0.08241291 -0.18078084 -0.06835244 0.18840046
00000000: d23e 64bc 6f27 b43e 6bf2 b83d 2bf2 ff3d
00000010: 2dca 1f3e ec72 4e3d b442 bfbd a2c9 193e
00000020: 179d 043e 8e21 033d e2a0 91be 80fb 333e
00000030: 3777 333e 42df 843d 5f80 773d 93e7 a4bd
00000040: 5250 d2bd 1f24 523e b9dc d5bd 4cf6 b13d
00000050: 34d5 2bbd 3fc3 923e 718f 3bbe 5304 323e
00000060: 78e0 3ebe a6bc 683d 7d8f 25be 3414 40bd
00000070: 9f3b 323e c27c d93d 4128 8f3d 9f74 8bbe
00000080: da0c 61be 72bb 92b8 22ac 91bd d8d7 d63b
00000090: f69d 38be 0b32 d9bd 3dee 613b 807a dc3e
000000a0: 2e6f dabe 0a01 973e 6ae1 283d 94b5 263e
000000b0: eed8 d23d 5f91 e03d d5c0 7abe 91c4 b8bc
000000c0: 91fc 363e d2d0 523d 1a94 d53d be91 5e3e
000000d0: d8a8 15bd 858e ff3c 28a1 96bc 9d35 1cbd
000000e0: d68b 8ebe a879 48be 7d8a 293d 5ee2 d83b
000000f0: 3dc4 2fbd f76a abbe 6cef 9b3d 12aa 90be
00000100: 12e5 43bd d2a1 05be 4c2e 143e f545 f83b
00000110: ebd3 493d 2be7 36bd 0a4c e83d 3dbc 48be
00000120: fc90 993d ea57 ae3b cd6d 87bd aff8 c93c
00000130: cd76 dfbd 32a9 35be 326c b73d 5101 c4bd
00000140: d283 a03d 7e02 963e 7878 683e dc7d 3cbd
00000150: dbf2 48bc 22aa 813d 3a86 b43d 3c3a 753e
00000160: 7841 353e 7217 263e 5138 713e c81e e33d
00000170: bf20 003e d254 513e a4ad 4a3e 357b 48be
00000180: dbd0 dc3b d26f 383e 6072 943e 1856 c7bd
00000190: e474 5a3e 7451 a33e 76f5 b23e 501c 26bc
000001a0: 4b0c 603e 62e1 9c3e b505 d9bc ff92 423e
000001b0: 5080 463e 3056 6f3e 4419 123e 965b c23e
000001c0: 8b25 793d c4f8 223e 473a af3d 62df 68bd
000001d0: d863 9d3d 551a 8b3e 899e 503e 6b5f 13bd
000001e0: 7adf 3b3d 14d3 fe3d 4d09 d1bd e233 06be
000001f0: 14c1 a4bd b961 993d 5dbd a5bd 0c36 35be
00000200: aad4 0c3d 0153 54bb 678c cebd b714 68bb
00000210: cc97 5c3d d0da 05bd 8e3e 23bc d58f 143e
00000220: acc0 7dbd 4ba4 af3c d4b1 2a3e a310 7ebe
00000230: 08dd 4ebd 990e 89bc ff2a f23d 4a76 e43d
00000240: 5cf9 3ebe 8d3b 23be d8dc c1be 7954 6a3e
00000250: 143f 59bd af48 503c a066 c73c d6c4 01be
00000260: 1dae 903e a19c 123e 07ac 1abe 1567 243e
00000270: 6416 473d 4926 163e e190 75be 46a2 bebe
00000280: f7b8 00be a21b e3be 6e66 1abe 08c3 b8bd
00000290: 722e 5fbd b585 9ebd 5836 38be c422 f9bd
000002a0: 829c 95be 64cc 33be 2f22 213e 6396 b1bd
000002b0: 11d8 28be a1d1 85be 6418 2ebe 0da4 b6be
000002c0: 070d 9dbe 7ad9 14be 4ba3 4bbc e812 ffbc
000002d0: 5546 25be 4394 4bbe b6ed 1fbe 8e34 f2bd
000002e0: 9203 0ebe f844 6fbe 7c00 debe 482f 6bbe
000002f0: 77e2 b0bd cb36 973d b854 963d 4630 45be
00000300: 660e 52be e21e 7e3b 28bc d23d ad68 083d
00000310: 6153 49be b10c 5ebe b9e2 86bd a3f9 f3bd
00000320: 8876 b1be 28a9 5bbe 1bf1 0ebd de40 773e
00000330: 9bc6 6dbe 67bd 48bd 1001 c93b 9722 563c
00000340: 128c e9bc e171 013e 54a3 b33c d31b 293c
00000350: 1160 80be c589 c1bd 2237 8ebc eafe 77be
00000360: c3b1 45be 8a27 1e3d 2b59 183c 916c adbd
00000370: 51fa e73d d2da a4bd 25c5 063d 7c7c d63d
00000380: 5857 96be 38d6 14be e3d3 963c 5e43 2abd
00000390: a27e 45bd adc9 5bbe b469 0e3e 8c5d 2cbe
000003a0: 87f5 a43b a5cb 52be 55d6 8dbd 49ff 163e
000003b0: ad4a c13e 5c0f bdbc f8f4 313d 0421 b0bd
000003c0: 0a44 093e 055c 89bc ea93 d63c 9a77 433e
000003d0: 7d16 27bd 0530 e93d f99b e8bc 4835 22be
000003e0: 7cd3 37be a660 fabd 7939 a23d 390f 2e3e
000003f0: 1ac8 a8bd 9d1e 39be 5dfc 8bbd 0dec 403e

attn_layers.0.w_ks.weight f4 [256, 38]
-0.010473989 -0.1533978 0.05145836 -0.017576974 -0.36538413 -0.25126854 0.23778251 0.38971913
0.22693315 0.23153879 0.31107342 0.113609955 0.23405966 0.1694464 0.24450557 0.3954441
-0.25684547 -0.048838463 -0.24377055 -0.10029138 -0.32794797 0.36266997 0.054160386 0.31637743
0.42743176 0.23208061 -0.14227702 0.056120016 0.61426127 0.46297687 0.1498439 -0.5314894
0.16951372 -0.07432947 -0.01987302 -0.22728539 0.23406038 0.45826188 0.16775797 -0.011645067
-0.15779993 -0.25217462 -0.11963418 -0.31308958 0.07169832 0.1892823 -0.082072206 -0.022211384
0.03947619 -0.26475805 -0.31500158 0.06049752 0.1691052 0.20003599 0.2930386 -0.06450281
0.25199378 -0.27528444 -0.039931223 -0.049852878 -0.0010743 0.064669795 0.30591288 -0.0764224
0.17100671 0.1939945 0.10624145 -0.05264993 -0.1898269 0.096960984 0.051451057 0.33174074
0.19185825 -0.09789378 0.16530605 -0.021869417 -0.25543436 -0.07129992 0.05184051 0.16311996
0.14933617 0.40324906 -0.6346632 -0.28235528 -0.14635238 -0.6333869 -0.21682847 0.049013987
-0.3977672 -0.052533433 -0.4495595 -0.25302967 0.2897433 -0.22152181 0.3008518 0.08566106
0.14407653 -0.38361877 -0.11745075 -0.38289523 -0.37578923 -0.5548176 0.35384116 0.16858785
-0.7549538 -0.21341296 0.3007935 0.42796654 -0.349944 -0.007576355 -0.059112918 -0.14994396
-0.24973233 -0.31809086 0.10670568 0.062103476 -0.03272512 -0.12908573 0.08162562 -0.2115364
-0.18542328 0.12415382 0.06918338 0.0870319 0.22774985 -0.0719012 -0.025277972 -0.14650202
-0.1695746 0.029738542 0.4730118 0.09188543 0.15258035 0.16157438 0.16242667 -0.37495852
-0.15778697 0.08554339 0.057535883 -0.06771964 0.12910272 -0.04760477 -0.17911963 -0.16374546
0.17185666 0.30348343 -0.03791881 0.036854383 0.2362588 0.044951193 0.067747355 -0.039155558
0.39815697 0.050766315 -0.19163592 -0.10449572 -0.1820385 -0.2983307 0.5610746 0.23618998
0.15107475 0.7441871 0.17568387 -0.07500256 0.43417335 -0.05783978 0.5699625 0.49232715
-0.22684266 -0.1250748 -0.22040346 -0.3727221 -0.27201524 0.21282129 0.26125592 0.47741774
0.3875626 0.63208497 -0.33534232 -0.23620881 0.59745634 0.4081594 -0.08592033 -0.41853198
0.23360409 -0.076039396 0.023655867 -0.20495236 0.193772 0.25103474 0.1995861 0.08605794
0.023451786 -0.10365571 -0.2235147 -0.19281529 0.43736395 0.38901475 0.072521456 0.47860044
0.30870467 -0.16333185 0.42736444 0.22793493 0.45979512 0.45385003 -0.23159981 0.06034383
-0.23076707 -0.12106545 -0.41355133 0.5760667 0.3591173 0.21083537 0.6386796 0.49021506
-0.26876238 -0.038643137 0.46502793 0.052839037 -0.1714598 -0.021677481 0.25607342 0.07867381
-0.21225154 0.03938798 0.47110975 0.2266346 -0.26323584 0.08660095 -0.064079635 -0.031621024
-0.11880596 0.038202554 -0.36630106 -0.3423498 -0.05471991 -0.03709605 -0.36313877 0.2273981
-0.20363352 -0.15869199 -0.32498568 -0.21076912 0.26562312 0.19158772 0.2238416 0.3149571
0.19329956 -0.16274539 -0.35123414 -0.34532988 -0.10234287 -0.2339647 0.38537323 -0.08615726
00000000: 189b 2bbc 5014 1dbe 00c6 523d 96fd 8fbc
00000010: a113 bbbe 45a6 80be 427d 733e 4489 c73e
00000020: 2a61 683e 8118 6d3e 0445 9f3e 56ac e83d
00000030: 56ad 6f3e 5b83 2d3e ab5f 7a3e a677 ca3e
00000040: 4081 83be d70a 48bd fd9e 79be 9165 cdbd
00000050: cce8 a7be e1af b93e 48d7 5d3d 39fc a13e
00000060: 56d8 da3e 8aa6 6d3e 11b1 11be 1ade 653d
00000070: 3a40 1d3f 4e0b ed3e ae70 193e b00f 08bf
00000080: 0195 2d3e 0d3a 98bd becc a2bc 80bd 68be
00000090: 86ad 6f3e 4da1 ea3e bfc8 2b3e f3ca 3ebc
000000a0: 4e96 21be 081d 81be c402 f5bd 474d a0be
000000b0: 92d6 923d 38d3 413e 7915 a8bd a6f4 b5bc
000000c0: c9b1 213d 5e8e 87be e347 a1be 3fcc 773d
000000d0: ea29 2d3e 3cd6 4c3e 2809 963e 0d1a 84bd
000000e0: 5405 813e 15f2 8cbe ec8e 23bd 8832 4cbd
000000f0: 87cf 8cba 9971 843d 9da0 9c3e 5983 9cbd
00000100: 621c 2f3e 7fa6 463e 1e95 d93d 74a7 57bd
00000110: fc61 42be 7b93 c63d 58be 523d ecd9 a93e
00000120: 7d76 443e 897c c8bd fd45 293e 7e27 b3bc
00000130: 4bc8 82be b105 92bd b756 543d eb08 273e
00000140: 95eb 183e a976 ce3e 4a79 22bf df90 90be
00000150: 66dd 15be a525 22bf 4808 5ebe e4c2 483d
00000160: 24a8 cbbe 4c2d 57bd aa2c e6be 1b8d 81be
00000170: 3c59 943e 9dd6 62be 3f09 9a3e 116f af3d
00000180: cc88 133e ae69 c4be 058a f0bd d80a c4be
00000190: 7267 c0be 8708 0ebf ab2a b53e 4ba2 2c3e
000001a0: a744 41bf ed88 5abe 9b01 9a3e 6e1e db3e
000001b0: dc2b b3be 1243 f8bb 6320 72bd e98a 19be
000001c0: d5b9 7fbe cedc a2be 8288 da3d 3760 7e3d
000001d0: c70a 06bd 0d2f 04be 552b a73d ff9c 58be
000001e0: 9adf 3dbe 5c44 fe3d 04b0 8d3d c83d b23d
000001f0: 4237 693e f040 93bd c013 cfbc a004 16be
00000200: f7a4 2dbe 3e9e f33c 9a2e f23e 6e2e bc3d
00000210: 063e 1c3e c173 253e 2d53 263e 90fa bfbe
00000220: e892 21be 5f31 af3d bfaa 6b3d 98b0 8abd
00000230: 8133 043e 38fd 42bd 236b 37be e4ac 27be
00000240: 31fb 2f3e 2e62 9b3e c150 1bbd 9ff4 163d
00000250: d4ed 713e be1e 383d 20bf 8a3d 9461 20bd
00000260: 3bdb cb3e 57f0 4f3d 353c 44be da01 d6bd
00000270: 4d68 3abe cdbe 98be 96a2 0f3f c9db 713e
00000280: 57b3 1a3e 0c83 3e3f 79e6 333e f19a 99bd
00000290: f84b de3e 68e9 6cbd 10e9 113f 4e12 fc3e
000002a0: 7149 68be 9c13 00be 72b1 61be 6ed5 bebe
000002b0: 9545 8bbe d3ed 593e 56c3 853e 1970 f43e
000002c0: 9b6e c63e 52d0 213f fdb1 abbe b9e0 71be
000002d0: e6f2 183f 45fa d03e fff6 afbd d349 d6be
000002e0: e935 6f3e 8bba 9bbd f3c9 c13c 08df 51be
000002f0: 2b6c 463e a087 803e 4c60 4c3e 253f b03d
00000300: f61d c03c 7249 d4bd 0ae1 64be 5f71 45be
00000310: 2bee df3e f12c c73e 2186 943d 1e0b f53e
00000320: 8a0e 9e3e 7740 27be 83cf da3e c667 693e
00000330: 446a eb3e 085f e83e 8028 6dbe 182b 773d
00000340: 344e 6cbe 2af1 f7bd 00bd d3be 1b79 133f
00000350: 39de b73e 3ae5 573e 8280 233f 78fd fa3e
00000360: 399b 89be 4448 1ebd 2418 ee3e bf6d 583d
00000370: 2893 2fbe f994 b1bc 0e1c 833e bc1f a13d
00000380: 7858 59be 4a55 213d 4c35 f13e e712 683e
00000390: d9c6 86be d75b b13d 2f3c 83bd 0c85 01bd
000003a0: 8a50 f3bd 487a 1c3d d08b bbbe 7948 afbe
000003b0: fc21 60bd 07f2 17bd 53ed b9be 0cdb 683e
000003c0: 4e85 50be 2780 22be 8664 a6be dcd3 57be
000003d0: c1ff 873e 922f 443e bb36 653e 0f42 a13e
000003e0: 52f0 453e baa6 26be f6d4 b3be 14cf b0be
000003f0: 2399 d1bd 7194 6fbe a44f c53e 3873 b0bd

attn_layers.0.w_vs.weight f4 [256, 38]
0.17161165 -0.061270215 -0.095985614 -0.575601 0.09294522 -0.36372724 0.034680013 -0.01622975
0.15458897 -0.042145386 -0.30335504 0.017434351 -0.07231552 -0.0090494435 -0.06711931 0.013982351
-0.02275875 0.19846097 -0.09552992 0.15760164 -0.18328743 -0.053686883 0.11307789 0.30627766
0.011760475 0.008293315 -0.07465342 -0.027303444 -0.034193754 0.098608136 0.106145486 0.11841803
0.30883807 0.08423613 0.054482035 0.019154202 -0.042797573 -0.04467218 0.15070045 0.059526514
-0.19957165 -0.12729064 0.14945737 0.02825324 -0.18808891 -0.044051655 -0.120242864 0.08173335
0.100051805 0.08431754 -0.16815558 0.018197848 -0.01646226 0.05277348 -0.047977816 0.1964018
-0.06434194 -0.07238473 0.24411838 0.03373657 0.021742977 0.026178451 0.017318415 0.32398555
-0.14958048 0.2594527 -0.33433953 0.008191193 0.053554386 -0.07917192 0.0062743896 0.10801999
-0.01447014 0.05790223 -0.09302539 -0.04885989 -0.079902425 0.006844427 0.08882032 0.6458074
-0.08321753 -0.11349342 -0.31259996 -0.06351531 0.19985245 -0.09702253 0.05525748 0.17477408
-0.1952371 0.24728535 0.17223379 -0.095522285 0.102690026 0.18097599 -0.08845771 -0.29120067
0.053723335 -0.1551339 0.015685685 0.117643386 0.14854047 0.24448653 0.022898734 -0.1903083
-0.06741155 0.22782917 -0.24927534 -0.102217324 0.11381703 -0.009386938 -0.15215303 -0.2227946
0.016189143 -0.06434596 0.2266174 0.12877749 -0.046283092 0.31145066 0.038219567 0.12256992
-0.3229208 -0.047211934 0.002193377 0.3364048 0.023283748 0.065271795 0.033524606 -0.16887428
-0.004996845 -0.366901 -0.01867871 -0.0008756641 0.14950562 0.1643043 0.15742362 0.21988751
-0.11854468 -0.14935946 -0.0059164884 -0.10923871 -0.11566281 0.23116735 -0.009395296 0.061710186
-0.17428131 -0.16675326 0.03452799 0.042785574 -0.14275464 -0.12557128 -0.06652372 0.020225571
0.3027758 0.08850975 0.19121009 -0.4909994 0.14788431 0.046168536 0.1227071 -0.16415738
0.043291375 -0.18655132 -0.01656906 -0.10479425 0.07639407 0.022708159 0.027105004 -0.07850427
0.041036125 0.1418567 -0.1774664 0.018723799 0.17212251 -0.13047747 0.06423359 -0.016469967
0.09690135 -0.04016069 -0.14203778 -0.07011174 -0.11783147 0.24737573 0.011838752 -0.025268473
-0.18242265 0.16174859 -0.03327085 0.14552212 0.102851465 0.044873595 0.039818846 0.1089262
-0.0014096135 -0.3852502 0.20578454 -0.17370178 -0.21708402 -0.0028658893 0.06305412 0.2890636
-0.0208998 -0.11854066 -0.009687488 0.14876981 -0.098385215 0.24419384 0.09596087 0.11049108
-0.09824452 0.18304484 -0.16486916 -0.19143625 -0.16593312 -0.13727136 0.14761843 -0.16274494
-0.010168848 -0.15465157 -0.13577305 0.14590758 0.028118063 -0.11881983 0.17831302 -0.14736095
-0.07614124 0.108192146 0.32088837 0.106907815 -0.13849436 -0.18501145 -0.14575367 0.38480094
-0.08614565 -0.10418844 -0.36030632 -0.065193236 -0.27133346 -0.14473403 -0.15086399 0.08671619
0.14031367 0.1210529 -0.025338396 0.07219237 0.25278813 0.051158734 0.094111964 -0.0016257811
-0.10560307 0.00056259957 0.033115454 0.058393426 -0.21665888 0.16237694 0.13451006 -0.04925818
00000000: f7ba 2f3e 7af6 7abd 1b94 c4bd 965a 13bf
00000010: 105a be3d 753a babe a10c 0e3d 41f4 84bc
00000020: 924c 1e3e a4a0 2cbd 5a51 9bbe 7cd2 8e3c
00000030: 291a 94bd 1e44 14bc d975 89bd 3b16 653c
00000040: 8f70 babc 5a39 4b3e 31a5 c3bd 5362 213e
00000050: b3af 3bbe c7e6 5bbd 6195 e73d 6dd0 9c3e
00000060: 02af 403c afe0 073c e4e3 98bd 79ab dfbc
00000070: c00e 0cbd 10f3 c93d ce62 d93d 2785 f23d
00000080: 0620 9e3e fe83 ac3d 8e28 5f3d 46e9 9c3c
00000090: 824c 2fbd 2dfa 36bd 3851 1a3e 13d2 733d
000000a0: 835c 4cbe 7a58 02be 5a0b 193e 5773 e73c
000000b0: 619a 40be 826f 34bd e441 f6bd d163 a73d
000000c0: f6e7 cc3d adae ac3d fa30 2cbe a713 953c
000000d0: dddb 86bc 0129 583d 6384 44bd 8e1d 493e
000000e0: b5c5 83bd 723e 94bd 2bfa 793e 5c2f 0a3d
000000f0: 541e b23c 3174 d63c 59df 8d3c 6fe1 a53e
00000100: a02b 19be fcd6 843e 8d2e abbe 5b34 063c
00000110: d85b 5b3d e324 a2bd 6599 cd3b 9639 dd3d
00000120: 2b14 6dbc e42a 6d3d 1884 bebd 4f21 48bd
00000130: e2a3 a3bd 3747 e03b 6ee7 b53d a253 253f
00000140: f46d aabd 3d6f e8bd 1a0d a0be 5114 82bd
00000150: 1fa6 4c3e c0b3 c6bd ab55 623d faf7 323e
00000160: 3cec 47be 5f38 7d3e 0e5e 303e 30a1 c3bd
00000170: 264f d23d c551 393e 5129 b5bd 4118 95be
00000180: 000d 5c3d 6cdb 1ebe 447f 803c 04ef f03d
00000190: fe1a 183e ad5a 7a3e 2096 bb3c 2ee0 42be
000001a0: 110f 8abd 0d4c 693e 0942 7fbe 5157 d1bd
000001b0: e718 e93d accb 19bc 01ce 1bbe 4524 64be
000001c0: 189f 843c d1c7 83bd 640e 683e 3fde 033e
000001d0: 5793 3dbd 7676 9f3e 1f8c 1c3d f005 fb3d
000001e0: e055 a5be 4d61 41bd c2be 0f3b 403d ac3e
000001f0: 8fbd be3c 38ad 853d 1951 093d 61ed 2cbe
00000200: 93bc a3bb 73da bbbe 1804 99bc d38c 65ba
00000210: 0018 193e 633f 283e a833 213e 312a 613e
00000220: 8ec7 f2bd b0f1 18be 1adf c1bb 8bb8 dfbd
00000230: a0e0 ecbd 22b7 6c3e baee 19bc d2c3 7c3d
00000240: cd76 32be 5ec1 2abe 396d 0d3d ed3f 2f3d
00000250: 462e 12be c295 00be 973d 88bd 19b0 a53c
00000260: 6e05 9b3e 9a44 b53d 94cc 433e 4664 fbbe
00000270: fc6e 173e 381b 3d3d dc4d fb3d df18 28be
00000280: 4c52 313d 4f07 3fbe d6bb 87bc 5e9e d6bd
00000290: 7f74 9c3d 7606 ba3c 500b de3c d9c6 a0bd
000002a0: 7f15 283d e242 113e c1b9 35be a762 993c
000002b0: e240 303e e39b 05be e78c 833d 06ec 86bc
000002c0: 3774 c63d 897f 24bd 5a72 11be be96 8fbd
000002d0: a051 f1bd 1050 7d3e 53f7 413c d4ff cebc
000002e0: 01cd 3abe 6ca1 253e 0447 08bd c003 153e
000002f0: caa3 d23d 60cd 373d 1619 233d b314 df3d
00000300: c8c2 b8ba 843f c5be 2fb9 523e e1de 31be
00000310: 464b 5ebe a5d1 3bbb 8522 813d 2500 943e
00000320: 0f36 abbc 72c5 f2bd 45b8 1ebc 1d57 183e
00000330: 307e c9bd f30d 7a3e 2287 c43d 2649 e23d
00000340: 6c34 c9bd 1b70 3b3e 76d3 28be dd07 44be
00000350: 5fea 29be dd90 0cbe 4929 173e 9ca6 26be
00000360: 3d9b 26bc fb5c 1ebe 1708 0bbe cc68 153e
00000370: da57 e63c d057 f3bd b097 363e cae5 16be
00000380: f0ef 9bbd d893 dd3d 7b4b a43e 7cf2 da3d
00000390: 77d1 0dbe a473 3dbe 7340 15be a104 c53e
000003a0: 216d b0bd c060 d5bd 127a b8be 0884 85bd
000003b0: 38ec 8abe 2835 14be 177c 1abe 4298 b13d
000003c0: 63ae 0f3e 95ea f73d 7892 cfbc 98d9 933d
000003d0: 726d 813e d28b 513d c6bd c03d 2918 d5ba
000003e0: 6c46 d8bd 6b7b 133a 12a4 073d f22d 6f3d
000003f0: d3db 5dbe 2446 263e 01bd 093e f2c2 49bd

attn_layers.0.layer_norm.weight f4 [38]
1.1813333 1.1050355 1.1327107 1.0838567 1.2183176 1.2796993 1.0137552 0.93426746
1.0615748 0.91608614 0.9597355 0.9649034 1.0390993 1.1401283 0.98426956 0.9640683
1.0866425 0.99328536 0.97139764 0.9348031 1.0070723 0.8344973 0.9831296 1.0098375
0.85873026 0.8577647 1.1030618 1.0648826 0.913056 0.9604241 0.9746683 0.8356116
1.0158197 0.90083694 0.9010139 0.9423661 1.0076444 1.042411
00000000: ee35 973f ce71 8d3f aafc 903f d1bb 8a3f
00000010: d5f1 9b3f 30cd a33f bbc2 813f 272c 6f3f
00000020: afe1 873f 9f84 6a3f 3ab1 753f e903 773f
00000030: 3501 853f b9ef 913f 17f9 7b3f 2ecd 763f
00000040: 1a17 8b3f f347 7e3f 84ad 783f 424f 6f3f
00000050: bfe7 803f 9da1 553f 62ae 7b3f 5b42 813f
00000060: bfd5 5b3f 7896 5b3f 2131 8d3f 134e 883f
00000070: 0abe 693f 5bde 753f dd83 793f a4ea 553f
00000080: 6106 823f 409d 663f d9a8 663f e83e 713f
00000090: 7efa 803f b96d 853f

attn_layers.0.layer_norm.bias f4 [38]
-0.033929083 0.018323049 -0.12755215 0.055233274 -0.1328568 -0.042008154 0.096977696 0.022202725
0.03920159 -0.06418115 0.034257587 -0.08011675 -0.0033474234 -0.0012779509 -0.08237311 -0.0708715
0.10827319 -0.11011987 -0.03487248 0.09735728 -0.1399696 -0.07831441 -0.13101013 -0.02592161
0.05567312 -0.027065907 0.059660982 0.07813305 -0.022182556 0.0317039 0.049495444 -0.029755697
0.043042537 0.17252374 0.028496062 0.029322771 -0.008432713 0.018432226
00000000: 39f9 0abd 381a 963c 089d 02be 493c 623d
00000010: 9d0b 08be be10 2cbd 3e9c c63d 7de2 b53c
00000020: d991 203d 6871 83bd af51 0c3d 4014 a4bd
00000030: 7260 5bbb eb80 a7ba 3cb3 a8bd 1425 91bd
00000040: 56be dd3d 8786 e1bd 72d6 0ebd 4163 c73d
00000050: 3154 0fbe 4e63 a0bd 8527 06be 8e59 d4bc
00000060: 7f09 643d 52b9 ddbc 135f 743d 3804 a03d
00000070: 31b8 b5bc f3db 013d bcbb 4a3d 38c2 f3bc
00000080: 5f4d 303d 10aa 303e 9370 e93c 4f36 f03c
00000090: 5d29 0abc 2eff 963c

attn_layers.0.fc.weight f4 [38, 256]
0.03732134 0.07212416 -0.04230474 -0.07301543 0.07951295 0.09975497 0.0372073 0.05817542
0.009643449 -0.07873834 0.090955466 0.065872565 0.026562512 -0.032141235 -0.15141593 0.12548994
0.047551773 0.088890925 -0.15362746 0.020060718 0.17492034 0.13754244 0.0031959615 0.113411196
0.030709378 0.12474126 0.06599891 -0.043456506 0.17163722 -0.004584472 0.06330652 -0.25617495
-0.077200934 0.0368868 -0.0030659074 -0.00015626196 0.03775015 -0.113797456 -0.11911941 -0.030852405
0.05528765 0.30129752 0.085546404 0.11857323 0.035302825 -0.12552322 0.07866901 0.020487841
-0.2369065 0.12749977 -0.10132841 -0.077480376 0.06397227 0.061900746 -0.036057744 0.009554479
0.04944172 0.07274338 0.016334014 -0.21649039 0.047097243 -0.10263401 -0.047364164 0.09332469
0.1270105 -0.0022177068 0.0055358605 -0.031115312 -0.06749538 -0.09395839 0.06767151 0.109019354
0.032905314 0.00881082 -0.08238321 -0.17472237 0.19414128 0.038729496 5.0079307e-05 0.11694491
0.056482103 -0.0038828044 -0.09330243 0.23344567 -0.19700871 -0.020388424 0.08614314 -0.028118668
-0.074418984 0.122200996 0.11931472 -0.08143737 -0.035945956 0.09263103 -0.01865854 0.04166159
0.10579512 0.08167385 0.088726275 0.08675041 0.19641465 -0.065803014 -0.007931577 0.22366576
0.16699044 -0.096236326 0.03439286 -0.041328 -0.0094241025 -0.15417796 -0.088473305 0.12078598
-0.114955105 -0.030040476 -0.04002803 0.0250163 -0.16845743 -0.016859416 -0.021482414 -0.069418795
0.051690202 -0.13278764 0.013458624 -0.013298233 -0.008901338 0.015208018 -0.05704679 -0.092897095
0.16288012 -0.06943425 -0.037285727 -0.17234215 -0.011304328 -0.07462826 0.03471149 0.11611252
0.05912054 -0.10869054 -0.14252836 -0.045408193 0.15232201 -0.018368479 0.019747699 -0.031265326
-0.15945786 0.02316799 0.00876833 -0.034814008 0.18873435 0.1627794 -0.11528488 0.1302106
0.23915787 0.02687808 -0.039229218 -0.14140235 -0.12146655 -0.18398379 0.058587287 0.11121788
0.0058150687 0.25470045 0.05544311 -0.07405816 0.025456985 0.1310078 0.21134977 0.1209176
-0.14000268 0.17251502 -0.035997853 0.043942176 -0.16624725 -0.038453914 -0.106979325 0.17244771
-0.1269314 -0.005905383 0.2755703 0.09889678 -0.0630537 0.039624896 -0.13900629 0.1816916
0.14706904 -0.21622628 -0.11207661 -0.17359336 0.13317029 0.056725867 0.030223561 0.21809167
-0.16543439 0.2289191 -0.059427366 -0.039883103 -0.05973252 0.108720504 -0.07579766 0.05350636
-0.10794494 0.19579215 0.07305037 0.057200648 0.12184441 0.12726156 0.049676355 0.18720654
0.053935725 0.071692616 0.07348586 -0.0939334 0.040774424 -0.09778639 0.0013612508 0.045515116
0.08142512 0.047610868 -0.21206918 0.039107766 0.0756366 -0.057106983 -0.27863276 0.14886917
-0.13418843 -0.07335832 -0.07652398 -0.21969317 0.016319308 0.052453578 0.08535623 -0.11670323
-0.0223291 0.20383689 -0.007126346 0.12494826 -0.010385094 0.027708976 -0.2240709 0.15730059
-0.03347268 0.2372027 -0.012943266 -0.077219956 -0.01729008 -0.0080430135 0.050581012 0.08680992
0.13640906 -0.1313534 -0.097034425 -0.10073314 -0.13146557 0.03888999 -0.12668587 0.07659364
00000000: 43de 183d d5b5 933d bc47 2dbd 1d89 95bd
00000010: afd7 a23d 554c cc3d af66 183d 5949 6e3d
00000020: 8fff 1d3c 9141 a1bd dc46 ba3d 32e8 863d
00000030: a099 d93c 87a6 03bd c70c 1bbe 6f80 003e
00000040: a6c5 423d 720c b63d 8450 1dbe 6056 a43c
00000050: 511e 333e edd7 0c3e 5673 513b 2144 e83d
00000060: 3c92 fb3c 5978 ff3d 702a 873d 73ff 31bd
00000070: abc1 2f3e 5739 96bb d9a6 813d 5d29 83be
00000080: 861b 9ebd 9d16 173d 64ed 48bb 40da 23b9
00000090: e79f 1a3d a40e e9bd e1f4 f3bd 2fbe fcbc
000000a0: 4e75 623d ab43 9a3e f432 af3d 86d6 f23d
000000b0: b299 103d 2989 00be 381d a13d 1ed6 a73c
000000c0: 9e97 72be 4d8f 023e 4585 cfbd 08ae 9ebd
000000d0: e503 833d a38b 7d3d 49b1 13bd 648a 1c3c
000000e0: 6783 4a3d 7bfa 943d e9ce 853c a8af 5dbe
000000f0: 0ae9 403d c831 d2bd ed00 42bd 0421 bf3d
00000100: 0a0f 023e f256 11bb 2a66 b53b 8ae5 febc
00000110: 053b 8abd 426d c0bd 5c97 8a3d 8a45 df3d
00000120: b9c7 063d 425b 103c 87b8 a8bd 6cea 32be
00000130: f9cc 463e d2a2 1e3d 3f0c 5238 d080 ef3d
00000140: c759 673d a676 7ebb 5815 bfbd 620c 6f3e
00000150: a7bc 49be a005 a7bc d16b b03d 1f59 e6bc
00000160: fb68 98bd 8444 fa3d 475b f43d a3c8 a6bd
00000170: 113c 13bd 56b5 bd3d cbd9 98bc 58a5 2a3d
00000180: 1dab d83d 9f44 a73d 1fb6 b53d 33aa b13d
00000190: ec20 493e bbc3 86bd 72f3 01bc a308 653e
000001a0: 8bff 2a3e 8d17 c5bd 87df 0c3d 8d47 29bd
000001b0: 8d67 1abc d4e0 1dbe 7e31 b5bd a45e f73d
000001c0: 956d ebbd 7217 f6bc 6ef4 23bd fcee cc3c
000001d0: 1b80 2cbe c21c 8abc e3fb afbc 712b 8ebd
000001e0: 1bb9 533d 7cf9 07be 8f81 5c3c d5e0 59bc
000001f0: ebd6 11bc 0d2b 793c e5a9 69bd d540 bebd
00000200: 0cca 263e 8b33 8ebd ebb8 18bd 767a 30be
00000210: ca35 39bc b4d6 98bd a32d 0e3d 67cc ed3d
00000220: 6128 723d 2599 debd f4f2 11be f1fd 39bd
00000230: 4dfa 1b3e 7e79 96bc edc5 a13c 1210 00bd
00000240: ec48 23be ccca bd3c 0ba9 0f3c 2299 0ebd
00000250: 9443 413e a5af 263e 7b1a ecbd ed55 053e
00000260: cde5 743e 6b2f dc3c d1ae 20bd c7cb 10be
00000270: 74c3 f8bd 3f66 3cbe 39f9 6f3d 33c6 e33d
00000280: 558c be3b 1968 823e 5118 633d ceab 97bd
00000290: 2b8b d03c e926 063e 136c 583e a6a3 f73d
000002a0: dd5c 0fbe c7a7 303e 7c72 13bd b6fc 333d
000002b0: b83c 2abe da81 1dbd fa17 dbbd 2296 303e
000002c0: 4efa 01be f181 c1bb 8d17 8d3e 658a ca3d
000002d0: 4c22 81bd b74d 223d aa57 0ebe 5d0d 3a3e
000002e0: 4499 163e 6c6a 5dbe 6c88 e5bd 75c2 31be
000002f0: cb5d 083e 6259 683d 6797 f73c 6c53 5f3e
00000300: a267 29be c569 6a3e 1c6a 73bd 775c 23bd
00000310: 16aa 74bd dba8 de3d ce3b 9bbd 7c29 5b3d
00000320: 3d12 ddbd bd7d 483e 6f9b 953d 3a4b 6a3d
00000330: 9089 f93d db50 023e 6f79 4b3d 12b3 3f3e
00000340: b5eb 5c3d 94d3 923d c17f 963d 2860 c0bd
00000350: 1503 273d 3b44 c8bd ff6b b23a 0f6e 3a3d
00000360: 37c2 a63d 9d03 433d aa28 59be 772f 203d
00000370: 5de7 9a3d 03e9 69bd f4a8 8ebe 2971 183e
00000380: b168 09be e33c 96bd 9bb8 9cbd 3ff7 60be
00000390: 12b0 853c 90d9 563d 3fcf ae3d 1a02 efbd
000003a0: 84eb b6bc 9eba 503e 2084 e9bb e0e4 ff3d
000003b0: 3e26 2abc effd e23c d872 65be 6813 213e
000003c0: a61a 09bd 44e5 723e fe0f 54bc 7f25 9ebd
000003d0: eda3 8dbc d8c6 03bc 092e 4f3d 66c9 b13d
000003e0: d1ae 0b3e 8181 06be fcb9 c6bd 2d4d cebd
000003f0: e99e 06be 1c4b 1f3d f1b9 01be 20dd 9c3d

attn_layers.0.fc.bias f4 [38]
-0.5107738 -0.14376986 -0.723434 -0.35521024 -0.596372 -0.71715283 0.4385917 0.055037886
0.0917444 -0.28448868 0.1299192 0.20225483 -0.025201812 0.08420527 0.15196626 -0.2126104
-0.061506942 0.09794756 0.016069958 0.3641727 -0.054469712 0.18124291 0.11107537 -0.1467665
0.07376585 0.18304217 0.54192084 0.36756405 0.02825616 -0.26667315 0.15808174 0.079985894
0.25559998 0.10364508 -0.019444184 0.24808319 0.21732025 0.3321062
00000000: 12c2 02bf 6838 13be f832 39bf 1ede b5be
00000010: d6ab 18bf 5497 37bf 178f e03e 686f 613d
00000020: 7de4 bb3d 80a8 91be 8a09 053e e41b 4f3e
00000030: 0874 cebc d073 ac3d 0b9d 1b3e 8ab6 59be
00000040: b4ee 7bbd bb98 c83d 25a5 833c d874 ba3e
00000050: a21b 5fbd be97 393e 7c7b e33d f549 16be
00000060: 8d12 973d 686f 3b3e 53bb 0a3f 5b31 bc3e
00000070: 7679 e73c 6289 88be 2ee0 213e a5cf a33d
00000080: 00de 823e df43 d43d 6949 9fbc 8509 7e3e
00000090: 3389 5e3e d309 aa3e

attn_layers.1.w_qs.weight f4 [256, 98]
-0.3258415 -0.059030972 0.0037927295 -0.054397017 -0.0348922 -0.15527418 0.12857333 0.0399499
0.28488776 -0.15843306 0.29547098 0.03518431 0.18761592 0.14590183 -0.029251318 0.053953156
-0.017304618 0.064764105 -0.009819077 0.090344675 -0.3196849 0.24890313 0.16884066 -0.15228422
0.19879332 0.18128908 0.038591024 0.023001911 -0.08952966 0.006249036 -0.28267962 0.13877882
0.09061847 -0.17019585 -0.13820215 0.046911176 0.00990186 0.10843181 0.15376326 -0.07977052
-0.028239507 0.21341504 0.03744581 0.049642418 -0.10772227 -0.067289345 0.05079436 -0.03689495
0.063715756 0.16335793 -0.086943135 -0.07103244 -0.17832051 0.25397128 0.18808101 0.036587305
0.21595745 -0.29251605 0.2496999 0.045584973 -0.16276863 -0.01079909 0.14530666 0.00506975
-0.10122324 0.18577701 -0.002403879 -0.016349485 -0.00077280035 0.20691977 0.12046599 0.18275432
0.02081961 0.19476958 0.12898387 0.06770828 0.17986785 -0.03509241 -0.027029775 0.12734294
0.077344425 0.26465115 0.07124236 -0.04220393 0.04523557 0.06099178 0.19562851 -0.16824274
0.04614596 0.15215866 0.324402 0.07729884 0.12551765 0.1669792 0.15475999 -0.006254049
-0.08256492 0.13743769 0.08961162 0.010051564 -0.075873666 -0.026502572 -0.010197621 -0.2010717
-0.007012182 0.051859774 -0.2877409 -0.1414878 -0.24892601 -0.128732 -0.14821707 -0.13113207
-0.15735555 -0.017776726 -0.11374005 -0.04286209 -0.23895356 -0.067315996 0.10246466 0.028149253
-0.07270763 0.14351833 -0.13754088 -0.24943095 0.13680647 -0.023482488 -0.22764236 -0.21312143
-0.08337088 0.035405613 0.027025906 0.14090456 0.03855638 -0.022890639 -0.22327389 -0.30857143
-0.21129921 0.059668235 -0.21944946 0.023941165 -0.0021071758 -0.016353529 0.030784532 -0.29161242
0.116913885 -0.022629963 0.09783419 -0.0963296 0.06207692 0.09361012 -0.102227636 -0.22111227
-0.070030585 -0.04325989 -0.2786514 0.15978602 -0.12539957 0.06967975 -0.034246285 -0.04859714
-0.08598729 -0.13116609 0.2527101 0.1805113 -0.22477567 -0.22518899 -0.23101059 0.069583625
-0.08379188 -0.10853533 -0.20256747 -0.1256461 -0.0038623489 -0.23288766 -0.13218194 -0.041486245
-0.03514329 0.20448254 -0.07464556 0.084314115 0.09533053 -0.16308393 -0.23320085 0.016919207
-0.016069673 -0.0782406 -0.039137337 -0.06646704 -0.23828201 -0.1473576 -0.10041272 -0.008634253
-0.0013080743 -0.15393886 -0.26758546 -0.020145006 0.0020145874 -0.09933883 0.2427186 0.0028507342
0.020587523 0.049319226 -0.13698879 -0.10247319 0.26772058 0.45631993 -0.10194883 0.14055057
0.19412445 -0.018389925 0.14032845 -0.1326216 0.09148032 -0.15557371 0.108477354 -0.09221059
-0.06560451 0.09407576 -0.03983585 0.14463928 -0.13350235 0.09065376 0.22971143 -0.043535408
-0.18380538 -0.08544338 0.22427888 -0.015325424 0.10942858 0.08967754 -0.008687833 0.10118365
-0.03508272 -0.014990809 0.065955766 -0.12004068 -0.0077323355 0.14462231 0.038311765 -0.039798524
0.22299872 0.06218899 0.32752657 0.07048279 0.032997843 0.06803905 -0.26386288 -0.04416715
-0.067237936 -0.0064410754 0.044079356 -0.13390742 -0.22792758 0.046796802 0.0011423155 0.042732287
00000000: b2d4 a6be 76ca 71bd 718f 783b 68cf 5ebd
00000010: 20eb 0ebd 3200 1fbe baa8 033e 82a2 233d
00000020: cfdc 913e 473c 22be f947 973e 6c1d 103d
00000030: 631e 403e 4a67 153e 76a0 efbc fcfd 5c3d
00000040: 6ac2 8dbc 0ba3 843d 32e0 20bc a106 b93d
00000050: bdad a3be 76e0 7e3e 91e4 2c3e 65f0 1bbe
00000060: 7a90 4b3e d8a3 393e 9f11 1e3d 816e bc3c
00000070: 545b b7bd b7c4 cc3b 62bb 90be 091c 0e3e
00000080: 2d96 b93d d247 2ebe dd84 0dbe ef25 403d
00000090: 693b 223c 7f11 de3d 1e74 1d3e ba5e a3bd
000000a0: 8a56 e7bc 7989 5a3e c760 193d d955 4b3d
000000b0: 7e9d dcbd ffce 89bd bf0d 503d 291f 17bd
000000c0: 687d 823d 4d47 273e 3e0f b2bd 7579 91bd
000000d0: a799 36be 8608 823e 4f98 403e 92dc 153d
000000e0: f323 5d3e aac4 95be 55b1 7f3e 4fb7 3a3d
000000f0: d2ac 26be abee 30bc 45cb 143e 2520 a63b
00000100: 214e cfbd 543c 3e3e 668a 1dbb 5bef 85bc
00000110: c195 4aba c7e2 533e dfb6 f63d f323 3b3e
00000120: e38d aa3c ad71 473e 5914 043e a4aa 8a3d
00000130: 472f 383e 0fbd 0fbd 8c6d ddbc 3066 023e
00000140: c166 9e3d 5b80 873e 84e7 913d 07de 2cbd
00000150: ef48 393d 84d2 793d d752 483e d347 2cbe
00000160: 8c03 3d3d 7bcf 1b3e 0518 a63e db4e 9e3d
00000170: b387 003e 98fc 2a3e 6779 1e3e c4ee ccbb
00000180: cc17 a9bd 77bc 0c3e 4c86 b73d 51af 243c
00000190: a763 9bbd ec1b d9bc ec13 27bc bde5 4dbe
000001a0: 72c6 e5bb ea6a 543d c652 93be 2ee2 10be
000001b0: 76e6 7ebe 52d2 03be 37c6 17be 7c47 06be
000001c0: d021 21be 7fa0 91bc 8bf0 e8bd 2990 2fbd
000001d0: 3eb0 74be f8dc 89bd fed8 d13d 4399 e63c
000001e0: bde7 94bd 78f6 123e 84d7 0cbe d46a 7fbe
000001f0: ff16 0c3e 595e c0bc 141b 69be 813c 5abe
00000200: 5abe aabd 7a05 113d 6f65 dd3c 4949 103e
00000210: 4bed 1d3d 2685 bbbc e9a1 64be 13fd 9dbe
00000220: d25e 58be ae66 743d 5cb7 60be 4320 c43c
00000230: 8b18 0abb d6f7 85bc d82f fc3c 394e 95be
00000240: 8c70 ef3d 7962 b9bc 4b5d c83d 7448 c5bd
00000250: 5e44 7e3d aab6 bf3d b95c d1bd 416b 62be
00000260: 326c 8fbd 4831 31bd 65ab 8ebe f29e 233e
00000270: bf68 00be 42b4 8e3d d545 0cbd cb0d 47bd
00000280: 1b1a b0bd 6750 06be 3863 813e f4d7 383e
00000290: 982b 66be f197 66be 0a8e 6cbe dc81 8e3d
000002a0: 149b abbd c547 debd d96d 4fbe 5fa9 00be
000002b0: 761f 7dbb 1a7a 6ebe b45a 07be 7bed 29bd
000002c0: 69f2 0fbd df63 513e c5df 98bd e1ac ac3d
000002d0: a73c c33d 79ff 26be 34cc 6ebe 269a 8a3c
000002e0: 8ca4 83bc 9c3c a0bd 794e 20bd df1f 88bd
000002f0: 3300 74be e9e4 16be 2fa5 cdbd af76 0dbc
00000300: b173 abba 26a2 1dbe f600 89be 2407 a5bc
00000310: 2b07 043b 2872 cbbd 3a8b 783e 62d3 3a3b
00000320: 2aa7 a83c f502 4a3d ca46 0cbe 77dd d1bd
00000330: ac12 893e c4a2 e93e 8cca d0bd 7dec 0f3e
00000340: 8fc8 463e 78a6 96bc 43b2 0f3e f5cd 07be
00000350: 095a bb3d b74e 1fbe 6029 de3d e8d8 bcbd
00000360: a85b 86bd cbaa c03d eb2a 23bd 521c 143e
00000370: d7b4 08be aea8 b93d 7939 6b3e 2f52 32bd
00000380: 7a37 3cbe f0fc aebd 5da9 653e 7d17 7bbc
00000390: 171c e03d dca8 b73d 6a57 0ebc 6039 cf3d
000003a0: e6b2 0fbd 039c 75bc d113 873d e3d7 f5bd
000003b0: 885f fdbb df17 143e ccec 1c3d c703 23bd
000003c0: c759 643e e2b9 7e3d 90b1 a73e 4859 903d
000003d0: bf28 073d 0f58 8b3d 0919 87be 9de8 34bd
000003e0: 0bb4 89bd a80f d3bb 8e8c 343d 071f 09be
000003f0: d965 69be 01ae 3f3d bfb9 953a 0d08 2f3d

attn_layers.1.w_ks.weight f4 [256, 98]
-0.0730061 0.27475291 -0.043478034 -0.118758425 -0.09497416 -0.10989005 -0.22948599 0.029294567
0.093545906 -0.047316864 0.18419652 -0.12553568 -0.23627545 -0.1890442 -0.030398523 -0.014569085
0.23242153 -0.14997663 0.033495907 -0.14497927 0.15018348 -0.07368167 0.28553843 -0.24026279
-0.13847837 -0.2080807 -0.10292619 -0.42599657 0.1586072 -0.3089156 -0.06890634 -0.03946494
-0.14074895 0.10617783 0.16870335 -0.013920555 0.051114727 0.24504898 0.079747856 -0.083322026
-0.20996447 0.061867762 0.12030207 -0.102554485 0.06183541 -0.1749783 -0.24003412 -0.14748855
-0.113103345 -0.02841541 -0.054651834 0.05262745 0.2815577 -0.2644805 0.1599176 -0.16755134
0.018608067 -0.0023084884 -0.23544323 0.16301472 0.06804232 0.09066409 0.06409433 0.0065283086
0.009791248 0.20431246 0.025179148 -0.27521145 0.12012688 -0.17237659 -0.21000719 -0.10977276
-0.039261345 -0.08749833 -0.2712606 -0.15341485 0.045339927 -0.082316145 -0.21132828 -0.01509774
-0.11559298 0.022176659 -0.099448025 -0.14312847 0.10363003 0.055366077 -0.07129796 -0.12505391
-0.202224 -0.071403064 -0.31434947 0.09201227 0.23775567 -0.046823584 -0.06996933 -0.20322527
-0.36640063 -0.06734289 0.09851618 0.031000638 -0.0051651583 0.06222947 0.024727944 0.17830525
0.026332438 0.042957686 0.020318987 0.19857463 -0.18889257 -0.10411214 0.22567181 -0.11871994
-0.033084765 -0.13529192 -0.010005581 0.054760326 0.2733636 0.14102288 -0.34194586 0.07565877
-0.06899007 0.06410471 0.10631241 0.3264739 0.018161861 0.03524897 -0.027122492 0.2673002
0.080292985 0.25946468 -0.01701494 0.12495155 -0.22105512 0.12576343 -0.2246179 -0.07027453
-0.04774255 0.15705569 0.20660329 -0.030116672 -0.096354805 0.25867406 -0.12430196 0.13606131
-0.11271826 -0.049907573 0.14159599 0.22882937 -0.00616007 0.33268058 -0.077362396 0.49869332
-0.17005445 0.23674498 0.20017578 0.048892748 0.32595456 -0.07793115 -0.122278586 -0.0975005
-0.21089686 -0.12029724 0.34240884 -0.2220456 0.02841303 0.34453657 0.28680173 0.10343267
0.14527012 0.043364312 0.0119962925 0.15844041 -0.1195634 0.32159224 0.019442482 0.03920618
0.09955688 0.08679819 0.16715927 0.195589 0.06243793 0.27297333 -0.1016445 0.2294914
0.21661901 0.052700832 0.07099687 0.11050877 0.16824834 -0.09076217 -0.043891232 -0.046969727
0.14025313 0.1824694 0.2806514 0.07364945 -0.12714386 0.12930182 -0.08138179 -0.044897337
-0.19978102 -0.010807133 -0.15962216 0.13063556 0.010411472 0.033854175 0.20813878 -0.10772634
0.022178594 0.034102168 0.0349689 0.08033296 0.008934888 -0.01823087 -0.008666702 -0.20318079
-0.26361218 0.07641035 0.19309461 -0.092501886 -0.12230374 -0.48556 0.1099198 -0.021998223
-0.08864011 -0.074423455 0.22015768 0.11914066 0.058727164 -0.19312651 0.086592674 -0.095763534
-0.07969843 0.17643723 -0.07231673 -0.20944864 0.020683862 -0.13022809 -0.060462806 -0.054350942
0.06633923 0.023651892 0.07131356 -0.09584988 0.10044926 -0.10198897 0.13032117 -0.044415567
-0.05509686 -0.1216643 -0.17428705 -0.07989682 0.13976157 -0.13635749 -0.073791824 -0.32650062
00000000: 3984 95bd 6aac 8c3e 0616 32bd 9e37 f3bd
00000010: d081 c2bd 090e e1bd 60fe 6abe 29fb ef3c
00000020: ff94 bf3d 54cf 41bd 039e 3c3e 6d8c 00be
00000030: 31f2 71be ce94 41be 5306 f9bc 2cb3 6ebc
00000040: e9ff 6d3e 7993 19be 0133 093d 7275 14be
00000050: b3c9 193e 6ae6 96bd 1832 923e 7307 76be
00000060: 46cd 0dbe 1b13 55be f7ca d2bd 391c dabe
00000070: ed69 223e 2f2a 9ebe c41e 8dbd fda5 21bd
00000080: 7e20 10be c373 d93d 92c0 2c3e 0a13 64bc
00000090: ad5d 513d 1fee 7a3e d852 a33d bda4 aabd
000000a0: ed00 57be 0d69 7d3d ef60 f63d 1608 d2bd
000000b0: 2047 7d3d 832d 33be 81cb 75be 3d07 17be
000000c0: baa2 e7bd 6fc7 e8bc 9ada 5fbd e28f 573d
000000d0: 5528 903e fd69 87be 70c1 233e 9492 2bbe
000000e0: f26f 983c 024a 17bb 0818 71be 55ed 263e
000000f0: c659 8b3d 18ae b93d e343 833d 6ceb d53b
00000100: 786b 203c 4937 513e 8044 ce3c 84e8 8cbe
00000110: 1505 f63d 7d83 30be 200c 57be 8ad0 e0bd
00000120: 81d0 20bd 5332 b3bd abe2 8abe c818 1dbe
00000130: 5cb6 393d 5e95 a8bd 7166 58be 835c 77bc
00000140: 03bc ecbd d3ab b53c 68ab cbbd 4590 12be
00000150: fb3b d43d 8ac7 623d aa04 92bd 220e 00be
00000160: cf13 4fbe c53b 92bd 6af2 a0be ee70 bc3d
00000170: 3976 733e 16ca 3fbd 154c 8fbd 491a 50be
00000180: dd98 bbbe 12eb 89bd dac2 c93d 0df5 fd3c
00000190: 7d40 a9bb 54e4 7e3d 4292 ca3c a795 363e
000001a0: 20b7 d73c 66f4 2f3d 0174 a63c 2657 4b3e
000001b0: 0e6d 41be bf38 d5bd 8316 673e 7123 f3bd
000001c0: e483 07bd f789 0abe 73ee 23bc 5d4c 603d
000001d0: 50f6 8b3e 4d68 103e 8713 afbe fcf2 9a3d
000001e0: aa4a 8dbd 5549 833d 52ba d93d 9627 a73e
000001f0: 2fc8 943c 3961 103d fd2f debc 92db 883e
00000200: a670 a43d 8ed8 843e ea62 8bbc 99e6 ff3d
00000210: 465c 62be 21c8 003e 3c02 66be 18ec 8fbd
00000220: b18d 43bd 35d3 203e d08f 533e 3db7 f6bc
00000230: ab55 c5bd ed70 843e 0792 febd a853 0b3e
00000240: d5d8 e6bd e26b 4cbd 8afe 103e 3f52 6a3e
00000250: 6ada c9bb 1c55 aa3e 2d70 9ebd bb54 ff3e
00000260: c122 2ebe 476d 723e e1fa 4c3e c343 483d
00000270: 84e3 a63e 5e9a 9fbd 326d fabd 58ae c7bd
00000280: 59f5 57be 665e f6bd 3650 af3e ec5f 63be
00000290: 71c2 e83c 1967 b03e add7 923e 82d4 d33d
000002a0: b1c1 143e c79e 313d 198c 443c 343e 223e
000002b0: a8dd f4bd bda7 a43e d745 9f3c a996 203d
000002c0: 7ae4 cb3d 40c3 b13d cd2b 2b3e 7c48 483e
000002d0: eabe 7f3d 29c3 8b3e fe2a d0bd cbff 6a3e
000002e0: 60d1 5d3e d4dc 573d cf66 913d 6c52 e23d
000002f0: 4b49 2c3e 84e1 b9bd 4bc7 33bd 5463 40bd
00000300: 849e 0f3e 42d9 3a3e 8ab1 8f3e 86d5 963d
00000310: 0032 02be b267 043e 7fab a6bd 45e6 37bd
00000320: 6593 4cbe 6710 31bc fe73 23be 54c5 053e
00000330: e194 2a3c adaa 0a3d 5522 553e a19f dcbd
00000340: e2af b53c b7ae 0b3d 8d3b 0f3d 9b85 a43d
00000350: a363 123c e858 95bc c8fe 0dbc a00e 50be
00000360: 2df8 86be 087d 9c3d 98ba 453e a171 bdbd
00000370: 627a fabd 529b f8be a21d e13d 9e35 b4bc
00000380: f288 b5bd 536b 98bd 0471 613e 0500 f43d
00000390: e58b 703d f5c2 45be 8057 b13d ac1f c4bd
000003a0: ee38 a3bd f6ab 343e cb1a 94bd b479 56be
000003b0: 3471 a93c 835a 05be d9a7 77bd 189f 5ebd
000003c0: dddc 873d 9dc1 c13c d80c 923d f14c c4bd
000003d0: 57b8 cd3d 98df d0bd ea72 053e 19ed 35bd
000003e0: 3fad 61bd 222b f9bd 4e78 32be f2a0 a3bd
000003f0: a81d 0f3e 4ca1 0bbe 2b20 97bd 172b a7be

attn_layers.1.w_vs.weight f4 [256, 98]
0.05738394 -0.17931578 0.16836536 0.101812325 0.08196106 -0.0054572034 -0.18847361 0.15966529
0.051208943 0.26883084 -0.29324672 -0.010699688 0.07263148 -0.1666292 -0.09212412 0.14400738
0.17364466 0.04607346 -0.2526112 0.04448637 -0.29402727 0.06999377 0.004665058 0.0937581
0.13056172 0.1519049 0.21102014 0.043370873 0.08540078 0.08985835 0.039841536 0.102382444
0.08985916 0.18353409 -0.2225193 -0.100821316 -0.20679502 -0.17090376 0.09799618 0.09245795
-0.11753308 0.30420223 -0.08967677 0.17153557 0.09586164 0.015769852 0.19286919 0.1137028
-0.18062913 -0.0637626 0.040578857 0.12338635 -0.11795642 -0.18494785 0.042755183 0.0330976
0.10328517 -0.06974597 0.14713086 -0.12699738 0.21623558 -0.1022293 0.0465981 -0.3123406
-0.5550112 -0.21763615 -0.045799986 -0.15233119 0.21351813 0.09909748 -0.097145975 -0.07510407
0.1669069 -0.07380819 -0.20793271 0.050629314 -0.17389427 -0.036328245 -0.19915642 0.08601092
0.08249144 -0.100907594 -0.06755896 -0.023338381 0.015886161 0.13183185 0.27312234 -0.11815835
0.20288764 -0.16476148 0.09280209 -0.16602723 0.17359364 0.0027687112 0.071664184 0.072720796
-0.022341669 -0.09217534 0.12864444 -0.20275989 0.2446116 -0.10799202 0.19301361 0.14383698
-0.091578774 0.021583082 0.17793913 -0.036663476 -0.063691504 0.14708559 0.00041851331 -0.11988353
-0.13345188 0.059957124 -0.19785768 0.17943148 -0.048191287 -0.019062918 -0.2006939 0.20933053
0.03914659 0.02606283 -0.10355198 -0.08695101 -0.14203899 -0.06333378 -0.23540929 -0.17122614
0.19833165 0.20964903 0.0443922 -0.06595089 -0.1334426 0.04850285 -0.16214502 0.032572065
0.15319307 0.083316065 -0.28362378 -0.034635633 -0.10216293 0.038776588 0.13345103 0.12899455
0.06582184 -0.11057029 0.05594158 0.19991897 -0.2881078 0.112613775 0.073861964 0.05312147
-0.05939268 -0.21824107 0.028952202 -0.25049168 -0.034049444 0.010657775 0.06463691 -0.101467766
0.059283197 -0.11018673 -0.3091317 0.0051096426 -0.19645931 -0.2027035 -0.05446698 -0.16858916
-0.13678646 0.02860915 -0.17484272 0.057013057 -0.061133876 -0.07034847 -0.22170858 -0.020504722
-0.11481641 0.013312449 -0.07038753 0.0043345755 -0.005206524 0.20831986 -0.15436698 -0.16125417
0.021971231 0.045996174 0.029935792 0.06589479 -0.0019817264 -0.05417904 0.007470507 0.11493314
-0.14313485 -0.11382699 -0.0020509847 0.11682061 0.04477007 0.0075803394 -0.04105972 -0.11851777
0.1037788 -0.19419134 0.17302603 0.17972146 -0.17092735 -0.07287071 -0.049098596 -0.081022665
-0.0739308 0.12080129 0.0017216661 0.11638097 0.013939929 -0.010184861 -0.123195864 -0.078723274
0.1563924 0.046570227 -0.030875865 0.18745744 -0.12393077 -0.12788811 0.0027738882 -0.0022377307
-0.10874931 0.26276964 -0.094259955 0.004416303 0.10983965 0.104070835 0.15778406 0.078417875
0.23302361 -0.13330428 -0.14388256 -0.01774044 -0.19597185 -0.051205106 -0.0847765 0.09132812
-0.2283995 -0.15899803 -0.08200771 -0.09824244 -0.16590238 -0.28022876 -0.026165077 -0.032931015
0.044703465 -0.0050113588 -0.14850919 -0.014081571 -0.17759939 0.3111271 0.05937889 -0.14104468
00000000: 6c0b 6b3d 8e9e 37be f867 2c3e fb82 d03d
00000010: 33db a73d 57d2 b2bb 3aff 40be 4c7f 233e
00000020: 78c0 513d 32a4 893e 6f24 96be bf4d 2fbc
00000030: d0bf 943d d8a0 2abe 92ab bcbd ac76 133e
00000040: e8cf 313e 86b7 3c3d 4156 81be 5737 363d
00000050: be8a 96be e558 8f3d 58dd 983b 3f04 c03d
00000060: f9b1 053e f58c 1b3e aa15 583e a8a5 313d
00000070: 9be6 ae3d a807 b83d e130 233d e3ad d13d
00000080: 1408 b83d 5cf0 3b3e 19dc 63be 687b cebd
00000090: 13c2 53be 6501 2fbe 39b2 c83d 985a bd3d
000000a0: 2fb5 f0bd 65c0 9b3e 74a8 b7bd 05a7 2f3e
000000b0: 1c53 c43d c72f 813c 807f 453e 03dd e83d
000000c0: d8f6 38be f795 82bd 0436 263d fcb1 fc3d
000000d0: 2393 f1bd f862 3dbe 0f20 2f3d 5991 073d
000000e0: 2d87 d33d fad6 8ebd 79a9 163e 9a0b 02be
000000f0: dc6c 5d3e 985d d1bd a6dd 3e3d 1beb 9fbe
00000100: 3715 0ebf 03dc 5ebe c498 3bbd b5fc 1bbe
00000110: 7fa4 5a3e 9ff3 ca3d 78f4 c6bd 2ad0 99bd
00000120: a4e9 2a3e c028 97bd 50ec 54be af60 4f3d
00000130: 5711 32be edcc 14bd a9ef 4bbe 7e26 b03d
00000140: 46f1 a83d a4a8 cebd 5a5c 8abd 2230 bfbc
00000150: b223 823c eefe 063e b1d6 8b3e 01fd f1bd
00000160: c7c1 4f3e 3cb7 28be 060f be3d 0b03 2abe
00000170: 88c2 313e 4473 353b acc4 923d a4ee 943d
00000180: e005 b7bc 6dc6 bcbd 5ebb 033e 4aa0 4fbe
00000190: 777b 7a3e ec2a ddbd 5ca5 453e 004a 133e
000001a0: a78d bbbd 01cf b03c ad35 363e 712c 16bd
000001b0: b170 82bd 9b9d 163e e86b db39 7f85 f5bd
000001c0: 9ca7 08be 9a95 753d 349b 4abe e3bc 373e
000001d0: 3a64 45bd d629 9cbc b482 4dbe be5a 563e
000001e0: 2d58 203d b781 d53c 0f13 d4bd 5f13 b2bd
000001f0: ab72 11be 24b5 81bd 220f 71be e855 2fbe
00000200: 7417 4b3e 3cae 563e 98d4 353d 4311 87bd
00000210: 2da5 08be edaa 463d 5809 26be 496a 053d
00000220: a5de 1c3e 9da1 aa3d 2337 91be 18de 0dbd
00000230: cc3a d1bd 33d4 1e3d 63a7 083e 2617 043e
00000240: 9acd 863d ad72 e2bd 0023 653d 8fb7 4c3e
00000250: de82 93be 0da2 e63d f144 973d e695 593d
00000260: bd45 73bd 967a 5fbe 2b2d ed3c 7240 80be
00000270: 6e77 0bbd f39d 2e3c 5b60 843d 55ce cfbd
00000280: f0d2 723d 95a9 e1bd 8346 9ebe ca6e a73b
00000290: a12c 49be 8291 4fbe c518 5fbd a3a2 2cbe
000002a0: c011 0cbe bc5d ea3c f809 33be 8686 693d
000002b0: 8467 7abd dc12 90bd 9307 63be 85f9 a7bc
000002c0: de24 ebbd 751c 5a3c 5627 90bd 0e09 8e3b
000002d0: 7d9b aabb cd51 553e 6112 1ebe d01f 25be
000002e0: 03fd b33c 7c66 3c3d e83b f53c d9f3 863d
000002f0: dadf 01bb d7ea 5dbd 28cb f43b 1162 eb3d
00000300: f191 12be 201e e9bd d069 06bb a53f ef3d
00000310: d260 373d 7f64 f83b 3d2e 28bd 72b9 f2bd
00000320: fb89 d43d 18da 46be bc2d 313e e708 383e
00000330: 9407 2fbe 3d3d 95bd 9c1b 49bd 36ef a5bd
00000340: 0869 97bd ab66 f73d 87a9 e13a 2559 ee3d
00000350: 4d64 643c 67de 26bc 1d4e fcbd ab39 a1bd
00000360: 5425 203e 6cc0 3e3d 62ef fcbc d8f4 3f3e
00000370: 6acf fdbd 1af5 02be 1fca 353b e4a6 12bb
00000380: f5b7 debd be89 863e 5d0b c1bd a2b6 903b
00000390: 9cf3 e03d 1723 d53d 2592 213e 8d99 a03d
000003a0: be9d 6e3e eb80 08be f355 13be 6654 91bc
000003b0: d8ac 48be 72bc 51bd 4d9f adbd 3d0a bb3d
000003c0: 8fe1 69be 61d0 22be a9f3 a7bd 5533 c9bd
000003d0: 50e2 29be 257a 8fbe 2558 d6bc ace2 06bd
000003e0: fb1a 373d 5336 a4bb cb12 18be 64b6 66bc
000003f0: 9ddc 35be 0d4c 9f3e 4737 733d 046e 10be
