experiment/IBM_HI_S/GraphSAGE/GraphSAGE_checkpoint.pt (torch_old, 46826 bytes, 6 tensors)

gcn_layers.0.layer.weight f4 [64, 46]
000000 b3 01 94 3d 9f 8e 39 3e 64 b6 ab c0 8a 2d c3 c0
       0.072268866 0.18120812 -5.3660145 -6.099309
000010 77 2a f3 c0 62 00 92 be e7 86 6d 3e 64 cc 2e 3e
       -7.5989337 -0.28515917 0.23195992 0.17070156
000020 07 b8 04 bf d8 ea 99 3e de 70 b2 3e 4b b5 f7 bd
       -0.51843303 0.30061984 0.34851736 -0.12095126
000030 81 34 8a ba 85 11 97 3e a2 b8 14 3e 71 5e 8e be
       -0.0010544212 0.29505554 0.14523557 -0.27806428
000040 2f be 91 c0 6c 01 90 be 02 83 27 3f 62 ce a1 be
       -4.554466 -0.28126085 0.6543428 -0.3160277
000050 97 2d d1 bf 41 2c 20 3e 67 7d 8f bf 65 57 74 be
       -1.6342038 0.15641882 -1.1210145 -0.23861463
000060 24 f1 1d be 74 6b 71 3e 8d 39 2b bc ac 29 f2 3d
       -0.15424019 0.23576146 -0.010450733 0.118243545
000070 8e 5b 24 3e 23 b9 a8 bf ed 3e 11 3e f8 62 bd 3e
       0.1605055 -1.3181499 0.1418416 0.3698957
000080 9c f9 68 3f 2b 7a 7a bf 73 3c cb bc 7b c6 63 bd
       0.91005874 -0.97842664 -0.024809098 -0.055609208
000090 e1 8c 11 3d 00 df 0d 3f bb 4e 12 bf 4d e4 27 be
       0.035534743 0.55418396 -0.57151383 -0.16395684
0000a0 04 ce 9c bf b3 b0 66 3d 5e e0 6d be e5 24 06 3c
       -1.2250371 0.056320857 -0.2323012 0.008187507
0000b0 7c 29 98 3e 00 95 88 3f 9e 15 09 bf ba a3 2d bd
       0.2971915 1.0670471 -0.5354861 -0.04239247
0000c0 bd 69 aa 3e cd 23 93 be 49 30 f3 be 18 49 bb bf
       0.33283797 -0.2873825 -0.47497776 -1.4631681
0000d0 92 25 25 3e 05 f7 8c 3f 34 cf 47 3f aa 5c 54 3e
       0.16127613 1.1012884 0.7805054 0.20738474
0000e0 67 20 2b be 75 8a e9 be 97 c1 ca 3f a2 a5 b8 3d
       -0.1671158 -0.45613447 1.5840329 0.09015967
0000f0 74 6e 91 3e 64 2e 04 be 10 7a 12 c0 26 81 e5 be
       0.28404582 -0.12908322 -2.2887 -0.44825095
000100 a3 c0 65 bd bd 8c 2f 3f 7c 79 ac 3e 47 f9 d9 3f
       -0.056091916 0.68574125 0.33686435 1.7029198
000110 8a c8 08 3e 43 dc 3a be d6 aa ac 3e 9a 13 bf 3e
       0.1335775 -0.18248086 0.33724087 0.37319642
000120 12 c1 05 be f9 24 58 bc bb 35 06 c0 ff 21 51 bf
       -0.13061932 -0.013192409 -2.0970294 -0.816925
000130 75 5b bd be e8 6b 14 3e 8c 89 d5 be 58 f9 3c 3f
       -0.3698384 0.14494288 -0.41706502 0.7381797
000140 b1 63 c4 3d 87 10 fe bf a5 61 0b 3f c2 9e 56 3f
       0.09589327 -1.9848794 0.5444587 0.83835995
000150 9e 24 76 3f 6c 03 d8 be 16 43 1f bd ac 24 16 3f
       0.96149623 -0.4219011 -0.038882338 0.58649707
000160 31 40 01 3f 49 c9 9f be f4 8b 67 3f f8 0f a7 be
       0.50488573 -0.31208256 0.90447927 -0.3262937
000170 e3 f7 4d 3e 1d a9 29 3d 5c 45 63 c0 22 b2 e6 c0
       0.20114093 0.041421045 -3.5511084 -7.2092447
000180 c2 d1 ca c0 e0 da 02 c0 3b 1f 2f 3f bc 4e 18 bf
       -6.338105 -2.044609 0.6840703 -0.5949514
000190 09 6a 9b bf 5e 11 12 bf 9f 21 62 bd d8 53 a5 be
       -1.2141734 -0.5705775 -0.055207845 -0.3229053
0001a0 57 24 cd 3f 5c 9d 6e 3e 30 ab a2 be 9c be 4e bf
       1.6026715 0.23302215 -0.3177123 -0.80759597
0001b0 c6 56 81 bf 77 be 81 bf 19 2e d7 3b bb 8c 9b 3e
       -1.0104606 -1.013625 0.0065667746 0.30380806
0001c0 47 50 af be b2 a0 9d 3e 8a fe da 3e 3f 05 7b bd
       -0.34240934 0.30786663 0.42772323 -0.0612843
0001d0 b1 2c c4 be d6 78 a0 3f d5 04 fc be 96 4d c1 3c
       -0.38315347 1.2536876 -0.49222437 0.023596566
0001e0 02 e5 27 3d df 59 fb bf b1 41 84 be 59 a2 a5 3e
       0.040989883 -1.9636801 -0.2583137 0.32350424
0001f0 af 70 eb bf 24 88 dd bd 0a 87 a9 be 50 c1 0e 3d
       -1.8393763 -0.108169824 -0.3311084 0.034852326
000200 b6 83 10 bf 2f ef 78 3f b3 6f ea 3e 5c d1 20 3e
       -0.56450975 0.97239965 0.45788345 0.15704864
000210 ad 8c 7b 3f 3d ce dd 3e 10 51 2b be 20 a7 38 3e
       0.9826153 0.4332141 -0.16730142 0.18032503
000220 b8 d7 36 bf 08 60 25 bf d7 3d ed 3d 2c ff 6a be
       -0.7142291 -0.6459966 0.11584061 -0.22948903
000230 d2 51 24 bf 5f 07 19 3e 11 b2 ff 3c d6 99 8e 3e
       -0.6418735 0.14944218 0.031212838 0.27851743
000240 ea 84 06 bf dc d7 97 3f 0c f7 60 bf b1 68 6f 3d
       -0.5254656 1.186275 -0.87876964 0.05844945
000250 17 c6 22 c0 9d 7b 36 3f 76 7c 05 bf e2 35 79 bf
       -2.5433404 0.7128237 -0.5214304 -0.97347844
000260 f2 fb 8b be 3d 91 a6 be 1d c3 44 3f bd af 2c bf
       -0.27340657 -0.32532683 0.7686022 -0.67455655
000270 5b f0 1f 3f 61 ff a8 bf 2b 0a 44 bf 33 dc 32 be
       0.6247613 -1.3202935 -0.76578015 -0.17466812
000280 94 dd 22 3f 7a 63 07 3e ea e7 83 be 7e 07 b7 bf
       0.6361935 0.13221541 -0.25762874 -1.4299161
000290 20 ec a1 bf ea a6 b0 3e 8c 19 25 bf 8c 59 50 3e
       -1.2650185 0.34502345 -0.64492106 0.2034666
0002a0 e1 79 1f 3f 59 ff 1b bf db dc 32 bc 34 07 89 bd
       0.6229535 -0.60936505 -0.010916914 -0.06690827
0002b0 e9 7b c7 3d 03 e6 f1 3f ff 6d 68 c0 12 a5 64 bf
       0.09740431 1.8898319 -3.6317136 -0.8931438
0002c0 d2 a6 00 c0 20 06 b9 bf db ab e5 be d9 43 fe 3e
       -2.010182 -1.4454994 -0.44857678 0.4966114
0002d0 6c ce a1 bf e9 f8 a6 3d ff c2 7a bf 62 0b d3 bd
       -1.264112 0.081529446 -0.9795379 -0.103049055
0002e0 43 93 be bd e8 de e3 3e dd a4 b8 3e a1 ef 00 3f
       -0.09305432 0.44506 0.3606328 0.50365645
0002f0 de af 4b 3f 15 70 07 bf 1a 18 af bf b6 b1 1a bf
       0.7956523 -0.529054 -1.367923 -0.60427415
000300 f6 c9 dc 3e 7c 01 e3 bf ce 7a a6 3e 1c a2 df 3e
       0.43122834 -1.7734828 0.32515568 0.43678367
000310 8d c4 a0 3f 35 21 5b be 12 4c 79 c0 3e 53 93 c0
       1.2559983 -0.21399386 -3.895268 -4.6039114
000320 8b 56 a7 c0 5b 6a c6 bc 91 0e 18 3f 89 a6 02 3f
       -5.2293143 -0.024220636 0.59397227 0.5103536
000330 50 b5 e7 bf ba 2c d1 bf ba 77 8c 3e 46 34 7d 3e
       -1.8102207 -1.6341774 0.27435094 0.24726972
000340 84 88 f8 bd 75 13 e6 bf a0 90 06 3f 7c cf 87 3f
       -0.12135413 -1.7974688 0.5256443 1.0610194
000350 7d 56 2f be ed 2f 9a 3e 47 4f c6 3d 14 5a 0d bf
       -0.17122836 0.3011469 0.0968309 -0.55215573
000360 17 d4 98 be c5 60 71 3f 8c 49 8e 3e 2e a2 e6 bf
       -0.29849312 0.94288284 0.27790487 -1.8018243
000370 2f 26 93 bd 5c 29 96 3e 04 83 b2 3c 82 37 e0 bf
       -0.07185017 0.2932843 0.021790989 -1.751694
000380 d5 e9 28 3f 7e c6 8f be c4 fb b5 bd 7e 52 30 3e
       0.659818 -0.28081125 -0.08885911 0.17218968
000390 25 c7 b7 bf 28 85 ed 3d 06 6a 9d be 6d 09 bb 3f
       -1.4357649 0.11597663 -0.30744952 1.4612252
0003a0 32 e0 84 3e ce 83 61 3c 96 19 df bc d4 a8 84 bf
       0.25952297 0.013764335 -0.02723388 -1.0364022
0003b0 05 9b 4c c0 96 71 e7 bb 91 e7 8e be 75 ee b1 3e
       -3.1969616 -0.007063101 -0.27911046 0.3475224
0003c0 2a 92 08 3e da 0e 07 3f 84 57 4b 3f 16 fa a7 3e
       0.13337007 0.52757037 0.79430413 0.32807988
0003d0 74 46 49 3e 06 75 47 3e 6d bf 22 c0 cb a7 c8 bf
       0.19655782 0.19478235 -2.5429337 -1.5676206
0003e0 b3 5f 6e 3f 42 bd 51 bf b0 03 01 3f 81 ed a6 3f
       0.93114775 -0.8192941 0.5039625 1.304123
0003f0 91 84 9e 3e 68 de 66 3f ba ed a2 bf 4b 43 b7 be
       0.30960515 0.90183115 -1.2728798 -0.35793528

gcn_layers.0.layer.bias f4 [64]
000000 e0 6a 3d bf 56 2e a4 bf 63 31 21 bf 4c 3f 76 bf
       -0.73991203 -1.2826641 -0.62965983 -0.96190333
000010 ab fb 22 3e b8 dd 6f c0 31 d4 66 bf 45 c8 d4 bf
       0.15916316 -3.7479076 -0.9016753 -1.6623617
000020 2a 60 dc bd 8f 41 57 bf 73 bf dd bd da 12 a9 bf
       -0.10760529 -0.8408441 -0.10827532 -1.3208878
000030 c6 f3 a6 bf 27 79 b3 bf 50 c2 d2 bf de 1f 73 3e
       -1.3043144 -1.4021348 -1.646555 0.23742625
000040 c9 e7 b3 3f 50 78 8a bf 71 00 b6 bd 0e 2b fa 3c
       1.405511 -1.0817966 -0.08886803 0.030538108
000050 6c 13 24 bf d4 14 11 c0 a3 87 db bf e8 60 3b 3f
       -0.64092135 -2.2668962 -1.7150768 0.7319474
000060 48 3a 15 c0 3a b1 ad be 4d 22 8b be 5a 8d 5f 3f
       -2.3316822 -0.33924276 -0.27174607 0.8732506
000070 31 d4 2e c0 0d 98 e1 bf 48 dd a7 bd 2f 60 d5 be
       -2.7317011 -1.7624527 -0.08196503 -0.41674945
000080 b4 6b c4 bf 1a 7c fa be 67 d3 54 bf d5 e2 a2 bf
       -1.5345368 -0.48922807 -0.83135074 -1.2725474
000090 f8 23 d0 3e c9 a2 91 bf 51 e2 18 c0 6e 28 3e bf
       0.40652442 -1.1377803 -2.3888133 -0.7428044
0000a0 0f 44 96 bf a5 18 fb bf 7d 28 34 3f 0c 4f 21 c0
       -1.173952 -1.9616896 0.7037428 -2.5204496
0000b0 be db d3 bf 5a 2c cf bf 53 85 2b bf b0 71 ac be
       -1.6551435 -1.618541 -0.6700031 -0.33680487
0000c0 b8 45 88 be 57 7a 53 bf 02 c0 be 3f ef 89 e1 3e
       -0.2661569 -0.8260855 1.4902346 0.44050547
0000d0 d1 56 48 bf 06 fa 85 bf 66 e6 9d bf 7a 97 e6 bf
       -0.7825747 -1.0466926 -1.2335937 -1.8014977
0000e0 15 05 44 3f 71 de 98 3d e5 27 7c 3f 76 d0 c3 bf
       0.76570255 0.07464302 0.98498374 -1.5297992
0000f0 13 49 ad bf fe e2 f4 be 9e 17 20 c0 48 fe 34 c0
       -1.3537925 -0.4782943 -2.5014415 -2.82802

gcn_layers.1.layer.weight f4 [64, 128]
000000 32 b6 e4 3e 5a 4d 6e be a1 b7 b1 be 11 be cf bd
       0.44670254 -0.23271695 -0.3471041 -0.10143674
000010 34 d6 6d be 5d 83 63 3f 61 6e 78 bf 06 5d ab 3e
       -0.23226243 0.8887232 -0.97043425 0.3346941
000020 f7 f0 0a 3d 7f 33 c1 bd d2 b8 9d be cb c5 cf be
       0.03392121 -0.0943365 -0.3080507 -0.40580592
000030 3f 8b 0f 3f aa bc 54 bf 12 8c 72 3e 3a b8 ff 3d
       0.5607185 -0.8310038 0.23686245 0.1248631
000040 cd f5 c4 be a4 64 9f be b8 11 d6 be d6 c3 15 be
       -0.3846878 -0.3113147 -0.41810393 -0.14625487
000050 46 c1 80 be 33 0f a5 3d 27 d5 c2 be 72 c5 fa be
       -0.25147456 0.0805954 -0.38053247 -0.48978764
000060 f9 58 ec 3e 00 14 bc 3e 40 ac 6e bd c2 04 49 be
       0.4616163 0.3673401 -0.05826974 -0.19630721
000070 11 cb 0a bf 5e d2 0a bb 69 d1 9d 3e ef 7f 7d bc
       -0.54216105 -0.0021182518 0.3082383 -0.015472396
000080 aa 4b 46 3e d4 b6 05 3e 26 c1 12 3c 6f 70 c3 be
       0.19364801 0.13058025 0.008957183 -0.38171718
000090 ef 72 1f bf 46 a4 e1 3e 98 9f ce 3e 3c 48 4e bd
       -0.6228475 0.44070643 0.40356135 -0.050361857
0000a0 04 50 fd 3e 24 06 a1 3f ab a6 49 be 75 be 76 3e
       0.4947511 1.2579999 -0.19692485 0.24096091
0000b0 4a df 17 bf 86 33 bc 3d f9 fd 4e be 69 97 a9 be
       -0.5932509 0.09189515 -0.2021407 -0.3312333
0000c0 00 8f 60 be 0c 03 f3 be 60 dc a4 be 9a 97 a6 be
       -0.2192955 -0.47463262 -0.32199383 -0.32537538
0000d0 2d ce fa 3c ff 3f 23 3c 86 24 2b bd dd 71 47 3f
       0.03061589 0.009963988 -0.04178288 0.77908117
0000e0 b5 1a ae 3d 71 b6 db be b9 90 aa bd 50 18 aa bd
       0.08501188 -0.4291263 -0.08328385 -0.083054185
0000f0 b7 1f 63 be 27 3e ac be ca 3f 0d 3f 2e 6a a3 3d
       -0.22180067 -0.33641168 0.5517546 0.079792365
000100 e0 10 36 bf 5c 7d 0b bf 01 27 56 be f2 4d fa be
       -0.711195 -0.5448816 -0.20913316 -0.48887593
000110 27 8a 20 bf e7 85 2e bd bc dd b5 be 7f 95 19 bf
       -0.62710804 -0.042608168 -0.35520732 -0.5999374
000120 e7 66 13 bf c5 2f 43 bf c4 a9 04 bf 00 f2 d3 be
       -0.5757889 -0.76244766 -0.5182154 -0.4139557
000130 53 4f cb be 14 42 33 bf b6 82 0f bf 4f 07 1a bf
       -0.39708957 -0.700227 -0.56058824 -0.601674
000140 e2 af 24 bf 4e c1 a5 be 24 ef 2b bf 61 3f aa bf
       -0.64330876 -0.32374042 -0.67161775 -1.3300592
000150 31 18 2c bf 69 d8 60 bf 92 c5 07 be 86 64 94 bf
       -0.67224413 -0.87830216 -0.13258961 -1.1593177
000160 bd 9e ec bd fd a7 1f bf e0 34 94 bd 2d 4b 86 3c
       -0.115537144 -0.62365705 -0.072366476 0.016393268
000170 10 9c 99 be 22 2b 17 bf 39 92 98 bd 12 21 af bb
       -0.3000188 -0.5905019 -0.07449765 -0.0053445185
000180 ed 54 b4 be 55 39 24 bd 27 43 e7 be 29 20 27 bf
       -0.35221043 -0.04009374 -0.4516842 -0.6528345
000190 50 4c fd be 33 5b a1 3e 3e 29 49 be 07 16 95 bf
       -0.49472284 0.31514892 -0.19644639 -1.1647347
0001a0 c1 46 e0 3e f5 f9 f5 be ec f1 75 be 4c c9 f0 be
       0.4380398 -0.48042265 -0.24018067 -0.47028577
0001b0 48 48 d7 be d3 15 1a bf 0a e7 c6 be cd ee 8b bf
       -0.42047334 -0.6018955 -0.38848144 -1.0932251
0001c0 6b 1a dd be 1c 32 54 bf 8f e5 1d bf 5b df d4 be
       -0.43184218 -0.8288896 -0.61678404 -0.41576657
0001d0 be e7 7a be 6d 1d 05 bf 04 00 d6 bd 45 ae ed bc
       -0.24502465 -0.51998025 -0.10449222 -0.029013762
0001e0 9d bd b9 be 54 ed 0c bf d7 70 1a bf 9f cd 44 3e
       -0.36277476 -0.55049634 -0.6032843 0.19219063
0001f0 b0 31 b1 be 5d 27 5a bf 66 1c ef 3d 02 53 f7 3e
       -0.3460822 -0.85216314 0.116753384 0.48305517
000200 85 99 56 c0 d5 f9 ad bf 2d c7 86 c0 0f 32 23 3e
       -3.35312 -1.3591868 -4.2118134 0.15937065
000210 dc 6e 77 3e f9 36 87 c0 f7 62 0c c0 e4 6c 0b c0
       0.24163383 -4.2254605 -2.1935403 -2.1785212
000220 5a ea 61 bf ee 3f ce 3f 21 61 8b bf bf b7 b3 bf
       -0.8824822 1.611326 -1.0889016 -1.404045
000230 73 a8 99 c0 03 15 c5 3f 7c 28 35 c0 7e 23 ad bf
       -4.8018126 1.5397037 -2.830596 -1.3526456
000240 82 12 57 c0 16 e9 bf 3f 05 6b 45 3f be 96 43 3f
       -3.3605046 1.4993007 0.77116424 0.7640189
000250 b5 46 51 c0 8c 75 7d c0 e0 96 5f c0 ac de af 3f
       -3.2699406 -3.9602995 -3.4935837 1.3739829
000260 38 31 5a bf 96 86 ac c0 ab ef 97 c0 0c 3a 31 3f
       -0.8523135 -5.391429 -4.7480063 0.692292
000270 dd 67 af c0 ed 50 f0 bd 81 47 eb 3d 98 5c 51 be
       -5.4814286 -0.11734185 0.11488248 -0.20445478
000280 55 4c d6 bf e4 43 b6 bf de 38 70 c0 2b 1d af c0
       -1.6742045 -1.4239469 -3.753471 -5.4723105
000290 29 33 6d bf 16 89 33 c0 32 6d 6a c0 c9 8b 22 c0
       -0.9265619 -2.805242 -3.6629148 -2.5397818
0002a0 d1 05 8e c0 2d 6d cf bf 98 ed a6 c0 77 c9 39 bf
       -4.43821 -1.6205193 -5.216503 -0.72573036
0002b0 2f c5 59 bf 8c fa 8d bf bd 1e 04 c0 10 5c 98 bd
       -0.85066503 -1.1092086 -2.064376 -0.074394345
0002c0 37 c2 09 3e 6e 50 59 bf 1c 26 4a c0 1a a4 43 bf
       0.13452993 -0.8488835 -3.158576 -0.76422274
0002d0 ae 05 07 40 d6 5a 28 bf 8a 42 37 c0 06 cf d5 bf
       2.1097217 -0.65763605 -2.8634362 -1.6703804
0002e0 b9 a6 a2 3e 1b 5c c0 bf 86 07 4e bf 88 95 26 bf
       0.31767824 -1.5028108 -0.8048023 -0.65071917
0002f0 77 ac 24 c0 8a 08 8c 3f ee 4b 99 3d bc 30 ad bf
       -2.5730264 1.0940106 0.074851856 -1.3530498
000300 be b1 1f be e0 77 02 3e 1f 82 d6 3e 16 98 98 3f
       -0.15595147 0.12741041 0.4189615 1.1921413
000310 51 81 43 3c 44 9d 74 be 3e be f4 3e 3c 68 c4 bf
       0.011932687 -0.23888117 0.47801393 -1.534431
000320 d2 c5 5a be 1d ef 61 3e 18 68 53 3d c3 56 61 3d
       -0.21364525 0.2206387 0.051612943 0.055014383
000330 c2 34 ca be d4 75 b6 3f e2 79 16 bf 33 92 2d 3e
       -0.39493376 1.4254708 -0.5877973 0.16950302
000340 60 31 35 bc 85 7a 91 bd aa cf 51 bd e5 9b 8b bd
       -0.011059135 -0.07103447 -0.051223435 -0.06816844
000350 c0 b8 82 3e 42 f0 23 bf 60 00 ae 3e 17 3e 7f 3e
       0.25531578 -0.6403848 0.3398466 0.24926029
000360 89 6c f9 bd 44 d8 02 bf 83 da 27 bd 62 d6 de bd
       -0.121789046 -0.51111245 -0.040979873 -0.10880734
000370 7c 92 10 bf 91 a7 5d bf f5 56 a3 be 82 92 53 3f
       -0.5647352 -0.8658381 -0.3190228 0.8264543
000380 20 9d a9 bd b6 26 de 3e 7b a5 4e 3e 86 a4 a5 bf
       -0.08281922 0.4338891 0.20180313 -1.2940834
000390 ff e7 c3 3d 95 cd 68 be ab b1 8e bf f3 aa 8a bf
       0.09565734 -0.22734673 -1.114797 -1.083342
0003a0 3a 67 23 bd d7 36 a3 3c 8c e4 03 3f df c7 06 bf
       -0.039893366 0.01992361 0.5152061 -0.5264873
0003b0 04 6c e0 3e 1d 2b c2 be 8a 88 50 bf bb 2d f7 bd
       0.4383241 -0.37923518 -0.8145834 -0.12069269
0003c0 e7 98 f1 bd 5c ef bf 3f 31 2b 92 3e e2 85 2e bf
       -0.11796742 1.4994922 0.28548577 -0.6817304
0003d0 3d 11 b0 ba f0 d1 8e bf 71 94 98 bf 83 ae 9e bf
       -0.0013432872 -1.1157818 -1.1920301 -1.2397007
0003e0 6e d6 c9 3e 01 43 2f 3f b6 47 98 3e 4d 54 c3 be
       0.3942141 0.68461615 0.2974221 -0.38150254
0003f0 d6 a8 35 3e 00 1e 24 3f 25 30 a5 be bf 93 63 bf
       0.17740187 0.64108276 -0.32263294 -0.8889732

gcn_layers.1.layer.bias f4 [64]
000000 53 d4 65 bf b4 c2 ef 3f e6 21 c9 bd c5 44 23 be
       -0.89777106 1.8731294 -0.09820919 -0.15944202
000010 75 ec 9a bf 4c 7c 18 be f9 9b a4 be e7 8b 25 c0
       -1.2103411 -0.14891165 -0.32150248 -2.586664
000020 e3 00 f9 be 19 5d 7f be 29 26 40 3f 62 69 61 bf
       -0.4863349 -0.24937858 0.7505823 -0.88051426
000030 ce 60 49 3f fd 82 b0 3f f9 5d 1e bf 57 1f 8f be
       0.7866334 1.3789974 -0.6186214 -0.27953598
000040 7a aa 4b be 80 58 98 be 3c 10 45 3f b0 73 fb bc
       -0.1988925 -0.2975502 0.76977897 -0.030694813
000050 a0 bf 34 be d0 6d 3a bf ac f3 29 be f0 40 45 be
       -0.17651224 -0.7282381 -0.1659686 -0.19263053
000060 0a 9f 35 bf 41 51 98 3f c6 ed 9e be 91 04 67 be
       -0.709458 1.1899797 -0.31040782 -0.22560336
000070 04 86 5c 3e 32 3e 17 bf fb b8 dc 3f a9 47 62 bd
       0.21535498 -0.5907928 1.7243952 -0.05524412
000080 e2 dc af 3c d0 1f c6 be 39 05 fa 3f ee 57 31 3f
       0.02146763 -0.38696146 1.9532844 0.69274795
000090 d7 13 77 bf 01 5b 51 bf 60 e0 a3 3d 87 b3 08 40
       -0.9651465 -0.81779486 0.080017805 2.1359575
0000a0 91 af 62 3f b8 c0 fc be 3d 25 96 3d 4a 66 6b be
       0.88549143 -0.49365783 0.073313214 -0.22988239
0000b0 80 e2 17 bf 82 cf c3 bf 05 97 ce be 7d 3b 51 bf
       -0.59329987 -1.5297701 -0.40349594 -0.81731397
0000c0 72 90 1a bf 1d 53 36 bf 5b 80 f1 bf 12 d9 5a 3a
       -0.60376656 -0.7122057 -1.8867296 0.0008348386
0000d0 01 31 22 be b6 bc 9b 3f 04 cf 24 bd 2d 10 6a be
       -0.15839006 1.2166965 -0.040236488 -0.22857733
0000e0 9f 0b a4 bf 0c 40 00 bf 15 30 9c be 59 16 03 bf
       -1.2816046 -0.5009773 -0.30505434 -0.51205975
0000f0 93 0e b3 bc f8 ef 87 bf 26 23 5b bf 34 fb 81 be
       -0.021857535 -1.0620108 -0.8560051 -0.25386965

fc.weight f4 [2, 64]
000000 73 15 5c 3d d8 d8 c1 bd 42 9a ca 3d 78 9f 6c bd
       0.053731393 -0.09465188 0.098927036 -0.05776927
000010 f8 e9 df be 0e e0 0e bf ef 28 4c bd 2c cb 0f bd
       -0.43733191 -0.5581063 -0.049843725 -0.03510587
000020 f5 3c 2a 3e d9 bd 3d bd 1b 5c 85 3b 4b 4f d4 bd
       0.16624816 -0.04632363 0.0040698177 -0.103666864
000030 99 11 d1 3c 4e c7 a7 bd 2f b0 1f bd ab 3d 85 3d
       0.025521087 -0.08192311 -0.03898638 0.06505903
000040 29 c2 2f be 77 4c 7a 3c 32 77 09 bd 08 96 bc 3c
       -0.1716391 0.01527702 -0.03356094 0.02302076
000050 36 80 de be ad b2 b9 bd 0c 10 ae bd 25 c3 9f 3b
       -0.43457192 -0.09067283 -0.084991544 0.004875558
000060 47 a5 99 3d e9 e9 05 be ad d1 29 3b e3 63 87 3d
       0.07502227 -0.13077511 0.002591233 0.06610849
000070 ac 0f d0 bc 4a b4 78 bc a3 9d 13 be f8 90 19 3d
       -0.025398098 -0.015179703 -0.14415602 0.03749177
000080 53 5a df bc 6c 18 f3 be e2 87 6d 3c 97 df 2f be
       -0.02726475 -0.4747957 0.014497729 -0.17175137
000090 14 aa 7e be ad 44 8c be 55 08 72 bf fa 84 79 3c
       -0.24869567 -0.27396145 -0.94543964 0.015229458
0000a0 69 61 df bd 07 2a bb be a8 6b 16 be 7e a6 23 3d
       -0.109072514 -0.36555502 -0.14689505 0.0399537
0000b0 b9 9b 8d 3d 02 5d 33 3e b5 a3 a3 3d 6c 54 aa be
       0.06914467 0.17515948 0.07990209 -0.33267534
0000c0 da da e5 be e4 61 d5 bd 0c bb 0a be d2 1e a7 3d
       -0.44893533 -0.10419062 -0.13547915 0.081601754
0000d0 b9 07 89 bf 2c 0a c6 bd 28 3a 58 bc fd 99 51 3d
       -1.0705482 -0.09669909 -0.013197459 0.051172245
0000e0 9c 13 90 bd cb bf db 3a 91 b8 3b bf 5f 07 c6 3b
       -0.0703499 0.0016765533 -0.733285 0.006043359
0000f0 2b 1a df bc 31 02 20 bd f4 07 5f bd d1 d4 be bd
       -0.027234158 -0.03906459 -0.054450944 -0.09317935
000100 80 8f 11 3e 2c f9 ab 3c a3 39 04 3e 26 50 82 3e
       0.14214897 0.020992838 0.12912612 0.25451773
000110 4f fe 0b 3f 48 cb d9 3e 4a fc 08 3e 47 71 b6 bb
       0.5468492 0.42537904 0.1337749 -0.005567703
000120 5d 85 8c bb 40 79 6a bc 11 49 cf 3a 3c 45 96 3c
       -0.004288359 -0.014311135 0.0015814622 0.01834356
000130 71 45 df bd 36 b3 63 3d 7c 08 a5 bb 91 38 20 3d
       -0.10901917 0.05559083 -0.005036412 0.039116446
000140 aa 95 dd 3d 39 9e 32 bd 6c 01 ad 3d 4f 07 02 3d
       0.10819562 -0.043607924 0.08447537 0.03174525
000150 c9 82 03 3f f8 69 71 bd 7b 1f 78 bd 7c 2d e5 bc
       0.5137144 -0.05893895 -0.060576897 -0.02797579
000160 de 42 eb 3d 3b c2 3e 3d 1c b3 b1 3d 72 e6 5a 3d
       0.11487363 0.04657195 0.086767405 0.053442426
000170 c4 77 90 3c 8b 3c 3d 3e ff 4f 8e 3d b5 a1 05 bc
       0.017635234 0.18480127 0.06948852 -0.00815623
000180 7e 50 4e bc 55 fc d2 3e 96 16 cd bc dc b5 70 3e
       -0.012592433 0.4120814 -0.025035184 0.23506874
000190 da b4 d1 3e 60 4a a4 3e 14 39 58 3f b4 9f fa bd
       0.4095829 0.32087994 0.84462094 -0.12237492
0001a0 8f 06 69 3e 90 f5 9b 3e ca 54 ec 3d 11 5b 72 3c
       0.22756408 0.30460787 0.1153961 0.01479222
0001b0 c0 c3 ff bd 14 9e ea 3a 0c 05 c4 3c 27 cb fc 3e
       -0.12488508 0.0017899894 0.023928188 0.49373743
0001c0 23 68 27 3f 89 25 c7 3c 00 ae 3d 3e 26 20 cc 3c
       0.65393275 0.02430989 0.18523407 0.024917673
0001d0 3e 4d 5b 3f fc 68 cc bb 9e 35 b1 bc cd 7c 0f 3d
       0.8566474 -0.006238101 -0.021632012 0.03503113
0001e0 80 7e 20 bd 9f 2c ce bc ef 7b 33 3f 28 9d 57 3d
       -0.03918314 -0.025167761 0.7011098 0.05264011
0001f0 c9 7b b1 3c e5 9a b0 3b dc 0f a7 3c d8 2d f7 3c
       0.02166547 0.0053895586 0.020393305 0.030173227

fc.bias f4 [2]
000000 d6 d7 de 3f 01 bf e7 bf
       1.7409618 -1.8105165
