experiment/dynamic_eth/GraphSAGE/GraphSAGE_checkpoint.pt (torch_old, 48127 bytes, 6 tensors)

gcn_layers.0.layer.weight f4 [64, 46]
-0.11935264 -0.121685684 -0.044789083 -0.12802164 0.0061064316 0.15925245 0.034915783 -0.0568957
-0.15742938 0.11644967 0.0038960744 -0.001889763 0.059038363 -0.077956334 -0.03977534 -0.0477474
-0.071714565 0.027349656 0.047610648 -0.049365602 -0.14171684 -0.1625577 0.04229864 0.086124204
-0.13621491 -0.03348732 0.120567694 0.06833956 -0.09565947 0.0034096842 0.10094271 0.0063054245
-0.15130828 -0.033785533 0.0995197 -0.07208007 0.11075752 -0.10124896 -0.098216034 -0.07548122
0.13151881 -0.021279745 -0.036978066 0.11394309 -0.006831067 -0.14955929 0.07001234 0.14357263
0.04453037 -0.10794842 -0.107874595 0.09607056 -0.12326205 -0.058212876 -0.061313074 -0.103613794
-0.13330403 -0.08892064 -0.023912901 -0.15504894 0.13151044 -0.08957194 0.09358345 0.07184798
-0.01148856 0.047037773 0.10809467 -0.015509836 -0.042554874 0.11070615 0.15492585 -0.08296094
-0.1114916 0.13073175 -0.10950687 0.13150659 -0.042287327 -0.117733434 0.045951214 0.02540379
-0.13079432 -0.071202956 0.10397508 0.009214728 -0.03059225 -0.12021291 0.07881499 0.055180155
0.08640829 -0.000103026716 0.108009845 0.075525515 0.04300703 0.11972644 0.08783474 0.050730255
0.13779165 -0.10441767 0.0270132 0.077436075 0.093582995 -0.093808115 0.17256913 0.06999347
0.0016139281 -0.08829335 0.017753396 -0.056028225 0.09317726 -0.0061763753 -0.08023917 0.062493622
-0.005161581 0.08254715 0.015175408 0.16314514 0.12419503 -0.09877035 -0.087851554 0.111005254
0.03590115 0.16185667 -0.007009608 0.091406204 -0.07029688 -0.026159918 0.0482551 0.02271021
-0.09675479 0.07603113 0.0054077012 0.027417194 0.036612593 0.15222779 -0.083909385 0.025843391
-0.08951687 0.027923895 0.053954713 0.050127264 -0.06257782 0.0025353732 0.06709793 -0.012153814
-0.025450556 -0.052097216 0.0011965154 -0.11026573 0.07143472 -0.14982247 0.045991104 -0.055817015
-0.01315708 0.058611527 0.09017726 -0.033515796 -0.04453964 -0.113482155 -0.045139663 -0.10596261
-0.0019360807 -0.13284132 0.046882275 -0.039963055 -0.08544763 -0.12992512 0.13045906 -0.02751892
0.068480216 -0.10301498 0.016790045 0.110424004 0.0037110646 -0.099974304 -0.0014405145 -0.04521459
-0.0058415565 0.08094059 0.18893558 -0.10100185 0.022047635 0.13946258 0.044846036 -0.0069181523
-0.015986323 -0.06239943 0.044394754 0.10682591 0.17119375 0.060644474 -0.032766562 0.044832274
-0.12085371 -0.003536476 0.04792669 0.14662462 -0.14095123 0.11048545 0.1175549 -0.064414926
0.08798374 0.006565618 -0.03395656 -0.1512483 0.034810897 -0.09815705 -0.10605773 -0.13380697
0.08434293 -0.026341286 0.03685688 0.10213572 -0.05436585 -0.17480814 -0.048020247 -0.04861366
0.019327288 0.041922584 0.08654468 -0.0060087144 -0.003162787 0.12145914 -0.06049853 0.031175524
-0.0748749 -0.14633031 -0.012378681 -0.030652286 -0.08051519 -0.0025213629 -0.11272168 0.11447949
-0.05945555 -0.023989042 0.018323697 0.09360494 0.07370954 0.115445346 0.046347983 0.02779162
-0.07541744 0.09243223 0.0046565603 0.13752623 -0.08812623 -0.03034496 -0.12374519 -0.1641766
0.13625224 0.023507124 0.009147871 0.02952363 -0.08073061 0.07586171 0.059467036 -0.034954816
00000000: 286f f4bd 5836 f9bd c274 37bd 1b18 03be
00000010: 7618 c83b 1313 233e da03 0f3d 770b 69bd
00000020: 2b35 21be 2a7d ee3d 4855 7f3b edb1 f7ba
00000030: 36d2 713d 92a7 9fbd 78eb 22bd c792 43bd
00000040: 16df 92bd 630c e03c 6203 433d 9633 4abd
00000050: 381e 11be 8775 26be 5741 2d3d e361 b03d
00000060: ec7b 0bbe 002a 09bd 32ec f63d 9cf5 8b3d
00000070: 1de9 c3bd 0275 5f3b 0dbb ce3d bc9d ce3b
00000080: 8ff0 1abe b362 0abd fcd0 cb3d b79e 93bd
00000090: d7d4 e23d 9d5b cfbd 7d25 c9bd e695 9abd
000000a0: deac 063e dc52 aebc 5076 17bd ff5a e93d
000000b0: 25d7 dfbb 1226 19be a162 8f3d b404 133e
000000c0: 7a65 363d 1014 ddbd 5bed dcbd a4c0 c43d
000000d0: d070 fcbd a070 6ebd 6b23 7bbd 7833 d4bd
000000e0: da80 08be 061c b6bd fde4 c3bc 26c5 1ebe
000000f0: acaa 063e 7e71 b7bd aea8 bf3d 0925 933d
00000100: 833a 3cbc aeaa 403d bd60 dd3d f81c 7ebc
00000110: 054e 2ebd e8b9 e23d e2a4 1e3e 6de7 a9bd
00000120: b555 e4bd 8bde 053e 2345 e0bd aaa9 063e
00000130: 7a35 2dbd 3a1e f1bd 5737 3c3d 9c1b d03c
00000140: f2ee 05be dbd2 91bd e3f0 d43d 5ff9 163c
00000150: 999c fabc 3032 f6bd c169 a13d 9604 623d
00000160: d4f6 b03d 0c10 d8b8 4434 dd3d 1fad 9a3d
00000170: 2428 303d 2333 f53d b3e2 b33d 87ca 4f3d
00000180: 4119 0d3e eed8 d5bd c94a dd3c ce96 9e3d
00000190: 71a8 bf3d 781e c0bd f6b5 303e bd58 8f3d
000001a0: 718a d33a 25d3 b4bd 926f 913c da7d 65bd
000001b0: b8d3 be3d 3163 cabb 6f54 a4bd 50f9 7f3d
000001c0: 7b22 a9bb 7b0e a93d 46a2 783c 850f 273e
000001d0: f759 fe3d 1c48 cabd 84eb b3bd b956 e33d
000001e0: 160d 133d c1bd 253e dbb0 e5bb 2d33 bb3d
000001f0: d0f7 8fbd 534d d6bc 24a7 453d c30a ba3c
00000200: 6027 c6bd 36b6 9b3d 1633 b13b 069a e03c
00000210: 16f7 153d 9ae1 1b3e afd8 abbd 85b5 d33c
00000220: 9f54 b7bd a7c0 e43c 9eff 5c3d 3f52 4d3d
00000230: cd28 80bd 8128 263b a46a 893d ca20 47bc
00000240: af7d d0bc e463 55bd 65d4 9c3a 00d3 e1bd
00000250: 5e4c 923d 106b 19be 2b61 3c3d 62a0 64bd
00000260: cb90 57bc a412 703d dbae b83d dc47 09bd
00000270: 336f 36bd 5569 e8bd 5ee4 38bd ed02 d9bd
00000280: 17c4 fdba 8e07 08be a107 403d 4db0 23bd
00000290: 2bff aebd 170b 05be 0f97 053e 5c6f e1bc
000002a0: 5b3f 8c3d 85f9 d2bd 478b 893c fb25 e23d
000002b0: 5535 733b 54bf ccbd a5cf bcba ef32 39bd
000002c0: 876a bfbb 2ec4 a53d 5478 413e 0fda cebd
000002d0: 3e9d b43c 47cf 0e3e 7ab0 373d abb1 e2bb
000002e0: c0f5 82bc 8b96 7fbd 46d7 353d 8bc7 da3d
000002f0: 6a4d 2f3e 5766 783d 3b36 06bd 0ca2 373d
00000300: 2682 f7bd 39c4 67bb c74e 443d c424 163e
00000310: 8555 10be 3246 e23d a0c0 f03d f9eb 83bd
00000320: d230 b43d 6524 d73b 0916 0bbd d6e0 1abe
00000330: df95 0e3d 9006 c9bd cc34 d9bd b204 09be
00000340: fcbb ac3d aec9 d7bc 3df7 163d 882c d13d
00000350: baae 5ebd e800 33be e1b0 44bd 1e1f 47bd
00000360: 4354 9e3c 04b7 2b3d 563e b13d c0e4 c4bb
00000370: c346 4fbb 92bf f83d 4ecd 77bd d063 ff3c
00000380: 0358 99bd 9dd7 15be f4cf 4abc 811a fbbc
00000390: 26e5 a4bd 733d 25bb a0da e6bd 3974 ea3d
000003a0: aa87 73bd ab84 c4bc 941b 963c f2b3 bf3d
000003b0: 07f5 963d 9c6e ec3d 62d7 3d3d 40ab e33c
000003c0: 7574 9abd 1c4d bd3d 0f96 983b add3 0c3e
000003d0: 867b b4bd fe95 f8bc 1e6e fdbd e91d 28be
000003e0: b585 0b3e 0392 c03c f4e0 153c 8adb f13c
000003f0: 1756 a5bd 625d 9b3d b593 733d c82c 0fbd

gcn_layers.0.layer.bias f4 [64]
-0.12868735 0.08073569 -0.02434124 0.14465171 0.045424998 -0.0781617 0.030998133 0.13004087
-0.06372146 -0.10153987 0.11769879 -0.103150666 0.031978678 -0.10346744 -0.12453561 -0.007883864
0.13474539 0.12722614 0.051616754 -0.042644043 -0.08638117 -0.0023764258 -0.05182303 0.0143496245
0.10937623 -0.020803573 0.09739363 -0.05383419 -0.10318624 -0.034104683 0.08742612 -0.06525401
-0.10582857 -0.06650857 0.060886633 -0.016490538 -0.06317302 0.10865522 -0.02211736 0.0698563
-0.063375294 0.07842683 -0.08489383 0.1822881 0.10311285 0.19308096 -0.124972425 -0.093107544
0.11460817 0.18114106 0.0818898 0.028553478 -0.023908706 0.086060196 -0.119564295 -0.03994178
-0.076660536 0.013219575 0.1205631 0.20746832 -0.0036867086 -0.019269913 0.14272659 -0.012634431
00000000: 9ec6 03be c158 a53d 4867 c7bc 941f 143e
00000010: 900f 3a3d 3e13 a0bd ccef fd3c 6f29 053e
00000020: 6680 82bd 23f4 cfbd 100c f13d a840 d3bd
00000030: 13fc 023d bde6 d3bd 870c ffbd 532b 01bc
00000040: b2fa 093e 9247 023e 176c 533d 85ab 2ebd
00000050: 9ce8 b0bd cfbd 1bbb 6344 54bd b01a 6b3c
00000060: a500 e03d 416c aabc 5076 c73d 3d81 5cbd
00000070: 4f53 d3bd 5ab1 0bbd 770c b33d e5a3 85bd
00000080: a6bc d8bd a535 88bd 4364 793d 2a17 87bc
00000090: db60 81bd a186 de3d 772f b5bc d210 8f3d
000000a0: e8ca 81bd 3f9e a03d d1dc adbd bba9 3a3e
000000b0: d42c d33d 04b7 453e 8bf1 ffbd 2baf bebd
000000c0: b0b7 ea3d 0b7d 393e d7b5 a73d fce8 e93c
000000d0: 31dc c3bc 5440 b03d 20de f4bd fe99 23bd
000000e0: 3300 9dbd eb96 583c c9e9 f63d 9372 543e
000000f0: b59c 71bb f0db 9dbc eb26 123e a500 4fbc

gcn_layers.1.layer.weight f4 [64, 128]
-0.024852872 -0.030616345 -0.04408057 0.061919566 -0.027842501 -0.050209142 0.062448125 -0.03490703
0.028027603 0.061367713 0.09191639 -0.008072426 -0.066995375 -0.0038738358 0.044787735 0.03578601
-0.049152117 -0.020984715 -0.08395493 -0.04035056 0.040293496 0.02482622 -0.06438527 0.07284462
0.040840443 0.044107947 0.07264152 0.06238304 0.08080037 -0.03825778 -0.03342158 -0.04259007
0.08022689 -0.0496965 0.002699406 -0.0315126 0.029087266 -0.05982472 0.08664037 0.09456697
0.021431193 0.024552753 -0.06526935 0.096532695 0.007116984 0.060731705 -0.020860666 0.024800817
-0.02881661 -0.0079586385 -0.00740025 0.011457562 0.0041897246 -0.0021125001 -0.038665876 -0.067513414
0.07770066 0.11692015 -0.028697724 -0.0639051 0.048196085 -0.07575124 0.092660144 0.043825645
-0.0067904163 0.016727459 0.12945226 -0.033166792 0.05516204 -0.045178894 -0.0347478 -0.0127856275
0.034970302 0.09418262 0.11209227 -0.01773107 -0.036110442 0.01559043 -0.03801488 -0.052463956
-0.025791625 0.058477245 -0.007500202 0.047699504 -0.045658298 0.040068526 0.008207853 -0.006562463
0.062038586 0.064801306 -0.070510365 -0.06908583 0.019172035 0.069413796 0.054448057 0.07216167
0.047700465 0.084974736 -0.0068680323 -0.0831063 -0.015636155 0.019892067 -0.020524697 0.07126127
0.06886565 -0.07638912 0.024783336 -0.027841197 -0.013067283 -0.10160258 -0.055075325 0.053077497
-0.010510927 -0.00040043777 0.07934569 0.05330134 0.056728054 0.06444672 -0.041198123 -0.06660282
-0.020322705 0.093978606 0.021943728 0.092076145 0.0061300956 -0.048444156 0.06638447 -0.028074276
-0.026583733 -0.013151091 0.01470298 -0.026448682 0.065784425 0.08240646 -0.03628241 0.08769963
0.049773682 0.04262813 -0.05680936 0.012613043 -0.048123196 0.040757656 0.04744158 0.064923316
0.011906935 -0.056101657 -0.06878394 -0.055958495 0.004268606 0.017637445 -0.06545843 -0.046298243
0.07701374 -0.08883915 -0.05693335 -0.010324122 0.030001001 -0.01049224 0.060327128 -0.064464875
0.016362483 0.016179828 -0.07679308 -0.01589346 0.07335169 -0.073086746 0.020487094 0.05938133
0.10128828 0.04125678 -0.034629084 -0.029013157 -0.023318639 -0.0776203 0.016442338 -0.017478306
0.06332234 0.041200094 -0.049448356 0.032201327 0.02232676 0.08377499 -0.058857664 0.044692077
0.022890484 -0.06570921 -0.057949822 -0.051857576 -0.07128055 0.08909658 0.07055392 -0.054223984
-0.03943568 0.07756798 0.0096998615 -0.049183995 -0.077884324 0.070979916 0.012902238 0.04042503
0.045852516 0.006035348 -0.0095826425 0.012354944 -0.0686146 0.0082922485 -0.018716646 -0.06693193
0.020873453 0.058484394 0.022454279 -0.074311756 -0.07309106 -0.014931104 -0.0768171 -0.052055687
0.0059560426 0.07464536 -0.08354431 -0.04422085 0.043391723 -0.0611699 0.0048907925 0.0010454581
-0.01747793 0.052779842 0.030042691 0.047750093 0.076737024 0.060344372 0.010826053 -0.08408484
0.019785753 0.08016299 0.048571188 -0.042963676 0.04438764 -0.017116947 0.0710351 0.07349438
-0.03266151 0.042218417 -0.010537574 0.024952235 -0.05276213 -0.06386017 0.0018035974 -0.06531617
-0.04034398 0.057455122 -0.055304095 -0.08342272 0.012453911 -0.030935727 -0.009061585 0.069798276
00000000: 4098 cbbc 21cf fabc d48d 34bd 5f9f 7d3d
00000010: f515 e4bc 1aa8 4dbd 9bc9 7f3d adfa 0ebd
00000020: 259a e53c b65c 7b3d a93e bc3d 3542 04bc
00000030: df34 89bd 2ee0 7dbb 5873 373d 5a94 123d
00000040: bb53 49bd 23e8 abbc 90f0 abbd a146 25bd
00000050: cb0a 253d 5b60 cb3c 6ddc 83bd 8f2f 953d
00000060: 4f48 273d 89aa 343d 14c5 943d 5c85 7f3d
00000070: aa7a a53d 31b4 1cbd 11e5 08bd ed72 2ebd
00000080: ff4d a43d 8f8e 4bbd 84e8 303b 5b13 01bd
00000090: 6b48 ee3c c40a 75bd 8270 b13d 54ac c13d
000000a0: 7890 af3c db22 c93c f0ab 85bd efb2 c53d
000000b0: 9735 e93b cfc1 783d fde3 aabc 152b cb3c
000000c0: d010 ecbc f364 02bc cc7d f2bb 80b8 3b3c
000000d0: f549 893b df71 0abb 1c60 1ebd 7944 8abd
000000e0: 8621 9f3d d573 ef3d 7d17 ebbc ade0 82bd
000000f0: 4269 453d 7723 9bbd 9ac4 bd3d 8582 333d
00000100: 2482 debb 0608 893c 228f 043e e7d9 07bd
00000110: 97f1 613d 810d 39bd b653 0ebd cf7a 51bc
00000120: 053d 0f3d d1e2 c03d a290 e53d c040 91bc
00000130: 8be8 13bd 016f 7f3c 7eb5 1bbd 72e4 56bd
00000140: f548 d3bc d685 6f3d 41c4 f5bb 8e60 433d
00000150: 3204 3bbd e51e 243d 3b7a 063c ee09 d7bb
00000160: 2c1c 7e3d 8cb6 843d bd67 90bd df7c 8dbd
00000170: ac0e 9d3c d228 8e3d ed04 5f3d 7fc9 933d
00000180: 9061 433d 3c07 ae3d 3b0d e1bb a333 aabd
00000190: 6517 80bc b0f4 a23c 6923 a8bc 6ef1 913d
000001a0: 6f09 8d3d e671 9cbd 6c06 cb3c 3913 e4bc
000001b0: 2818 56bc 0315 d0bd aa96 61bd ca67 593d
000001c0: 0636 2cbc d9f1 d1b9 fe7f a23d 8252 5a3d
000001d0: ad5b 683d a4fc 833d 5dbf 28bd 0f67 88bd
000001e0: cd7b a6bc db77 c03d 55c3 b33c 6b92 bc3d
000001f0: f8de c83b 616d 46bd 95f4 873d 06fc e5bc
00000200: 21c6 d9bc ac77 57bc c5e4 703c e8aa d8bc
00000210: fcb9 863d b8c4 a83d dd9c 14bd dd9b b33d
00000220: 7ddf 4b3d d69a 2e3d eeb0 68bd f0a6 4e3c
00000230: d41c 45bd 80f1 263d 1a52 423d 84f6 843d
00000240: 4e15 433c daca 65bd 98de 8cbd bc34 65bd
00000250: aadf 8b3b 677c 903c 120f 86bd 3aa3 3dbd
00000260: 61b9 9d3d 4df1 b5bd f232 69bd 8226 29bc
00000270: a9c4 f53c a5e7 2bbc 9419 773d 2906 84bd
00000280: 9d0a 863c 8f8b 843c b145 9dbd 0033 82bc
00000290: 6939 963d 81ae 95bd 8dd4 a73c d639 733d
000002a0: 3b70 cf3d dffc 283d 3ad7 0dbd 00ad edbc
000002b0: bb06 bfbc 64f7 9ebd 15b2 863c aa2e 8fbc
000002c0: 25af 813d 6ec1 283d 5c8a 4abd 8ae5 033d
000002d0: 9ce6 b63c 3992 ab3d bc14 71bd 0a0f 373d
000002e0: d384 bb3c 8d92 86bd cb5c 6dbd 9c68 54bd
000002f0: 89fb 91bd 4578 b63d 937e 903d f819 5ebd
00000300: 4f87 21bd f6db 9e3d 2bec 1e3c 2875 49bd
00000310: d181 9fbd eb5d 913d e963 533c b794 253d
00000320: d9cf 3b3d 2bc4 c53b 8400 1dbc 646c 4a3c
00000330: d085 8cbd 36dc 073c a753 99bc 9c13 89bd
00000340: cefe aa3c 558d 6f3d 09f2 b73c c330 98bd
00000350: c4b0 95bd 97a1 74bc 4952 9dbd 5838 55bd
00000360: e82a c33b abdf 983d 4719 abbd ec20 35bd
00000370: 85bb 313d 4a8d 7abd f142 a03b c107 893a
00000380: e02d 8fbc ad2f 583d 171c f63c 9a95 433d
00000390: 4d28 9d3d a92b 773d c25f 313c ac34 acbd
000003a0: bb15 a23c 7e2c a43d 95f2 463d aefa 2fbd
000003b0: d0cf 353d d738 8cbc da7a 913d 3984 963d
000003c0: 13c8 05bd 38ed 2c3d caa5 2cbc a168 cc3c
000003d0: 1a1d 58bd 1fc9 82bd b066 ec3a 7cc4 85bd
000003e0: bb3f 25bd 1056 6b3d 8c86 62bd 88d9 aabd
000003f0: 7d0b 4c3c ec6c fdbc 0b77 14bc 66f2 8e3d

gcn_layers.1.layer.bias f4 [64]
0.01550512 -0.06535573 0.037914503 -0.08978181 0.09852246 -0.06858783 0.02869263 -0.013418051
-0.010843568 -0.034186013 -0.025836192 0.020888994 -0.017357467 0.010068869 -0.010525531 -0.053316142
0.01579283 -0.0928785 -0.02908459 -0.06985468 0.0798405 0.015214715 0.060089126 -0.027340705
0.009667942 -0.048218366 0.08579212 -0.07260937 0.015439739 0.09117762 -0.03180105 0.033866223
0.109066926 -0.029450096 -0.07890066 0.022420274 0.06929119 0.020827845 0.038603883 -0.011974059
0.054655667 0.008884115 -0.073681794 -0.061677914 -0.010859779 -0.10454817 -0.013935819 0.0072522475
-0.015139102 0.06931308 -0.026984436 -0.10031215 -0.0169608 0.007711231 -0.04333596 0.029051542
0.049392555 0.118455976 0.03392449 -0.045184076 -0.08401786 -0.030348295 0.016469361 0.14200132
00000000: 3009 7e3c 3ad9 85bd 3d4c 1b3d 87df b7bd
00000010: 25c6 c93d c777 8cbd ce0c eb3c 63d7 5bbc
00000020: 38a9 31bc a206 0cbd 6ca6 d3bc 651f ab3c
00000030: 3f31 8ebc e6f7 243c 4773 2cbc 0762 5abd
00000040: f75f 813c 1537 bebd ce42 eebc f80f 8fbd
00000050: 6b83 a33d 2447 793c 0420 763d 9df9 dfbc
00000060: 4a66 1e3c 9f80 45bd c7b3 af3d 39b4 94bd
00000070: f6f6 7c3c 55bb ba3d d141 02bd 4fb7 0a3d
00000080: 7b5e df3d 5441 f1bc ab96 a1bd b9aa b73c
00000090: 8ae8 8d3d 289f aa3c 1b1f 1e3d d82e 44bc
000000a0: 9fde 5f3d ae8e 113c 7be6 96bd fba1 7cbd
000000b0: 37ed 31bc 5a1d d6bd 1053 64bc 43a4 ed3b
000000c0: ff09 78bc 04f4 8d3d 770e ddbc 7570 cdbd
000000d0: 60f1 8abc 7eae fc3b 0c81 31bd 80fd ed3c
000000e0: d94f 4a3d 0c99 f23d 68f4 0a3d f012 39bd
000000f0: 8e11 acbd fd9c f8bc c1ea 863c cb68 113e

fc.weight f4 [7, 64]
-0.01100742 -0.008716023 -0.14043632 0.017043771 0.062111836 -0.11267556 -0.050783176 -0.0011127703
0.018759541 0.09293766 -0.090081096 0.0093892785 0.08286805 -0.053745084 0.07776643 -0.12267343
-0.0457947 -0.13498844 0.1036626 -0.101756334 -0.0059643476 0.04253737 -0.0898087 -0.0035291507
0.06958148 -0.15180124 -0.05899143 0.06949858 0.015483983 -0.049041923 0.09738357 0.10260019
0.011983009 -0.030118426 -0.06984445 -0.005738373 0.0062892833 0.05725031 0.09021478 -0.09685131
-0.10592476 -0.1060036 -0.010059102 0.12633662 0.0072220555 -0.08906203 0.032830603 0.10091041
-0.10433007 0.01358315 0.0188492 0.08424064 -0.013450574 -0.094304435 0.07803786 0.006983985
-0.04161612 0.055663534 -0.06871156 -0.068648815 0.08359045 0.038081728 0.08493269 -0.10293949
-0.023822095 0.05543811 0.108030416 0.040347397 -0.09007905 -0.031988528 0.031701375 -0.06420693
-0.049705446 0.018871795 0.108884655 -0.056609955 0.0044181147 0.09678283 0.031649187 -0.067794
0.01867563 -0.109128594 -0.100146286 0.115234956 -0.11035909 -0.063284226 0.07146617 0.038340475
0.09646419 -0.022087129 0.008357342 0.0010484733 0.112083696 -0.055732507 -0.09765938 0.036094893
-0.08794621 0.07758729 0.023746105 0.008174745 0.10423337 0.11739842 -0.011635144 0.07275002
0.10694924 0.13865924 -0.09384325 -0.07560927 0.06648891 0.09058352 0.04660174 0.060448337
-0.079601035 -0.044511046 0.09874117 0.076128766 -0.060893636 -0.0040895185 0.07451851 0.0096944235
0.09807605 0.051843517 0.029885873 0.04484738 0.14264022 0.13985632 -0.0141898915 0.026593637
0.045748234 -0.10757404 -0.038493913 0.025628397 -0.037473865 0.10577512 -0.09392293 0.10271252
0.0183769 0.09401563 0.075674705 0.057879224 -0.068155825 0.017151702 0.04065312 0.023277117
-0.024015382 0.029181272 0.025765207 0.003813462 0.037227757 -0.104581155 -0.010335066 -0.085577734
0.079699345 -0.04247011 0.11197018 -0.06271556 -0.0038620294 -0.043968055 0.06560524 -0.0727513
0.07374567 -0.013125357 0.0775666 0.038244937 -0.08704819 0.029472813 0.114009604 0.021644413
-0.07420901 0.11531326 0.10056855 -0.056572083 0.045709305 -0.09224638 0.029634904 0.035203837
-0.0073447977 -0.06791698 -0.017121783 -0.052003156 -0.047289442 0.074318476 -0.11964881 -0.012612337
0.08844089 0.03383069 -0.022806566 -0.022788197 0.1053737 0.115592875 -0.006502702 0.038887765
0.09856365 -0.10384621 -0.097297706 -0.049740423 -0.008547036 -0.0918394 -0.011969714 0.06784965
-0.056274943 0.04357106 0.046685964 0.039986454 -0.0024929752 -0.06296116 0.07988055 -0.100394614
0.059676144 0.012650436 0.003745203 -0.12508453 0.0021808848 -0.07615504 -0.02414705 0.07899687
-0.030488681 -0.072422385 0.0022851825 -0.013693246 0.08454549 0.020570809 0.06496172 -0.019972758
0.11830965 0.1276912 -0.0664563 -0.10418774 0.09866101 -0.03527177 -0.062886335 -0.09014139
-0.015830657 -0.014658524 0.04696579 -0.09534534 -0.09129099 -0.02586037 0.10547567 0.07185989
0.10147503 0.05817349 0.07823944 -0.027009869 0.10711906 0.1145266 0.048819117 -0.061983395
0.0663696 0.09981285 -0.100331135 -0.048257872 0.023118578 -0.118155755 0.09780302 0.080907255
00000000: 7758 34bc a6cd 0ebc 8ace 0fbe 619f 8b3c
00000010: fb68 7e3d 72c2 e6bd 0502 50bd 60da 91ba
00000020: 9cad 993c 1a56 be3d 707c b8bd 7dd5 193c
00000030: b9b6 a93d ce23 5cbd 0244 9f3d 353c fbbd
00000040: 3993 3bbd 693a 0abe 0f4d d43d a065 d0bd
00000050: 9370 c3bb aa3b 2e3d a0ed b7bd 5349 67bb
00000060: bc80 8e3d c971 1bbe ffa0 71bd 4655 8e3d
00000070: 88b0 7d3c 2fe0 48bd 0a71 c73d 0c20 d23d
00000080: 6254 443c ebba f6bc 9b0a 8fbd f608 bcbb
00000090: 5516 ce3b 4d7f 6a3d 87c2 b83d fb59 c6bd
000000a0: 15ef d8bd 6a18 d9bd efce 24bc 635e 013e
000000b0: fea6 ec3b 2766 b6bd 6279 063d 1eaa ce3d
000000c0: 01ab d5bd dc8b 5e3c a369 9a3c 5b86 ac3d
000000d0: cc5f 5cbc af22 c1bd 50d2 9f3d ead9 e43b
000000e0: aa75 2abd 72ff 633d a5b8 8cbd c097 8cbd
000000f0: 7831 ab3d 96fb 1b3d 31f1 ad3d f0d1 d2bd
00000100: 8e26 c3bc 1213 633d 0d3f dd3d 5043 253d
00000110: 5d7b b8bd 6706 03bd 4dd9 013d ec7e 83bd
00000120: f097 4bbd 0699 9a3c ebfe de3d d7df 67bd
00000130: d5c5 903b 1436 c63d 94a2 013d 95d7 8abd
00000140: a3fd 983c d07e dfbd 7f19 cdbd 4e00 ec3d
00000150: f203 e2bd 299b 81bd db5c 923d e70a 1d3d
00000160: 048f c53d 11f0 b4bc 3ced 083c ed6c 893a
00000170: 238c e53d c547 64bd a401 c8bd 3dd8 133d
00000180: 241d b4bd 16e6 9e3d 3187 c23c 5eef 053c
00000190: 4e78 d53d 956e f03d 55a1 3ebc f6fd 943d
000001a0: 3408 db3d b0fc 0d3e e430 c0bd 08d9 9abd
000001b0: 562b 883d da83 b93d 77e1 3e3d ad98 773d
000001c0: de05 a3bd 3751 36bd cf38 ca3d 66e9 9b3d
000001d0: 9b6b 79bd 5e01 86bb 299d 983d 5cd5 1e3c
000001e0: 19dc c83d de59 543d 38d3 f43c e3b1 373d
000001f0: 4710 123e 7f36 0f3e b87c 68bc e6da d93c
00000200: 8062 3b3d c74f dcbd cbab 1dbd a5f2 d13c
00000210: 327e 19bd a0a0 d83d aa5a c0bd f15a d23d
00000220: 278b 963c 448b c03d 57fb 9a3d c412 6d3d
00000230: 4895 8bbd ba81 8c3c e383 263d a7af be3c
00000240: e8bb c4bc 900d ef3c 8e11 d33c 47eb 793b
00000250: 227c 183d a52e d6bd 6954 29bc 6143 afbd
00000260: 6939 a33d 23f5 2dbd 9f50 e53d 0471 80bd
00000270: 1a1a 7dbb d917 34bd 0a5c 863d a2fe 94bd
00000280: f807 973d bd0b 57bc 3ddb 9e3d b9a6 1c3d
00000290: 5246 b2bd f870 f13c de7d e93d a04f b13c
000002a0: e5fa 97bd 5c29 ec3d e2f6 cd3d 21b8 67bd
000002b0: ae39 3b3d aceb bcbd e6c4 f23c e631 103d
000002c0: a1ac f0bb 0f18 8bbd fb42 8cbc 4301 55bd
000002d0: 93b2 41bd 4934 983d 6f0a f5bd faa3 4ebc
000002e0: 7f20 b53d 0d92 0a3d d6d4 babc 50ae babc
000002f0: 2bce d73d f5bb ec3d 9e14 d5bb c748 1f3d
00000300: bddb c93d 52ad d4bd 0544 c7bd 9dbc 4bbd
00000310: de08 0cbc 4c16 bcbd 9f1c 44bc c2f4 8a3d
00000320: 8e80 66bd 9177 323d c839 3f3d d6c8 233d
00000330: 2f61 23bb c8f1 80bd 6a98 a33d b19b cdbd
00000340: f96e 743d c643 4f3c 1472 753b 2916 00be
00000350: 2ded 0e3b 2cf7 9bbd 09d0 c5bc 1cc9 a13d
00000360: 66c3 f9bc 3052 94bd 00c3 153b a359 60bc
00000370: 3026 ad3d 1d84 a83c a60a 853d e99d a3bc
00000380: 544c f23d 7bc1 023e 3e1a 88bd 6260 d5bd
00000390: c90e ca3d 2279 10bd 8dca 80bd 0d9c b8bd
000003a0: 4baf 81bc 4e2a 70bc 335f 403d 6b44 c3bd
000003b0: c5f6 babd 20d9 d3bc a103 d83d 472b 933d
000003c0: 24d2 cf3d 5347 6e3d 003c a03d cd43 ddbc
000003d0: 3d61 db3d ec8c ea3d 8ef6 473d 4de2 7dbd
000003e0: c9ec 873d ae6a cc3d 697a cdbd 0caa 45bd
000003f0: 2c63 bd3c a5fb f1bd f34c c83d b4b2 a53d

fc.bias f4 [7]
-0.09427188 0.09085039 0.08730498 0.044379544 0.061287884 0.06694896 -0.096549876
00000000: 9e11 c1bd c50f ba3d f4cc b23d 53c7 353d
00000010: 0109 7b3d 891c 893d f1bb c5bd
