experiment/IBM_HI_S/ECConv/ECConv_checkpoint.pt (torch_old, 136537 bytes, 10 tensors)

node_layers.0.layer.weight f4 [64, 23]
-0.17679656 -0.13716218 -0.36266306 0.8997407 -0.62671906 -0.016910786 -2.265285 1.6275208
-0.17676152 0.7707151 -1.1376829 0.91372615 0.99436164 0.16318892 0.562704 0.65856993
-1.179377 -0.6334628 -0.14056575 -1.7869594 0.53215194 -0.7471789 0.065748654 -0.16599871
-0.44211915 -1.0741863 -11.933536 -7.4696307 -1.6562968 0.05270881 0.037447132 -0.9164704
0.831664 0.14050873 -1.0056734 2.3497357 -0.94433826 0.11342945 0.44314444 -1.4198073
-1.6004803 0.67555326 -0.7356495 -0.46047428 0.25518104 -0.47355112 -0.14919163 -0.17379406
-0.14505793 -0.05353026 0.07544814 -0.009944833 0.045882355 -0.0444861 0.000985984 0.0039889524
-0.09750313 0.09633153 0.09578945 -0.23349267 0.052739132 -0.05255783 -0.028439797 -0.1197535
-0.15856759 -0.19855678 0.07535232 -0.052942004 0.07709497 -0.651457 -0.99440813 -0.020648243
-0.078346185 -0.0022897418 0.28278348 -1.6868784 0.39333153 -0.11413542 0.38138 0.4960646
0.5444388 -2.219731 -1.8089741 0.4886037 0.06881249 0.35020897 -0.5336532 0.3713923
-0.80247265 -0.063022666 -0.018645644 0.41436657 -0.17470546 -0.9631032 -0.4148599 -0.6772542
-0.030353822 0.055657744 -0.40090498 -2.10314 -0.8692269 0.5328428 0.034528203 0.95079887
1.894122 -2.1682327 0.58764595 0.5270959 -1.1426601 -1.268281 0.3922005 -1.8546438
-0.33295408 1.2490715 -1.4059235 -0.0040126815 -0.052843604 -0.11771938 -0.05274955 0.045708302
-0.16740148 -0.03967122 0.049271245 -0.092346765 -0.0023316343 0.069438726 0.035044346 -0.053351525
-0.0037630533 -0.036796164 -0.080053136 -0.16219151 -0.08699669 0.10667435 -0.06508274 0.045456454
-0.062190603 -0.05115366 -1.5118111 0.6713524 -0.5251995 0.116655126 0.49727917 -2.552718
-3.9880488 0.57494867 -0.97405773 0.71687526 0.8595508 1.4179384 1.6613142 -1.4888834
0.5634869 0.83965254 -0.1042127 -2.0301945 0.2633656 -3.7569673 0.5553019 0.47823897
0.84796005 -0.22788697 0.24873292 -1.1347095 0.06653299 0.48341456 -1.3947057 -0.34952286
-0.09289875 -0.0015699078 0.2554412 0.45957267 -0.14680709 -4.270012 0.7407635 0.0054271608
-0.7301048 1.3737522 0.5858957 -2.4713938 -0.55450094 -0.8101573 -0.11968141 1.0715656
-0.063366815 -0.057526324 -0.13285561 -0.04256986 0.005441726 -0.078264385 -0.131064 0.0053247074
-0.030258521 -0.00438369 0.034991037 0.13297376 -0.07013317 -0.047335092 -0.0988058 0.057055183
-0.043066405 -0.06257978 -0.010059772 0.022740599 -0.013316831 -0.013839125 -0.017741885 -1.6275953
-1.1674851 -0.22098044 0.24162476 0.89421546 0.6549677 -3.9812868 1.0067643 -1.0437694
1.0045694 0.9239522 1.0807829 -0.57815504 1.3255349 0.6279799 0.77720875 -1.2537898
-1.0361108 1.2162967 -1.7425233 0.71065533 -1.897754 -0.22841175 -0.00982387 -0.7254891
-0.47328836 1.7757586 0.92971647 0.33384812 -0.52563155 -0.48469824 0.66610205 0.21250603
0.22595218 0.24646118 0.9237539 1.4793249 0.32073784 -0.5015647 -9.446347 -1.7042543
2.6553538 -1.9291377 1.1027739 -0.08384639 -5.6872225 0.7922679 0.08935228 -0.4006161
00000000: 280a 35be 3e74 0cbe f9ae b9be 6855 663f
00000010: a970 20bf 7d88 8abc 6efa 10c0 9a52 d03f
00000020: f900 35be 964d 453f 989f 91bf f5e9 693f
00000030: 7c8e 7e3f ff1a 273e 5f0d 103f 0a98 283f
00000040: d3f5 96bf 9e2a 22bf 78f0 0fbe 16bb e4bf
00000050: 1c3b 083f 1e47 3fbf 3ba7 863d 91fb 29be
00000060: 715d e2be f07e 89bf c3ef 3ec1 3707 efc0
00000070: 8901 d4bf 31e5 573d 2a62 193d ce9d 6abf
00000080: efe7 543f 85e1 0f3e e8b9 80bf 1262 1640
00000090: 27c0 71bf b34d e83d d4e3 e23e 3fbc b5bf
000000a0: 8adc ccbf 0ff1 2c3f 8753 3cbf 49c3 ebbe
000000b0: 17a7 823e 4b75 f2be b1c5 18be 12f7 31be
000000c0: 118a 14be 8c42 5bbd 8e84 9a3d a7ef 22bc
000000d0: 23ef 3b3d 0f37 36bd 223c 813a c2b5 823b
000000e0: b9af c7bd 7749 c53d 422d c43d b418 6fbe
000000f0: fd04 583d e146 57bd 94fa e8bc 5341 f5bd
00000100: 8b5f 22be 7852 4bbe 5152 9a3d b7d9 58bd
00000110: f8e3 9d3d e3c5 26bf 8891 7ebf 8126 a9bc
00000120: f773 a0bd 7e0f 16bb ffc8 903e a2eb d7bf
00000130: c062 c93e d5bf e9bd 3d44 c33e 2efc fd3e
00000140: 5760 0b3f 1310 0ec0 778c e7bf 442a fa3e
00000150: 90ed 8c3d 974e b33e 7f9d 08bf 2227 be3e
00000160: d96e 4dbf 0712 81bd c0be 98bc db27 d43e
00000170: fde5 32be ee8d 76bf 8468 d4be 8860 2dbf
00000180: 94a8 f8bc 60f9 633d 6b43 cdbe d999 06c0
00000190: a785 5ebf 6368 083f 726d 0d3d 8e67 733f
000001a0: 9772 f23f 53c4 0ac0 f76f 163f c2ef 063f
000001b0: b042 92bf 0857 a2bf 81ce c83e f864 edbf
000001c0: f578 aabe 93e1 9f3f 4df5 b3bf d07c 83bb
000001d0: 8972 58bd dc16 f1bd ea0f 58bd a138 3b3d
000001e0: 4b6b 2bbe 4a7e 22bd a5d0 493d 4d20 bdbd
000001f0: 55ce 18bb e435 8e3d a98a 0f3d 2187 5abd
00000200: 8f9d 76bb 93b7 16bd e6f2 a3bd 8815 26be
00000210: 522b b2bd 1578 da3d 194a 85bd 8c30 3a3d
00000220: 93bb 7ebd 8086 51bd 0783 c1bf c0dd 2b3f
00000230: 7973 06bf e2e8 ee3d 609b fe3e bb5f 23c0
00000240: 313c 7fc0 d62f 133f d95b 79bf 2385 373f
00000250: 850b 5c3f 017f b53f f2a5 d43f bb93 bebf
00000260: ad40 103f 78f3 563f 786d d5bd b5ee 01c0
00000270: dbd7 863e 2772 70c0 4428 0e3f bddb f43e
00000280: e913 593f 345b 69be d8b3 7e3e 293e 91bf
00000290: 7342 883d 1d82 f73e b785 b2bf a9f4 b2be
000002a0: b341 bebd 5dc5 cdba 30c9 823e 1c4d eb3e
000002b0: 9954 16be f0a3 88c0 ada2 3d3f 53d6 b13b
000002c0: 26e8 3abf 1dd7 af3f 43fd 153f 512b 1ec0
000002d0: c6f3 0dbf 7866 4fbf 871b f5bd 1029 893f
000002e0: 76c6 81bd b9a0 6bbd 4d0b 08be bc5d 2ebd
000002f0: 8250 b23b 1449 a0bd a435 06be e27a ae3b
00000300: b8e0 f7bc 0fa5 8fbb c352 0f3d 462a 083e
00000310: fba1 8fbd 71e2 41bd b25a cabd b2b2 693d
00000320: 6666 30bd d429 80bd bed1 24bc 7e4a ba3c
00000330: d62e 5abc 7fbd 62bc 6e57 91bc 0b55 d0bf
00000340: 2770 95bf b248 62be 7b6c 773e 4eeb 643f
00000350: f7ab 273f 67cd 7ec0 a7dd 803f 3c9a 85bf
00000360: bb95 803f 2288 6c3f 1857 8a3f f801 14bf
00000370: 21ab a93f 4ac3 203f 27f7 463f 2f7c a0bf
00000380: 479f 84bf 9caf 9b3f 010b dfbf 82ed 353f
00000390: 9ae9 f2bf c5e4 69be 4cf4 20bc a7b9 39bf
000003a0: da52 f2be 0f4c e33f e601 6e3f 24ee aa3e
000003b0: ca8f 06bf 5e2a f8be aa85 2a3f 2e9b 593e
000003c0: 0260 673e 5260 7c3e 237b 6c3f 855a bd3f
000003d0: c037 a43e 8b66 00bf 3d24 17c1 0125 dabf
000003e0: 51f1 2940 fced f6bf b227 8d3f a8b7 abbd
000003f0: bafd b5c0 12d2 4a3f 54fe b63d 8e1d cdbe

node_layers.0.layer.bias f4 [64]
-4.8849006 -2.5912457 -1.4235023 -2.916448 -2.8247952 -0.7721098 -8.003143 -1.0770991
-0.5056854 -4.5672035 1.3100677 -3.8309476 -3.867384 0.77002174 -1.5747569 -3.312722
-2.3525126 -1.5402644 -3.0319161 -0.9531877 -2.8298259 -0.46798822 -6.8644 -4.223005
2.939391 -6.087988 -4.531782 -2.3279696 0.0036649627 0.1954028 -0.65286696 -0.84543735
0.5556232 -7.225143 -7.924942 0.75640225 -1.1089185 -1.1314579 -7.9317536 -2.719487
-4.3828974 -1.4004629 -0.5739672 -0.86689323 -0.60838175 2.8806257 -0.8745726 -4.481502
-2.7186005 -1.7159787 -0.7479378 -7.6150675 -2.5237944 -2.6030743 -9.65924 -9.700531
-4.3111567 -0.45279205 0.40822926 -0.22252692 -0.89042467 -1.2589428 -2.207117 -2.5347092
00000000: 1b51 9cc0 f8d6 25c0 5335 b6bf 16a7 3ac0
00000010: 72c9 34c0 fda8 45bf e00c 00c1 62de 89bf
00000020: 9974 01bf 8826 92c0 4cb0 a73f 3f2e 75c0
00000030: 3883 77c0 2520 453f a291 c9bf a303 54c0
00000040: 918f 16c0 6227 c5bf ea0a 42c0 1c04 74bf
00000050: de1b 35c0 279c efbe 2aa9 dbc0 db22 87c0
00000060: fb1e 3c40 ccd0 c2c0 5c04 91c0 74fd 14c0
00000070: df2f 703b ac17 483e 4a22 27bf 956e 58bf
00000080: 523d 0e3f 5f34 e7c0 2099 fdc0 94a3 413f
00000090: 0bf1 8dbf 9dd3 90bf edd0 fdc0 130c 2ec0
000000a0: b240 8cc0 5e42 b3bf 84ef 12bf b7ec 5dbf
000000b0: e8be 1bbf 2c5c 3840 fde3 5fbf 7768 8fc0
000000c0: 8dfd 2dc0 31a5 dbbf da78 3fbf a2ae f3c0
000000d0: d985 21c0 c598 26c0 3f8c 1ac1 6035 1bc1
000000e0: fff4 89c0 5cd4 e7be 6d03 d13e 19de 63be
000000f0: dff2 63bf 0a25 a1bf 6841 0dc0 ad38 22c0

node_layers.1.layer.weight f4 [64, 64]
-4.038241 -1.6092983 0.7286691 -0.54330194 2.7730236 -0.6165059 -4.296417 -6.964225
-0.3751607 -0.90237826 0.90558773 -6.444552 -8.210615 -8.172522 -9.992675 -10.133797
-0.7173508 -8.022057 -1.030174 -1.0902953 1.6673222 -2.3603399 -3.9495134 -0.28968152
-0.6051849 3.5914845 -13.698557 -1.6095424 -0.8547711 -0.480403 -1.204306 -7.6753764
0.60452044 -1.0413173 -0.5163427 -0.88687885 -9.938317 -0.37182295 -5.1000576 -6.4826503
-12.267658 -0.76562095 -3.8954754 -0.28572956 2.5031142 -0.07235721 -5.2394 0.74934095
-6.815469 -1.9604514 -1.3821697 -1.9043801 -2.014614 -1.0528224 -2.9752944 -3.345488
-4.6755037 2.3646283 -2.4690988 -0.010345857 0.79915154 -1.2901032 -0.74623626 -2.4038012
-2.220168 0.28846848 -3.4262872 4.3234286 0.94770837 0.027954198 4.172351 3.625179
-0.12736286 -2.8144598 0.64577705 3.7781556 -3.5697293 2.0654001 -1.1691922 -2.4290018
-0.48251998 0.032284062 5.301977 -0.19162163 -0.0062567233 -0.27085114 -2.337213 7.5972424
1.0792931 -0.34007618 6.9244432 2.414492 -0.022068894 -3.5127943 0.1926765 0.47010052
0.26859933 2.8754423 -0.024060179 1.3318328 -1.5080882 -0.20983052 1.2417147 0.46955445
1.1908216 0.48226553 2.2859066 -6.5155864 -2.6878946 -0.11068648 2.2460406 -1.8040068
3.1617963 3.7939606 0.14490499 2.0737534 -2.4104621 4.665186 3.3745224 2.1271725
-1.5053667 -3.751815 0.9377188 -0.2227708 -1.556809 -3.8335316 2.0426004 1.4481226
-0.46780843 1.1070999 -1.1449293 -1.1041325 0.86325175 -0.2278303 4.0133796 0.88771904
0.10908669 -2.4985626 -1.2267736 2.6283684 0.15056954 -0.13793819 0.045973644 -0.7801184
-0.30898058 -0.23370218 0.78543615 -0.048646253 -1.7112901 -0.12803937 0.47326958 -0.37023944
-1.0148239 0.485462 4.2579327 0.44666886 -0.17813523 1.09304 0.20917892 0.6543339
0.11131343 4.8740034 -0.7477424 0.55067974 0.12231882 0.47931868 -0.19439773 2.3888977
2.368552 -0.70268214 0.13701037 -0.1813361 0.27363953 -0.7240043 0.931953 1.0237619
1.5853982 0.8492078 0.48264584 1.6856644 1.176866 0.6587065 2.297569 2.436568
1.8513646 -0.6125182 -0.5344883 -2.012286 -0.3713844 -0.70315576 2.5641472 2.4865904
0.3973637 -0.28457355 0.23205405 -0.2490046 -0.11509559 0.027604865 0.05250171 -0.6906182
-0.15290496 0.0071583358 -0.8666348 -0.2390601 -0.29636276 -0.5338453 -0.684247 -0.11659753
-0.74691963 -0.3536728 0.21464986 0.17168757 -0.018459298 -0.11698211 -0.8830334 -0.113343865
-0.50024986 -0.35016492 -0.035081297 -0.56794834 -0.092193164 -0.20734617 0.12071377 -0.56886804
0.030125605 0.91409093 0.06026882 0.007519228 -0.9082872 0.025440848 -0.4444659 0.1919091
0.064424336 -0.2342931 0.16658106 -0.26960513 0.3563561 -0.79566383 -0.30091932 -0.23273411
-0.35035896 -0.07745909 0.120173104 0.019132372 -0.38454306 -0.21118742 0.3290744 0.14535892
-0.35528404 0.10031532 -0.4473078 -0.4005589 -0.84384626 -0.092995495 -0.30001935 0.037704714
00000000: 4539 81c0 7dfd cdbf 0f8a 3a3f d615 0bbf
00000010: 3879 3140 55d3 1dbf 407c 89c0 eeda dec0
00000020: 1015 c0be 4302 67bf 99d4 673f c539 cec0
00000030: ae5e 03c1 a6c2 02c1 ffe1 1fc1 0824 22c1
00000040: 4da4 37bf 585a 00c1 bedc 83bf cc8e 8bbf
00000050: d06a d53f cf0f 17c0 d4c4 7cc0 2351 94be
00000060: 66ed 1abf e2da 6540 4a2d 5bc1 7c05 cebf
00000070: 47d2 5abf 62f7 f5be b326 9abf af9c f5c0
00000080: dac1 1a3f e349 85bf 092f 04bf 7e0a 63bf
00000090: 5903 1fc1 945f bebe ac33 a3c0 df71 cfc0
000000a0: 5448 44c1 bcff 43bf 784f 79c0 254b 92be
000000b0: 0633 2040 0430 94bd 2aa9 a7c0 cfd4 3f3f
000000c0: 5218 dac0 12f0 fabf f0ea b0bf bac2 f3bf
000000d0: 70ef 00c0 e2c2 86bf 396b 3ec0 7a1c 56c0
000000e0: ba9d 95c0 1256 1740 b705 1ec0 ab81 29bc
000000f0: 3295 4c3f 1a22 a5bf 5709 3fbf e1d7 19c0
00000100: 3c17 0ec0 24b2 933e 4a48 5bc0 8759 8a40
00000110: 049d 723f 3400 e53c e683 8540 ef02 6840
00000120: 696b 02be 1c20 34c0 a551 253f 4dcd 7140
00000130: 7276 64c0 842f 0440 17a8 95bf c474 1bc0
00000140: dc0c f7be 4b3c 043d cca9 a940 7638 44be
00000150: 3305 cdbb 00ad 8abe e694 15c0 9c1c f340
00000160: 4726 8a3f 771e aebe 0a95 dd40 0987 1a40
00000170: d3c9 b4bc 9fd1 60c0 fd4c 453e 04b1 f03e
00000180: da85 893e 3f07 3840 da19 c5bc 7f79 aa3f
00000190: 0909 c1bf d0dd 56be 82f0 9e3f 7169 f03e
000001a0: d86c 983f 82eb f63e 4b4c 1240 af7f d0c0
000001b0: 7706 2cc0 98af e2bd 21bf 0f40 b2e9 e6bf
000001c0: df5a 4a40 40d0 7240 f961 143e 60b8 0440
000001d0: 0345 1ac0 3449 9540 2df8 5740 9823 0840
000001e0: dbaf c0bf bd1d 70c0 570e 703f 071e 64be
000001f0: 8445 c7bf 9558 75c0 f7b9 0240 155c b93f
00000200: 9684 efbe 73b5 8d3f 0b8d 92bf 3754 8dbf
00000210: 11fe 5c3f 594c 69be 9b6d 8040 8e41 633f
00000220: d868 df3d 73e8 1fc0 eb06 9dbf 3037 2840
00000230: e72e 1a3e ab3f 0dbe dc4e 3c3d d7b5 47bf
00000240: b432 9ebe a04f 6fbe 5812 493f 4b41 47bd
00000250: 8e0b dbbf c11c 03be 6450 f23e 0690 bdbe
00000260: c0e5 81bf 7a8e f83e fc40 8840 c8b1 e43e
00000270: 1569 36be bce8 8b3f 0033 563e 6d82 273f
00000280: 4cf8 e33d d6f7 9b40 0c6c 3fbf 59f9 0c3f
00000290: 4a82 fa3d 4269 f53e 3310 47be b3e3 1840
000002a0: 5b96 1740 fae2 33bf 724c 0c3e 2cb0 39be
000002b0: 7b1a 8c3e 5958 39bf 7994 6e3f a10a 833f
000002c0: 54ee ca3f af65 593f 5b1d f73e dac3 d73f
000002d0: 8ca3 963f fda0 283f 5f0b 1340 bbf0 1b40
000002e0: 84f9 ec3f fecd 1cbf 3ad4 08bf 4bc9 00c0
000002f0: 1926 bebe 0402 34bf fd1a 2440 4c24 1f40
00000300: 4173 cb3e a0b3 91be 949f 6d3e 10fb 7ebe
00000310: 3db7 ebbd 9923 e23c 080c 573d 5bcc 30bf
00000320: 1e93 1cbe 7990 ea3b c7db 5dbf 2ccc 74be
00000330: dcbc 97be 16aa 08bf d02a 2fbf b0ca eebd
00000340: 2036 3fbf 9a14 b5be 2ccd 5b3e dece 2f3e
00000350: f437 97bc 5194 efbd 7a0e 62bf d420 e8bd
00000360: 6010 00bf d148 b3be 68b1 0fbd 1065 11bf
00000370: c5cf bcbd 8e52 54be c838 f73d 56a1 11bf
00000380: f9c9 f63c dd01 6a3f 70dc 763d db63 f63b
00000390: 8385 68bf 5369 d03c 0991 e3be d283 443e
000003a0: e8f0 833d 88ea 6fbe 3a94 2a3e af09 8abe
000003b0: 4f74 b63e a0b0 4bbf 1912 9abe da51 6ebe
000003c0: 4062 b3be dfa2 9ebd 511d f63d 7ebb 9c3c
000003d0: d4e2 c4be 8441 58be 717c a83e f8d8 143e
000003e0: cae7 b5be 1e72 cd3d 8705 e5be 0e16 cdbe
000003f0: 4f06 58bf 6c74 bebd 239c 99be 4270 1a3d

node_layers.1.layer.bias f4 [64]
1.0655788 1.5273048 -1.8972988 -1.3085049 -2.6717095 -2.041906 -2.7472541 -1.4606225
-1.9124101 1.1075649 1.4238083 -3.7384722 0.032956157 -0.7000377 -1.4838413 0.510927
0.15930746 -1.9239854 -0.8977386 -2.2714775 -0.24049829 2.8102303 -0.73482776 -0.24044298
-1.7588074 -0.4295779 2.397775 -1.6775974 -1.9642206 -1.1954074 -1.2326756 -1.1392305
-1.397091 -1.4288344 0.32672495 1.0199419 1.4088162 -0.7587963 -0.7876842 -2.1931443
-2.239441 -0.7434448 -1.7051833 -1.4048506 -1.759399 -0.89591074 -1.4642922 -0.025091525
-1.0322106 -1.9518393 0.08387712 -1.2545307 -3.2433789 3.099904 -0.5159033 -2.0447168
-0.8579329 -0.922935 1.7667396 -1.963872 -0.32286447 1.9249741 -2.1329653 0.16941
00000000: e364 883f b97e c33f b0da f2bf 177d a7bf
00000010: 4afd 2ac0 97ae 02c0 03d3 2fc0 aef5 babf
00000020: dbc9 f4bf b0c4 8d3f 5a3f b63f 2143 6fc0
00000030: 09fd 063d ac35 33bf 83ee bdbf 1dcc 023f
00000040: 7f21 233e 2745 f6bf 32d2 65bf e35f 11c0
00000050: 2f45 76be d0da 3340 ac1d 3cbf af36 76be
00000060: 9a20 e1bf a2f1 dbbe 2575 1940 83bb d6bf
00000070: 956b fbbf 1c03 99bf 50c8 9dbf 4ed2 91bf
00000080: e1d3 b2bf 0ce4 b6bf 7e48 a73e 758d 823f
00000090: 1754 b43f 7940 42bf aca5 49bf 7a5c 0cc0
000000a0: 0053 0fc0 6652 3ebf 7243 dabf 25d2 b3bf
000000b0: fd33 e1bf 685a 65bf ed6d bbbf be8c cdbc
000000c0: 7a1f 84bf dfd5 f9bf c4c7 ab3d 7694 a0bf
000000d0: 8593 4fc0 d464 4640 3d12 04bf a4dc 02c0
000000e0: 7ea1 5bbf 7845 6cbf 8624 e23f 2860 fbbf
000000f0: 7e4e a5be 8d65 f63f 8182 08c0 d179 2d3e

edge_layers.0.weight f4 [1472, 4]
-0.041361146 -0.043699164 0.04777242 -0.00090541446 0.19203068 -0.012430114 -0.10743174 -0.16093396
0.02492456 0.064465635 -0.42287323 -0.054503117 0.1633942 -0.47087356 -0.12899798 -0.036987823
0.35482985 -0.5434404 -0.33627737 -0.13419701 -0.51965094 -0.10102041 -0.18046074 0.21803468
-0.35290474 0.012967671 0.053116705 0.058194663 -0.21736264 -0.11909258 -0.0093848705 0.042363346
0.006414302 -0.374994 -0.32544878 0.08575398 0.22942853 -0.2111395 -0.04703623 -0.37713093
-0.063082084 0.017754957 -0.21467143 0.0038392753 -0.36945945 0.30902633 0.30465007 -0.030678004
0.07403996 0.025259959 -0.18271087 -0.07719463 0.25789312 -0.4105211 -0.4603526 -0.11071886
0.08465737 -0.5442659 -0.45180035 0.06004977 -0.10501758 0.098596334 -0.18740074 0.007037902
0.010791374 -0.6782503 -0.11683918 0.095655695 -0.12491026 -0.6103132 0.2103708 -0.08371724
0.0017811991 -0.3127683 0.39884323 -0.4173895 0.06990843 -0.14550123 -0.1411496 -0.061490126
0.15025662 -0.36855358 0.13023469 -0.28899804 -0.074150115 0.17511971 0.031269643 -0.05739959
0.2463632 0.2139272 -0.57973933 -0.23647329 -0.3242069 0.074697785 0.18415457 0.03091711
0.14243306 -0.18134023 -0.37374368 -0.06433908 -0.1433849 -0.05941423 0.11061052 0.020674407
0.3380556 -0.2079556 -0.20876285 -0.22164543 0.04414208 -0.14284919 -0.22461005 0.007701831
-0.11915809 -0.37683305 0.08736718 0.018112626 -0.18869512 0.12483627 -0.1604111 0.0058591748
-0.22844577 0.07602519 -0.035195433 0.016431376 0.07499243 -0.11274051 0.24288714 -0.31071743
0.045856774 -0.49243551 -0.10644269 0.015184522 0.39076447 -0.31660545 -0.21592605 -0.30248982
0.5890166 -0.38407573 -0.2450438 -0.3749542 0.2071199 -0.22449318 -0.34878892 -0.13752685
0.031142652 0.214356 0.3794647 -0.4802758 -0.034627978 0.10396229 -0.09769858 -0.037170053
-0.41928124 -0.4392342 0.17287527 0.21214305 -0.4036365 -0.17978536 0.25310558 0.16096628
-0.18866767 -0.08944555 -0.17201693 -0.22703694 0.2499234 -0.051092852 -0.14464003 -0.186091
-0.13225983 -0.5209061 0.2536582 -0.3067074 0.124636844 0.38391697 0.29967946 -0.4187382
0.011948412 0.098293945 0.36494574 -0.41962555 -0.22192332 0.06852206 -0.002074425 0.038274992
-1.9861579 0.7850609 0.6372165 0.29791796 -0.3685316 -0.49038294 0.4626561 -0.09375473
0.20860127 -0.67194325 -0.047612518 -0.17828476 0.03605344 0.08794935 -0.13583718 -0.14906801
-0.25661388 -0.6129385 0.32324743 -0.070399754 0.09521784 -0.5420164 -0.23619668 0.08435701
0.25760955 -0.3526957 -0.16511929 -0.09023873 -0.23737057 -0.38837683 0.42037296 -0.2080427
0.14148419 -0.5299092 -0.06250267 -0.071015134 -0.17479838 -0.14304891 0.07617669 -0.116080336
-0.09429091 0.27799878 0.2966457 -0.24713692 0.10501296 -0.106446825 0.043622833 -0.15553752
0.16579004 -0.4791109 0.00595491 -0.27956167 -0.31845078 -0.16085006 0.10965888 0.13158515
-0.0745282 0.08092366 0.49994552 -0.42550182 -0.32700062 -0.2091062 -0.06433279 0.14612994
-0.13916393 -0.7076808 -0.1641118 0.10563894 -0.19031972 -0.66931856 -0.35564715 0.2551969
00000000: 4e6a 29bd e5fd 32bd 03ad 433d 5659 6dba
00000010: b1a3 443e ada7 4bbc 2c05 dcbd dfcb 24be
00000020: 972e cc3c 8f06 843d d782 d8be a93e 5fbd
00000030: cf50 273e 5716 f1be 0c18 04be 8b80 17bd
00000040: 42ac b53e e91e 0bbf 8c2c acbe f16a 09be
00000050: d807 05bf cae3 cebd b3ca 38be 7c44 5f3e
00000060: eeaf b4be 5b76 543c e790 593d 875d 6e3d
00000070: 5094 5ebe d0e6 f3bd 00c3 19bc 3085 2d3d
00000080: 112f d23b 37ff bfbe 39a1 a6be c89f af3d
00000090: 50ef 6a3e f434 58be 10a9 40bd 4e17 c1be
000000a0: 2e31 81bd d872 913c d4d2 5bbe 5a9c 7b3b
000000b0: ca29 bdbe b338 9e3e 18fb 9b3e 7050 fbbc
000000c0: 43a2 973d f9ed ce3c 8f18 3bbe 3818 9ebd
000000d0: 910a 843e d22f d2be 56b3 ebbe 92c0 e2bd
000000e0: d860 ad3d 0355 0bbf 6052 e7be bff6 753d
000000f0: 7513 d7bd e0ec c93d fbe5 3fbe 339e e63b
00000100: 4ece 303c d0a1 2dbf 6149 efbd 22e7 c33d
00000110: f3d0 ffbd 7c3d 1cbf 716b 573e f273 abbd
00000120: 2077 e93a 2b23 a0be 2e35 cc3e 14b4 d5be
00000130: 272c 8f3d 46fe 14be 8589 10be 12dd 7bbd
00000140: dfdc 193e 0eb3 bcbe 3e5c 053e 8df7 93be
00000150: 04dc 97bd 9552 333e 9914 003d d51b 6bbd
00000160: a246 7c3e bb0f 5b3e cc69 14bf 0e26 72be
00000170: 72fe a5be 27fb 983d 0493 3c3e e145 fd3c
00000180: f9d9 113e 41b1 39be 555b bfbe 35c4 83bd
00000190: 7ed3 12be 565c 73bd c587 e23d 605d a93c
000001a0: a015 ad3e 50f2 54be eec5 55be 05f7 62be
000001b0: 53ce 343d 0f47 12be 2d00 66be a45f fc3b
000001c0: 2809 f4bd 43f0 c0be 90ed b23d ee60 943c
000001d0: 4b39 41be 29aa ff3d cf42 24be 52fe bf3b
000001e0: b0ed 69be 18b3 9b3d 1629 10bd 189b 863c
000001f0: a295 993d 7fe4 e6bd 68b7 783e 5b16 9fbe
00000200: 50d4 3b3d 8220 fcbe a0fe d9bd 80c8 783c
00000210: 4812 c83e 1c1a a2be b81b 5dbe f2df 9abe
00000220: cbc9 163f 93a5 c4be c3ec 7abe fff9 bfbe
00000230: 3d17 543e 8ae1 65be 7694 b2be d7d3 0cbe
00000240: e01e ff3c 2480 5b3e 3249 c23e b6e6 f5be
00000250: 11d6 0dbd 2eea d43d 3116 c8bd a03f 18bd
00000260: 08ac d6be 4ee3 e0be 3706 313e 073c 593e
00000270: 71a9 cebe a719 38be 0e97 813e 58d4 243e
00000280: 1932 41be 3b2f b7bd 3525 30be 5f7c 68be
00000290: ebeb 7f3e bd46 51bd 841c 14be a48e 3ebe
000002a0: 1f6f 07be 1a5a 05bf 7ddf 813e c108 9dbe
000002b0: 9a41 ff3d c490 c43e 966f 993e da64 d6be
000002c0: 46c3 433c 564e c93d 2bda ba3e 29d9 d6be
000002d0: de3f 63be 4b55 8c3d 14f3 07bb 3dc6 1c3d
000002e0: 6c3a febf c0f9 483f 9f20 233f b488 983e
000002f0: 2db0 bcbe 7913 fbbe 43e1 ec3e 7b02 c0bd
00000300: 929b 553e 7904 2cbf 5805 43bd 4890 36be
00000310: c6ac 133d ca1e b43d e718 0bbe 49a5 18be
00000320: e562 83be 8ae9 1cbf b080 a53e bf2d 90bd
00000330: 9201 c33d 96c1 0abf 8bdd 71be 5ec3 ac3d
00000340: 66e5 833e 8894 b4be 0815 29be 15cf b8bd
00000350: 4511 73be 54d9 c6be 203b d73e 2509 55be
00000360: 3be1 103e 21a8 07bf 6601 80bd 6270 91bd
00000370: 59fe 32be 6a7b 12be 8602 9c3d 87bb edbd
00000380: 981b c1bd db55 8e3e f2e1 973e 7611 7dbe
00000390: 0911 d73d cb00 dabd dbad 323d 3a45 1fbe
000003a0: ddc4 293e 064e f5be 6821 c33b b522 8fbe
000003b0: fb0b a3be e1b5 24be d694 e03d 42be 063e
000003c0: 3ea2 98bd 4ebb a53d dcf8 ff3e 60db d9be
000003d0: a06c a7be f01f 56be e9c0 83bd 16a3 153e
000003e0: fd80 0ebe 922a 35bf ec0c 28be 3b59 d83d
000003f0: 2ce3 42be 7658 2bbf 6217 b6be 2ba9 823e

edge_layers.0.bias f4 [1472]
-0.41201723 -0.08747008 -0.6181682 -0.18646914 -0.15617199 -0.7573949 -0.36586422 -0.4730066
-0.2776352 -0.278444 -0.5359778 -0.21653335 -0.65164584 -0.40155435 -0.39307618 -0.68552357
-0.07487359 -0.40913367 -0.017416187 -0.14496824 -0.021014383 -0.111584246 -0.73276883 -0.1473198
-0.31833282 -0.014955452 -0.1310592 -0.2169263 -0.021819888 -0.60500515 -0.36770213 -0.5426329
-0.27009135 -0.4548887 -0.033257242 -0.34427106 -0.3864547 -0.21656762 -0.54447716 -0.6897084
-0.62137586 -0.15947497 -0.1940472 -0.41803175 -0.048570324 -0.26272812 -1.1678379 -0.062349807
-0.028985836 -0.25675404 -0.004277674 -0.15304513 -0.52112526 -0.029328043 -0.60687923 -0.24223384
-0.056793306 -0.011993921 -0.15032661 -0.20944959 -0.013316713 -0.38546616 -0.20612587 -0.40594956
-0.5258313 -0.547837 -0.48693973 -0.03366181 -0.015230249 -0.3584987 -0.18388756 -0.5273304
-0.001670647 -0.27132002 -0.05092826 -0.339735 -0.12435393 -0.14539471 -0.37132654 -0.024688423
-0.18993762 -0.17445236 -0.37847206 -0.10338599 -0.278414 -0.44516462 -0.45491284 -0.27566686
-0.03811312 -0.54688364 -0.08825675 -0.018149817 -0.49205554 -0.51699066 -0.75997716 -1.3908794
-0.37274182 -0.25352782 -0.33791685 -0.42715952 -0.15784332 -0.1330148 -0.2058816 -0.1065462
-0.18402377 -0.29312047 -0.3654408 -0.31744793 -0.11543719 -0.18112434 -0.01563287 -0.4562459
-0.011629078 -0.07725856 -0.072626516 -0.12549466 -0.013715167 -0.061972078 -0.44892877 -0.04992435
-0.24506646 -0.5765885 -0.017916441 -0.6652867 -0.03366752 -0.57313025 -0.117786944 -0.27192956
-0.31559706 -0.013908578 -0.2092277 -0.029221348 -0.20519197 -0.0018460503 -0.03231147 -0.46170825
-0.090483904 -0.011490331 -0.34030312 -0.20592843 -0.43409866 -0.438142 -0.58986115 -0.14071143
-0.34627494 -0.52132195 -0.04711513 -0.6730239 -0.23582153 -0.25128508 -0.14054704 -0.2655364
-0.049863536 -0.43033355 -0.38223553 -0.7379646 -0.14494006 -0.12026572 -0.024150597 -0.39213774
-0.117704876 -0.040578112 -0.8310875 -0.04176966 -0.079665355 -0.030247955 -0.38701206 -0.058641106
-0.6370178 -0.21146153 -0.24545003 -0.10171388 -0.02833756 -0.03151319 -0.01163692 -0.057633813
-0.08868542 -0.022788486 -0.15438266 -0.28517696 -0.08183721 -0.006159338 -0.3110675 -0.028212903
-0.5104786 -0.4625498 -0.15179676 -0.08479897 -0.007335019 -0.36355808 -0.2537192 -0.11061937
-0.37187386 -0.015238209 -0.045266226 -0.041726783 -0.28181916 -0.52641165 -0.551572 -0.18960917
-0.0074393316 -0.06376756 -0.31513694 -0.35492685 -0.23388061 -0.19793743 -0.3967303 -0.30701816
-0.03656914 -0.12406075 -0.5615679 -0.52810675 -0.14135145 -0.68578553 -0.33884338 -0.11294857
-0.073908955 -0.36916733 -0.56508946 -0.25322175 -0.0160058 -0.51348025 -0.32725596 -0.3899556
-0.75574994 -0.5054042 -0.23150064 -0.3409176 -0.044584747 -0.26149967 -0.31011078 -0.084611684
-0.060198404 -0.15930757 -0.0730485 -0.042801682 -0.4071166 -0.47368246 -0.06504668 -0.0030272792
-0.27290672 -0.448365 -0.07912607 -0.30873993 -0.59219027 -0.49769187 -0.21493118 -0.3144376
-0.48684257 -1.0388122 -0.44433016 -0.6948225 -0.35230032 -0.079950415 -0.008473083 -0.40422466
00000000: ecf3 d2be 8323 b3bd 4540 1ebf c4f1 3ebe
00000010: 8deb 1fbe a2e4 41bf 8e52 bbbe ec2d f2be
00000020: 3326 8ebe 3690 8ebe d735 09bf ebba 5dbe
00000030: 43d2 26bf 8898 cdbe 4841 c9be 797e 2fbf
00000040: 5357 99bd f879 d1be 64ac 8ebc 8e72 14be
00000050: 5b26 acbc 4886 e4bd bd96 3bbf 00db 16be
00000060: 85fc a2be b607 75bc 6234 06be ee21 5ebe
00000070: 9fbf b2bc 9ee1 1abf 7443 bcbe fde9 0abf
00000080: 6a49 8abe 2ce7 e8be bf38 08bd 4c44 b0be
00000090: 64dd c5be e7c3 5dbe db62 0bbf bb90 30bf
000000a0: 7d12 1fbf 684d 23be 4fb4 46be 4208 d6be
000000b0: adf1 46bd 4d84 86be b67b 95bf 8362 7fbd
000000c0: b473 edbc 4475 83be bb2b 8cbb ddb7 1cbe
000000d0: 7768 05bf 5d41 f0bc 705c 1bbf 260c 78be
000000e0: 19a0 68bd 2782 44bc 38ef 19be f479 56be
000000f0: 582e 5abc d25b c5be a912 53be 9fd8 cfbe
00000100: e19c 06bf 0c3f 0cbf 2a50 f9be f7e0 09bd
00000110: 4b88 79bc 248d b7be 054d 3cbe 20ff 06bf
00000120: 9cf9 daba 75ea 8abe 279a 50bd bff1 adbe
00000130: 46ad febd 5ae2 14be 831e bebe 603f cabc
00000140: 027f 42be a4a3 32be 17c7 c1be 09bc d3bd
00000150: 488c 8ebe 9eec e3be 56ea e8be 3524 8dbe
00000160: 811c 1cbd 9100 0cbf f4bf b4bd edae 94bc
00000170: b4ee fbbe 8059 04bf dd8d 42bf 5608 b2bf
00000180: 04d8 bebe 66ce 81be 7003 adbe a7b4 dabe
00000190: aea1 21be 0835 08be a0d2 52be e534 dabd
000001a0: ba70 3cbe e313 96be 0e1b bbbe 8988 a2be
000001b0: 556a ecbd a978 39be 8110 80bc 1099 e9be
000001c0: e387 3ebc bc39 9ebd 36bd 94bd ac81 00be
000001d0: 94b5 60bc 6fd6 7dbd fed9 e5be 7a7d 4cbd
000001e0: b4f2 7abe 4e9b 13bf 80c5 92bc 3b50 2abf
000001f0: f4e6 09bd aab8 12bf 483a f1bd 5a3a 8bbe
00000200: f095 a1be cee0 63bc c93f 56be 9c61 efbc
00000210: d81d 52be 2bf7 f1ba 0859 04bd 0665 ecbe
00000220: a04f b9bd f141 3cbc 363c aebe e7de 52be
00000230: 2e42 debe 2654 e0be 2401 17bf a816 10be
00000240: f34a b1be 5b75 05bf cbfb 40bd 4b4b 2cbf
00000250: 337b 71be 70a8 80be 90eb 0fbe 63f4 87be
00000260: b53d 4cbd ae54 dcbe 60b4 c3be 3feb 3cbf
00000270: 2b6b 14be e04d f6bd 79d7 c5bc 47c6 c8be
00000280: 410f f1bd 3c35 26bd 27c2 54bf aa16 2bbd
00000290: 9727 a3bd 8fca f7bc 7226 c6be a831 70bd
000002a0: 9913 23bf 5f89 58be 4157 7bbe 5e4f d0bd
000002b0: 2c24 e8bc fa13 01bd c8a8 3ebc 6f11 6cbd
000002c0: b4a0 b5bd ebae babc 7d16 1ebe b702 92be
000002d0: 449a a7bd 46d4 c9bb 3d44 9fbe bf1e e7bc
000002e0: baae 02bf 54d3 ecbe 9c70 1bbe 15ab adbd
000002f0: 995a f0bb 4924 babe 7ce7 81be 698c e2bd
00000300: 4066 bebe aea9 79bc 1469 39bd b4e9 2abd
00000310: 9a4a 90be eac2 06bf d333 0dbf e828 42be
00000320: a3c5 f3bb 9198 82bd a159 a1be f9b8 b5be
00000330: 667e 6fbe 1cb0 4abe 3c20 cbbe 7c31 9dbe
00000340: 86c9 15bd 9013 febd eac2 0fbf 0132 07bf
00000350: 6fbe 10be a48f 2fbf e17c adbe 9451 e7bd
00000360: 945d 97bd 8003 bdbe b4a9 10bf 48a6 81be
00000370: 981e 83bc 7173 03bf 188e a7be 43a8 c7be
00000380: d478 41bf 2b62 01bf 810e 6dbe c08c aebe
00000390: 7f9e 36bd 49e3 85be d7c6 9ebe e448 adbd
000003a0: 9a92 76bd 8621 23be 749a 95bd d150 2fbd
000003b0: 9671 d0be 8286 f2be 3237 85bd 5165 46bb
000003c0: 6eba 8bbe 1990 e5be d90c a2bd 2913 9ebe
000003d0: c899 17bf 78d1 febe eb16 5cbe f7fd a0be
000003e0: 6e43 f9be ccf7 84bf 3e7f e3be e3df 31bf
000003f0: b560 b4be 0bbd a3bd b0d2 0abc 89f6 cebe

edge_layers.1.weight f4 [4096, 4]
0.10567314 0.41301188 -0.21569373 -0.17584674 -0.2679002 -0.39131963 0.0025730135 0.037773333
0.008013315 0.14131537 -0.30651352 -0.0685222 -0.049612064 -0.2897572 -0.50421077 0.21740304
-0.0011740176 -0.5719255 -0.16934966 -0.00030165448 0.35263407 -0.01844055 -0.40618235 -0.10842501
0.21858132 -0.49968806 -0.48097393 0.005502454 0.22662024 -0.5028417 -0.11650115 -0.14663397
-0.45723867 -0.2146677 -0.55632204 -0.62805426 -0.47974175 0.59425503 0.31173596 -0.005052319
-0.20524465 0.03623245 -0.02205706 0.010897206 -0.25914437 -0.218819 0.23689169 -0.084777944
-0.3506182 -0.2846174 0.40127483 -0.062932305 0.17297044 0.22583093 0.13687542 -0.32050622
0.037966084 -0.08529004 0.033742968 -0.09412285 -0.30214474 0.16024584 -0.13109624 0.11864592
-0.26607028 -0.2905315 0.06200148 -0.11489664 0.38661727 -0.4773361 -0.5072751 -0.06368364
0.020596374 -0.30085647 -0.23171669 0.08266519 -0.50832033 0.30858788 -0.029387316 0.08731778
0.45185378 -0.060540415 -0.347366 -0.2893689 -0.0064713205 0.3273488 -0.34778154 -0.14845623
0.22103648 -0.025562989 -0.36756447 -0.030886695 -0.10685265 -0.22162654 -0.16987535 0.13963985
-0.1500357 -0.002502801 -0.20205584 0.040983927 0.17381449 -0.9590413 -0.2536418 -0.1942598
0.35685566 -1.1004627 -0.27421898 -0.1598055 0.046867203 -0.2780164 -0.4152062 0.059609115
-0.37828824 -0.22299789 0.52029216 -0.16258737 0.2806778 -0.28536856 0.09140425 -0.38810828
0.05896542 0.0781296 -0.089756764 -0.43537053 -0.25559235 0.11370701 -0.13613321 0.043611296
-0.104563296 -0.1517998 0.37240243 -0.38492298 -0.23556913 -0.5152749 0.3552058 -0.13688184
-0.2374897 -0.28077465 0.5084067 -0.31871626 -0.09263077 -0.5710365 0.22587478 -0.14985682
0.14405614 0.2618085 0.18954384 -0.46494514 0.23179135 -0.47512034 -0.42654207 -0.010516669
-0.31787336 0.054227374 0.17252558 0.08161971 0.2582835 -0.36484352 0.102282636 -0.40048474
-0.46331942 0.03946591 0.22998658 0.1180942 0.04146639 -0.24392453 -0.22454591 0.0040173004
-0.0018859059 0.022851795 0.111433655 -0.1662011 0.19008963 0.11535731 -0.11336417 -0.26043597
0.18181568 0.4027557 0.22372925 -0.41586626 0.18222506 -0.61050767 0.10586398 -0.28619975
0.10335539 0.08347562 0.39846945 -0.49605823 -0.057644784 -0.2687108 0.22443712 -0.40166122
-0.17628182 0.66225415 -0.08121574 -0.10892067 -0.029409442 0.04890147 -0.3419514 0.0728863
-0.5427149 -0.6723332 -0.39001054 -0.41909602 0.08873935 -6.311481 -0.14478143 -0.17697999
-0.3681089 -0.5826202 0.20268239 0.15691748 -0.13232751 -0.120783865 -0.034708615 0.043705866
0.045668006 -0.41682285 0.13623673 -0.35287613 -0.23451498 0.04195664 0.31310624 -0.07850076
-0.120016746 -0.102589235 0.29485655 -0.17645492 -0.26396367 -0.53615755 0.10314917 0.14104182
-0.26364398 -0.102155335 -0.17133978 0.14918727 -0.13521065 0.2158471 0.017610503 -0.100928895
-0.29599005 0.28717184 -0.07129241 -0.0595408 0.19187258 0.9614851 -0.17023593 -0.563433
0.26065782 -0.17321508 -0.2096491 -0.17844248 0.23469268 -0.47385576 -0.1268624 -0.11155533
00000000: 296b d83d 4b76 d33e d1de 5cbe 2b11 34be
00000010: 372a 89be 0c5b c8be 01a0 283b 36b8 1a3d
00000020: 474a 033c fab4 103e 57ef 9cbe 5e55 8cbd
00000030: 0536 4bbd 0e5b 94be f513 01bf e79e 5e3e
00000040: 7ee1 99ba b669 12bf ff69 2dbe 6127 9eb9
00000050: 748c b43e a310 97bc 22f7 cfbe ef0d debd
00000060: c8d3 5f3e 1dd7 ffbe 3742 f6be ee4d b43b
00000070: 230f 683e 3cba 00bf 2898 eebd 3727 16be
00000080: 301b eabe d9d1 5bbe 1f6b 0ebf 2ac8 20bf
00000090: b6a0 f5be 1921 183f db9b 9f3e ec8d a5bb
000000a0: a72b 52be 7a68 143d 02b1 b4bc 328a 323c
000000b0: 92ae 84be 1712 60be bc93 723e 0fa0 adbd
000000c0: 3b84 b3be 5fb9 91be e573 cd3e a7e2 80bd
000000d0: 2a1f 313e 3940 673e 1229 0c3e 6419 a4be
000000e0: 5382 1b3d 8bac aebd 1136 0a3d 7bc3 c0bd
000000f0: b7b2 9abe 7c17 243e 183e 06be a2fc f23d
00000100: 5d3a 88be 8bc0 94be 44f5 7d3d ee4e ebbd
00000110: b3f2 c53e 6665 f4be c8dc 01bf 916c 82bd
00000120: bab9 a83c dc09 9abe 2447 6dbe 5e4c a93d
00000130: 4821 02bf 3bff 9d3e abbd f0bc aad3 b23d
00000140: 6159 e73e 3af9 77bd f5d9 b1be 2928 94be
00000150: 5f0d d4bb 439a a73e 6c10 b2be e904 18be
00000160: 6357 623e 7969 d1bc 6931 bcbe 1806 fdbc
00000170: 90d5 dabd 11f2 62be cef3 2dbe c0fd 0e3e
00000180: f5a2 19be 0806 24bb bae7 4ebe c3de 273d
00000190: 6dfc 313e bb83 75bf 57dd 81be 0aec 46be
000001a0: c9b5 b63e f6db 8cbf 6e66 8cbe 0ea4 23be
000001b0: d3f7 3f3d 2a58 8ebe e895 d4be b028 743d
000001c0: ffae c1be 8f59 64be de31 053f 4e7d 26be
000001d0: 00b5 8f3e d41b 92be 2732 bb3d 21b6 c6be
000001e0: b985 713d 6902 a03d 65d2 b7bd e3e8 debe
000001f0: 00dd 82be 39df e83d 8166 0bbe c2a1 323d
00000200: 4825 d6bd 6871 1bbe 88ab be3e a014 c5be
00000210: 0939 71be 0ee9 03bf 89dd b53e c12a 0cbe
00000220: 8030 73be b2c1 8fbe f126 023f c72e a3be
00000230: 33b5 bdbd 732f 12bf b84b 673e 1174 19be
00000240: 7483 133e c40b 863e c817 423e 4a0d eebe
00000250: b65a 6d3e f942 f3be b963 dabe 1b4e 2cbc
00000260: 4cc0 a2be 861d 5e3d 8caa 303e 3c28 a73d
00000270: bc3d 843e c5cc babe 8f79 d13d 560c cdbe
00000280: 3438 edbe 02a7 213d 9a81 6b3e 5fdb f13d
00000290: a9d8 293d 5ac7 79be 5def 65be 8fa3 833b
000002a0: 8030 f7ba b033 bb3c 5437 e43d 9f30 2abe
000002b0: dba6 423e 7440 ec3d 792b e8bd dd57 85be
000002c0: e42d 3a3e ff35 ce3e 4819 653e 6cec d4be
000002d0: 3599 3a3e 3b4a 1cbf 37cf d83d c688 92be
000002e0: feab d33d 44f5 aa3d 3004 cc3e 58fb fdbe
000002f0: f01c 6cbd 7694 89be d8d2 653e 8aa6 cdbe
00000300: 3983 34be 7d89 293f 7054 a6bd cd11 dfbd
00000310: 12ec f0bc e84c 483d 4114 afbe 6a45 953d
00000320: 5def 0abf 071e 2cbf 76af c7be c193 d6be
00000330: fabc b53d a7f7 c9c0 9541 14be 3e3a 35be
00000340: c578 bcbe 9926 15bf f98b 4f3e faae 203e
00000350: dd80 07be 885d f7bd 9f2a 0ebd ec04 333d
00000360: 600e 3b3d ce69 d5be a481 0b3e 2eac b4be
00000370: b224 70be bada 2b3d 764f a03e 02c5 a0bd
00000380: 57cb f5bd 4e1a d2bd 70f7 963e 99b0 34be
00000390: 3f26 87be 9f41 09bf df3f d33d 446d 103e
000003a0: 58fc 86be d136 d1bd b273 2fbe 8cc4 183e
000003b0: a974 0abe 0607 5d3e e743 903c cfb3 cebd
000003c0: 028c 97be 3008 933e c101 92bd 0ee1 73bd
000003d0: 3f7a 443e e323 763f 5452 2ebe 253d 10bf
000003e0: f174 853e 4b5f 31be 41ae 56be a0b9 36be
000003f0: 4753 703e 399d f2be 38e8 01be 1f77 e4bd

edge_layers.1.bias f4 [4096]
-0.5572026 -0.24268022 -0.68340117 -0.70931053 -0.1790959 -0.5935892 -0.3145997 -0.043553676
0.55851024 -0.6092626 -0.28548858 -0.11067843 -0.5501892 -0.7579647 -0.026794184 -0.9595887
-0.34240165 -0.42094165 -0.21232393 -0.044134535 -0.34993574 -0.77101374 -0.5908921 -0.5433805
-0.37189654 -0.2829541 -0.08011586 -0.41498175 -0.079970606 -0.016748372 -0.4838397 -0.47774488
-0.37417716 -0.017792594 -0.049385805 -0.022653155 -0.48244148 -0.30409685 -0.17872676 -0.4295807
-0.21440786 -0.19189464 -0.06142591 -0.19178194 -1.0298176 -0.198618 -0.6128952 -0.43093818
-0.93030494 -0.7330742 -0.17797601 -0.2423824 -0.23638146 -0.13669711 -0.32281113 -0.21629767
-0.19782725 -0.0716151 -0.5484219 -0.2687992 -0.69524515 -0.7873469 -0.13383305 -0.03758497
-0.007286026 -0.61215776 -0.5497452 -0.019599246 -0.4841991 -0.39655197 -0.1461867 -1.7866678
-0.07819977 -0.11714965 -0.06814391 -1.4388982 -1.045558 -1.478288 -0.24266015 -0.4563091
-0.8487603 -0.016587362 -0.26708728 -0.26223272 -0.0028457793 -0.009592837 -1.2809936 -0.012376699
-0.8134199 -0.56263787 -0.88419724 -2.209984 0.16552883 -0.01758378 0.25201568 -1.6816281
-0.011545476 -0.014105975 0.54665524 -0.23040436 -0.0034869942 -0.5209638 -0.24008681 -0.1555171
-0.47269666 -0.0030137065 -0.18352872 -0.12146923 -0.29934537 -0.60833967 -0.5279514 -1.0958439
-0.3791718 -1.3907493 -0.1178934 -0.7100259 -0.054901443 3.3268332 -0.5450332 -0.3736488
-2.0759604 -0.5591784 0.49018312 -0.0093374895 -0.08546143 -0.01986596 1.5682578 -0.77144665
-0.03291325 -0.7732425 0.8433042 -0.26100203 -0.3558118 -0.013651362 -0.1542682 -0.41110486
0.19046853 -1.0171481 -0.071635924 -0.29217374 -0.45101085 -0.24105367 -0.6832587 -0.600464
-1.0886455 -0.049862787 -0.36038852 0.08157268 -0.39347753 -0.40880817 -0.8236675 -0.20857494
-0.5037744 -0.05187669 -0.45981237 -0.6110665 -0.33072287 -0.4339817 -0.5477861 -0.92649543
-0.21729952 -0.08141375 -0.3373519 -0.029900592 -0.006673825 -0.19077197 -0.41996986 -0.42763215
-0.32183492 -0.040882617 -0.53641754 -0.2252531 -0.07850784 -0.024235342 -0.3491062 -0.36028624
-0.23343624 -0.09060209 -0.6302312 -0.29407293 -0.42262793 -0.33937976 -0.009099255 -0.056355026
-0.013855729 -0.44435838 -0.42263165 -0.5730006 -0.018126467 -0.2486931 -0.97890395 -0.012892089
-0.03851118 -0.027564853 -0.1816966 -0.25648308 -0.28980657 -0.6386678 -0.09379766 -0.33510765
0.19953255 -0.4051455 -0.319018 -0.027287876 -0.25636443 -0.012147147 -0.327121 -0.015311504
-0.42660603 -0.3852832 -0.19203672 0.3986921 -0.026745373 -0.58059454 -0.54256713 -0.4946271
-0.018282684 -0.3657204 -0.13921094 -0.16394499 -0.6326037 -0.35496777 -0.4006102 -0.090226464
-0.44669226 -0.5955929 -0.46108297 -0.27910104 -0.80368423 -0.12881042 -0.6893958 -0.54435015
-0.4131708 -0.15723397 -0.24790028 -0.64357793 -0.5514793 -0.94929296 -0.7363535 -0.05487368
-0.18199003 -0.025453022 0.5947101 -0.45889452 -0.49050185 -0.5893782 -0.3018461 -0.1952341
-0.05260488 -0.19849643 -0.19804494 -0.2717992 -0.470259 -0.017444918 -0.9054906 -0.2857052
00000000: d4a4 0ebf 2a81 78be 61f3 2ebf 6095 35bf
00000010: ea64 37be 76f5 17bf 3613 a1be 5765 32bd
00000020: 87fa 0e3f a2f8 1bbf 8f2b 92be 5fab e2bd
00000030: 33d9 0cbf f909 42bf 7a7f dbbc 9ba7 75bf
00000040: 454f afbe aa85 d7be 726b 59be 6ac6 34bd
00000050: c72a b3be 2861 45bf b444 17bf fc1a 0bbf
00000060: 3969 bebe 5cdf 90be c913 a4bd 7d78 d4be
00000070: a1c7 a3bd e233 89bc d6b9 f7be fa9a f4be
00000080: 2694 bfbe c6c1 91bc c548 4abd 1c93 b9bc
00000090: 9202 f7be 95b2 9bbe 2604 37be 00f2 dbbe
000000a0: bc8d 5bbe 0780 44be bc99 7bbd 7c62 44be
000000b0: 10d1 83bf 8462 4bbe b3e6 1cbf eea3 dcbe
000000c0: 7728 6ebf c0aa 3bbf 583f 36be 1833 78be
000000d0: fb0d 72be 54fa 0bbe 8047 a5be 237d 5dbe
000000e0: 3a93 4abe f0aa 92bd 6165 0cbf 0ca0 89be
000000f0: 96fb 31bf 918f 49bf 880b 09be b3f2 19bd
00000100: 9ebf eebb 5fb6 1cbf 1abc 0cbf 998e a0bc
00000110: f2e8 f7be dc08 cbbe f7b1 15be 88b1 e4bf
00000120: 3327 a0bd 28ec efbd 098f 8bbd d12d b8bf
00000130: d8d4 85bf 8b38 bdbf e77b 78be 59a1 e9be
00000140: 5b48 59bf 38e2 87bc aabf 88be 5e43 86be
00000150: 4180 3abb 462b 1dbc 99f7 a3bf a3c7 4abc
00000160: 493c 50bf 0909 10bf c05a 62bf 6170 0dc0
00000170: 6480 293e dc0b 90bc 3308 813e 973f d7bf
00000180: 3c29 3dbc bf1c 67bc 99f1 0b3f 1fef 6bbe
00000190: 0e86 64bb e25d 05bf 51d9 75be e03f 1fbe
000001a0: 4c05 f2be 9b81 45bb f4ee 3bbe dcc4 f8bd
000001b0: cc43 99be 26bc 1bbf d327 07bf 9d44 8cbf
000001c0: ce22 c2be 1304 b2bf 1872 f1bd 42c4 35bf
000001d0: 56e0 60bd d6ea 5440 4c87 0bbf e54e bfbe
000001e0: 89dc 04c0 5126 0fbf 48f9 fa3e 45fc 18bc
000001f0: 6706 afbd f0bd a2bc acbc c83f 877d 45bf
00000200: 0bd0 06bd 38f3 45bf c9e2 573f 0fa2 85be
00000210: f72c b6be f6a9 5fbc 7cf8 1dbe 567c d2be
00000220: 2f0a 433e e931 82bf dbb5 92bd cc97 95be
00000230: e5ea e6be c6d6 76be 0bea 2ebf 02b8 19bf
00000240: bc58 8bbf ec3c 4cbd d884 b8be 940f a73d
00000250: e375 c9be 4e4f d1be e0db 52bf ab94 55be
00000260: 5cf7 00bf a77c 54bd 876c ebbe db6e 1cbf
00000270: 8254 a9be d932 debe b63b 0cbf ce2e 6dbf
00000280: c483 5ebe 41bc a6bd 63b9 acbe 16f2 f4bc
00000290: 1ab0 dabb ba59 43be 4a06 d7be 9af2 dabe
000002a0: 8cc7 a4be 8874 27bd a952 09bf c0a8 66be
000002b0: b8c8 a0bd 3289 c6bc 0cbe b2be 7077 b8be
000002c0: e909 6fbe 978d b9bd d556 21bf ba90 96be
000002d0: b062 d8be 2fc3 adbe 0b15 15bc 87d4 66bd
000002e0: 2403 63bc f182 e3be 2d63 d8be 2bb0 12bf
000002f0: f57d 94bc 67a9 7ebe 7399 7abf 5739 53bc
00000300: e6bd 1dbd b0cf e1bc ac0e 3abe c051 83be
00000310: 8761 94be bc7f 23bf fd18 c0bd 3b93 abbe
00000320: 4352 4c3e 3b6f cfbe 5456 a3be d38a dfbc
00000330: 3342 83be d404 47bc 677c a7be 1add 7abc
00000340: 1b6c dabe d743 c5be 46a5 44be 5f21 cc3e
00000350: 1d19 dbbc d8a1 14bf aee5 0abf c33f fdbe
00000360: 91c5 95bc b43f bbbe 508d 0ebe 32e1 27be
00000370: 51f2 21bf 56be b5be c81c cdbe a7c8 b8bd
00000380: d9b4 e4be c778 18bf 1113 ecbe 55e6 8ebe
00000390: 40be 4dbf e1e6 03be 3e7c 30bf 885a 0bbf
000003a0: 208b d3be f101 21be 92d9 7dbe 86c1 24bf
000003b0: bf2d 0dbf dd04 73bf aa81 3cbf 39c3 60bd
000003c0: 985b 3abe db82 d0bc ec3e 183f 39f4 eabe
000003d0: 0f23 fbbe 7de1 16bf 928b 9abe 73eb 47be
000003e0: 3778 57bd a642 4bbe 4bcc 4abe 4429 8bbe
000003f0: cac5 f0be a5e8 8ebc 3bce 67bf f447 92be

fc.weight f4 [2, 64]
-0.1701996 0.08655144 -0.013400107 0.13007458 -0.36669406 0.20728834 0.03958844 -0.20194285
-0.47294056 -0.0664018 -0.0036635878 0.104335345 -0.07267439 -0.13030076 0.27328518 0.094083436
0.09529879 0.04459814 -0.37466428 -0.08624845 -0.4171647 -0.039641686 -0.07037979 -0.25516388
0.04698176 -0.22624466 -0.13644227 -0.034125783 0.05024712 -0.1119673 -0.32705715 0.014091043
-0.11521406 -0.10338611 -0.857279 0.2967896 0.046226203 -0.59918 0.41054064 0.11015562
-0.08946804 -0.12776065 -0.056882896 -0.116106234 -0.057098597 -0.443095 -0.18603082 -0.76142955
-0.17200303 -0.016275246 0.22210087 -0.66142094 0.06989783 -0.062162798 -0.36624613 -0.048808716
-0.0569049 0.13429056 0.0015095721 -0.3547359 -0.119929224 -0.0728428 0.23166265 0.06311852
0.16399306 0.031193351 -0.14004526 -0.037111618 0.18539214 -0.03800312 0.08263293 0.0872403
0.6081209 0.07596757 0.09326095 -0.058997117 0.14220864 0.11695998 -0.25826782 0.096958406
-0.016032435 -0.050402507 0.27271023 0.04674519 0.53205323 -0.09959307 -0.05344842 0.11357817
0.048585255 0.14596352 -0.018736582 0.10213726 0.010633746 0.025617026 0.40616867 -0.0037313201
0.23434962 0.053160254 0.8450468 -0.40730917 -0.06782624 0.5015371 -0.27153504 0.012801773
-0.09818459 0.07033258 -0.028139409 0.19839655 0.19886056 0.26992962 0.14027917 0.7138975
-0.03548153 0.06229155 -0.34368974 0.7416755 -0.072592564 0.19219677 0.42614004 -0.07075757
0.012917774 -0.30289173 0.14159147 0.34185845 0.045976788 0.16261105 -0.28996092 -0.050465513
00000000: ce48 2ebe e241 b13d 1f8c 5bbc 4532 053e
00000010: 53bf bbbe 6543 543e 7d27 223d 1bca 4ebe
00000020: 4425 f2be abfd 87bd ce18 70bb c5ad d53d
00000030: 50d6 94bd 906d 05be 09ec 8b3e d1ae c03d
00000040: 032c c33d 8aac 363d ffd3 bfbe 07a3 b0bd
00000050: 9d96 d5be 525f 22bd 4823 90bd d7a4 82be
00000060: f26f 403d aeac 67be 86b7 0bbe 7ac7 0bbd
00000070: edcf 4d3d 1d4f e5bd 0974 a7be 1ede 663c
00000080: 59f5 ebbd 19bc d3bd a376 5bbf cef4 973e
00000090: b057 3d3d dc63 19bf 6232 d23e 4599 e13d
000000a0: 053b b7bd b0d3 02be 0afe 68bd 1bc9 edbd
000000b0: 38e0 69bd 59dd e2be dd7e 3ebe 0ced 42bf
000000c0: 9021 30be aa53 85bc 696e 633e e252 29bf
000000d0: 9826 8f3d 6b9e 7ebd 9d84 bbbe a6eb 47bd
000000e0: 1d15 69bd 7783 093e d6dc c53a f29f b5be
000000f0: 749d f5bd 9b2e 95bd f938 6d3e 4844 813d
00000100: cced 273e 3389 ff3c 0668 0fbe 5a02 18bd
00000110: 70d7 3d3e 29a9 1bbd 743b a93d 0bab b23d
00000120: d0ad 1b3f e394 9b3d 99ff be3d f6a6 71bd
00000130: 249f 113e b788 ef3d ae3b 84be 2192 c63d
00000140: 7456 83bc dc72 4ebd ada0 8b3e e277 3f3d
00000150: a434 083f 74f7 cbbd bbec 5abd ac9b e83d
00000160: 5501 473d 7677 153e 767d 99bc 572d d13d
00000170: 2a39 2e3c ccda d13c 57f5 cf3e 2a89 74bb
00000180: 59f9 6f3e 91be 593d fd54 583f d48a d0be
00000190: 7ce8 8abd bc64 003f a406 8bbe 87be 513c
000001a0: 0115 c9bd 870a 903d 9e84 e6bc 7728 4b3e
000001b0: 1aa2 4b3e 3734 8a3e 58a5 0f3e fdc1 363f
000001c0: 1555 11bd 6d25 7f3d 1af8 afbe 72de 3d3f
000001d0: 69ab 94bd 3bcf 443e 072f da3e 58e9 90bd
000001e0: 12a5 533c a014 9bbe 5bfd 103e 1208 af3e
000001f0: 2852 3c3d 8383 263e c275 94be edb4 4ebd

fc.bias f4 [2]
1.5982376 -1.5480874
00000000: 0d93 cc3f ba27 c6bf
