experiment/IBM_HI_S/TGAT/TGAT_checkpoint.pt (torch_old, 774616 bytes, 24 tensors)

time_layers.0.basis_freq f4 [32]
0.7298635 0.32845736 0.1393768 0.12602691 -0.00785351 0.0026748297 0.10357799 -0.123405635
0.067698106 0.049144447 0.112867534 -0.08811892 0.108471975 0.042455222 -0.14879492 0.10472889
0.047559284 0.076109074 -0.07990316 0.014263545 0.079675354 0.0053220876 -0.14233975 -0.19802886
-0.09977832 -0.1508209 0.023320235 -0.069507726 -0.074042015 0.10016329 -0.14177424 -0.10745832
00000000: 56d8 3a3f 902b a83e cbb8 0e3e 330d 013e
00000010: 02ac 00bc 324c 2f3b b220 d43d 18bc fcbd
00000020: 4ea5 8a3d b04b 493d 1827 e73d b177 b4bd
00000030: 8e26 de3d 87e5 2d3d b25d 18be 1a7c d63d
00000040: 86cd 423d 13df 9b3d 45a4 a3bd a5b1 693c
00000050: d52c a33d e864 ae3b 83c1 11be 14c8 4abe
00000060: 9358 ccbd cb70 1abe 140a bf3c 115a 8ebd
00000070: 57a3 97bd 6922 cd3d 442d 11be 1c13 dcbd

time_layers.0.phase f4 [32]
-0.3269974 -0.38341755 -0.17526151 -0.24358979 0.1799897 0.031138731 -0.16415988 0.21982749
-0.113457106 -0.24908243 -0.21651858 0.14698538 -0.37555835 -0.12692618 0.26097137 -0.4130586
-0.407768 -0.2872055 -0.06140414 -0.012006973 0.06493425 -0.006520342 0.24369106 -0.13273379
0.23994188 0.5411159 0.0890745 0.11948664 0.12394427 -0.24134411 0.3837217 0.21423522
00000000: 346c a7be 4e4f c4be c177 33be 9a6f 79be
00000010: 384f 383e a716 ff3c 8719 28be 751a 613e
00000020: 335c e8bd 770f 7fbe 0cb7 5dbe 5683 163e
00000030: 2f49 c0be f0f8 01be 0a9e 853e 6b7c d3be
00000040: f8c6 d0be 990c 93be e882 7bbd e5b8 44bc
00000050: 40fc 843d 98a8 d5bb 268a 793e 5eeb 07be
00000060: 53b3 753e 9286 0a3f b16c b63d 69b5 f43d
00000070: 7ed6 fd3d e922 77be 2c77 c43e 7a60 5b3e

time_layers.1.basis_freq f4 [32]
1.5383936 0.79570115 0.4866802 0.5230325 0.41949907 0.36509117 -0.34538087 0.18427919
0.039798543 -0.3147147 0.09536522 -0.58397496 -0.23168428 0.4546203 -0.23857093 -0.120295554
0.3702259 0.084814236 0.27174383 0.42897347 -0.3398529 -0.22183806 0.10372173 0.08928321
0.36034173 -0.2454456 -0.4592697 0.10871841 -0.11721437 -0.012185332 0.38344958 -0.17125206
00000000: 15ea c43f 12b3 4b3f 262e f93e 75e5 053f
00000010: 95c8 d63e 3bed ba3e c3d5 b0be afb3 3c3e
00000020: cc03 233d 4922 a1be d74e c33d 627f 15bf
00000030: a53e 6dbe fec3 e83e f04b 74be 845d f6bd
00000040: 408e bd3e 16b3 ad3d 0222 8b3e 69a2 db3e
00000050: 3301 aebe 8429 63be 0f6c d43d 1eda b63d
00000060: b67e b83e 1756 7bbe 6625 ebbe c2a7 de3d
00000070: 160e f0bd fda4 47bc 8153 c43e b35c 2fbe

time_layers.1.phase f4 [32]
0.55210644 0.30553442 0.26989755 0.44430095 0.3976381 0.38786614 -0.29071945 0.33825094
-0.27584752 -0.3945276 0.23122694 -0.40260974 -0.50322944 0.43898752 -0.37088138 0.16697612
0.338792 -0.18485735 0.24260923 0.3306711 -0.39786944 -0.29348442 0.27448127 0.5297269
0.44114953 -0.36872673 -0.4474624 0.24316417 0.28199732 0.648105 0.40663382 -0.27434784
00000000: d956 0d3f 026f 9c3e 0330 8a3e 6a7b e33e
00000010: 3997 cb3e 6496 c63e 2ed9 94be 3a2f ad3e
00000020: e33b 8dbe 86ff c9be c1c6 6c3e dd22 cebe
00000030: a5d3 00bf f9c2 e03e 2ae4 bdbe cafb 2a3e
00000040: 2576 ad3e 3f4b 3dbe 8e6e 783e b94d a93e
00000050: 8bb5 cbbe 9743 96be cf88 8c3e 2f9c 073f
00000060: 5ade e13e c0c9 bcbe cb19 e5be 0700 793e
00000070: f461 903e 36ea 253f 4f32 d03e 5277 8cbe

attn_layers.0.w_qs.weight f4 [256, 65]
-0.30470365 -0.12868203 -0.25803077 -0.076773964 0.007848411 0.16628419 0.1167824 -0.070894964
-0.36444172 -0.23491412 -0.060758464 -0.36864987 0.26248124 -0.17789613 0.04108749 0.19271994
-0.13384838 -0.27724302 0.34873018 -0.0924101 0.05627532 -0.5095396 -0.2464432 0.10429771
0.104102045 -0.1896188 0.00342765 0.040537372 0.16463391 -0.22596242 0.10853827 0.047783826
0.12966804 -0.040033035 -0.06972896 -0.22171864 -0.28339425 0.088542186 -0.075168386 -0.028764073
-0.1684607 -0.019610919 -0.2165246 -0.19746228 -0.146533 -0.18095022 0.0053566033 -0.36202994
-0.10755496 -0.20750284 -0.15047891 0.021084785 -0.2696322 -0.2148076 0.13771464 -0.17846738
-0.36712754 -0.21409799 -0.0636155 0.01080997 -0.19260848 -0.23220822 0.009358374 -0.3076346
-0.15465699 -0.07167743 -0.14842603 0.1616415 -0.089548856 -0.21011575 -0.0665348 0.053450927
0.19265367 0.015772406 0.12708044 0.103944704 0.05146571 -0.24049233 -0.317147 0.3682283
0.006525751 -0.21767004 0.09230372 -0.25354114 -0.4927892 0.09445362 0.38224772 -0.033401486
-0.13283597 -0.059924457 0.013168458 0.1630224 0.08632274 0.17650081 0.014869041 0.033906464
-0.023356976 -0.13302365 0.001180988 -0.038835492 0.06096519 0.13902055 -0.04250998 -0.19025433
-0.13796915 -0.17789222 -0.16501492 -0.029663553 0.19587462 -0.11456608 0.105251536 0.06741359
-0.12213776 -0.077771746 0.10320407 -0.07835665 -0.15357982 -0.06956558 -0.18440157 0.03541225
-0.12627296 -0.0808803 -0.11492706 -0.01569388 -0.08383836 -0.048125237 -0.0032754294 -0.10382911
0.034899015 0.0516274 0.016967215 -0.1737926 0.0652647 -0.22645138 -0.013057041 0.25057325
-0.036751185 -0.381827 0.07012662 -0.301861 -0.10949868 -0.10700414 0.1317006 -0.032339424
-0.37310642 -0.2739317 0.24439184 -0.20358743 0.2483513 0.47101706 -0.03589233 -0.23077102
0.1957062 -0.03331968 -0.043866646 0.028029732 0.1723863 0.083132625 -0.04120532 0.09488416
-0.05741096 0.1769452 -0.11107022 -0.028696423 -0.1345663 -0.12725423 -0.22461863 0.008922413
0.23784086 -0.20902331 -0.12769751 0.12659445 -0.058339603 0.050474398 -0.13087448 0.21024534
-0.25909537 -0.22260985 -0.15806323 0.030035453 0.059480008 0.037088923 0.00093912135 -0.28154635
0.049850855 -0.335688 -0.03781799 0.09554963 -0.09904487 -0.017067645 -0.017502727 -0.32100168
-0.20867436 -0.1486934 0.06699996 0.0672079 0.14564121 0.023382679 0.025230965 -0.25834194
0.20012851 0.44480944 -0.06126113 0.047294192 -0.18065043 -0.032130696 0.05488201 0.1094046
-0.15583639 -0.24340907 -0.055612035 0.102257915 0.040677387 0.13897043 0.078907914 0.030499773
0.03743337 -0.016863065 0.056228332 0.00023813482 -0.13063473 0.14237325 -0.23326313 0.09903017
-0.089698486 0.05204305 -0.14948541 0.3524014 -0.017888134 -0.0018683329 -0.11717137 0.09552742
0.044527605 0.16051924 -0.02397533 0.00011654683 0.012003957 0.10246287 0.17653362 0.071177684
0.14746028 0.17605534 0.13753828 -0.014138816 -0.019912783 0.13293782 -0.10057037 0.11750308
-0.11797573 0.05533168 0.13518016 0.017341908 0.14941184 -0.010444714 -0.021215342 0.14737917
00000000: 1e02 9cbe 39c5 03be 9c1c 84be ab3b 9dbd
00000010: 9f96 003c 6746 2a3e 9c2b ef3d 6131 91bd
00000020: 1b98 babe 548d 70be dedd 78bd adbf bcbe
00000030: f163 863e 672a 36be 5b4b 283d 6058 453e
00000040: 8d0f 09be ccf2 8dbe c38c b23e 8241 bdbd
00000050: f380 663d 3071 02bf 9b5b 7cbe 0a9a d53d
00000060: 7433 d53d 6e2b 42be 6da2 603b 840a 263d
00000070: cb95 283e b162 67be 5049 de3d f9b8 433d
00000080: b3c7 043e aef9 23bd 0fce 8ebd 360a 63be
00000090: 0d19 91be 9b55 b53d e2f1 99bd a2a2 ebbc
000000a0: f680 2cbe 14a7 a0bc a0b8 5dbe 8d33 4abe
000000b0: bf0c 16be 044b 39be 7286 af3b fd5b b9be
000000c0: c645 dcbd a07b 54be 2517 1abe 00ba ac3c
000000d0: 3b0d 8abe 86f6 5bbe 1105 0d3e 27c0 36be
000000e0: 24f8 bbbe 813c 5bbe d848 82bd 4d1c 313c
000000f0: 283b 45be fec7 6dbe de53 193c 4882 9dbe
00000100: 675e 1ebe 9ecb 92bd fefc 17be 5985 253e
00000110: 6465 b7bd 9528 57be 6643 88bd 5cef 5a3d
00000120: 0147 453e 2235 813c 6021 023e f6e0 d43d
00000130: b5cd 523d 9f43 76be 1761 a2be 6b88 bc3e
00000140: f8d5 d53b e5e4 5ebe bc09 bd3d 25d0 81be
00000150: de4e fcbe e670 c13d f9b5 c33e ffcf 08bd
00000160: 2706 08be 5973 75bd 84c0 573c 58ef 263e
00000170: fac9 b03d a1bc 343e 479d 733c 81e1 0a3d
00000180: 2157 bfbc 5a37 08be 62cb 9a3a f711 1fbd
00000190: a3b6 793d 675b 0e3e f21e 2ebd 08d2 42be
000001a0: c947 0dbe 6129 36be acf9 28be fb00 f3bc
000001b0: 5b93 483e 9fa1 eabd 1e8e d73d 2310 8a3d
000001c0: 5d23 fabd cb46 9fbd a85c d33d 7479 a0bd
000001d0: 0744 1dbe 6678 8ebd c4d3 3cbe 6f0c 113d
000001e0: b34d 01be 92a4 a5bd e15e ebbd 7490 80bc
000001f0: 72b3 abbd f81e 45bd 96a8 56bb 5ba4 d4bd
00000200: 45f2 0e3d 4177 533d d4fe 8a3c b0f6 31be
00000210: 80a9 853d dfe2 67be 33ed 55bc 234b 803e
00000220: 6988 16bd d47e c3be 8c9e 8f3d 868d 9abe
00000230: d840 e0bd fd24 dbbd 86dc 063e 5876 04bd
00000240: ce07 bfbe c740 8cbe db41 7a3e 3979 50be
00000250: ce4f 7e3e 2629 f13e d603 13bd 3d4f 6cbe
00000260: 3567 483e 377a 08bd 83ad 33bd 9c9e e53c
00000270: 0986 303e 7041 aa3d e9c6 28bd a052 c23d
00000280: c127 6bbd 1f31 353e c978 e3bd c314 ebbc
00000290: c0cb 09be ef4e 02be 6d02 66be 502f 123c
000002a0: 8e8c 733e 350a 56be 23c3 02be faa1 013e
000002b0: 82f5 6ebd 3ebe 4e3d f603 06be 8e4a 573e
000002c0: 26a8 84be d6f3 63be 54db 21be e90c f63c
000002d0: 4fa1 733d 8eea 173d 5e2f 763a d826 90be
000002e0: 6930 4c3d 4cdf abbe 09e7 1abd 86af c33d
000002f0: 09d8 cabd 72d1 8bbc e161 8fbc 555a a4be
00000300: bbae 55be 1543 18be 4637 893d 4ca4 893d
00000310: f822 153e 088d bf3c 2bb1 ce3c 6545 84be
00000320: 7dee 4c3e 10be e33e f3ec 7abd 8eb7 413d
00000330: 6dfc 38be 7a9b 03bd f5cb 603d 850f e03d
00000340: 9393 1fbe 3a40 79be 72c9 63bd 996c d13d
00000350: 559d 263d 444e 0e3e 799a a13d a9da f93c
00000360: bc53 193d 6924 8abc ae4f 663d d4b3 7939
00000370: 1cc5 05be 4bca 113e 88dc 6ebe 54d0 ca3d
00000380: d7b3 b7bd 182b 553d b412 19be f56d b43e
00000390: 238a 92bc d9e2 f4ba 8bf7 efbd e1a3 c33d
000003a0: 9462 363d 285f 243e e967 c4bc 9a6a f438
000003b0: 3fac 443c 0ed8 d13d 3bc5 343e 9bc5 913d
000003c0: d4ff 163e da47 343e d6d6 0c3e 7ea6 67bc
000003d0: 2220 a3bc da20 083e d7f7 cdbd 74a5 f03d
000003e0: 429d f1bd 79a3 623d ab6c 0a3e 9e10 8e3c
000003f0: 6bff 183e 4e20 2bbc cccb adbc 91ea 163e

attn_layers.0.w_ks.weight f4 [256, 65]
-0.31011578 -0.033490036 0.069783196 0.017363308 0.058110256 -0.08578702 0.03269622 0.028770681
0.10582416 0.061953865 -0.13884908 -0.12528482 0.1434997 0.09171515 0.36799234 -0.023942703
0.27767855 -0.23943397 0.33685005 0.56571317 -0.10115207 -0.38871345 -0.19128977 -0.011080643
0.12775399 -0.27215004 -0.29469144 -0.07386695 0.08908342 0.2337096 -0.06488992 0.13591294
-0.13485758 0.0014333093 -0.39290166 0.124908775 -0.28092998 -0.12972991 0.22199623 -0.1744653
0.23647994 -0.005483583 -0.07074413 -0.09425526 -0.08724892 0.10203277 -0.38362467 -0.26366374
-0.49923974 -0.208557 -0.11848395 0.2492768 0.041216582 0.24503365 0.16505806 -0.11869441
0.41784585 0.045140408 0.04213523 0.13801348 0.040749986 -0.26392624 0.1216541 0.060210418
-0.08343399 -0.055617787 -0.06050412 0.42569143 0.2677101 -0.070512824 0.19922845 0.4187366
0.12243259 0.03108974 0.031648036 0.09248115 0.11345352 0.102585405 0.3867023 -0.019679861
-0.27550393 0.14969158 0.12017746 0.022123532 -0.3088382 0.06688904 0.24784718 -0.19908781
-0.07240915 0.019827014 -0.041866206 -0.0766749 0.17178105 -0.04976905 -0.037655186 -0.10131595
-0.09890676 -0.05719306 0.10943947 -0.21323368 -0.14397492 -0.09390754 -0.030942256 0.0002954078
-0.1726126 -0.13542509 0.10819435 -0.026137484 0.063015565 0.07263996 -0.21594143 -0.11239445
0.1842466 -0.39676708 0.025189828 -0.07362815 0.23270264 -0.058945693 0.19694488 -0.1151036
-0.13142686 0.28892326 -0.2695215 -0.40028408 0.014854439 0.061835818 -0.2029498 -0.11327335
-0.0723763 -0.1612548 -0.05150939 0.14461155 0.16578048 0.46452352 0.082551785 -0.011018804
-0.37425393 -0.12996039 0.036736816 0.25661835 0.109391205 -0.09539177 0.03337809 -0.15453354
0.073617436 -0.022871133 0.27980027 -0.16903909 0.23417456 0.15904175 0.10871412 -0.27724445
0.19065352 0.11815888 0.030168397 0.031773474 -0.14747779 -0.058196273 0.23457861 0.1377476
-0.16152854 -0.043514572 -0.078008495 -0.07663003 -0.06189976 0.020440627 0.079771996 -0.16449618
-0.020818997 0.1544662 -0.04528176 -0.06994045 -0.17159864 -0.47658563 -0.18736513 0.2577177
-0.121065415 -0.22822712 0.12600325 0.09645925 -0.054207813 0.08204864 -0.1124533 0.06538483
0.24661809 -0.11500604 0.085142486 0.005601029 0.018137518 -0.0075395512 -0.12253153 0.14463735
-0.13174517 -0.04098757 0.14792472 0.25132903 0.036067598 -0.105541624 -0.03833819 0.14448436
-0.14271855 -0.37631324 0.0023302555 0.021104753 -0.09145244 -0.18617818 0.039720014 -0.0407075
-0.1871759 -0.1835165 -0.07257497 -0.3782809 -0.085938856 -0.041799147 -0.10191223 -0.062317938
0.12122254 -0.17789392 0.0021126398 -0.2070426 -0.056030277 -0.06293842 -0.05200176 0.079290695
-0.22226328 0.17545085 0.1867731 0.019650953 -0.14351182 0.054764047 0.16832864 0.070404135
0.038681988 0.0014842565 0.2588807 0.06065953 -0.10128565 -0.042687766 0.11121727 5.805065e-05
-0.018799787 0.1470625 0.066626325 0.025510158 -0.016199676 0.08463668 -0.15050322 -0.07246462
-0.24484253 -0.017512787 0.15851755 -0.3121205 0.115511924 0.24317181 -0.22274852 0.2588331
00000000: 7fc7 9ebe d92c 09bd 7eea 8e3d 7f3d 8e3c
00000010: 0505 6e3d 1bb1 afbd 79ec 053d 7eb0 eb3c
00000020: 56ba d83d 56c3 7d3d 742e 0ebe aa4a 00be
00000030: 96f1 123e 27d5 bb3d 7e69 bc3e 7d23 c4bc
00000040: e22b 8e3e 2e2e 75be 9c77 ac3e 94d2 103f
00000050: d128 cfbd 7305 c7be 77e1 43be 968b 35bc
00000060: f1d1 023e 4057 8bbe cce1 96be 8e47 97bd
00000070: 5e71 b63d 9251 6f3e 02e5 84bd c32c 0b3e
00000080: 1b18 0abe e1dd bb3a 682a c9be 2cd0 ff3d
00000090: 0ed6 8fbe ebd7 04be fb52 633e 08a7 32be
000000a0: cc27 723e a1af b3bb 4ce2 90bd e708 c1bd
000000b0: 90af b2bd 8ff6 d03d 746a c4be effe 86be
000000c0: 5a9c ffbe f78f 55be b7a7 f2bd 6b42 7f3e
000000d0: b8d2 283d 1aea 7a3e fb04 293e 0e16 f3bd
000000e0: e4ef d53e 26e5 383d fe95 2c3d 6853 0d3e
000000f0: 75e9 263d 5721 87be c925 f93d 339f 763d
00000100: 71df aabd 7acf 63bd 2bd3 77bd 3af4 d93e
00000110: 4c11 893e 0769 90bd 8b02 4c3e a564 d63e
00000120: f0bd fa3d e9af fe3c 5fa1 013d c266 bd3d
00000130: 525a e83d 4c18 d23d d8fd c53e a937 a1bc
00000140: da0e 8dbe c048 193e 9a1f f63d 693c b53c
00000150: 0a20 9ebe 1ffd 883d a7cb 7d3e addd 4bbe
00000160: 404b 94bd 436c a23c e67b 2bbd bb07 9dbd
00000170: 5fe7 2f3e a2da 4bbd 533c 1abd bd7e cfbd
00000180: a18f cabd 4543 6abd cd21 e03d ee59 5abe
00000190: 296e 13be 9952 c0bd 9d7a fdbc f7e0 9a39
000001a0: 5bc1 30be e0ac 0abe 0095 dd3d 471e d6bc
000001b0: 4e0e 813d 42c4 943d c01f 5dbe 102f e6bd
000001c0: 24ab 3c3e 0e25 cbbe e65a ce3c 5bca 96bd
000001d0: 9a49 6e3e 0a71 71bd ebab 493e 70bb ebbd
000001e0: c394 06be c0ed 933e b9fe 89be 09f2 ccbe
000001f0: 0860 733c 8e47 7d3d 13d2 4fbe dcfb e7bd
00000200: 073a 94bd fa1f 25be 83fb 52bd 0d15 143e
00000210: 5cc2 293e 07d6 ed3e e910 a93d 3788 34bc
00000220: 369e bfbe 5614 05be 5879 163d 7b63 833e
00000230: 7f08 e03d c35c c3bd 77b7 083d 0a3e 1ebe
00000240: bdc4 963d 3e5c bbbc fb41 8f3e 9518 2dbe
00000250: 75cb 6f3e d7db 223e 82a5 de3d fcf2 8dbe
00000260: ad3a 433e 48fd f13d b723 f73c e724 023d
00000270: 6b04 17be 375f 6ebd 6035 703e b50d 0d3e
00000280: bd67 25be 563c 32bd ebc2 9fbd 35f0 9cbd
00000290: 9a8a 7dbd 1a73 a73c 805f a33d b071 28be
000002a0: 9a8c aabc 632c 1e3e 5e79 39bd f03c 8fbd
000002b0: 8eb7 2fbe 0803 f4be a5dc 3fbe 93f3 833e
000002c0: 25f1 f7bd 5fb4 69be ff06 013e 6d8c c53d
000002d0: 0309 5ebd 1e09 a83d ea4d e6bd 7be8 853d
000002e0: 7489 7c3e 4988 ebbd 2f5f ae3d d688 b73b
000002f0: 2295 943c 570e f7bb d0f1 fabd d01b 143e
00000300: 35e8 06be 95e2 27bd 9479 173e 33ae 803e
00000310: 9ebb 133d 3526 d8bd 8208 1dbd b5f3 133e
00000320: d024 12be 21ac c0be 33b7 183b e0e3 ac3c
00000330: 6b4b bbbd 7ea5 3ebe 74b1 223d e8bc 26bd
00000340: 0aab 3fbe c0eb 3bbe 30a2 94bd 09ae c1be
00000350: b600 b0bd 9535 2bbd 5cb7 d0bd 1841 7fbd
00000360: 8643 f83d d329 36be 3774 0a3b fa02 54be
00000370: 0180 65bd dce5 80bd ccff 54bd 2963 a23d
00000380: fc98 63be 63a9 333e 7341 3f3e 09fb a03c
00000390: c3f4 12be 4450 603d 585e 2c3e 0b30 903d
000003a0: 0171 1e3d 628b c23a 038c 843e 2176 783d
000003b0: da6e cfbd 5ed9 2ebd e1c5 e33d 697b 7338
000003c0: 0302 9abc 8d97 163e 6273 883d aefa d03c
000003d0: 2fb5 84bc ff55 ad3d 841d 1abe 5568 94bd
000003e0: 00b8 7abe fa76 8fbc 6d52 223e 42ce 9fbe
000003f0: 8491 ec3d 0802 793e 3018 64be c685 843e

attn_layers.0.w_vs.weight f4 [256, 65]
-0.20413448 -0.016455356 0.15880169 -0.018978398 -0.05723908 0.19841677 -0.19541189 0.111760736
0.073292166 -0.05879813 0.30636594 0.030196795 0.22183202 0.23566729 0.03227971 0.02998299
0.020438284 -0.20491861 -0.07190377 -0.08991999 0.050455667 0.05444155 0.18835974 -0.5453004
0.010517124 -0.08087624 0.107699946 -0.11082725 0.15765078 0.030852111 0.04444383 0.06996049
-0.083334796 0.0024937599 0.11707323 0.2548506 0.39307553 0.15568972 0.1526882 0.22046503
0.26299116 0.22930391 0.10999252 0.16300702 0.2656675 -0.109978445 0.27465484 0.14182632
-0.0032530949 0.03543495 0.11923564 0.019629423 0.053563382 0.28106874 0.14725964 0.22263977
-0.13566414 0.15051001 0.18722075 0.19712913 0.342964 -0.014992264 -0.13751152 0.3563874
0.15319957 -0.13558467 0.37880296 0.12265724 0.03733486 0.009834019 -0.17370445 -0.1677493
0.13817638 0.20821321 -0.020046147 -0.17896013 0.26517758 -0.02535872 -0.16716915 -0.107326955
-0.22664446 -0.2514478 0.1230316 0.08473476 0.16609463 -0.016236335 -0.24431846 0.039089065
-0.12199789 0.0041264533 -0.03380686 -0.39758468 -0.026867239 0.31153294 0.12236968 -0.20146264
-0.05280696 -0.23813261 -0.01749321 0.049342588 -0.021271933 -0.020647578 0.027133618 0.22818756
-0.02905999 0.03467468 -0.057082105 0.0575903 0.0978237 -0.037283618 0.13503924 -0.013523112
-0.16198213 -0.21176502 -0.0698633 -0.12058499 -0.21547304 -0.16026177 -0.009334795 -0.0068343896
-0.1623054 0.13446681 0.030027559 -0.0043154797 -0.008939948 -0.10528048 -0.035248525 0.050358474
-0.12753673 -0.17163399 0.13236964 0.168229 -0.051199485 -0.14736532 0.20060644 0.3632967
-0.00326486 -0.030707512 0.07289152 0.3986903 -0.12274299 0.010453068 -0.13350596 -0.084612496
-0.094036125 0.02112441 -0.11284169 0.2618569 -0.13495658 -0.09415778 0.25196788 -0.17834629
-0.07754743 -0.0077788956 0.060986627 -0.08079735 -0.12260438 0.10633444 -0.35127437 0.19202685
0.2560197 0.15248716 0.05637678 -0.16618906 -0.20554487 0.045431904 -0.18000047 -0.017853761
-0.1147327 -0.2231434 -0.035883114 -0.11091338 -0.13323335 -0.15286034 -0.23766163 -0.078794464
-0.30684114 -0.23725106 0.24761173 -0.12584347 0.038735624 0.043328077 -0.21002816 -0.30493307
-0.08590674 -0.20435154 -0.2698262 0.002209618 0.18836336 -0.001267837 -0.0923617 -0.079409026
-0.1147718 -0.018589195 -0.085958436 -0.010852699 -0.33773088 -0.25091666 0.18617877 -0.043340076
0.0018190402 -0.04097206 -0.238872 -0.044782165 -0.38444248 0.15173976 -0.16559196 0.110151894
-0.047884785 0.1532349 0.028203389 0.10198227 0.3745827 -0.14548482 -0.25489694 -0.20803829
-0.023231616 0.082512006 0.09526924 -0.30309224 0.38466847 0.030565538 -0.011057963 -0.025431728
-0.25204095 0.2840424 -0.37789312 0.21461706 0.080376275 0.1523221 -0.18209593 0.1672907
0.045283437 0.29945666 0.0746698 -0.00890031 0.19602518 -0.11220319 0.029610522 -0.18971573
-0.16907126 0.08810106 -0.20426561 0.06911574 -0.19048089 -0.22078711 0.20442155 0.13167451
0.012769826 0.08256862 0.16352083 0.10811079 -0.04394384 0.13866833 -0.16876256 0.01787999
00000000: a108 51be 62cd 86bc e99c 223e 9678 9bbc
00000010: 8773 6abd c42d 4b3e 0e1a 48be d0e2 e43d
00000020: 341a 963d 4fd6 70bd ffdb 9c3e 455f f73c
00000030: ef27 633e c452 713e bb37 043d e39e f53c
00000040: 306e a73c 2fd6 51be 4942 93bd f927 b8bd
00000050: 9aaa 4e3d 1afe 5e3d 60e1 403e cf98 0bbf
00000060: 0450 2c3c 71a2 a5bd ca91 dc3d 66f9 e2bd
00000070: 356f 213e 91bd fc3c bc0a 363d 7247 8f3d
00000080: 6fab aabd 596e 233b 17c4 ef3d c77b 823e
00000090: 3241 c93e 206d 1f3e 4c5a 1c3e 96c1 613e
000000a0: c7a6 863e a5ce 6a3e c243 e13d 50eb 263e
000000b0: 9205 883e 613c e1bd 8f9f 8c3e eb3a 113e
000000c0: e031 55bb 3d24 113d d131 f43d e2cd a03c
000000d0: 4765 5b3d 3ee8 8f3e 3bcb 163e aefb 633e
000000e0: 8aeb 0abe 4c1f 1a3e ccb6 3f3e 38dc 493e
000000f0: fa98 af3e 1da2 75bc d2cf 0cbe 6978 b63e
00000100: 59e0 1c3e b5d6 0abe 76f2 c13e b833 fb3d
00000110: 70ec 183d dd1e 213c 94df 31be 79c6 2bbe
00000120: 1c7e 0d3e d835 553e d137 a4bc 5341 37be
00000130: 5bc5 873e 17bd cfbc 642e 2bbe 3cce dbbd
00000140: 7c15 68be c4bd 80be fef7 fb3d 6b89 ad3d
00000150: b614 2a3e 1002 85bc 9e2e 7abe db1b 203d
00000160: 08da f9bd 3337 873b 1079 0abd 3890 cbbe
00000170: af18 dcbc 3f81 9f3e f49c fa3d 394c 4ebe
00000180: 1c4c 58bd 09d9 73be ec4d 8fbc 741b 4a3d
00000190: 7a42 aebc 1c25 a9bc 5247 de3c 00aa 693e
000001a0: 370f eebc 0a07 0e3d edce 69bd cee3 6b3d
000001b0: cb57 c83d b5b6 18bd ba47 0a3e 0b90 5dbc
000001c0: a5de 25be eed8 58be 7d14 8fbd 43f5 f6bd
000001d0: f7a4 5cbe a91b 24be f8f0 18bc 04f3 dfbb
000001e0: 6333 26be abb1 093e 5bfc f53c de68 8dbb
000001f0: dc78 12bc 4b9d d7bd c260 10bd b044 4e3d
00000200: fd98 02be d2c0 2fbe e88b 073e 3944 2c3e
00000210: 8db6 51bd efe6 16be c66b 4d3e 0602 ba3e
00000220: 43f7 55bb 528e fbbc 2648 953d 2321 cc3e
00000230: ad60 fbbd 5843 2b3c c9b5 08be 5149 adbd
00000240: 0396 c0bd 190d ad3c 8b19 e7bd 1c12 863e
00000250: 0f32 0abe cbd5 c0bd ef01 813e 69a0 36be
00000260: 30d1 9ebd 1be6 febb 1dcd 793d 1579 a5bd
00000270: 0118 fbbd dfc5 d93d 3cda b3be b0a2 443e
00000280: 0415 833e 9825 1c3e 57eb 663d 772d 2abe
00000290: 5b7a 52be ce16 3a3d 0b52 38be 0d42 92bc
000002a0: faf8 eabd b47f 64be 2cfa 12bd 8e26 e3bd
000002b0: 536e 08be 6c87 1cbe 925d 73be fe5e a1bd
000002c0: 481a 9dbe f1f1 72be ee8d 7d3e 1cdd 00be
000002d0: 3fa9 1e3d c878 313d 9f11 57be 3020 9cbe
000002e0: dfef afbd 8841 51be a926 8abe 3dcf 103b
000002f0: 53e2 403e 8d2d a6ba 2228 bdbd 33a1 a2bd
00000300: 7a0d ebbd 5e48 98bc fa0a b0bd 85cf 31bc
00000310: 10eb acbe 2678 80be a6a5 3e3e 5d85 31bd
00000320: dc6c ee3a 52d2 27bd dd9a 74be 816d 37bd
00000330: a5d5 c4be ab61 1b3e f090 29be 5197 e13d
00000340: d622 44bd 9ce9 1c3e cb0a e73c 15dc d03d
00000350: 4ec9 bf3e f9f9 14be da81 82be fd07 55be
00000360: 3b50 bebc 0efc a83d 851c c33d e82e 9bbe
00000370: 44f3 c43e 9464 fa3c 752c 35bc 3356 d0bc
00000380: 830b 81be 016e 913e 357b c1be 93c4 5b3e
00000390: 519c a43d 53fa 1b3e 5b77 3abe 414e 2b3e
000003a0: 207b 393d 6252 993e 7bec 983d 9bd2 11bc
000003b0: d3ba 483e c9ca e5bd c491 f23c d744 42be
000003c0: 0421 2dbe 546e b43d 012b 51be 8e8c 8d3d
000003d0: 6c0d 43be 0416 62be e253 513e afd5 063e
000003e0: 8838 513c bd19 a93d 0172 273e 3169 dd3d
000003f0: 75fe 33bd 12ff 0d3e 18d0 2cbe 0f79 923c

attn_layers.0.layer_norm.weight f4 [65]
0.8443637 0.50823486 0.5825327 0.57741976 0.7304059 0.8204029 0.73353314 0.47952294
0.64749885 0.72095644 0.52748317 0.716523 0.75961965 0.76139235 0.7506746 0.84791905
0.7655786 0.75672436 0.97892827 0.7754934 0.8046315 0.5683624 0.5934367 0.46576336
0.5725476 0.6030019 0.46237347 0.80030787 0.60421634 0.6290566 0.52335864 0.5969596
0.69617665 0.67726845 0.5914983 0.62925494 0.61520225 0.5658483 0.63977355 0.565484
0.6571578 0.7740746 0.6651497 0.6880196 0.7406758 0.5608135 0.69740444 0.70263034
0.64290863 0.7158106 0.62563306 0.8222975 0.8125582 0.8457101 0.7169963 0.7447449
0.5922777 0.6271864 0.7157475 0.70564944 0.63668543 0.62436295 0.5876909 0.6833526
0.61107874
00000000: 3828 583f ae1b 023f dd20 153f c8d1 133f
00000010: e2fb 3a3f ed05 523f d4c8 3b3f 0884 f53e
00000020: 7cc2 253f 9a90 383f 2309 073f 0d6e 373f
00000030: 6f76 423f 9cea 423f 362c 403f 3911 593f
00000040: f6fc 433f b0b8 413f 0b9b 7a3f bc86 463f
00000050: 54fc 4d3f 3380 113f 78eb 173f 8978 ee3e
00000060: 7b92 123f 555e 1a3f 37bc ec3e fae0 4c3f
00000070: ecad 1a3f da09 213f d5fa 053f 58d2 183f
00000080: a238 323f 7761 2d3f 6f6c 173f da16 213f
00000090: e57d 1d3f 6fdb 103f 33c8 233f 8fc3 103f
000000a0: 7e3b 283f c129 463f 4047 2a3f 0d22 303f
000000b0: ee9c 3d3f 7991 0f3f 1989 323f 95df 333f
000000c0: a995 243f 5d3f 373f 7d29 203f 1782 523f
000000d0: d003 503f 7580 583f 128d 373f 9aa7 3e3f
000000e0: 839f 173f 4a8f 203f 3a3b 373f 71a5 343f
000000f0: d1fd 223f 40d6 1f3f e972 163f 32f0 2e3f
00000100: a86f 1c3f

attn_layers.0.layer_norm.bias f4 [65]
-0.17174132 1.6369933e-05 -0.14135419 0.09546986 -0.05535454 -0.017206302 -0.03391439 0.19120494
0.0343034 -0.17375076 -0.06964993 -0.1205315 -0.13292433 -0.115887724 0.10688583 -0.24669981
-0.11328749 -0.059043083 -0.12009663 0.051471002 -0.13210917 -0.22590609 0.12285781 0.02230537
-0.088999204 -0.24009188 -0.27080914 -0.13494146 -0.30273986 -0.1587477 0.055372074 -0.17871381
-0.10272767 0.091694586 -0.0020328674 0.066537164 0.2926571 0.050834525 0.05863475 0.07401536
0.24966374 0.0028168962 0.04402481 0.14523293 0.17607178 0.1374356 0.22854294 0.20188509
-0.118696354 0.060215034 0.15497732 0.2334548 0.18864419 0.13900086 0.14865407 0.027840057
0.021518622 -0.06554311 0.022397226 0.12232834 0.095134124 -0.015858194 0.18395373 0.18678506
0.040607717
00000000: f5dc 2fbe 2a52 8937 27bf 10be b485 c33d
00000010: 71bb 62bd 3bf4 8cbc d1e9 0abd 3acb 433e
00000020: b981 0c3d b8eb 31be 9fa4 8ebd 38d9 f6bd
00000030: 511d 08be 8b56 edbd f5e6 da3d e09e 7cbe
00000040: 4603 e8bd 29d7 71bd 39f5 f5bd 42d3 523d
00000050: a047 07be ed53 67be e09c fb3d c0b9 b63c
00000060: 3745 b6bd a5da 75be 7fa7 8abe 182e 0abe
00000070: b800 9bbe c28e 22be d4cd 623d c100 37be
00000080: e262 d2bd 5fca bb3d db39 05bb a344 883d
00000090: 27d7 953e dd37 503d fe2a 703d 5d95 973d
000000a0: daa7 7f3e ad9b 383b 5c53 343d f1b7 143e
000000b0: 294c 343e ebbb 0c3e 2907 6a3e f7ba 4e3e
000000c0: 1317 f3bd 0aa4 763d 60b2 1e3e c60e 6f3e
000000d0: f12b 413e 3e56 0e3e c638 183e d510 e43c
000000e0: d247 b03c 773b 86bd 637a b73c 4887 fa3d
000000f0: aed5 c23d 0be9 81bc 5e5e 3c3e 9544 3f3e
00000100: 4754 263d

attn_layers.0.fc.weight f4 [65, 256]
-0.124285765 0.060227912 0.13195017 -0.11757327 0.11391998 -0.18968584 -0.13427097 -0.05374711
-0.056681108 -0.3609659 0.148727 -0.10935983 -0.042902708 -0.06088004 -0.2526397 0.106318
0.1440791 -0.00711185 -0.06260525 -0.28662565 0.015455938 0.053094093 0.0784669 0.12756924
-0.04237291 -0.054656453 -0.038484864 -0.04462186 -0.0177188 0.16973718 -0.03906477 -0.040017005
0.19255003 -0.049349755 0.017327076 -0.19195597 -0.09797948 -0.11857842 0.25923398 -0.13159871
-0.050474823 0.019397834 0.10634995 0.14847732 0.041173294 -0.0038683126 -0.08167844 -0.027885243
0.0676599 0.055756986 -0.15879174 0.044904504 0.049245775 -0.119639784 0.08353614 -0.096000694
0.017909925 0.0773439 0.07233993 0.11821484 0.16093338 -0.055052932 -0.09012291 -0.14408162
-0.23279181 0.032868415 -0.16225722 0.21615697 0.24367534 0.08207882 0.035715558 -0.11269387
-0.0855407 0.018178409 -0.15699567 -0.07050864 0.114809595 -0.040298384 0.06300249 -0.29195976
0.17666206 -0.5817255 -0.044343747 -0.29274613 -0.010588018 0.15934828 -0.41407114 -0.077408284
-0.120830275 0.08907861 -0.016426133 -0.06339957 -0.08615715 0.08614323 0.019978048 0.2097844
-0.32568026 0.0946154 -0.23209062 -0.01798521 0.22231945 0.17649518 -0.045439683 0.077801205
-0.11062852 0.04054397 0.058776207 -0.084671795 -0.0902265 0.005613268 -0.17134394 -0.15191956
-0.16408117 -0.03711825 -0.15996972 -0.13210166 -0.2835182 -0.30006334 -0.12456083 -0.04741211
-0.1613741 0.103097364 0.18705784 0.43299222 0.07144191 0.07838918 -0.12597407 -0.13874143
-0.16476692 0.06075252 -0.100507535 -0.11444626 -0.16909602 0.010580426 -0.16678943 -0.027321715
0.0035765562 0.06369556 0.16012022 0.31159788 0.050760146 -0.17946552 0.103220254 0.042525638
-0.030740116 0.2749351 -0.23249327 -0.020512072 0.110340804 -0.047685172 0.38832173 0.09986004
-0.17402537 0.046670992 -0.11721304 0.30168593 0.019298181 0.18926877 0.07812219 -0.15859738
0.21820284 -0.029543484 -0.00044578806 -0.13393618 0.19599861 -0.18803439 -0.18057004 -0.23069543
0.031737912 -0.05295668 -0.067154355 -0.21259175 0.21826689 0.23064697 -0.18016513 0.065850034
-0.208445 -0.08208743 0.0034648834 0.22053577 -0.22177167 -0.08441176 0.23063071 0.318843
-0.1257478 -0.17767829 0.3928331 -0.13086359 0.12819141 -0.097808704 -0.2979008 0.14060627
-0.07305048 0.09536722 -0.2151355 0.12700371 -0.21715707 0.1085557 -0.08677625 -0.002565387
-0.21584965 -0.048738576 0.27498767 -0.06911747 0.09045508 0.26570618 0.14300755 0.25483117
-0.053516358 -0.16712736 0.059577573 -0.14703785 0.2831856 -0.1026798 0.30856863 0.15055642
-0.22009024 -0.05136857 -0.077482596 0.13983236 0.22060135 0.16519876 0.06548487 -0.11917238
-0.03409684 0.28382066 -0.17348398 0.013597907 -0.0047516017 0.09686069 -0.15088935 -0.1184156
0.0069384845 -0.09968802 -0.17063782 0.22436948 0.02689956 -0.13631052 0.10043267 -0.14860286
-0.15078592 -0.05005525 0.28807998 -0.012945098 -0.05435265 0.1779138 -0.097854905 -0.19799742
0.21168308 -0.034047168 0.07284346 0.21137868 0.21715301 -0.43759015 0.16334198 -0.15527426
00000000: 8989 febd 8bb1 763d f21d 073e 41ca f0bd
00000010: e14e e93d 013d 42be 547e 09be ee25 5cbd
00000020: 732a 68bd 86d0 b8be e44b 183e 0cf8 dfbd
00000030: c0ba 2fbd 595d 79bd fe59 81be 40bd d93d
00000040: 7989 133e 860a e9bb 2e37 80bd 99c0 92be
00000050: e73a 7d3c 3179 593d 41b3 a03d 83a1 023e
00000060: 378f 2dbd 72df 5fbd 4ea2 1dbd 69c5 36bd
00000070: 0427 91bc 95cf 2d3e 6102 20bd dfe8 23bd
00000080: d62b 453e f822 4abd 83f1 8d3c 1b90 44be
00000090: 77a9 c8bd 3ed9 f2bd 51ba 843e d0c1 06be
000000a0: b0be 4ebd 35e8 9e3c 01ce d93d 700a 183e
000000b0: 54a5 283d 8483 7dbb 0747 a7bd 986f e4bc
000000c0: 4691 8a3d 7061 643d 4d9a 22be c9ed 373d
000000d0: f0b5 493d b405 f5bd ff14 ab3d 039c c4bd
000000e0: d6b7 923c 7b66 9e3d f526 943d 9f1a f23d
000000f0: b8cb 243e 2f7f 61bd 5c92 b8bd 228a 13be
00000100: fa60 6ebe 08a1 063d c226 26be 4158 5d3e
00000110: 0786 793e f118 a83d 7a4a 123d 0bcc e6bd
00000120: f62f afbd e3ea 943c 79c3 20be d566 90bd
00000130: 4b21 eb3d eb0f 25bd 7307 813d c07b 95be
00000140: e6e6 343e f6eb 14bf caa1 35bd d2e2 95be
00000150: 5e79 2dbc 322c 233e 2201 d4be 3c88 9ebd
00000160: dd75 f7bd d96e b63d 1990 86bc a2d7 81bd
00000170: 2973 b0bd dd6b b03d 01a9 a33c b9d1 563e
00000180: 90bf a6be b8c5 c13d 2aa9 6dbe b855 93bc
00000190: b6a7 633e 27bb 343e f61e 3abd 3d56 9f3d
000001a0: 3591 e2bd 6f11 263d 52bf 703d 6868 adbd
000001b0: acc8 b8bd 81ef b73b c974 2fbe cd90 1bbe
000001c0: e504 28be 4e09 18bd 1acf 23be a845 07be
000001d0: 4c29 91be e7a1 99be c019 ffbd 3333 42bd
000001e0: 413f 25be b624 d33d 178c 3f3e 28b1 dd3e
000001f0: 2350 923d 828a a03d 59ff 00be 3c12 0ebe
00000200: a9b8 28be a2d7 783d e5d6 cdbd cd62 eabd
00000210: 8227 2dbe 8659 2d3c d9ca 2abe cad1 dfbc
00000220: a864 6a3b d172 823d 8ef6 233e c289 9f3e
00000230: dfe9 4f3d cfc5 37be 2465 d33d 5d2f 2e3d
00000240: b2d2 fbbc 4bc4 8c3e b712 6ebe ef08 a8bc
00000250: 5cfa e13d 8751 43bd 1bd2 c63e 6c83 cc3d
00000260: b533 32be 152a 3f3d 640d f0bd 9476 9a3e
00000270: 3817 9e3c accf 413e 87fe 9f3d 5a67 22be
00000280: 9170 5f3e 2d05 f2bc a9b8 e9b9 9126 09be
00000290: dcb3 483e 168c 40be 5ae7 38be 6c3b 6cbe
000002a0: 9dff 013d 1be9 58bd 3988 89bd a7b1 59be
000002b0: 5b81 5f3e b82e 6c3e 357d 38be 62dc 863d
000002c0: 9b72 55be 741d a8bd 1913 633b 21d4 613e
000002d0: 1d18 63be 13e0 acbd 752a 6c3e 643f a33e
000002e0: 08c4 00be 4cf1 35be 6c21 c93e 1b01 06be
000002f0: 9c44 033e ee4f c8bd 7486 98be 17fb 0f3e
00000300: 7d9b 95bd e44f c33d 7b4c 5cbe 430d 023e
00000310: 6c5e 5ebe 7352 de3d bfb7 b1bd 0d20 28bb
00000320: b107 5dbe 1aa2 47bd 2fcb 8c3e 768d 8dbd
00000330: 8340 b93d a40a 883e 9270 123e 3b79 823e
00000340: f833 5bbd 6f23 2bbe 9d07 743d 1791 16be
00000350: b4fd 903e c949 d2bd b5fc 9d3e 762b 1a3e
00000360: 565f 61be da67 52bd 32af 9ebd 3730 0f3e
00000370: 52e5 613e dd29 293e ee1c 863d a610 f4bd
00000380: 21a9 0bbd f150 913e c9a5 31be c1c9 5e3c
00000390: 53b3 9bbb e65e c63d bd82 1abe e183 f2bd
000003a0: 3a5c e33b 3c29 ccbd aebb 2ebe 1dc1 653e
000003b0: 775c dc3c fc94 0bbe a5af cd3d 592b 18be
000003c0: a067 1abe bc06 4dbd 387f 933e ad17 54bc
000003d0: e2a0 5ebd 092f 363e 2768 c8bd d6bf 4abe
000003e0: 73c3 583e 0b75 0bbd f42e 953d a773 583e
000003f0: 5c5d 5e3e d10b e0be 1f43 273e 3700 1fbe

attn_layers.0.fc.bias f4 [65]
-0.90414256 -0.115117155 -0.33277866 -0.38511175 -0.7898967 -0.2416011 -0.50983924 -0.015764458
-0.11994443 -0.67949784 -0.21056098 -0.39822263 -0.5992705 -0.8637102 0.03731701 -0.8351339
-0.88726926 -0.91741323 0.00065766467 -0.14870639 -0.6834117 -0.47158685 0.16876958 -0.5526492
0.17174356 -0.441226 -0.31092346 -0.8086092 -0.37457663 -0.4982522 -0.80282974 -0.6889079
-0.7386511 0.5997926 0.3750058 0.57234573 0.40094054 0.5380175 0.8469834 0.43436125
0.49918467 0.48507255 0.4993319 0.67392266 0.8836868 0.51961464 0.6212566 0.38560796
0.20930594 0.1114796 0.326446 0.7161622 0.91831446 0.7506595 0.5891639 0.4423737
0.71210515 0.050646637 0.5627677 0.45893708 0.5276179 0.16666797 0.5639574 0.48715875
0.3245651
00000000: e375 67bf 8bc2 ebbd f761 aabe 5e2d c5be
00000010: ac36 4abf 4766 77be d384 02bf 7724 81bc
00000020: 6da5 f5bd 92f3 2dbf 4c9d 57be d6e3 cbbe
00000030: cb69 19bf 1d1c 5dbf b9d9 183d 56cb 55bf
00000040: 1424 63bf 98db 6abf 2167 2c3a 7d46 18be
00000050: 12f4 2ebf d573 f1be efd1 2c3e 6b7a 0dbf
00000060: 8bdd 2f3e 60e8 e1be 5c31 9fbe 0301 4fbf
00000070: 82c8 bfbe ea1a ffbe 4086 4dbf 455c 30bf
00000080: 3d18 3dbf 028c 193f c300 c03e 4085 123f
00000090: 1448 cd3e 84bb 093f e7d3 583f 9964 de3e
000000a0: 2295 ff3e 6e5b f83e 6ea8 ff3e 3286 2c3f
000000b0: 4c39 623f 7705 053f ac0a 1f3f 686e c53e
000000c0: 4c54 563e 6b4f e43d ee23 a73e 6856 373f
000000d0: a816 6b3f 392b 403f 72d3 163f ce7e e23e
000000e0: 864c 363f d972 4f3d 8b11 103f cdf9 ea3e
000000f0: f711 073f 02ab 2a3e 835f 103f df6c f93e
00000100: 662d a63e

attn_layers.1.w_qs.weight f4 [256, 106]
-0.06615554 -0.12625319 -0.011971254 -0.22195955 0.14125168 -0.20141436 -0.1483548 -0.057820473
-0.033157572 -0.15754247 -0.54612917 0.16099715 -0.03661105 -0.07486038 -0.17060333 0.09135747
-0.106144294 0.07886148 -0.26043487 -0.17543964 -0.066287085 0.18188305 -0.25367126 0.03260982
-0.17245372 -0.39936507 0.09105674 0.10640108 -0.030230334 0.032720182 -0.036599915 -0.1242149
0.23899065 0.02887235 -0.2119061 -0.1586509 -0.13874094 0.019577472 -0.27987093 -0.19313677
-0.268032 -0.24451481 0.075342424 0.07715504 -0.021234766 -0.16664529 0.03152231 0.1043094
0.118270695 0.1655479 -0.11429463 -0.2455786 0.06505438 0.14339933 -0.048792426 -0.08676342
0.021023454 -0.05855891 0.037308373 -0.19940288 -0.104087934 -0.3543563 -0.12656285 -0.113036916
0.0991225 0.09602797 -0.15668373 0.06990496 -0.07243285 -0.05494483 -0.1997647 -0.07366453
-0.032974508 0.04684974 0.01593171 -0.030206418 -0.2850516 -0.13670312 -0.13633774 -0.14268766
-0.025520531 -0.19043103 -0.0147491805 -0.03761213 0.08655552 0.07711089 0.15153225 0.0030302021
-0.1744332 -0.22917604 -0.14115417 -0.14559075 -0.23954923 -0.057329472 -0.051518597 -0.07703752
-0.082942225 -0.06275989 -0.047725488 -0.077238 -0.13997008 -0.22847955 -0.035059158 0.08720821
-0.03389915 -0.06879281 -0.25238976 -0.15258348 0.116327755 -0.1454266 0.12330098 -0.36797547
-0.12849124 0.2116185 0.099724 0.21266402 -0.11406237 0.26446703 0.018353168 -0.033626463
-0.2662979 -0.2926929 0.11649656 -0.11448278 0.13489267 0.05614098 0.25346366 0.0023978406
-0.2126976 0.1279333 0.011754006 -0.24213995 0.025859084 0.14704947 0.0041350117 -0.17874914
0.02788485 -0.22029804 0.1948805 0.10767714 0.114927895 0.1791586 0.18080428 0.06768931
-0.1398681 -0.20776768 -0.06302935 -0.112478696 0.34766015 0.19608557 -0.044301447 -0.05063548
0.12492328 0.34236324 0.068756595 -0.038489394 0.10194607 -0.07753945 0.16743536 -0.07056113
0.025662508 0.018028721 0.15387921 0.15628062 0.30120102 -0.41841152 -0.21560508 -0.1507955
-0.0010372713 -0.10452272 0.06707409 -0.010426369 0.017173968 0.012880053 -0.07068819 -0.08228999
0.193353 -0.092646785 0.024500951 -0.1819763 -0.22908226 -0.0698866 0.17406785 0.1324601
0.099561736 -0.03585462 -0.21367571 -0.06896906 -0.04455375 -0.24888347 -0.0987836 -0.14712673
-0.09809805 -0.31477773 -0.17678647 -0.14032702 -0.1288762 -0.0016168936 -0.17764519 -0.18130374
-0.18608165 -0.24411161 -0.09891267 -0.1292405 0.044922628 0.057186607 -0.048073936 0.07368696
0.011796685 -0.01773131 -0.04943264 0.0958028 -0.04211374 0.31497902 0.048799742 0.20394516
-0.12056572 0.13291295 0.117659956 -0.0014863368 0.04595746 0.15194695 0.19938542 0.011800844
0.04377227 0.18141752 0.31272593 0.27037463 0.08418744 0.101254605 0.14133309 0.007764857
-0.14814688 -0.1377715 0.28992656 -0.031750448 0.08338363 0.26471534 0.20047943 0.19650306
-0.129865 -0.08763428 0.30597794 0.020853262 -0.054048352 -0.4112299 -0.43152705 -0.0038123922
-0.0953747 -0.17627968 0.19239485 0.059785556 0.008687053 0.28532225 -0.08771667 -0.10656092
00000000: 8e7c 87bd 8448 01be 1423 44bc 5d49 63be
00000010: 48a4 103e 913f 4ebe 52ea 17be 29d5 6cbd
00000020: 3cd0 07bd d052 21be 1fcf 0bbf 70dc 243e
00000030: 78f5 15bd 6650 99bd a4b2 2ebe a019 bb3d
00000040: 2e62 d9bd 2182 a13d b857 85be 73a6 33be
00000050: 86c1 87bd 8d3f 3a3e 33e1 81be e091 053d
00000060: b597 30be 9479 ccbe f57b ba3d cfe8 d93d
00000070: 9ba5 f7bc 9905 063d cbe9 15bd 6264 febd
00000080: f7b9 743e b585 ec3c eafd 58be 6275 22be
00000090: 1b12 0ebe ef60 a03c 3e4b 8fbe a5c5 45be
000000a0: 7e3b 89be 1762 7abe 214d 9a3d 7603 9e3d
000000b0: 88f4 adbc 10a5 2abe 8a1d 013d 2ba0 d53d
000000c0: e837 f23d 6485 293e 4e13 eabd f578 7bbe
000000d0: 3b3b 853d 46d7 123e 91da 47bd 05b1 b1bd
000000e0: 6139 ac3c 78db 6fbd aad0 183d 4530 4cbe
000000f0: 0e2c d5bd 306e b5be b199 01be e67f e7bd
00000100: bd00 cb3d 50aa c43d b371 20be 552a 8f3d
00000110: ad57 94bd d40d 61bd 1e8f 4cbe 6edd 96bd
00000120: 4710 07bd 83e5 3f3d 3883 823c 7373 f7bc
00000130: 49f2 91be e7fb 0bbe 1f9c 0bbe b71c 12be
00000140: 6f10 d1bc 5a00 43be 8ca6 71bc 2d0f 1abd
00000150: 0544 b13d 50ec 9d3d 452b 1b3e 5b96 463b
00000160: 9e9e 32be 20ad 6abe b88a 10be be15 15be
00000170: 654c 75be 4fd2 6abd 2a05 53bd d9c5 9dbd
00000180: 9ddd a9bd 4288 80bd cd7b 43bd f52e 9ebd
00000190: 5154 0fbe 8bf6 69be 319a 0fbd 389a b23d
000001a0: d6d9 0abd 3fe3 8cbd 3b39 81be d83e 1cbe
000001b0: 3f3d ee3d b6ea 14be 3985 fc3d 4867 bcbe
000001c0: 3593 03be 85b2 583e 193c cc3d 99c4 593e
000001d0: 8899 e9bd 3968 873e 6259 963c e7bb 09bd
000001e0: 3358 88be d8db 95be c095 ee3d f375 eabd
000001f0: 4e21 0a3e 16f4 653d fdc5 813e 1725 1d3b
00000200: 66cd 59be f200 033e e093 403c 89f3 77be
00000210: 6ed6 d33c 2394 163e fe7e 873b 040a 37be
00000220: c56e e43c cf95 61be c18e 473e d585 dc3d
00000230: 515f eb3d 5a75 373e c224 393e b1a0 8a3d
00000240: 9539 0fbe 0dc1 54be 8815 81bd 3b5b e6bd
00000250: 8300 b23e a8ca 483e 6f75 35bd 2667 4fbd
00000260: c7d7 ff3d 3c4a af3e 42d0 8c3d 0ea7 1dbd
00000270: 1ac9 d03d 01cd 9ebd 2d74 2b3e 5b82 90bd
00000280: 2e3a d23c f8b0 933c 8392 1d3e 0708 203e
00000290: 0537 9a3e 093a d6be 94c7 5cbe 236a 1abe
000002a0: 0df5 87ba 0210 d6bd 245e 893d 5cd3 2abc
000002b0: 6cb0 8c3c dc06 533c f8c4 90bd a787 a8bd
000002c0: 54fe 453e 99bd bdbd 38b6 c83c ff57 3abe
000002d0: 8a94 6abe b520 8fbd d83e 323e 9fa3 073e
000002e0: 06e7 cb3d 4bdc 12bd cecd 5abe a73f 8dbd
000002f0: fe7d 36bd 4fdb 7ebe 0e4f cabd 64a8 16be
00000300: a1e7 c8bd 8c2a a1be 8307 35be e3b1 0fbe
00000310: 1ff8 03be f2ed d3ba 9fe8 35be b0a7 39be
00000320: 308c 3ebe 65f8 79be ba92 cabd 9f57 04be
00000330: ca00 383d 813c 6a3d 2de9 44bd 30e9 963d
00000340: e246 413c 4141 91bc e179 4abd 4234 c43d
00000350: 757f 2cbd ee44 a13e 3de2 473d 00d7 503e
00000360: 29eb f6bd 551a 083e b4f7 f03d 30d1 c2ba
00000370: e43d 3c3d fb97 1b3e b12b 4c3e 5458 413c
00000380: 8d4a 333d 84c5 393e 9d1d a03e 8b6e 8a3e
00000390: 776a ac3d 935e cf3d 9fb9 103e 5770 fe3b
000003a0: d1b3 17be f913 0dbe 4171 943e c20c 02bd
000003b0: 09c5 aa3d c588 873e 7b4a 4d3e 1938 493e
000003c0: 55fb 04be 9a79 b3bd 24a9 9c3e 76d4 aa3c
000003d0: ce61 5dbd ba8c d2be 1df1 dcbe 54d9 79bb
000003e0: d053 c3bd a982 34be 2803 453e b3e1 743d
000003f0: 2454 0e3c c215 923e cca4 b3bd 9d3c dabd

attn_layers.1.w_ks.weight f4 [256, 106]
-0.059252135 0.035641726 -0.2263718 0.20104398 -0.15142307 -0.051690273 0.10071077 -0.010585531
0.12522922 0.13748252 0.13155241 0.0010929606 0.11153956 -0.08749061 -0.11194866 0.29460013
-0.14260326 -0.1476702 0.06386691 0.05291201 -0.0817489 -0.23259228 0.0044063088 0.03503065
0.08905441 0.2973691 0.115644075 0.0046359194 -0.1989089 -0.0056850645 0.05979336 0.20322245
-0.24936542 -0.16663286 0.04025011 -0.20975496 0.10820058 0.010774323 -0.20695412 0.25415328
-0.19695114 0.16263565 -0.08605747 -0.17831607 0.14265585 -0.10652084 -0.18845388 0.14411847
-0.120213315 0.05354095 0.07491783 -0.22691731 -0.16453907 0.16863106 0.07855316 0.16878468
0.26521122 0.043506533 -0.14058009 -0.25413674 0.40953472 0.17271315 -0.13485636 0.024851017
-0.13776706 0.12881295 -0.16719075 0.20258056 0.20682323 0.012942586 0.13485435 -0.12528582
0.11871096 -0.077932715 0.09367446 0.028675023 -0.07153175 0.09991899 -0.0023801348 -0.049704164
0.0117256455 0.13790375 0.08468918 0.024413086 0.10500259 0.03152401 0.08349631 0.021344889
0.11536755 0.069830745 0.038005635 0.02314234 0.077978864 0.17060468 0.07396426 -0.08980847
0.18384665 -0.008175651 0.13515009 -0.02050123 -0.07565739 0.05879331 0.10334749 0.13231063
-0.031277742 0.07599055 -0.06611539 0.15898858 -0.086047575 -0.035014004 -0.20821348 -0.03651588
0.06343719 -0.08445936 0.079941 0.43780568 0.023320984 -0.16467674 0.28799158 -0.06858763
-0.098467454 0.23338631 0.12637414 0.11549941 0.05543464 0.20741141 -0.13222426 -0.10349371
-0.023974393 -0.022915944 -0.08346883 0.03008848 -0.13980904 0.08491234 -0.34856975 0.051252585
0.08064072 -0.0065670917 -0.10768488 0.0017174555 0.18506786 -0.012510201 0.08145804 0.087388806
-0.064782575 -0.04563365 -0.2095772 0.19698583 -0.11619291 0.051236253 0.293107 0.010333079
-0.14091296 -0.16265114 0.0571592 0.07355042 -0.123977266 -0.057998285 0.17646003 -0.14070563
0.10142742 0.10249884 0.033208743 0.018377863 -0.042938568 -0.08209945 0.21336587 0.15593915
-0.16876945 0.29401776 -0.20230825 0.044568542 0.022119911 -0.116464436 0.4069839 0.2173293
0.32923418 -0.1888852 0.03466124 0.018050918 -0.11851412 -0.04420151 0.1932247 -0.0019232086
0.042812154 -0.027094519 0.07611823 0.14173274 0.33286092 -0.03584017 -0.1749128 -0.10055515
-0.1522225 -0.06802906 0.087087445 0.15226631 0.18458562 0.057074666 -0.037497234 -0.07704725
0.109562755 -0.04044104 0.2587164 0.05208538 -0.011510725 -0.061524455 0.071594745 0.04220955
0.15657324 0.29174554 -0.083622955 -0.049034506 -0.10613843 0.19495358 0.17105927 -0.12658915
-0.1457252 -0.28152564 -0.38863325 0.01616042 -0.023539277 -0.3326115 -0.13600892 -0.11407715
-0.095115 0.06448547 0.18281169 -0.05460716 -0.03835502 0.004460386 0.1600126 -0.09380896
-0.00727085 0.15569545 -0.20817082 0.23929596 0.031266365 0.0021918202 0.08792508 -0.2138188
0.20590861 0.05672831 0.05221874 0.060935885 -0.1468108 0.11569395 -0.14577308 -0.19804373
-0.39555162 -0.13683282 0.08479487 -0.036916684 0.0024632644 -0.2406522 0.12549436 -0.0385622
00000000: 5eb2 72bd 0ffd 113d 02ce 67be 79de 4d3e
00000010: a60e 1bbe 2eb9 53bd 7341 ce3d ef6e 2dbc
00000020: 173c 003e 38c8 0c3e adb5 063e ac41 8f3a
00000030: da6e e43d 472e b3bd 5745 e5bd d4d5 963e
00000040: 9706 12be db36 17be a8cc 823d 44ba 583d
00000050: f86b a7bd ac2c 6ebe cc62 903b 4d7c 0f3d
00000060: 2962 b63d c340 983e cdd6 ec3d e9e8 973b
00000070: c6ae 4bbe c749 babb e2e9 743d 8c19 503e
00000080: a659 7fbe cea1 2abe 4ddd 243d 01ca 56be
00000090: 4498 dd3d c986 303c c8eb 53be 6120 823e
000000a0: 8fad 49be f689 263e e63e b0bd 7d98 36be
000000b0: 6014 123e 9927 dabd 0efa 40be cb93 133e
000000c0: 6632 f6bd c14d 5b3d 856e 993d 035d 68be
000000d0: ee7c 28be 9fad 2c3e 7be0 a03d e4d5 2c3e
000000e0: c4c9 873e e833 323d 3af4 0fbe 361e 82be
000000f0: 89ae d13e b7db 303e c917 0abe 5c94 cb3c
00000100: cf12 0dbe 8be7 033e 0d34 2bbe 4771 4f3e
00000110: 78c9 533e 240d 543c 4217 0a3e ed4a 00be
00000120: bb1e f33d 309b 9fbd 65d8 bf3d e2e7 ea3c
00000130: 3d7f 92bd 54a2 cc3d 09fc 1bbb 9896 4bbd
00000140: ec1c 403c a436 0d3e 8571 ad3d f4fd c73c
00000150: 990b d73d 521f 013d 1d00 ab3d 7adb ae3c
00000160: d245 ec3d 6c03 8f3d ccab 1b3d 0195 bd3c
00000170: 62b3 9f3d feb2 2e3e 937a 973d 81ed b7bd
00000180: 4c42 3c3e 2af3 05bc c964 0a3e 32f2 a7bc
00000190: 43f2 9abd 41d1 703d d9a7 d33d 707c 073e
000001a0: 171d 00bd efa0 9b3d 8167 87bd e7cd 223e
000001b0: b639 b0bd d86a 0fbd ea35 55be ad91 15bd
000001c0: 5ceb 813d 07f9 acbd 1bb8 a33d 1128 e03e
000001d0: a60b bf3c 05a1 28be a273 933e ac77 8cbd
000001e0: 4ea9 c9bd d2fc 6e3e 3968 013e f48a ec3d
000001f0: 6f0f 633d a863 543e cc65 07be 83f4 d3bd
00000200: f265 c4bc 38ba bbbc b5f1 aabd 1e7c f63c
00000210: 1a2a 0fbe 85e6 ad3d bc77 b2be 3bee 513d
00000220: f626 a53d c230 d7bb e489 dcbd 3e1c e13a
00000230: 6e82 3d3e 96f7 4cbc 79d3 a63d e7f8 b23d
00000240: baac 84bd 5aea 3abd 689b 56be a7b6 493e
00000250: 8cf6 edbd 1bdd 513d 1f12 963e 134c 293c
00000260: 7d4b 10be 058e 26be c41f 6a3d 9aa1 963d
00000270: cbe7 fdbd 9c8f 6dbd f0b1 343e 2315 10be
00000280: 2eb9 cf3d e9ea d13d e405 083d 2c8d 963c
00000290: 5ae0 2fbd c223 a8bd 957c 5a3e 83ae 1f3e
000002a0: e6d1 2cbe 7f89 963e e529 4fbe 818d 363d
000002b0: d134 b53c e884 eebd 3260 d03e 928b 5e3e
000002c0: 6291 a83e 1f6b 41be f2f8 0d3d 85df 933c
000002d0: 88b7 f2bd a40c 35bd b2dc 453e 2c14 fcba
000002e0: cc5b 2f3d 53f5 ddbc e0e3 9b3d 6322 113e
000002f0: bf6c aa3e 24cd 12bd 571c 33be dcef cdbd
00000300: 37e0 1bbe d252 8bbd e75a b23d b3eb 1b3e
00000310: 0304 3d3e 20c7 693d b396 19bd f3ca 9dbd
00000320: 7062 e03d 81a5 25bd 7a76 843e 7b57 553d
00000330: 7b97 3cbc 1101 7cbd 44a0 923d ece3 2c3d
00000340: bc54 203e ac5f 953e 8342 abbd 68d8 48bd
00000350: 1b5f d9bd e9a1 473e 292a 2f3e 96a0 01be
00000360: fd38 15be 2124 90be f0fa c6be db62 843c
00000370: 71d5 c0bc 0e4c aabe ec45 0bbe 48a1 e9bd
00000380: a7cb c2bd f510 843d fd32 3b3e c2ab 5fbd
00000390: 271a 1dbd 6e28 923b 58da 233e e91e c0bd
000003a0: 4f40 eebb a16e 1f3e bb2a 55be 000a 753e
000003b0: 2911 003d a4a4 0f3b 1012 b43d 51f3 5abe
000003c0: b5d9 523e f25b 683d 51e3 553d e897 793d
000003d0: 9255 16be f3f0 ec3d 8a45 15be facb 4abe
000003e0: be85 cabe e71d 0cbe efa8 ad3d f335 17bd
000003f0: b86e 213b 886d 76be 9881 003e 66f3 1dbd
