experiment/phish_eth/GCN/GCN_checkpoint.pt (torch_old, 20115 bytes, 6 tensors)

layers.0.linear.weight f4 [64, 4]
0	0x3ec13e61	0.37742904
1	0x3e2adc60	0.16685629
2	0xbe8a5346	-0.27016658
3	0xbecb39f7	-0.3969266
4	0x3e8cf61f	0.27531525
5	0xbe4043e0	-0.18775892
6	0x3e2dc44f	0.16969417
7	0xbe8ace56	-0.27110547
8	0x3d2691e3	0.040666472
9	0x3edd7d74	0.43259776
10	0x3e8a1604	0.26969922
11	0xbdf21647	-0.11820655
12	0xbe8cbdb6	-0.27488488
13	0xbed012fe	-0.4063949
14	0xbef4f74f	-0.4784493
15	0x3e8e4afc	0.27791584
16	0x3e7822b1	0.24231984
17	0xbd339ec0	-0.043852568
18	0x3e01b3c8	0.12666237
19	0x3e218113	0.15771894
20	0xbca3b82e	-0.019985285
21	0xbeef32d7	-0.46718475
22	0xbeca2729	-0.39483002
23	0xbe2a875c	-0.16653198
24	0xbe86d9b0	-0.26337957
25	0xbf077202	-0.5290834
26	0x3ddf2d39	0.108972974
27	0x3eaad888	0.33368325
28	0xbe99c0a1	-0.30029777
29	0x3ee76b1e	0.4519891
30	0xbe0e7bdd	-0.13914438
31	0x3ee2689c	0.44220436
32	0x3e435dee	0.190788
33	0xbe968aa9	-0.29402664
34	0xbed38fdc	-0.41320693
35	0xbdbfa2dc	-0.09357235
36	0xbec1b532	-0.37833554
37	0xbe87e096	-0.26538533
38	0xbdb43fb8	-0.08801216
39	0xbc1ac480	-0.009446263
40	0x3e8f09b8	0.27937102
41	0xbee33361	-0.44375136
42	0x3ed82c11	0.4222112
43	0xbc24f809	-0.010068902
44	0xbe9cf872	-0.306583
45	0x3c6f3481	0.01459992
46	0xbe379dbf	-0.17931269
47	0xbb8ffe4c	-0.004394328
48	0xbe8b7619	-0.2723854
49	0x3e77fa5c	0.24216598
50	0xbc24ddab	-0.010062615
51	0x3eacc18a	0.3374141
52	0x3eb2d614	0.34928954
53	0xbe4d4241	-0.20044805
54	0xbd7c33d3	-0.06157286
55	0x3ef55b9c	0.47921455
56	0xbeb00e26	-0.34385794
57	0xbed61d45	-0.41819206
58	0x3e3e54d9	0.18587054
59	0x3e6aa934	0.22916108
60	0xbde9ab4e	-0.11409627
61	0x3ee7eed6	0.45299405
62	0xbeb47264	-0.35243523
63	0xbece4580	-0.402874
64	0x3eed5b6a	0.46358806
65	0x3f021b34	0.5082276
66	0xbea9b701	-0.33147433
67	0xbee50e69	-0.44737557
68	0xbe5ab25b	-0.213571
69	0xbe495e50	-0.19664884
70	0xbe99687c	-0.29962528
71	0x3da8cfae	0.08242737
72	0x3e806507	0.25077078
73	0xbe426e32	-0.18987349
74	0xbe97d7db	-0.29656872
75	0xbe62a443	-0.22132973
76	0xbe99c34a	-0.30031806
77	0x3edcff40	0.4316349
78	0xbdbd0702	-0.09229852
79	0xbeb91294	-0.36146986
80	0xbeb7f79e	-0.35931104
81	0xbdc64fb5	-0.09683172
82	0xbd05bf94	-0.032653406
83	0xbee215a2	-0.4415713
84	0x3d3902d4	0.045168713
85	0xbd6c89a2	-0.057748444
86	0xbe3f54cc	-0.18684691
87	0xbe428994	-0.18997794
88	0x3ea51944	0.3224584
89	0xbebe72f9	-0.37197092
90	0xbda7b243	-0.081882976
91	0x3ee87a77	0.45405933
92	0xbb0b0432	-0.0021212217
93	0x3d9cf3b2	0.07663669
94	0x3cccb898	0.024990365
95	0xbed4a5e8	-0.41532826
96	0xbea8d21b	-0.32972798
97	0xbec28f82	-0.38000113
98	0x3d821b34	0.06352845
99	0xbe11a085	-0.1422139
100	0x3a86f3ce	0.0010296048
101	0x3e822042	0.25415236
102	0x3dc8e940	0.09810114
103	0xbdb39174	-0.08767977
104	0xbf2a0abc	-0.6642263
105	0x3d18a76c	0.03726904
106	0xbcc1fe71	-0.023680897
107	0xbba53304	-0.005041482
108	0xbeaafebc	-0.33397472
109	0xbebc9a82	-0.3683663
110	0xbe223b46	-0.15842924
111	0x3ec98243	0.39357194
112	0x3bca5d08	0.006175641
113	0xbd7b78b2	-0.0613944
114	0x3f0be11d	0.5464037
115	0x3e11ee6b	0.14251105
116	0x3e577f2f	0.2104461
117	0xbe778d0b	-0.24174897
118	0x3e76dda6	0.2410799
119	0xbe866042	-0.26245314
120	0xbea03c12	-0.3129583
121	0x3ecb3d46	0.39695185
122	0x3e739160	0.23785925
123	0x3dcbb8d9	0.09947366
124	0xbef981c8	-0.48731828
125	0xbe8a2fc2	-0.2698956
126	0x3f0427b1	0.51623064
127	0x3e0f78f0	0.14010978
128	0x3e964554	0.29349768
129	0xbeadafea	-0.33923274
130	0x3efbc3cb	0.49172816
131	0x3ef95dcf	0.48704383
132	0x3e9345ee	0.2876429
133	0xbf025fd0	-0.5092745
134	0x3d1bd90b	0.038048785
135	0x3ebdd30a	0.37075073
136	0x3ec03088	0.37537026
137	0x3ec14558	0.37748218
138	0xbe8ef99f	-0.2792482
139	0xbe9260e3	-0.28589544
140	0x3ea47455	0.32120004
141	0xbe326a11	-0.17423274
142	0xbea69683	-0.32536706
143	0x3ebd256c	0.36942613
144	0x3e80f466	0.2518646
145	0xbdf0e575	-0.117625155
146	0xbe50f8af	-0.20407365
147	0x3c669259	0.014072978
148	0x3d40b881	0.047050957
149	0x3d10f3a0	0.03538859
150	0xbe1d1c5d	-0.15342851
151	0xbe90eb13	-0.28304347
152	0x3e884913	0.2661825
153	0xbe2d7736	-0.16940007
154	0x3e6dbd6c	0.2321679
155	0xbcc87bfc	-0.024473183
156	0xbe3ee198	-0.18640745
157	0xbee3e858	-0.44513202
158	0x3cf3ff00	0.02978468
159	0xbc69de00	-0.01427412
160	0xbe6d0da5	-0.23149736
161	0xbd8918d5	-0.066941895
162	0xbef7f0e4	-0.48425972
163	0x3e1aab0a	0.15104309
164	0x3dd58690	0.104260564
165	0xbeecb918	-0.46234965
166	0xbe6f1eb9	-0.23351564
167	0xbda5e1b6	-0.080996916
168	0x3c29176f	0.010320528
169	0xbf02805f	-0.5097713
170	0x3e3cae54	0.18425876
171	0x3e6b0b5a	0.22953549
172	0xbd6c1c54	-0.057644203
173	0xbdc8a957	-0.09797924
174	0x3e5b3dfc	0.21410364
175	0xbe585c60	-0.21128988
176	0x3ea825a5	0.3284122
177	0xbe83fd0e	-0.25779003
178	0x3ee1cf65	0.44103542
179	0x3e372bed	0.1788785
180	0xbee1d97e	-0.44111246
181	0x3e976dcb	0.29575953
182	0xbe69cb2f	-0.22831415
183	0xbe9fdbcb	-0.31222376
184	0x3ebf9011	0.374146
185	0xbeea4f17	-0.45763466
186	0x3d4294ea	0.047505297
187	0xbdec6136	-0.11541979
188	0xbebbe0e0	-0.36695004
189	0x3d6828a2	0.056679375
190	0xbe5abb77	-0.21360575
191	0x3d83bac7	0.06432109
192	0x3ec50cd2	0.38486344
193	0xbea32220	-0.31861973
194	0xbd37a967	-0.04483929
195	0xbdc992cd	-0.09842453
196	0xbc8aefaf	-0.016959993
197	0xbee30c5d	-0.4434537
198	0x3c9f5236	0.01944838
199	0x3ecfea2b	0.40608343
200	0x3de83511	0.113382466
201	0xbe79e7a2	-0.24404767
202	0x3e196183	0.14978604
203	0x3e890927	0.26764795
204	0x3e6c98d8	0.2310518
205	0x3e8566c2	0.2605496
206	0x3edca0b5	0.4309136
207	0xbdd9c745	-0.10633711
208	0x3e892f57	0.2679393
209	0xbe877569	-0.26456764
210	0xbe840709	-0.25786617
211	0x3decb5b6	0.11558096
212	0x3eb8b4d7	0.3607547
213	0xbe2941c2	-0.16528991
214	0x3efec582	0.49760062
215	0xbe5af9ca	-0.2138435
216	0xbe87021c	-0.26368797
217	0x3c963f29	0.018340664
218	0xbd173a49	-0.03692082
219	0xbe6129e0	-0.2198863
220	0xbe5f3569	-0.21797718
221	0xbef1d80c	-0.47235143
222	0x3e42cde4	0.19023854
223	0xbe8de028	-0.2771008
224	0x3da45310	0.080236554
225	0x3e56c38c	0.20973033
226	0xbc6a98e3	-0.014318678
227	0xbef1b7de	-0.47210592
228	0x3db6ed60	0.089319944
229	0xbe9bf853	-0.30462894
230	0x3cd38f5c	0.025825195
231	0xbe26da77	-0.16294275
232	0xbe808234	-0.25099337
233	0x3ded550d	0.11588488
234	0x3e5ea852	0.21743897
235	0x3ed62ab8	0.41829467
236	0x3e016d4f	0.12639354
237	0xbee8a3f3	-0.45437583
238	0x3ee197c7	0.4406111
239	0xbbc29792	-0.0059384787
240	0x3ea5af5f	0.3236036
241	0x3e70ccac	0.23515576
242	0x3c25faee	0.010130627
243	0x3e263217	0.16230045
244	0xbeb018a8	-0.3439381
245	0xbc825e2e	-0.015914049
246	0x3eb047f4	0.34429896
247	0xbe89807a	-0.26855832
248	0x3ee54b41	0.44783977
249	0x3ce390f0	0.027779073
250	0xbe81fa46	-0.25386256
251	0x3e1fc7bc	0.15603536
252	0xbe4bb4e9	-0.1989323
253	0xbabae305	-0.0014258331
254	0x3e761c05	0.24034126
255	0x3e61f51f	0.22066163

layers.0.linear.bias f4 [64]
0	0xbf0e148d	-0.5550011
1	0xbe9aefd9	-0.30261114
2	0x3e94d3f2	0.2906795
3	0x3ece2f16	0.402703
4	0x3dc12f2a	0.09432824
5	0x3f1af655	0.6053212
6	0x3d280517	0.04102048
7	0xbe650295	-0.22364266
8	0xbedc9add	-0.430869
9	0xbef2bdca	-0.47410423
10	0x3e824b6a	0.2544816
11	0x3ef9c734	0.48784792
12	0x3eee299f	0.4651613
13	0xbe993592	-0.29923683
14	0xbef561f0	-0.47926283
15	0xbe7de88f	-0.24795745
16	0xbede6dbb	-0.43443093
17	0x3eaf6838	0.342592
18	0xbe9ee5c9	-0.31034687
19	0x3e99ba95	0.30025163
20	0x3f4e4ea7	0.80588764
21	0x3ee08c18	0.43856883
22	0xbe40e00e	-0.1883547
23	0xbd1a1b01	-0.03762341
24	0x3f28cabd	0.65934354
25	0x3e39d27b	0.18146698
26	0x3e8d1291	0.27553228
27	0x3de7d104	0.113191634
28	0x3d14ef45	0.036360998
29	0x3f154a73	0.58316725
30	0x3ea14fcd	0.31506196
31	0xbe3171b5	-0.17328532
32	0xbe53ef37	-0.20696722
33	0x3e034edb	0.1282305
34	0x3e4754b4	0.19465905
35	0xbe097419	-0.13423194
36	0xbe00b21c	-0.12567943
37	0xbc2fabe0	-0.010722131
38	0x3f14e85e	0.58167064
39	0xbe94ffcc	-0.29101408
40	0x3eef69f4	0.46760523
41	0xbe8577b9	-0.26067904
42	0x3e393e3e	0.1809015
43	0xbec267c4	-0.37969792
44	0xbf035f35	-0.5131715
45	0xbedb8de9	-0.42881706
46	0x3ef4500b	0.47717318
47	0x3de3278a	0.11091526
48	0xbe5b1c21	-0.21397449
49	0x3eec0259	0.4609554
50	0x3e5c577d	0.21517749
51	0x3ef90ede	0.48644155
52	0x3c984dc0	0.018591762
53	0x3ef6e90e	0.48224682
54	0x3efc48c2	0.4927426
55	0x3f0cfefb	0.5507657
56	0xbddea63c	-0.108715504
57	0x3e16b48d	0.14717312
58	0x3e8a9007	0.2706301
59	0x3f01fd6c	0.50777316
60	0xbe81e923	-0.25373182
61	0x3e7d8bd4	0.24760371
62	0xbec58b1b	-0.38582692
63	0xbeedec1a	-0.46469194

layers.1.linear.weight f4 [64, 64]
0	0xbd33dd46	-0.043912195
1	0xbdc5c59a	-0.0965683
2	0xbc5ae7bc	-0.013360914
3	0x3ca336d7	0.01992361
4	0xbdd8428d	-0.105595686
5	0x3e689230	0.22712016
6	0xbc62b629	-0.013837376
7	0x3db02fba	0.08602853
8	0xbd2b74a5	-0.041859288
9	0x3d7414d8	0.05959019
10	0xbdba1e1d	-0.09087775
11	0x3d482828	0.04886642
12	0x3cbb9cc3	0.022901898
13	0x3d25e678	0.040502995
14	0x3d1480e4	0.036255732
15	0xbc281b00	-0.010260344
16	0xbdced655	-0.10099474
17	0x3e0cb0aa	0.13739267
18	0x3dbde795	0.092726864
19	0xbcfe9b9a	-0.031080056
20	0x3ce1131b	0.02747493
21	0xbd03a34e	-0.03213816
22	0x3c8f7d7d	0.017515892
23	0xbd9ae08f	-0.075623624
24	0x3e1d0ea2	0.15337613
25	0x3c6351c4	0.013874475
26	0xbc1ec348	-0.009690113
27	0x3d4b4a1b	0.04963122
28	0x3da27bd9	0.07933778
29	0x3d447917	0.047967043
30	0xbdadbd86	-0.08483414
31	0xbd9fa638	-0.077953756
32	0xbcf90893	-0.030399596
33	0x3d8c3fa2	0.068480745
34	0xbd40a93a	-0.047036387
35	0xbdc88931	-0.09791792
36	0x3da9bd0e	0.082880124
37	0x3d55db00	0.052210808
38	0x3d7862ba	0.060641028
39	0xbdadfc66	-0.08495407
40	0xbd47633d	-0.048678625
41	0xbdb10940	-0.086443424
42	0xbddecd62	-0.108790174
43	0x3dc28f65	0.095000066
44	0xbd5864d5	-0.052830536
45	0xbd17ca6f	-0.03705829
46	0x3da818a1	0.082078226
47	0x3d832cde	0.06405042
48	0x3d9d2e7f	0.07674884
49	0xbd38b9a2	-0.04509891
50	0xbd05543f	-0.032551046
51	0xbd62c094	-0.055359438
52	0x3d9727f9	0.07380671
53	0xbd5d5542	-0.054036386
54	0x3e55cf4e	0.20879862
55	0x3e863b91	0.2621732
56	0x3e04337f	0.12910269
57	0x3cfa270d	0.030536199
58	0xbdede1b1	-0.11615313
59	0x3d25f009	0.04051212
60	0x3db4a617	0.088207416
61	0x3debd623	0.11515453
62	0xbd5f9b0e	-0.05459123
63	0xbd5cabc7	-0.053874757
64	0x3da79f77	0.081847124
65	0x3cf084d5	0.029360214
66	0x3db1a136	0.08673327
67	0x3c7180eb	0.014740209
68	0xbdb766a8	-0.08955127
69	0x3e3c5a01	0.18393709
70	0xbdbe3099	-0.09286613
71	0xbe01d85b	-0.1268019
72	0x3c0a6d5f	0.008448928
73	0x3c96d160	0.018410385
74	0x3d90580a	0.07048042
75	0x3d9513e2	0.07279183
76	0xbdf6e4e5	-0.12055377
77	0xbdc5ef61	-0.096647985
78	0xbced4d0e	-0.028967407
79	0x3d2fe9ea	0.042947687
80	0xbd925283	-0.07144644
81	0x3dfdf8b4	0.12400952
82	0xbd68d8c3	-0.056847345
83	0x3e16b014	0.14715606
84	0x3ca296ac	0.019847237
85	0x3d1f3a0d	0.03887372
86	0xbc444315	-0.011978884
87	0x3e39efec	0.18157929
88	0x3bedc439	0.0072560576
89	0x3e1b2dc8	0.15154183
90	0x3e8b5df5	0.2722012
91	0xbd1c2060	-0.038116813
92	0xbe0c06dd	-0.13674493
93	0xbc86fb21	-0.01647717
94	0x3e0f52b5	0.13996394
95	0x3e157437	0.14595114
96	0xbcb0a376	-0.02156232
97	0xbb9e25ca	-0.004826282
98	0x3d9c62fc	0.07636067
99	0xbdc47ead	-0.09594474
100	0xbd80b424	-0.06284359
101	0x3cfb694e	0.030689862
102	0x3d8dd045	0.0692449
103	0x3da5ef02	0.08102228
104	0xbe0194b7	-0.12654386
105	0xbd775f4f	-0.060393628
106	0xbd92fead	-0.07177482
107	0x3e2e5c84	0.1702748
108	0xbdb9f1a6	-0.09079294
109	0xbdecedf6	-0.11568825
110	0x3cedb647	0.02901758
111	0xbd43c6ae	-0.047796898
112	0xbd86dddb	-0.06585284
113	0xbe35e431	-0.1776283
114	0xbd2a1a2e	-0.041528873
115	0xbd59f776	-0.053214513
116	0xbdf8afde	-0.12142919
117	0x3b94b39a	0.0045380117
118	0x3e81b18c	0.2533077
119	0x3e6df343	0.23237328
120	0x3db770f6	0.089570925
121	0xbd6fedc1	-0.05857635
122	0xbc908013	-0.017639196
123	0x3df11acc	0.11772689
124	0x3d4f31c5	0.050584573
125	0x3e39c59a	0.18141785
126	0xbca7d542	-0.020487431
127	0x3da82e9d	0.08212016
128	0x3dcf7267	0.101292424
129	0xbc0ed27c	-0.008717176
130	0x3d1f232b	0.0388519
131	0x3d10461b	0.035223108
132	0xbd741e6d	-0.05959933
133	0x3d772b34	0.060343936
134	0xbc1b14a4	-0.00946537
135	0xbd81dc20	-0.06340814
136	0xbd69ab8c	-0.057048365
137	0x3db63856	0.08897464
138	0x3da682b5	0.08130399
139	0x3e4635f6	0.19356522
140	0xbdbf9b59	-0.09355802
141	0xbde5d083	-0.11221411
142	0xbe1ade50	-0.15123868
143	0xbd49ed7b	-0.049298745
144	0x3dec703c	0.115448445
145	0x3da5ea01	0.08101273
146	0x3dd1137a	0.10208793
147	0x3dcea228	0.100895226
148	0xbda73474	-0.081643015
149	0x3df54bac	0.11977324
150	0xbe010b7c	-0.12602037
151	0x3e0555da	0.13021031
152	0xbde42a82	-0.1114092
153	0x3dda1c67	0.106499486
154	0x3e88a6f9	0.2668989
155	0xbdda8618	-0.106701076
156	0xba891e6d	-0.0010461338
157	0x3d85c09d	0.06530879
158	0x3d7f153e	0.062276118
159	0x3c1de290	0.009636536
160	0xbd869bbb	-0.06572672
161	0x3de32059	0.11090154
162	0xbda55a97	-0.08073919
163	0xbd908413	-0.07056441
164	0x3d34eaa1	0.044169072
165	0x3d93b57f	0.07212352
166	0x3d6e0f9f	0.058120366
167	0x3b355f80	0.002767533
168	0x3b9b68a2	0.004742698
169	0xbc3fc33a	-0.0117042605
170	0x3c8b33b0	0.01699242
171	0xbda90d5f	-0.082545035
172	0xbde60674	-0.112316996
173	0x3da0c34a	0.078497484
174	0x3d60d137	0.054887023
175	0xbc56066f	-0.013063057
176	0xbc82421d	-0.015900666
177	0x3d14263f	0.036169287
178	0xbda9d3b9	-0.08292336
179	0x3ddf4e6a	0.10903628
180	0x3dc54eec	0.09634194
181	0x3d73ff64	0.05956973
182	0xbd85d752	-0.0653521
183	0xbe436046	-0.19079694
184	0x3c97696a	0.018482883
185	0x3d34b948	0.04412201
186	0x3dcce720	0.10005021
187	0xbda65f96	-0.081237
188	0xbd292734	-0.041297153
189	0x3d2170d6	0.03941425
190	0x3d3dcead	0.04633968
191	0xbe0d4918	-0.13797414
192	0xbcb99b07	-0.02265693
193	0x3d3985e0	0.04529369
194	0xbd80837d	-0.062750794
195	0x3d8985b5	0.06714956
196	0x3dcccfbc	0.1000056
197	0xbe06c872	-0.13162401
198	0x3d4253ef	0.047443327
199	0x3dc03c45	0.093864955
200	0xbcaaf669	-0.02086945
201	0x3d8eccd0	0.06972659
202	0x3dfe11eb	0.12405761
203	0x3d314ea9	0.043287907
204	0xbccef57b	-0.025263539
205	0xbdae2cbb	-0.085046254
206	0x3c902f95	0.017600814
207	0xbd6a4422	-0.057193883
208	0x3dc3bcd1	0.09557498
209	0xbe1f68e7	-0.15567361
210	0x3b2be12b	0.002622674
211	0xbd91bd93	-0.071162365
212	0xbe071f5a	-0.13195553
213	0xbdaad3f8	-0.08341211
214	0xbd69f958	-0.05712256
215	0xbda93236	-0.0826153
216	0xbaa0803f	-0.0012245252
217	0xbdc6a782	-0.09699918
218	0x3d4d55b6	0.05013057
219	0xbdd574bf	-0.10422658
220	0xbce00c91	-0.027349742
221	0x3d92434d	0.07141743
222	0xbda3f179	-0.08005042
223	0xbd798874	-0.060921147
224	0xbd3e468d	-0.046454
225	0x3df48557	0.11939495
226	0xbbfe2261	-0.007755563
227	0x3d6a1379	0.057147477
228	0xbdc469f3	-0.09590521
229	0xbd4b145c	-0.049579963
230	0xbde0ec55	-0.10982577
231	0x3df84200	0.121219635
232	0xbdb024e0	-0.08600783
233	0x3d5f9e5b	0.05459438
234	0x3c215979	0.009847992
235	0xbd8fbf0a	-0.0701886
236	0xbd1657da	-0.036704876
237	0x3da15b63	0.07878759
238	0x3c857ee0	0.01629585
239	0x3dc0e560	0.0941875
240	0x3d803f6a	0.06262095
241	0x3baf54bd	0.0053506778
242	0xbda6fbfd	-0.08153532
243	0xbda85a6b	-0.08220371
244	0xbdcbd41a	-0.099525645
245	0xbdcabe70	-0.09899604
246	0xbdea88ff	-0.11451911
247	0xbe6db671	-0.23214127
248	0xbcc45893	-0.023968017
249	0x3ddd6574	0.10810366
250	0x3d195e3d	0.03744339
251	0x3c6786ef	0.014131292
252	0xbc403aeb	-0.011732797
253	0xbe10ddb8	-0.14147079
254	0xbc316891	-0.010828153
255	0xbd5b1ce3	-0.053494345

layers.1.linear.bias f4 [64]
0	0xbe238e66	-0.1597229
1	0x3e040e40	0.12896061
2	0x3dd139c0	0.10216093
3	0xbdef5862	-0.116867796
4	0x3e091465	0.13386686
5	0xbe088a5c	-0.1333403
6	0xbdab3e76	-0.08361523
7	0x3dbbafd4	0.09164396
8	0x3d4fcc04	0.050731674
9	0xbc080c4c	-0.008303713
10	0x3d69d498	0.05708751
11	0x3dcac13a	0.09900136
12	0xbe2ab230	-0.16669536
13	0xbdad07d0	-0.08448756
14	0xbc347082	-0.011013152
15	0x3db5dee8	0.088804066
16	0xbcc252a7	-0.023721052
17	0x3e4e1ee6	0.20128974
18	0x3cc4c194	0.024018086
19	0x3df65afc	0.12029073
20	0x3e6630d0	0.22479558
21	0x3d59e0fe	0.053193085
22	0xbe3f082a	-0.18655458
23	0xbe4d632f	-0.20057367
24	0x3b71ff62	0.0036925902
25	0x3e376286	0.17908677
26	0xbe0d8d31	-0.13823391
27	0x3db5eec4	0.088834316
28	0x3dc89237	0.09793513
29	0xbd144825	-0.036201615
30	0xbe43600a	-0.19079605
31	0x3e56fe7b	0.20995514
32	0x3dcf81a6	0.1013215
33	0xbd9fa5c5	-0.0779529
34	0x3d92e64d	0.07172833
35	0x3d1feab9	0.03904221
36	0x3c601548	0.013676949
37	0x3d66e759	0.056372974
38	0x3e0ebf27	0.13940106
39	0xbd9fd0e0	-0.078035116
40	0x3d6e03a5	0.058108944
41	0x3e7afd13	0.24510603
42	0x3d50b5fc	0.050954804
43	0xbc5e44b0	-0.013566181
44	0x3dbbc815	0.09169022
45	0xbe673e58	-0.22582376
46	0x3dbfaa89	0.09358699
47	0xbe161018	-0.14654577
48	0x3ca9e9bc	0.020741336
49	0x3c5ca618	0.013467334
50	0x3d791210	0.06080824
51	0x3d7adad2	0.06124384
52	0x3deaf2e3	0.11472108
53	0x3d1e7d6b	0.038693827
54	0xbca950a9	-0.020668345
55	0x3da50b4e	0.08058797
56	0xbdd628c6	-0.10456996
57	0x3cd3ff3f	0.025878547
58	0x3d8c102b	0.06839021
59	0x3d32877d	0.043586243
60	0xbb81607c	-0.0039482694
61	0xbe3521a1	-0.1768861
62	0x3e308c78	0.17241085
63	0x3e681f45	0.22668178

fc.weight f4 [2, 128]
0	0xbd95ca88	-0.073140204
1	0x3d573003	0.052536022
2	0x3ce13cb2	0.027494762
3	0x3d5f60f0	0.054535806
4	0x3d9f0a3b	0.07765623
5	0xbd60373b	-0.054740172
6	0xbcd191a4	-0.025582142
7	0x3d95ca97	0.073140316
8	0xbc9f80f8	-0.019470677
9	0xbd411282	-0.04713679
10	0x3d3e41e1	0.046449546
11	0xbd817186	-0.06320481
12	0xbcd7753c	-0.026301019
13	0xbd1b7210	-0.037950575
14	0xbd42ba83	-0.047541153
15	0xbdc461ae	-0.095889434
16	0xbd2fa829	-0.04288498
17	0x3caf8191	0.021424087
18	0xbc9be4a6	-0.019029927
19	0xbd0385dc	-0.03211008
20	0xbc9fbb37	-0.01949845
21	0xbd8cfac2	-0.06883766
22	0xbb19bfb1	-0.0023460204
23	0xbd84cd24	-0.0648444
24	0x3d5a8952	0.053353615
25	0x3d8340bf	0.06408834
26	0xbd281228	-0.04103294
27	0xbba970df	-0.005170926
28	0x3c8cd6dd	0.017192299
29	0xbd8a03a5	-0.067389764
30	0x3ba1bb96	0.004935692
31	0xbd89a733	-0.06721344
32	0xbc2d3432	-0.010571526
33	0xbd076adc	-0.033060893
34	0x3d882f94	0.066497
35	0x3d50b2c2	0.050951727
36	0xbd9031c5	-0.07040743
37	0x3dd36d71	0.10323609
38	0x3d30828c	0.04309325
39	0xbd82af7a	-0.06381126
40	0xbd715291	-0.058916632
41	0x3d727a2e	0.05919855
42	0xbd31c386	-0.043399356
43	0xbdad02c3	-0.084477924
44	0x3d0e77e1	0.034782294
45	0xbdb610cf	-0.08889925
46	0x3b31d561	0.002713524
47	0xbe0cb741	-0.13741781
48	0xbd488c10	-0.0489617
49	0x3d1163c9	0.035495553
50	0x3d41ba96	0.047297083
51	0xbc947ddd	-0.018126423
52	0xbc84ac7f	-0.016195534
53	0x3dc07991	0.09398187
54	0x3ca98146	0.020691525
55	0x3cd868c3	0.026417142
56	0xbcb4cf62	-0.022071544
57	0x3bdb0232	0.0066836113
58	0xbd989944	-0.07451108
59	0x3d0779dc	0.0330752
60	0x39f82b9c	0.00047334738
61	0xbd8651d3	-0.065585755
62	0xbd243eaf	-0.040098842
63	0x3d61bf04	0.055113807
64	0x3e6ded3e	0.23235032
65	0x3e93e888	0.28888345
66	0x3e216bad	0.15763731
67	0x3c981e60	0.018569171
68	0x3da915f7	0.082561426
69	0x3d1765e4	0.036962405
70	0x3dc448a0	0.095841646
71	0x3c5743d1	0.013138727
72	0x3cc543b4	0.024080135
73	0xbcbbef80	-0.022941351
74	0x3db1c6c0	0.08680487
75	0x3ea6c0ea	0.32569057
76	0x3c3102bc	0.010803875
77	0xbd0599a5	-0.03261723
78	0x3a346a38	0.0006882283
79	0x3dfec3bc	0.12439677
80	0x3dee6573	0.11640444
81	0x3e3c72dd	0.18403192
82	0x3d6510ad	0.055924106
83	0xbc658e10	-0.014010921
84	0x3eb63ac9	0.35591725
85	0x3e832f57	0.25622055
86	0x3d539004	0.051651016
87	0x3e2f763a	0.17134944
88	0xbdb12871	-0.08650292
89	0x3d8df305	0.06931118
90	0xbd740f68	-0.059585005
91	0x3ce3278b	0.027728816
92	0x3e0140ae	0.1262233
93	0x3e1f4199	0.15552367
94	0x3de89276	0.1135606
95	0x3e51c4c6	0.2048522
96	0x3e15c2a4	0.14625031
97	0x3ce11233	0.027474498
98	0x3c39b786	0.011335259
99	0x3cdd68d9	0.027027534
100	0xbd9b7592	-0.07590784
101	0xbd38b8a0	-0.045097947
102	0xbd97ab8c	-0.07405767
103	0x3e41c6e4	0.18923527
104	0xbc27d8d0	-0.010244563
105	0x3e8abe80	0.27098465
106	0x3d622be9	0.055217657
107	0x3d9560b6	0.07293837
108	0x3c2dc1e3	0.010605308
109	0x3c5d80cc	0.013519477
110	0x3e6ce34a	0.23133579
111	0xbd841c92	-0.06450762
112	0xbdb16d1b	-0.08663388
113	0x3df92d36	0.121668264
114	0x3db26834	0.087112814
115	0x3e1993bc	0.14997762
116	0x3dc2e6b8	0.09516662
117	0x3de2d70e	0.11076175
118	0x3cf49eba	0.029860843
119	0xbc896535	-0.016771892
120	0xbc3b76a0	-0.011441857
121	0x3db943ce	0.09046136
122	0x3df5c41a	0.12000294
123	0x3e54b4a4	0.20772034
124	0xbb9d4dd6	-0.0048005385
125	0x3d89842b	0.06714662
126	0xbd01fda9	-0.03173605
127	0x3e4f872b	0.20266406
128	0x3d258338	0.040408343
129	0x3d8037cf	0.06260645
130	0xbc74908c	-0.014927041
131	0x3d337589	0.043813262
132	0xbd78f40b	-0.060779613
133	0x3d45dc1d	0.04830562
134	0x3d2698f3	0.040673207
135	0xbc6ac02e	-0.014328046
136	0xb8a86549	-8.02973e-05
137	0x3da027d1	0.078200944
138	0xbd2f8420	-0.042850614
139	0x3d6dc6ef	0.058051046
140	0x3d68ebde	0.056865565
141	0xbd8836f9	-0.0665111
142	0x3d0e4412	0.034732886
143	0x3b115b9e	0.0022179852
144	0xbd500871	-0.0507893
145	0xbd85ff35	-0.065428175
146	0xbc25bd46	-0.010115927
147	0xbda4c4d1	-0.08045352
148	0xbdae891f	-0.085222475
149	0x3d028869	0.031868372
150	0x3d9aa85b	0.075516425
151	0x3d31fc2b	0.043453377
152	0xbc726dbd	-0.014796671
153	0xbd60dcf1	-0.054898206
154	0xbd0b9986	-0.03408196
155	0xbd1630db	-0.036667686
156	0x3da44f39	0.08022923
157	0x3cae7602	0.021296505
158	0x3d3dfa3e	0.046381228
159	0xbd0efc01	-0.0349083
160	0xbd3cae5d	-0.046064723
161	0x3cece3c0	0.028917193
162	0xbc76750b	-0.015042554
163	0x3a49b164	0.0007693975
164	0xbd2cfaa9	-0.042231236
165	0xbd519078	-0.051163167
166	0xbd50fd24	-0.051022664
167	0xbdb285a6	-0.08716898
168	0xbd0ede68	-0.034880072
169	0xbdaa4565	-0.08314017
170	0xbc6ab21b	-0.01432469
171	0x3da1df09	0.07903869
172	0x3d38a64a	0.04508046
173	0x3da38ba4	0.07985619
174	0xbdac42f5	-0.084112085
175	0x3cdd7d97	0.027037425
176	0x3da091f0	0.07840335
177	0x3da21be1	0.07915474
178	0xbcb9904e	-0.022651818
179	0xbd4808a8	-0.04883638
180	0x3a15cd71	0.0005714512
181	0x3c4ce9fa	0.012506956
182	0xbdaa2af2	-0.083089724
183	0xbd921691	-0.071332105
184	0x3d930fb3	0.07180729
185	0x3cac1a78	0.021008715
186	0xbc4af528	-0.012387551
187	0x3c96024e	0.018311646
188	0xbd091736	-0.0334694
189	0x3db4e615	0.08832947
190	0xbda5fc88	-0.08104807
191	0x3d3ce6c7	0.046118524
192	0xbdf7c5d4	-0.120982796
193	0xbe2f9448	-0.17146409
194	0xbd6381d1	-0.055543724
195	0xbd4a4b2a	-0.04938809
196	0xbe0b7127	-0.13617383
197	0xbdc78b0f	-0.0974332
198	0x3d7040b0	0.05865544
199	0xbd7bc89f	-0.061470624
200	0xbcf549c0	-0.029942393
201	0xbd970138	-0.07373279
202	0xbdaf1c82	-0.08550359
203	0xbe9b06be	-0.3027858
204	0xbcc182a7	-0.02362187
205	0x3ca8be65	0.0205986
206	0x3d9dd835	0.07707254
207	0xbdf96926	-0.121782586
208	0xbd97c6bb	-0.07410952
209	0xbe3c62c2	-0.18397048
210	0xbd68071d	-0.05664741
211	0x3cb03998	0.021511838
212	0xbece6efe	-0.40319055
213	0xbe77f79c	-0.24215549
214	0x3d4841f0	0.048891008
215	0xbccd6aed	-0.0250754
216	0x3d7363ae	0.059421234
217	0xbe1ec8c3	-0.15506272
218	0xbbaba209	-0.005237822
219	0x3d4d2882	0.05008746
220	0xbcef8793	-0.029239452
221	0xbd3e394e	-0.04644137
222	0xbddaad84	-0.10677627
223	0xbe42428f	-0.18970703
224	0xbddb41e8	-0.1070593
225	0xbd397573	-0.045278024
226	0xbd89a412	-0.06720747
227	0xbd9a1934	-0.07524338
228	0xbb1ba26d	-0.0023747936
229	0x3cc05fac	0.02348312
230	0x3cb6c2fc	0.022309773
231	0xbe3c5b7c	-0.18394274
232	0xbd455806	-0.04817965
233	0xbe9df165	-0.30848232
234	0xbd358581	-0.044316772
235	0xbc88b475	-0.016687611
236	0x3d0ac88c	0.033882663
237	0xbda38f32	-0.07986297
238	0xbe9271e8	-0.2860253
239	0x3d328f10	0.043593466
240	0x3d2438b8	0.040093154
241	0xbe06102e	-0.1309211
242	0xbdc786c3	-0.09742501
243	0xbdfa1abf	-0.12212133
244	0xbd43c1b6	-0.04779216
245	0xbdf6dc63	-0.12053754
246	0xbd83973f	-0.06425332
247	0x3d9319b7	0.07182639
248	0xbd8ed1ad	-0.06973586
249	0xbc92db31	-0.017926784
250	0xbdd180d8	-0.10229653
251	0xbe1bd8fa	-0.15219489
252	0x3d8eb752	0.06968559
253	0xbe0d06c1	-0.13772108
254	0x3c491cdb	0.012274946
255	0xbd8ffe04	-0.070308715

fc.bias f4 [2]
0	0x3dde23fc	0.10846707
1	0xbcea72e4	-0.028619237
