experiment/saml_20/GAT/GAT_checkpoint.pt (torch_old, 92584 bytes, 12 tensors)

gcn_layers.0.layer.weight f4 [64, 128]
0	0x3ecb2b64	0.39681542
1	0xbe4b154c	-0.19832343
2	0xbeb1f7e6	-0.34759444
3	0x3eae84ee	0.34085792
4	0xbd4535a6	-0.048146866
5	0x3e5b742e	0.21431038
6	0x3ed71391	0.42007115
7	0xbfa20e41	-1.26606
8	0xbeaa205d	-0.33227816
9	0x3f231082	0.63697064
10	0xbef2a09b	-0.47388157
11	0xbf170c7d	-0.5900343
12	0xbf10d267	-0.5657105
13	0x3e1b6833	0.15176468
14	0xbf7665e7	-0.9624924
15	0xbf28ac27	-0.65887684
16	0x3fa27aa9	1.2693683
17	0x3f7114d6	0.9417242
18	0xbf98f647	-1.1950158
19	0xc021d15b	-2.528403
20	0x3e9ebb9b	0.31002507
21	0xbd80e1d5	-0.06293074
22	0x3d656e41	0.05601335
23	0xbcbf600f	-0.023361234
24	0xbf23b467	-0.6394715
25	0xbf03acad	-0.5143536
26	0x3efe55cb	0.4967483
27	0x3e6caf17	0.23113666
28	0xbf3c4982	-0.73549664
29	0xbfa9bf64	-1.3261533
30	0xbcbc6eb9	-0.023002015
31	0xbf84fe4d	-1.0390106
32	0xbf1d168e	-0.6136254
33	0xbf314d5b	-0.6925866
34	0x3c9de718	0.019275233
35	0x3ebbbb73	0.3666645
36	0x3f0e8222	0.55667317
37	0xbdfb51a1	-0.12271429
38	0xbeaefd53	-0.34177646
39	0xbe6b863a	-0.23000422
40	0xbef1eacd	-0.4724945
41	0xbea8f21e	-0.3299722
42	0x3cb54bfe	0.022130962
43	0xbf421c00	-0.75823975
44	0x3f6c51c3	0.9231226
45	0xbf2af367	-0.6677765
46	0x3e36af8a	0.178404
47	0x3eb19148	0.34681153
48	0xbf48a3d3	-0.78374976
49	0x3eec5d00	0.46164703
50	0xbe023928	-0.12717116
51	0xbf39c45d	-0.7256525
52	0xbe163947	-0.14670287
53	0x3f04edd9	0.51925427
54	0xbdff8a3d	-0.12477539
55	0x3fdebd29	1.7401477
56	0x3dbb9c09	0.09160621
57	0x3e707db4	0.23485452
58	0x3cff9aaa	0.03120168
59	0x3e4386e7	0.1909443
60	0x3ede795e	0.4345197
61	0x3f0a8c9e	0.54120815
62	0xbebed362	-0.37270647
63	0xbf997efb	-1.1991876
64	0xbdc79b6b	-0.097464405
65	0xbd83dba3	-0.06438377
66	0x3da0e441	0.07856036
67	0xbf0fce79	-0.5617443
68	0x3f194c37	0.5988192
69	0x3e518f6b	0.20464866
70	0xba5365fd	-0.00080642087
71	0x3d98e93a	0.074663594
72	0x3f15cfd9	0.58520275
73	0xbe3b9f83	-0.18322568
74	0x3ed8334d	0.4222664
75	0xbef7bf20	-0.48388004
76	0x3e83e006	0.25756854
77	0xbe4dd9b5	-0.2010258
78	0x3f0055b9	0.501308
79	0x3f27363a	0.6531712
80	0xbf1fb7b7	-0.623897
81	0xbebd8d5f	-0.3702192
82	0x3dfe0911	0.12404073
83	0x3f12f0f4	0.57398915
84	0x3db75b1e	0.08952926
85	0xbf26164f	-0.6487779
86	0xbd020c9e	-0.031750314
87	0xbe85f86c	-0.26166093
88	0x3e4bcf47	0.19903289
89	0x3eb18846	0.3467428
90	0x3e85c2c8	0.2612517
91	0xbf532f6f	-0.8249425
92	0x3eba957c	0.36442173
93	0x3ea9fd4d	0.33201066
94	0xbf16a077	-0.588386
95	0x3f80520d	1.002504
96	0x3eb84db9	0.35996798
97	0x3e75fb56	0.24021658
98	0x3ec20b6d	0.37899342
99	0xbecba262	-0.39772326
100	0xbf025a08	-0.50918627
101	0x3f4bf711	0.7967387
102	0x3ed185f3	0.40922508
103	0x3d221db2	0.0395791
104	0x3cae27e4	0.021259256
105	0xbecc64b5	-0.39920583
106	0x3e42eaac	0.19034833
107	0x3e80cfaf	0.2515845
108	0x3dca6eef	0.0988444
109	0x3ea64ecf	0.32482
110	0xbc08245f	-0.008309453
111	0x3dc29745	0.095015086
112	0x3e93bfff	0.2885742
113	0x3d1b74e4	0.037953272
114	0xbe864209	-0.26222256
115	0x3d8ce9a3	0.068805
116	0x3e2c90d1	0.16852118
117	0x3ef84d27	0.48496363
118	0x3f5c2851	0.8599902
119	0xbe96d200	-0.29457092
120	0x3c1c7bc8	0.009550996
121	0x3e12f7cb	0.14352338
122	0xbec4d7f5	-0.38446012
123	0x3ed6b534	0.41935122
124	0xbda42924	-0.080156595
125	0xbe83daaa	-0.25752765
126	0xbef9da10	-0.4879918
127	0x3ebbb89d	0.36664286
128	0x3e6d784c	0.23190421
129	0xbf270215	-0.6523755
130	0xbebcee51	-0.3690057
131	0x3f4ba89b	0.79554147
132	0xbf266f1a	-0.6501328
133	0x3f36cb26	0.7140373
134	0x3f4e8b60	0.8068142
135	0x3ea776e8	0.32707906
136	0xbf336af9	-0.700851
137	0x3fe00543	1.7501606
138	0x3ecdb8ec	0.40180147
139	0x3ef2f14e	0.47449726
140	0xbf292ba1	-0.660822
141	0xbef9ed70	-0.48813963
142	0xbececbcc	-0.4038986
143	0xbf234547	-0.63777584
144	0x3e8a8998	0.270581
145	0xbf75f1f6	-0.9607233
146	0x3eed73c2	0.4637738
147	0xbf11946c	-0.568671
148	0xbfd9f8d0	-1.7029057
149	0x3e024478	0.12721431
150	0x3d2dc5ba	0.042424895
151	0xbfa91016	-1.3208034
152	0x3e915fd9	0.28393438
153	0xbf825850	-1.0183201
154	0xbe924ae2	-0.28572756
155	0x3f3d4726	0.7393669
156	0x3cadcf6e	0.021217074
157	0xbf0bee25	-0.54660255
158	0xbde329a6	-0.11091928
159	0xbe0add71	-0.13561036
160	0x3e0366e3	0.12832217
161	0x3e8930dd	0.26795092
162	0x3f4d23fc	0.8013303
163	0x3e747705	0.23873527
164	0x3d278338	0.040896624
165	0xbf6d0471	-0.925849
166	0xbe2e3f27	-0.17016278
167	0xbfe18ffa	-1.7622063
168	0x3f75cb97	0.9601378
169	0x3e9e9b71	0.30977967
170	0x3e0c4927	0.1369978
171	0xbe9d8bf4	-0.30770838
172	0xbfaa79f2	-1.3318465
173	0xbf27c22d	-0.65530664
174	0xbef8deba	-0.48607427
175	0x3f4999a3	0.78750056
176	0x3ea68e3a	0.32530385
177	0x3ed9b4a6	0.42520636
178	0x3f06976d	0.5257481
179	0xbf145764	-0.5794585
180	0xbf59915b	-0.8498742
181	0x3f22cf35	0.6359742
182	0xbef7f97e	-0.48432535
183	0x3f3a708a	0.7282797
184	0x400931b0	2.1436577
185	0x3fbf38b0	1.4939175
186	0xbecbb55d	-0.39786807
187	0xbf018e2b	-0.50607556
188	0x3d880cd6	0.06643073
189	0x3fa75c1c	1.3074985
190	0xbf1cd6a4	-0.61265016
191	0xbf3b043f	-0.73053354
192	0xbdba4878	-0.090958536
193	0xbf120c68	-0.5705018
194	0xbf584791	-0.844842
195	0x3edc1c45	0.42990318
196	0xbf071b49	-0.5277601
197	0x3e9f1a8b	0.31074938
198	0x3e472b6f	0.19450162
199	0xbd8c96b9	-0.068646856
200	0x3e37f3c4	0.17964083
201	0x3f0cd4ab	0.55012006
202	0xbf2db627	-0.6785607
203	0xbf040431	-0.51568896
204	0xbf259d2d	-0.64692956
205	0xbf8904fe	-1.0704648
206	0xbf9c1361	-1.2193414
207	0xbe8a067f	-0.2695808
208	0x3f1d9e79	0.61569935
209	0x3e8b088a	0.27154952
210	0x3e51247e	0.20424077
211	0xbf2633a3	-0.6492254
212	0x3ec39ef0	0.38207197
213	0xbf4c07eb	-0.7969958
214	0xbea14c6e	-0.31503624
215	0xbd5757e8	-0.05257407
216	0xbf640eee	-0.8908528
217	0xbefac3f5	-0.48977628
218	0x3f2ab04a	0.66675246
219	0x3e656d74	0.22405034
220	0xbe20ad91	-0.1569121
221	0xbf1487a4	-0.5801947
222	0xbdf534a0	-0.11972928
223	0xbfb7d913	-1.4363121
224	0x3eef37eb	0.4672235
225	0xbf048316	-0.5176252
226	0x3d8f02b7	0.0698294
227	0x3fa0634b	1.2530302
228	0x3f17aa08	0.5924382
229	0xbf05dc10	-0.52288914
230	0xbe08c6c6	-0.13357076
231	0xbce98cfe	-0.028509613
232	0x3f2258a2	0.6341649
233	0xbf69245c	-0.91071105
234	0xbe309f25	-0.17248209
235	0xbf439b95	-0.76409274
236	0x3e470ef2	0.19439295
237	0xbf18e810	-0.597291
238	0x3cf424f1	0.029802771
239	0x3e10c162	0.1413627
240	0xbf5bf6b4	-0.85923314
241	0xbebfa64e	-0.37431568
242	0x3f134f45	0.5754283
243	0xbe7daf3e	-0.24773881
244	0x3daa5f19	0.0831892
245	0xbefd21c2	-0.49439818
246	0x3f21abdb	0.63152856
247	0x3e1fb7a6	0.155974
248	0x3d93db10	0.07219517
249	0xbe43f399	-0.19135894
250	0x3f063125	0.5241874
251	0xbf5e2032	-0.86767876
252	0x3e2ced11	0.16887309
253	0x3ccea8ac	0.025226913
254	0xbef68440	-0.48147774
255	0xbf20a0c8	-0.6274533

gcn_layers.0.layer.bias f4 [64]
0	0xbfbbf0ef	-1.4682902
1	0xbd953047	-0.07284599
2	0x3f15b446	0.584782
3	0xbf276cfe	-0.65400684
4	0xbf312f8f	-0.69213194
5	0xbf534ed2	-0.82542145
6	0xbf5d8432	-0.8652984
7	0xbf8f192f	-1.117956
8	0xbd2e7529	-0.0425922
9	0xbe66ecca	-0.22551265
10	0xbf4610e5	-0.7736953
11	0xbf9544a6	-1.1661575
12	0xbeeffd2e	-0.46872848
13	0xbf77eaed	-0.96842843
14	0xbf5556c1	-0.833355
15	0xbf252fd1	-0.6452609
16	0xbf25ceba	-0.64768565
17	0xbf84c552	-1.0372717
18	0x3f34f087	0.70679516
19	0x3f83f805	1.0310065
20	0xbfbb78fa	-1.4646294
21	0xbf818538	-1.011878
22	0xbf82a60a	-1.0206921
23	0xbf4451cd	-0.7668732
24	0xbf4290d9	-0.7600227
25	0xbfe88d71	-1.8168164
26	0x3f46bbdc	0.776304
27	0xbf14fe0c	-0.58200145
28	0xbf36018d	-0.71096116
29	0xbffde1d3	-1.9834541
30	0xbfd2c271	-1.6465589
31	0xbeaef024	-0.34167588
32	0xbdae9d4d	-0.085260965
33	0xbedf9324	-0.43666947
34	0xbfb76184	-1.4326634
35	0xbe8ade6c	-0.2712282
36	0xbe4424b7	-0.1915463
37	0xbf6d87e2	-0.92785466
38	0xbe6746d5	-0.22585614
39	0xbf99c6f3	-1.201384
40	0xbf1dc9e5	-0.6163619
41	0x3f28fabf	0.6600761
42	0xbecd85f8	-0.40141273
43	0x3f8dd80a	1.1081555
44	0xbe8c68b8	-0.27423644
45	0xbfd96565	-1.6984068
46	0xbf90d018	-1.1313505
47	0xbfd84df6	-1.6898792
48	0x3f0b41a0	0.5439701
49	0xbfa196bd	-1.2624127
50	0x3f1425d5	0.5787023
51	0xbf816911	-1.0110189
52	0xbf74c6a5	-0.9561561
53	0x3f2d289e	0.676401
54	0x3ebb13df	0.36538598
55	0xbf4aba25	-0.79190284
56	0xbf8648e3	-1.0490993
57	0xc00173ca	-2.0226922
58	0xbf01ad06	-0.5065464
59	0xbf3149b2	-0.69253075
60	0xbf56e69e	-0.83945644
61	0x3ef9efb9	0.48815706
62	0xbeb3880e	-0.3506474
63	0xbf5ea2ae	-0.8696698

gcn_layers.1.layer.weight f4 [64, 128]
0	0xbe210834	-0.15725785
1	0xbeb62c92	-0.3558088
2	0xbc711ccd	-0.014716339
3	0x3e3f4517	0.186787
4	0x3d0916ed	0.03346913
5	0xbe246f67	-0.16058122
6	0x3e0329d9	0.12808932
7	0xbe402a39	-0.18766107
8	0xbd9e3093	-0.077241085
9	0xbc17900d	-0.009250653
10	0x3d78f251	0.060777966
11	0xbe5355bd	-0.20638175
12	0x3e056639	0.13027276
13	0x3e2a29e8	0.16617548
14	0xbdbc4971	-0.09193695
15	0xbe319f34	-0.17345887
16	0x3ec352e1	0.3814917
17	0x3ce6b835	0.028164009
18	0x3e89d423	0.2691966
19	0xbe2ef26d	-0.17084666
20	0x3cc04fd3	0.023475563
21	0xbd91e6f2	-0.071241274
22	0x3ca902f4	0.020631291
23	0xbe6b1125	-0.22955759
24	0xbccdf34b	-0.025140425
25	0x3eb4cb4b	0.3531135
26	0xbd96bce4	-0.07360247
27	0x3c9ecce5	0.01938481
28	0x3dc9a116	0.09845178
29	0x3e795d91	0.24352099
30	0x3e2b94b4	0.16755944
31	0x3e532f8e	0.2062361
32	0x3e707433	0.23481826
33	0x3dce6781	0.100783356
34	0x3eda8d81	0.42686084
35	0xbe0dd1b0	-0.1384952
36	0xbe71c1d9	-0.23609103
37	0xbe5c673d	-0.21523757
38	0xbd60bf5c	-0.054869995
39	0x3d1d60de	0.038422458
40	0x3deda972	0.11604585
41	0xbeb1351f	-0.3461084
42	0x3eddd420	0.433259
43	0xbe375756	-0.1790441
44	0x3e9768b2	0.29572064
45	0xbeb0c92d	-0.34528485
46	0xbec06663	-0.37578115
47	0x3e203422	0.15644887
48	0xbe91198d	-0.28339806
49	0xbe094d70	-0.13408446
50	0x3e9d70bb	0.3075007
51	0xbe0f2c9e	-0.13981864
52	0x3d8bff34	0.068357855
53	0xbe809113	-0.25110683
54	0x3e0ed696	0.13949046
55	0xbdf67f15	-0.12035958
56	0xbcdb3031	-0.026756378
57	0x3ece7d05	0.40329757
58	0xbeb543e8	-0.3540337
59	0x3d83f01f	0.06442284
60	0xbd8c4c43	-0.06850483
61	0xbd0edbd3	-0.03487761
62	0xbe5bdbd0	-0.2147057
63	0xbe00dff9	-0.12585439
64	0xbd9c5ad6	-0.07634513
65	0x3e004298	0.12525403
66	0x3cc9bba1	0.024625601
67	0xbe35e059	-0.17761363
68	0xbcd47659	-0.025935339
69	0x3e8c92af	0.2745566
70	0xbd83ae0b	-0.064296804
71	0x3eb49c2a	0.35275394
72	0x3dbd26c5	0.0923591
73	0x3deb9334	0.11502686
74	0x3de894d0	0.11356509
75	0xbdb999f2	-0.09062566
76	0x3e524473	0.20533924
77	0x3b0c5b8b	0.0021416869
78	0xbe2ff55e	-0.17183444
79	0x3e2958b4	0.16537744
80	0xbd8113c3	-0.063025974
81	0xbb42f1f5	-0.0029746268
82	0x3d144987	0.036202934
83	0xbe1363d4	-0.1439355
84	0xbe63575d	-0.22201295
85	0x3ed873e9	0.42275932
86	0xbdd2a1fe	-0.10284804
87	0xbe385a45	-0.18003185
88	0xbd012bc9	-0.031535897
89	0xbe19f1b7	-0.15033613
90	0xbe4ba1e6	-0.19885978
91	0x3b922fe5	0.004461276
92	0x3d81425b	0.063114844
93	0x3d0ee42c	0.03488557
94	0xbe0df029	-0.13861145
95	0xbe3faa81	-0.18717386
96	0x3d1c8876	0.038216077
97	0x3e5a7821	0.21334888
98	0xbe22564f	-0.15853237
99	0x3d9d9d23	0.07695987
100	0xbe2d5eb6	-0.1693066
101	0x3d732339	0.059359763
102	0x3d3d7ce5	0.046261687
103	0xbce4263f	-0.027850268
104	0xbdc79613	-0.09745421
105	0x3dfcce5d	0.12344048
106	0x3d6ba84a	0.05753354
107	0xbd926872	-0.071488276
108	0xbda16f35	-0.07882539
109	0x3c7a7053	0.015285569
110	0xbe7f9214	-0.24958068
111	0x3ea7489b	0.3267258
112	0xbdaff458	-0.08591527
113	0xbddda84d	-0.108231165
114	0x3e85cd98	0.26133418
115	0xbe226859	-0.15860118
116	0x3e04dc56	0.12974676
117	0x3e09f71d	0.13473172
118	0x3d8cedc2	0.06881286
119	0xbecfdb16	-0.40596837
120	0x3cd56c7c	0.026052706
121	0xbe107f9d	-0.1411118
122	0xbd84fba9	-0.06493313
123	0xbea366d6	-0.31914395
124	0x3dd38689	0.10328395
125	0x3e22abde	0.15885875
126	0x3e8d853f	0.2764072
127	0xbda34be8	-0.07973462
128	0xbdd5fa18	-0.10448092
129	0xbddb1c53	-0.10698762
130	0x3c05e3f2	0.008172022
131	0xbdd4d4a2	-0.10392119
132	0x3c8935bb	0.016749253
133	0xbdf8b366	-0.121435925
134	0xbe44d49c	-0.19221729
135	0x3c73616c	0.01485477
136	0xbd239669	-0.039938364
137	0x3dea5df0	0.114436984
138	0xbcc6ce87	-0.024268402
139	0xbd17157f	-0.036885735
140	0x3e1ac4fd	0.15114208
141	0x3e45b1f4	0.19306165
142	0xbc88e73c	-0.016711824
143	0xbd669461	-0.05629385
144	0x3c6c0e97	0.014407775
145	0xbc2ba089	-0.010475286
146	0x3e941062	0.2891875
147	0x3e2cf4ae	0.16890213
148	0x3e09af86	0.13445863
149	0xbdf3c129	-0.11902077
150	0x3dba5446	0.09098105
151	0xbdcf7853	-0.10130372
152	0xbccf62a8	-0.025315598
153	0xbddb6105	-0.107118644
154	0x3c7b43bd	0.015335974
155	0xbe804c35	-0.2505814
156	0x3e4890bb	0.1958646
157	0x3e7b6e55	0.24553807
158	0xbdc8aab8	-0.09798187
159	0x3dc506f0	0.09620464
160	0x3e7256b4	0.23665887
161	0xbe238107	-0.15967189
162	0x3e498d63	0.19682841
163	0xbda410da	-0.08011027
164	0x3c9eff7f	0.01940894
165	0xbd38b1c2	-0.045091398
166	0xbcc98c2a	-0.024602968
167	0x3dfb72d4	0.12277761
168	0xbcd0a595	-0.02546958
169	0xbec6f373	-0.38857612
170	0x3e2c5982	0.1683102
171	0xbe837fed	-0.25683537
172	0xbd8fbaa7	-0.07018023
173	0xbd8c8d5c	-0.068629
174	0xbe0d0c00	-0.13774109
175	0x3e8cab19	0.27474287
176	0xbeb4cc18	-0.3531196
177	0xbcd9439d	-0.026521498
178	0x3ddb5316	0.10709207
179	0xbd132e2d	-0.03593271
180	0x3e39d8e1	0.18149139
181	0x3d5ff81d	0.05467998
182	0xbdb1120d	-0.08646021
183	0xbe4b3bd7	-0.19847046
184	0xbd9429e4	-0.072345525
185	0xbe8fbec6	-0.28075236
186	0x3e1a38d8	0.15060747
187	0xbe0f7b67	-0.14011918
188	0x3da047d2	0.07826199
189	0xbde2faf4	-0.11083022
190	0x3c8e2cf0	0.017355412
191	0xbe984b94	-0.29745162
192	0xbd666e91	-0.056257788
193	0xbd48eed5	-0.049055893
194	0xbd0422c7	-0.03225973
195	0xbd61f21f	-0.055162545
196	0xbd87b74b	-0.06626757
197	0xbe2fbecb	-0.17162625
198	0xbd96b46e	-0.07358633
199	0xbcd52522	-0.026018683
200	0x3cd97caa	0.026548702
201	0x3cd83d44	0.026396401
202	0xbe1317b7	-0.14364515
203	0xbdcc926d	-0.09988866
204	0x3d2660a8	0.040619522
205	0x3defc367	0.11707192
206	0xbdf94741	-0.12171794
207	0xbc2c2ff5	-0.010509481
208	0xbd687cf8	-0.056759804
209	0xbe53113a	-0.2061204
210	0xbd6c5127	-0.05769458
211	0x3d8d7688	0.06907374
212	0xbc50ea54	-0.012751181
213	0x3e2f0067	0.17089997
214	0x3de8d3ac	0.11368498
215	0x3de3ab7e	0.11116694
216	0xbca0797e	-0.019589182
217	0xbdc3bfa8	-0.0955804
218	0xbd9fe3d0	-0.07807124
219	0xbdd94df9	-0.10610575
220	0xbbe13692	-0.0068729604
221	0x3e07bb4c	0.13255042
222	0x3d9481bb	0.072513066
223	0xbd63e49d	-0.055637944
224	0x3e45ea4a	0.19327655
225	0xbe2f784a	-0.1713573
226	0x3e26abb5	0.16276439
227	0xbd99b73c	-0.07505652
228	0xbdfa4beb	-0.122215115
229	0xbd9694a1	-0.073525675
230	0x3da85978	0.0822019
231	0xbbd71dfe	-0.0065648546
232	0xbaa2595c	-0.001238625
233	0x3df2c1c8	0.11853367
234	0x3d6ccfdb	0.057815414
235	0xbe286a96	-0.1644691
236	0xbd8dd604	-0.06925586
237	0xbdcf2704	-0.101148635
238	0xbe024da3	-0.12724929
239	0x3db7dc72	0.089775935
240	0xbe8240f8	-0.25440192
241	0xbdbbbb54	-0.091665894
242	0x3df70e19	0.12063236
243	0x3daf850b	0.08570298
244	0x3d0c848c	0.034306094
245	0xbd03be94	-0.03216417
246	0xbd459cae	-0.048245125
247	0xbdb61ead	-0.0889257
248	0xbdace128	-0.08441383
249	0xbe04463a	-0.12917414
250	0xbe249516	-0.16072497
251	0x3de188e5	0.11012439
252	0xbd04f578	-0.03246066
253	0x3d2fcd8f	0.042920645
254	0xbc2bcb0d	-0.010485423
255	0xbe19f59e	-0.15035102

gcn_layers.1.layer.bias f4 [64]
0	0xbd0cb02f	-0.03434771
1	0xbe429f31	-0.19006039
2	0xbef7a2d2	-0.4836641
3	0xbede0351	-0.43361905
4	0xbe1cef61	-0.15325691
5	0xbe8c1f6b	-0.2736772
6	0xbe9be2a0	-0.3044634
7	0xbe3f5c45	-0.18687542
8	0xbdf34ea1	-0.11880232
9	0xbee561b4	-0.44801104
10	0xbde868ad	-0.1134809
11	0x3e006985	0.12540253
12	0x3e23de1e	0.160027
13	0xbd94f055	-0.07272402
14	0xbeefd952	-0.4684549
15	0xbe93eb2f	-0.28890368
16	0xbe0612e7	-0.13093148
17	0x3f94462c	1.1583915
18	0xbc953c9a	-0.018217374
19	0xbcf70daa	-0.030157883
20	0xbf11bfc2	-0.56933224
21	0x4053bd90	3.308445
22	0xbeb0c141	-0.3452244
23	0xbe833bbb	-0.25631508
24	0xbe515964	-0.20444256
25	0xbe98e8bc	-0.29865062
26	0xbe9c8b29	-0.3057492
27	0xbe82203c	-0.25415218
28	0x3e01ce09	0.12676252
29	0x3ea3240a	0.31863433
30	0xbf3702c6	-0.71488607
31	0x3e92f16a	0.2869981
32	0x3eab41c4	0.33448613
33	0x3dc3dcc7	0.09563594
34	0xbdd3a54d	-0.10334263
35	0xbea13ce2	-0.31491762
36	0xbea4f1de	-0.3221578
37	0xbe784361	-0.24244453
38	0xbe538f92	-0.20660236
39	0xbec5ab06	-0.38607043
40	0x3fad08b1	1.3518277
41	0x3e45c395	0.1931289
42	0xbe91b6ca	-0.2845977
43	0x3d9abde3	0.07555749
44	0xbe0955c7	-0.13411628
45	0x3e2869bf	0.16446589
46	0xbb46d969	-0.003034199
47	0xbeaad86e	-0.33368248
48	0xbe8642dc	-0.26222885
49	0x3f43f48a	0.7654501
50	0xbeb7c93f	-0.35895726
51	0xbe8b5d4c	-0.27219617
52	0xbed6543a	-0.41861135
53	0xbed16dbe	-0.4090404
54	0xbe852bc9	-0.26009968
55	0xbeb8c742	-0.36089522
56	0xbdb5f4ae	-0.088845596
57	0xbe69e340	-0.22840595
58	0xbe884cbc	-0.26621044
59	0xbe723d72	-0.23656252
60	0xbda1baf1	-0.07896984
61	0x3e8570c6	0.26062602
62	0xbe12adb3	-0.14324073
63	0xbe403252	-0.18769196

feat_layers.0.weight f4 [64, 23]
0	0x3e6493e0	0.22322035
1	0x3f0b5eec	0.54441714
2	0xbcbf1997	-0.023327632
3	0xbf39f166	-0.7263397
4	0xbe88418f	-0.26612517
5	0xbf260b40	-0.64860916
6	0x3f09d729	0.53843933
7	0x3ef992ac	0.48744714
8	0x3ddc637b	0.10761162
9	0xbe972535	-0.29520574
10	0xbd30972f	-0.04311293
11	0x3de9b2c3	0.11411049
12	0xbe9442c4	-0.28957188
13	0x3eb6a5ac	0.35673273
14	0x3e60ac94	0.21940833
15	0xbe03969f	-0.12850426
16	0x3f2c8caa	0.67402136
17	0x3ebdefac	0.37096918
18	0xbf24753c	-0.64241385
19	0x3e365b0a	0.17808166
20	0xbdaa9ae7	-0.083303265
21	0xbee62138	-0.4494722
22	0x3eaeec2a	0.34164554
23	0x3c2f287c	0.010690805
24	0x3f0d5674	0.5521004
25	0x3e7409c3	0.23831849
26	0x3c4b3819	0.012403511
27	0x3ede9457	0.4347255
28	0xbf7ec6c6	-0.99522054
29	0xbeb425d5	-0.35185114
30	0xbd231b36	-0.039820872
31	0xbdedd674	-0.11613169
32	0x3d56504f	0.052322682
33	0xbc998204	-0.018738754
34	0x3dcd6b5f	0.10030245
35	0x3d57bbb5	0.052669246
36	0x3d5eadee	0.05436509
37	0x3d6a1f8e	0.057159
38	0xbe3dc9e8	-0.18534052
39	0xbf5abb9e	-0.8544253
40	0x3f1cd0f2	0.61256325
41	0xbcff6cab	-0.031179747
42	0x3e1652c0	0.14680004
43	0x3e3276a5	0.17428072
44	0x3e16df43	0.14733605
45	0xbe1bf21f	-0.1522908
46	0x3ed53074	0.4163853
47	0x3f38f08c	0.72242045
48	0x3f0d3142	0.55153286
49	0xbe26a637	-0.16274343
50	0x3e7744c1	0.24147321
51	0xbf60a84e	-0.8775681
52	0xbd9d89b6	-0.07692282
53	0x3f4c30f8	0.7976222
54	0x3d57b7d8	0.05266556
55	0xbe968e83	-0.29405603
56	0x39638793	0.00021698912
57	0xbdc0a6b7	-0.09406798
58	0x3eba4a1b	0.36384663
59	0x3e67d316	0.22639117
60	0x3d9be105	0.076112784
61	0x3c035c9b	0.008017684
62	0xbe9f6937	-0.3113496
63	0x3ea17302	0.31533056
64	0x3ecea47b	0.40359864
65	0x3f3721a3	0.715357
66	0xbf3e451d	-0.7432421
67	0x3e971494	0.29507887
68	0x3e1fe488	0.15614522
69	0x3f74f56f	0.95687
70	0x3e8b03ab	0.27151236
71	0x3ef3ff48	0.47655702
72	0xbd149e23	-0.036283623
73	0xbe8388c6	-0.25690287
74	0xbf08e141	-0.5346871
75	0x3fa1a2cc	1.2627807
76	0xbf22517d	-0.6340559
77	0x3f1556ba	0.5833546
78	0xbec07d53	-0.37595615
79	0xbec907d2	-0.3926378
80	0xbda0d1f4	-0.078525454
81	0xbd595fae	-0.053069763
82	0x3e928315	0.28615633
83	0xbdd61d78	-0.104548395
84	0x3d9cf01b	0.07662984
85	0x3ca4ab92	0.020101342
86	0x3f2d0941	0.67592245
87	0xbcefd6c6	-0.029277217
88	0x3d544850	0.051826775
89	0xbe618d84	-0.2202664
90	0x3dd5a36e	0.10431562
91	0x3dbabd3e	0.09118126
92	0xbe074007	-0.13208018
93	0x3eb36d5d	0.35044375
94	0xbf063592	-0.5242549
95	0x3ebf7188	0.37391305
96	0x3cffd410	0.031229049
97	0xbf21bad1	-0.63175684
98	0x3eff6277	0.4987981
99	0x3f29b2a2	0.662882
100	0xbfa09d7f	-1.2548064
101	0x3ec94583	0.39310846
102	0x3ec450fe	0.38343042
103	0x3eef9eb3	0.46800765
104	0x3f1081e3	0.5644819
105	0xbf1fcbee	-0.62420547
106	0xbe039a95	-0.12851937
107	0xbda2b7cc	-0.07945213
108	0xbf93c189	-1.1543437
109	0xbea69ea8	-0.3254292
110	0x3e4174d1	0.18892218
111	0xbec89499	-0.3917587
112	0xbeb00b02	-0.34383398
113	0x3f76b9d3	0.96377295
114	0xbe934b2b	-0.28768286
115	0xbd9d3821	-0.07676721
116	0xbf2e6d9c	-0.68136
117	0x3c510965	0.0127585875
118	0x3f501bab	0.8129222
119	0xbd7864a2	-0.060642846
120	0x3ce60ea0	0.028083146
121	0x3e9dd175	0.30823866
122	0x3e43d04d	0.19122429
123	0x3f71d5cf	0.9446687
124	0xbee217c9	-0.44158772
125	0xbe4670f0	-0.1937902
126	0xbe41bac6	-0.18918905
127	0xbe58bf25	-0.21166666
128	0x3e8b1b1d	0.27169123
129	0xbe76863e	-0.24074647
130	0xbd3055c9	-0.04305056
131	0xbf4c939e	-0.79912746
132	0x3e8ed31a	0.27895433
133	0x3f276b81	0.6539841
134	0x3ed6f916	0.41986912
135	0xbe5512af	-0.20807908
136	0xbea39c00	-0.31954956
137	0x3e3b4335	0.18287356
138	0x3e6a0883	0.2285481
139	0xbf0f6724	-0.56016755
140	0x3ee26e0d	0.44224587
141	0xbda1c3dc	-0.07898685
142	0xbe385701	-0.1800194
143	0x3f22c542	0.6358224
144	0x3f0ab800	0.5418701
145	0xbe528ba9	-0.20561089
146	0x3eb5a534	0.35477602
147	0xbf0f8a52	-0.56070435
148	0xbec305d4	-0.38090384
149	0xbe3f1e19	-0.18663825
150	0xbeab2ddc	-0.33433425
151	0x3e8d48c1	0.2759457
152	0xbe27de80	-0.16393471
153	0x3deacefe	0.11465262
154	0x3ed03abc	0.4066981
155	0x3ef68f84	0.4815637
156	0xbe82610e	-0.25464672
157	0x3f147c6a	0.5800234
158	0xbeb7f978	-0.35932517
159	0xbe4dcae3	-0.20096926
160	0x3de91b7e	0.11382197
161	0xbf57b72b	-0.8426387
162	0x3c4a2a49	0.012339183
163	0x3aebc9a4	0.0017989171
164	0x3e9a4ec8	0.3013823
165	0xbe1c329c	-0.15253681
166	0x3eb72879	0.35773066
167	0xbe71a33a	-0.23597422
168	0xbeb9a264	-0.36256707
169	0xbef40c02	-0.4766541
170	0x3e9fb0fe	0.31189722
171	0x3d5682d1	0.05237085
172	0xbe2210e2	-0.15826753
173	0x3da03e18	0.078243434
174	0xbf0d8ff8	-0.55297804
175	0x3d8c4bba	0.06850381
176	0x3d06239a	0.032748796
177	0x3e9d8988	0.3076899
178	0xbf00445c	-0.5010431
179	0xbe81bb5c	-0.25338256
180	0xbe875bcb	-0.2643722
181	0x3d0657aa	0.032798447
182	0xbe2c89d9	-0.1684946
183	0xbe04e240	-0.12976933
184	0x3dbcd94b	0.09221133
185	0x3f12e0b6	0.5737413
186	0x3d2a7bdf	0.04162204
187	0xbe5fb262	-0.21845391
188	0xbeace78f	-0.33770415
189	0xbf0dcf8e	-0.5539483
190	0x3e299691	0.16561343
191	0x3ef4b361	0.47793105
192	0x3d6e0019	0.058105562
193	0x3d9e472b	0.07728418
194	0x3f0ff0da	0.56226885
195	0xbd3d274e	-0.046180062
196	0x3d88419f	0.06653141
197	0x3db1fa03	0.08690264
198	0xbe8c384d	-0.27386704
199	0x3d1cc009	0.038269076
200	0x3e0564dd	0.13026758
201	0xbe93f6ca	-0.28899223
202	0x3cd41d26	0.025892805
203	0x3eb15529	0.34635285
204	0x3d72c35a	0.059268333
205	0x3f2fe5f4	0.68710256
206	0x3e53b514	0.20674545
207	0x3f22a7be	0.63537204
208	0xbfa13eb7	-1.2597264
209	0xbf7084fe	-0.9395293
210	0x3d3cadc3	0.04606415
211	0xbfb1c406	-1.3887947
212	0xbf804563	-1.0021175
213	0xbe76b58a	-0.24092689
214	0x3e1c4ec2	0.15264419
215	0x3ed1e3cf	0.40994117
216	0x3e295460	0.16536093
217	0xbe8bbfea	-0.27294856
218	0x3f020811	0.5079356
219	0xbf25fda1	-0.6484013
220	0xbdd3be46	-0.10339026
221	0xbf7e1a35	-0.9925874
222	0xbf130d0b	-0.57441777
223	0xbf8812f9	-1.063079
224	0xbee27f7d	-0.4423789
225	0xbfa8c4ec	-1.3185096
226	0xbd15d263	-0.036577594
227	0xbe24ab33	-0.16080932
228	0x3e12442f	0.14283822
229	0xbe365c51	-0.17808653
230	0x3e30a37b	0.17249863
231	0x3f580ff4	0.8439934
232	0x3e19af66	0.15008315
233	0x3ee6094d	0.4492897
234	0x3c88c460	0.016695201
235	0xbf2b5bb4	-0.669368
236	0xbe911cea	-0.28342372
237	0xbe039edf	-0.12853573
238	0x3f29a8af	0.66273016
239	0x3d419d96	0.047269426
240	0xbe4d6417	-0.20057712
241	0x3eca7115	0.395394
242	0x3f2583d1	0.6465426
243	0xbef5d65a	-0.480151
244	0x3c8fde62	0.017562095
245	0xbd22ca92	-0.039743967
246	0xbf1273a6	-0.57207716
247	0xbdc4d583	-0.09611037
248	0xbe102d9d	-0.140799
249	0x3e9f5d21	0.3112574
250	0x3e167e40	0.14696598
251	0x3e27ae3a	0.16375056
252	0x3e166254	0.14685947
253	0xbd949fe4	-0.07257059
254	0x3e62443c	0.22096342
255	0xbd6ba46a	-0.057529844

feat_layers.0.bias f4 [64]
0	0xbf32e36a	-0.69878256
1	0xbb869940	-0.0041076243
2	0xbf6c7032	-0.92358696
3	0xbea78921	-0.3272181
4	0xbf83aefb	-1.0287775
5	0xbde55d61	-0.11199451
6	0x3dee0a64	0.116230756
7	0x3f449e4d	0.7680405
8	0x3e01c304	0.12672049
9	0xc01a2cf0	-2.4089928
10	0x3f26a056	0.65088403
11	0x3fbf19d8	1.4929762
12	0x3e804d06	0.25058764
13	0xbf4fb422	-0.81134236
14	0x3eea37ca	0.4574569
15	0x406b5ba3	3.677468
16	0xbd9ea761	-0.07746769
17	0xbeda0de4	-0.42588723
18	0x3f32090b	0.6954505
19	0x3f840cd3	1.0316414
20	0x3cd088b5	0.025455812
21	0x3fa350d1	1.2759038
22	0x3f877fb0	1.0585842
23	0x4040c8ab	3.0122478
24	0x3ea464c7	0.32108137
25	0xbdc5b461	-0.09653545
26	0xbd308b1a	-0.043101408
27	0x3f8b004c	1.0859466
28	0x3e3eed0c	0.18645114
29	0x3f57cb5a	0.84294665
30	0xc00045b0	-2.0042534
31	0xbe9cf664	-0.3065673
32	0x3ebde059	0.37085226
33	0x3f56f25a	0.8396355
34	0xbd626fe4	-0.05528249
35	0x3f4a3686	0.78989446
36	0xbdbb2349	-0.091375895
37	0xbeb8367c	-0.35979068
38	0xbe8c35c6	-0.27384776
39	0x3f1d0dd4	0.61349225
40	0x3f5082f8	0.8144984
41	0x3dc9d3e9	0.09854872
42	0xbf565439	-0.83722264
43	0x3ee91433	0.45523223
44	0xbf436e10	-0.7633982
45	0x40834de8	4.10326
46	0xbee8019c	-0.45313728
47	0xbfdc289c	-1.7199893
48	0x3e14d6f5	0.14535125
49	0xbf6af0f7	-0.91773933
50	0x3fad664e	1.3546846
51	0xbe5a1b17	-0.21299396
52	0xbefb927a	-0.4913519
53	0xc0199296	-2.399572
54	0x3e875cfa	0.26438123
55	0xbf2651c6	-0.64968526
56	0xbf70b35a	-0.9402367
57	0xbf9464e9	-1.1593295
58	0x3d4cd2f3	0.050005864
59	0xbf58b1ab	-0.846461
60	0xbfa66f76	-1.3002765
61	0xc02450c8	-2.5674305
62	0x3ec93775	0.39300123
63	0x401bc926	2.4341521

feat_layers.1.weight f4 [64, 64]
0	0x3edd450f	0.4321675
1	0xbd156b0c	-0.03647904
2	0x3f2e7866	0.68152463
3	0x3ece2684	0.4026376
4	0x3efd0ff7	0.49426243
5	0x3efda94a	0.4954322
6	0x3f82b0e0	1.0210228
7	0x3ea13095	0.31482378
8	0x3f516b07	0.81803936
9	0x3f14408c	0.5791099
10	0x3f35d1e9	0.7102342
11	0x3e94c5c1	0.29057124
12	0x3f85d68e	1.0456102
13	0x3f3b1eb0	0.730937
14	0x3fb02a96	1.3762996
15	0x3f188a39	0.5958591
16	0xbee0a387	-0.4387476
17	0x3f374da0	0.7160282
18	0x3f1a7943	0.6034128
19	0x3fa271fb	1.2691034
20	0x3da5df92	0.08099283
21	0x3ee78be0	0.45223904
22	0xbecdfbc3	-0.4023114
23	0x3fa52fd9	1.2905227
24	0x3eb05169	0.3443711
25	0xbeca037d	-0.39455786
26	0x3fbb2509	1.4620677
27	0x3ee4c6e8	0.44683003
28	0x3f81eae3	1.0149807
29	0x3f158062	0.5839902
30	0x3f56b24f	0.8386583
31	0x3ec63f81	0.38720325
32	0x3ec8abf1	0.3919368
33	0x3dda7799	0.10667343
34	0x3e8277cd	0.25482026
35	0xbdb1e8e5	-0.08686999
36	0x3f4ccc29	0.79999024
37	0x3ebf0fe6	0.37316817
38	0x3f3511e7	0.7073044
39	0x3f9caccb	1.2240232
40	0x3f93f642	1.1559527
41	0x3f67ad6c	0.90498996
42	0x3f4ebc81	0.80756384
43	0x3f7ee40b	0.99566716
44	0x3fb07f5c	1.3788867
45	0xbe3f40d1	-0.18677069
46	0xbf030e94	-0.5119412
47	0xbeab26fe	-0.33428186
48	0x3ed1b4b3	0.40958175
49	0x3ecbdbf3	0.39816245
50	0x3f60a607	0.8775334
51	0xbe1d1775	-0.1534098
52	0x3ed409c6	0.41413707
53	0x3f3c0768	0.734488
54	0x3f8a49b3	1.0803741
55	0x3f3e97ca	0.7445036
56	0xbde8c177	-0.113650255
57	0xbed5dfcd	-0.4177231
58	0x3df46719	0.11933727
59	0x3f16f6ca	0.5897032
60	0xbe99f239	-0.30067614
61	0x3f7bcf7b	0.98363465
62	0x3f65953c	0.8968084
63	0x3e979c9a	0.29611665
64	0x3f2a1d8f	0.6645135
65	0x3f66bd33	0.90132445
66	0xbdc6f42e	-0.09714542
67	0xbe2ebd42	-0.17064384
68	0x3e0a3490	0.13496614
69	0xbee4f334	-0.447168
70	0x3e436825	0.19082697
71	0x3f110264	0.5664427
72	0xbe0a6457	-0.13514839
73	0x3f7347ba	0.9503132
74	0x3f4219e1	0.7582074
75	0xbe252453	-0.16127138
76	0xbd646500	-0.055760384
77	0x3f464a8c	0.774575
78	0x3c94b001	0.018150331
79	0x3ec375ac	0.38175714
80	0xbe248e2c	-0.1606986
81	0x3c8edec3	0.017440205
82	0x3e972764	0.2952224
83	0x3d62ad7e	0.055341236
84	0xba09c840	-0.0005255975
85	0x3ea6d7dc	0.32586563
86	0x3dd01c1e	0.10161613
87	0xbd62063f	-0.055181738
88	0x3e12b887	0.14328204
89	0xbe52595a	-0.20541897
90	0x3d67545f	0.056476947
91	0x3ec39a9c	0.38203895
92	0x3f00f2af	0.50370306
93	0x3f04d548	0.5188794
94	0xbe8253c3	-0.2545453
95	0x3fa16915	1.2610193
96	0x3fa8cd10	1.318758
97	0x3f1ef8ad	0.620982
98	0x3ed77f17	0.4208915
99	0x3edfaa74	0.43684733
100	0xbd7a88f6	-0.061165772
101	0x3e4f8705	0.2026635
102	0xbe3a05f8	-0.1816634
103	0xbe5df935	-0.21677096
104	0x3f4a3580	0.78987885
105	0xbd25578a	-0.040366687
106	0x3f70d544	0.9407542
107	0xbe8db1b6	-0.27674645
108	0xbef9a699	-0.48759916
109	0xbecaa643	-0.39579973
110	0x3e334d69	0.17509998
111	0xbf10090d	-0.5626381
112	0x3f42c594	0.7608273
113	0x3eca2e9d	0.39488688
114	0xbeaad26c	-0.33363664
115	0xbd09e3bc	-0.03366445
116	0x3ed900e1	0.42383483
117	0x3eacc2a1	0.3374224
118	0xbe7399bd	-0.23789115
119	0xbe0f58c9	-0.13998713
120	0x3aca248c	0.0015422269
121	0xbe901c57	-0.28146622
122	0x3f690f50	0.9103899
123	0xbd8f3525	-0.069925584
124	0xbe0370cf	-0.12836002
125	0xbdedfe4e	-0.116207704
126	0x3ef62a64	0.48079216
127	0x3dff22ba	0.124577954
128	0xbe244ac0	-0.1604414
129	0xbf3f6a5a	-0.74771655
130	0xbe228e6d	-0.15874644
131	0xbf066400	-0.5249634
132	0xbee06135	-0.43824163
133	0xbe0cfaca	-0.13767543
134	0xbf547068	-0.8298402
135	0x3e544649	0.20729937
136	0xbe98427f	-0.29738232
137	0x3c2a3a32	0.010389851
138	0xbea746ff	-0.32671353
139	0x3e15083a	0.1455392
140	0x3e2e19c1	0.17002012
141	0xbf2784da	-0.6543709
142	0xbe4554af	-0.19270585
143	0xbe95081c	-0.2910775
144	0xbe9508b1	-0.29108194
145	0xbe94af08	-0.29039788
146	0xbe87c941	-0.26520732
147	0xbf44f066	-0.7692932
148	0xbf02028a	-0.50785124
149	0x3edbba6f	0.42915675
150	0xbe947bb4	-0.29000628
151	0xbe940077	-0.28906605
152	0xbf08051b	-0.5313279
153	0x3e8ab17f	0.27088544
154	0x3f378bb4	0.71697545
155	0xbe630dec	-0.2217328
156	0xbf1db3bd	-0.61602384
157	0xbe7ceab4	-0.24698907
158	0xbd804e6e	-0.06264959
159	0xbfa2767d	-1.269241
160	0xbf34cc31	-0.7062407
161	0xbeaf7267	-0.3426697
162	0x3d0486c8	0.0323551
163	0xbeb2b727	-0.3490536
164	0xbe1f892f	-0.15579675
165	0xbe9d3396	-0.3070342
166	0xbf83aba6	-1.0286758
167	0x3d8558b8	0.065110624
168	0xbf336f1b	-0.7009141
169	0x3c34dcbe	0.011038957
170	0xbf03ec7c	-0.5153272
171	0xbe0240c4	-0.12720019
172	0x3e82fa18	0.2558143
173	0x3dbf293b	0.09334036
174	0x3cbe0c81	0.023199322
175	0x3eacd005	0.33752456
176	0xbf40f06e	-0.75366867
177	0x3bb2a4de	0.0054517826
178	0x3e993945	0.29926506
179	0xbe3686a6	-0.17824802
180	0x3d8a70ac	0.06759772
181	0xbf7537b4	-0.9578812
182	0xbdf2fcc8	-0.118646204
183	0xbde3356b	-0.11094173
184	0x3d929902	0.0715809
185	0x3f5c2ba6	0.860041
186	0xbf38c900	-0.721817
187	0xbc6844ff	-0.014176606
188	0x3d9cc87a	0.07655425
189	0x3e258ed7	0.1616777
190	0xbf67cd18	-0.90547323
191	0xbef4e5a3	-0.4783145
192	0x3f1736f8	0.5906825
193	0x3f292dc2	0.66085446
194	0xbe7e087b	-0.24807923
195	0x3e18061d	0.14846082
196	0x3f9c98fa	1.2234185
197	0xbe28f3cb	-0.1649925
198	0x3e3ea9a9	0.18619408
199	0x3e344ec9	0.17608179
200	0xbe53d4a6	-0.20686588
201	0x3ed7fcc1	0.42185023
202	0x3e8084e3	0.25101385
203	0xbe84c16d	-0.25928822
204	0xbe3b056a	-0.18263784
205	0x3ec011ca	0.37513572
206	0x3e9e6b84	0.30941403
207	0x3f4f0005	0.80859405
208	0xbf0ad543	-0.5423166
209	0xbefe2208	-0.4963534
210	0xbe4b79e8	-0.19870722
211	0xbe7ffa19	-0.24997748
212	0x3e038cd6	0.12846693
213	0xbda87ecf	-0.08227312
214	0x3de8bece	0.11364518
215	0x3d39049e	0.04517042
216	0x3c79401f	0.015213042
217	0x3becc054	0.0072250757
218	0xbe8baa78	-0.27278495
219	0x3e40c0e5	0.18823583
220	0x3e0fcc6d	0.14042826
221	0xbcc4b477	-0.024011834
222	0xbdd15069	-0.10220415
223	0x3e8f0dc0	0.27940178
224	0x3ef31220	0.47474766
225	0xbe68a128	-0.22717726
226	0xbe6436b0	-0.22286487
227	0x3f26cff0	0.6516104
228	0xbe9294e0	-0.28629208
229	0x3e252fd8	0.16131532
230	0x3eb2c346	0.34914607
231	0xbe29e40c	-0.16590899
232	0x3eff7d74	0.499004
233	0x3dffde59	0.12493581
234	0x3f1b6c42	0.60712063
235	0xbdc775a5	-0.09739236
236	0x3d27080e	0.040779166
237	0x3cccf272	0.02501795
238	0xbeb05b41	-0.3444462
239	0xbefbe723	-0.4919978
240	0x3e8b19a5	0.27168003
241	0x3d41906f	0.047256883
242	0xbec983e2	-0.3935843
243	0xbea25137	-0.31702587
244	0x3e88394b	0.2660621
245	0xbda341cc	-0.07971534
246	0xbd1a3559	-0.037648533
247	0xbe5d7a2a	-0.21628633
248	0x3e3df2f1	0.18549706
249	0xbdd452de	-0.10367368
250	0x3f1822d8	0.5942817
251	0x3d9548b4	0.07289258
252	0xbf71d6ba	-0.9446827
253	0xbdaf7b0e	-0.08568393
254	0xbeb49d6c	-0.35276353
255	0xbb6e5204	-0.0036364803

feat_layers.1.bias f4 [64]
0	0x406b056b	3.6722057
1	0xbf0cc6a7	-0.5499062
2	0x3eeea2f7	0.46608707
3	0xbd8da6e6	-0.06916599
4	0x3f1ee96b	0.6207492
5	0xbea2c1dd	-0.3178853
6	0x3ea8cd94	0.32969344
7	0xbfe4339f	-1.7828254
8	0xbf860beb	-1.0472387
9	0xbf78f17d	-0.9724348
10	0x3f2fbd42	0.6864816
11	0x3f55ea2c	0.8356044
12	0x3ed371af	0.4129767
13	0x3ed66877	0.41876575
14	0x3f1ddd99	0.61666256
15	0x3f04a5df	0.518156
16	0xbc6dd15b	-0.014515246
17	0x3fef2ad9	1.8684951
18	0x3f7ce7e5	0.9879134
19	0xbf0c738a	-0.548638
20	0xbe1437ff	-0.14474486
21	0xbe820328	-0.25393033
22	0xbf283baf	-0.6571607
23	0xbf60384d	-0.8758591
24	0xbf9661ef	-1.1748637
25	0x3f488270	0.7832403
26	0xc00519f3	-2.0797088
27	0x4022a0d0	2.5410652
28	0x3f6ff46e	0.93732345
29	0xbe34e2cc	-0.17664641
30	0xbf6ea46c	-0.9321964
31	0x3f0e9834	0.55700994
32	0xc0c4dce7	-6.1519656
33	0x3eaa9a77	0.33320972
34	0xbe6be7e4	-0.23037678
35	0x3f943c2d	1.1580864
36	0x3f5ce0d4	0.8628056
37	0x3d5e550b	0.054280322
38	0xbe4f42c8	-0.20240319
39	0x3feb257f	1.8370818
40	0x3fd55188	1.6665506
41	0x407264ce	3.7874026
42	0xbe44d724	-0.19222695
43	0x3d708e8d	0.058729697
44	0x3fa292b3	1.2701019
45	0x3e6eaec6	0.23308858
46	0x3ecf0a4a	0.40437537
47	0xbf09b492	-0.53791153
48	0x408d3fb4	4.4140263
49	0x3f682c19	0.9069229
50	0xbf167a9b	-0.5878083
51	0x3f561dd6	0.83639276
52	0x3dfcfc25	0.1235278
53	0xbf4573d8	-0.7712989
54	0x3e959c06	0.292206
55	0x3e3d75c4	0.18501955
56	0x3ea264a9	0.31717423
57	0x3f6de840	0.9293251
58	0xbefa365f	-0.48869607
59	0x3f97ba6f	1.185377
60	0xbeb84e8c	-0.35997427
61	0xbeb809de	-0.35945028
62	0x3ef19880	0.4718666
63	0x408e5ddd	4.448958

attn_layers.0.weight f4 [1, 128]
0	0xbda0119f	-0.07815861
1	0x3efa6b83	0.4891015
2	0xbd14d762	-0.036338218
3	0xbe89c430	-0.26907492
4	0xbd87ee56	-0.06637256
5	0xbe356913	-0.17715864
6	0xbde51a09	-0.111866064
7	0xbe88e04f	-0.26733634
8	0xbf018bd6	-0.50604
9	0x3e68d93f	0.22739123
10	0xbe5c36db	-0.215053
11	0xbe256631	-0.16152264
12	0xbeb95426	-0.36197013
13	0x3d7ab536	0.061207972
14	0xbf0602b5	-0.5234788
15	0xbd83514c	-0.064119905
16	0x3c9f1b8b	0.019422313
17	0x3e8344a7	0.25638315
18	0xbea74869	-0.32672432
19	0x3e8be497	0.27322838
20	0x3eab4115	0.3344809
21	0x3e1ec4e9	0.15504803
22	0xbdb49a29	-0.08818466
23	0x3ef1df4d	0.47240677
24	0xbec640fe	-0.3872146
25	0x3ea898e2	0.3292914
26	0x3d9505e5	0.07276515
27	0xbf2d9e03	-0.6781923
28	0xbe9f08a9	-0.31061295
29	0x3d9a5d8f	0.07537376
30	0x3e5a374e	0.2131016
31	0xbeaa9dce	-0.3332352
32	0xbe896883	-0.2683755
33	0xbe5578c8	-0.20846856
34	0xbe300004	-0.17187506
35	0x3e033c2b	0.12815921
36	0x3d939aac	0.07207236
37	0x3d11afe3	0.03556813
38	0xbea5add7	-0.32359192
39	0xbde871ff	-0.11349868
40	0xbf0f7641	-0.56039816
41	0xbf1e79e9	-0.6190477
42	0x3d1e404f	0.03863555
43	0x3e28ca25	0.16483362
44	0x3f262e0d	0.6491402
45	0x3c2a3416	0.010388395
46	0x3ec7dfa5	0.39037815
47	0xbe5734b4	-0.21016198
48	0xbf0e8472	-0.55670846
49	0xbea7b70f	-0.3275685
50	0xbe6acaf7	-0.22928987
51	0xbdbd671c	-0.09248182
52	0x3f091904	0.53553796
53	0xbe95d45a	-0.29263574
54	0x3eea0a61	0.45711043
55	0x3e0048c0	0.12527752
56	0xbd9de3d2	-0.07709469
57	0xbe894a81	-0.26814654
58	0xbe605894	-0.2190879
59	0x3f216678	0.6304698
60	0x3e22edd9	0.15911044
61	0xbea59212	-0.32338005
62	0x3eecffc4	0.46288884
63	0xbc3cca0e	-0.011522783
64	0x3da2c61a	0.07947941
65	0x3e080bdb	0.13285773
66	0x3ece21df	0.40260217
67	0x3e3733a2	0.1789079
68	0xba5ac783	-0.00083457696
69	0x3eb90887	0.36139318
70	0xbf7e3524	-0.99299836
71	0x3d84af7f	0.06478786
72	0x3e8f167c	0.27946842
73	0x3f577928	0.84169245
74	0x3d9e814c	0.07739505
75	0xbf69ad5b	-0.91280144
76	0x3f165ae2	0.58732426
77	0x3e8765fe	0.26445
78	0x3dfcff41	0.12353373
79	0xbf087b40	-0.53313065
80	0xbe9e24be	-0.30887407
81	0xbed49e12	-0.41526848
82	0xbf7d54e3	-0.9895765
83	0xbe29ffaa	-0.16601434
84	0xbf2e6ffc	-0.68139625
85	0xbebba301	-0.366478
86	0x3e5d419f	0.21607064
87	0xbeefe65f	-0.46855447
88	0xbe76825e	-0.24073169
89	0xbebbc473	-0.36673316
90	0x3ecc4f8d	0.39904442
91	0xbc8bbea3	-0.017058676
92	0x3ef30d2a	0.4747098
93	0xbf0656e5	-0.5247634
94	0xbdbba440	-0.091621876
95	0x3f350372	0.7070838
96	0xbdc0099a	-0.09376831
97	0xbf713eaa	-0.9423624
98	0x3f0b82e8	0.5449662
99	0xbe830dab	-0.25596365
100	0x3cb394bc	0.021921508
101	0x3e492ac2	0.19645217
102	0x3eda13ca	0.42593223
103	0xbe9353e3	-0.28774938
104	0xbe51d294	-0.20490485
105	0x3eb59103	0.35462198
106	0x3ec8492c	0.39118326
107	0xbea9c52f	-0.33158252
108	0x3d919c81	0.07109929
109	0xbef1dfe7	-0.47241136
110	0x3df6ba88	0.12047297
111	0x3f8e5d8a	1.1122296
112	0x3f0e67b3	0.5562698
113	0x3f3bb21d	0.73318654
114	0xbe2fa178	-0.17151439
115	0xbf07f262	-0.5310422
116	0xbe23f3b9	-0.16010942
117	0x3f1573cb	0.5837981
118	0xbe67a89d	-0.22622915
119	0x3f0d8995	0.5528806
120	0x3f0a090d	0.5392006
121	0x3f5ed2e9	0.87040573
122	0xbe43fc0f	-0.19139121
123	0x3f2028f5	0.62562495
124	0xbe722719	-0.23647727
125	0x3f6e4bcb	0.930844
126	0x3e650000	0.22363281
127	0xbf06ead7	-0.5270209

attn_layers.1.weight f4 [1, 128]
0	0xbed06ed9	-0.4070957
1	0x3e35b561	0.17744972
2	0x3e817e9b	0.25291905
3	0xbeb93996	-0.36176747
4	0x3f81d470	1.0142956
5	0x3dfd173e	0.12357949
6	0x3eac168e	0.33610958
7	0x3d735942	0.059411295
8	0x3e6b8e36	0.23003468
9	0xbedd725b	-0.4325131
10	0xbf02e6da	-0.511335
11	0x3f50f468	0.81622934
12	0x3f409280	0.7522354
13	0x3c379641	0.011205257
14	0x3ec087f4	0.37603724
15	0xbfb7db85	-1.4363867
16	0xbda68803	-0.08131411
17	0xbebe6273	-0.37184486
18	0xbe1b6729	-0.15176071
19	0x3d81cd6e	0.06338011
20	0x3e8640d5	0.26221338
21	0xbdf02b8d	-0.11727057
22	0x3e1c45eb	0.15261047
23	0x3e6a004e	0.22851679
24	0xbf880f2b	-1.0629629
25	0x3db8a6c2	0.090161815
26	0x3faefefa	1.3671563
27	0xbc97c5e7	-0.018526984
28	0x3ec41c12	0.38302666
29	0x3de5c4b4	0.11219159
30	0xbf4379fd	-0.76358014
31	0x3d873328	0.06601554
32	0xbd382822	-0.04496015
33	0xbeadab19	-0.339196
34	0xbd8c5d00	-0.06853676
35	0x3ea65328	0.32485318
36	0x3ed7b147	0.4212744
37	0x3e3d91c8	0.18512642
38	0x3e6c16fd	0.23055644
39	0x3e3ef629	0.1864859
40	0x3eb7cb47	0.35897276
41	0xbee07232	-0.43837124
42	0x3e13f454	0.14448673
43	0x3f02e5d8	0.51131964
44	0xbec63f2a	-0.38720065
45	0xbe5facae	-0.21843216
46	0x3e0efaa2	0.13962796
47	0xbd3d5ecb	-0.04623298
48	0x3e42003b	0.189454
49	0x3f4e45ed	0.8057545
50	0xbf0ad4b1	-0.5423079
51	0x3e4161a8	0.18884909
52	0x3d517921	0.05114091
53	0x3d97dca4	0.07415131
54	0x3adabfc9	0.0016689237
55	0x3ea006ae	0.31255096
56	0x3ef2c00a	0.4741214
57	0x3effb2c1	0.49941066
58	0xbd93ae90	-0.072110295
59	0x3f249d1c	0.6430223
60	0xbe23c5f9	-0.1599349
61	0xbfb92327	-1.4463853
62	0xbe83e360	-0.2575941
63	0xbec5dbb2	-0.38644177
64	0xbb6437a6	-0.0034823208
65	0xbf094b9c	-0.53630996
66	0xbd89f93b	-0.0673699
67	0x3f5580ed	0.8339985
68	0x3e8328dd	0.25617114
69	0x3efafef6	0.49022645
70	0x3f3b24b0	0.73102856
71	0xbe503c8a	-0.20335594
72	0x3f10eabf	0.56608194
73	0x3f849bd1	1.0360051
74	0x3c54879a	0.012971783
75	0xbe8ea9f1	-0.2786403
76	0x3f1f9128	0.62330866
77	0x3ea4f1ce	0.32215732
78	0xbf73655e	-0.9507655
79	0xbe1a6597	-0.15077816
80	0x3f379c16	0.71722543
81	0xbd651ae7	-0.05593386
82	0x3ee9a28c	0.45631826
83	0x3cfda575	0.030962685
84	0xbef987a8	-0.4873631
85	0x3e2a3730	0.16622615
86	0x3ec377d1	0.3817735
87	0xbf2ec717	-0.68272537
88	0x3da00469	0.07813341
89	0xbe1a29f5	-0.15055068
90	0x3de71df7	0.11285012
91	0xbe17a3b6	-0.14808545
92	0xbd397c9e	-0.04528486
93	0x3eeb2ee9	0.45934227
94	0xbedc7b57	-0.4306285
95	0x3e78d479	0.24299802
96	0xba66f46b	-0.0008810225
97	0x3e1dc71b	0.15407984
98	0xbef04d8c	-0.46934164
99	0x3e7c9ed2	0.2466996
100	0x3e8d58f7	0.27606937
101	0xbe2316f9	-0.15926732
102	0x3e1cb803	0.1530457
103	0xbe7e4b61	-0.24833442
104	0x3eb7a371	0.35866883
105	0xbec05257	-0.3756282
106	0x3ecb45eb	0.3970178
107	0xbd8c0b12	-0.06838049
108	0xbe8de02a	-0.27710086
109	0xbebaabb7	-0.36459133
110	0xbe39c494	-0.18141395
111	0x3ce5a258	0.028031513
112	0xbe8bdf6f	-0.27318904
113	0xbed345db	-0.41264233
114	0xbcefaa29	-0.029255943
115	0xbe142098	-0.14465559
116	0xbdab1b18	-0.08354777
117	0x3f230df6	0.6369318
118	0xbed61d1a	-0.41819078
119	0xbe910601	-0.28324893
120	0x3e8a7faa	0.27050525
121	0x3e612065	0.21985014
122	0x3e0ae830	0.13565135
123	0xbdde8782	-0.1086569
124	0x3e6050fe	0.21905896
125	0x3e7c73c7	0.2465354
126	0x3e7bacda	0.24577656
127	0x3d855242	0.0650983

fc.weight f4 [2, 64]
0	0x3b06dab7	0.0020577142
1	0x3ccaa236	0.024735551
2	0xbc0333e3	-0.008007976
3	0xbbd2907d	-0.0064259158
4	0x3d627a8b	0.055292647
5	0x3b6d7215	0.0036231328
6	0x3d532dd9	0.051557396
7	0x3d8b5e81	0.068051346
8	0x3da14ab7	0.07875579
9	0x3c98e628	0.018664435
10	0x3c83f2ee	0.016107049
11	0xbd5acf17	-0.053420153
12	0xbc4acd7c	-0.012378093
13	0xbc526afd	-0.012842891
14	0x3d5bd0bd	0.053665865
15	0xbcf5177d	-0.029918427
16	0x3d9c614c	0.076357454
17	0xbe04ddf6	-0.12975296
18	0xbdc10351	-0.09424461
19	0x3d680162	0.056641944
20	0x3d3be195	0.04586943
21	0xbb01bd6e	-0.0019796747
22	0x3d9e07f6	0.07716362
23	0x3d534bd8	0.051586002
24	0xbc5060e0	-0.012718409
25	0x3d7889ab	0.060678165
26	0xbb87b1fb	-0.00414109
27	0xbc66329a	-0.01405015
28	0xbd396408	-0.045261413
29	0x3d7ca694	0.0616823
30	0x3cf84896	0.03030805
31	0xbd38519f	-0.044999715
32	0xbd87cc81	-0.06630803
33	0xbe8c20e2	-0.27368838
34	0xbdd45102	-0.103670135
35	0xbdcb9cf9	-0.099420495
36	0x3d029c28	0.031887203
37	0x3e445be4	0.19175678
38	0x3c690f8c	0.014224898
39	0x3d429a56	0.047510467
40	0xbdc2dca8	-0.09514743
41	0xbd83fa87	-0.06444269
42	0x3e2a1309	0.16608824
43	0x3d8b8746	0.06812911
44	0xbd83e997	-0.06441038
45	0x3d3c8206	0.046022438
46	0xbe23a215	-0.15979798
47	0x3a8bedd2	0.0010675734
48	0xbdd1cf55	-0.102446236
49	0xbe053ac3	-0.13010697
50	0x3d11392c	0.035454914
51	0xbd75b3c3	-0.059985887
52	0x3d8cd916	0.06877343
53	0x3ca413bb	0.02002894
54	0xb9cffcb0	-0.00039670384
55	0x3d5d78d6	0.054070316
56	0x3cd63fa6	0.026153397
57	0xbcaead09	-0.021322744
58	0x3e05f2b3	0.13080864
59	0x3ca9f554	0.020746864
60	0x3d680b2b	0.056651276
61	0xbddb3e9f	-0.107053034
62	0xbc758369	-0.014984944
63	0x3d25a7d0	0.04044324
64	0xba9923f1	-0.0011683685
65	0xbdeaee70	-0.114712596
66	0xbca9fa9d	-0.020749385
67	0x3d3b0374	0.04565759
68	0x3d3763c8	0.044772893
69	0xbd4b41f5	-0.04962345
70	0x3ca337a7	0.019923998
71	0xbb7ffe2e	-0.0039061415
72	0x3d47bbdd	0.048763145
73	0xbd109285	-0.035295982
74	0x3d7008d7	0.05860218
75	0x3c644c0d	0.013934148
76	0x3de8b9ff	0.11363601
77	0x38fd418c	0.00012076189
78	0x3d317f14	0.04333408
79	0xbd56cad3	-0.052439522
80	0x3d3aa487	0.04556706
81	0xbd36753b	-0.044545393
82	0x3c04f6dd	0.008115497
83	0x3ce43fc9	0.027862446
84	0x3c06fd66	0.008239126
85	0xbd3ed95c	-0.04659401
86	0x3c83fa53	0.016110575
87	0x3e0aaa0d	0.13541432
88	0xbdc87e76	-0.097897455
89	0x3cdb656f	0.026781766
90	0x3d8ab0de	0.06772016
91	0xbd77f578	-0.06053683
92	0xbdbd7465	-0.09250716
93	0xbd30bfa8	-0.043151528
94	0xbcc78252	-0.024354134
95	0x3d93866b	0.072033726
96	0xbdce8429	-0.10083801
97	0x3e7ef88b	0.24899499
98	0x3d49b4f8	0.04924485
99	0xbe0b09e3	-0.1357799
100	0x3d0dfa55	0.034662563
101	0xbbe81b7b	-0.007083354
102	0x3c7eaebb	0.015544589
103	0x3d037b81	0.032100204
104	0xbcde483f	-0.027134059
105	0xbdaf5d96	-0.08562772
106	0x3d257808	0.040397674
107	0x3d4eb4f8	0.050465554
108	0xbdd2fe7d	-0.10302446
109	0x3b358a3b	0.00277008
110	0xbcd2bbc7	-0.025724305
111	0x3c2bae9e	0.010478644
112	0xbd493e3a	-0.04913161
113	0x3afcc3ce	0.0019284429
114	0xbc784464	-0.015153024
115	0xbda4f493	-0.08054461
116	0x3cae5504	0.021280773
117	0xbb3cf1ff	-0.0028830764
118	0xbbadbc2e	-0.005301974
119	0x3d640c7d	0.055675972
120	0xb9fc1c71	-0.00048086376
121	0xbd9665d5	-0.07343642
122	0x3da03ed6	0.07824485
123	0xbd1601bb	-0.036622744
124	0x3cd303c0	0.025758624
125	0xbd8fbd8b	-0.07018574
126	0x3cd33477	0.025781853
127	0xbbecc98d	-0.007226175

fc.bias f4 [2]
0	0x3f73144e	0.9495286
1	0xbf7dd01f	-0.9914569
