experiment/dynamic_eth/EGNN/EGNN_checkpoint.pt (torch_old, 92590 bytes, 6 tensors)

node_layers.0.weight f4 [64, 92]
-0.017355233 -0.2735895 -0.043969817 -0.0095167775 0.07468659 -0.010016207 0.006690226 -0.120929286
-0.1095679 -0.045411106 0.04062248 0.0972929 0.03510753 -0.010828539 -0.17133534 0.11401917
-0.08792702 0.381283 -0.12259602 0.002931769 0.0458771 0.031568658 -0.16452529 -0.08113437
-0.10604552 -0.008331351 0.03715568 -0.07885821 -0.056865793 -0.021731554 -0.08194532 -0.047451433
-0.009191729 -0.03902472 -0.066422805 -0.038142968 0.060045317 -0.15083419 -0.062147073 -0.032105714
-0.207677 0.022815011 -0.08737251 -0.15538976 -0.118371725 -0.0227631 0.051889114 -0.26013926
-0.17371625 0.0074948124 -0.03163682 0.06652952 -0.06894339 -0.10336832 -0.15261759 -0.041249406
0.060669865 -0.012113504 -0.110993765 0.119645864 -0.04197885 0.12162216 -0.04283861 0.51128775
-0.116074406 -0.060178053 -0.018355293 -0.09963442 -0.17902248 -0.08126725 -0.28082442 -0.110033214
0.046074312 -0.048566867 -0.016838362 -0.0034552875 -0.12881939 -0.105068825 0.098330095 0.045793433
0.04335299 -0.09976169 0.0030791739 -0.14394866 -0.03056857 0.018923355 0.3766393 -0.062364534
-0.045268457 0.008408419 -0.01180809 -0.04285877 0.08877177 -0.11740514 0.044171683 0.0011050177
0.093349114 0.0039688665 -0.017736576 0.0904224 0.14145905 -0.059723325 -0.08491389 0.056658305
-0.04649294 -0.084144585 0.037315175 -0.015278887 -0.011480118 -0.13665502 -0.06340778 0.00992092
-0.09124721 -0.026481329 0.04165687 -0.15828167 0.08034353 -0.042708475 -0.12062229 -0.14079586
-0.0268856 -0.04153704 -0.037039697 0.14053203 -0.044600762 -0.08633385 0.047743108 0.10852963
-0.029142784 -0.1975945 -0.028859634 -0.15890554 -0.057662964 -0.050356925 0.077353925 -0.004387207
-0.12797138 0.05134513 0.09849478 0.0036149344 0.010453396 -0.04320926 -0.03341701 0.0011405407
0.033654608 0.05543815 0.124915056 0.004461516 0.0732104 0.0466136 -0.07826053 0.004142582
0.008947049 -0.004602139 -0.028108373 -0.05335208 -0.008019491 0.02632731 -0.082251914 0.0037479168
0.0032217074 0.007271906 -0.048469864 -0.09743683 0.06111548 0.01973339 -0.08020985 -0.061076112
0.0877687 -0.021969104 -0.0744603 -0.019159542 0.06255357 -0.021032235 0.0017404828 -0.14345151
0.040871806 0.021429086 -0.1396637 -0.012991191 0.09348605 -0.016247248 -0.095182024 -0.018744651
-0.009747892 0.110896334 0.16973786 -0.10745234 -0.022492904 -0.013423766 -0.029577509 -0.11629987
0.0013213529 -0.059632786 0.084029704 -0.10326783 0.059402958 0.14948773 -0.17644556 0.01972602
0.053281482 0.0573332 0.023810305 -0.04857133 0.23804373 -0.030611292 -0.11669683 0.008151856
0.04712254 -0.028383963 -0.068188615 -0.009046617 -0.054270487 0.043188695 -0.12367396 -0.005011007
-0.0889579 -0.039288744 0.064372204 -0.031693343 -0.013196425 -0.01716911 -0.09069779 -0.15982915
0.07469703 -0.047058668 0.018776907 -0.008399281 0.0218197 -0.06825343 -0.13909762 0.039722938
0.097459815 0.015975615 -0.016179724 -0.011455625 0.06635212 -0.07917453 0.0029389728 0.0830242
0.16143018 -0.06436891 -0.022267442 0.11378567 -0.1128119 0.09429575 0.018069739 0.08996022
-0.07037055 -0.052124817 0.09055149 0.15971735 -0.062368434 -0.16163334 0.105319515 -0.0009549097
00000000: 902c 8ebc ec13 8cbe b219 34bd 42ec 1bbc
00000010: 48f5 983d 041b 24bc af39 db3b c6a9 f7bd
00000020: 2365 e0bd ff00 3abd c263 263d 8041 c73d
00000030: eacc 0f3d 2f6a 31bc 8872 2fbe e282 e93d
00000040: 1513 b4bd 8637 c33e 9f13 fbbd ec22 403b
00000050: a0e9 3b3d 234e 013d 5179 28be c729 a6bd
00000060: 652e d9bd 3880 08bc 8e30 183d 6a80 a1bd
00000070: 1bec 68bd 5f06 b2bc f3d2 a7bd 6f5c 42bd
00000080: e898 16bc 63d8 1fbd ae08 88bd cd3b 1cbd
00000090: 14f2 753d 4774 1abe ee8d 7ebd 4881 03bd
000000a0: 48a9 54be 8ce6 ba3c 5cf0 b2bd 7e1e 1fbe
000000b0: e06c f2bd ae79 babc ae89 543d f930 85be
000000c0: ace2 31be 0b97 f53b 9c95 01bd a140 883d
000000d0: 3132 8dbd c5b2 d3bd c947 1cbe 23f5 28bd
000000e0: f780 783d b877 46bc b350 e3bd e408 f53d
000000f0: 04f2 2bbd 0a15 f93d 8a77 2fbd c1e3 023f
00000100: 6bb8 edbd 437d 76bd d75d 96bc 210d ccbd
00000110: ab51 37be 726f a6bd 38c8 8fbe 1859 e1bd
00000120: 6bb8 3c3d 0dee 46bd 9bf0 89bc 1b72 62bb
00000130: 3be9 03be 532e d7bd 4a61 c93d e591 3b3d
00000140: e892 313d db4f ccbd f7cb 493b 4767 13be
00000150: f06a fabc 2705 9b3c ded6 c03e f471 7fbd
00000160: 6b6b 39bd 77c3 093c b876 41bc ad8c 2fbd
00000170: f9cd b53d 1b72 f0bd 5eed 343d 3ed6 903a
00000180: d22d bf3d 440d 823b 4c4c 91bc 612f b93d
00000190: a4da 103e 72a0 74bd 55e7 adbd 8a12 683d
000001a0: 626f 3ebd ff53 acbd ccd7 183d 4c54 7abc
000001b0: 1b17 3cbc 4bef 0bbe f0db 81bd 5b8b 223c
000001c0: d1df babd 5fef d8bc 65a0 2a3d 9714 22be
000001d0: 268b a43d 15ef 2ebd d208 f7bd ca2c 10be
000001e0: 313f dcbc be22 2abd f0b6 17bd a1e7 0f3e
000001f0: 4aaf 36bd cdcf b0bd 478e 433d c844 de3d
00000200: d9bc eebc 3656 4abe 0a6b ecbc 22b8 22be
00000210: 0030 6cbd 1043 4ebd bc6b 9e3d 8fc2 8fbb
00000220: ee0a 03be 454f 523d a2b7 c93d 89e8 6c3b
00000230: b844 2b3c 31fc 30bd 46e0 08bd 327e 953a
00000240: 6ad9 093d 1d13 633d 77d3 ff3d e931 923b
00000250: 56ef 953d e7ed 3e3d 0f47 a0bd 7fbe 873b
00000260: a596 123c 8acd 96bb 8843 e6bc b687 5abd
00000270: 2f64 03bc 5fac d73c b173 a8bd 9c9f 753b
00000280: 4823 533b 2b49 ee3b 5688 46bd f68c c7bd
00000290: 3a54 7a3d eba7 a13c 1045 a4bd f22a 7abd
000002a0: 14c0 b33d 8df8 b3bc a47e 98bd 79f4 9cbc
000002b0: 161c 803d cb4b acbc e920 e43a f4e4 12be
000002c0: 3269 273d 0d8c af3c 0004 0fbe 01d9 54bc
000002d0: 9d75 bf3d f318 85bc cbee c2bd 628e 99bc
000002e0: 9fb5 1fbc 9e1d e33d c3cf 2d3e f90f dcbd
000002f0: 0a43 b8bc 5bef 5bbc 884c f2bc a02e eebd
00000300: 3f31 ad3a 8241 74bd c417 ac3d 167e d3bd
00000310: 8450 733d 5013 193e 25ae 34be 7698 a13c
00000320: af3d 5a3d 38d6 6a3d d40d c33c bbf2 46bd
00000330: bcc1 733e 88c4 fabc bffe eebd 5d8f 053c
00000340: 9103 413d 7c85 e8bc 79a6 8bbd 4338 14bc
00000350: bb4a 5ebd a1e6 303d c648 fdbd 6033 a4bb
00000360: 8f2f b6bd 3ced 20bd 93d5 833d e1d0 01bd
00000370: d135 58bc 3ca6 8cbc c3bf b9bd 41aa 23be
00000380: c2fa 983d 97c0 40bd 07d2 993c 239d 09bc
00000390: 3abf b23c 74c8 8bbd 9b6f 0ebe 85b4 223d
000003a0: 0399 c73d 4bdf 823c 578b 84bc 60b0 3bbc
000003b0: 9fe3 873d 4226 a2bd c89b 403b 9708 aa3d
000003c0: f44d 253e d9d3 83bd 366a b6bc 7608 e93d
000003d0: ed09 e7bd 211e c13d fd06 943c 103d b83d
000003e0: 6f1e 90bd d580 55bd 0f73 b93d f28c 233e
000003f0: 0b76 7fbd 3683 25be c2b1 d73d e852 7aba

node_layers.0.bias f4 [64]
0.204089 -0.23123752 0.14032158 -0.18031749 -0.1421942 -0.09890208 -0.095241085 0.2791212
0.27616498 0.34309462 -0.11031598 0.1130629 -0.22953758 0.19214499 -0.002086535 0.26158783
0.44603497 0.30183408 0.48063242 0.020278558 -0.080578886 -0.13933001 -0.118390866 0.11172122
-0.087599136 0.29358947 0.02261802 0.38243076 -0.05058988 0.048006166 0.32023978 -0.12927686
0.1787227 -0.17784713 -0.22269371 0.1970556 0.18570445 0.22215667 -0.12453197 -0.03496514
-0.06537679 0.33828375 0.23012373 -0.009061511 -0.037745856 0.1867215 -0.11863038 0.38664418
-0.09342422 0.28965122 0.00021276364 -0.053742502 0.48789054 0.3053746 -0.010250182 -0.1140366
-0.3215086 -0.13203648 -0.2894664 -0.16018231 0.26406083 0.31870645 0.25433818 -0.0029079556
00000000: b5fc 503e 87c9 6cbe 76b0 0f3e 26a5 38be
00000010: 5b9b 11be 2c8d cabd c20d c3bd f9e8 8e3e
00000020: 7f65 8d3e 19aa af3e 58ed e1bd 868d e73d
00000030: e60b 6bbe a8c1 443e 40be 08bb d7ee 853e
00000040: b25e e43e ff89 9a3e 7415 f63e 381f a63c
00000050: 8b06 a5bd 87ac 0ebe e976 f2bd 18ce e43d
00000060: 2d67 b3bd 5c51 963e 6d49 b93c f7cd c33e
00000070: 5637 4fbd 1da2 443d 78f6 a33e 2761 04be
00000080: 1503 373e 8f1d 36be d209 64be f1c8 493e
00000090: 4f29 3e3e 0a7d 633e 9e0a ffbd 9b37 0fbd
000000a0: 44e4 85bd 8733 ad3e 8ea5 6b3e bb76 14bc
000000b0: 669b 1abd ec33 3f3e 7cf4 f2bd 3af6 c53e
000000c0: 3355 bfbd 2a4d 943e 4e19 5f39 1921 5cbd
000000d0: cacc f93e 0f5a 9c3e 61f0 27bc 058c e9bd
000000e0: c69c a4be 9234 07be f134 94be d506 24be
000000f0: fb32 873e 7e2d a33e 9d38 823e 6693 3ebb

node_layers.1.weight f4 [64, 256]
0.22011718 0.048230007 0.09120319 0.04570069 0.048644457 -0.050339166 0.010688368 0.19730644
-0.06396505 4.999522e-06 -0.06747911 0.0021897773 -0.13459286 0.16951622 -0.005949268 0.17392
0.15580916 0.0018684793 -0.15721157 -0.03158935 0.07541422 -0.009556125 0.03463588 0.013551738
0.017255956 0.29205063 -0.030150948 0.11733341 -0.07101924 0.02010126 0.18559684 0.09982224
0.23302673 -0.02311175 -0.01751792 0.00086139055 0.016660742 -0.041926518 0.104191236 -0.025335137
-0.09350872 0.0011407334 0.0031194598 -0.017090486 0.019968819 -0.01949761 -0.009200938 -0.040118597
-0.1259638 -0.07179911 0.008822418 -0.0047507915 -0.027888274 -0.0313362 0.006264224 -0.053187184
-0.0023865197 0.0029801715 0.011441124 0.011823273 0.20825037 -0.027890889 -0.08777289 0.12814608
0.038006164 0.19579072 0.06485609 0.017198546 0.068502285 0.1608847 0.01826543 -0.02989669
0.19870582 0.32317227 0.1168294 0.079234585 -0.00615054 0.089022085 -0.026963787 0.034378435
0.3009904 0.2559904 -0.10076901 0.00039459183 -0.058954775 0.04706294 0.1488325 0.18012531
0.14655273 -0.035135552 0.1490148 -0.030922292 0.047741797 0.26821506 0.09738542 0.15886268
0.034465197 0.17518538 0.097149014 0.05793583 0.19994253 0.034325868 0.033998996 0.12623675
0.022892663 0.058770232 0.15175955 0.20998481 0.16206579 0.2640189 0.03402354 -0.026493238
0.11991269 0.336214 -0.07602161 0.0899733 -0.0029913136 0.20480178 0.21824777 0.12303212
-0.041713297 -0.07744448 0.0016325259 0.16587918 0.037221354 0.15730026 0.08174107 -0.044716593
0.25826636 -0.019059878 0.12674215 0.066587895 0.0009640755 0.025546616 0.04052131 0.21547739
-0.10024094 -0.014514597 -0.052218582 0.025399785 -0.0668697 0.17720827 0.09239551 0.17046025
0.140182 0.018132482 -0.064563416 -0.0055873203 0.07373764 0.02154368 -0.0082507515 -0.035620652
-0.00012918201 0.22064781 0.04150099 0.1409795 -0.0660902 0.031021286 0.20726836 0.12071721
0.22303435 -0.02346571 -0.049425744 0.027342493 -0.008821806 0.06400574 0.19302478 -0.040255755
-0.0062127733 0.05998584 -0.026479265 0.029219583 0.0075846724 0.016595198 0.012006916 -0.013340467
-0.03204382 -0.051338714 -0.10815703 0.045336768 0.017836267 0.010175488 -0.07092006 -0.027915291
0.03384351 -0.091631316 0.015465888 -0.008967255 0.20783894 -0.0044802176 -0.10961306 0.1296554
0.19090062 0.0025212124 0.05883479 0.035773844 0.04136777 0.017624812 -0.07120944 0.18187733
-0.01526385 -0.0014259636 -0.00092856237 0.07508481 -0.092619814 0.2502549 0.089676894 0.09641965
0.15766929 -0.031994596 -0.052080896 0.022872608 0.08726983 -0.09094858 -0.04015513 -0.06531891
0.009186175 0.25341392 0.027408604 0.060874157 -0.04980821 0.03979087 0.24412014 0.051903863
0.20735636 -0.056540184 0.003321907 0.015307961 0.022290315 -0.017292818 0.1571975 0.037226442
-0.109832205 0.062449735 0.007266527 0.045037568 0.021090526 0.03072916 -0.03949619 -0.07048403
-0.08214704 -0.02378857 -0.04553135 -0.059081554 -0.041903626 -0.039533112 -0.017532192 -0.040025298
0.03798972 -0.0061342986 0.025110926 0.037425373 0.16018361 0.015694525 -0.025710827 0.176282
00000000: 6666 613e d48c 453d bdc8 ba3d a630 3b3d
00000010: 693f 473d 7130 4ebd 441e 2f3c b30a 4a3e
00000020: 1c00 83bd 91c1 a736 7d32 8abd 5e82 0f3b
00000030: b6d2 09be a995 2d3e 14f2 c2bb 1618 323e
00000040: 708c 1f3e c3e7 f43a 12fc 20be d663 01bd
00000050: c572 9a3d 4b91 1cbc 5ade 0d3d 1c08 5e3c
00000060: 5d5c 8d3c a987 953e 1fff f6bc 804c f03d
00000070: 8972 91bd 66ab a43c 190d 3e3e 9a6f cc3d
00000080: 8f9e 6e3e da54 bdbc be81 8fbc f1ce 613a
00000090: 1c7c 883c 24bb 2bbd 3762 d53d a28b cfbc
000000a0: 8081 bfbd a984 953a da6f 4c3b 5901 8cbc
000000b0: a695 a33c 74b9 9fbc 88bf 16bc 6653 24bd
000000c0: a8fc 00be 690b 93bd e78b 103c 87ac 9bbb
000000d0: f375 e4bc 635a 00bd 1f44 cd3b ceda 59bd
000000e0: 2867 1cbb fb4e 433b 8d73 3b3c 67b6 413c
000000f0: 963f 553e 6f7b e4bc 46c2 b3bd ba38 033e
00000100: 5aac 1b3d 5d7d 483e 45d3 843d f7e3 8c3c
00000110: ed4a 8c3d f5be 243e 62a1 953c e7e9 f4bc
00000120: 8a79 4b3e d676 a53e 4144 ef3d be45 a23d
00000130: 788a c9bb 3651 b63d 29e3 dcbc 67d0 0c3d
00000140: 6a1b 9a3e 2c11 833e fc5f cebd 38e1 ce39
00000150: 907a 71bd 12c5 403d 8c67 183e c572 383e
00000160: eb11 163e 4cea 0fbd 5697 183e bf50 fdbc
00000170: e78c 433d 7c53 893e 0272 c73d e6ac 223e
00000180: 612b 0d3d cc63 333e 10f6 c63d 1f4e 6d3d
00000190: bcbd 4c3e 4899 0c3d 8842 0b3d 3544 013e
000001a0: 6589 bb3c 0eb9 703d db66 1b3e 4206 573e
000001b0: 93f4 253e 7c2d 873e 445c 0b3d 5908 d9bc
000001c0: c994 f53d 3e24 ac3e 38b1 9bbd ec43 b83d
000001d0: ea09 44bb 8fb7 513e 587c 5f3e 44f8 fb3d
000001e0: 90db 2abd 369b 9ebd 7bfa d53a 3bdc 293e
000001f0: 6b75 183d 5213 213e dd67 a73d bf28 37bd
00000200: 7d3b 843e 7623 9cbc b2c8 013e 3c5f 883d
00000210: 03ba 7c3a 2347 d13c acf9 253d 1ba6 5c3e
00000220: 1f4b cdbd a2ce 6dbc 27e3 55bd 3613 d03c
00000230: fbf2 88bd 1676 353e db39 bd3d 228d 2e3e
00000240: df8b 0f3e 928a 943c d339 84bd d715 b7bb
00000250: c303 973d 5f7c b03c 292e 07bc f6e6 11bd
00000260: 0875 07b9 80f1 613e f1fc 293d ee5c 103e
00000270: 4c5a 87bd 5a20 fe3c 283e 543e 963a f73d
00000280: 1e63 643e 293b c0bc a672 4abd 5dfd df3c
00000290: 5689 10bc 7115 833d 4aa8 453e 38e3 24bd
000002a0: 8594 cbbb b6b3 753d 0beb d8bc e85d ef3c
000002b0: d888 f83b a7f2 873c a8b8 443c f991 5abc
000002c0: 6140 03bd 8b48 52bd 6f81 ddbd 0cb3 393d
000002d0: 5d1d 923c 17b7 263c 893e 91bd 9cae e4bc
000002e0: 7e9f 0a3d 33a9 bbbd a364 7d3c 65eb 12bc
000002f0: bbd3 543e cace 92bb d07c e0bd 63c4 043e
00000300: 747b 433e ed3a 253b c0fc 703d 9887 123d
00000310: 4071 293d e961 903c 41d6 91bd 0d3e 3a3e
00000320: 3a15 7abc 66e7 baba c46a 73ba 11c6 993d
00000330: 75af bdbd 6921 803e 85a8 b73d aa77 c53d
00000340: 0f74 213e c40c 03bd c752 55bd 565f bb3c
00000350: 86ba b23d 4043 babd b579 24bd ecc5 85bd
00000360: 9c81 163c 78bf 813e 0288 e03c 2e57 793d
00000370: b203 4cbd c0fb 223d a1fa 793e 2599 543d
00000380: 3a55 543e ae96 67bd 5ab4 593b 3ece 7a3c
00000390: 2e9a b63c aba9 8dbc 62f8 203e c17a 183d
000003a0: b5ef e0bd 4bcb 7f3d 0c1c ee3b 5079 383d
000003b0: 0ac6 ac3c b8bb fb3c c2c6 21bd ee59 90bd
000003c0: b53c a8bd 3fe0 c2bc 157f 3abd 80ff 71bd
000003d0: 23a3 2bbd 79ed 21bd ac9f 8fbc 91f1 23bd
000003e0: 1c9b 1b3d 3a02 c9bb 6eb5 cd3c 594b 193d
000003f0: 2c07 243e ce91 803c 839f d2bc 4583 343e

node_layers.1.bias f4 [64]
0.028175516 0.5741902 -0.014398643 0.12521194 -0.0022490283 -0.03600056 0.11343192 -0.00026736574
0.09131842 0.1426563 0.27748153 -0.0166928 -0.0037546833 0.0022881115 -0.09376536 0.24297273
-0.00957892 0.37811208 0.16619116 0.33825004 0.6535497 -0.089995004 0.28674057 0.1630799
-0.0032053117 0.30018136 -0.10283994 0.18010741 0.28239232 -0.15368949 0.49541625 0.16969758
-0.014711939 -0.0015399387 0.36696056 0.031364135 0.31369835 -0.0018518659 0.024059612 0.10088591
0.48035142 -6.0396655e-05 0.6209647 0.21085112 -0.017211681 -0.0029845315 0.32396403 -0.0016423964
0.15415572 -0.004026726 -0.04126362 0.06583395 0.2364229 0.08895871 -0.06488204 0.19048013
-0.004039438 -0.17199655 -0.09361427 0.1055851 0.43099278 0.24681702 -0.16598651 0.31152079
00000000: 57d0 e63c 21fe 123f 49e8 6bbc 8f37 003e
00000010: 6f64 13bb 5375 13bd ff4e e83d 392d 8cb9
00000020: 2705 bb3d 7e14 123e 0f12 8e3e 57bf 88bc
00000030: 2211 76bb 24f4 153b 0e08 c0bd d8cd 783e
00000040: e7f0 1cbc e897 c13e 042e 2a3e 1c2f ad3e
00000050: 084f 273f 4d4f b8bd a9cf 923e 6bfe 263e
00000060: 3510 52bb 5fb1 993e bf9d d2bd 146e 383e
00000070: ba95 903e c760 1dbe 33a7 fd3e 34c5 2d3e
00000080: 580a 71bc c5d7 c9ba 41e2 bb3e ae77 003d
00000090: 129d a03e 4fba f2ba aa18 c53c 469d ce3d
000000a0: 9ff0 f53e 6a52 7db8 8bf7 1e3f 5be9 573e
000000b0: 83ff 8cbc 2198 43bb 9dde a53e ae45 d7ba
000000c0: ffda 1d3e a0f2 83bb 0b04 29bd f3d3 863d
000000d0: d818 723e fc2f b63d e0e0 84bd 390d 433e
000000e0: 435d 84bb dd1f 30be d7b8 bfbd 003d d83d
000000f0: 16ab dc3e 9abd 7c3e 5ef8 29be a77f 9f3e

fc.weight f4 [7, 64]
-0.18240471 -0.5905992 0.030912587 -0.09229033 -0.24012727 -0.17941546 -0.1336844 -0.15339051
-0.16701852 -0.10050619 0.05545087 -0.075235285 -0.14117883 -0.0031837963 -0.1805922 -0.019724933
-0.028148323 -0.16827305 0.058385126 -0.069125436 -0.32674426 0.06761001 -0.25081295 0.004941485
-0.17120925 -0.09240097 0.13042416 0.14859548 -0.01589632 0.1247761 -0.17423026 -0.03996305
-0.05271226 0.015597536 -0.43481824 -0.051200587 -0.021564335 0.021473605 -0.06802479 -0.074124254
-0.033464108 -0.10875175 -0.5845452 -0.108111225 -0.038992308 -0.050468832 -0.11429802 -0.18320745
0.051327262 -0.11260944 0.151537 -0.03256181 -0.18484847 -0.2579087 0.08827139 -0.05818721
-0.08518723 -0.011731367 -0.0524143 0.028510282 -0.44255903 -0.13522683 0.14594574 -0.011938345
0.18669666 0.042016905 -0.073391736 -0.09145709 0.13971646 -0.057206813 0.12349869 0.16803513
-0.13342743 -0.09417658 -0.07389552 -0.058964033 0.15676594 -0.15864891 0.079201564 0.08249689
0.03144184 -0.09227957 -0.002012784 -0.15614851 -0.2480478 0.15700193 -0.10522145 -0.0064016995
0.052292306 0.11858523 -0.015427136 0.0047317226 -0.029074904 -0.06349997 -0.24852848 0.11162977
-0.05559811 0.059635244 -0.13242458 -0.031074699 0.05612292 -0.0076160366 0.1489902 0.116242185
-0.053682774 -0.1725754 -0.095635384 -0.08141741 0.063935354 0.14535551 0.10537985 0.010604057
-0.07341143 -0.110149845 -0.009652763 0.07974459 0.04101133 0.026439346 -0.105656184 0.011448605
-0.09374462 0.04453289 0.05801733 -0.028230047 -0.019918045 0.1344642 0.08209516 -0.06111937
0.034602176 -0.4893016 -0.119655505 0.13102633 -0.22224908 -0.03407319 -0.18238354 -0.25526077
0.0944762 0.012290015 -0.09128919 0.0986822 -0.15753277 0.05526535 0.04372325 0.059715707
0.04001405 -0.022584362 -0.04988571 0.02674255 -0.44089004 0.025963815 -0.16840428 -0.16898336
-0.08702302 -0.020003373 0.111889094 -0.015625501 0.09813774 -0.06052413 0.20274208 -0.020094851
0.012511867 -0.06332945 -0.30800703 0.24323235 0.014377891 -0.038787197 -0.11694232 -0.24976791
0.20417844 0.059014555 -0.3708489 -0.069618195 0.004924618 -0.1613175 0.108881444 -0.10466638
0.068523034 -0.06600917 0.07879095 -0.15320611 -0.09180342 -0.031949807 -0.025973747 0.04415689
-0.13859887 0.09014609 -0.027583176 -0.049002383 -0.28965858 -0.100337625 -0.059077293 0.03926999
-0.15368599 0.47651368 -0.086176716 0.066495895 -0.07394554 -0.037144978 -0.0003141891 -0.23722845
-0.068692036 -0.012699956 0.08758056 -0.052803565 -0.13705856 -0.093604825 -0.09198117 0.095050946
-0.09074045 0.18299392 0.015630713 0.15796065 0.27877825 -0.0075254287 0.09759951 0.07915696
-0.18241511 0.096569575 0.0013102053 0.09805016 0.05000449 -0.037294026 0.28589937 0.057723325
-0.025174677 -0.10790136 0.18951951 -0.12581985 0.029579619 -0.13061643 -0.05390854 0.029829983
0.19438708 -0.11672873 0.42335048 0.11294485 -0.071215406 -0.05907836 0.060713056 -0.13833618
0.053968742 -0.07159258 -0.09417266 -0.017216079 0.10713649 0.016973808 -0.112534225 0.028367942
-0.14072326 -0.11966611 -0.14253545 0.042711664 0.2954264 0.071805 -0.17179286 0.06763213
00000000: 4dc8 3abe 8231 17bf 653c fd3c b602 bdbd
00000010: ece3 75be b0b8 37be 90e4 08be 6712 1dbe
00000020: e706 2bbe 30d6 cdbd 7420 633d f514 9abd
00000030: 2f91 10be 3da7 50bb 29ed 38be 2f96 a1bc
00000040: 5097 e6bc c54f 2cbe 3e25 6f3d a391 8dbd
00000050: 064b a7be 1e77 8a3d 8e6a 80be 2eec a13b
00000060: 7a51 2fbe b83c bdbd e98d 053e 6a29 183e
00000070: 0039 82bc 9d8a ff3d 6b69 32be 4cb0 23bd
00000080: d0e8 57bd cf8c 7f3c 7fa0 debe b5b7 51bd
00000090: b0a7 b0bc 6ae9 af3c 9550 8bbd 75ce 97bd
000000a0: a911 09bd 3db9 debd c1a4 15bf 6b69 ddbd
000000b0: 66b6 1fbd 68b8 4ebd 1515 eabd bc9a 3bbe
000000c0: 893c 523d c79f e6bd 842c 1b3e 885f 05bd
000000d0: eb48 3dbe 9c0c 84be a1c7 b43d b655 6ebd
000000e0: a476 aebd eb34 40bc 61b0 56bd 658e e93c
000000f0: 1997 e2be e778 0abe cd72 153e 0c99 43bc
00000100: 692d 3f3e eb19 2c3d 684e 96bd db4d bbbd
00000110: d511 0f3e b151 6abd e2ec fc3d 6711 2c3e
00000120: 33a1 08be a7df c0bd 8956 97bd 4584 71bd
00000130: 4087 203e dc74 22be 6e34 a23d 21f4 a83d
00000140: 29c9 003d 12fd bcbd e9e8 03bb 65e5 1fbe
00000150: 3e00 7ebe 1dc5 203e 587e d7bd 59c5 d1bb
00000160: 7530 563d d0dc f23d 19c2 7cbc 910c 9b3b
00000170: 7e2e eebc 460c 82bd 407e 7ebe 269e e43d
00000180: d8ba 63bd 1644 743d 4f9a 07be 5e90 febc
00000190: 26e1 653d f28f f9bb e390 183e 6210 ee3d
000001a0: 78e2 5bbd 9bb7 30be 7cdc c3bd 2cbe a6bd
000001b0: 8af0 823d 13d8 143e 64d1 d73d a4bc 2d3c
000001c0: bb58 96bd 3e96 e1bd 9f26 1ebc 2251 a33d
000001d0: 7ffb 273d 5497 d83c 4562 d8bd ee92 3b3c
000001e0: 2efd bfbd 1f68 363d 94a3 6d3d b342 e7bc
000001f0: 2b2b a3bc fcb0 093e 8221 a83d 4e58 7abd
00000200: 03bb 0d3d bd85 fabe f20d f5bd c42b 063e
00000210: 4395 63be 5490 0bbd c0c2 3abe 8ab1 82be
00000220: bd7c c13d 0f5c 493c d4f5 babd e519 ca3d
00000230: 4550 21be eb5d 623d 2717 333d 7598 743d
00000240: c6e5 233d d702 b9bc f554 4cbd 3113 db3c
00000250: 57bc e1be 11b2 d43c 2c72 2cbe f909 2dbe
00000260: 2039 b2bd 1dde a3bc 1c26 e53d 0d01 80bc
00000270: 70fc c83d 26e8 77bd 9f9b 4f3e f59d a4bc
00000280: 93fe 4c3c dfb2 81bd 19b3 9dbe e711 793e
00000290: 3f91 6b3c 53df 1ebd 747f efbd 29c3 7fbe
000002a0: 2714 513e 3fb9 713d e8df bdbe fc93 8ebd
000002b0: b15e a13b 6a30 25be 3cfd de3d 545b d6bd
000002c0: ce55 8c3d d12f 87bd 265d a13d 10e2 1cbe
000002d0: 6e03 bcbd cddd 02bd e5c6 d4bc dbdd 343d
000002e0: ddec 0dbe 839e b83d 1df6 e1bc b9b6 48bd
000002f0: 214e 94be d07d cdbd 08fb 71bd 92d9 203d
00000300: dc5f 1dbe 9af9 f33e 6b7d b0bd 002f 883d
00000310: c270 97bd 5525 18bd bfb9 a4b9 04ec 72be
00000320: 69ae 8cbd 7a13 50bc 705d b33d 8d48 58bd
00000330: 1459 0cbe e3b3 bfbd a060 bcbd 12aa c23d
00000340: 21d6 b9bd c262 3b3e fb0b 803c 70c0 213e
00000350: 06bc 8e3e df97 f6bb 40e2 c73d 0b1d a23d
00000360: 07cb 3abe 45c6 c53d 32bb ab3a 86ce c83d
00000370: 82d1 4c3d 9fc1 18bd 6761 923e 4b6f 6c3d
00000380: 203b cebc 63fb dcbd 6711 423e ebd6 00be
00000390: f550 f23c 50c0 05be 34cf 5cbd 025e f43c
000003a0: 680d 473e 790f efbd 65c1 d83e a14f e73d
000003b0: 62d9 91bd 27fc 71bd 41ae 783d 00a8 0dbe
000003c0: 540e 5d3d 219f 92bd 98dd c0bd bc08 8dbc
000003d0: 606a db3d a80c 8b3c 5878 e6bd e363 e83c
000003e0: c219 10be 8113 f5bd d0f4 11be 6df2 2e3d
000003f0: 2142 973e 800e 933d 78ea 2fbe b782 8a3d

fc.bias f4 [7]
-0.25301766 -0.116258435 0.012487038 0.15465857 -0.1535349 0.016758915 -0.2629522
00000000: 888b 81be e718 eebd 6f96 4c3c d15e 1e3e
00000010: 4138 1dbe fe49 893c aca1 86be
