experiment/saml_20/ECConv/ECConv_checkpoint.pt (torch_old, 136537 bytes, 10 tensors)

node_layers.0.layer.weight f4 [64, 23]
000000 85 46 ba 3e 02 c4 0d 3e 19 24 0e be 21 a6 36 3e
       0.36381927 0.13844302 -0.13880958 0.1783681
000010 1c 56 c3 be b2 b0 75 bd 90 ea 08 3f f3 fa 4b 3c
       -0.38151634 -0.059982963 0.53482914 0.012449968
000020 73 07 c3 3e 17 61 d8 be 4a a9 8b 3e 4c 01 25 3e
       0.3809162 -0.42261574 0.27277595 0.16113776
000030 c7 ce ca bd b9 4c 99 bf 38 87 10 bf 39 89 d5 3e
       -0.09902721 -1.1976539 -0.5645633 0.41706255
000040 72 04 c0 bd 8f 12 26 be db 1b a3 3f 63 4d bd 3d
       -0.09375848 -0.16218017 1.2742876 0.09243276
000050 b8 71 bb 3e 9c 27 68 bf bd bb aa 3c 2f f2 fe be
       0.36610198 -0.9068544 0.020841474 -0.49794146
000060 91 47 21 be dd 50 df bf 8b 7f a8 3e 33 f5 35 bf
       -0.15749957 -1.7446553 0.32909808 -0.7107727
000070 a1 50 a7 bf 3b d6 26 3f 0e f9 a3 bd 3b 28 1b bf
       -1.3071481 0.6517064 -0.08006488 -0.6060826
000080 e6 1c 22 be d1 c9 e8 3d c6 e4 c9 bd bc be c6 be
       -0.15831336 0.113666184 -0.09858088 -0.38817394
000090 b4 da db be 6a 00 8e 3c f9 17 84 bf 98 df ee bf
       -0.42940295 0.017334182 -1.0319816 -1.8661985
0000a0 31 2e 24 3f 2e e7 f9 3e c0 55 f1 bf 4b 78 39 3f
       0.6413298 0.4880919 -1.8854294 0.7244918
0000b0 ed 21 03 3f 51 de 0d c0 03 f5 87 3d d4 db 94 be
       0.5122364 -2.216694 0.06638529 -0.29073966
0000c0 45 6d 97 3d 94 d2 91 bc 80 45 d6 3f f1 21 50 3f
       0.073938884 -0.017800607 1.673996 0.8130179
0000d0 79 cc 90 3e b0 46 22 bf 08 d1 9e 3c 62 6d 17 bc
       0.28281 -0.6338911 0.019386783 -0.0092423875
0000e0 71 3b 23 bf b4 e7 ab 3e 3a 39 73 bf b5 cf bb bf
       -0.63762575 0.33575213 -0.95009196 -1.4672762
0000f0 d7 d2 32 bf 0a ef 85 bf 0b df a0 bf 67 f4 1a 3f
       -0.69852966 -1.0463574 -1.2568067 0.6052918
000100 57 bb 0d bf 07 da 22 be b9 52 3f 3e 73 e4 83 3e
       -0.5536398 -0.15903483 0.186839 0.2576023
000110 f7 dc b1 bf 51 54 2a 3f 3c 75 27 3f 48 18 99 be
       -1.3895558 0.66534907 0.6541326 -0.29901338
000120 2e 21 c6 3e f6 9d 1f 3d 24 3e 48 bf cb 1a fc 3c
       0.3869719 0.038969003 -0.7821982 0.030774495
000130 dc a8 84 3d eb 8c d1 3e 12 ce 8a be 95 fe fa bc
       0.0647752 0.40927824 -0.27110344 -0.030638972
000140 48 b0 9a 3e d0 19 21 3e b9 89 12 bf d3 ca ef be
       0.30212617 0.15732503 -0.572414 -0.4683443
000150 5e cc 05 3e 9b 08 b3 3d b1 e5 3f be 18 15 1e bd
       0.13066241 0.08741876 -0.18739964 -0.038594335
000160 b8 6b 59 3e 40 af 83 3d ba f7 9d 3c 00 96 c3 3d
       0.21232498 0.06429911 0.019283164 0.095500946
000170 00 54 22 be b5 c6 7f 3e 23 a8 63 be 42 36 f5 3e
       -0.15852356 0.24978144 -0.22232108 0.47892958
000180 68 ad 62 be fc 45 8b 3e 20 1a 86 3e 6e c5 28 be
       -0.22136462 0.2720183 0.26191807 -0.16481563
000190 d6 a7 cd 3d bb f8 02 be 3a 94 5d bf 39 dc 89 3e
       0.10041778 -0.12790196 -0.865543 0.2692583
0001a0 c8 69 c8 be 96 69 0a bf 0a aa 4c bd 13 b8 4a bf
       -0.39143205 -0.5406736 -0.04996685 -0.79187125
0001b0 3f 9b c7 be 99 78 3c 3f c3 f8 d6 3e 14 8f 54 be
       -0.3898563 0.7362152 0.41986665 -0.20757705
0001c0 1c 02 d4 be c8 6b 27 bf 3d 09 91 bf ae 73 4f bf
       -0.4140786 -0.65398836 -1.1330944 -0.8103589
0001d0 3d 48 19 bd 11 07 aa be bc 93 a9 3e 55 3a 9e 3e
       -0.037422407 -0.33208516 0.33120525 0.3090388
0001e0 be 2c a8 3e 12 1f 20 bf 2b 0c 66 3f 38 70 08 3f
       0.32846636 -0.6254741 0.89862317 0.5329623
0001f0 40 10 32 3e c9 2c f7 bd e3 4f f1 3e 90 f7 c0 be
       0.17389011 -0.12069089 0.4713126 -0.37688875
000200 39 43 48 bf eb 32 2d bf b4 b3 c5 3e 79 8a e9 bf
       -0.78227574 -0.6765582 0.38613665 -1.8245384
000210 e9 3d 81 3e 55 df e5 3d d7 a1 e6 be 42 27 36 bf
       0.25242546 0.11224238 -0.4504535 -0.7115365
000220 87 a3 4c bc ad 9e af 3e d4 e9 06 3c 94 48 fc bd
       -0.01249016 0.34300748 0.00823446 -0.12318531
000230 73 a4 2c bf 9e 97 1b be 29 58 90 3c 4f af c6 3e
       -0.6743843 -0.15194556 0.017620163 0.38805625
000240 7e 17 3c bf 3d de 19 be 95 18 2f be 67 c0 ac bc
       -0.73473346 -0.15026183 -0.17099221 -0.021087838
000250 01 47 8c 3d 79 cf d8 3e cf 9a 44 be 19 28 0c bf
       0.068494804 0.4234579 -0.1919968 -0.54748684
000260 6b eb 5b bf b4 98 b1 bd 45 8e ad be e3 ec 83 be
       -0.85906094 -0.08671704 -0.33897606 -0.25766668
000270 95 be 22 bf 8a e9 2a be 61 0d 53 3a 49 45 c7 3e
       -0.63572055 -0.1669065 0.0008051005 0.38920048
000280 07 fe 61 bf bd 3e 51 be c8 b9 b5 bf ce 57 4e be
       -0.8827824 -0.20434089 -1.4197321 -0.20150682
000290 0e 34 75 be 3e 91 00 3e f6 da c1 3e 6c 29 a7 3e
       -0.23945639 0.12555405 0.37862366 0.3264879
0002a0 7b eb 5c bd 93 87 f4 be c8 28 74 bd 60 f3 76 3e
       -0.05393551 -0.47759685 -0.059609205 0.24116278
0002b0 0b e1 0f bf 46 a1 a0 bf 3b a4 c2 bf e3 ec 31 bf
       -0.56202763 -1.2549217 -1.5206369 -0.69502085
0002c0 66 b9 fd 3e 5c d9 14 3e 6a d9 64 3e 52 33 50 3f
       0.4955551 0.14536041 0.22348562 0.8132831
0002d0 60 8a 11 be c5 58 61 3d 61 dc 9a 3e 50 6f 19 bf
       -0.14212942 0.055016298 0.3024626 -0.59935474
0002e0 6d 13 90 be 22 6f 11 bf ca 43 c7 bb 48 1e 24 3f
       -0.2813982 -0.568102 -0.006081079 0.64108706
0002f0 37 68 6c 3f 6c cb fe 3d ba bb e7 be 21 e0 14 3f
       0.9234652 0.124411434 -0.45260412 0.58154494
000300 cb 5d 0f 3f 5f 8f 0c 3e ef 7d 80 3e 6f c9 00 3f
       0.5600249 0.13726567 0.2509608 0.50307363
000310 89 8b aa be 6d 2e 12 bf c8 67 0f bf 2a 05 19 bf
       -0.33309582 -0.5710209 -0.5601773 -0.59773505
000320 12 5f 20 be 95 de 13 bf 9a ee 0a bf 71 34 e1 be
       -0.15661266 -0.5776151 -0.5427033 -0.43985322
000330 27 de 3e 3e a2 ee af bf 6a 9b c1 be 63 ee dd 3d
       0.18639432 -1.37447 -0.37813884 0.10836484
000340 c5 62 61 3d 60 97 bb be d0 bd 39 bf 29 92 c8 3e
       0.055025835 -0.36638927 -0.72555256 0.3917401
000350 d1 8f 66 bc fb 26 db 3e a9 46 59 be 70 07 2f 3f
       -0.014072374 0.42803177 -0.21218361 0.68370724
000360 69 bc 7a 3e a3 b0 15 bf ac 96 1c 3f 77 b2 03 bc
       0.24485935 -0.5847265 0.6116741 -0.008038155
000370 ba 83 e6 3d 32 8f 3a bf 0d 2f 1a be 38 2f a9 3e
       0.112555936 -0.7287475 -0.15057011 0.33043838
000380 f2 cd d8 be 30 fa 36 3e 99 7b 13 bf 05 46 66 3e
       -0.42344624 0.17868876 -0.5761047 0.22487648
000390 24 c9 a6 3e 7b 51 6e 3e f3 8f 0e 3d e5 b8 44 bf
       0.32575333 0.2327327 0.03480525 -0.76844627
0003a0 6e d4 48 be 78 8a 42 3f 89 b9 23 3f ed ef 21 3f
       -0.19612285 0.75992537 0.6395498 0.6325672
0003b0 4c 25 5d 3e 99 1d 8b 3d 73 3c 73 3e 2c 73 48 3f
       0.21596259 0.06792755 0.23753528 0.7830074
0003c0 f6 c7 04 bf 8e 76 bc be a8 f7 7a 3e ec 67 5c be
       -0.51867616 -0.368092 0.24508536 -0.21524018
0003d0 5e 8f 81 bf 8f 0d bf bf 70 d7 c9 be 95 e7 a0 be
       -1.0121877 -1.4926013 -0.39422178 -0.31426683
0003e0 7f 66 28 bf ae f7 90 be 95 29 4d 3e 83 95 f1 be
       -0.65781397 -0.28313965 0.20035394 -0.4718438
0003f0 05 00 fa be 62 95 03 3f a6 14 43 3f 12 37 32 bf
       -0.4882814 0.51399815 0.7620338 -0.6961528

node_layers.0.layer.bias f4 [64]
000000 5e 90 11 c0 39 21 65 3f d2 55 ea bf 73 c3 dd bf
       -2.2744365 0.8950382 -1.830744 -1.7325271
000010 a0 29 8f bf bd 7f 1c c0 16 0f ad bf bf 85 ab bf
       -1.1184578 -2.4452965 -1.3520229 -1.3400191
000020 e9 a1 9b bf 7f 2e ce bf b3 0e c3 bf 9d 95 18 bf
       -1.2158786 -1.610794 -1.5238861 -0.5960329
000030 98 77 09 c0 9d 09 a1 bf 6b a4 3f c0 cb 43 c8 bf
       -2.1479244 -1.2581059 -2.9944103 -1.5645689
000040 89 33 04 bf 99 26 a9 bf c5 98 d8 3e 3b 14 b0 bf
       -0.51641136 -1.3214904 0.42304054 -1.3756174
000050 6d a4 4b bf 1e fd 12 c0 91 90 8b 3f 66 cc 9d 3f
       -0.7954777 -2.296699 1.0903493 1.2328002
000060 9c b3 bd bf 2d 4d c9 bf 43 34 b4 bf 55 e0 ec bf
       -1.4820437 -1.5726677 -1.4078449 -1.8505961
000070 8f 17 50 c0 6f 38 ed be 0d 2f 96 3e 72 b7 c9 be
       -3.251438 -0.46332118 0.29332772 -0.3939777
000080 20 e5 f3 be a2 fe 08 c0 43 4f 1a c0 51 a9 fd 3f
       -0.47635746 -2.1405416 -2.4110878 1.9817296
000090 bf 4a 04 c0 73 17 35 bf 46 02 23 bf 7a f5 c2 3f
       -2.0670621 -0.70738906 -0.63675344 1.5231164
0000a0 fd d2 11 c0 2a 1d a1 bf 12 00 87 bf 82 8a 88 bf
       -2.2785027 -1.2587025 -1.0546896 -1.0667269
0000b0 82 f3 65 3f 47 5a 92 bf 6e 45 c5 bf 17 ab 13 bf
       0.8982469 -1.14338 -1.5411813 -0.5768294
0000c0 ec d2 c9 3f 19 e8 02 c0 be 9f c6 bf 69 52 b3 bf
       1.5767493 -2.045416 -1.55175 -1.4009525
0000d0 7c 5e 01 c0 8c 15 cc bf 9d ed ef be 8c 63 06 bf
       -2.0213919 -1.5944076 -0.46860972 -0.52495646
0000e0 0d 0b bb bf 8e cf ad be 8e 62 00 c0 da 93 1f bf
       -1.4612747 -0.33947414 -2.0060153 -0.6233498
0000f0 c6 52 c1 bf 7f 5b bd 3f 83 8c 5e c0 83 28 b9 bf
       -1.5103385 1.4793547 -3.4773262 -1.4465488

node_layers.1.layer.weight f4 [64, 64]
000000 91 6a 34 3f 16 04 e1 bd 39 66 5d be 41 b2 b3 3e
       0.7047511 -0.109871075 -0.21621026 0.35096934
000010 3d ae c6 3d af 5a 93 3e d5 03 9d bc a6 c2 c6 3d
       0.09701202 0.28780124 -0.019166866 0.09705095
000020 7d 9b 7c be 33 77 4f 3b 6b 97 06 bf 49 e6 a9 3e
       -0.24668689 0.0031656742 -0.52574795 0.33183506
000030 05 b0 93 be df b0 cb 3e 5b a6 8d 3e b3 2d 27 3f
       -0.2884523 0.3978338 0.27665982 0.65304106
000040 f4 60 c1 3f 28 d1 d8 3e 07 cd 2e bf 67 4b ef 3e
       1.5107713 0.42347074 -0.68281597 0.46737215
000050 cd 72 7d be 6d b0 83 bd 28 19 08 3e d3 c0 82 3c
       -0.24750824 -0.06430135 0.13290846 0.015961086
000060 06 b7 12 3e 7d ff de bb 15 e2 15 bc 63 af 5c be
       0.1432763 -0.006805359 -0.00914814 -0.2155128
000070 15 8a ab be 7c 8c 01 3f 26 1a 15 3e 7d 51 f3 bd
       -0.33503786 0.5060499 0.14560756 -0.11880777
000080 b2 2e d2 3e 29 b5 84 be 02 da ad be 53 cb cd bc
       0.4105125 -0.25919464 -0.3395539 -0.025121367
000090 5e 6a c5 3e 24 b3 a7 3d 15 33 e9 3e e7 c6 69 be
       0.38557714 0.08188465 0.45546785 -0.22829781
0000a0 33 9a 4a be b0 ee 28 3f be 75 b4 3e a6 ed d1 39
       -0.19785385 0.6598921 0.3524608 0.00040040648
0000b0 17 e3 17 3d 2f 00 2c 3f 70 30 c9 3e 70 8a 87 be
       0.037081804 0.6718778 0.39294767 -0.26472807
0000c0 ff 16 2a 3f 87 6a 3e 3e 20 a7 3a be cd 1e d2 3e
       0.6644134 0.18595324 -0.18227816 0.41039124
0000d0 c0 4f 15 3e e3 f7 46 3e 14 f0 83 3e f4 98 8b be
       0.14581203 0.19430499 0.25769103 -0.2726513
0000e0 e1 2b a8 bd 1a e7 0c be 06 e9 b9 3e 49 f7 d4 bd
       -0.08211494 -0.13760033 0.36310595 -0.103987284
0000f0 29 91 13 bf 72 57 cf be dc 1c a2 3e 35 d7 50 bf
       -0.5764337 -0.40496403 0.31662643 -0.8157838
000100 ac a5 ba 3f c4 cd ff be 2a af d4 bc f4 58 35 bf
       1.4581809 -0.49961674 -0.025962431 -0.70838857
000110 9b 83 b4 3f 04 38 db 3f 57 ed 77 3f 90 d7 e8 3f
       1.4102663 1.712647 0.96846527 1.8190784
000120 00 e9 aa 3e 7b d9 c4 be b9 59 d6 be 64 36 9e 3e
       0.3338089 -0.38447174 -0.41865328 0.30900872
000130 b5 c4 85 3f 15 90 b4 3e 94 90 0f 3f 86 1a a5 3f
       1.0450655 0.35266176 0.56079984 1.2898719
000140 69 6a f6 3f 0f a8 b7 be f4 4a 6a 3f f5 03 9b 3e
       1.9251224 -0.35870406 0.9152062 0.30276456
000150 97 58 2f be d7 72 01 40 9e 44 8e 3f 2f 82 f8 3d
       -0.17123638 2.0226343 1.111469 0.121342055
000160 80 51 6f bf f7 7b be bf 7b ab bf be 24 1a 47 3e
       -0.93483734 -1.4881581 -0.37435517 0.19443566
000170 d6 f1 c9 3f 5e 68 10 c0 48 cd 47 3f bf f2 1d be
       1.5776927 -2.25637 0.7804761 -0.15424632
000180 28 c2 09 bf 0b 77 ee 3e e8 5e 07 bf 32 ff 09 3f
       -0.53811884 0.46575198 -0.5287919 0.5390502
000190 f6 e5 70 3e a6 75 c1 3d 1d d5 81 3f 34 9d 0e 3f
       0.23525223 0.09446268 1.0143162 0.5570862
0001a0 c5 4b 2a 3f 29 fb 89 3f 42 a2 00 3f df ce b0 3f
       0.66521865 1.0779773 0.50247586 1.3813132
0001b0 4c 2b d4 be 0a 63 05 40 91 9c 9a 3f e2 f2 0e bf
       -0.41439283 2.0841699 1.207903 -0.5583936
0001c0 55 62 7f be ff 91 1d 40 60 5a f2 bc 7c 13 8b be
       -0.24939854 2.462036 -0.02958411 -0.27163303
0001d0 5b ea 01 40 0a 19 af bf 30 b6 8e bf 87 cb d0 bf
       2.029929 -1.3679516 -1.1149349 -1.6312112
0001e0 07 24 53 3f f6 b9 4a bd 53 53 95 3e a3 68 0c be
       0.8247685 -0.049493752 0.29165134 -0.1371179
0001f0 12 d2 fd 3e 51 a9 21 bd 37 90 71 3f 3f f3 83 3f
       0.49574333 -0.039468113 0.9436068 1.0308608
000200 85 3a 18 c0 bc e0 ac bf 49 ee 18 3e 60 89 00 3f
       -2.3785717 -1.3506083 0.14934649 0.5020962
000210 6d f0 d9 3e 6d ec 1a bf 66 50 59 3f b8 c5 20 3e
       0.42566243 -0.6051701 0.84888303 0.15700424
000220 84 f1 1d 3f d3 cd dc be 59 8d 71 3e c9 0c d5 3e
       0.6169665 -0.4312578 0.23589076 0.41611317
000230 be d7 d0 bd 19 14 64 bc c8 49 4c be 37 8d cb bf
       -0.101973996 -0.013920807 -0.1995002 -1.590247
000240 e9 38 ed bf a7 86 42 bf ce fd c0 3e 9a 7c 8e be
       -1.8532993 -0.75986713 0.37693638 -0.27829438
000250 ec 95 2a be 0c 37 f8 be bf c9 8b be 6b c2 b1 bf
       -0.16658753 -0.48479497 -0.27302358 -1.3887457
000260 fd 1f b0 3e da 94 0e 3e 70 b5 20 3f f0 b2 41 3e
       0.34399405 0.1392397 0.6277685 0.18915915
000270 da ac 75 bf 86 ff 58 3e e8 5c af 3e 01 98 2c 3f
       -0.95966876 0.21191224 0.3425057 0.6741944
000280 28 bc 85 3e da d7 7d bf 8b dc 74 3e 8f 3b 36 bf
       0.26120114 -0.9915749 0.23912255 -0.7118463
000290 f3 16 bb 3e 0f ad d2 3e 65 b0 9a 3d cd b9 db be
       0.36540946 0.41147658 0.07553176 -0.42915192
0002a0 e0 81 5f 3f e6 de f9 be f5 c6 bf 3e bc 14 e2 3e
       0.8730755 -0.4880287 0.3745648 0.44156444
0002b0 1e e4 5d be d1 7a d5 bd d1 61 4b 3f cd 86 83 3f
       -0.21669051 -0.10423816 0.7944613 1.0275513
0002c0 70 e2 25 c0 8d 30 0a 3e de 1c 43 bd c8 82 9a 3e
       -2.5919456 0.13495083 -0.04763495 0.30177903
0002d0 65 44 97 bf c0 17 4e be 9d e1 4a 3d e3 89 b1 3e
       -1.1817747 -0.20126247 0.049531568 0.34675512
0002e0 30 64 72 bf 21 2b 7f be bd 0d 27 bf 4c d9 4d be
       -0.94684124 -0.24918796 -0.6525534 -0.20102423
0002f0 33 50 bb bd e8 fc 50 bf cb aa 65 bf d7 b2 c4 bf
       -0.09146156 -0.81635904 -0.89713734 -1.5367078
000300 7b 5e 84 3d 69 e0 37 bd c1 dc 04 bf d2 e0 1f 3e
       0.06463333 -0.04489175 -0.51899344 0.15613106
000310 dc 5b 22 3e b4 77 df be e2 05 e4 3e 3d 02 82 3e
       0.15855354 -0.43646014 0.44535738 0.25392333
000320 0c 39 f6 3e f3 2a 22 3f 88 58 dc bd 3e eb 83 3e
       0.48090398 0.63346785 -0.107590735 0.25765413
000330 aa ea ac be e6 2d 44 3e 42 fb 36 3f 77 01 62 bf
       -0.33772784 0.19158134 0.7147714 -0.88283485
000340 37 2e 01 c0 b5 d1 c1 3e e3 28 da bd 43 55 eb be
       -2.0184457 0.37855306 -0.1065233 -0.45963487
000350 33 53 dd 3d 7a d9 a6 bd a9 d7 b8 3e b8 91 7f 3e
       0.108068846 -0.08146949 0.36102036 0.24957931
000360 0d 0d 3c 3e 0c e5 39 3d 2f 37 2c be 7f ea 32 3f
       0.18364353 0.04538445 -0.16817926 0.6988906
000370 42 0b c3 be 1c 10 eb 3e af 40 58 3d 19 62 40 3e
       -0.38094527 0.45910728 0.052796062 0.18787421
000380 be e5 ba be 6f 87 07 c0 e5 e7 f4 3e 6d a8 fa be
       -0.36503404 -2.1176412 0.4783317 -0.48956624
000390 64 7a 1c 3f c8 bc f0 3e cb c1 70 bf 1a ef 3a be
       0.61124253 0.4701903 -0.94045705 -0.18255273
0003a0 c4 05 03 3f a7 60 26 3f e5 9a 2f 3c 5e 5a c4 be
       0.5118067 0.6499123 0.010718082 -0.38350195
0003b0 ef d3 8b 3d 73 45 22 bf 32 6b c8 3b 35 04 c3 3d
       0.068275325 -0.6338722 0.0061162943 0.09522287
0003c0 46 93 48 be 68 d2 9a be 8d c5 c2 3c 1a 03 1a 3c
       -0.1958743 -0.30238652 0.02377584 0.0094001535
0003d0 20 45 07 3e f9 d8 db 3e 25 23 71 3e 4c 99 ce be
       0.13209963 0.42938974 0.23548563 -0.4035133
0003e0 3f 22 99 3e 8e 6a 07 bf cf 79 35 bf e9 4f 46 be
       0.2990894 -0.52896965 -0.7088899 -0.19366421
0003f0 2b ad 1c 3c 0b 64 15 bd 2f 33 06 bf 84 ce 15 bf
       0.009562771 -0.03647236 -0.5242185 -0.5851824

node_layers.1.layer.bias f4 [64]
000000 59 6a af bf 5d 45 74 bf fe 2a 87 bf e6 f3 02 be
       -1.370433 -0.9541834 -1.0559995 -0.12788352
000010 94 15 5b bf b3 04 a7 bf 08 6e b2 bf 07 e8 b3 bf
       -0.855798 -1.3048309 -1.3939829 -1.4055184
000020 11 5c b3 bf 5b 96 5f bf 93 f7 d0 bf 67 e8 a2 bf
       -1.4012471 -0.873388 -1.6325554 -1.2727174
000030 f9 61 cc bf bf 3b 20 bf d3 21 14 bf 06 06 26 3f
       -1.5967399 -0.62591165 -0.5786411 0.6485294
000040 2c 32 4f bf bc dc 5a be fd 93 a1 bf 32 a2 3e bf
       -0.8093593 -0.21373266 -1.2623287 -0.7446624
000050 17 79 be be f0 2d aa be 3e 94 cf bf 4b c8 d1 be
       -0.3720176 -0.33238173 -1.6217115 -0.40973124
000060 ac f4 8c bf 91 69 84 bf ae ff c1 bf 5d dd 39 bf
       -1.1012168 -1.0344716 -1.5156152 -0.726034
000070 25 ec c9 bf 95 ed 14 bf 1b b4 4f bf 1f 57 d4 bf
       -1.577519 -0.5817502 -0.81134194 -1.6589087
000080 99 19 3e bf 70 64 f0 bf 3a 16 fe be a1 0a 17 bf
       -0.7425781 -1.8780651 -0.49626333 -0.59000593
000090 81 05 ac be 84 7d 6e bf 2e 29 73 bf 03 aa dd 3e
       -0.3359795 -0.9316027 -0.9498471 0.4329377
0000a0 c0 e0 8d bf aa 76 53 bf ee 32 be bf 5a e8 bf bf
       -1.1084213 -0.8260294 -1.4859293 -1.4992783
0000b0 19 03 2e be c9 09 65 bf 6f 5c 6f bf 3a 0e f8 bf
       -0.16993369 -0.89468056 -0.9350042 -1.9379342
0000c0 3a f6 8f bf ef ce b8 be f4 8b bc be 15 9c a9 3e
       -1.1247017 -0.36095378 -0.36825526 0.33126894
0000d0 d2 0e aa be f0 2f 51 bf 43 0a c6 bf 09 b3 77 bf
       -0.33214432 -0.8171377 -1.5471882 -0.9675756
0000e0 31 7b af bd a8 48 a1 bf a7 d6 9f bf 20 58 56 bf
       -0.08568419 -1.2600298 -1.2487382 -0.8372822
0000f0 5e d7 d3 be a8 de fa be c5 36 81 bf 02 06 f2 be
       -0.4137525 -0.48997998 -1.0094839 -0.4727021

edge_layers.0.weight f4 [1472, 4]
000000 78 a2 37 be 20 59 5d 3e 94 a9 8c 3e b4 8d 73 be
       -0.1793307 0.2161603 0.27473128 -0.23784524
000010 c0 43 5c bd de e0 57 3e f3 6c 51 3e af f8 46 3e
       -0.05377555 0.21081874 0.20451717 0.19430803
000020 6a 37 c8 be 53 73 bf be af 09 29 3e 08 2c 7b 3e
       -0.39104778 -0.37392673 0.165076 0.24528515
000030 aa ed ca be d8 9a 7f be 28 ee d8 3e 00 2a cd 3b
       -0.39634448 -0.24961412 0.423692 0.0062611103
000040 b9 d2 03 bf 05 4d 02 3e 3a 45 e0 3e e4 e2 98 3d
       -0.5149341 0.12724693 0.43802816 0.07465151
000050 b0 05 6c be c2 71 df be 1e 17 8d 3d 02 62 51 3e
       -0.23049045 -0.43641478 0.06889175 0.20447543
000060 47 d0 58 3e b2 ba 0b 3e 15 e8 98 3c 61 fc 37 be
       0.21173202 0.13645437 0.018665353 -0.17967369
000070 44 95 82 be 3b 8d 0b bf 57 75 29 3d 11 ee 75 3e
       -0.25504506 -0.54512376 0.04137167 0.24016596
000080 28 af 36 3d 10 ad e4 be 52 0d a9 3e 78 e6 72 be
       0.044600636 -0.44663286 0.33017975 -0.2372073
000090 0d d5 21 be 1e ee eb be 36 a6 d5 bd 04 cd 89 3e
       -0.15803929 -0.46080106 -0.10432093 0.26914227
0000a0 6d c4 8e 3e 8c a1 31 3e e3 cb 64 3c 15 0f 46 be
       0.27884236 0.17346781 0.013964626 -0.19341691
0000b0 58 fe 0c be a9 66 f8 3d b4 7a a9 3b b7 03 73 bb
       -0.137689 0.12128956 0.005172098 -0.0037081072
0000c0 6b e0 dd bd e1 e8 76 be 77 09 aa 3d 29 ee 8a 3d
       -0.1083382 -0.24112274 0.083025865 0.06783707
0000d0 01 3a aa 3e b0 2a bc 3e ca 0b 02 3e c0 26 e8 be
       0.33247378 0.36751318 0.1269981 -0.45342064
0000e0 4b 8a a4 be e0 0a 08 bf fa 91 8f bd 1e 68 24 3e
       -0.3213676 -0.53141594 -0.07010265 0.16055343
0000f0 c6 97 9e be 35 63 9b bd ed 4e 2f 3e 47 e8 66 3e
       -0.3097517 -0.075872816 0.17119952 0.22549544
000100 64 95 03 be f0 55 72 3e b9 44 2b 3e 5e 24 39 bd
       -0.12849957 0.23665595 0.16725434 -0.045200698
000110 00 73 24 bd 32 95 66 be 68 42 83 3e f0 2a 3e be
       -0.040148735 -0.22517851 0.256366 -0.18571067
000120 f2 a7 bc bd 8f 10 e1 be c7 19 72 3e da 62 22 be
       -0.092117205 -0.43957946 0.23642646 -0.15858021
000130 e5 82 b0 3c 3f 20 66 bd 51 96 d1 bb 84 9d ca 3d
       0.02154679 -0.056183096 -0.006396093 0.09893325
000140 4e f4 ed bd 00 e2 87 bd aa ee 61 3e d0 8a b7 be
       -0.11618863 -0.06634903 0.220637 -0.35848093
000150 50 f3 8a 3e ed a6 d3 be 93 c9 5f 3e cc 6b ea be
       0.27138758 -0.41338292 0.21854238 -0.45785367
000160 2c 71 0d be 1a 78 37 bf 46 21 b0 bd a7 a6 8e 3e
       -0.13812703 -0.71667635 -0.086000964 0.2786152
000170 75 fa 84 be 2f 8d 0c 3f fc a0 ff be 31 d3 dd be
       -0.25972334 0.5490293 -0.4992751 -0.4332519
000180 82 d6 c3 be 34 82 03 3e 29 cf a4 3e 8c 8f a6 3d
       -0.38249594 0.12842637 0.321893 0.08132848
000190 b4 2b ae be 31 4d 4c be 17 69 41 3e 3f 11 aa 3e
       -0.34017718 -0.19951321 0.18887745 0.33216283
0001a0 dd 8e 32 be 89 8d ef bd c4 69 2a 3d e2 e5 28 3e
       -0.1743731 -0.116969176 0.041604772 0.16493943
0001b0 a4 45 1b be 51 a4 8b 3e b8 01 0e bd 03 41 f9 bd
       -0.15163285 0.272738 -0.034669608 -0.12170603
0001c0 79 e8 c6 bd 3c 7a bf be 6d be 1e be ce f8 40 3e
       -0.097123094 -0.37397945 -0.15502329 0.18844911
0001d0 3f 6e 0c 3e f6 8a 68 3e ec 03 09 be 33 e8 46 be
       0.1371393 0.2270926 -0.13380402 -0.19424514
0001e0 eb c7 18 be de 2f d4 be 47 64 01 3e e3 7a b2 bd
       -0.14920013 -0.4144277 0.12635909 -0.08714845
0001f0 0c be 41 be 94 e5 5c 3e 14 ad 2b 3e 4a a9 34 3e
       -0.18920153 0.21571952 0.16765243 0.17642704
000200 68 92 b8 bd 74 74 ef be 20 e2 e3 3e fc 88 3b be
       -0.090123 -0.46768534 0.44508457 -0.18313974
000210 ce 12 40 3d 96 2f ad be 8d 5c a8 3e 7b 43 43 be
       0.046892934 -0.33825368 0.3288311 -0.1906871
000220 3a 54 23 3e 0d d4 1c 3e c8 81 eb bd b6 19 2b bd
       0.15950099 0.15315266 -0.11499363 -0.041772567
000230 7d 03 d7 be 08 03 1c 3b 1a 36 c1 3e a1 da 39 3e
       -0.4199485 0.0023805518 0.3773659 0.18149807
000240 11 13 c5 bd 9b 84 4b 3e 13 b6 9e 3c 35 56 4c bd
       -0.09622777 0.19874804 0.01937393 -0.0498869
000250 f7 f7 9c be 1c e7 a7 be 64 f9 13 3e 72 08 b5 3e
       -0.30657932 -0.3279351 0.14450604 0.35358006
000260 9f 3e 68 bd 83 86 30 be 72 c1 4c 3d 6c e9 82 bb
       -0.056700345 -0.17238812 0.04998917 -0.003995111
000270 4c 83 88 bb dc 87 cc be 37 ab 8c 3e c7 1d 89 be
       -0.0041660424 -0.39947402 0.27474377 -0.2678053
000280 90 23 54 3d 22 e7 a4 3e 58 84 a0 3e 5c 78 d2 be
       0.051791728 0.3220759 0.3135097 -0.41107452
000290 37 4e 17 3e 4f e2 cd 3d b8 f2 71 3d 85 bb e8 3d
       0.1477593 0.100529306 0.059069365 0.113638915
0002a0 e8 20 98 be 8f c6 04 bf 0e eb 11 3e 11 2e 20 3e
       -0.29712605 -0.51865476 0.14249822 0.15642573
0002b0 94 ce a0 3e 3c 13 ae 3c cf 02 65 bd f1 38 90 be
       0.31407607 0.021249406 -0.05591088 -0.28168443
0002c0 19 8e 79 be 7e 9a 64 3e 1d 8c 55 3e cc 3b 97 bb
       -0.24370612 0.22324559 0.2085423 -0.0046152826
0002d0 73 8f 4e 3e fe 32 c6 3e b8 52 69 3d d4 f9 97 be
       0.20171909 0.3871078 0.056963652 -0.2968279
0002e0 86 cb f5 bd af 3d 30 3f d5 26 c6 be 3d 2a e5 3e
       -0.1200171 0.6884412 -0.387015 0.44758788
0002f0 7c 7f a2 3e b4 0f ad be 54 98 6d be 75 f5 15 3e
       0.31737888 -0.33801043 -0.2320264 0.14644416
000300 65 65 75 3d e2 59 74 bf 5a f7 08 3c 3c 2d f1 bd
       0.05991115 -0.9544965 0.008359754 -0.11776206
000310 0d ac eb 3c fb 14 8f be 0f 1a ec bd 6a 07 58 3e
       0.028768564 -0.27945694 -0.11528408 0.21096578
000320 7d f3 be be a4 50 53 3e df 31 e0 3e 99 02 f8 3c
       -0.37295142 0.2063623 0.4378805 0.030274676
000330 a4 bc ee 3d 29 3b 3c 3c 09 18 c2 bd aa de f5 3d
       0.11657074 0.011488714 -0.094772406 0.120053604
000340 ac 94 f9 be 68 a0 f9 3c 9c fe ba 3e 9d cb 83 3e
       -0.4874624 0.030471995 0.36522377 0.25741282
000350 81 f0 41 be 26 ba 8a 3e 00 9e 5d 3e 4d 72 0a bd
       -0.18939401 0.27095145 0.21642303 -0.033800412
000360 90 68 a5 3e 2e 88 95 3e c8 c3 91 3d 18 fc 52 be
       0.32306337 0.2920546 0.071174204 -0.20603979
000370 96 75 b6 be aa 53 9e be c0 74 a6 3d af ed 85 3e
       -0.35636586 -0.30923206 0.08127737 0.261579
000380 74 13 0c be 7b ae 0d be 3e c7 d5 3e dd b2 8a be
       -0.13679296 -0.1383609 0.41753572 -0.27089587
000390 51 3d bb 3d 8d 07 f8 c0 72 f7 c3 3e 99 c2 1a bf
       0.091425546 -7.7509217 0.38274723 -0.6045318
0003a0 73 e9 0e 3e d2 9d 68 3e 20 e7 05 3d 3a 1d aa bd
       0.13956241 0.22716454 0.03269112 -0.08306356
0003b0 00 6b f7 be 0d 72 01 be 1e a2 a8 3e ff 19 c9 3e
       -0.48323822 -0.12641163 0.32936186 0.39277646
0003c0 e7 32 bd 3e 48 9d 14 c0 d2 84 f2 3d 99 83 19 be
       0.36952898 -2.3220997 0.1184174 -0.14991607
0003d0 f3 de b9 3c c7 94 6f 3e e3 e3 dc 3d 25 a5 f7 bc
       0.022689318 0.23396598 0.107856534 -0.030230114
0003e0 d3 be ac be 21 02 47 be 36 9c 53 3d 70 af 75 3e
       -0.33739337 -0.19434406 0.051662646 0.23992705
0003f0 f6 87 c2 be bc f0 89 3e ae 56 c5 3e a8 12 b9 bd
       -0.37994355 0.26941478 0.38542694 -0.090367615

edge_layers.0.bias f4 [1472]
000000 76 88 b9 be 2f 3f 1a bf a7 7e 85 bd 74 57 47 be
       -0.36236924 -0.6025266 -0.06518298 -0.19466954
000010 3d 42 a3 bc 65 eb cd bd 55 94 28 be 5c 2f 03 be
       -0.019929046 -0.100546636 -0.16462834 -0.12811035
000020 4c c6 a1 be a2 f9 a5 be 54 42 3b be a3 9e 8d be
       -0.315966 -0.32417017 -0.18287021 -0.27660093
000030 07 59 a1 bd e8 3f 83 bc c8 df cc be 1d 0e 90 be
       -0.07878309 -0.016021684 -0.40014482 -0.28135768
000040 fa 5f e3 bd ac a3 58 bd 77 be dc bc 5b f9 4b be
       -0.111022905 -0.052890465 -0.02694629 -0.1991934
000050 b9 a1 e7 be 44 44 85 bd a2 6a f3 bd 43 dd 2a 3e
       -0.45240572 -0.06507161 -0.11885573 0.16685967
000060 3e 97 c7 bd 93 e8 b3 be 26 e9 94 be 90 1b 1d bf
       -0.09745644 -0.35138378 -0.29084128 -0.6137018
000070 23 20 c2 be 33 82 c4 be 8f 82 43 be 47 6c fa be
       -0.37915143 -0.38380584 -0.19092773 -0.48910734
000080 ee cf ef be 38 05 b3 be d8 83 14 bf e7 c2 82 be
       -0.46838325 -0.3496492 -0.5801368 -0.25539324
000090 a3 4a 92 be 10 1c b9 be 3a 4b 9f bc 05 35 e4 bb
       -0.28572568 -0.36154222 -0.01944505 -0.0069643282
0000a0 a6 59 d4 be c8 75 1f bf 69 15 98 bd 21 3c be bd
       -0.41474646 -0.62289095 -0.07425959 -0.092888124
0000b0 f8 92 32 be 3b e8 10 be 6f 60 df be 6a bf 17 bf
       -0.17438877 -0.14151089 -0.4362826 -0.5927645
0000c0 30 c8 be bd 5d dd ad be 91 db 35 be 3c 9c fd be
       -0.093155265 -0.3395795 -0.17759539 -0.4953326
0000d0 2a d3 9f be 61 3e ff bd f2 8f fe be d6 66 81 be
       -0.31215793 -0.1246307 -0.49719197 -0.2527377
0000e0 62 a5 a4 bc aa 03 f8 3e 8f 14 87 be 14 46 d8 be
       -0.020098392 0.48440295 -0.26382872 -0.42240965
0000f0 ef 12 e0 3e 99 fa 3f be 11 57 b3 be bc b0 31 be
       0.43764445 -0.18747939 -0.35027364 -0.17352575
000100 4e 01 93 3e 97 8d d3 bd 7d 9d 85 bc 35 71 86 3d
       0.28711933 -0.103297405 -0.016310448 0.06564561
000110 43 55 e4 be d0 66 e1 3d 9f 87 25 bc 6d 5d a8 be
       -0.445963 0.11005938 -0.010103135 -0.32883778
000120 ba e5 77 be af 57 05 be fa 50 5b bb 70 05 57 bd
       -0.24208727 -0.1302173 -0.0033465014 -0.05249542
000130 99 6e 2b bc dc f8 8d be f8 63 fc be 14 8b 0d be
       -0.01046338 -0.27728927 -0.4929502 -0.13822585
000140 ae e7 94 bc 10 c9 60 be d2 2b a8 bc 1f a2 ee bd
       -0.01817688 -0.219517 -0.020528708 -0.11652016
000150 f6 dc 93 bc ee ea cd bd 86 e7 fb be 44 e9 63 be
       -0.018049698 -0.10054575 -0.49200076 -0.22256953
000160 ad 5c 34 bf 5f 44 d9 be c9 3a dd bd 61 de e4 be
       -0.7045391 -0.42434976 -0.10802228 -0.44700912
000170 59 ca ee be 1f 7c 10 bd 0b ac ab be 5a e6 e5 be
       -0.46638754 -0.03527462 -0.33529696 -0.44902307
000180 f1 da 97 bd c7 71 09 bf 30 96 e4 be f4 7c d0 bd
       -0.07414807 -0.53689235 -0.44645834 -0.10180083
000190 c9 c8 a3 be 2e ee 0f bd fb 1a 05 bc 27 42 41 be
       -0.31989124 -0.035139255 -0.008124108 -0.18872891
0001a0 25 72 81 bd 6b d8 fc ba 10 7b ad bd 80 e9 24 bf
       -0.063205995 -0.0019290572 -0.08470738 -0.6441879
0001b0 3f b9 e7 bb c6 fd 1d bf 8e c4 88 be 02 1c 22 bf
       -0.0070716436 -0.6171535 -0.2671246 -0.63323987
0001c0 a1 e8 14 bf b0 fe df bb 0f 14 c4 be 36 7f ec be
       -0.58167464 -0.006835781 -0.38296553 -0.46190804
0001d0 f8 8e be be e8 bd e9 be 2e 44 e6 bd fd 00 a6 be
       -0.37218451 -0.456527 -0.11243473 -0.3242263
0001e0 88 a5 1b be 87 9b 6a be cf d9 58 bc 5b 1f 18 bb
       -0.15199864 -0.22910891 -0.013235523 -0.0023212049
0001f0 cd 16 32 bc 21 06 bd bd 5b 1f 1f bd 54 21 c2 be
       -0.010869694 -0.092296846 -0.038848262 -0.37916052
000200 2e d0 d1 bd 65 31 f2 be 9d a0 78 bc e1 ca bc bb
       -0.10244785 -0.4730331 -0.015175012 -0.0057614897
000210 68 21 be bc fa ab 13 bf a2 4a db bd 40 55 d2 bc
       -0.023209289 -0.5768429 -0.107075945 -0.025675416
000220 4b f9 b4 be e6 b8 64 be d7 16 90 be 5f dd c6 ba
       -0.35346445 -0.22336158 -0.28142425 -0.0015172175
000230 b9 d6 1b bf e7 56 a3 bd 72 a8 b7 be 98 2e be bb
       -0.60874516 -0.0797556 -0.358707 -0.0058038943
000240 c2 29 bf be 31 6b 41 bf a4 96 4a be a9 dd 17 be
       -0.37336546 -0.75554186 -0.19784027 -0.1483065
000250 6a 07 c8 be 3b 28 7f be 88 ff a6 bc 13 7b f9 be
       -0.39068156 -0.2491769 -0.020385519 -0.4872671
000260 7b 93 09 bd fc 88 ea ba 27 30 68 be f6 77 cb bd
       -0.033587914 -0.0017893608 -0.22674619 -0.0993499
000270 4e f9 90 be 92 8f 29 bd 18 af 1f be 4a ee 9d bc
       -0.28315204 -0.041396685 -0.15594137 -0.019278664
000280 6f 65 90 bc 44 87 db be d4 44 34 be c2 ab 24 be
       -0.017626492 -0.42876637 -0.17604381 -0.16081145
000290 ef 3d 15 be 36 8c 70 be 19 8c 78 bd 11 92 9a bc
       -0.14574407 -0.23490986 -0.060680483 -0.018868478
0002a0 7d 92 dc bb 70 dc f3 be a5 5f c2 bb d5 c3 e0 bd
       -0.00673133 -0.47629118 -0.005931812 -0.10974852
0002b0 2f 2e 19 bf a3 e7 cc be 64 91 d1 bd a3 b1 5d bd
       -0.59836096 -0.40020475 -0.10232809 -0.054124486
0002c0 c2 b5 37 bc 14 c6 03 be f5 6d ad bc a3 7f 80 bc
       -0.011212768 -0.1286853 -0.021170596 -0.015685862
0002d0 e4 44 60 be aa b6 02 be bf 5b aa be 28 8f 06 be
       -0.2190128 -0.12764993 -0.33273122 -0.13140547
0002e0 24 b0 cc 3d e0 38 13 be 9e a6 89 be aa 97 d8 be
       0.09994534 -0.14377165 -0.2688493 -0.4230321
0002f0 cc 6b 54 bc 24 d0 ac be c8 df 75 3f 8c e7 b5 bc
       -0.012965154 -0.3375255 0.9604459 -0.022205137
000300 9d 8b 5d be 6b 3b 1e bf 42 dd be bc c3 00 1c bf
       -0.2163529 -0.61809415 -0.023298863 -0.6093866
000310 3d bc de bb 2c e5 0c bf 71 8a d3 bd 5f 04 df be
       -0.006797342 -0.5503719 -0.1032914 -0.43558022
000320 19 37 af 3e 6d 2d af bd 60 1c d8 be 70 e2 08 bd
       0.34221724 -0.08553586 -0.42209148 -0.033419073
000330 7e 97 a9 be 97 bd 90 be 18 60 8f be cf 63 e9 3e
       -0.33123392 -0.28269646 -0.28003 0.4558396
000340 e2 c1 6d 3f 74 44 f2 be df 9e b4 be 79 18 b9 be
       0.92873967 -0.4731785 -0.3527746 -0.36151484
000350 67 28 ed bd 36 58 f5 be e9 8c 06 bf e4 19 f9 be
       -0.11579972 -0.47918862 -0.5255876 -0.48652565
000360 2e d7 00 bf 2a a5 85 be 78 07 10 be 64 16 22 be
       -0.5032834 -0.26102573 -0.14065349 -0.15828854
000370 57 be 72 bc 61 35 68 bc 6b 36 ee be 9a 14 06 bf
       -0.014815888 -0.014172883 -0.46525893 -0.52375185
000380 ae 7a 24 bc 09 2f c7 be 48 bb 02 bf 40 b6 21 bf
       -0.010039015 -0.38903072 -0.5106702 -0.63168716
000390 6c 7b 13 be 17 c2 16 bf d3 73 be be c3 33 00 bf
       -0.1440255 -0.5888991 -0.37197742 -0.5007898
0003a0 e6 50 54 be 06 45 df bc 6d dd ac be dd 35 67 3e
       -0.20733985 -0.027254593 -0.33762684 0.22579141
0003b0 44 50 c9 bc fe 05 4e be d7 6e 99 bc df 14 8d be
       -0.024574406 -0.20119473 -0.01872961 -0.27554986
0003c0 3d 9d 7a be 1c 2b 98 bd be 56 a3 bc b6 0e b3 be
       -0.24474044 -0.074300975 -0.019938823 -0.3497216
0003d0 9b b6 bc 3e d4 37 bc be 61 cc ee be f3 1c 92 3e
       0.36858067 -0.36761343 -0.46640304 0.28537712
0003e0 be 50 0b bf 4a 2f a0 bd 53 4f ee be f7 03 07 bf
       -0.5442008 -0.0782152 -0.46544895 -0.52740425
0003f0 c0 4d 68 ba 7f 69 36 be ca d4 ca be a3 05 65 be
       -0.00088616833 -0.17813681 -0.3961547 -0.22365431

edge_layers.1.weight f4 [4096, 4]
000000 58 75 30 bc fc 68 97 be c4 ad 8e 3d c9 14 38 3c
       -0.010770164 -0.29572284 0.06966737 0.011235424
000010 35 42 7c be ef 39 2d 3e 7b cb 0c be 90 54 2a 3b
       -0.24634631 0.16916631 -0.13749497 0.0025990345
000020 f0 c4 37 3e bc a8 8b bf 26 13 2f 3e 2f b7 ab be
       0.1794622 -1.0910869 0.17097148 -0.33538195
000030 51 f4 7d bd 6f 6d 8d 3e be e8 1e 3d 1a 2b f1 3c
       -0.062000576 0.27622554 0.03879618 0.029439498
000040 c8 e7 dd 3c ab 89 b5 be c3 22 83 3e 1c 18 12 3d
       0.027088061 -0.35456595 0.2561246 0.035667524
000050 c6 b2 b8 bd 0d 0d 06 3e 25 03 a2 3d e8 0b 4f 3d
       -0.09018473 0.13090916 0.07910756 0.050548464
000060 af 34 96 be 30 34 6f 3e cc f6 a3 3e 63 bc 2c 3e
       -0.2933707 0.23359752 0.3202423 0.16868739
000070 93 6a a7 3e b3 98 8c 3e 7d 3e 96 3e a7 97 03 bf
       0.32698497 0.2746025 0.2934455 -0.5140328
000080 da 51 c7 bc 1d 96 04 bf 63 83 ad 3d 31 e1 38 3e
       -0.024331022 -0.51791555 0.08472326 0.18054654
000090 11 b5 09 be ef 0c 0a bf c5 6b fb 3c 5d 79 93 3e
       -0.13447978 -0.53925985 0.030691037 0.2880353
0000a0 93 dd 64 3d e8 1f 6c be 40 22 73 bd d4 ed 46 3e
       0.055875372 -0.23059046 -0.059358835 0.19426662
0000b0 fd e1 49 3b c8 07 bc be 64 d1 0e be aa 54 14 3e
       0.0030804866 -0.36724687 -0.13947064 0.14485422
0000c0 52 8d 05 bd 86 67 f2 3e 33 79 2f 3e bc fe b7 be
       -0.032605477 0.47344607 0.17136078 -0.35936534
0000d0 e1 3e d3 3e 9f 1e 82 bb 81 a5 19 be 37 82 9f be
       0.4125891 -0.0039709355 -0.15004541 -0.31154034
0000e0 9c 3a 21 be b0 22 be 3e a5 b5 29 3e a7 f3 05 be
       -0.15745014 0.3713584 0.16573198 -0.13081227
0000f0 44 66 ef be f8 6a 0d bd 28 dc c8 3e 8d 7e 90 3d
       -0.4675771 -0.03452584 0.39230466 0.07055388
000100 9a cb 88 3e 74 36 09 bf d2 c2 c2 3e cf e1 11 bf
       0.26717836 -0.53598714 0.3803926 -0.5698518
000110 94 f0 00 3e 80 2c 53 bd f4 3f c5 3e 92 bc c5 be
       0.12591773 -0.05155611 0.38525355 -0.3862043
000120 ea 95 d9 3d b4 36 71 3e 79 b5 d0 3e ef 21 ab be
       0.10624297 0.23556024 0.40763453 -0.33424327
000130 c4 a4 5a 3e cd 06 26 3e 08 c5 2c 3e 33 75 0e 3c
       0.21351916 0.16213532 0.16872036 0.008694935
000140 02 a1 18 be 17 0f 0e be 1d 3f 92 3c 60 a7 83 3e
       -0.1490517 -0.13872944 0.01785236 0.25713634
000150 85 0c d0 3b 81 3a 27 3e b4 40 5a bd 5c 52 b3 3d
       0.0063491487 0.16330911 -0.053284362 0.08755943
000160 dd fd a4 be 7e 76 0d be e5 c2 88 3d 22 ea f7 3d
       -0.32224932 -0.13814732 0.06677798 0.12105204
000170 68 22 8e be 44 7d 23 be f8 7c 97 3e 08 97 8d 3d
       -0.27760625 -0.15965754 0.2958753 0.069135725
000180 76 cb 34 be 01 31 09 bf b4 d7 33 3e 17 ac e5 bb
       -0.17655739 -0.535904 0.17562753 -0.00700904
000190 65 b3 93 bd 48 c4 05 3c 5a 96 bd 3e aa 29 9f be
       -0.07211951 0.008164473 0.37028772 -0.31086475
0001a0 01 b2 fa bc 7d 8b e7 be 7b 1c 51 3e 9e cb af 3d
       -0.030602457 -0.4522361 0.2042102 0.08583759
0001b0 82 4c be 3e 33 d0 b0 3d 0c 30 39 be f9 45 b2 bd
       0.37167746 0.08633461 -0.18084735 -0.087047525
0001c0 77 b6 9c bc 61 40 83 bd 43 63 f4 3c f6 0f 9e 3b
       -0.019129975 -0.06408764 0.029832488 0.00482368
0001d0 38 94 ce 3e 35 b1 c4 be 6c 88 25 be 67 0f 8b be
       0.40347457 -0.38416448 -0.16165322 -0.2716019
0001e0 88 a8 f1 3d 98 fa 4d be 7b 5e 22 be 8e fe 31 3d
       0.11799723 -0.20115125 -0.15856354 0.043455653
0001f0 12 91 1b be ff 41 c1 be f9 d3 2f bd 8e 43 5c 3e
       -0.15192059 -0.37745664 -0.042926762 0.21510145
000200 50 e6 38 3d ec b8 b8 be e9 3f 27 3e 3b ba 3d bd
       0.045141518 -0.36078584 0.16332974 -0.04632018
000210 a7 b1 a5 be 8b 42 8a 3e 4a ac b6 3e a6 d5 22 3d
       -0.323621 0.27003893 0.3567832 0.039754532
000220 c4 67 1f 3d 3f e1 c1 3e 55 83 9d 3e 5d f5 04 bf
       0.038917318 0.37867162 0.3076426 -0.51936895
000230 90 df 84 be b5 65 63 3d 8b 55 14 3e cd 02 69 be
       -0.25951815 0.055516917 0.14485757 -0.22754975
000240 aa 65 43 3e 6e 50 a6 3e 1e b3 6e 3e 76 88 57 be
       0.1908175 0.32483238 0.23310515 -0.2104815
000250 30 e6 62 3e 09 e3 f3 be be f2 de 3d bb cb a3 be
       0.22158122 -0.47634152 0.10886143 -0.31991372
000260 59 68 b7 be b1 39 7a 3d 6e 11 de 3e da d2 93 bd
       -0.35821798 0.061090175 0.43372673 -0.07217951
000270 c4 94 1c be 49 0e 05 bf 86 9c e5 3e e7 ce a3 bc
       -0.15291125 -0.5197492 0.4484598 -0.01999612
000280 d9 37 f6 bd 9b 63 33 bf 66 ac 08 be 37 8e 82 3e
       -0.12022371 -0.7007386 -0.13347015 0.25499126
000290 a0 17 db 3e a6 42 e2 be 11 10 03 be 78 34 99 be
       0.42791462 -0.44191474 -0.12799098 -0.29922843
0002a0 42 96 11 3e 83 02 a6 be e0 20 c2 be 35 52 b5 bc
       0.14217475 -0.3242379 -0.37915707 -0.022133926
0002b0 66 91 05 bf 78 f8 51 be dc 66 9e 3e fb c9 b6 3e
       -0.52174985 -0.2050494 0.3093785 0.35700974
0002c0 c3 cf 0d 3e e0 5a aa 3e 32 be 1b 3e c6 27 8d be
       0.13848786 0.33272457 0.15209273 -0.27569407
0002d0 e2 0f 7d 3e a6 c9 80 bf f4 85 99 3c 69 e6 85 be
       0.2471309 -1.0061538 0.018740632 -0.26152351
0002e0 44 86 8a be c2 c9 16 bf db b9 dd bc b0 c1 9e 3e
       -0.27055562 -0.5890161 -0.027066162 0.31007147
0002f0 ac 48 93 3e ce d2 36 be 8b 8f 00 bd 9f aa 8c be
       0.28766382 -0.17853853 -0.031386893 -0.27473924
000300 3e b9 41 be 3c 3f 4c 3d ab 86 7b 3c 41 3d 4c bd
       -0.1891832 0.049864992 0.015351932 -0.049863104
000310 d3 02 ae bc 03 e5 da be a1 da 63 be ea 98 ef bd
       -0.021241581 -0.42752847 -0.22251369 -0.11699088
000320 40 f2 f8 bc 86 ec 91 be e0 3b 47 bd 68 91 b1 3d
       -0.030388951 -0.28500766 -0.048641086 0.08670312
000330 bb db 8f be 08 a8 a5 bd 9f 30 23 3e f1 21 ee 3d
       -0.2809733 -0.0808869 0.15936516 0.116275676
000340 c8 8e a0 3e 9f 83 a2 3e 61 a7 50 be 73 22 a4 be
       0.31358933 0.31741044 -0.2037635 -0.32057533
000350 91 f0 e0 3e 6b 12 e6 3d ac 7c e4 bd 43 e7 a4 be
       0.43933538 0.11233982 -0.11156592 -0.3220769
000360 8d e1 0f 3f 60 bb ec 3e 27 70 f9 bd 67 07 06 bf
       0.5620354 0.46236706 -0.121795945 -0.52355045
000370 d7 81 0d be 23 4e 41 be ad d4 62 3e 5d 2d f4 3d
       -0.13819061 -0.18877463 0.22151442 0.11922715
000380 00 a6 cd bd 8e 0a eb be 54 cc 5f 3e 50 39 0f 3d
       -0.100414276 -0.4590649 0.21855289 0.034966767
000390 2e 7b db 3e 51 ac 59 be 05 c4 b1 be 8e 68 3f be
       0.42867416 -0.2125714 -0.34719864 -0.18692228
0003a0 84 93 a4 3a ed e1 45 be b3 4a 26 3e 33 0d 93 bd
       0.001255617 -0.19324465 0.16239433 -0.07180252
0003b0 b6 3d ab be 23 f5 94 3e 05 9a b2 3e 5b d4 5e 3d
       -0.3344552 0.29093274 0.34883133 0.054401737
0003c0 bc 9d 57 be 76 e0 f2 3e 44 32 e6 3e 90 59 79 bd
       -0.21056265 0.47436875 0.44960225 -0.06087643
0003d0 1d c8 40 be d5 fd aa 3e 11 0a 9c 3e 81 9a 3c 3e
       -0.18826337 0.33396783 0.3047643 0.18418314
0003e0 71 e1 03 bf bb 51 9b 3c d1 13 ba 3e 80 6b 3e 3e
       -0.5151587 0.01895987 0.36343244 0.18595695
0003f0 82 8e df bd 3d eb 15 3e 4c 2b 84 3d c5 6e d0 3d
       -0.10915853 0.14640518 0.06453571 0.101773776

edge_layers.1.bias f4 [4096]
000000 83 47 07 be 51 d6 2c bf e0 44 72 bd fb eb 09 bf
       -0.13210873 -0.6751452 -0.059147716 -0.538757
000010 0b 04 2b bf 1a e5 76 be bf 49 c6 be 05 49 46 be
       -0.66803044 -0.24110833 -0.3872814 -0.19363792
000020 e6 93 d7 be 30 a1 bf be 8c 71 af be 85 64 49 be
       -0.42105025 -0.37427664 -0.34266317 -0.19667251
000030 19 5d d0 be dc b9 14 be a8 95 6b be 7c 72 72 bc
       -0.40696028 -0.14524025 -0.23006308 -0.014797803
000040 f8 0d 11 be 14 2f b5 be 64 57 ab be ae f4 2d bf
       -0.14165485 -0.3538748 -0.3346511 -0.67951477
000050 f7 e2 b7 be 8b 5a 09 bf c6 ff 93 be b2 8e e3 be
       -0.35915348 -0.5365378 -0.28906077 -0.44444805
000060 fe d8 75 bc aa 33 02 bd 4a f1 ec be 5a 77 23 bf
       -0.015005348 -0.031787552 -0.4627784 -0.6385399
000070 f3 78 f3 bc 3c 87 5e bd de c9 70 be 65 89 60 be
       -0.029720759 -0.05432819 -0.23514506 -0.21927412
000080 13 5f ba be de 5d 48 be 79 28 99 be c2 e5 19 bf
       -0.3640066 -0.19567057 -0.2991369 -0.6011621
000090 c9 54 c0 be cf dc 9f bc 59 1d b2 bd bb 7f fd be
       -0.37564686 -0.01951447 -0.08697004 -0.49511513
0000a0 19 d6 0c be 84 0b 1b bd 4a 49 0e bf e8 6f 87 be
       -0.13753547 -0.03785278 -0.5558058 -0.26452565
0000b0 77 f2 04 bd bf ca d7 bc b0 f0 81 be 85 41 12 bd
       -0.032457795 -0.026341794 -0.25378942 -0.035707016
0000c0 5e 33 c5 be ee 50 1f bf a0 02 7f bd 67 c9 91 bd
       -0.38515753 -0.62232864 -0.062258363 -0.071184926
0000d0 66 36 fb be ae 8b 61 be 44 ce e4 be 1c a8 ca be
       -0.4906494 -0.2202594 -0.44688618 -0.39581382
0000e0 58 74 8c be ec 69 01 bf 86 e9 26 be 73 f0 57 be
       -0.27432513 -0.5055225 -0.1630002 -0.21087818
0000f0 c2 92 e6 be 81 50 13 bf 18 9c 61 be 86 c1 c3 be
       -0.45033842 -0.57544714 -0.22032201 -0.38233584
000100 5e 83 0b bf 0e 31 ac bc ab 28 6f bd 14 31 cd bd
       -0.54497325 -0.021019485 -0.058388393 -0.100191265
000110 06 64 9b be 7a b7 8e be 81 67 98 be 93 3d 34 bf
       -0.3034975 -0.27874357 -0.29766467 -0.70406455
000120 86 6f 1b bf 31 b9 c0 be 8c 25 f0 be e2 2a d8 be
       -0.60717046 -0.3764129 -0.46903646 -0.42220217
000130 1f 01 d6 be 99 95 f1 be 08 cd 09 bf 5e 24 15 bf
       -0.4179773 -0.47184446 -0.5382848 -0.58258617
000140 35 2b aa be ec 98 00 bf 53 7f fb be 34 fd ab bc
       -0.3323609 -0.5023334 -0.49120578 -0.02099476
000150 52 a7 86 be b4 73 f2 be df f0 18 bf e5 f0 d9 bc
       -0.2629953 -0.473539 -0.5974254 -0.026604125
000160 d9 0f 0e bf 9e 39 07 bf 1b 56 b7 be 95 0e 94 bc
       -0.5549293 -0.5282229 -0.3580788 -0.01807336
000170 bc 54 38 bc dc 11 a3 be 2c 90 80 bd 07 e1 c8 bd
       -0.011250671 -0.31849563 -0.062774986 -0.098085456
000180 56 04 89 bd 00 29 1a be a0 33 9e be 28 30 8d be
       -0.0669028 -0.15054703 -0.30898762 -0.27575803
000190 4f 82 98 be 2d db 3c bd 65 c9 11 bc 5e 87 ed be
       -0.29786918 -0.04610746 -0.008898114 -0.4639234
0001a0 da cb 7d bd d2 4d c5 bd c1 54 1f bf f2 77 f5 be
       -0.061961986 -0.09633984 -0.622387 -0.47943074
0001b0 3b dc aa bd cc f1 8d be aa bd 4a be 4e fa a6 be
       -0.08342787 -0.2772354 -0.19798914 -0.32612842
0001c0 06 98 59 bd f5 8c 25 bf 46 60 92 be 46 52 83 be
       -0.053123496 -0.6466821 -0.28589076 -0.25648707
0001d0 5e 78 dc be 96 79 82 be cf bf e7 be 94 48 f2 bb
       -0.43060583 -0.25483388 -0.45263526 -0.007393906
0001e0 d0 97 5f be b2 ba 0e bf 0f 40 c6 bd 88 93 00 bf
       -0.21835256 -0.55753624 -0.09680187 -0.50225115
0001f0 a4 c7 d0 be c0 35 ec be b3 ea e2 be 34 43 74 bc
       -0.40777314 -0.46134758 -0.44319686 -0.014908601
000200 26 00 eb be 8b c7 0e bf 1b 54 8f bd 30 1f c3 be
       -0.4589855 -0.5577323 -0.06998464 -0.38109732
000210 0e 9b e9 be 4d 13 18 be ce c6 5a 3f c0 0c 65 3e
       -0.4562611 -0.14851113 0.854596 0.22368145
000220 41 0d 6f be ff d2 72 be 89 45 2b bf ec a5 a8 bd
       -0.233449 -0.23713301 -0.6690298 -0.08234772
000230 88 c1 f5 be 47 81 10 be db d1 b0 bc 42 97 55 bb
       -0.47999215 -0.14111815 -0.021584442 -0.0032591377
000240 7e ef 7c be e4 52 20 bf 95 1a ba be 1d 94 82 be
       -0.24700734 -0.6262648 -0.36348405 -0.25503626
000250 3f 65 f7 be ec 62 36 bf 2f 5f 6c be 38 b1 44 bf
       -0.48319432 -0.7124469 -0.23083185 -0.76832914
000260 f7 4f cc bd 60 c9 07 bd de 3f 0f bf b1 b3 b1 be
       -0.099761896 -0.03315103 -0.5595683 -0.34707406
000270 b3 c4 89 bd 42 5e 7a be 09 f6 15 bc 9c 1a c7 be
       -0.067269705 -0.24450019 -0.009152898 -0.3888749
000280 44 84 54 bd 22 1e c7 bd ef b4 7f bc 9d 8b 5c be
       -0.05188395 -0.09722544 -0.015607103 -0.21537633
000290 2f 9f 1e bd 77 60 ae be f7 fa d3 be cf dc 10 bf
       -0.038726028 -0.34057972 -0.41402408 -0.5658693
0002a0 fc 10 27 bf 5d c0 4f bd b4 ac 3c bf ec 63 41 be
       -0.6526029 -0.05072056 -0.73701024 -0.18885773
0002b0 16 73 1c be ea 1c 16 bf ef 8e 14 bd bf 3c 18 3f
       -0.15278277 -0.5863787 -0.036269125 0.5946769
0002c0 3e 2a 19 bd a6 27 04 bf ad 9f da be 54 f0 83 be
       -0.0373938 -0.51623 -0.42699948 -0.25769293
0002d0 10 ac c6 3e 41 5f 14 bd f7 cf 1c bf 89 5b b3 bd
       0.38803148 -0.036223654 -0.6125483 -0.08757693
0002e0 5c 79 65 be c7 72 0b be 5e b4 f5 be 78 d2 dc bd
       -0.22409576 -0.13618003 -0.47989172 -0.10782331
0002f0 8d 36 c0 bd db 77 b5 bd 53 7b 2c bd 34 d9 67 be
       -0.09385405 -0.08860751 -0.0421098 -0.2264145
000300 3b a4 fc be 49 c6 94 bd 88 ec cc be 2a b2 88 be
       -0.49344048 -0.072643824 -0.4002421 -0.26698428
000310 a9 7c 01 be c7 f6 c4 bd ee 54 da be c2 21 50 be
       -0.1264521 -0.096173815 -0.4264292 -0.20325378
000320 21 94 ae be 6d f8 46 bd 80 3d c2 be 3a b4 a7 bc
       -0.34097388 -0.04857676 -0.37937546 -0.02047168
000330 79 20 80 be 4c a5 b0 bd cd cf 1d be 4e 62 ae be
       -0.25024775 -0.08625278 -0.15411301 -0.34059376
000340 9d df 97 bd a0 7b 07 be 17 21 e4 be fe 6d cd be
       -0.07415698 -0.13230753 -0.44556496 -0.4012298
000350 50 fa 14 bf 08 68 bb be d9 c4 67 be d3 73 0b be
       -0.58194447 -0.36602807 -0.22633685 -0.13618402
000360 41 2d ac be 3c f6 62 be f1 7d 74 bd 15 00 de be
       -0.33628276 -0.22164243 -0.05969042 -0.43359438
000370 fa ac b5 bd db fd 03 be 3a e9 38 bc 51 a0 9e bc
       -0.08870883 -0.12889807 -0.011286074 -0.019363554
000380 ac ed d2 be 2d 1b fa bd bd cb 83 bd 19 24 b4 be
       -0.41196954 -0.122122146 -0.06435344 -0.3518379
000390 29 84 db be 80 fc df bc bf 65 b0 bd ce 0e e6 bd
       -0.42874268 -0.027342081 -0.086131565 -0.112332925
0003a0 67 8b ec bd a7 d7 1a be 84 46 c1 bd 26 b0 12 bf
       -0.115500264 -0.15121327 -0.09437278 -0.5730003
0003b0 88 10 81 be 9b ab 23 bf 27 df da bd cd 19 f2 be
       -0.25207925 -0.63933724 -0.10687094 -0.4728531
0003c0 6b 5e e5 bd 5b da a5 be c3 8e cd be 8e 14 15 bf
       -0.111996494 -0.32393155 -0.4014798 -0.5823449
0003d0 c3 92 80 be 3d 90 9f bc 62 b6 52 bd 69 90 6a be
       -0.2511197 -0.019477958 -0.051443465 -0.2290665
0003e0 cf 9c c8 be 9b d3 cb be 7f 5d d0 be b5 6f 24 be
       -0.39182135 -0.3980988 -0.40696332 -0.16058238
0003f0 96 df fe bc 9a 39 e1 bd 71 f1 b0 bc fc 21 10 bf
       -0.031112473 -0.10997315 -0.021599503 -0.56301856

fc.weight f4 [2, 64]
000000 15 5a 9b 3d 09 a6 3c 3d 5b 08 f6 bd f6 ff 27 3e
       0.07585541 0.04605678 -0.120133124 0.16406235
000010 07 04 fc bd c5 c3 2f 3d 04 79 06 3e 33 8f 68 3d
       -0.12305456 0.04291131 0.13132101 0.05677719
000020 0f 39 6d 3d ad ce 78 3d 27 ba d7 bd 93 c9 65 3d
       0.057915743 0.060743976 -0.105335526 0.05610044
000030 cd 21 11 3d 89 c8 3a be e5 0f c2 39 65 d5 b4 3d
       0.035432626 -0.1824056 0.00037014406 0.08829764
000040 e1 89 9d bd e9 fa ed 3c 37 9e 18 be 0b c3 9d 3d
       -0.07692314 0.029050307 -0.14904104 0.07703217
000050 57 ee 1d 3c 9e bd ac 3d 1d fb fc ba db 1d 0a be
       0.009639344 0.08434604 -0.0019300912 -0.13487951
000060 ce a6 dc bd 5b 61 d1 bc b7 62 a6 3d f5 63 ef be
       -0.10774003 -0.025559118 0.08124297 -0.4675595
000070 0f fd 07 bc 9c 9f c3 bd ea ad d0 bd 28 96 e4 3d
       -0.00830008 -0.095519274 -0.101894215 0.111614525
000080 34 23 8a 3d f3 e7 32 3e 1b 0b 8a bd 2f f5 62 be
       0.06744996 0.17471294 -0.067403995 -0.22163843
000090 55 93 53 be bc 66 b8 be cf a9 27 bf e4 11 ce 3d
       -0.20661671 -0.3601588 -0.6549348 0.10062006
0000a0 b9 cf fd 3d 70 10 96 3d 74 5c 0d be 4b 79 26 bd
       0.123931356 0.07327354 -0.138048 -0.040643018
0000b0 7d f6 41 be 84 6a 8b 3c 30 35 9b bd b2 97 7a 3c
       -0.18941684 0.017018564 -0.07578504 0.015294956
0000c0 92 7a 13 be 88 6b 51 be 56 b2 8c 3d 46 92 50 3b
       -0.14402226 -0.20451176 0.068699524 0.0031825467
0000d0 3d 28 b3 be e7 da cf bd 33 10 93 3a c3 e1 21 bb
       -0.34991637 -0.10149174 0.0011220038 -0.0024701215
0000e0 29 07 c9 3d 59 37 c1 be 90 0f 89 3d 56 b4 a8 3d
       0.09815819 -0.3773754 0.066924214 0.08237521
0000f0 37 12 1e bd 21 3a 86 bc 02 8f 0e 3e 93 24 82 3d
       -0.03859159 -0.01638514 0.1392174 0.06354632
000100 f7 06 6a be 09 f8 76 bd 6d 1d 1a 3e 9a 00 ec bd
       -0.2285422 -0.06029514 0.15050288 -0.11523552
000110 b7 7f 2f 3e b7 45 7a 3d 03 48 80 bc a3 89 a1 3d
       0.17138563 0.06110164 -0.015659338 0.0788758
000120 d3 fe 37 bd 16 d2 c4 bd 95 9f 27 3d e2 55 c0 3d
       -0.044920754 -0.09610383 0.040923674 0.09391381
000130 17 87 33 3c f8 d6 d0 3e 17 dc 9c bc 1d 8a 86 bd
       0.010957501 0.40789008 -0.019147916 -0.06569312
000140 46 a0 91 bd da d7 20 bc 2a 6b 0a 3e 33 61 78 3d
       -0.07110648 -0.009817088 0.13517442 0.06063957
000150 72 68 c9 bc e2 6c c7 bd ad 7a c8 3d 76 07 29 bd
       -0.024585936 -0.097375646 0.097890235 -0.04126688
000160 fe ba c4 3d f2 16 e6 bc a9 2f 83 3d 03 33 e1 3e
       0.096059784 -0.028087113 0.06405575 0.4398423
000170 1e 3f 76 bb b4 59 c5 bd 57 d4 7d 3d c8 34 83 bc
       -0.0037574242 -0.0963625 0.06197008 -0.016016379
000180 bc c9 ab bc e8 a5 70 be a5 db 6c bd 92 c1 a5 3d
       -0.020970218 -0.23500788 -0.057826657 0.08093561
000190 17 d5 36 3e e0 3b df 3e 62 16 f7 3e 27 cb 11 be
       0.17854725 0.43600368 0.48259264 -0.14237653
0001a0 27 d6 61 bd f7 ca 37 bb 01 4a 89 3d a2 d8 b9 3c
       -0.055135872 -0.002804456 0.06703568 0.022686306
0001b0 35 48 77 3e d6 d5 1e be 41 ec a3 bd 5a 83 05 bb
       0.24148639 -0.1551126 -0.08004046 -0.002037248
0001c0 e1 bb ec 3d 2a c6 bd 3d cc 95 d8 3c 22 f2 d4 3c
       0.115592726 0.092663124 0.026438616 0.025994364
0001d0 3f c0 ed 3d 55 77 02 3e 2b ce c1 bc 45 a4 52 bb
       0.11608934 0.12740834 -0.023657879 -0.003214137
0001e0 8d aa 8d bc 02 2e de 3e d9 53 af 3d 9f 54 fe bd
       -0.017293239 0.43394476 0.085609145 -0.12418484
0001f0 b4 52 61 3e 7c ec 5f bc 43 56 47 bd 6c 88 71 bd
       0.22004205 -0.013667222 -0.04866625 -0.058967993

fc.bias f4 [2]
000000 04 d0 97 3f 4e ac b1 bf
       1.1860356 -1.3880708
