experiment/IBM_HI_S/EGNN/EGNN_checkpoint.pt (torch_old, 91289 bytes, 6 tensors)

node_layers.0.weight f4 [64, 92]
000000 72 9e 16 bd a4 2d 53 be 91 c1 0c ba 0c a1 88 3d
       -0.0367722 -0.2062288 -0.000536942 0.06671342
000010 76 bc 9a bd f7 3d 91 bd dc 3b c8 be f1 48 3c 3e
       -0.07555477 -0.07091897 -0.3910817 0.183872
000020 8e 28 08 3d eb 07 0a be 69 eb a6 bd 52 78 7f be
       0.0332418 -0.13479583 -0.0815037 -0.24948242
000030 ff 7e c5 3d c4 f5 63 bd 85 08 17 3e 73 52 3f 3d
       0.09643363 -0.055654302 0.14749344 0.04670949
000040 43 6e a4 3d 88 f0 e1 bd f8 a0 c6 3e 23 3a 9a be
       0.08028843 -0.11032206 0.38794684 -0.3012248
000050 81 08 03 bd c2 f2 87 bd 34 4d a5 bd 73 8a fb bf
       -0.03199053 -0.06638099 -0.08071366 -1.9651626
000060 a9 60 b3 bf da ca 1f 3f 48 2b 86 3f 44 b0 ed 3f
       -1.4013873 0.624189 1.0481958 1.8569417
000070 0b 67 8b bf 01 93 1c c0 10 5f 1c 3f b2 24 b9 bc
       -1.0890821 -2.4464724 0.61082554 -0.022600506
000080 38 f8 d9 3f 80 ad 4e 3f a2 6d 18 c0 41 74 ec c0
       1.7028875 0.8073349 -2.3816915 -7.389191
000090 b1 03 a8 c0 40 c0 81 40 0a f6 71 40 db 00 da c0
       -5.2504506 4.054718 3.780642 -6.8126044
0000a0 e5 be e1 bf 62 c4 9f bf 9a 36 23 bf 1e 4b eb 3f
       -1.7636381 -1.2481806 -0.6375519 1.8382299
0000b0 49 7c 0c 3f 06 c0 42 c0 11 dd 82 3d f7 fd a0 bd
       0.54877144 -3.0429702 0.06389821 -0.0786094
0000c0 29 50 bb 3e a4 49 33 3e fd 54 1b 3e 17 01 80 bd
       0.36584595 0.1750856 0.15169139 -0.06250208
0000d0 6f 2d 87 be 03 07 38 3e 0f 6d 9a bb dc b6 e6 3e
       -0.2640185 0.17971425 -0.004712708 0.45061386
0000e0 a4 34 0a 3c 30 dc 21 be 2c 83 e0 3d cc fa 1e be
       0.008435402 -0.15806651 0.10962519 -0.15525359
0000f0 53 f1 cf 3d f8 bc 51 bb 7e b7 1c bd 46 c9 69 be
       0.10153451 -0.0032003503 -0.03826093 -0.22830686
000100 4a be 7d 3e 37 bd 35 be e2 2a ad 3e 6e 99 4c 3e
       0.24779621 -0.17747961 0.3382178 0.19980404
000110 eb b2 15 3e 7d 84 03 bd 0e 0e 54 be 33 e5 cf be
       0.14619033 -0.032108773 -0.20708486 -0.40604553
000120 97 82 5c be 98 14 81 be 45 99 b0 3c c7 5f a9 be
       -0.21534191 -0.25211024 0.02155746 -0.33080885
000130 9a bd b3 3e ce 80 af b9 36 5a 8d be eb a4 13 be
       0.35105592 -0.00033474568 -0.27607888 -0.1441838
000140 b1 93 b8 be 4e b6 b4 bd 0b 66 26 be df e1 0b 3b
       -0.3605018 -0.08823834 -0.16249864 0.0021344346
000150 f2 da 3d 3d 63 5b 96 3d cd 48 d3 bd 27 96 92 3e
       0.04635138 0.073416494 -0.1031662 0.28630182
000160 52 b3 1c be 66 70 8c be 4e b2 e0 bd a9 f2 7c be
       -0.1530278 -0.27429503 -0.10971509 -0.24701943
000170 a7 3a 41 be cc 31 5b ba 57 5d 22 bd 9f c9 0b 3e
       -0.1887003 -0.00083616073 -0.039639797 0.13651131
000180 8d 22 99 bc 9d cd 62 be 6f 15 ee be a0 1f 4e 3e
       -0.018693233 -0.22148748 -0.46500728 0.20129251
000190 b2 58 74 be 0e 6d 50 be 95 11 de 3b 2b b2 1c 3e
       -0.2386196 -0.20354101 0.0067769983 0.1530234
0001a0 03 30 9d 3d ed f2 43 be 24 fe 73 3e 2c c0 af 3d
       0.07675173 -0.19135638 0.23827416 0.08581576
0001b0 82 8a 45 3d 36 91 c8 bd c4 ca 60 3d 8a c5 d7 be
       0.048227794 -0.09793322 0.054880872 -0.42142898
0001c0 12 eb 17 be 5d 5a 2b bd c6 f6 85 bd f4 e5 9c bf
       -0.14835766 -0.041834224 -0.06541209 -1.2257676
0001d0 00 84 58 bf bd 10 90 3f 83 41 84 3f 89 1a 11 40
       -0.84576416 1.1255108 1.0332493 2.2672446
0001e0 2b af f2 bf 98 4a be bf 4b 19 1a 3f 83 2a 40 bf
       -1.8959707 -1.4866514 0.60194844 -0.7506487
0001f0 00 9a 9b 3f 3f 4b 13 be bd ad e8 bf 4b 4c e0 c0
       1.2156372 -0.14384173 -1.8178021 -7.009313
000200 1c 73 ac c0 c7 e7 38 40 15 29 18 40 43 48 e1 c0
       -5.3890514 2.8891466 2.3775074 -7.040071
000210 e5 8c c0 bf ff a9 18 bf bc 9c a2 be 65 80 0b 40
       -1.5042998 -0.59634393 -0.31760204 2.1797116
000220 17 cd 8b be 6a f5 0a c0 95 e6 49 3d 5c 2a 6c bc
       -0.2730491 -2.171229 0.049292166 -0.014414396
000230 f6 e9 2f 3e aa 3a 5c 3e 97 6b b0 3d 69 42 0e bd
       0.17179093 0.21506754 0.08614271 -0.034731302
000240 9d 81 e8 be 3a f9 a8 3d 74 f6 db bd 52 58 dc 3e
       -0.45411387 0.08250661 -0.107403666 0.43036133
000250 28 f3 b0 3d da 6e 4d 3e bd 83 80 3c 0a 1e e2 bd
       0.086401284 0.20061818 0.015687818 -0.11040886
000260 ae c1 5b 3e e1 a9 bc 3d c6 02 01 bc 1e 65 20 3e
       0.21460602 0.09212089 -0.007874196 0.15663573
000270 8a 66 10 3e 29 3f d7 be 28 87 da 3e 8e 63 39 3e
       0.14101616 -0.42040375 0.4268124 0.18104383
000280 67 86 2f 3d e0 30 93 bd 8f 4d 1a 3c 33 2a b9 be
       0.042852785 -0.071870565 0.0094179055 -0.36165008
000290 9d d6 27 be 60 56 26 be d2 3c 5c be 79 a8 b9 be
       -0.16390462 -0.16243887 -0.21507576 -0.36261347
0002a0 e1 7a 44 3d c4 a4 1c be 00 75 a9 be ea c6 28 be
       0.04796875 -0.15297228 -0.33097076 -0.1648213
0002b0 34 2d 12 3e b5 68 04 bd 75 1f 7f be f3 d7 5b 3d
       0.14275056 -0.03232642 -0.24914344 0.053672742
0002c0 9b 36 ac 3d 10 a4 d6 3d f8 8f f6 bc 9a c6 8f 3c
       0.08408853 0.10480511 -0.030097947 0.017550755
0002d0 d9 0b b4 be ae dd 84 be 27 f8 90 3d 2a 70 0e be
       -0.3516529 -0.25950378 0.07078581 -0.13909975
0002e0 e8 75 e7 bd 94 4f 90 be 45 4f fa bd 51 5a 9a bd
       -0.11301786 -0.28185713 -0.12222151 -0.07536758
0002f0 45 9b cc 3d a5 77 ef bd aa 11 85 be f8 af d9 3d
       0.09990553 -0.11692742 -0.2599004 0.106292665
000300 cd 02 c3 3d 05 ef 8a 3c 26 f5 a5 bd a8 92 f5 3d
       0.095220186 0.016959677 -0.08103399 0.11990863
000310 a4 e0 08 3e 9f d5 ae bd 2a 78 3e 3d a8 60 3b 3d
       0.13366944 -0.08536839 0.046501316 0.045746475
000320 c5 86 b4 3c d9 4f 35 3c 21 34 3e bb 45 12 47 be
       0.02203692 0.0110664 -0.002902277 -0.19440563
000330 3f 4e 05 be 12 70 27 bc a7 1a 51 3d 32 5d 44 bf
       -0.1301813 -0.010219591 0.05105081 -0.76704705
000340 66 88 8e bf 94 b5 23 3f 9a 7d be 3f 1f 53 bd 3f
       -1.1135375 0.6394894 1.488208 1.4790992
000350 3b 1c c5 bf d6 d0 04 c0 e2 34 08 3f 3b 46 12 3f
       -1.539924 -2.0752463 0.5320569 0.57138413
000360 a3 03 30 3f 81 77 21 40 ec 41 9f bf d5 06 d4 c0
       0.6875555 2.522919 -1.2441993 -6.625834
000370 68 13 94 c0 ac 12 13 40 cd f6 f0 3f 4e 56 b2 c0
       -4.627369 2.2980146 1.8825318 -5.5730352
000380 41 62 53 bf 06 f0 32 bf 88 d0 e1 3f b5 58 a9 3f
       -0.825718 -0.69897497 1.7641764 1.3230196
000390 64 36 8e 3e cb c6 97 bd f9 a1 90 3d 04 6d 33 be
       0.27775872 -0.074109636 0.07062144 -0.17522055
0003a0 36 14 cb be 19 2c ad bd a5 c7 51 3d 1c 45 6f be
       -0.39663857 -0.084556766 0.051215786 -0.23366207
0003b0 8a 9e e8 bd b7 2c 94 3d 2d 13 bb 3d 16 c6 91 3e
       -0.11358364 0.07235091 0.09134517 0.2847144
0003c0 ad 4e 2e 3d cb d3 51 3d 28 2f 3a 3e 20 dd e0 bd
       0.0425555 0.051227372 0.18182051 -0.10979676
0003d0 4d 80 52 bd 0d a6 aa 3c ab 77 4b 3d 97 26 2d 3c
       -0.05139189 0.020831132 0.04967467 0.010568283
0003e0 99 4c 95 3d 62 42 8c be a5 a4 2d 3e b6 51 6f bc
       0.072900005 -0.27394396 0.16957338 -0.014606884
0003f0 54 ae 54 3e e9 94 00 bd 7e 3b 53 be f1 1b e8 bd
       0.20769626 -0.03139201 -0.20628163 -0.113334544

node_layers.0.bias f4 [64]
000000 9b 02 d5 c1 e1 3e d9 c1 0b 32 8b c1 89 ea 53 c1
       -26.626272 -27.155703 -17.399435 -13.24476
000010 cb b2 97 c1 d7 60 b0 c1 f7 1e cf c1 87 91 c8 c1
       -18.962301 -22.047285 -25.89012 -25.071058
000020 43 98 c5 c1 cd 51 d0 c1 95 1c 82 c1 4d 82 b8 c1
       -24.699347 -26.039942 -16.263956 -23.063623
000030 a8 d4 a7 c1 cd 3d bd c1 8c 58 96 c1 ec 50 a0 c1
       -20.978836 -23.655176 -18.793236 -20.039513
000040 d5 40 10 c1 cc 00 bd c1 ef eb 8c 40 f0 9d c1 c1
       -9.015828 -23.62539 4.4038005 -24.202118
000050 cf c0 25 41 4d 33 ba c1 99 eb b8 c1 a7 04 c1 c1
       10.359572 -23.27505 -23.115038 -24.127272
000060 55 a5 bb c1 ce dc af c1 75 f9 be c1 42 5c a5 c1
       -23.455729 -21.982815 -23.871805 -20.670048
000070 53 be e0 c1 c0 11 b4 c1 4c 5e 33 c1 ed be 97 c0
       -28.092932 -22.508667 -11.210522 -4.7420564
000080 6e 17 d2 c1 ac 38 ab c1 a3 54 8f c1 67 87 70 bf
       -26.26144 -21.402672 -17.916327 -0.9395661
000090 e1 2c b4 c1 1f 91 c9 c1 fb 26 f6 c1 ea b2 1b c0
       -22.521914 -25.19586 -30.769033 -2.432795
0000a0 ed e5 e3 c1 c0 f8 d0 c1 37 9e b4 c0 ab 62 8c c1
       -28.487268 -26.12146 -5.6443133 -17.548178
0000b0 58 7c c9 c1 cc 85 d3 c1 93 29 bc c1 d7 5e 87 c1
       -25.185715 -26.44033 -23.5203 -16.921309
0000c0 ab 46 da c1 b5 85 1a c1 9b b0 d5 c1 d4 31 cb c1
       -27.284506 -9.657643 -26.711233 -25.39933
0000d0 8b 30 6d c1 b8 3a e4 c1 07 a1 d7 c1 1a 9c bf c1
       -14.824351 -28.528671 -26.953627 -23.951221
0000e0 3a 5b be c1 86 de df c1 71 5f ad c1 4a 73 cd c1
       -23.794544 -27.983654 -21.671602 -25.681293
0000f0 49 38 a6 c0 57 c3 ca c1 7d 3c b4 c1 9d 20 e0 40
       -5.1943707 -25.34538 -22.529535 7.003981

node_layers.1.weight f4 [64, 256]
000000 78 b2 5c 3d 28 7d 25 be cf f4 4b 3e f5 bf ae 3d
       0.05388114 -0.16161025 0.19917606 0.08532707
000010 2e de 20 be 01 0b 98 3c b4 f0 a5 bc 82 48 87 be
       -0.15709755 0.018559935 -0.020256378 -0.26422507
000020 f1 d8 c3 bd 2b 4c 94 3d 6c b0 ee bc 0e 14 f7 3d
       -0.09562863 0.072410904 -0.029136859 0.12064372
000030 94 b9 ce bd 0d 2f 04 3e 3d 7d 50 3d a0 b1 4a 3e
       -0.1009399 0.12908573 0.050900687 0.19794321
000040 fa e7 89 bd 91 46 ac bc 3a db 6c bd 6a ba ae bd
       -0.06733699 -0.021029742 -0.05782626 -0.085316494
000050 ce 66 df bd 78 f2 a4 bd 9b c6 d5 bc 1c 0c 64 bd
       -0.1090828 -0.0805406 -0.026095679 -0.05567561
000060 78 84 8a 3e 21 7e 91 3d d7 72 16 be 82 3c 69 3d
       0.2705419 0.07104135 -0.14692245 0.05694247
000070 b8 bf 14 3e 47 9e a5 bd 4c c5 76 3d c8 f1 a2 bd
       0.1452626 -0.0808683 0.06024675 -0.07956272
000080 79 e6 19 bd 68 e5 94 bc de 39 36 bd cb 42 0a 3e
       -0.03757331 -0.018175796 -0.04448878 0.13502042
000090 cc f0 f5 3d 6e 73 df 3d 38 e6 f8 3d fa 9c e0 3d
       0.12008819 0.10910688 0.12153286 0.10967441
0000a0 ae 3f d5 3d 7d 77 7b bb 8a 15 a4 bd 07 92 91 3d
       0.104125366 -0.003837078 -0.08011921 0.07107931
0000b0 cf 09 22 be a7 d2 a3 be 7a 68 50 be 51 2e 7f 3d
       -0.15824054 -0.31996652 -0.20352355 0.06230003
0000c0 97 6c 0a 3e f6 20 a8 bc e3 20 09 3e a6 22 65 3d
       0.13517986 -0.02052353 0.13391452 0.055941246
0000d0 9a f8 de 3c 8b 5e 1c 3d 82 89 bd bd 83 f1 c0 bc
       0.027218152 0.0381761 -0.09254743 -0.023552662
0000e0 bc c8 ed 3d a3 f1 0c 3d 19 17 84 3d 6a eb 8d 3c
       0.11610553 0.03441013 0.06449718 0.017324168
0000f0 44 cb 65 bc e8 a3 70 be 64 d8 83 3c 34 28 90 bd
       -0.014025513 -0.23500025 0.016094394 -0.07038918
000100 82 e1 40 3c a7 3d fb 3d 4c 27 af 3f 66 42 3c bd
       0.011772515 0.122676186 1.3683867 -0.04596176
000110 61 dc a4 3e b1 fc 3d 3e a3 b8 62 3e fc 3a e0 3e
       0.32199386 0.18553425 0.22140746 0.43795002
000120 da 4b 17 3f fe 27 2c bf 71 bd 90 bf eb 14 b1 3e
       0.59100115 -0.67248523 -1.1307813 0.34586272
000130 a0 33 c3 3e a4 aa 5b 3d dc 1d da 3f 6a c2 f0 bd
       0.38125324 0.053629532 1.7040362 -0.117558315
000140 23 4d 19 3f 6e 8c 90 bd 6a 82 c5 bf c0 b3 1a 3f
       0.59883326 -0.07058035 -1.5430424 0.60430527
000150 4a 22 38 c0 6a fa c3 be ba cf 7e 3f 90 d7 60 3c
       -2.8770928 -0.38276988 0.99535716 0.013723269
000160 15 ac 7b bf 82 b7 98 be 24 42 d6 3d 75 13 65 be
       -0.9830945 -0.29827505 0.10461834 -0.22370704
000170 02 65 d9 3e 24 9f 18 3e f3 6b 12 3e df 96 74 3e
       0.42459875 0.14904457 0.14298992 0.23885678
000180 5b 42 8d 3f d3 6b 73 3f 39 6f d7 3e ce 8f 30 40
       1.1035875 0.950864 0.42077044 2.7587771
000190 ec d3 25 3f 1f a6 26 bf f0 e3 d1 be 08 4c 88 3e
       0.6477649 -0.6509723 -0.40994215 0.26620507
0001a0 96 42 c6 3f ae ca 49 3f 3d 27 2d bb b6 e4 a0 3e
       1.548907 0.7882489 -0.0026421093 0.31424493
0001b0 7d c2 bc 3e 55 26 10 3e 52 4b 43 3f 89 cb 8b 3f
       0.36867133 0.14077123 0.76286805 1.0921489
0001c0 1d 5a 22 3f c6 a3 38 3f 32 61 10 3e 5e f8 fb 3d
       0.6341875 0.721249 0.14099577 0.12303232
0001d0 30 02 1f 3f 45 a2 06 bf d3 bb 1e 3f 88 b6 67 3f
       0.6211271 -0.52591354 0.62005347 0.90512896
0001e0 c6 3c 47 3f f5 aa e5 3e fb ff df 3f d3 32 a4 3e
       0.7782711 0.44856992 1.7499994 0.32070026
0001f0 d4 1a ae bf 4b 93 dc bd ed db 4a 3f 04 be 62 c0
       -1.3601937 -0.107702814 0.7924183 -3.5428476
000200 ed 30 94 3d df 87 3f be 6d d3 80 3e ea f3 4d 3e
       0.07235894 -0.18704174 0.25161305 0.20112577
000210 93 49 9c bc 2e e3 9e 3c 84 e9 c1 3d 6b 5e a4 bd
       -0.019078052 0.019395437 0.09468368 -0.08025821
000220 62 49 01 3d a8 27 72 3d 3c 04 ff 3b 8e e8 52 3e
       0.031564124 0.05911985 0.007782487 0.20596525
000230 08 8b 66 3d fd b1 82 3e ab b6 4c 3e 71 48 20 3e
       0.056284934 0.2552642 0.19991557 0.15652634
000240 ed 7c 91 3d 39 f6 09 3e cb cf 39 bc 64 3e 65 3c
       0.07103906 0.13472833 -0.011341046 0.013991926
000250 33 8c bd 3d 58 5e 6e 3d a7 a2 02 3e 6c 73 bd 3d
       0.092552565 0.058195442 0.1275736 0.092505306
000260 28 49 c0 3e ac 39 78 3d 16 88 b0 bd 39 de 35 3e
       0.37555814 0.060601875 -0.08619706 0.17760552
000270 18 9c 87 3e 88 ae a2 bd f8 96 56 3e 7b ed 3e 3d
       0.26486278 -0.079434454 0.20956028 0.046613198
000280 0e db c1 3d 02 20 ac bd 0d e7 fe 3b a5 97 8e 3d
       0.094656095 -0.084045425 0.0077790082 0.06962518
000290 51 05 55 3e 73 98 bd 3d 34 88 6a 3d 6c 26 d5 3d
       0.2080281 0.09257593 0.0572588 0.10407719
0002a0 97 22 f4 3d db a0 bc 3d b8 50 b7 3c 77 be 36 3d
       0.1192066 0.09210368 0.022377357 0.044615235
0002b0 a7 7f 9a bb 2e f4 6a be 05 15 9b bd f2 68 57 3e
       -0.0047149244 -0.2294471 -0.075723685 0.21036127
0002c0 40 ae 83 3e 8e 22 84 3d 83 a8 83 3e 87 81 77 3e
       0.2571888 0.06451903 0.25714502 0.24170505
0002d0 70 8a df 3d 8d 7b 6d 3d 0e f1 05 3b 86 43 46 bd
       0.10915077 0.057979155 0.002043787 -0.04840424
0002e0 8f c2 07 3e 39 1d 5a bd e2 13 ce 3d 61 fa 12 3e
       0.13257812 -0.053250525 0.10062386 0.14353324
0002f0 f3 8e 43 3e 01 27 b5 bd 8a a2 9b 3d 68 29 fb 3b
       0.190975 -0.0884533 0.07599361 0.007664848
000300 e7 06 58 bd 14 64 a3 be b6 a5 65 3e 84 2b 12 bd
       -0.052740958 -0.3191229 0.22426495 -0.03568603
000310 00 6e 16 be 33 7e 69 bb 84 9b ba bd 4e f2 c8 be
       -0.14690399 -0.00356282 -0.091116935 -0.39247364
000320 4c 51 75 be 41 8b 52 bd 8d a3 0e bd ae 6d ab bc
       -0.23956794 -0.051402334 -0.034823943 -0.020926323
000330 8d 56 be bd 6b f6 1d 3e 84 7e 9b bd 5f 76 a8 3d
       -0.09293852 0.15426032 -0.0759249 0.082257025
000340 5a 29 c9 bd f8 a6 37 be 32 f4 17 be 4b e2 8e bc
       -0.0982234 -0.17934787 -0.14839247 -0.01744189
000350 ea 42 44 be 3e 90 ee bd c4 64 f6 bd e6 bb c7 bd
       -0.1916615 -0.11648606 -0.12030938 -0.09752636
000360 31 2f 41 3e 40 c9 69 3c ef fe 62 be 5f ff a5 bd
       0.18865658 0.014269173 -0.22167562 -0.08105349
000370 71 eb 27 3e a8 82 16 be 86 4c 8d 3d a8 d3 37 be
       0.16398408 -0.14698279 0.06899361 -0.17951834
000380 7d fd db bd 62 68 2f be 57 94 22 bd b0 a2 b4 3d
       -0.107417084 -0.17129663 -0.03969225 0.08820093
000390 e3 6d 6d bd b0 f5 b0 3c cb dd 62 3d dd 60 42 3d
       -0.057966124 0.021601528 0.0553873 0.047455657
0003a0 2e ee 76 3d 1a 7c 55 be 5c c6 41 be 91 90 71 bd
       0.06028574 -0.20848122 -0.18923324 -0.05897576
0003b0 fe b5 e6 bd ec d7 ba be ba a8 03 be 30 1e 4f 3d
       -0.11265181 -0.3649286 -0.12857333 0.0505659
0003c0 77 d9 3a 3e 7a 06 b4 bd bd 8a 02 3e ba 5f 33 3b
       0.18247019 -0.08790298 0.12748237 0.002737029
0003d0 cc a5 f9 bc 28 11 41 bd 00 83 5a be de 22 6c bc
       -0.030474566 -0.047135502 -0.21339035 -0.01441261
0003e0 9e 38 17 bd 44 95 30 bd db c5 d8 bd c4 5a 24 be
       -0.03691923 -0.0431111 -0.10584613 -0.1605025
0003f0 61 4c b9 bd 3c a4 b6 be 33 92 96 bd 30 86 14 be
       -0.09047771 -0.35672176 -0.07352104 -0.14504313

node_layers.1.bias f4 [64]
000000 3c d7 e0 c1 15 49 cd c1 2e 7a de c1 bd 72 c7 c1
       -28.105095 -25.660685 -27.809658 -24.931025
000010 42 ee e4 c1 86 36 cc c1 c7 ae d7 c1 ec bf d4 c1
       -28.616337 -25.526623 -26.96034 -26.593712
000020 23 b6 e9 c1 5e 85 d4 c1 91 c7 d6 c1 1f 26 de c1
       -29.213934 -26.56512 -26.847445 -27.768614
000030 ad 1f 80 3c 37 cb b3 c1 fa 7a e1 c1 45 02 ea c1
       0.015640104 -22.474226 -28.185047 -29.251108
000040 9a f5 d4 c1 ea f2 c8 c1 3a 86 d2 c1 15 8b d2 c1
       -26.619923 -25.11861 -26.31554 -26.317911
000050 c1 53 d3 c1 17 31 d7 c1 5c 28 e6 c1 e4 bb c6 c1
       -26.415895 -26.89897 -28.769707 -24.841743
000060 1a 00 ec c1 fb 24 dc c1 f0 84 ed c1 a7 7a cf c1
       -29.50005 -27.518057 -29.68991 -25.934889
000070 61 da e0 c1 86 1a b8 c1 17 15 d8 c1 0f 05 d7 c1
       -28.10663 -23.01295 -27.010298 -26.87747
000080 12 b2 de c1 af 63 bd c1 82 6e e4 c1 75 7e d5 c1
       -27.836948 -23.673674 -28.553959 -26.686747
000090 9e 05 d3 c1 95 bf e7 c1 99 eb e0 c1 07 36 cc c1
       -26.377743 -28.968546 -28.115038 -25.52638
0000a0 e8 ef e7 c1 50 50 e8 c1 5d 1d d4 c1 5b bf 9d 40
       -28.992142 -29.039215 -26.514338 4.929609
0000b0 2f 65 e8 c1 ab 81 e7 c1 9a 55 d5 c1 a2 45 da c1
       -29.049406 -28.938314 -26.666798 -27.284
0000c0 3b a8 bb c1 e1 90 e5 c1 1f 94 ce c1 9d 4a 59 bd
       -23.457144 -28.695742 -25.822325 -0.053049672
0000d0 e3 75 8b 41 7c 81 d6 c1 46 f5 cc c1 9e d3 d8 c1
       17.432562 -26.813225 -25.619762 -27.103329
0000e0 03 55 b7 c1 74 70 dc c1 18 59 cb c1 76 0e d3 c1
       -22.91651 -27.554909 -25.418503 -26.382061
0000f0 fe b4 ea c1 cd b3 c3 c1 c7 24 09 bd 38 d7 e1 c1
       -29.338375 -24.462793 -0.03348234 -28.230087

fc.weight f4 [2, 64]
000000 d4 36 18 bd 68 0b a6 bd f0 e2 af 3d d2 25 55 bc
       -0.037161663 -0.08107644 0.08588207 -0.013009505
000010 26 af 5b bd 2e de 4d 3d c0 3a 96 3d 88 b1 7a bd
       -0.05363383 0.050260715 0.073354244 -0.061204463
000020 1a db 92 3c 88 39 b2 3d 71 cc 5a bd f5 66 24 3d
       0.017926741 0.087023795 -0.053417627 0.04013725
000030 d4 02 c4 bc 54 9e a1 3d 9a cc d2 3c 44 df cd 3d
       -0.02392713 0.07891527 0.025732327 0.1005235
000040 26 68 32 bd 2f 3f a8 3c c1 fd 44 bc 2a 02 88 3c
       -0.043556355 0.02053794 -0.01202339 0.016602594
000050 d2 d0 14 3c 33 cb 7f bb c0 50 79 3d 8c ab f6 bc
       0.00908299 -0.0039031028 0.060868025 -0.030111097
000060 0e b6 75 3c e9 f2 18 bd b1 ae 00 3c e9 ce 81 3b
       0.0149970185 -0.037341032 0.00785415 0.003961433
000070 05 6d d5 bd ce 79 78 bd 3e 37 d6 bc c9 39 93 ba
       -0.104211845 -0.060663037 -0.026149388 -0.0011232431
000080 c6 30 04 bc db 86 68 bd 71 57 42 bd 4e cb 5e bc
       -0.008068269 -0.056769233 -0.047446672 -0.013598276
000090 4e a0 8a 3d e1 9b 87 3d 7f f2 e2 3c d9 4f 6d 3d
       0.06768857 0.066215284 0.027703522 0.057937477
0000a0 29 86 c8 bb 6b 3e 8d bd 4d ee 02 3c 31 f0 28 bc
       -0.0061195088 -0.06896671 0.007991386 -0.010311172
0000b0 12 b7 97 3d c6 2f 14 3d 44 17 88 3c a2 75 4b 3c
       0.07407965 0.036178373 0.016612656 0.012418183
0000c0 87 49 5d 3d 6c 86 6e bd 4e ef 9a 3b 36 ba 8f bc
       0.0540252 -0.058233663 0.0047282344 -0.017544847
0000d0 db f1 26 bd f8 58 d0 bd a6 c3 2e bd 18 61 14 bd
       -0.040757995 -0.101732194 -0.042667054 -0.03622541
0000e0 1d 66 c8 bd ae dc d2 bc 94 34 00 3e cf a2 71 bd
       -0.097851016 -0.025739994 0.12520057 -0.058993157
0000f0 a7 ea c5 bd 22 ef 8d bc bb d9 18 3c 7a a5 b9 3b
       -0.09663897 -0.017325941 0.009329255 0.0056654783
000100 52 87 0e bd 87 99 a1 bd 99 b5 8f 3d cc 24 e8 bb
       -0.03479702 -0.07890611 0.07017059 -0.0070844647
000110 f6 03 8b bd d9 77 02 3c 60 3f eb 3c 6e 92 a8 bd
       -0.06787865 0.007963144 0.028716743 -0.08231054
000120 2b 1e 91 bc f3 6a e7 3d cc 82 73 bd 1f 93 4f 3d
       -0.01771458 0.11299696 -0.05945091 0.050677415
000130 e2 df 8f 3c 97 0a af 3d 3b ac 8f bc c2 46 1c 3d
       0.01756281 0.08546942 -0.01753818 0.038153417
000140 a3 cd 93 bc 88 9d de 3d 73 66 8f bc 5f 69 53 3c
       -0.018042391 0.108698905 -0.017504906 0.01290354
000150 35 12 53 3b 96 86 02 bd 57 a4 6d 3d 34 dd a2 bc
       0.0032206897 -0.031866632 0.058018055 -0.019880868
000160 c5 7f 5a 3a d1 d0 8d bd 92 09 13 bd 0b 09 02 bd
       0.0008335079 -0.06924594 -0.0358978 -0.031746905
000170 3d 55 cd bd b8 da 3a bd 6b 23 39 bc a8 9b 5e bd
       -0.100260235 -0.045618743 -0.011299948 -0.054347664
000180 fb 38 e9 bc 1e 66 0f bd d4 62 37 bd 18 3e b6 bc
       -0.028469553 -0.035009496 -0.044771984 -0.022246405
000190 75 2c 89 3d e8 ab 9b 3c 21 bb 42 3c ca 35 85 3d
       0.06697933 0.01900287 0.011885435 0.065044
0001a0 27 39 7d 3a af 99 b9 bd b7 07 7f 3c 86 5f 39 bd
       0.00096597004 -0.09062516 0.015565804 -0.045257114
0001b0 e0 72 a4 3d 4f fd 93 3d 10 1e 99 bc 9a 8d fc 3c
       0.08029723 0.07226049 -0.018691093 0.03082924
0001c0 f6 a9 5f 3d 2e 5f d6 bc 98 dc f4 3a f3 a1 29 3d
       0.054605447 -0.026168432 0.0018681465 0.041414212
0001d0 fe 56 3c be c5 e5 be bd 41 4a e7 bc 2c 19 16 bc
       -0.1839256 -0.09321169 -0.02823365 -0.009161275
0001e0 0e 8c da bd 0e 54 1d 3c 67 e8 cd 3d 9e 5c 98 bd
       -0.106712446 0.00960256 0.10054093 -0.0743954
0001f0 04 70 ba bd cc 66 11 3c 22 a1 f3 3d f6 37 02 bd
       -0.091033965 0.008874606 0.11895968 -0.03179165

fc.bias f4 [2]
000000 2e 3d f0 3f b6 88 d9 bf
       1.876867 -1.6994846
