experiment/saml_20/TGAT/TGAT_checkpoint.pt (torch_old, 774616 bytes, 24 tensors)

time_layers.0.basis_freq f4 [32]
0	0x3f89d148	1.0766993
1	0x3f041f8f	0.51610655
2	0x3e85b7cb	0.26116785
3	0x3e43c77d	0.19119067
4	0xbd829082	-0.06375219
5	0x3dec2b44	0.1153169
6	0x3e240921	0.16019107
7	0xbe262c61	-0.16227867
8	0xbc0c1bd5	-0.008551558
9	0xbdd8d7ac	-0.10588011
10	0xbe065c56	-0.13121161
11	0x3d695410	0.056964934
12	0xbd8786b1	-0.06617487
13	0x3e80248e	0.2502789
14	0xbe3299c9	-0.17441477
15	0x3e73f869	0.2382523
16	0xbe0f2c15	-0.1398166
17	0x3e506d21	0.2035413
18	0x3dab17bb	0.083541356
19	0x3e1c1a7b	0.15244476
20	0xbdf0da4f	-0.11760389
21	0x3d865fb3	0.06561222
22	0xbd4da480	-0.050205708
23	0x3c8f7e4f	0.017516283
24	0xbc83ba04	-0.01607991
25	0xbe4d34e7	-0.20039712
26	0x3e1066a5	0.14101656
27	0x3d61a5bd	0.0550897
28	0xbdb7a15d	-0.089663245
29	0xbe06f17b	-0.13178055
30	0xbe12baf2	-0.14329126
31	0x3e39028f	0.18067382

time_layers.0.phase f4 [32]
0	0x3daa79f4	0.08324042
1	0x3ce160b9	0.027511941
2	0x3d865294	0.06558719
3	0xbd3d39e8	-0.0461978
4	0x3c5a5e9e	0.013328223
5	0xbe0f7113	-0.14007978
6	0xbe9ae410	-0.30252123
7	0x3c96baa8	0.018399552
8	0xbdaabaf9	-0.083364435
9	0xbc68514c	-0.014179539
10	0xbe2477f2	-0.1606138
11	0x3d4b85bd	0.04968809
12	0x3db4fa0e	0.08836757
13	0x3dade495	0.08490864
14	0xbe0cecad	-0.1376216
15	0x3e42f019	0.19036902
16	0xbdc1f1f3	-0.09469976
17	0x3e46da19	0.19419135
18	0x3e179b32	0.14805296
19	0x3e29ff14	0.16601211
20	0xbe90b418	-0.282624
21	0x3eac2087	0.33618566
22	0xbe840aff	-0.2578964
23	0xbce39ee1	-0.02778572
24	0x3bac00bf	0.0052491124
25	0xbde15be1	-0.11003853
26	0xbe93557e	-0.28776163
27	0x3d0dcd76	0.03461977
28	0xbdd15172	-0.102206126
29	0xbd28f003	-0.041244518
30	0x3e8418b7	0.25800106
31	0x3db1b1c0	0.08676481

time_layers.1.basis_freq f4 [32]
0	0x3f721b19	0.945726
1	0x3edde801	0.43341067
2	0x3e14327e	0.14472386
3	0x3e1d93a1	0.15388347
4	0xbd563ba8	-0.052302986
5	0xbdd383ae	-0.1032785
6	0x3d17b577	0.037038293
7	0xbc1b7ac6	-0.009489721
8	0x3c9ea976	0.019367915
9	0xbc51cc40	-0.012805045
10	0xbd211f1e	-0.039336316
11	0x3c4f8c94	0.012667794
12	0xba44191c	-0.0007480548
13	0xbdfa9fde	-0.122375235
14	0x3c4500d3	0.012024122
15	0x3ca5fbfd	0.020261759
16	0x3c9ea0b9	0.019363748
17	0xbd8e06aa	-0.06934865
18	0x3d678d92	0.056531496
19	0x3bbc8ac3	0.0057538464
20	0x3da81b39	0.08208317
21	0x3d63f02d	0.05564897
22	0xbc0752bf	-0.008259474
23	0x3d477585	0.04869606
24	0xbd0b4a02	-0.034006126
25	0x3c45cf69	0.012073376
26	0xbd90608c	-0.07049665
27	0x3d79925b	0.06093059
28	0xbd08037d	-0.03320645
29	0x3ca40a50	0.020024449
30	0xbd2529e1	-0.040323142
31	0xbcb070be	-0.021538135

time_layers.1.phase f4 [32]
0	0xbda4aae1	-0.08040405
1	0xbd90cb54	-0.07070032
2	0xbdd99994	-0.10624996
3	0xbe4a1daa	-0.19737878
4	0xbe176496	-0.14784464
5	0x3e9423d5	0.28933588
6	0xbe13dd50	-0.14439893
7	0xbdc1d97f	-0.09465312
8	0xbdee1f3f	-0.116270535
9	0xbe173511	-0.14766337
10	0xbe851b5e	-0.25997442
11	0xbc2e37fc	-0.010633465
12	0x3c24113a	0.010013873
13	0xbded5380	-0.11588192
14	0xbe9507af	-0.29107425
15	0x3d0c894f	0.034310635
16	0x3e011e52	0.12609223
17	0xbef8ae91	-0.48570684
18	0xbeb54a9c	-0.35408485
19	0xbdfd0a9b	-0.123555385
20	0xbe8511d5	-0.25990167
21	0xbe4280ee	-0.18994495
22	0x3c935801	0.0179863
23	0xbaf749a1	-0.0018866548
24	0xbe4df4ed	-0.20112963
25	0xbd989d37	-0.07451861
26	0x3de004de	0.10938428
27	0xbe283017	-0.16424595
28	0xbe297e9d	-0.16552205
29	0xbd054eaf	-0.03254574
30	0xbd1a7ef7	-0.03771874
31	0x3dbc1d42	0.09185268

attn_layers.0.w_qs.weight f4 [256, 65]
0	0xbe03b704	-0.12862784
1	0xbe0561a2	-0.13025525
2	0x3e688295	0.22706063
3	0xbdf2d207	-0.11856466
4	0xbd8499ec	-0.06474671
5	0xbe6d2c57	-0.23161446
6	0xbe6f4b06	-0.23368463
7	0xbe34d3ae	-0.17658874
8	0xbea4d608	-0.32194543
9	0xbd917dcb	-0.07104071
10	0x3daae00a	0.08343513
11	0xbdc7182d	-0.09721408
12	0x3cd1bdee	0.02560326
13	0x3e1f2d43	0.1554461
14	0xbd2b8684	-0.04187633
15	0xbd9d3fca	-0.076781824
16	0xbdeda05b	-0.11602851
17	0x3e070168	0.1318413
18	0xbd8d672e	-0.069044456
19	0xbda3235b	-0.07965728
20	0x3c79b402	0.015240671
21	0x3c9571c3	0.018242722
22	0xbc0aff61	-0.008483739
23	0x3d0b0091	0.033936087
24	0xbd7bff07	-0.06152251
25	0x3d7ec5ca	0.062200345
26	0x3da316ce	0.07963334
27	0x3ec3d386	0.38247317
28	0x3c011b95	0.007880111
29	0x3cb56c70	0.022146434
30	0x3d33b382	0.043872364
31	0x3e445923	0.19174628
32	0xbdb22e31	-0.087002166
33	0xbe14df50	-0.14538312
34	0x3eb20b23	0.34774122
35	0x3e86410d	0.26221505
36	0x3e887b10	0.2665639
37	0x3e167166	0.14691696
38	0x3e3c93a2	0.18415692
39	0x3e8f4d73	0.27988777
40	0x3e2327b8	0.1593312
41	0x3e83b326	0.25722617
42	0x3e012968	0.12613451
43	0x3d6783c5	0.05652215
44	0xbd73ea35	-0.05954953
45	0x3e94dbd5	0.2907397
46	0x3e1a5054	0.15069705
47	0x3dd91068	0.10598832
48	0xbde9b3fe	-0.11411284
49	0x3e79971c	0.2437405
50	0x3dec7d23	0.115473054
51	0x3dad8666	0.084729
52	0x3e05de56	0.13073096
53	0x3e5853b9	0.21125688
54	0xbd1f2739	-0.038855765
55	0x3e798351	0.243665
56	0x3e1cd05f	0.15313862
57	0x3e82803a	0.25488454
58	0x3c090218	0.008362316
59	0xbb1268d7	-0.0022340321
60	0x3dcb7661	0.09934688
61	0xbc349b64	-0.011023376
62	0x3ead4927	0.33844873
63	0xbdae69af	-0.08516251
64	0xbce808bb	-0.028324476
65	0xbe2e6ef8	-0.17034519
66	0x3df1612b	0.117861114
67	0x3da49ecd	0.08038101
68	0xbdc56222	-0.09637858
69	0x3d1d7b73	0.03844781
70	0x3e258c84	0.16166884
71	0xbe12aa6f	-0.14322828
72	0x3dde9dfa	0.108699754
73	0xbe907581	-0.28214648
74	0xbdaebab8	-0.085317075
75	0xbe8ff14c	-0.28113782
76	0xbdff728b	-0.12473019
77	0xbcf6f8ad	-0.030147875
78	0x3d8eb66b	0.06968387
79	0xbe63d6c5	-0.22249897
80	0x3e757fa0	0.23974466
81	0x3ba8635b	0.005138797
82	0x3d1c5e30	0.03817576
83	0xbd8a2975	-0.067461886
84	0x3e4ae20f	0.19812797
85	0x3e4f225f	0.20227955
86	0xbd975b66	-0.0739048
87	0x3e0e3d7d	0.13890643
88	0xbd543101	-0.051804546
89	0xbc3286d9	-0.010896408
90	0xbe0b91ef	-0.13629888
91	0xbe062459	-0.13099803
92	0xbe0b30b5	-0.13592799
93	0xbe444f48	-0.19170868
94	0x3c184e7a	0.009296054
95	0xbb1eb4dd	-0.002421669
96	0x3d225ad9	0.03963742
97	0xbc851b59	-0.016248392
98	0xbdf32806	-0.11872868
99	0xbcba3887	-0.022732032
100	0xbe01fe16	-0.12694582
101	0xbdc6dc96	-0.09710042
102	0xbda481ce	-0.08032571
103	0x3e262f45	0.1622897
104	0x3db12bf4	0.086509615
105	0xbe56f99e	-0.20993659
106	0x3cd3ec25	0.025869438
107	0xbd8a3c18	-0.06749743
108	0x3e0c8546	0.13722715
109	0xbe76831b	-0.2407345
110	0x3e011e0e	0.12609121
111	0x3c74ca6a	0.014940837
112	0xbd00b133	-0.03141899
113	0xbd40c409	-0.047061954
114	0x3c31e621	0.01085809
115	0xbca0d03d	-0.019630546
116	0xbbb50caf	-0.0055251936
117	0x3e25c53b	0.16188519
118	0xbe9fe422	-0.3122874
119	0x3db5c38b	0.088751875
120	0x3e33fb41	0.17576315
121	0x3dbf93a7	0.09354334
122	0x3db89c69	0.09014208
123	0x3d5b0045	0.053467054
124	0x3d4769d6	0.048684917
125	0x3dc53857	0.096298866
126	0x3d820d14	0.06350151
127	0x3dbaaccd	0.091149904
128	0x3d0ae80e	0.03391271
129	0xbe169c9a	-0.14708176
130	0x3dcd091a	0.100115016
131	0x3da75ae0	0.0817163
132	0xbd804b2d	-0.06264339
133	0x3d059cb8	0.03262016
134	0xbd35c822	-0.044380315
135	0xbe36dc0c	-0.17857379
136	0x3e045921	0.12924625
137	0x3ba29eaf	0.004962764
138	0xbea3b680	-0.31975174
139	0xbe486d0a	-0.19572845
140	0xbe879815	-0.26483217
141	0xbe5fb349	-0.21845736
142	0xbdf99f1e	-0.12188552
143	0x3cb7afc4	0.022422679
144	0x3e552c60	0.20817709
145	0xbec63322	-0.38710886
146	0xbe3e5c69	-0.18589939
147	0xbe1f4d67	-0.1555687
148	0xbdae60ea	-0.08514579
149	0xbe34fee3	-0.17675357
150	0xbddec2b3	-0.1087698
151	0xbe2ef274	-0.17084676
152	0x3dae3c18	0.08507556
153	0x3e0ede9d	0.13952108
154	0xbda247d1	-0.07923854
155	0x3da416c4	0.08012155
156	0xbdb5f42f	-0.08884465
157	0x3e9503ea	0.2910455
158	0x3de33cf7	0.110956125
159	0x3da0f51d	0.07859252
160	0x3e17e2a2	0.14832547
161	0xba90ef96	-0.001105773
162	0xbe1cc817	-0.15310703
163	0xbe218385	-0.15772827
164	0x3e065033	0.13116531
165	0x3e8b91e8	0.27259755
166	0x3d35bf58	0.044371933
167	0x3c2d4af2	0.01057695
168	0xbe98bff2	-0.29833943
169	0x3e001aab	0.12510173
170	0x3eb24b9c	0.3482331
171	0xbdd4123d	-0.10355041
172	0xbe985698	-0.29753566
173	0x3acd8401	0.0015679599
174	0x3d687729	0.056754265
175	0x3d395959	0.045251224
176	0xbdb374aa	-0.08762486
177	0x3e00cec9	0.12578882
178	0x3d98260a	0.074291304
179	0x3d0edbdf	0.034877654
180	0xbdd40fed	-0.103546
181	0x3e3865da	0.18007603
182	0x3d3ac81b	0.04560099
183	0x3cb90d31	0.022589298
184	0xba70229d	-0.0009160431
185	0xbd9c7c8f	-0.07640945
186	0x3c3d310c	0.011547338
187	0x3d986456	0.074410126
188	0xbd57ced1	-0.05268747
189	0x3cee95ef	0.029124228
190	0x3de801a1	0.11328436
191	0x3e5dd55d	0.21663423
192	0x3e1a7e92	0.15087345
193	0x3daf42ab	0.08557638
194	0x3d7f2aa4	0.062296525
195	0xbe4cc8d5	-0.19998486
196	0xbdb5d498	-0.0887844
197	0x3daf8b29	0.085714646
198	0x3e02dfc8	0.12780678
199	0xbe9697aa	-0.29412585
200	0x3cb74838	0.022373304
201	0xbdf41986	-0.11918931
202	0xbcf0ec30	-0.029409498
203	0xbe4e8378	-0.20167339
204	0xbe55c86d	-0.20877238
205	0xbc9d3a9c	-0.019192986
206	0xbe5e42a7	-0.21705113
207	0x3dcb6876	0.09932034
208	0xbd71b101	-0.059006695
209	0x3b636cf2	0.0034702388
210	0xbe18cab5	-0.14921077
211	0x3d0c07ae	0.03418701
212	0x3dff357e	0.12461375
213	0x3e28adf8	0.16472614
214	0xbd6df395	-0.058093626
215	0x3d461318	0.048358053
216	0x3ce65859	0.0281183
217	0x3e528b3c	0.20560926
218	0xbce8ce19	-0.028418588
219	0xbe2b3797	-0.16720425
220	0x3dca9757	0.09892147
221	0xbc947f18	-0.01812701
222	0x3e136b96	0.1439651
223	0xbe57eb0a	-0.21085754
224	0x3caab7f4	0.020839669
225	0xbe1f6de9	-0.15569271
226	0x3c719caf	0.014746829
227	0xbe4afbfd	-0.19822688
228	0x3dc2ed2e	0.09517895
229	0x3d602c9c	0.054730043
230	0xbe0368d1	-0.12832953
231	0x3d4f3041	0.050583128
232	0x3a9db4e4	0.0012032059
233	0x3daf4d27	0.085596375
234	0xbdde9777	-0.108687334
235	0x3e04a041	0.12951757
236	0x3e4b3c5c	0.19847244
237	0x3e817eb8	0.2529199
238	0xbc9214b4	-0.017832138
239	0x3da1cb61	0.079001196
240	0x3d9d9f2d	0.07696376
241	0xbd7de360	-0.06198442
242	0x3e4271cf	0.18988727
243	0x3dc5153b	0.0962319
244	0xbe1dcc61	-0.15409996
245	0x3dd84030	0.10559118
246	0x3de412e6	0.11136417
247	0x3e5132fa	0.20429602
248	0x3e150ad6	0.14554915
249	0x3de10285	0.10986809
250	0x3da64d23	0.081201814
251	0xbc8cb1ed	-0.017174685
252	0x3e3a14fb	0.18172066
253	0x3de1d9bb	0.11027857
254	0x3e1027d1	0.14077689
255	0x3e0a0098	0.13476789

attn_layers.0.w_ks.weight f4 [256, 65]
0	0x3d4dee96	0.05027636
1	0xbe10b1d2	-0.14130333
2	0xbe50660b	-0.20351426
3	0xbbdf9299	-0.0068228957
4	0x3d9c1e68	0.07622987
5	0xbe892c4e	-0.26791614
6	0xbe5e32e1	-0.21699096
7	0x3df32b0a	0.118734434
8	0xbd414928	-0.047188908
9	0xbec1c25b	-0.37843594
10	0xbdbe27ff	-0.092849724
11	0xbcfb2ab3	-0.030660009
12	0x3e42f9ea	0.19040647
13	0x3c4cdd57	0.012503943
14	0xbe0e8b8d	-0.13920422
15	0xbdc77416	-0.097389385
16	0x3e996e66	0.2996704
17	0xbc0344f8	-0.008012049
18	0x3cb9e81c	0.022693686
19	0xbd7cfa38	-0.061762065
20	0x3d516f66	0.05113163
21	0x3ca7a858	0.020466015
22	0x3d6549ad	0.055978466
23	0xbd9679e6	-0.07347469
24	0x3e0cf1b6	0.1376408
25	0x3d8dbff6	0.06921379
26	0xbd7e4da3	-0.06208576
27	0x3dc6f0ca	0.097138956
28	0xbb792885	-0.0038018536
29	0xbe315284	-0.17316633
30	0x3d890498	0.06690329
31	0x3d13b977	0.036065545
32	0x3da5393b	0.080675565
33	0xbea62f89	-0.3245814
34	0xbe95728a	-0.2918895
35	0xbe2d44cc	-0.16920775
36	0x3e20e4dd	0.15712304
37	0xbdb04d96	-0.08608548
38	0xbc91eaa4	-0.01781208
39	0xbdf982a6	-0.12183122
40	0xbec7a2e3	-0.3899146
41	0xbe53d62b	-0.20687167
42	0xbd97b6ef	-0.07407939
43	0xbe80fba4	-0.25191987
44	0xbd2fc4a9	-0.04291216
45	0xbe9d5f93	-0.3073698
46	0xbe643470	-0.22285628
47	0xbdfe03ff	-0.12403106
48	0xbe07e7c1	-0.13272001
49	0xbeb690e8	-0.3565743
50	0x3df30b22	0.11867358
51	0xbe199592	-0.14998463
52	0xbea3980e	-0.31951946
53	0xbe70665c	-0.23476547
54	0xbdf40eb7	-0.11916869
55	0x3db4c3a3	0.08826377
56	0xbcf34056	-0.029693764
57	0xbc90ff8d	-0.017699981
58	0x3c349236	0.0110211875
59	0x3e8fd6e7	0.28093645
60	0xbb95b427	-0.004568595
61	0x3dfef38c	0.12448797
62	0xbe80d34b	-0.25161204
63	0x3e3f4984	0.18680388
64	0x3e130fe9	0.14361538
65	0xbe8ac141	-0.27100566
66	0xbd6702ea	-0.056399263
67	0x3dd08dec	0.101833194
68	0xbe061b39	-0.13096322
69	0xbea91182	-0.3302117
70	0xbdaf6789	-0.0856467
71	0xbe81d417	-0.25357124
72	0xbdb7d74c	-0.089766115
73	0xbdb260df	-0.08709883
74	0xbc54c0fb	-0.012985463
75	0xbddf655e	-0.10908006
76	0x3d656f89	0.05601457
77	0xbcbd2fec	-0.02309414
78	0x3e68ff0b	0.22753541
79	0x3df0f2c1	0.11765052
80	0xbe0ad264	-0.1355682
81	0x3e3668fc	0.17813486
82	0x3e09fee3	0.13476138
83	0x3ddb98b2	0.10722484
84	0x3d167230	0.03672999
85	0x3cfe311f	0.031029282
86	0x3e5169d1	0.20450522
87	0xbe72b829	-0.23703064
88	0x3d64fc60	0.055904746
89	0xbe5bb20b	-0.21454637
90	0x3eb82c97	0.3597152
91	0x3e022f04	0.12713248
92	0x3d1dce5d	0.03852688
93	0x3dfa8b6b	0.12233623
94	0x3e10a397	0.14124905
95	0x3d59ee1c	0.053205594
96	0xbbc02c75	-0.0058646747
97	0x3e41315c	0.18866485
98	0xbd8da356	-0.069159195
99	0xbb6abca4	-0.0035818005
100	0xbdea0d26	-0.11428289
101	0x3e64da24	0.22348839
102	0x3e509324	0.2036863
103	0xbe46a7e0	-0.19399977
104	0x3e2dea9b	0.16984026
105	0x3cebf904	0.028805263
106	0xbd712269	-0.058870707
107	0x3d4198ab	0.047264736
108	0x3ca2aa77	0.019856675
109	0xbc9aecaa	-0.018911678
110	0x3bf6c4de	0.0075307926
111	0xbe660be3	-0.22465472
112	0x3d95b4b8	0.0730986
113	0xbd8bec0a	-0.0683213
114	0xbe21f3bb	-0.15815632
115	0xbdba28c1	-0.090898044
116	0xbdc2435e	-0.094855055
117	0x3e64555c	0.22298187
118	0xbe982bc8	-0.29720902
119	0x3d150171	0.036378328
120	0xbdad2605	-0.08454517
121	0xbe1323a2	-0.14369062
122	0xbe78e869	-0.24307407
123	0x3ea4de9c	0.32201087
124	0xbd47d2ba	-0.04878495
125	0x3e18cfd9	0.14923038
126	0xbe3ae053	-0.18249635
127	0xbd39d1b3	-0.045366
128	0xbda0fc4d	-0.078606226
129	0x3dc18cdd	0.09450696
130	0x3ddb6275	0.107121386
131	0xbcb5b275	-0.022179822
132	0x3cc6e4b0	0.024278969
133	0x3e23c6f0	0.15993857
134	0x3c1b66bd	0.009484944
135	0xbcf22a95	-0.02956132
136	0x3e5098f8	0.20370853
137	0x3c3b4bc5	0.011431639
138	0x3cbe3d2a	0.023222525
139	0xbdbb661c	-0.09150335
140	0x3ddf2826	0.108963296
141	0xbdbef3b0	-0.093238235
142	0xbe841953	-0.2580057
143	0xbe74ed35	-0.23918612
144	0xbedb564c	-0.42839277
145	0xbbd92b97	-0.006627511
146	0x3dea4135	0.114382185
147	0xbea1e5ea	-0.31620723
148	0xbe9e53f8	-0.30923438
149	0xbc72d2ff	-0.014820813
150	0x3d93f87f	0.07225131
151	0xbd5e807c	-0.05432175
152	0xbe38bf3f	-0.18041705
153	0x3ea05441	0.3131428
154	0xbe42be15	-0.19017823
155	0xbd6e7ccb	-0.05822448
156	0xbe4ab5ac	-0.19795865
157	0x3d4b3798	0.049613565
158	0x3dd300f6	0.10302918
159	0xbe868f54	-0.26281226
160	0x3dbb1eb8	0.091367185
161	0xbd392502	-0.04520131
162	0xbd59551f	-0.053059693
163	0x3e360152	0.17773941
164	0x3e87c63b	0.26518425
165	0x3a238b97	0.0006238757
166	0xbe5db4b7	-0.21650968
167	0xbe565579	-0.20931043
168	0x3e96211c	0.29322135
169	0x3d0e71fb	0.03477667
170	0x3d052b8f	0.032512244
171	0x3e17b676	0.14815697
172	0x3e878565	0.2646896
173	0x3e5057b6	0.20345959
174	0x3de348e2	0.11097886
175	0x3ee03f96	0.43798512
176	0x3d7cc097	0.061707105
177	0x3e6c8a23	0.2309957
178	0x3ea2e31e	0.31813902
179	0x3ecc0b1c	0.39852226
180	0x3da65cc0	0.081231594
181	0x3e196108	0.1497842
182	0x3e78fc1b	0.2431492
183	0x3c9cddf1	0.019148799
184	0xbe681df1	-0.22667672
185	0xbb77aea9	-0.0037793315
186	0xbd46c632	-0.048528858
187	0x3e37ebb2	0.17961004
188	0x3d9c40e7	0.07629567
189	0xbe56725b	-0.2094206
190	0xbdbc2e33	-0.09188499
191	0xbda1fb0c	-0.079092115
192	0x3c0a449a	0.008439207
193	0xbe43fcc7	-0.19139396
194	0xbd90c09c	-0.07067987
195	0x3d51ecc3	0.051251184
196	0xbeb83d97	-0.3598449
197	0xbd9b4f15	-0.07583443
198	0xbcb8a88a	-0.022541303
199	0x3e1a6e16	0.15081057
200	0xbe1ee843	-0.15518288
201	0xbe12e625	-0.14345606
202	0xbd12b3f5	-0.03581615
203	0xbdeeb78f	-0.11656105
204	0xbe686a89	-0.2269689
205	0xbe9d0929	-0.3067105
206	0xbe0980aa	-0.13427988
207	0x3e34a4a1	0.17640926
208	0xbc83d08b	-0.016090652
209	0x3d265147	0.040604856
210	0x3d99ac5f	0.0750358
211	0x3d4870e7	0.048935797
212	0x3dea0458	0.1142661
213	0x3dcb93e5	0.09940318
214	0x3e087361	0.13325264
215	0x3d0142df	0.031557914
216	0xbe1e676d	-0.15469141
217	0x3c0557bd	0.008138594
218	0x3db78a1f	0.089618914
219	0xbbf83ee0	-0.0075758547
220	0xbd26a306	-0.040682815
221	0x3d0463a8	0.032321602
222	0xbdc9c0ad	-0.09851203
223	0xbcf1f027	-0.029533459
224	0x3bb44d44	0.005502375
225	0x3d99bff2	0.07507314
226	0xbcc8b28c	-0.0244992
227	0x3dd60e07	0.10451894
228	0xbcb4b8c2	-0.022060756
229	0xbe653ca7	-0.22386418
230	0xbea86102	-0.3288651
231	0x3ec91441	0.39273265
232	0xbe39a048	-0.18127549
233	0xbdbc38d3	-0.09190526
234	0x3d57cc06	0.052684806
235	0xbe0a121f	-0.13483475
236	0x3e088e10	0.13335443
237	0xbea81edb	-0.3283604
238	0xbd9ad50c	-0.07560167
239	0x3c82640c	0.015916847
240	0xbc48207d	-0.012214777
241	0xbe60134b	-0.2188236
242	0xbe4f566f	-0.20247816
243	0xbe5501e5	-0.20801504
244	0xbe1e5459	-0.15461864
245	0xbe3964ae	-0.18104813
246	0xbe260d5e	-0.16216037
247	0xbd6385fb	-0.055547696
248	0xbc4bd845	-0.012441699
249	0x3e268ad4	0.16263896
250	0x3e28a488	0.16469014
251	0xbdfc25c5	-0.123118915
252	0xbe248c8a	-0.16069236
253	0xbd1d8032	-0.038452335
254	0xbd2fe5d8	-0.042943805
255	0x3e04a382	0.12952998

attn_layers.0.w_vs.weight f4 [256, 65]
0	0xbdb9ba87	-0.090687804
1	0x3dff9629	0.12479813
2	0xbccbfd8b	-0.024901172
3	0xbd7147c8	-0.058906347
4	0xbdcfe058	-0.10150212
5	0xbd42a792	-0.04752309
6	0x3e23e095	0.1600364
7	0xbdebb59e	-0.1150925
8	0x3d0a5b3c	0.033778414
9	0x3c95eac5	0.018300423
10	0xbd79483d	-0.060859907
11	0x3d9fd9ac	0.078051895
12	0x3db54aee	0.08852182
13	0x3e2c641c	0.16835064
14	0xbe3c5751	-0.18392684
15	0x3d2b950c	0.04189019
16	0x3e143d87	0.14476596
17	0x3df0d220	0.11758828
18	0x3e5efd6d	0.21776362
19	0xbe0ab7e1	-0.13546707
20	0x3c30aa6b	0.010782818
21	0xbdcb7f96	-0.099364445
22	0x3e7294a1	0.2368951
23	0x3d50968c	0.050924823
24	0x3e5f5386	0.21809205
25	0x3d4c8379	0.04993007
26	0x3e9cf6c1	0.30657008
27	0xbd8396ef	-0.06425273
28	0xbed86dbd	-0.42271224
29	0x3e064230	0.13111186
30	0x3d91703c	0.07101485
31	0xbe3a19bc	-0.1817388
32	0x3eaf6d62	0.3426314
33	0x3dec6dae	0.11544357
34	0xbdf1c39a	-0.11804886
35	0xbe326c22	-0.17424062
36	0x3e017fde	0.12646434
37	0x3e074e8d	0.13213558
38	0xbeac8da3	-0.3370181
39	0xbda83b7c	-0.08214471
40	0x3ce94352	0.028474484
41	0xbdac9e39	-0.08428616
42	0xbd8e845c	-0.06958839
43	0xbe5460a6	-0.20739993
44	0xbe0b4fbe	-0.13604638
45	0xbe1fb402	-0.15596011
46	0xbdca7273	-0.09885111
47	0xbe654a7e	-0.22391698
48	0x3d517f14	0.05114658
49	0xbe6092ec	-0.21931046
50	0xbde0678f	-0.10957252
51	0xbe469408	-0.19392407
52	0xbc91aac7	-0.017781628
53	0xbdbf730f	-0.093481176
54	0x3d9b1685	0.07572655
55	0xbd67cb06	-0.056590103
56	0xbe629a92	-0.22129276
57	0xbebd41d0	-0.36964273
58	0xbddc2b6d	-0.1075047
59	0x3c1b619a	0.009483719
60	0xbea16cd5	-0.31528345
61	0xbe01c464	-0.12672573
62	0xbe843075	-0.2581822
63	0xbe63752c	-0.22212666
64	0x3d2d4225	0.04229941
65	0x3e02e230	0.12781596
66	0x3c6fb7fe	0.0146312695
67	0xbd4cb14e	-0.04997378
68	0x3d5941a5	0.05304112
69	0x3c738b7d	0.0148648
70	0xbe590a60	-0.21195364
71	0x3dc49e75	0.09600536
72	0xbe16ad15	-0.14714463
73	0xbe542cc6	-0.20720205
74	0xbe3559b8	-0.17710006
75	0xbe27a7c5	-0.16372593
76	0x3ca90593	0.02063254
77	0xbd41d095	-0.04731806
78	0xbeb2216e	-0.3479113
79	0xbdcbbc89	-0.099480696
80	0xbe3d5431	-0.18489148
81	0xbe027cab	-0.1274287
82	0xbe5315cf	-0.20613788
83	0xbe5f545b	-0.21809523
84	0x3c68a917	0.01420047
85	0x3d9fb843	0.07798817
86	0x3d91272c	0.070875496
87	0xbe56bb39	-0.20969857
88	0xbdb4c76b	-0.088270985
89	0xbe6d864a	-0.23195758
90	0xbdffa350	-0.12482321
91	0xbe6d9d1c	-0.23204464
92	0xbe2c8594	-0.16847831
93	0x3e1fadb4	0.15593606
94	0xbde84e89	-0.113431044
95	0xbe308fd8	-0.17242372
96	0x3df0d89b	0.11760064
97	0xbe356418	-0.17713964
98	0x3df7c3e1	0.12097908
99	0x3d5194c5	0.05116727
100	0x3bad67c5	0.0052919113
101	0xbdc9f5fb	-0.0986137
102	0xbda734ee	-0.081643924
103	0x3da72e1f	0.08163094
104	0x3cd4e64a	0.025988717
105	0x3e18b823	0.14913993
106	0x3e678e80	0.22612953
107	0x3e2e4ce0	0.17021513
108	0x3d8509cf	0.064960115
109	0x3e0a1619	0.13484992
110	0xbd5bbef4	-0.053648904
111	0x3e6e9441	0.23298742
112	0x3da3e3fa	0.080024675
113	0xbcef7cf1	-0.029234381
114	0xbd79a67d	-0.06094979
115	0xbe250ca8	-0.16118109
116	0x3d94152d	0.072306015
117	0x3d76b182	0.06022788
118	0xbd61c99f	-0.05512392
119	0xbeafc1c5	-0.34327522
120	0xbdaea992	-0.08528437
121	0xbda30c87	-0.07961374
122	0xbd581e33	-0.052763175
123	0x3d7a1b03	0.061060917
124	0x3e4708e4	0.19436985
125	0x3dac519e	0.08414005
126	0x3d7fb187	0.062425163
127	0x3e20ce1c	0.15703624
128	0x3e396d29	0.18108048
129	0xbe09b3bf	-0.13447474
130	0xbd5896eb	-0.0528783
131	0xbe57ee8c	-0.21087092
132	0x3df7b0ed	0.12094293
133	0xbd472dcc	-0.04862766
134	0xbd08e084	-0.03341724
135	0xbd9b8d66	-0.07595329
136	0xbe3fe801	-0.18740846
137	0x3dc2e813	0.09516921
138	0xbd086ad0	-0.03330499
139	0xbe0bd1c6	-0.13654241
140	0xbe18ec70	-0.14933944
141	0xbd67578e	-0.056479983
142	0xbe83b683	-0.25725183
143	0x3d77a41e	0.06045925
144	0xbdb076b8	-0.08616394
145	0xbe59766c	-0.2123658
146	0xbda95ac6	-0.08269267
147	0x3d8ae34d	0.067816354
148	0xbda7e0d4	-0.081971794
149	0x3e86e43b	0.26346
150	0x3db61e3b	0.08892485
151	0x3c19252c	0.009347241
152	0xbe2a8100	-0.16650772
153	0xbdf01b1f	-0.11723923
154	0xbde93cf3	-0.11388578
155	0xbe053bd1	-0.130111
156	0xbe47f6f0	-0.19527793
157	0xbe7d4bb9	-0.24735917
158	0x3e64ddb5	0.223502
159	0x3ca8948c	0.020578645
160	0xbd2399ff	-0.039941784
161	0xbd971df5	-0.07378761
162	0x3d895597	0.06705778
163	0x3dc1b5f0	0.0945853
164	0xbddd88d1	-0.10817111
165	0xbe01a74b	-0.12661473
166	0xbed5db3b	-0.41768822
167	0x3dc60fc5	0.096709765
168	0xbd906485	-0.070504226
169	0x3c8935da	0.016749311
170	0xbe018b76	-0.12650856
171	0xbc3d91c4	-0.011570398
172	0x3d2860f9	0.041108105
173	0xbcc5e0c6	-0.024155032
174	0xbe96ea99	-0.2947586
175	0x3e310f13	0.17290907
176	0xbee631ae	-0.44959778
177	0xbe051b75	-0.12998755
178	0x3e390112	0.18066815
179	0xbe7a059c	-0.24416202
180	0xbe23e927	-0.1600691
181	0x3d4e86b3	0.050421428
182	0xbb2678aa	-0.0025401511
183	0x3e1407b8	0.1445607
184	0xbd775b13	-0.06038959
185	0xbdcefaf8	-0.10106462
186	0xbda6769f	-0.08128094
187	0x3ccbf491	0.024896892
188	0xbdf963b2	-0.121772185
189	0xbdb1857d	-0.08668039
190	0xbcfe5018	-0.031044051
191	0xbd9ba32b	-0.07599481
192	0xbe20970d	-0.15682621
193	0xbc93df13	-0.018050706
194	0x3db99e53	0.09063401
195	0xbc5c5e76	-0.013450256
196	0xbc4c9a95	-0.012488027
197	0x3d10386d	0.03521006
198	0xbb49f095	-0.0030813564
199	0xbd21d7f0	-0.039512575
200	0xbe0659b7	-0.13120161
201	0x3e3602c5	0.17774494
202	0x3d30325a	0.04301677
203	0x3e64c198	0.22339475
204	0x3e3365a0	0.17519236
205	0x3c1e0576	0.009644857
206	0x3e348421	0.17628528
207	0x3d89b72e	0.06724392
208	0x3e368473	0.17823963
209	0xbe21d1e2	-0.1580272
210	0x3d93035f	0.07178377
211	0x3e90f64d	0.28312913
212	0x3ee31b8c	0.44356954
213	0x3e852008	0.26001
214	0xbdc0998e	-0.09404288
215	0xbda9c5fd	-0.082897164
216	0x3cf1ad0f	0.029501466
217	0x3eb2d4f6	0.349281
218	0x3ea18348	0.31545472
219	0x3dc9f506	0.09861188
220	0xbdd7e336	-0.10541384
221	0x3e2f80e0	0.17139006
222	0x3d953b0d	0.07286654
223	0xbd94f61f	-0.072735064
224	0x3b6dac1a	0.003626591
225	0x3e8c7d1d	0.27439204
226	0xbd7fea24	-0.062479153
227	0x3f15ce8c	0.5851829
228	0xbe98070e	-0.29692882
229	0xbc308574	-0.010774005
230	0x3dc96bdd	0.098350264
231	0x3c430e56	0.011905273
232	0xbcf7b1e5	-0.030236194
233	0xbddc5876	-0.1075906
234	0xbe460439	-0.19337548
235	0xbca7dd0a	-0.020491142
236	0x3df42e7d	0.119229294
237	0xbd861279	-0.06546492
238	0xbdf158eb	-0.11784538
239	0x3e2a11f6	0.16608414
240	0x3de87029	0.11349518
241	0x3e16c8c0	0.14725018
242	0xbebf4374	-0.3735615
243	0x3d0b871d	0.0340644
244	0xbca550dc	-0.020180158
245	0xbd6f5e96	-0.058439814
246	0xbd4c29e7	-0.04984465
247	0xbd5abfbc	-0.05340551
248	0xbe07ff6b	-0.13281028
249	0x3d2d61fc	0.042329773
250	0xbe241742	-0.16024497
251	0xbe784e1e	-0.2424855
252	0x3d6113d0	0.054950535
253	0x3d97d3df	0.07413458
254	0x3db5c784	0.08875945
255	0xbda40067	-0.08007889

attn_layers.0.layer_norm.weight f4 [65]
0	0x3f906f83	1.1284031
1	0x3f56abf8	0.83856153
2	0x3f53fc58	0.8280692
3	0x3f591792	0.8480159
4	0x3f7f092f	0.9962339
5	0x3f835f06	1.0263374
6	0x3f84001c	1.0312533
7	0x3f6e2dc7	0.930386
8	0x3f8c314b	1.0952543
9	0x3f5bd3cb	0.85870045
10	0x3f666971	0.9000464
11	0x3f71f915	0.94520694
12	0x3f68f988	0.91005754
13	0x3f735224	0.9504721
14	0x3f7acfa0	0.9797306
15	0x3f70d018	0.94067526
16	0x3f732e3c	0.94992423
17	0x3f81a51b	1.0128511
18	0x3f76f05a	0.964605
19	0x3f6f3a28	0.93448114
20	0x3f716bba	0.94305
21	0x3f58e095	0.84717685
22	0x3f844d6a	1.0336125
23	0x3f4ed032	0.8078643
24	0x3f65ccd0	0.89765644
25	0x3f38fd47	0.7226147
26	0x3f8c29d2	1.0950263
27	0x3f64cd66	0.89375913
28	0x3f74045f	0.9531917
29	0x3f7d8751	0.990346
30	0x3f66c419	0.9014297
31	0x3f56092b	0.8360774
32	0x3f7988aa	0.9747416
33	0x3f88a4b9	1.0675269
34	0x3f7dc096	0.9912199
35	0x3f824a6d	1.0178963
36	0x3f6ea2f4	0.93217397
37	0x3f7f3a99	0.9969879
38	0x3f5db358	0.8660178
39	0x3f79edfe	0.9762877
40	0x3f8b9aca	1.0906613
41	0x3f8558f7	1.0417775
42	0x3f75a190	0.9594965
43	0x3f773fa1	0.96581465
44	0x3f70ff14	0.9413922
45	0x3f778f99	0.9670349
46	0x3f4a286a	0.78967917
47	0x3f748811	0.9552012
48	0x3f6a875d	0.916128
49	0x3f56baae	0.838786
50	0x3f5fc8a7	0.87415546
51	0x3f6b7561	0.9197598
52	0x3f686a0d	0.9078682
53	0x3f5c17b0	0.85973644
54	0x3f8d6f08	1.1049509
55	0x3f3a7a42	0.728428
56	0x3f783645	0.9695781
57	0x3f80e3df	1.0069541
58	0x3f684f14	0.90745664
59	0x3f75f43d	0.96075803
60	0x3f819d5a	1.0126145
61	0x3f7dda7b	0.991615
62	0x3f48352a	0.7820612
63	0x3f759a23	0.9593832
64	0x3f855d38	1.0419073

attn_layers.0.layer_norm.bias f4 [65]
0	0xbd850a80	-0.06496143
1	0xbe305859	-0.17221202
2	0x3e34e0c2	0.17663863
3	0xbe3524c1	-0.17689802
4	0xbde675b9	-0.112529226
5	0xbe1b29a1	-0.15152599
6	0xbdd8f3d9	-0.10593385
7	0xbe346a03	-0.17618565
8	0xbd21712c	-0.03941457
9	0x3c0a50ed	0.008442146
10	0xbdedfdff	-0.116207115
11	0xbe5d19cd	-0.21591873
12	0x3d8881bd	0.066653706
13	0x3e415241	0.18879034
14	0x3c4f3c1f	0.012648611
15	0xbe1a678e	-0.15078565
16	0x3c41906d	0.011814219
17	0x3e018cf4	0.12651426
18	0x3d816553	0.06318154
19	0xbdc16466	-0.094429776
20	0xbe720d2f	-0.23637842
21	0xbe6ecc44	-0.23320109
22	0x3d34c7d0	0.04413587
23	0xbd847e02	-0.064693466
24	0x3dee4c12	0.11635603
25	0xbdb674d5	-0.08909003
26	0xbd650b05	-0.055918712
27	0x3be5b559	0.0070101437
28	0xbdc407a4	-0.0957177
29	0xbe2e8772	-0.17043856
30	0xbbb2db67	-0.0054582837
31	0xbdfb3ff0	-0.122680545
32	0xbe188b39	-0.14896859
33	0x3dd94c18	0.10610217
34	0x3d4bfda1	0.049802426
35	0x3dfa4c58	0.12221593
36	0x3e0e1f68	0.13879168
37	0x3d611822	0.054954655
38	0xbad41736	-0.0016181234
39	0x3c9f7c64	0.019468494
40	0x3d3cd615	0.046102602
41	0x3de172f5	0.110082544
42	0x3ca6c502	0.020357613
43	0xbdca9d53	-0.098932885
44	0xbb3af365	-0.0028526422
45	0x3df564dc	0.11982128
46	0x3d3b4597	0.045720663
47	0x3e0add79	0.13561048
48	0x3d8026e1	0.062574156
49	0x3ce18ec6	0.0275339
50	0x3e1f48fb	0.15555184
51	0xbcbaf8b4	-0.022823669
52	0xbd8bc533	-0.06824722
53	0x3e012043	0.12609963
54	0xbcbe33b6	-0.023218017
55	0x3d6c7d37	0.0577366
56	0x3e2d1454	0.16902286
57	0x3d9b4159	0.075808235
58	0x3c48d318	0.01225736
59	0xbd870dd4	-0.065944344
60	0x3da38d5c	0.079859465
61	0x3dd9af95	0.10629193
62	0xbd42e981	-0.047585968
63	0x3d9fca60	0.07802272
64	0xbc772be9	-0.015086153

attn_layers.0.fc.weight f4 [65, 256]
0	0x3bde4946	0.006783637
1	0x3d9cff2a	0.07665856
2	0x3e5c0d94	0.21489555
3	0xbe8ffc9a	-0.28122407
4	0xbd8d628c	-0.06903562
5	0xbd1ff35d	-0.03905045
6	0xbe814a26	-0.25251883
7	0x3e4e54b2	0.20149496
8	0xbe040736	-0.12893376
9	0x3db1ef1b	0.08688184
10	0xbdf539ef	-0.119739406
11	0x3d0c4c05	0.034252185
12	0xbdabccd7	-0.083886795
13	0xbc80ceb9	-0.015723573
14	0x3d20b52e	0.039235286
15	0xbd3cf0f1	-0.046128217
16	0xbd675ef0	-0.056487024
17	0x3d9f86cb	0.077893816
18	0x3e0bb0a7	0.13641606
19	0xbdeefdd2	-0.11669506
20	0xbdb6ba77	-0.08922284
21	0x3daef016	0.085418865
22	0xbe0c8956	-0.13724265
23	0xbdf934d5	-0.1216828
24	0xbd0e97c0	-0.03481269
25	0xbe3ecee0	-0.18633604
26	0x3d0b06fc	0.033942208
27	0xbe0d43bd	-0.13795371
28	0xbd08984d	-0.03334837
29	0xbe4aaac8	-0.1979171
30	0x3e12c7cd	0.1433403
31	0x3de53c82	0.111931816
32	0x3c404d45	0.0117371725
33	0x3c9d1288	0.019173875
34	0xbc3295d7	-0.010899982
35	0xbe89e3c7	-0.26931593
36	0xbdd30120	-0.10302949
37	0x3e0ca73a	0.13735667
38	0xbaf716cb	-0.0018851397
39	0xbd448865	-0.04798164
40	0x3d40bcfb	0.047055226
41	0xbc0e7842	-0.008695664
42	0x3ddaa14b	0.106752954
43	0x3dade3ff	0.084907524
44	0xbe2b20be	-0.16711709
45	0x3dd5ca58	0.10438985
46	0xbe46b05e	-0.19403216
47	0x3cfa775e	0.030574497
48	0x3dbf6d1d	0.093469836
49	0x3de4ba1d	0.11168311
50	0x3e9022e8	0.2815163
51	0x3de5d39f	0.11222004
52	0x3da5f3af	0.081031196
53	0xbd86d8c8	-0.065843165
54	0x3d071de1	0.03298748
55	0xbdccb5f2	-0.09995641
56	0x3d09dcf8	0.033657998
57	0x3e5c3a43	0.215066
58	0x3e2ca96c	0.16861504
59	0x3e57e9fb	0.2108535
60	0x3e198130	0.14990687
61	0x3d99f608	0.0751763
62	0x3e1c8703	0.15285878
63	0xbdadc35c	-0.084845275
64	0x3da784ef	0.08179652
65	0x3e6a40b9	0.22876252
66	0x3ca9de3d	0.020735854
67	0xbdad5e10	-0.084652066
68	0x3e0d7b3b	0.1381654
69	0x3d0b93c0	0.034076452
70	0xbb5a0391	-0.0033266286
71	0x3d8f36bb	0.06992861
72	0x3e3d4bb5	0.18485911
73	0xbd9f158f	-0.07767784
74	0x3d048155	0.032349903
75	0x3e61699e	0.22012946
76	0xbe1d8a4e	-0.1538479
77	0xbddefa2a	-0.10887559
78	0x3abf7331	0.0014606473
79	0x3d91e23e	0.071232304
80	0xbdc140d4	-0.09436193
81	0xbe803dc0	-0.25047112
82	0x3cc8c616	0.024508517
83	0x39e72335	0.00044085985
84	0xbd909c2c	-0.070610374
85	0xbca9d486	-0.020731222
86	0x3d92b3ef	0.07163226
87	0xbccf0440	-0.025270581
88	0x3ccdc058	0.02511613
89	0x3dcd1789	0.100142546
90	0xbdffbb05	-0.12486843
91	0x3e2c0253	0.16797762
92	0xbda8aaef	-0.08235728
93	0xbdb170ab	-0.08664068
94	0xbdbeeba3	-0.09322288
95	0xbe412f24	-0.18865639
96	0xbe4c9621	-0.19979145
97	0xbbef3622	-0.0073001543
98	0xbdb7ed5a	-0.08980818
99	0x3da0185c	0.07817146
100	0x3c5d61d2	0.013512092
101	0xbda0622d	-0.078312255
102	0xbb211f0e	-0.002458516
103	0xbc46edd9	-0.012141668
104	0x3e0f5ae5	0.13999517
105	0xbc87e904	-0.016590603
106	0x3e1fd8d9	0.15610065
107	0xbd8eeeeb	-0.06979164
108	0x3d416a92	0.047220774
109	0x3e2b6699	0.16738357
110	0xbda2a875	-0.07942287
111	0x3d831d03	0.06402018
112	0x3e05f133	0.13080291
113	0xbdae6a47	-0.085163645
114	0x3da8ba94	0.08238712
115	0x3e6518f1	0.22372796
116	0xbd32e480	-0.043674946
117	0x3e26de11	0.16295649
118	0x3da667cd	0.08125267
119	0xba9aa9d1	-0.0011799877
120	0xbd0d5721	-0.03450692
121	0x3db25c35	0.08708993
122	0x3d81dbca	0.063407496
123	0xbe3fb5ab	-0.18721645
124	0x3d69dbe2	0.057094462
125	0x3cc81fd3	0.024429237
126	0xbdb6c1b5	-0.089236654
127	0x3e802755	0.25030008
128	0x3d06407b	0.032776337
129	0xbdbe83de	-0.093024954
130	0x3de7b11e	0.11313079
131	0x3e3857c5	0.18002231
132	0x3d9d9e34	0.076961905
133	0x3dec3b87	0.115347914
134	0x3d64e774	0.055884793
135	0xbdb87637	-0.09006923
136	0x3de57fde	0.11206029
137	0xba09161b	-0.0005229429
138	0x3c48a44f	0.0122462055
139	0x3dac44e5	0.08411578
140	0xbd61c03a	-0.055114962
141	0xbe0ce108	-0.13757718
142	0xba8d4c2b	-0.0010780146
143	0x3d980ccb	0.07424315
144	0xbceb38f8	-0.028713688
145	0xbde1c81a	-0.110244945
146	0x3e2fd2e8	0.17170298
147	0xbd9de463	-0.07709577
148	0xbe53fa63	-0.20700984
149	0xbd4df839	-0.05028555
150	0x3d75189b	0.05983792
151	0xbcea1600	-0.028574944
152	0x3cf362dd	0.029710228
153	0x3e0fe1b3	0.14050941
154	0xbdb1855a	-0.08668013
155	0xbd310424	-0.04321684
156	0x3ce8e658	0.028430149
157	0xbd8910f9	-0.066926904
158	0xbd1ea286	-0.038729213
159	0xbc15f3d3	-0.0091523705
160	0xbde81b51	-0.11333335
161	0xbdb6f793	-0.0893394
162	0xbc327514	-0.010892171
163	0x399b5f72	0.00029635016
164	0xbd6628ec	-0.05619137
165	0xbcb3ab12	-0.021932159
166	0xbd10b9b9	-0.03533337
167	0x3dc28800	0.09498596
168	0x3d9065ca	0.07050665
169	0x3e35a1af	0.17737459
170	0xbd08c688	-0.03339246
171	0x3d84dc4a	0.06487329
172	0xbddde9e3	-0.10835626
173	0xbd1daea6	-0.038496636
174	0x3e260f4f	0.16216777
175	0x3d7c0d32	0.06153602
176	0x3caa7cd6	0.02081148
177	0xbda376e5	-0.07981662
178	0x3e497985	0.19675262
179	0xbe993fc0	-0.2993145
180	0xbe0500fd	-0.12988658
181	0xbdbf820d	-0.09350977
182	0xbd800108	-0.06250197
183	0xbd11e4b9	-0.035618518
184	0xbcce76f1	-0.0252032
185	0xbdc51317	-0.09622782
186	0x3e3da874	0.18521291
187	0xbdd84b3a	-0.10561223
188	0x3db280e0	0.08715987
189	0xbd8f4e53	-0.06997361
190	0xbd3a3779	-0.04546306
191	0xbd061587	-0.032735374
192	0x3c639cbf	0.013892352
193	0x3cd1a2bf	0.025590299
194	0x3cc80460	0.024416149
195	0xbd1bc876	-0.03803297
196	0x3dbf8c38	0.093529165
197	0xbe16c2d0	-0.14722753
198	0x3d7dad87	0.061933067
199	0xbe0b2c7f	-0.13591193
200	0xbd9391d9	-0.072055526
201	0xbdc832d0	-0.09775317
202	0x3e2b9477	0.16755854
203	0x3dbee81f	0.09321617
204	0xbe77e1e7	-0.24207269
205	0xbdd145ff	-0.10218429
206	0xbe6426fd	-0.22280498
207	0x3cd49a03	0.025952345
208	0xbe084009	-0.13305677
209	0x3da0b2c3	0.07846596
210	0xbe1724f4	-0.1476019
211	0xbe63fb20	-0.22263765
212	0xbdc5a9e1	-0.096515425
213	0xbc39e91a	-0.01134708
214	0xbc05cb0f	-0.008166089
215	0x3dfc3ee6	0.123166844
216	0xbe38bde5	-0.18041189
217	0xbe592055	-0.2120374
218	0x3c4a09a8	0.012331404
219	0xbe109a5f	-0.14121388
220	0x3db3a2f6	0.08771317
221	0x3e4df677	0.2011355
222	0x3ce1e885	0.027576694
223	0xbdd13ab8	-0.10216278
224	0x3c5623cd	0.013070059
225	0xbd5f564f	-0.05452567
226	0xbd9cecb3	-0.07662334
227	0xbc2914f7	-0.01031994
228	0x3d2dca2f	0.042429145
229	0xbd127caa	-0.03576342
230	0x3baf9320	0.005358115
231	0x3e09b667	0.13448487
232	0xbe051346	-0.12995633
233	0x3d97c478	0.0741052
234	0xbe2b2e7b	-0.1671695
235	0x3e0fdd50	0.14049268
236	0x3dd98896	0.10621755
237	0xbc022699	-0.007943773
238	0x3e0afa87	0.13572131
239	0xbe57f231	-0.21088482
240	0xbe53e357	-0.20692192
241	0xbe63b253	-0.22235994
242	0xbe076eaa	-0.13225809
243	0xbd9aa087	-0.075501494
244	0xbda8f8ed	-0.08250604
245	0xbdb71794	-0.08940044
246	0x3da4f2a4	0.080540925
247	0x3d36eba8	0.044658333
248	0x3e2f223b	0.17102902
249	0xbddfad3e	-0.10921715
250	0xbca424bf	-0.020037053
251	0xbe15ea51	-0.14640166
252	0xbc921615	-0.017832795
253	0x3cc668f6	0.024219971
254	0xbd98edd3	-0.07467236
255	0x3e3ae4ca	0.18251339

attn_layers.0.fc.bias f4 [65]
0	0xbe9e79ad	-0.30952206
1	0xbea49106	-0.32141894
2	0x3d1605c0	0.036626577
3	0xbeccda27	-0.40010187
4	0xbedd1333	-0.4317871
5	0xbe8c401f	-0.2739267
6	0xbee0e6ee	-0.43926185
7	0xbe961dfe	-0.29319757
8	0xbeb2c6a2	-0.3491717
9	0xbe396a16	-0.18106875
10	0xbe9374d9	-0.28800085
11	0xbebdf1f9	-0.37098673
12	0x3c9628c0	0.018329978
13	0x3d95bd0f	0.07311451
14	0xbe5b40cd	-0.21411438
15	0xbe64f837	-0.22360311
16	0x3e1cd8a8	0.15317023
17	0x3ef00815	0.46881166
18	0x3e1094b8	0.14119232
19	0xbe336c6b	-0.17521827
20	0xbe42137c	-0.18952745
21	0xbea35b21	-0.31905463
22	0x3e6d4a8f	0.23172973
23	0xbe224803	-0.15847783
24	0x3e889a94	0.26680434
25	0xbdaa7321	-0.0832274
26	0xbebbad2c	-0.36655557
27	0xbe283b4a	-0.16428867
28	0xbe932bf7	-0.2874448
29	0xbebb2bac	-0.36556756
30	0xbea43afa	-0.32076246
31	0xbe8fb7f2	-0.28070027
32	0xbe46b808	-0.1940614
33	0x3ea7ea02	0.3279572
34	0x3e995c6d	0.29953328
35	0x3e8ae387	0.27126715
36	0x3e2b93a1	0.16755535
37	0x3eb6c935	0.35700384
38	0x3e3b6d84	0.18303496
39	0xbe5fb7b4	-0.21847421
40	0x3eeb8570	0.46000242
41	0x3e89306c	0.26794755
42	0x3e1ae44e	0.15126154
43	0xbd3c1608	-0.045919448
44	0x3d7db956	0.06194433
45	0x3e9c150b	0.30484805
46	0xbde15281	-0.110020645
47	0x3e921372	0.2853046
48	0x3e89ac5a	0.26889306
49	0x3e917ba7	0.28414652
50	0x3e36932f	0.17829584
51	0x3ddcaddd	0.10775349
52	0xbe735620	-0.23763323
53	0xbd7dde46	-0.061979555
54	0x3e0fe7cb	0.14053266
55	0xbdbd3e84	-0.092404395
56	0x3e4cf263	0.20014338
57	0x3e9c54b2	0.30533367
58	0x3da1ba67	0.078968816
59	0xbe9b9ef2	-0.30394703
60	0x3e302fef	0.17205785
61	0x3e96c67f	0.29448316
62	0x3d8cae98	0.068692386
63	0xbdeba458	-0.115059555
64	0x3e0168b4	0.12637597

attn_layers.1.w_qs.weight f4 [256, 106]
0	0xbe55d000	-0.20880127
1	0x3d87c1b9	0.066287465
2	0xbd1ef172	-0.03880448
3	0x3c4394f8	0.011937372
4	0xbd687e6a	-0.056761183
5	0x3e572eb9	0.21013917
6	0x3d77531f	0.060382005
7	0xbe10f85f	-0.14157246
8	0xbe6ed8d1	-0.23324896
9	0x3ba78138	0.0051118396
10	0x3c2bfc9a	0.010497237
11	0xbd69e15b	-0.05709968
12	0x3e0d4312	0.13795117
13	0x3beda15a	0.0072519006
14	0xbcb82c4f	-0.022482065
15	0x3e472953	0.19449358
16	0xbe07b95e	-0.13254306
17	0xbda41afa	-0.08012958
18	0xbd93bf55	-0.07214228
19	0xbb8639d6	-0.00409625
20	0x3e0d8487	0.13820086
21	0xbca2b1b1	-0.01986012
22	0xbdb9684e	-0.09053098
23	0xbdcc00e9	-0.09961111
24	0x3cf5c97e	0.030003306
25	0x3e6da161	0.23206092
26	0xbdc9cd60	-0.09853625
27	0xbdc845ef	-0.09778964
28	0x3c6eecbe	0.014582811
29	0xbe591980	-0.21201134
30	0x3d950a5b	0.07277366
31	0x3ca45a17	0.02006249
32	0xbc8ef90d	-0.017452741
33	0xbdd64dac	-0.104640335
34	0xbe2a0114	-0.16601974
35	0xbe894a9b	-0.26814732
36	0xbdf9a5f4	-0.12189856
37	0x3db0fad8	0.08641595
38	0xba96fbcf	-0.0011519137
39	0xbcd018b0	-0.025402397
40	0x3e2c96ad	0.16854353
41	0xbe774e48	-0.24150956
42	0x3d9178ad	0.07103095
43	0x3d48f989	0.0490661
44	0x3e2868e4	0.16446263
45	0x3ddfd308	0.10928923
46	0x3e49ecd9	0.19719256
47	0x3deabc49	0.11461694
48	0x3e5f13d6	0.2178491
49	0xbd8f28bf	-0.069901936
50	0xbdc6bed9	-0.0970437
51	0x3d59eb1a	0.053202726
52	0xbd0e88e3	-0.034798514
53	0xbe75664e	-0.23964807
54	0xbd905a8f	-0.07048523
55	0x3d28d3a6	0.04121747
56	0xbd5efc28	-0.054439694
57	0x3d984a30	0.07436025
58	0x3c0ad452	0.008473473
59	0xbe109d77	-0.14122568
60	0xbc375584	-0.011189822
61	0xbda29997	-0.07939451
62	0xbd6f51ad	-0.0584275
63	0x3e0a54df	0.13508938
64	0xbdbac4ad	-0.09119544
65	0xbd89afa1	-0.06722952
66	0xbe0dba14	-0.13840514
67	0xbd1da5fa	-0.038488366
68	0xbbffbbc2	-0.007804365
69	0x3e35d59f	0.17757271
70	0xbde8aa65	-0.11360625
71	0xbe15d21b	-0.1463093
72	0x3d88cdbe	0.06679867
73	0x3db377a2	0.087630525
74	0x3e292f3c	0.16521925
75	0xbe0b435d	-0.13599916
76	0x3e125be2	0.14292863
77	0x3cd4afc8	0.025962725
78	0xbe6bd14a	-0.23029056
79	0x3dcdba93	0.10045352
80	0xbdbf5a74	-0.093434244
81	0xbe1e6ebe	-0.15471932
82	0xbd515d03	-0.051114094
83	0xbd96d572	-0.0736493
84	0x3d4e5953	0.050378155
85	0xbe95ad32	-0.292337
86	0xbdd16573	-0.10224428
87	0x3bdd8b08	0.0067609586
88	0xbda77618	-0.081768215
89	0xbe92ab52	-0.28646332
90	0xbcb754d6	-0.02237932
91	0x3d0e3289	0.034716163
92	0xbd2d3892	-0.042290278
93	0xbd3ea709	-0.046546016
94	0xbda339eb	-0.07970031
95	0x3b26e218	0.0025464352
96	0xbc52dff7	-0.01287078
97	0xbe4d25e7	-0.2003399
98	0xbdc3018a	-0.09521778
99	0xbd7dd426	-0.0619699
100	0xbd3af969	-0.045648012
101	0xbc49ba17	-0.012312434
102	0xbcbfce6d	-0.023413861
103	0xbdc63c7e	-0.09679507
104	0xbc18ce59	-0.009326541
105	0xbddff761	-0.10935856
106	0xbca660e6	-0.020309877
107	0xbd9822c2	-0.074285045
108	0xbde2ea58	-0.11079854
109	0x3d4fe41b	0.050754648
110	0x3e172027	0.14758359
111	0x3e20f0cf	0.15716861
112	0xbd360b0b	-0.044444125
113	0xbd87dc4b	-0.066338144
114	0x3e114cff	0.14189528
115	0xbcbe6afc	-0.023244374
116	0x3e2d0485	0.16896255
117	0x3e82ed2f	0.25571582
118	0x3db34df5	0.087551035
119	0x3d5acc02	0.053417213
120	0xbc82daf8	-0.015973553
121	0x3e1367c7	0.14395057
122	0x3d085671	0.033285562
123	0xbce053d8	-0.02738373
124	0xbd0a97f3	-0.033836316
125	0xbe620348	-0.22071564
126	0xbda8685a	-0.082230285
127	0x3d8ccaa7	0.0687459
128	0xbde6dac8	-0.11272198
129	0xbe6642de	-0.22486445
130	0xbdd73cfe	-0.1050968
131	0xbd47a802	-0.04874421
132	0xbcae610e	-0.021286514
133	0x3dc8a4a0	0.09797025
134	0xbd221946	-0.039574884
135	0xbdc86783	-0.09785368
136	0xbe1784d4	-0.14796764
137	0xbdce0854	-0.10060182
138	0xbe3d3599	-0.18477477
139	0x3d9d5bcf	0.07683527
140	0xbe806523	-0.2507716
141	0xbe7a3c33	-0.24437027
142	0x3d07aab4	0.03312178
143	0xbdd48600	-0.10377121
144	0xbe47a264	-0.19495541
145	0x3e6207b2	0.22073248
146	0xbe268f2e	-0.16265556
147	0xbd754211	-0.05987746
148	0xbd087b56	-0.033320747
149	0xbe162ce8	-0.14665568
150	0x3ba2f57b	0.004973111
151	0x3d848076	0.064698145
152	0xbe5c1a6b	-0.21494453
153	0xbdadfa67	-0.08495026
154	0xbb8630ae	-0.0040951585
155	0xbe2ebf89	-0.17065252
156	0xbe8504d9	-0.2598026
157	0x3db68f07	0.08913999
158	0xbdabf38c	-0.08396062
159	0x3dc9bbc5	0.09850267
160	0xbd270f68	-0.040786177
161	0xbdb3b620	-0.08774972
162	0x3df9b44d	0.12192593
163	0xbc037db1	-0.008025573
164	0x3b94c64c	0.0045402404
165	0x3e006784	0.12539488
166	0xbd0f3d60	-0.03497064
167	0x3c86250b	0.016375085
168	0xbd805795	-0.06266705
169	0xbd931aae	-0.07182823
170	0xbca97833	-0.020687198
171	0xbe573c6b	-0.21019141
172	0xbe04ddf3	-0.12975292
173	0xbdf5c376	-0.12000172
174	0xbe7efa03	-0.2490006
175	0x3c703b1c	0.01466253
176	0x3d0d5d05	0.03451254
177	0x3c6adb5b	0.014334525
178	0xbd287aa6	-0.04113259
179	0xbe1c3f99	-0.15258636
180	0x3def485e	0.11683725
181	0xbda8260c	-0.08210382
182	0xbce0e775	-0.027454117
183	0x3d19d8aa	0.037560143
184	0xbe40923a	-0.18805781
185	0xbdefbad1	-0.11705554
186	0x3d6316fb	0.055441838
187	0xbe0a1380	-0.13484001
188	0xbe3887ad	-0.18020506
189	0xbdbe7f30	-0.09301603
190	0x3d5722f2	0.05252356
191	0xbe260903	-0.16214375
192	0x3d8419f8	0.06450266
193	0xbddbf9ae	-0.10740982
194	0xbd80e87b	-0.06294342
195	0xbe408c31	-0.18803479
196	0xbdcd937d	-0.10037897
197	0xbc4c1ba5	-0.012457763
198	0x3d85c296	0.06531255
199	0x3d8df1b0	0.06930864
200	0x3d7bac2f	0.061443504
201	0xbc08e13a	-0.008354479
202	0xbe58988d	-0.21151944
203	0x3df09cb4	0.11748639
204	0x3b885ce6	0.004161465
205	0x3db3076b	0.08741649
206	0xbe287171	-0.16449524
207	0x3acb9bd4	0.0015534111
208	0x3dde1f80	0.10845852
209	0x3c8b1916	0.016979735
210	0x3dadd0d1	0.08487094
211	0x3c134bf0	0.008990273
212	0x3d146db4	0.036237434
213	0x3c617f7c	0.013763305
214	0xbcce34c4	-0.025171645
215	0xbd094c1a	-0.03351984
216	0x3e269560	0.1626792
217	0xbdcf9399	-0.10135574
218	0xbd939006	-0.07205205
219	0x3dd6d30b	0.10489472
220	0x3ddececf	0.10879289
221	0x3c8f6996	0.017506402
222	0xbe054f12	-0.13018444
223	0xbe3260ed	-0.17419787
224	0xbc0bb45d	-0.008526889
225	0xbe8ca3b0	-0.27468634
226	0xbe3186a9	-0.17336525
227	0xbde1fed3	-0.11034932
228	0xbdeb86e9	-0.115003414
229	0xbddf1f04	-0.10894588
230	0x3d38f0b5	0.04515143
231	0xbe483886	-0.19552812
232	0x3dcdfaff	0.10057639
233	0x3d74c289	0.059755836
234	0xbe07c524	-0.13258797
235	0x3d8b4acb	0.06801375
236	0x3e33d47e	0.17561528
237	0xbe312c4d	-0.17302056
238	0x3e9825ff	0.2971649
239	0xbe404b66	-0.18778762
240	0x3cd0d379	0.025491463
241	0xbd91baba	-0.071156934
242	0x3d82d8bf	0.06388997
243	0xbd077874	-0.033073857
244	0x3c7f9106	0.015598541
245	0x3e2be358	0.16785944
246	0xbc84ffd0	-0.016235262
247	0x3db45f60	0.08807254
248	0x3d0364e3	0.032078635
249	0x3da4c3e6	0.08045177
250	0x3d513ca7	0.051083233
251	0x3e43cdbc	0.1912145
252	0xbe63645d	-0.22206254
253	0xbda3622a	-0.07977708
254	0x3d80ca85	0.062886275
255	0x3e1dfaab	0.15427653

attn_layers.1.w_ks.weight f4 [256, 106]
0	0x3d98cc78	0.07460874
1	0xbdbd0484	-0.09229377
2	0x3c8c1414	0.017099418
3	0xbb99f254	-0.004698077
4	0x3d1999f9	0.037500355
5	0x3dcedcc6	0.10100703
6	0xbddfd69b	-0.109296046
7	0x3e72d185	0.23712738
8	0xbc44a05f	-0.012001126
9	0xbcab09f2	-0.020878766
10	0x3e335368	0.17512286
11	0x3e3e2293	0.18567877
12	0x3e2f311c	0.17108577
13	0x3d849b94	0.06474987
14	0xbdf8699f	-0.121295206
15	0x3e065c2d	0.131211
16	0x3e9b2d73	0.30308113
17	0x3e5ca71a	0.21548119
18	0x3dd429c7	0.10359531
19	0xbdcd6ce8	-0.10030538
20	0xbbaf686c	-0.005353024
21	0xbd976d3a	-0.0739388
22	0xbd42b9ab	-0.047540348
23	0xbd8e549e	-0.06949733
24	0xbcb6e994	-0.022328176
25	0x3e18cf13	0.14922743
26	0x3e36d213	0.17853574
27	0x3e171472	0.14753893
28	0x3da455f7	0.08024209
29	0x3d4b84e1	0.04968727
30	0x3eb4b397	0.35293266
31	0x3e162fe9	0.14666714
32	0x3d390f55	0.045180637
33	0x3e0a8b98	0.13529813
34	0x3c17debc	0.009269413
35	0x3d91f544	0.07126859
36	0x3e25bfee	0.16186497
37	0xbbfe8cea	-0.007768263
38	0x3e4659a8	0.19370139
39	0xbc87ca48	-0.016575947
40	0x3e0d5c77	0.13804804
41	0x3e69cb17	0.22831379
42	0xbd2546ce	-0.040350728
43	0x3d95f62f	0.073223464
44	0x3d64d1e6	0.055864237
45	0x3e871c8e	0.26388973
46	0x3e183a1b	0.14865915
47	0x3e6ea392	0.23304585
48	0xbd925421	-0.071449526
49	0xbc9a83d7	-0.018861694
50	0xbddb30c4	-0.10702661
51	0xbd897adf	-0.06712889
52	0x3dd57e34	0.10424462
53	0xbce98d1b	-0.028509667
54	0x3d87cf04	0.06631282
55	0xbc8eae0b	-0.017416975
56	0x3d99a721	0.075025804
57	0xbdc378f7	-0.095445566
58	0xbe04ceb3	-0.12969474
59	0xbdc9fdb6	-0.09862845
60	0x3d97b838	0.07408184
61	0xbd2cfe46	-0.04223468
62	0xbe304214	-0.17212707
63	0x3d6b3ede	0.057433
64	0xbe177037	-0.147889
65	0x3e00cc5d	0.12577958
66	0x3e0cc27c	0.13746065
67	0x3d443d52	0.047910042
68	0xbdcf6c9d	-0.10128138
69	0x3e0771d4	0.13227016
70	0x3d90b5e0	0.0706594
71	0xbd048258	-0.032350868
72	0x3c55a930	0.013040826
73	0x3ce38a5e	0.02777594
74	0xbe91d405	-0.2848207
75	0x3d81bd3c	0.06334922
76	0x3d47e203	0.048799526
77	0x3e859a66	0.2609436
78	0x3da5628f	0.08075439
79	0x3cbaa35a	0.02278297
80	0x3e562157	0.20911156
81	0xbe23eaed	-0.16007586
82	0x3da7370f	0.081647985
83	0xbe3d46be	-0.18484017
84	0x3cb74318	0.02237086
85	0xbc297fc7	-0.010345406
86	0xbcc9f8e6	-0.024654817
87	0x3b768242	0.003761426
88	0xbcb20ee5	-0.021735618
89	0x3e71eca4	0.23625427
90	0xbcf88c95	-0.030340472
91	0x3d82fcf5	0.06395904
92	0x3e8c53d8	0.27407718
93	0xbd8955cb	-0.06705817
94	0x3d0c01ae	0.03418129
95	0x3d2fd9e4	0.042932406
96	0x3d31cb8b	0.043407004
97	0xbc071fa4	-0.00824729
98	0xbe12c66e	-0.14333507
99	0xbdda68d1	-0.106645234
100	0x3e87f1cc	0.26551664
101	0x3ded4753	0.1158587
102	0x3d2a7bcf	0.04162198
103	0xbcaf7179	-0.021416413
104	0xbeb0a73c	-0.3450259
105	0x3d4485d1	0.04797918
106	0xbbd231d3	-0.006414631
107	0x3c79da9d	0.015249875
108	0x3da6e2d1	0.081487305
109	0x3d50ae99	0.05094776
110	0x3ce26b64	0.027639098
111	0xbe19e153	-0.1502736
112	0x3dfdb156	0.1238734
113	0x3de14f76	0.11001484
114	0x3de9ad0a	0.11409958
115	0x3e72219c	0.23645633
116	0xbd638712	-0.055548735
117	0x3e1c03f4	0.15235883
118	0x3dcf1630	0.10111654
119	0xbe46bfe6	-0.19409141
120	0x3dc78258	0.09741658
121	0x3d8f0d61	0.06984974
122	0x3e1d7aa2	0.15378812
123	0x3c82f474	0.015985705
124	0x3e932d67	0.28745577
125	0x3e0555a6	0.13020954
126	0x3e0e542d	0.13899298
127	0x3dc8db18	0.09807414
128	0x3d3c8103	0.046021473
129	0xbe04e248	-0.12976944
130	0xbd0eba8d	-0.034845877
131	0x3cb8ddfa	0.022566784
132	0x3c8ac87b	0.0169413
133	0x3de94d21	0.11391664
134	0xbda82d26	-0.082117364
135	0xbe08d2fb	-0.13361733
136	0x3ca90874	0.020633914
137	0xbdcb97e5	-0.09941081
138	0x3dc6f3c1	0.09714461
139	0x3d8de416	0.069282696
140	0xbdfd5145	-0.123690166
141	0xbd4c7a23	-0.049921166
142	0x3d5e7baa	0.054317154
143	0x3cbaa4f3	0.022783732
144	0xbe638041	-0.22216894
145	0x3e00fd85	0.1259671
146	0x3d5bd4f3	0.05366988
147	0xbe452895	-0.19253762
148	0xbe48aba5	-0.19596727
149	0x3e038e3a	0.12847224
150	0xbe829625	-0.25505176
151	0x3d37ee40	0.044904947
152	0xbcf9be35	-0.030486206
153	0x3cea35e8	0.028590158
154	0x3e1eff7f	0.15527152
155	0x3d08c86d	0.033394266
156	0xbe798926	-0.24368724
157	0xbe0b1219	-0.13581122
158	0xbd53f8d4	-0.051750973
159	0xbda68f5f	-0.081328146
160	0xbc909af2	-0.017652009
161	0x3d1d2f1e	0.038375013
162	0xbe7d6150	-0.24744153
163	0xbdc8dabf	-0.098073475
164	0x3dbbfd80	0.09179211
165	0xbdf5ecd4	-0.12008062
166	0xbd5d8a25	-0.054086823
167	0xbde430d7	-0.11142128
168	0x3c924d18	0.017859027
169	0x3d88183f	0.066452496
170	0xbe85b405	-0.26113907
171	0x3df1eef6	0.11813156
172	0xbe24f6cf	-0.16109775
173	0x3dd294d2	0.102822915
174	0x3ec6ea39	0.38850573
175	0xbdfabcca	-0.1224304
176	0xbe530172	-0.2060602
177	0xbe1ec200	-0.15503693
178	0xbe281c84	-0.16417128
179	0x3df615cd	0.12015877
180	0xbe162b47	-0.14664946
181	0xbd1817bc	-0.03713201
182	0x3d928cc1	0.07155753
183	0xbc960c7d	-0.018316502
184	0xbd8af1ca	-0.06784399
185	0xbd96dd83	-0.07366469
186	0x3e0bb06a	0.13641515
187	0xbdfdae4f	-0.12386762
188	0x3ddc4e38	0.107571065
189	0x3dc2e028	0.09515411
190	0xbda37b48	-0.079824984
191	0xbde3cddd	-0.1112325
192	0xbe358915	-0.17728074
193	0xbe46a0c3	-0.19397263
194	0xbde33761	-0.11094547
195	0xbe396921	-0.1810651
196	0xbcc08737	-0.023501975
197	0xbd8a9055	-0.067658104
198	0x3cff1370	0.031137198
199	0xbde28fa2	-0.11062552
200	0x3d218d1c	0.039441213
201	0xbd7ad6f9	-0.06124017
202	0x3ca74ff7	0.020423872
203	0xbe3670c2	-0.17816451
204	0xbe2a456d	-0.16628046
205	0x3d179731	0.03700942
206	0xbe4eca32	-0.20194319
207	0x3aceefb6	0.0015787992
208	0xbec3164f	-0.38102958
209	0xbd661080	-0.05616808
210	0xbe3b8c55	-0.18315251
211	0x3c8145dc	0.015780382
212	0xbe2a2b98	-0.16618192
213	0x3e24dfdf	0.16101025
214	0x3d891687	0.0669375
215	0x3d7fc828	0.062446743
216	0xbb8e7eec	-0.0043486264
217	0xbead5fc9	-0.3386214
218	0x3e6c736d	0.23090906
219	0x3e1c66ad	0.15273543
220	0x3bb46a18	0.0055058114
221	0x3cae738d	0.021295333
222	0x3e719821	0.23593189
223	0xbddc8d81	-0.10769177
224	0xbcadfeef	-0.021239726
225	0x3e17abad	0.14811583
226	0x3dd1b7ed	0.10240159
227	0x3dd51771	0.10404862
228	0xbe8fd497	-0.2809188
229	0xbd43bc4a	-0.04778699
230	0x3d5293bc	0.05141042
231	0x3e2cb485	0.16865738
232	0xbe2a1057	-0.16607796
233	0xbd7078a4	-0.058708802
234	0x3e154318	0.14576375
235	0xbe03e76d	-0.1288125
236	0x3d9b7dbf	0.075923435
237	0xbd78a383	-0.060702812
238	0xbced4801	-0.028964998
239	0xbd20d29d	-0.039263356
240	0x3bd9e2a2	0.006649331
241	0x3dfe5c43	0.12419941
242	0x3df453ef	0.119300716
243	0xbc781d58	-0.015143715
244	0xbe1c4d33	-0.15263824
245	0x3d6cb376	0.057788335
246	0x3d3b22c0	0.045687437
247	0x3e764719	0.24050559
248	0x3dcf9edc	0.10137722
249	0x3d570462	0.052494414
250	0xbd312dad	-0.04325645
251	0x3d65c087	0.05609181
252	0x3dc81bd5	0.097709335
253	0x3b130fc4	0.0022439817
254	0x3e011dec	0.1260907
255	0x3e219570	0.15779662
