experiment/saml/GTEA-Trans/GTEA-Trans_checkpoint.pt (torch_old, 538157 bytes, 64 tensors)

edge_in_layers.0.weight f4 [64, 11]
00000000: a26a 7dbe 13c4 87be 5951 83be a52b 14bd
00000010: 0a2f 5fbe 62df 86be f68e 503e 186b 60be
00000020: 611b 17be 7e03 903e 8673 c63e 31b7 39be
00000030: bdb6 673d cdae 97be 052d d0bd 0a29 9a3d
00000040: 1463 563e 6d8a bbbe 5a18 68be 805d 383e
00000050: eebb 8cbd 3154 babe 9ee7 1e3e bebf 9a3e
00000060: 6d40 63be be7c 54be 9c79 91be fe7e 013e
00000070: fd93 6a3e 2776 9f3e 9324 813e 4760 a2be
00000080: 645e 52be 68ab c9bd 9e8a 4dbe 5db2 b7bd
00000090: 6678 c63d a01f 143e 996c 51be 25d6 adbe
000000a0: f507 93be 4ea4 e0bd 06d3 9b3e 4e79 703d
000000b0: f6fc 743e fbbf 70be 668c 2abe ea03 56be
000000c0: acf8 2e3e 3c24 623e 0183 c6bd 47ee 563e
000000d0: e917 1ebe fb35 6e3d 5211 9dbe 3f47 a2be
000000e0: f6d3 143e 530d 7b3e e327 e03a 09d7 0b3d
000000f0: fda4 613e 4115 933e db49 52be 9b0e 343e
00000100: 98c7 8abe 0eba 3b3e 38c3 16be 7154 cd3d
00000110: f232 0bbe 0da5 c9bd 6dd1 953e e054 e83d
00000120: e65b 3cbe 8f39 b73d 0a5c 2b3e ed62 9dbc
00000130: 024a aabe e9a0 493e 13b1 0e3e 6b2f f93d
00000140: 7e9a 5c3e d663 bcbd 805d 493e f33a 593e
00000150: da7b 043e 4a1b 46bd 5508 e03c 99cd 423e
00000160: 4c0c 283e 9ba4 713e 5457 a43d 445d 62be
00000170: a235 afbc f146 e13d f7b0 873e 5ed8 413e
00000180: d9d5 743d de6c e2bd bb59 e8bd 3eef febd
00000190: f065 ed3c 7488 7b3e 95bc 4d3e ac3a 87be
000001a0: 85b6 2d3e 1b20 eabd 3305 6f3e dbb1 43be
000001b0: b4d8 febb 600c b7be 8cec 13be ffdf 053e
000001c0: 9158 553e 6c59 f3bc 6138 cb3d c836 33be
000001d0: d6ca 30bc bf59 98be f8ab a0be c176 1bbe
000001e0: b683 0dbd 03ab a53e 9836 c8bc ffeb 0e3e
000001f0: 02c4 753e aace 09be 914d 37bd d896 8b3c
00000200: 6d09 b83b b1ed a2be 9985 a63e 2d58 9b3d
00000210: 6556 9ebe 3a9f 78be a78d dc3d 2b71 ce3d
00000220: 29d1 893e c2ef 0ebc ea4b 3f3e 3f5f 2c3c
00000230: 248e 9e3e 9318 b5be 6856 99bd 2d47 81be
00000240: 9448 8fbe 0f80 f7b9 4f0b dfbd f6be 233e
00000250: 65d7 82bc ac62 903d e7fb 28be 5d38 a03b
00000260: 0574 d4be 7fa3 7dbd ec37 26be c4d2 d4bc
00000270: f414 f2bb 1556 2a3e 9a60 7a3e 2da9 753e
00000280: 46e6 1f3e 71d4 d43c 4913 b0bd 8755 84be
00000290: 253b 353e ab2b d83b 30e2 f23c ba6f 2e3e
000002a0: fd4e bbbc 0201 c2bd bcdc 6bbd 56fa 59be
000002b0: d18b 3ebe edc5 a43e 6d39 6d3e ff8b c63d
000002c0: 240c fe3c 814c 18be 5501 c8bd a86a 8ebc
000002d0: ff5b d0bc 6c2d 38be f32e 9c3d e873 9f3d
000002e0: e223 293c 96c5 00be cf68 96be 8723 43be
000002f0: a4c7 3fbd cb33 b93d 047f 01be ed6a 873c
00000300: 28c7 31be d815 213e b774 a03e 1948 853d
00000310: 3537 563e c750 a93d 6a40 69be b64f 383d
00000320: 4e06 3dbd e916 41be db47 df3d 9c0a 41be
00000330: d23a 2bbd 3028 113e a037 8abe 96d0 773e
00000340: 13d2 60bd 6ab6 6b3e 75ff 173e c2c2 23be
00000350: ccf0 81be 73df 41bc 8fb6 803e f839 973d
00000360: 1a91 03be 0b98 18be aa36 b93e e52c d83e
00000370: 04b5 6e3e 9196 453e ac6a 8a3c 5011 603e
00000380: ce13 96be a5cc 9fbc 6ef2 46be f3a9 ac3d
00000390: 2a0a d3bd c3b4 b3bd 801c dbbc 8f7b fcbd
000003a0: 9d73 5e3e 9a0f 78be 13d9 3cbe 5c78 c8bc
000003b0: 6644 143d 39a9 1f3d 0ea3 40be 76e2 c9bd
000003c0: e047 9a3e b756 b93e 9ace b7bd aa55 acbc
000003d0: 5fcd 93be 63cc 0ebe a771 4a3e ad56 83be
000003e0: 1138 9c3e 7a58 0d3e ff39 9c3e b61c 9abe
000003f0: 8c75 24be bf89 7fbe 3e56 613e a415 ef3d
-0.24747708 -0.2651678 -0.25648 -0.036174435 -0.21795288 -0.26342303 0.20367035 -0.21915853
-0.14756538 0.28127664 0.38760012 -0.18136288 0.056570757 -0.2962555 -0.10164837 0.07527359
0.20936233 -0.36629048 -0.2266554 0.18004417 -0.06871782 -0.36392358 0.15518042 0.30224413
-0.22192545 -0.2075071 -0.28413093 0.126461 0.22908016 0.3114483 0.25223216 -0.3171408
-0.2054382 -0.09847146 -0.2007241 -0.08969567 0.09690933 0.14465189 -0.20451583 -0.33952442
-0.28717008 -0.10968839 0.30434436 0.058709435 0.23924622 -0.23510735 -0.1665512 -0.2089993
0.17087048 0.22084135 -0.09692956 0.20989333 -0.15438809 0.05815695 -0.30677277 -0.3169498
0.14533982 0.24516802 0.0017101731 0.03414062 0.22035594 0.28727153 -0.20535986 0.17583697
-0.27105403 0.18332693 -0.14722908 0.100258715 -0.13593653 -0.09845934 0.29261342 0.113443136
-0.18394431 0.08946525 0.16734329 -0.01921221 -0.33259588 0.19690289 0.13934736 0.121672474
0.21543309 -0.0919873 0.19664574 0.21213894 0.1293787 -0.04836587 0.027347723 0.19023742
0.16410941 0.23597948 0.08024469 -0.2210589 -0.021387879 0.10999859 0.265022 0.18930194
0.059774254 -0.11055921 -0.1134524 -0.124479756 0.028979272 0.24563771 0.2009147 -0.2641195
0.16964157 -0.11431905 0.23341827 -0.19110815 -0.007777298 -0.3575163 -0.14445704 0.13073729
0.20834567 -0.029705726 0.09922863 -0.17501366 -0.010790547 -0.2975597 -0.31381202 -0.1518202
-0.034549437 0.32357034 -0.024440095 0.13957213 0.24000552 -0.13457742 -0.044751707 0.017039701
0.005616358 -0.3182197 0.32523802 0.075851776 -0.3092529 -0.2427949 0.107692055 0.10080179
0.2691739 -0.008724155 0.18681303 0.010520755 0.3096782 -0.3537031 -0.07487184 -0.25249615
-0.2798506 -0.00047206922 -0.10890829 0.15990815 -0.015971849 0.0705007 -0.16502343 0.0048895315
-0.41494766 -0.0619235 -0.1623227 -0.025979407 -0.0073877517 0.166344 0.24450913 0.23990317
0.15615186 0.025980206 -0.08597428 -0.25846502 0.17698343 0.0065970025 0.02964887 0.17034808
-0.022864813 -0.094728485 -0.057583556 -0.21286902 -0.18608023 0.32182255 0.23166437 0.09694671
0.031011648 -0.14872934 -0.09765879 -0.017384842 -0.025434492 -0.17986077 0.07626142 0.07785779
0.010323497 -0.12575373 -0.29376838 -0.19056521 -0.04682125 0.09043082 -0.12646109 0.016530478
-0.17361128 0.15730989 0.31339046 0.06507892 0.20919497 0.0826736 -0.22778478 0.044997893
-0.04614859 -0.18856396 0.10902377 -0.18851703 -0.041804142 0.14175487 -0.26995564 0.24200663
-0.054887842 0.23018804 0.14843543 -0.15992263 -0.25379026 -0.01183306 0.2513928 0.073841035
-0.1284832 -0.1490175 0.36174518 0.42221752 0.2331124 0.19295718 0.016896568 0.21881604
-0.29311985 -0.019506762 -0.19428417 0.08430853 -0.10304673 -0.08774712 -0.026746988 -0.123282544
0.2172379 -0.24224702 -0.18442182 -0.024471454 0.036198042 0.038979743 -0.188122 -0.09857647
0.3013296 0.3619897 -0.08974953 -0.021036942 -0.28867623 -0.13945155 0.19769917 -0.25652066
0.30511525 0.13803282 0.30512998 -0.3010003 -0.16060466 -0.2495489 0.22005555 0.116740495

edge_in_layers.0.bias f4 [64]
00000000: e227 92bd c764 d63d 6d32 6bbe 59c9 303e
00000010: 901c 7cbe 50bc 52be b4b6 3c3e 6978 5cbd
00000020: 22fd c23d d0d4 3a3e e311 b5bd 2bb0 61be
00000030: d7a3 94bd f446 93be f2e8 63be c906 80be
00000040: efab 76be 3044 c3bd 662f 76be 16e3 983e
00000050: 01a5 a7be 3e7e 84bc bb7a 7cbe 82e8 6bbc
00000060: 047a 98bc 4efa 8a3d 1255 68be 00f1 8f3e
00000070: fc53 c2bd a740 a73e cc8f 6cbc 2421 63bd
00000080: 3de0 e4bd 6bb9 d8bd c76b 49be 3512 0d3e
00000090: a3d0 853e f76c 883e 61ac 6b3e adfc 153e
000000a0: a0ad 4cbe 37ba 45be dc6d 473e 752a 80bd
000000b0: 10ad 583d 3766 eabd 7398 9fbe 5ecd 6abb
000000c0: d4e5 e43c 13bb ec3d 495c 593e 9312 cbbd
000000d0: 7b3d 8b3d eee6 be3d bb5c 1ebe 2d2b acbd
000000e0: 81ef d2bd 2423 48be a3f9 a33d af2d 673e
000000f0: b716 23be f596 dcbd 96a6 94be 1f8a c43e
-0.07136513 0.104684405 -0.22968455 0.17264308 -0.2462027 -0.20579648 0.1842907 -0.05382577
0.095209375 0.18245244 -0.08841302 -0.22039859 -0.072578125 -0.2876507 -0.2225683 -0.25005177
-0.24089025 -0.0953449 -0.24041519 0.29860753 -0.32743075 -0.016173478 -0.24656193 -0.014398696
-0.01861287 0.06786023 -0.22688702 0.28113556 -0.09488675 0.32666513 -0.014438581 -0.055451527
-0.111755826 -0.10582241 -0.1967002 0.13776477 0.2613574 0.26645634 0.23014976 0.1464717
-0.19988108 -0.19309317 0.19475502 -0.06258098 0.05289942 -0.11445277 -0.31170997 -0.0035827975
0.027941622 0.11559119 0.2122661 -0.09915652 0.06798836 0.0932139 -0.15465061 -0.084066726
-0.10299588 -0.19544655 0.08006599 0.2257602 -0.15926634 -0.1077098 -0.29033345 0.38386628

edge_in_layers.1.weight f4 [64, 11]
00000000: 47a6 a43d 9c30 1bbd c6c6 863d 26c0 a13d
00000010: 0eba bfbd faee f0bd 8320 13be 86ea 4fbe
00000020: 7c76 3abc 5ae5 77be 976f 413e ef45 8b3d
00000030: 7287 ac3d 0a43 653d f8bf ad3d a7b4 83bd
00000040: 8e28 6b3e aefe b63b 6cb7 83bd 78b5 6c3e
00000050: 139b 3b3e 8ebb 9bbe 8862 c23d bea0 5fbd
00000060: e3a4 8b3e 3084 aa3d e0c6 993e c254 4b3c
00000070: 3835 583e 365f b23d 59bd 5e3e 2e38 3cbe
00000080: cf6d 6cbe d943 ee3d 1841 abbd 35d9 86be
00000090: bef9 9cbd 95b4 873d cbd2 373e b40d 72be
000000a0: 5f2d 9f3e 2a18 343d e3ef d13d a389 153c
000000b0: d6a6 7bbe 5d1a 8fbe ab00 833d 3cb4 093e
000000c0: ef01 be3c 4ab6 28bc 345b 613e ed66 f23c
000000d0: 4d76 f5bd 9b73 3d3e 0bba 89bd 22c6 7d3e
000000e0: 738c 133e ce9c 3b3e dadd 73be 042c dc3d
000000f0: a6a5 963e 84f5 86be 5800 82be 5137 453e
00000100: a2c6 833d 7e47 943d 9986 423e 0249 a03d
00000110: 2a05 5d3e d58b 5c3d 46f4 68be a671 223e
00000120: 83fd 8e3e 9d51 12be 9c86 c5bd 1e88 bc3d
00000130: 142a 1b3e 0463 2fbe eedf 0a3d b76b 04b7
00000140: 06d7 47be 7e87 8ebc 9a88 8cbe 48e1 0d3e
00000150: 1e59 d5bc 7970 873e 0fb6 13be 6782 3b3e
00000160: b453 3b3d 9f86 12be 8b2d 303e 61bb 5b3e
00000170: 1593 88be 5d2d 7dbd 1837 283e 01b3 e0bd
00000180: 10c8 6abd ba54 7abe 4254 463e 9197 99bb
00000190: 1b0c 9cbd 6951 86be e69c 073e 5247 75be
000001a0: 33d9 a63c efb1 4a3d 8f70 47be a1c1 8a3e
000001b0: a778 7a3e 087a 07be 7ded 71be 9ddd 3a3e
000001c0: 0f51 c03d 78a5 99bd dbc9 8d3d 4062 36bc
000001d0: 744f 7bbc a099 ef3d c0b7 68be 2819 513e
000001e0: 2efd c6bd 2771 973e 31f5 f23d 578f fbbd
000001f0: 3ade 7d3d 7564 0a3e 1a9c 5f3e 9d1c dabd
00000200: f405 dabd a60e df3d bcf6 6dbe 5a5c 113d
00000210: c732 5e3c 3d43 5ebe bf66 4a3e f2ad 12be
00000220: d589 27bc bde2 883e fc85 31be f62f 9e3d
00000230: 7abc dcbd 0d72 82be 3d24 88be 203d 2abe
00000240: 78a4 91bd 9769 5f3e 074e 86be f1d0 0c3e
00000250: 1736 663d 61fe c13d fd34 b7bd 7dee b83c
00000260: 6a85 513e cdb8 05be 638b 19be df19 833e
00000270: 0254 2d3d 5f27 59be f203 49be 36e0 28be
00000280: d7f8 423e 4c5e c7bd a957 973e a42b 2ebe
00000290: 08d2 36bd edf7 7d3e d28d a2bd 3b79 d53d
000002a0: 87b3 2b3e d0fd a5bb 4f6b 623d 0028 5d3e
000002b0: e4de 90be d289 88be 0acf 4dbe 5315 e13c
000002c0: 3557 14bd 4c86 69be 3cb0 89be d52d 913e
000002d0: 7808 34be 095a 30bd 92c4 663e d9ea 633e
000002e0: c106 973d 8c26 673e 1c50 f2bd 58ae d53d
000002f0: dcc7 84be fe86 10bd d8d7 38be af40 643e
00000300: ed50 1bbe 7d4f e13d 6ae7 c0bd d093 d93d
00000310: 5114 893e 6569 25be 7373 0a3e 59ab 913e
00000320: 9338 d6bd 4c2b 93be 794b 463e 20c7 67be
00000330: 680b 74bd f915 37be ca39 f9bd d525 4b3e
00000340: af4b e83d 1c27 95be c74a 903e 34ef e33c
00000350: 04a4 a7bd 38b4 9c3e f9ff c93d a959 843e
00000360: 3de6 363d 9ac5 83bd 0a01 84bd ddf3 68bd
00000370: 6e25 9abd f8da 0c3e f09a 96be dd11 133d
00000380: 4934 edbd 81b3 0ebe 5b1e 3c3e 9cdc eebd
00000390: 6cd4 68be 6915 ce3d 4ad5 9c3e b389 663d
000003a0: b43e e23d 44e9 3cbe 1d91 d9bb 4c4e c0bd
000003b0: bfd3 753e eeb1 10be b368 343e 641e 71be
000003c0: 8a72 8dbe e7de 7a3d cf26 5fbe 5f78 38be
000003d0: cddb 6b3e daac 8bbe 4312 333e f024 7f3e
000003e0: f666 043e a83b 2f3e f8ba 613d 0ac1 123e
000003f0: 9dab 2ebe 17c2 81be 3d69 4e3e 6f95 5abe
0.080395274 -0.037888154 0.06580882 0.078979775 -0.09361659 -0.11764331 -0.14367871 -0.20304307
-0.011380788 -0.24208584 0.18890224 0.06800448 0.08424272 0.055972137 0.08483881 -0.06430941
0.22964689 0.0055845594 -0.06431469 0.231161 0.18320875 -0.3041653 0.094914496 -0.054596655
0.27274236 0.08325994 0.30034542 0.012410345 0.21114051 0.08709566 0.21751918 -0.18380806
-0.23088764 0.11634035 -0.08362025 -0.2633759 -0.07664822 0.0662624 0.17951505 -0.2363804
0.31089303 0.043968357 0.10250833 0.009127053 -0.24575362 -0.279498 0.06396612 0.1344766
0.023194281 -0.010297367 0.22007447 0.029590094 -0.11985455 0.18501131 -0.06724938 0.24782613
0.14409046 0.18321535 -0.23815098 0.10750583 0.29423255 -0.2635919 -0.25390887 0.19259383
0.064343706 0.072401986 0.18996657 0.07826425 0.21584001 0.05384429 -0.22749433 0.15863666
0.2792779 -0.14288945 -0.09644815 0.0920565 0.1515277 -0.17127615 0.033904962 -7.892892e-06
-0.19515619 -0.017398592 -0.2744797 0.13855469 -0.026043471 0.26452997 -0.14424919 0.18311463
0.045734122 -0.14309166 0.17204873 0.21458198 -0.26674715 -0.06181084 0.16427267 -0.10971642
-0.0573197 -0.24446383 0.1936808 -0.0046872576 -0.076194964 -0.26233986 0.13243446 -0.23952988
0.02036724 0.049486097 -0.19476531 0.27100852 0.24460088 -0.13230145 -0.23625751 0.18248601
0.09390461 -0.07502264 0.069232665 -0.011131823 -0.015338767 0.116992235 -0.22726345 0.20419753
-0.09716259 0.29578516 0.11863173 -0.12283199 0.06197951 0.13514884 0.21836892 -0.10649989
-0.10645667 0.10891466 -0.23238653 0.035488464 0.013561911 -0.21705337 0.19765757 -0.14324167
-0.010225733 0.26735488 -0.17336267 0.077239916 -0.107781366 -0.2547764 -0.26590148 -0.1662488
-0.07111448 0.21817623 -0.26231405 0.1375158 0.056203928 0.09472347 -0.089456536 0.022574658
0.2046105 -0.13058777 -0.14994578 0.25605676 0.042316444 -0.21206425 -0.19630411 -0.1649178
0.19040237 -0.097347826 0.29559067 -0.17008835 -0.044633895 0.24801607 -0.07937206 0.104235135
0.16767703 -0.005065657 0.05527812 0.2159729 -0.28295052 -0.2666765 -0.2009851 0.027475988
-0.03621598 -0.22805136 -0.2689227 0.2835528 -0.17581356 -0.043054614 0.22535923 0.22257556
0.07374335 0.22573298 -0.11831686 0.10433644 -0.2593373 -0.03528499 -0.18051088 0.222903
-0.1516759 0.11001489 -0.09419139 0.10623896 0.26773313 -0.16153486 0.13520603 0.2845104
-0.104600094 -0.2874397 0.19364728 -0.22634554 -0.05958119 -0.17879476 -0.121692255 0.1983865
0.113425605 -0.291314 0.2818205 0.027824022 -0.081855804 0.30606246 0.09863276 0.25849655
0.044653166 -0.06434174 -0.06445511 -0.05687319 -0.075266704 0.13755405 -0.29415083 0.035905708
-0.11582238 -0.13935663 0.18370955 -0.11663172 -0.22737283 0.100626774 0.30631477 0.056283664
0.11047116 -0.18448359 -0.0066396133 -0.09389934 0.24006556 -0.14130375 0.17618065 -0.2354675
-0.2762645 0.061247732 -0.21792148 -0.18014668 0.23033066 -0.27280313 0.17487435 0.24916434
0.12929901 0.17112601 0.055109948 0.14331451 -0.17057653 -0.2534339 0.20157333 -0.21346067

edge_in_layers.1.bias f4 [64]
00000000: f43f 15be 0cf1 8d3e 4065 26be fdf3 093e
00000010: 435d 873d d407 6ebe 0535 2abe cefc 30b8
00000020: 08e9 4d3d 0d2f 023e 75a5 87be 2614 cb3b
00000030: a1dd 343e 186a 823e 7c17 c93d 1158 8f3e
00000040: c285 563d e88b 86bd 508e 9cbe 82d2 133e
00000050: 6eed 06be 9913 5ebe 4006 803e de5a 3dbe
00000060: 62bb 25be a63a 933d 0cbf 7abe 4ab2 dfbd
00000070: a2e2 aa3e 0fd0 643e 8ad4 f3bd ea0c 05bc
00000080: 94d9 e3bd 771d c2bd a4db 4c3e 1e0d cebd
00000090: 098a 89be c561 5bbe 031a 8ebe 88f5 83be
000000a0: b254 18be 53b7 613e d4c3 813e 5226 a8bd
000000b0: 7a6b 5dbe fb4c abbd 7d8d 50be 9cb3 dabd
000000c0: 72d0 72be 0edc 25be 6e29 863b e0fc 4f3e
000000d0: 508f 253e cb22 8dbd b79d 1cbe 3adb 163e
000000e0: 74f1 d7bd b9e9 2cbe 1ff9 3dbd 94b3 19be
000000f0: 232c 133e e529 093d a78f 763e 9f32 a23d
-0.14575177 0.27722967 -0.16249561 0.1347198 0.06609585 -0.23245174 -0.16621788 -4.2197113e-05
0.050271064 0.12713261 -0.2649342 0.0061974702 0.1766267 0.25471568 0.098189324 0.27996877
0.052373655 -0.06569654 -0.30577326 0.14435771 -0.1317651 -0.21687163 0.25004768 -0.18491694
-0.16184762 0.07188921 -0.24486941 -0.10922678 0.33376032 0.22344993 -0.11905773 -0.008120755
-0.11125484 -0.09478276 0.20005661 -0.10061096 -0.26863125 -0.21424015 -0.2775422 -0.25773263
-0.14876059 0.22042589 0.25344718 -0.08210434 -0.2162303 -0.08364292 -0.20366473 -0.10678789
-0.23712328 -0.16197225 0.0040942943 0.20311308 0.1616795 -0.06891402 -0.15294538 0.14732066
-0.105441004 -0.16886033 -0.04638016 -0.1500991 0.14372306 0.03348722 0.24078237 0.079198115

edge_layers.0.transformer_encoder.layers.0.self_attn.in_proj_weight f4 [192, 64]
00000000: 058c 41be e6b1 c73c 12dd c2bd db48 33be
00000010: f303 1c3d f282 c53d 7e32 37bd 1fa3 123e
00000020: d133 e73c 40ff 48bb a0b5 25be 4248 80bc
00000030: 2160 383d a1b4 603d a43a 90bd 09cb 95bd
00000040: 5f64 423d a18d 063e b749 d93d ffb7 38bd
00000050: 0e74 123e b7c6 a33d 71ec c939 c484 853d
00000060: 9b13 c2bd b667 f33d d15c 873c 7d7d 8c3b
00000070: 1f10 8fbd b992 ecbc 2a9a adbd 85fd 18bc
00000080: d5d6 a53d 5812 2cbe 428e 1dbe 7ef0 253e
00000090: f8a8 1c3e ca7c d6bc 2e00 b53d 3855 0f3c
000000a0: c1a5 04be 097f de3d 8b29 55bd c509 a6bb
000000b0: 1c04 133d 6cd3 c2bd 10b5 953d cf9c 233e
000000c0: d67b 02be c651 f0bd ac77 f33d e149 43bd
000000d0: 54b0 c23d 0d97 16bd 8482 a03d 719a c1bd
000000e0: 481e 8d3c 4131 b9bd db24 03be bb6a 2fbe
000000f0: e704 573d 23de 003e 9172 a7bd a8c0 d4bd
00000100: 946e 1abe 8b28 f0bc 53de fcbd ecd9 adbd
00000110: f53e 79bd c01c efbc 2643 543b 0cb2 cd3d
00000120: 0e44 8f3a 450a b23d b1ef 15be ee49 a93c
00000130: 5b04 0c3e 883a 3b3d 1a6f 393d 735a 0f3c
00000140: 4272 2dbe 5f50 1bbe 6045 a13d e8c6 713c
00000150: 682a d1bc 4478 d3ba 60ee 4b3d 5b0e 2abe
00000160: 4b9d f23c ef94 92bd 114e 4ebd 0c0d 2dbc
00000170: f0b3 853d d6e1 8bbd a6a1 8a3d f342 c23d
00000180: d9a2 d1bd 88dd 27be 7994 213d 9733 013e
00000190: e8cf 8e3d 54de 813d 6a0c 00be 90b6 edba
000001a0: 2964 2bbd d4a9 42bd 242d d13c 5cf4 5e3d
000001b0: c889 1abe 5e42 163e 3d28 02be 923c b53d
000001c0: 3836 733d ae93 42be 00dd a3bd a92f ae3d
000001d0: 7434 b13c 0ed0 09be fb5b 36bd 1bb0 613d
000001e0: 5dbd b4bc 1c9f 1dbe e239 a3bd 508a 0fbe
000001f0: 6f20 893c b96f e6bd 6e10 4cbd 7946 cc3b
00000200: 7e3f 19be 7d2f e5bb d917 22be ede0 13be
00000210: 03d1 43bc 9072 22be a4f7 0a3d 4646 de3d
00000220: b875 f5bd 7567 93bd 56e7 0fbd 031d b9bd
00000230: 0c4b 37be da92 143d d7da 2ebe dfcb 75bc
00000240: 2368 45bd 5b77 c6bd fe16 25be eb94 b5bd
00000250: 9b82 f13c e8f1 b4bc 550d 153e f377 ba3d
00000260: fa55 e03d f215 7d3d 0233 003e b9d4 aebd
00000270: 3494 1fbe 7c06 97bd 86c6 16bd 1a11 32be
00000280: ef71 01be 91d1 f43b 37f5 38bd 4909 afbd
00000290: b5b9 c63d 970e 02be 8d1b 403d 7785 a73d
000002a0: da06 71bc f20f a7bd addb fb3d 0c1e d2bc
000002b0: 41e7 e63d a866 01bd 7326 19be 6ddc 16be
000002c0: 5d2c 63bd 1bcf 81bd b179 4bbc 083f 4abe
000002d0: 8ca4 9c3d 3dbd d03d 46f7 03bb f244 01bd
000002e0: d5bc 1b3c 986d 0cbe 53b1 64bd 11f8 a1bc
000002f0: f61e 993d 23e0 1cbd b679 a23d 8046 a839
00000300: 3607 57bd e1c9 44bd af7a c1bd 214b 643d
00000310: f213 febd 1856 0ebe 48f0 d1bd 7835 51be
00000320: 41ec 1b3b 9e83 0fbd 7f66 093e 3e3f 00be
00000330: 20a3 e23d 2e32 03be 4e55 17be d508 673d
00000340: 256f c1bd 94f5 b83d 7164 d23d 03c3 8cbd
00000350: 58e9 bd3d 20d2 cdbc f18a 28be dc84 563d
00000360: 37e1 04be adba 9b3d 966a 28be ae3b 2ebe
00000370: 96c4 16bc fd21 b4bc 7624 a23d 12f5 0fbc
00000380: d787 1fbe f618 94bd fa82 71bd cfbd 1d3d
00000390: dcb8 ab3d a0b1 833d 9629 a0bb 8f56 61bc
000003a0: f49e b0bd 335a 933b ff4a a03d 4c8c c53c
000003b0: f1d9 503d b6f2 b5bd 2c91 8b3d 415f e5bc
000003c0: 6c83 99bd d03a 183d 5dd4 2f3d 41e3 36be
000003d0: 91bc 54bb 577f 32bd 2d48 3ebb c347 7fbd
000003e0: 987b 85bd deb4 34be cac7 c03d 3635 e3bd
000003f0: 9882 0cbd 2cbf 3a3d 8cf8 673d 2f68 bfbc
-0.1890107 0.02437682 -0.09514822 -0.17508261 0.038089704 0.096441165 -0.044725887 0.14320038
0.02822295 -0.003066972 -0.16182566 -0.015659455 0.04501355 0.05485976 -0.07042435 -0.073141165
0.047459003 0.13139965 0.10609763 -0.045097347 0.14302084 0.07996886 0.0003851387 0.06519464
-0.09476396 0.11885016 0.01652375 0.0042874203 -0.06985497 -0.028878557 -0.0847667 -0.0093377875
0.080976166 -0.16803873 -0.15386298 0.16205022 0.15298831 -0.026182551 0.08837925 0.008748345
-0.12953855 0.10864074 -0.05204157 -0.0050670826 0.03589259 -0.09512982 0.073099256 0.15977786
-0.12742552 -0.11734347 0.1188806 -0.04767788 0.09506288 -0.036765147 0.07837394 -0.094532855
0.017226353 -0.090425976 -0.12807028 -0.17130558 0.05249491 0.12584738 -0.08176149 -0.10388309
-0.15081245 -0.029316207 -0.123470925 -0.08488831 -0.060851056 -0.029188514 0.0032388656 0.10043725
0.0010930316 0.08693365 -0.14642216 0.020665135 0.13673536 0.045710117 0.04527197 0.008749592
-0.16938117 -0.15167378 0.0787456 0.014756896 -0.025532916 -0.0016133864 0.04978788 -0.16607039
0.029616019 -0.07157313 -0.05036742 -0.010562193 0.06528461 -0.06830184 0.06769113 0.09485426
-0.10236139 -0.16393101 0.039448235 0.12617336 0.06973249 0.06341234 -0.12504736 -0.0018136073
-0.041843567 -0.047525242 0.02553422 0.054432258 -0.15091622 0.14673755 -0.12710662 0.088494435
0.05937788 -0.19001648 -0.08001137 0.08505184 0.021631457 -0.13458273 -0.044521313 0.055099588
-0.022062952 -0.15392727 -0.07970025 -0.14017606 0.016739098 -0.11251778 -0.049820356 0.006233987
-0.14965627 -0.0069941864 -0.1582941 -0.14441271 -0.011951688 -0.15864015 0.033927575 0.10853247
-0.11985344 -0.07197467 -0.03513273 -0.09038737 -0.17899722 0.03627286 -0.17075668 -0.01500222
-0.048195016 -0.09690734 -0.16122052 -0.088662945 0.029481223 -0.022088006 0.14555867 0.0910491
0.10953899 0.061788507 0.12519458 -0.085366674 -0.15583879 -0.07374284 -0.03681042 -0.17389336
-0.12641118 0.0074712713 -0.04515573 -0.08546693 0.097033896 -0.12700878 0.046901274 0.08179753
-0.014711106 -0.08157338 0.12297759 -0.025649093 0.11274577 -0.03159204 -0.14956073 -0.14732523
-0.05546223 -0.0633833 -0.01241915 -0.19750607 0.07648572 0.10192344 -0.00201364 -0.031559892
0.00950547 -0.13713682 -0.055833172 -0.019771608 0.074766085 -0.03829969 0.07933371 0.00032095984
-0.05249711 -0.04804409 -0.09447228 0.05573571 -0.12406148 -0.1390003 -0.10250908 -0.20430553
0.0023791941 -0.03503763 0.13418005 -0.12524125 0.1106627 -0.12812111 -0.14778635 0.056404907
-0.09445027 0.09031215 0.10273064 -0.06873133 0.092730224 -0.02512461 -0.16459252 0.0523728
-0.12976538 0.07603965 -0.1644691 -0.17014953 -0.009202143 -0.021988863 0.079171106 -0.008786457
-0.15579163 -0.072313234 -0.0589628 0.038511094 0.083848685 0.06430364 -0.00488777 -0.013753547
-0.08624068 0.0044968366 0.07826804 0.02411475 0.050989095 -0.08884184 0.06814799 -0.027999522
-0.0749577 0.037165463 0.042927135 -0.17860128 -0.0032461027 -0.043578472 -0.002903472 -0.062324297
-0.06517714 -0.1764712 0.09413107 -0.110941336 -0.03430423 0.045592472 0.056633517 -0.023365108

edge_layers.0.transformer_encoder.layers.0.self_attn.in_proj_bias f4 [192]
00000000: 6938 ddbc aedb 0dbd 6b70 c2bc 5926 94bc
00000010: bf80 193c 9e44 cabc 326b 8bbc 0029 933c
00000020: 51e5 7dbc 26ea 2abc 69f5 e1bc 1a84 c7bc
00000030: bc04 423d 73dc 12bd 8949 47bc e0ef 2a3d
00000040: 5b25 2dbd d31c b43c 80cf 60bd 8b53 563c
00000050: eaaf aabc 95da edbc 0926 ccbc fa25 493d
00000060: 95f7 5b3d f052 3b3d 648f 3cbc 4baa 0d3b
00000070: a2fe 833d 3074 f63c f43a 0e3d 9b01 2e3c
00000080: f7c2 723d 56ef a5bd 49d4 a3bd 1c15 79bd
00000090: 264c 34bd 94ed 8abd 6a0f 483d c938 c5bd
000000a0: 7e81 533d 1edf 503d b6a1 973c a26f d9bd
000000b0: 9655 ccba 381f 28bd a2c3 213b ee9c 0dbd
000000c0: 4475 cb3c 3e11 34bb 17da b83c ad61 443d
000000d0: 6e01 ae3c 7c01 78bd e5e2 323d 1274 cd3c
000000e0: 601a ecbc 0a04 bcbb 1fb6 f8bc 0e3f ae3b
000000f0: 3c0f 453d 7aca 143d 8413 5b3d c7ae 323d
00000100: 3df9 e8b7 1daa 93b7 3e8d eeb7 fa8e aab7
00000110: 526d 3237 ce4e 01b8 cb5a 9737 c347 b736
00000120: c8f6 6537 b2bd ff37 9493 fcb7 e4c0 54b6
00000130: 219d 8f38 f62c 0ab6 b741 dbb7 e472 c037
00000140: 6b12 3037 3aa6 a7b7 e30f 1538 79b7 df36
00000150: 36cd c937 3988 6838 ccf4 b536 a8cb 42b8
00000160: 5a23 0ab8 f85b 58b8 333d 8fb6 faa9 bab7
00000170: c231 4ab8 5a57 7bb8 1c14 2ab8 3aa7 3fb8
00000180: 223c 3238 a6c2 94b8 a0d9 f7b8 b7bd 3bb8
00000190: 2add f8b8 f779 a8b8 3abf d938 e022 96b8
000001a0: 3399 ff37 5ac5 b438 9568 6fb6 3e22 b9b8
000001b0: 9505 ab37 a7b3 c5b7 1e7c a637 42b5 c4b8
000001c0: de3e fa35 62a0 6436 d5d3 2ab6 f0e1 7bb6
000001d0: 704d 1435 cd14 e936 a542 dbb6 8998 4136
000001e0: f509 c636 bdc6 2636 f7fb 8db6 292e 0336
000001f0: 4ed6 1ab6 3558 b0b5 37c1 50b6 9a41 d4b6
00000200: dcfc ff39 cbc6 02bc d33a debc 0e13 d73c
00000210: ff11 913c 7f74 373c 2de9 d63c 4ad4 053c
00000220: afd6 d23c 1d22 933b 411e 96bc e15a e9bb
00000230: 3362 87bc f241 a33c b428 c4bc a60c 69bd
00000240: f774 18bc c089 a43c 2873 be3b f018 0c3d
00000250: cbd9 273c fc8b b73c de83 c23c 8d53 823c
00000260: 658d 95bc 54b3 1e3c 1ba5 c73c 4e71 713c
00000270: 87cd 9b3c 046f 363c c63b a63c cdd9 b2bc
00000280: 43c6 2a3c 657b 343a 65af e9bc 6737 8639
00000290: a0dd 043c 31b3 96ba 54a3 23bd bc22 403c
000002a0: 6018 c13c 0ca6 c73c c302 763c 1b5e 653c
000002b0: 042d 643a a7b4 ed3b b4e9 243d 70df 5d3b
000002c0: b00f 3fbd 265f 8e3b 8bec 8e3c 7b06 313c
000002d0: 09ea ca3b 250f 30bc 62ba 9a3c 5214 9abc
000002e0: 94b2 ea3c cd6b 6fbc 5f2d 873c 096b 95bc
000002f0: b4d5 013d 687d eabb 25df 85bc 115c 69bc
-0.027004438 -0.03463333 -0.023735246 -0.018084692 0.009369074 -0.024690922 -0.017018888 0.017963886
-0.015496568 -0.010431802 -0.027582841 -0.024354983 0.047367796 -0.035854768 -0.012163528 0.04173267
-0.042271953 0.0219864 -0.054885387 0.013081442 -0.020835835 -0.029034892 -0.02492048 0.049108483
0.05370291 0.045733392 -0.011508796 0.0021616395 0.06445052 0.0300847 0.03472419 0.0106205
0.059267964 -0.0810229 -0.079994746 -0.060811147 -0.044017933 -0.06783596 0.048842825 -0.096299715
0.051637165 0.05099403 0.018509727 -0.106169954 -0.0015589471 -0.041045398 0.0024683257 -0.034573488
0.02483619 -0.0027476097 0.02256493 0.047944713 0.021240916 -0.06054829 0.043673415 0.02507976
-0.02882117 -0.005737786 -0.03036028 0.0053175753 0.04811023 0.03632591 0.05348541 0.043623712
-2.7772616e-05 -1.760298e-05 -2.8437582e-05 -2.0332158e-05 1.063508e-05 -3.082939e-05 1.8042881e-05 5.462179e-06
1.3706922e-05 3.0486703e-05 -3.0109462e-05 -3.1702739e-06 6.848039e-05 -2.0589773e-06 -2.6137435e-05 2.2941684e-05
1.0494706e-05 -1.9985357e-05 3.5539164e-05 6.667277e-06 2.4056626e-05 5.5439978e-05 5.4227185e-06 -4.6442874e-05
-3.2934688e-05 -5.1584066e-05 -4.2688566e-06 -2.225208e-05 -4.8206894e-05 -5.9924416e-05 -4.0549887e-05 -4.569369e-05
4.249451e-05 -7.093446e-05 -0.000118184136 -4.476096e-05 -0.000118667565 -8.033582e-05 0.00010382985 -7.159053e-05
3.0469708e-05 8.6198284e-05 -3.567465e-06 -8.8278655e-05 2.0387388e-05 -2.3567887e-05 1.9846539e-05 -9.37977e-05
1.8644748e-06 3.4068003e-06 -2.5455276e-06 -3.7533428e-06 5.524698e-07 6.9463626e-06 -6.534467e-06 2.8848028e-06
5.902019e-06 2.4851608e-06 -4.23146e-06 1.954739e-06 -2.307253e-06 -1.3138693e-06 -3.110688e-06 -6.3257294e-06
0.00048825785 -0.007981966 -0.027127659 0.026254203 0.017708777 0.011197208 0.026234234 0.008168289
0.025737135 0.0044901506 -0.018324973 -0.0071214293 -0.016526317 0.019928906 -0.02394519 -0.056896828
-0.00930523 0.020085216 0.0058120675 0.03420347 0.010244797 0.022405617 0.02374452 0.01590898
-0.018255899 0.00968631 0.02437072 0.014736487 0.019018902 0.011134867 0.020292174 -0.021832371
0.010423246 0.00068848423 -0.028526017 0.0002559975 0.00810948 -0.0011497495 -0.039950684 0.011727031
0.023571193 0.02437117 0.015015307 0.013999487 0.00087042176 0.0072542015 0.04026194 0.0033855103
-0.04664582 0.0043448387 0.017446777 0.010804768 0.00619245 -0.010745798 0.018887702 -0.018808518
0.028649606 -0.014613104 0.016501127 -0.018239515 0.031697944 -0.007156063 -0.016341755 -0.014243142

edge_layers.0.transformer_encoder.layers.0.self_attn.out_proj.weight f4 [64, 64]
00000000: 9eb4 aabd 52bf 003d d019 9fbd 5f57 05bd
00000010: 1ffc ff3d b264 193e 1cbc 77bd ca2a db3d
00000020: fbd5 8fbd ea25 e5bd bd6c 4abc 6db9 11be
00000030: 8db0 9cbd a023 843d 239e da3b 08ef a5bd
00000040: 40b7 6b3d f545 733d a198 e6bc 4d22 ce3d
00000050: f76e 753d 2e81 2b3d 82be fb3d 2b87 6d3d
00000060: 43f5 343d 3d77 953c 324b 2ebd 22b9 803d
00000070: 17f7 093e 8cac 0f3d 83b8 2dbd eac5 4b3d
00000080: 8633 d3bd f05f a9bd 9b16 f2bd 81fc d13c
00000090: 3277 b63d 7b20 213d ee71 15bd 9779 1bbd
000000a0: 0e71 fd3d 8a1f 013e 7b86 8e3d 7cf6 e53c
000000b0: 497c 1cbe 4d23 7e3d 6a08 3fbd 5cb4 d63a
000000c0: fda5 47bd 0072 c43d c9c2 b63d 1a8e 203b
000000d0: 3e61 b3bd 9575 98bc ffd1 bf3c d83f f5bd
000000e0: e983 bd3d 3044 a83d f1f2 893d 28a6 c0bd
000000f0: 6968 773c 756c a63d 212a 1cbe b129 73bd
00000100: 99eb 773d 71c5 95bd a401 303e 5d7d 89bd
00000110: 91a1 2abd bd25 323b 2c5d eabd ff3b 45bc
00000120: 331c a73d f9e9 c83a cc19 043e a07d db3d
00000130: 9ea8 d5bd 7ace 18be c76e b33d 61eb bf3d
00000140: 9212 f03d a53b 6a3d bc6b 4cbd 2209 093d
00000150: 98db 8a3c 81b1 633d ba0f 9dbd 03f1 a5bd
00000160: abc4 ebbd 81f4 b8bc 122c 853d 9867 963d
00000170: d8fb e23c 15fa 01bb 8e2a 163d 3078 d03c
00000180: d5ab 983d 4afe 0d3e 8e9b 27bd df61 b0bd
00000190: 7e1f 90b9 17f7 683c c941 1fbe e80f c03d
000001a0: 1399 c9bd 0dc7 4cbc d83a 32bd 30a9 62bd
000001b0: 7313 3c3b d301 29bd 255a 66bd fbb8 e13c
000001c0: 116a c53d a261 5f3d 0a08 023d 0c1a 5cbd
000001d0: b317 9fb7 05d1 58bd fc7d c63d 5e7f fc3d
000001e0: 777c 463c 97c7 c5bd 2532 9b3d 7d6b 3bbd
000001f0: 9570 bb3d ee0b 92bd a345 923d 5429 9e3d
00000200: cea7 d3bb 3929 08be a858 a0bd c6bf adbd
00000210: 36e2 293d cf72 2ebd 9852 dfbd 1f47 bf3d
00000220: 75c5 a8bd 81b9 eabd 4a2b a43c caec 193d
00000230: 90ba e53c fec3 443d 68df 9f3d 0142 9ebc
00000240: f9d7 01be 2797 7fbd f377 413c 4082 c03c
00000250: a17b 84bd 60d7 e73b cb24 073d d4a9 cb3d
00000260: 5017 fbbd 7fc7 a3bd 5739 d83d 5e63 a9bd
00000270: 37d0 b3bd 9a65 323d 0ce8 5ebc 0b47 7e3c
00000280: 9931 08be c8a0 013c c3a1 873c f7f3 283d
00000290: 72d2 e5bd 742b 12bd 0b7e c23d d328 b13c
000002a0: 973c bdbd 7e1b b9ba 5fa2 febd ebba a23d
000002b0: fd7a b9bd 7738 8e3c 0f0f 06be dd89 97bd
000002c0: f245 1c3e c365 c23d 963b 3cbe 4fa4 983d
000002d0: c833 103e 9043 ef3b 8875 d23d 94ad cfbb
000002e0: 3113 19be fc3b ca3c 4ca6 483d 6566 353e
000002f0: d149 90bd 1fca b83b e3ae 023e e514 b33d
00000300: f91e be3d 390e ee3d bcbc eabd 90b2 b43d
00000310: df01 d63d 1d54 e13d 4a21 1f3e d028 39be
00000320: fe3f ce3d 10db 9e3d a1d9 09be 0d53 1abe
00000330: 9569 563d f75a e03d 2e7a 00be bc75 91bd
00000340: 5187 1e3d ecd3 f43b 73a6 943c be5c d93c
00000350: 4548 5fbd b13e f13d fe89 213e 1f1d 72ba
00000360: 5736 32bd 3367 b63b 57f4 0c3e ec85 953d
00000370: aef9 073d 7716 94bc d183 a9bd 7800 cebd
00000380: 84c3 bfbd 53ce a5bd 531e 83bd d89c 5cbd
00000390: 5dbb 82bd 7a84 d13d 88b6 f3bc b095 8f3c
000003a0: 10d0 183d f01b 0c3e b7c3 d53d 3f3a 9c3b
000003b0: eddc c83c 2a1f a8bd 283c 873d 57b0 513d
000003c0: 0a63 26be 80b9 a2bd 4914 b23d 538b 993d
000003d0: 23c6 4d3d 80bb 7f3c c715 b53d 4865 93bd
000003e0: db1f 833d 18ca b43d 8a7d 5d3d 6ce0 623d
000003f0: cb92 bf3c d90d 67bc 9a40 703d fc38 0dbe
-0.08335231 0.031432457 -0.07768595 -0.032554027 0.1249926 0.14979818 -0.06048213 0.10701521
-0.070232354 -0.11188872 -0.012355027 -0.1423089 -0.07650862 0.064521074 0.0066716834 -0.08102232
0.057547808 0.059392888 -0.028148951 0.10065136 0.059920277 0.041871242 0.12292196 0.057990234
0.044179212 0.018245334 -0.04255218 0.06285311 0.13473164 0.035076663 -0.042412292 0.049749292
-0.10312562 -0.08270252 -0.11820718 0.025633099 0.089094535 0.039337616 -0.036485605 -0.037957754
0.12375079 0.12609687 0.06959244 0.028071634 -0.15281786 0.062045384 -0.046638884 0.0016380656
-0.048742283 0.09592056 0.08923871 0.0024498762 -0.08758782 -0.018610755 0.023415564 -0.11975068
0.092536755 0.08216131 0.067357905 -0.09406692 0.015100577 0.08126155 -0.15250446 -0.059365932
0.060527418 -0.073130496 0.17188126 -0.06713364 -0.041657988 0.0027183138 -0.114435524 -0.01203823
0.081596754 0.0015328518 0.12900466 0.107173204 -0.10432552 -0.14922515 0.087613635 0.09371067
0.11722292 0.057185788 -0.04990743 0.033455975 0.016950414 0.055589203 -0.07669015 -0.0810261
-0.11512121 -0.022577526 0.06502546 0.07343978 0.02770798 -0.0019832898 0.036661677 0.025447935
0.07454649 0.13866535 -0.040919833 -0.086124174 -0.00027489284 0.014219067 -0.15552439 0.09378034
-0.0984365 -0.012498629 -0.04351315 -0.05533713 0.0028698116 -0.041261505 -0.056238312 0.027554026
0.09639371 0.05453647 0.031745948 -0.053735778 -1.8965313e-05 -0.05293371 0.09691998 0.12328981
0.012114636 -0.09657209 0.07577924 -0.045756806 0.09152333 -0.07131182 0.071421884 0.077227265
-0.006459213 -0.13296975 -0.0782941 -0.084838435 0.041475497 -0.04258996 -0.109044254 0.09339737
-0.08240787 -0.11461163 0.020040173 0.037579335 0.028043061 0.048038475 0.07806283 -0.019318582
-0.12680043 -0.06240001 0.011808383 0.023499608 -0.06468893 0.0070752352 0.032994073 0.099445015
-0.12260306 -0.07997035 0.10557812 -0.08270906 -0.08779948 0.043553926 -0.013605129 0.015519868
-0.1330017 0.007911868 0.016556626 0.041248288 -0.1122178 -0.03568597 0.09496697 0.021625912
-0.09240072 -0.0014122573 -0.124333136 0.07945808 -0.09056661 0.017360909 -0.13091682 -0.07399342
0.15261057 0.09492066 -0.18382105 0.074532144 0.14082253 0.0073017552 0.102763236 -0.006337831
-0.14948727 0.024686806 0.048986718 0.17714842 -0.07045329 0.005639329 0.12762026 0.0874422
0.09283251 0.116238065 -0.114617795 0.088231206 0.10449576 0.110023715 0.15540043 -0.18081975
0.10070799 0.077566266 -0.13461925 -0.15070744 0.052346785 0.1095485 -0.12546608 -0.07102534
0.038703267 0.007471552 0.018145775 0.02653348 -0.05451228 0.117795356 0.15775296 -0.0009235907
-0.043508854 0.0055665015 0.13765083 0.07300934 0.033197097 -0.018077118 -0.08277095 -0.10058683
-0.093634635 -0.08095994 -0.06402268 -0.053860515 -0.06383393 0.10230346 -0.029750124 0.017527431
0.0373078 0.13682532 0.1043772 0.0047676857 0.024519408 -0.08209069 0.06603271 0.05119356
-0.16248718 -0.079455376 0.08695275 0.07497277 0.050237786 0.015608668 0.08842044 -0.07197052
0.0640256 0.08827609 0.0540748 0.055389807 0.023385426 -0.014102423 0.05865536 -0.13791269

edge_layers.0.transformer_encoder.layers.0.self_attn.out_proj.bias f4 [64]
00000000: 035d 083c 7dc2 c63b 0df4 30bd 10d1 263d
00000010: ea60 10bd e3c0 273c a5c5 b9ba e64c da3c
00000020: 3d34 8b3c e049 bb3c 4faf 01bd 879e b83c
00000030: 0461 2f3c f1f8 e3bc b391 51bc bfdf a63c
00000040: 76c3 9b3c fae0 b83b 0b98 f7bc 05b5 ba3c
00000050: 0860 73bb 5f96 0abd b3b6 3ebd 5faa b0bc
00000060: 97d0 0abd 809d 2f3c 7c28 94bc 68f8 763d
00000070: fddb a2bc 30fc 303d c95e 34bd 60b1 b7bb
00000080: ba6d f9bc b4f8 12ba 2c1f 55bd c91d 113d
00000090: d9dc 0abc aa3f d7bb afae a8bc 4164 203c
000000a0: 7258 15bc e252 6dbb a8e0 c53c ddcf 853c
000000b0: 32da f33c d74c b4bc 721d 08bd eeb2 023d
000000c0: 4daa 73bc 4c6c 373d dd96 943c b103 02bc
000000d0: 243f d1bc cbdc c13b 9110 3d3d af31 ce3c
000000e0: 7df9 d1bc 0ae2 de3a 406a ccbb ebe1 aabc
000000f0: b9d7 2c3c dfba 1dbd fb77 183d 753a 303d
0.008322957 0.0060656653 -0.043201495 0.04072672 -0.035248674 0.010238859 -0.0014173283 0.026647996
0.016992683 0.022862375 -0.031661328 0.02253653 0.010704283 -0.027828665 -0.012791085 0.020370362
0.019014101 0.0056420537 -0.030223867 0.022791395 -0.0037136097 -0.03383481 -0.046560954 -0.021565614
-0.033890333 0.010718703 -0.01808571 0.060295492 -0.01988029 0.043209255 -0.044035707 -0.0056058615
-0.03044783 -0.00056065177 -0.05203168 0.035428796 -0.008475506 -0.0065688686 -0.020591108 0.009789527
-0.009115325 -0.0036212732 0.024154976 0.016334468 0.02976713 -0.022009296 -0.033231206 0.031908922
-0.014872146 0.044781014 0.018138343 -0.00793545 -0.025542803 0.005916213 0.046158377 0.025170175
-0.02563166 0.0017004621 -0.006238252 -0.02085968 0.010549479 -0.038508292 0.037223797 0.0430245

edge_layers.0.transformer_encoder.layers.0.linear1.weight f4 [64, 64]
00000000: fa18 cfbd 8c9a 80bc 6181 7039 d200 83bd
00000010: f56c 6fbd adbd a13d f8cd cfbd 99ba 4d3d
00000020: 31b1 b43d 89aa 823d 9c69 b13c 9f66 b6bd
00000030: 976d 373d 4ec8 e23d a346 94ba 3e53 ae3d
00000040: 757a a1bd 61cd 03bc 497b a1bd af7a 83bd
00000050: 9576 b53a 0931 dcbc c4c6 ac3d 1394 bd3c
00000060: b674 04bd 12fb b33c 8ee4 a7bd 5409 923d
00000070: c2b4 793d aedd b4bd b8d8 b53d 941f ac3d
00000080: e4c9 f03d b12d a2bd 0059 c83c a667 39bd
00000090: 4767 ee3d 7182 b33d afa8 f13b e547 e9bd
000000a0: bbc8 1ebd 5af1 01be ebe5 62bd cf1c b5bd
000000b0: 0e48 a2bd 3274 bcbb 3096 ce3d 5063 cbbd
000000c0: 945d fc3c 00ac ba3c 0e69 96bd c97b b23d
000000d0: 9d44 fc3b 4580 a8bd d834 ad3d b2c5 6bbb
000000e0: e651 c9bc 48c6 f6bd f62b 97bd 0be1 a93d
000000f0: 3efb efbd b075 26bd 3fa6 873d 2fa8 b93d
00000100: 2e80 dbbd 25e0 c13d 7257 ac3d aa15 1bbe
00000110: e3bc 8d3d e36d 3bba 3b7e 9fbd bb91 c7bd
00000120: 4cc5 41bd 2843 efbc 4fd7 11bc 6896 663d
00000130: bca8 1b3e a7e6 8a3d 826a 81bd 0f3e 883d
00000140: cd88 c7bc d4f7 863c f38a 7ebd b9fe c7bd
00000150: c5ac 463d ad09 8bbd 2e16 73bd 0a5e 903d
00000160: f20a 36bd d9a2 113e 58ce ef3b 7305 19be
00000170: 9867 b6bd 9645 e1bd 3768 783d 1d40 893d
00000180: 8ebd afbb 8d8c 42bd 8289 de3c c2a0 c5bd
00000190: 1a39 84bd 5078 ebbd 5fd2 cb3d 6538 3cbd
000001a0: 0bd9 f23d 38e3 d63d b1cc b2bd fc58 3c3d
000001b0: 474c c73b ea49 0c3e 2539 a23d 3a0c 46bd
000001c0: e217 633c 10dd 9dbd 0c2d a13c 3b5e 01be
000001d0: 297c c33d 695e 453d e59d 28bd c24e b73d
000001e0: c2ac 583c 8809 283d fc4b e23d 3f5c 923d
000001f0: b4ef 4bbd 56b9 2f3e 1cdc 37be 5e29 7ebd
00000200: ae7a c03d 61f0 c2bc eeee ea3d eac1 8b3d
00000210: 6625 283e e017 213e a1a1 e7bc 4e6e ca3c
00000220: 056f 8a3c 97bf b3bd 8b81 91bd 47db 2e3d
00000230: b178 1c3e d3d7 5dbc a93f 6fbd 5110 6fbd
00000240: c226 b63b 7560 453d c8c6 81bd fd47 e33b
00000250: bb84 efbd d9ea 1d3e cd93 b7bd b7a1 73bd
00000260: 68a0 533d 1f76 b13b 79b2 cdbc b9a8 1ebe
00000270: c89d d73d 711d 86bd e972 9abd 4cce 64bd
00000280: e943 663c cc48 f73c 2efe 25bd 2edb 41bd
00000290: f0bd 943d 9447 e0bb ad48 713d 2c0e c93d
000002a0: 4479 083d a4a9 063e 44cc 133d bd83 80bc
000002b0: 7163 b83d 0c13 78bd 17f3 143d 01b2 833d
000002c0: 93f2 08bd 41ce 07bd 8d65 b63d 470d 363d
000002d0: 251d 3f3d d0f9 a13d 6b84 86bd cf82 263d
000002e0: 0cf8 b93d 4023 aabd 2439 c43d d04c 17bc
000002f0: 2ab7 b3bd 6279 9abb fb3d 0abd 6b1f 0ebe
00000300: d368 4cbc f415 1d3d b72a f7bc 1147 06be
00000310: 5322 c83d bb08 063d 3bea 06bd 3ff5 04be
00000320: c898 8e3d 54e4 ad3d b3ff 103e 27c0 5cbd
00000330: e167 a3bd bea3 59bd c867 a03d 790c 0d3c
00000340: 8576 07be d6f3 ab3c 9612 8d3d 9c22 8b3d
00000350: 6a52 60bb aa63 213c bab6 a83c c575 893d
00000360: fad1 40bd dc63 953d b5a3 b63d aea8 89bd
00000370: b6c2 4e3d 72f8 06be d4ba babc 1d78 c03c
00000380: 2f65 f53d 8e50 fc3c 19ac b83d 923b bbbd
00000390: 60be 4ebb f136 c1bd c72f f83d 60f6 ebbd
000003a0: 4b3b 3cbc 3ca0 0d3d b42b 473d dad5 02be
000003b0: f4cb 8f3b 632c 65bd a517 ef3d d069 e43d
000003c0: 9792 02be 837b 13be 25f6 0fbe 3eca 323d
000003d0: 02e4 24bb c5d1 0a3d 2584 37bd 65f8 b63c
000003e0: 4476 d2bd 2abf fa3d 7a97 a6bd c44d 943d
000003f0: 8f6b 163c 0d53 ec3d 6104 8b3d 93f6 ccbc
-0.10112186 -0.015698694 0.00022936381 -0.06396641 -0.05845352 0.07897506 -0.10146707 0.05022678
0.08822859 0.06380183 0.021656804 -0.08906292 0.044782247 0.11073361 -0.0011312555 0.08511971
-0.07884685 -0.008044572 -0.07884843 -0.064198844 0.0013844544 -0.02687885 0.08436349 0.023141896
-0.032337867 0.021970306 -0.0819789 0.071306854 0.0609634 -0.088313445 0.088792264 0.084044605
0.117572576 -0.07918871 0.024456501 -0.045264862 0.11640792 0.08765114 0.007374845 -0.11390666
-0.03876565 -0.12689725 -0.055395048 -0.088433854 -0.079238996 -0.0057511562 0.1008724 -0.09931052
0.03080634 0.022787094 -0.07344256 0.087150164 0.007698609 -0.082275905 0.08457345 -0.003597599
-0.024575185 -0.12049538 -0.07381432 0.08294877 -0.117178425 -0.04063958 0.06623506 0.090652816
-0.10717808 0.0946658 0.08415116 -0.15144983 0.06920793 -0.0007149858 -0.077877484 -0.09744593
-0.047307298 -0.029206827 -0.008901431 0.056295782 0.15201086 0.06782275 -0.06319143 0.06652462
-0.024357224 0.016475596 -0.06214423 -0.09765381 0.04850461 -0.06788955 -0.059347324 0.070491865
-0.044444032 0.14222278 0.0073182993 -0.14943485 -0.08906478 -0.109996006 0.060646262 0.06701682
-0.005363173 -0.04749732 0.027165178 -0.09649803 -0.06456204 -0.11497557 0.099522345 -0.04595222
0.11857804 0.10492557 -0.08730448 0.0459833 0.006082091 0.13700071 0.07921056 -0.048351504
0.013860675 -0.0770818 0.0196748 -0.12633602 0.09545166 0.04818574 -0.041166205 0.08950569
0.013224782 0.041024715 0.11049649 0.07146501 -0.049789146 0.17160544 -0.17955059 -0.06205117
0.09398399 -0.023796262 0.114713535 0.068240955 0.16420516 0.15731764 -0.028275313 0.0247108
0.016898641 -0.08776777 -0.071047865 0.042689588 0.15280415 -0.013540226 -0.05841032 -0.05836517
0.0055588195 0.04818769 -0.06336743 0.006936072 -0.11695238 0.15421619 -0.08963738 -0.059480395
0.051666647 0.0054156925 -0.025109516 -0.1549405 0.10528141 -0.06548584 -0.075414486 -0.055860803
0.014054277 0.03018608 -0.040525608 -0.047328167 0.0726279 -0.0068444703 0.0589072 0.09817156
0.033318773 0.1315065 0.036083475 -0.015687818 0.09003342 -0.06056504 0.03636464 0.06430436
-0.03343446 -0.033155683 0.08906088 0.044446256 0.046658654 0.07908976 -0.065682255 0.040652093
0.09080514 -0.08307505 0.09581211 -0.009234622 -0.0877517 -0.004714177 -0.033750515 -0.13879173
-0.012476164 0.038351014 -0.030171735 -0.13113047 0.09772172 0.03272317 -0.032938223 -0.12984179
0.069627345 0.08490816 0.14160042 -0.05389419 -0.07978798 -0.053134672 0.07832295 0.008608931
-0.13228805 0.020990293 0.068883106 0.067937106 -0.003422881 0.009850422 0.020594943 0.06711916
-0.04707525 0.07294437 0.089179434 -0.06721626 0.05047866 -0.13180712 -0.022794165 0.023494774
0.1198219 0.03080013 0.090172 -0.091422215 -0.0031546578 -0.09434307 0.12118488 -0.11521602
-0.011488746 0.03457664 0.048625663 -0.1277689 0.004388327 -0.055950534 0.11674432 0.11152995
-0.12751232 -0.14402585 -0.1405874 0.043649904 -0.0025160317 0.033891458 -0.044803757 0.02233524
-0.10276464 0.12243493 -0.081343606 0.07241395 0.009180917 0.11539278 0.067879446 -0.02501992

edge_layers.0.transformer_encoder.layers.0.linear1.bias f4 [64]
00000000: 921d 89bd 57bf f53d 1022 8fbc 9154 923d
00000010: 6b58 433d c90e de3d 4320 c8bd b8f4 87bd
00000020: 98f6 3a3d a511 683d eb05 a23d 25ed 2bbc
00000030: 1a19 15bd 766e e63d c0cc 56bd 62ae db3d
00000040: eb0b 8c3d cf47 4f3d df06 0cbe 4a8b 96bd
00000050: 148c b73d b100 f93b 3827 c33a be3f c53d
00000060: 50cc 043d 5d00 cb3d e002 32bd e44b 82bd
00000070: 39a7 a8bd c938 1a3e ffe8 89bd 29ca 113d
00000080: 5a54 b33d 2847 e9bd 74d3 bdbd ff77 c43d
00000090: 5cdb c43c bb3f 16bc 751b afbd 265a d73c
000000a0: a734 55bb c21d a83d a931 39bd 7747 083e
000000b0: 6bcc 8dbd 8556 9bbd a5e8 b53c 767d c0bc
000000c0: 3a77 b63c 81cd 10bd d0ba e13d 60a0 fa3d
000000d0: cdee b9bc 9e68 cfbd 326b 593d f8e2 23be
000000e0: da9c 793d 646e d4bd 89ca 753c a45c a33d
000000f0: 5d00 033d ad2d 65bd 47b5 153c 9ca9 95bc
-0.06695093 0.11999386 -0.017472297 0.07145036 0.047691744 0.10842664 -0.097717784 -0.06638473
0.045645326 0.056657452 0.07911285 -0.010493551 -0.03640089 0.112515375 -0.05244136 0.1072662
0.06838211 0.05060559 -0.13674496 -0.07350786 0.08962265 0.0075989594 0.0014889007 0.096312985
0.03242141 0.09912179 -0.043459773 -0.06362131 -0.0823502 0.15060724 -0.067338936 0.035593186
0.08756323 -0.11390525 -0.09268847 0.095932 0.02403038 -0.009170468 -0.08550159 0.026288103
-0.0032532604 0.08208801 -0.045213375 0.13308512 -0.06923755 -0.07584862 0.02220566 -0.023497324
0.022273649 -0.035352234 0.1102196 0.1223762 -0.022696877 -0.10127376 0.053080745 -0.1600455
0.0609406 -0.10372618 0.015001901 0.07976654 0.03198277 -0.055951763 0.009137458 -0.018269353

edge_layers.0.transformer_encoder.layers.0.linear2.weight f4 [64, 64]
00000000: 5cca b43d f539 73be 6d1e c63c a903 96bd
00000010: bd62 89bd 6056 19bd d695 2a3d 3004 25bd
00000020: 6215 273d 14af a8bd 0728 73bd 46cc e5bc
00000030: 3f7e 8abd 8d03 b0bd be56 183e 7837 223d
00000040: ce19 aa3d 15a1 dd3c 72d4 91bd b1dd 24bc
00000050: f9c0 7ebc 362c 28bd 3a00 813d f8da debd
00000060: 17e8 c3bb 0aec e4bc 8c89 c03d 9363 823d
00000070: 4713 a63d 865d 9abb b7e2 39bd 6110 523d
00000080: f4f0 703d c210 48bd 9cff a83d f7fe 003a
00000090: 6fe9 e13d 2835 45bb 9d07 32bd ddcd 14be
000000a0: 46f0 f8bd 82a0 9fbd 96b2 06bc a69e a7bc
000000b0: 15f8 81bd 2d2c 523b 6145 5fbd 4bf4 4bbd
000000c0: 37a5 48bd 5b60 5fbd 3faa 9b3d 1c78 bfbd
000000d0: e2bc a8bd b7ab 11be 4b3a 51be 6a75 cbbc
000000e0: 6bb0 30be a0c7 35bc fb33 8b3d 5515 93bd
000000f0: b4d5 903d 5d43 a93b 212d d6bd 9aad db3d
00000100: efbd cabd 5c83 71bc ea5e 18bd cf21 8ebd
00000110: 60db f33d 7288 6b3d cc65 433d 0053 b83d
00000120: d269 623d 6087 cbbb 2704 10bc 1e9d a93d
00000130: 0b42 d9bd 835d 053c 63bb fdbc 4c1d 263d
00000140: 0056 f3bc 74e5 e93d cde8 4ebd 776a c8bd
00000150: 1309 c2bc f393 f7bc 932c 97bd b087 e6bd
00000160: f356 25bd 573b f33c 435e 993d f2e9 613d
00000170: 69ef 153d 2c6a 8cbc 62f1 e63b 63e8 8b3d
00000180: 7757 e23d aec7 0dbc 6097 dcbc b465 fe3d
00000190: 3b49 fbbd a161 453d 5681 843d 1fc4 ccbd
000001a0: b035 9cbd 8657 f23a 420e 0d3e f0e6 8a3d
000001b0: f1ff 0a3e 485e 34bc c049 413d c7f7 8abc
000001c0: 4108 4e3d d227 493d 10f3 d4bd d956 ce3d
000001d0: 5fa6 0e3e 1189 61bc 447a 453b 8a24 a13b
000001e0: 409f ddbd 8b98 573d 94e3 4dbc 574b 6c3d
000001f0: 762e 023e 5fea cd3d 3b07 f2bc 0f9c 9d3c
00000200: a708 b03d 7f33 2cbd 24f5 82bc f219 f63d
00000210: dc51 9e3d 2236 7abd 4aae 14bd cbd0 58bd
00000220: 5ef4 013d 9fad 113c 585d c1bd 399f dc3b
00000230: 4936 f43c 4a51 6b3d dbe9 4a3d 6511 7a3d
00000240: 38d3 0c3d bfe9 523d f9e9 87bd 832d ff3c
00000250: cad2 e0bc a414 84bc 969b 86bc 5a64 16be
00000260: 0406 6dbd 5a4c a8bc 15c3 e6bd c754 25be
00000270: a601 44be fa4f 8dbd 4d84 1fbd 8304 33bd
00000280: f452 4a3c 8036 383d 626c 04bc f87d 7abc
00000290: b448 5fbd 94a9 e43d b98b a43d f6bb 3fbd
000002a0: e247 ffbc 80f5 7cbd 5b71 1d3c 8be9 06be
000002b0: fb5a c93d b274 f13d f23a 1fbe b9eb c83d
000002c0: 47e7 2abd c5bd 86bd f3d7 d3bd a14e f2bd
000002d0: e854 ec3d 5550 f6bd 24ea 293d 8424 babd
000002e0: 6190 bc3c 3d62 a0bc a567 8abd 36b0 8cbc
000002f0: 1dc9 78bc 73bb dc3d be1d 48bd d734 acbd
00000300: 13d6 f63d a580 a7bb 8394 453c dd0b 40bd
00000310: 6596 6c3d 0f64 123e ac31 aabd 3239 79bc
00000320: 0c64 2d3e 4177 ac3d 47fb 09bd 30f6 c6bd
00000330: a0f1 2e3e 4e7b 1b3d 30fc 063c 1037 a43c
00000340: 8b8a 093e bc88 463d d2cd 133e ff48 bfbc
00000350: 88b7 59bd f057 5c3e 9641 393d 9a7e 173e
00000360: 97ae 033e 5fa7 e53d b28c 8b3d f891 373e
00000370: 1136 2d3d 8d3c 233e f299 4abd 1af7 f93d
00000380: 669d 753b ddf4 403d 3bdf b53d afa2 c53d
00000390: c9fe 173e 9a5a d53c 7eb9 783d 4573 6bbd
000003a0: 2047 573d 5825 d9bb da86 f73d 8919 153e
000003b0: 8cc5 993d 1a3c f6bd 1724 a5bc 2dee 58bd
000003c0: 406f b03c 47b2 b83d 6f67 a53d 3a4b e63d
000003d0: 832f cc3d c13c ecbc 4596 303d 0e7a f23d
000003e0: 54d5 bcbd 6d3e 78bd 1f0e 8ebd d7ce 72bd
000003f0: a2cf b03d c51a 98bd ba20 db3c 6de5 19bd
0.088276595 -0.23752578 0.02418443 -0.07324917 -0.06708286 -0.03743589 0.0416468 -0.040287197
0.040791877 -0.082365185 -0.059364345 -0.028051507 -0.06762361 -0.08594427 0.1487684 0.03960368
0.08305703 0.027054349 -0.07120599 -0.010062621 -0.015548938 -0.041057788 0.06298871 -0.10881609
-0.005978595 -0.027944583 0.09401235 0.063666485 0.081091456 -0.004710856 -0.045382228 0.05128515
0.05882354 -0.048844106 0.082518786 0.0004920805 0.11030852 -0.0030091498 -0.04346429 -0.14531656
-0.121552035 -0.07794286 -0.008221289 -0.020461392 -0.06346146 0.0032069788 -0.054509524 -0.049793523
-0.048985686 -0.05453525 0.07600831 -0.09349081 -0.082391515 -0.1422566 -0.20432393 -0.02483626
-0.17254798 -0.011094958 0.06797024 -0.07181803 0.07072011 0.005165501 -0.104578264 0.10726471
-0.09899508 -0.014740791 -0.037199892 -0.06940042 0.11907077 0.05750317 0.047704503 0.09000206
0.0552767 -0.0062112063 -0.0087900525 0.08281921 -0.106083 0.008139971 -0.030973142 0.040555283
-0.029704094 0.11420718 -0.050514985 -0.097859316 -0.023685968 -0.030221915 -0.07381549 -0.11256349
-0.040366124 0.029691381 0.07488682 0.05515475 0.036605272 -0.01714047 0.007047818 0.068314336
0.11051839 -0.008653564 -0.02692765 0.12421742 -0.12269827 0.04818881 0.06469981 -0.09998345
-0.076274276 0.0018489219 0.1377497 0.06782329 0.13574196 -0.0110088065 0.047189474 -0.016963853
0.05030084 0.04911024 -0.10397923 0.100751586 0.13930653 -0.013765589 0.003013269 0.004917686
-0.1082139 0.05263571 -0.012566466 0.057689037 0.12713036 0.10054468 -0.029544463 0.019239454
0.085954 -0.042041298 -0.015986033 0.120166674 0.07730457 -0.06108678 -0.036299028 -0.052933495
0.031727187 0.008891492 -0.09441632 0.006732848 0.029811041 0.05745057 0.04953943 0.061051745
0.03438112 0.05149245 -0.066364236 0.031149631 -0.027444262 -0.016123123 -0.016431611 -0.14686719
-0.057867065 -0.02054422 -0.11267678 -0.16145621 -0.19141254 -0.0690002 -0.03894453 -0.043705475
0.012348879 0.04497385 -0.008082481 -0.015288822 -0.054512694 0.11165157 0.080344625 -0.046810113
-0.031162206 -0.061757565 0.009609546 -0.13175027 0.09831806 0.11789836 -0.1554983 0.098105855
-0.04172447 -0.065791644 -0.103439234 -0.118314035 0.11539632 -0.12027041 0.04148306 -0.09088996
0.023018064 -0.019578094 -0.0675805 -0.017173868 -0.015184668 0.107779406 -0.04885649 -0.08408516
0.1205255 -0.005111771 0.012059334 -0.046886314 0.057760615 0.14295982 -0.083102554 -0.01521139
0.16932696 0.084211834 -0.033686902 -0.09714925 0.1708436 0.03795939 0.008238837 0.020045787
0.13431756 0.048470244 0.14433983 -0.023350237 -0.053153545 0.2151792 0.045228563 0.14794388
0.1285957 0.11213564 0.06813945 0.17926776 0.04228789 0.15941067 -0.04946322 0.12205334
0.003747785 0.04710852 0.088804685 0.0965017 0.14843287 0.026044179 0.060723774 -0.057482976
0.052558064 -0.006626766 0.12086268 0.14560522 0.07508382 -0.12023182 -0.02015881 -0.052961517
0.021537423 0.09018379 0.08076369 0.11244817 0.0997 -0.028837563 0.04311206 0.11839686
-0.092203766 -0.06060641 -0.06936287 -0.05927929 0.08633353 -0.07426981 0.026749004 -0.037572313
