experiment/saml/GTEA-LSTM+T2V/GTEA-LSTM+T2V_checkpoint.pt (torch_old, 561248 bytes, 32 tensors)

time_layers.0.w f4 [1, 31]
0.43903086 0.01862798 -1.8033395 -1.2099718 1.1604456 1.1571041 -0.23022208 -1.051733
-0.040842414 -2.4839714 0.5074108 -1.4658093 -1.2762338 -0.74811095 0.8780355 0.6426437
0.2332438 0.681786 1.8406681 -0.077405505 0.9821801 -1.3935676 0.8403637 -0.4455714
0.9761344 -1.61547 0.89921457 0.3142007 0.14585179 0.0069003147 0.20784327
00000000: a7c8 e03e b599 983c d4d3 e6bf 5be0 9abf
00000010: 7b89 943f fd1b 943f 56bf 6bbe 309f 86bf
00000020: 604a 27bd 63f9 1ec0 ade5 013f a49f bbbf
00000030: a15b a3bf 3384 3fbf efc6 603f 4c84 243f
00000040: 76d7 6e3e 8789 2e3f 039b eb3f c786 9ebd
00000050: 2870 7b3f 6c60 b2bf 1322 573f ef21 e4be
00000060: f2e3 793f b9c7 cebf ed32 663f eade a03e
00000070: 2c5a 153e 091c e23b ded4 543e

time_layers.0.b f4 [1, 31]
0.2236452 -0.48239174 0.9380263 0.31739092 -0.21247745 -1.0409696 -1.4621866 0.067852676
-1.7486678 0.38189593 -0.65081835 -0.897362 -0.4373313 1.0258132 0.73729914 0.62791
-0.6079912 0.92746 0.4364457 0.47681946 -0.9510862 -0.6450812 -0.6785065 0.8026322
0.30031124 -0.733256 -0.8267695 0.9590191 -1.417229 -0.286989 1.6424358
00000000: 3f03 653e 0dfc f6be 7e22 703f 1081 a23e
00000010: b093 59be 7e3e 85bf ee28 bbbf 58f6 8a3d
00000020: 59d4 dfbf dd87 c33e 089c 26bf 84b9 65bf
00000030: e3e9 dfbe d94d 833f a3bf 3c3f b6be 203f
00000040: 50a5 1bbf 056e 6d3f d075 df3e ae21 f43e
00000050: 637a 73bf 0b24 25bf 9ab2 2dbf 4e79 4d3f
00000060: 65c2 993e aab6 3bbf 2aa7 53bf 4782 753f
00000070: c367 b5bf 39f0 92be 563b d23f

time_layers.1.w f4 [1, 31]
1.0044203 0.61167943 0.9552881 0.8147787 0.7958913 -0.09770341 -0.32009086 0.70029587
0.26717997 0.38191888 0.14320546 0.25345212 1.2638675 -0.66572 -0.016375033 0.14685725
-0.6793569 1.3025796 1.0001373 -0.24741767 -0.55998546 -0.5707771 -2.3587806 -0.2545596
-0.86102116 1.059622 0.7405325 -1.3177774 -0.5037516 -0.9504862 -1.3465203
00000000: d890 803f 0697 1c3f c38d 743f 5695 503f
00000010: 88bf 4b3f ba18 c8bd f3e2 a3be 9746 333f
00000020: d0cb 883e df8a c33e 74a4 123e 7ac4 813e
00000030: 69c6 a13f a06c 2abf ef24 86bc bf61 163e
00000040: 55ea 2dbf eeba a63f 8004 803f 0f5b 7dbe
00000050: 355b 0fbf 731e 12bf 43f6 16c0 a355 82be
00000060: e26b 5cbf b2a1 873f 8a93 3d3f eeac a8bf
00000070: ddf5 00bf 1053 73bf c75a acbf

time_layers.1.b f4 [1, 31]
0.8510549 -1.1318287 0.25197357 0.828056 -0.6190976 3.035057 0.075560376 1.7352108
0.5656964 0.48032528 -1.8015287 1.08331 -1.4518268 -0.4150786 0.13393791 0.3913973
-0.30711797 -0.23849161 1.088581 2.2769213 1.1583896 1.1034684 0.284097 1.2138001
0.7102167 -0.31239545 0.38981485 0.1630264 0.10093358 -0.5468496 -0.37480906
00000000: bcde 593f c3df 90bf ae02 813e 7afb 533f
00000010: 2e7d 1ebf 603e 4240 66bf 9a3d 631b de3f
00000020: 7bd1 103f 32ed f53e 7e98 e6bf e7a9 8a3f
00000030: 76d5 b9bf 2f85 d4be 0527 093e 3a65 c83e
00000040: 913e 9dbe 2537 74be 9f56 8b3f 14b9 1140
00000050: 1c46 943f 743e 8d3f 2975 913e cd5d 9b3f
00000060: c3d0 353f 4cf2 9fbe d095 c73e 65f0 263e
00000070: 44b6 ce3d 56fe 0bbf f9e6 bfbe

edge_layers.0.lstm.weight_ih_l0 f4 [256, 42]
-0.16927986 -0.04657613 -0.0070657735 0.04649186 -0.07799533 0.10195132 0.0950964 -0.0020203486
0.030829387 -0.025755156 0.14427817 -0.16532406 0.12516755 0.13315374 -0.15066299 -0.1829259
-0.14189689 -0.07660768 -0.039103396 0.1833621 -0.06109899 0.018703872 -0.00045662653 0.051843796
0.11616723 0.026750602 -0.04695607 0.083482996 0.19340995 0.12160049 -0.18489921 -0.011608919
-0.20007393 0.07574983 -0.022738343 -0.04174354 -0.13583772 0.023144487 -0.18088281 -0.13308221
0.08107807 0.16254567 -0.12562577 0.08123045 0.068354435 -0.05424381 -0.07133872 -0.0409079
0.036190335 0.088038355 0.10773695 0.047535196 -0.16493641 -0.056775592 -0.01775017 -0.104955636
-0.03188236 0.08679108 -0.013947689 -0.028005438 0.0506928 0.05766212 0.095280744 -0.12341745
-0.11946154 0.0054787276 -0.08172499 0.00059387926 -0.06902965 0.05714284 0.0126820905 -0.114686586
0.07561261 -0.11245319 -0.1148597 -0.01567935 -0.024483725 0.023322033 0.07724491 0.07849666
0.00070552825 -0.031658422 -0.05842982 -0.07023988 -0.14897034 0.13900702 -0.023413012 0.047993302
0.032640968 -0.13823397 -0.08099187 -0.04798586 0.11139268 -0.02983896 -0.012976072 0.09079105
0.07669548 -0.072043195 0.019634873 0.09465231 -0.09683253 -0.11337852 0.0063105826 -0.04580299
-0.0662543 -0.0019478515 0.08881404 -0.09366213 0.10926172 -0.08809122 -0.07287549 0.11024798
-0.07314876 0.031462375 -0.039826922 0.09857531 -0.050132353 -0.010427264 -0.086786434 -0.037681703
0.010234156 -0.022880761 -0.031401332 0.071996406 -0.07624062 -0.080757156 -0.035381988 0.20094064
-0.06707142 -0.09382211 -0.057102963 0.07164381 -0.05287843 0.09258346 0.14723122 0.1358143
0.12873684 -0.21833186 0.12647271 0.083306514 -0.021369478 -0.091399334 -0.12213908 -0.12982288
0.024161587 0.18356222 -0.06911581 -0.023448214 0.011092514 0.17199673 0.18073669 0.057876013
-0.17931697 0.20888342 0.12075967 0.09829796 -0.06508756 -0.16500714 -0.088488445 0.20782535
0.0866891 -0.07012196 -0.091070496 -0.0074091298 -0.07176684 -0.07030448 0.13960941 0.14684607
-0.061052695 -0.02676708 -0.089448914 -0.17504263 -0.12614131 0.12558472 0.03924383 -0.014279329
-0.021631582 -0.12048351 -0.099203475 0.11821118 -0.14638789 0.08172689 0.08015283 -0.0005987312
0.12725462 -0.044862386 0.07468357 -0.06691301 0.013327176 -0.06584722 0.16313125 -0.1385774
0.013283636 -0.043670435 0.05341938 -0.111079924 0.071620524 -0.06652773 -0.031113481 -0.016882472
-0.02123093 -0.014384527 -0.036038935 0.06863842 0.08535293 -0.1119157 0.14300089 0.13547258
0.08616914 -0.047550365 -0.006134966 -0.015522457 -0.028425047 -0.1018955 -0.021645699 0.10987642
-0.11504751 0.07904431 -0.030136788 -0.008859712 0.07064554 -0.15948738 0.07213982 0.1297839
-0.004832415 -0.15326247 -0.11944574 -0.021659153 -0.064206176 0.009897015 0.06588797 -0.16919284
-0.056755133 0.017360209 0.1397143 0.027650578 -0.075931996 -0.073225826 -0.0022984038 -0.044237614
-0.076401964 -0.106931284 -0.065099135 0.0831869 -0.0421 -0.07116144 0.050695058 0.07992003
-0.07062263 -0.08014457 -0.04148117 0.10712997 0.09017349 -0.058474965 -0.014889284 0.03488574
00000000: b357 2dbe 9dc6 3ebd 0188 e7bb 406e 3e3d
00000010: 04bc 9fbd dbcb d03d e7c1 c23d d367 04bb
00000020: e98d fc3c 7afc d2bc a8bd 133e b64a 29be
00000030: ec2b 003e 7459 083e 6647 1abe ed50 3bbe
00000040: 6b4d 11be 7de4 9cbd e22a 20bd 46c3 3b3e
00000050: ef42 7abd dd38 993c 6067 efb9 295a 543d
00000060: 16e9 ed3d 1424 db3c 0255 40bd 22f9 aa3d
00000070: 420d 463e ad09 f93d 3856 3dbe 5633 3ebc
00000080: 2ee0 4cbe ba22 9b3d c345 babc 46fb 2abd
00000090: 0b19 0bbe 8299 bd3c 5839 39be b446 08be
000000a0: 420c a63d 5f72 263e 0ba4 00be 265c a63d
000000b0: 69fd 8b3d c22e 5ebd 091a 92bd 0b8f 27bd
000000c0: 513c 143d 744d b43d 31a5 dc3d 44b4 423d
000000d0: 17e5 28be 868d 68bd ce68 91bc fbf2 d6bd
000000e0: 1497 02bd 86bf b13d d984 64bc a96b e5bc
000000f0: 41a3 4f3d 1d2f 6c3d 8d22 c33d 4ac2 fcbd
00000100: 40a8 f4bd e686 b33b 6e5f a7bd 90ae 1b3a
00000110: 6b5f 8dbd 9c0e 6a3d 8bc8 4f3c cde0 eabd
00000120: c9da 9a3d dc4d e6bd 903b ebbd fb71 80bc
00000130: 1892 c8bc d90d bf3c 9432 9e3d dbc2 a03d
00000140: 33f3 383a 43ac 01bd 1b54 6fbd edd9 8fbd
00000150: ae8b 18be db57 0e3e a5cc bfbc a094 443d
00000160: 89b2 053d 358d 0dbe 11df a5bd d28c 44bd
00000170: d821 e43d d670 f4bc 9799 54bc a8f0 b93d
00000180: 8512 9d3d 628b 93bd 50d9 a03c 12d9 c13d
00000190: 2250 c6bd ff32 e8bd 01c9 ce3b eb9b 3bbd
000001a0: 56b0 87bd 0d4f ffba 23e4 b53d eed1 bfbd
000001b0: 9cc4 df3d 2b69 b4bd bf3f 95bd b1c9 e13d
000001c0: 04cf 95bd b1de 003d 8e21 23bd dae1 c93d
000001d0: 9557 4dbd 1dd7 2abc 16bd b1bd 2158 1abd
000001e0: 29ad 273c 6f70 bbbc af9e 00bd da72 933d
000001f0: 0b24 9cbd 0264 a5bd b4ec 10bd 62c3 4d3e
00000200: be5c 89bd ce25 c0bd cce4 69bd fdb9 923d
00000210: 0d97 58bd 669c bd3d c8c3 163e e712 0b3e
00000220: 97d3 033e 6392 5fbe 1082 013e 9b9c aa3d
00000230: 0b0f afbc 932f bbbd 0e24 fabd 4af0 04be
00000240: 85ee c53c bcf7 3b3e 978c 8dbd 7816 c0bc
00000250: 60bd 353c e91f 303e 0a13 393e 660f 6d3d
00000260: de9e 37be 89e5 553e d950 f73d 7150 c93d
00000270: a04c 85bd a2f7 28be 6e39 b5bd 2bd0 543e
00000280: 0e8a b13d 1a9c 8fbd 2b83 babd 49c8 f2bb
00000290: 7efa 92bd ccfb 8fbd c5f5 0e3e d15e 163e
000002a0: 6412 7abd a346 dbbc fe30 b7bd 603e 33be
000002b0: 302b 01be 4899 003e 23be 203d d9f3 69bc
000002c0: b734 b1bc 0fc0 f6bd 312b cbbd b418 f23d
000002d0: b5e6 15be 6d60 a73d 2b27 a43d 2cf4 1cba
000002e0: 094f 023e 9fc1 37bd b3f3 983d b009 89bd
000002f0: 3a5a 5a3c e8da 86bd e10b 273e 3ce7 0dbe
00000300: 9ca3 593c c5df 32bd 48ce 5a3d df7d e3bd
00000310: c8ad 923d b13f 88bd b3e1 febc 1c4d 8abc
00000320: 7dec adbc 14ad 6bbc 909d 13bd 4d92 8c3d
00000330: 84cd ae3d 0f34 e5bd d36e 123e 53b9 0a3e
00000340: 7279 b03d 2cc4 42bd d307 c9bb e751 7ebc
00000350: a5db e8bc 97ae d0bd 5252 b1bc e306 e13d
00000360: 079e ebbd fce1 a13d 6de1 f6bc 5328 11bc
00000370: 9cae 903d a950 23be 0bbe 933d 12e6 043e
00000380: 3c59 9ebb d6f0 1cbe f89f f4bd 896e b1bc
00000390: 877e 83bd 1727 223c 46f0 863d e340 2dbe
000003a0: 1278 68bd ff36 8e3c 4411 0f3e 7783 e23c
000003b0: 3c82 9bbd 6cf7 95bd d1a0 16bb 8032 35bd
000003c0: a278 9cbd cafe dabd b252 85bd e55d aa3d
000003d0: 0d71 2cbd 17bd 91bd 9fa5 4f3d 1dad a33d
000003e0: 99a2 90bd d622 a4bd 29e8 29bd f566 db3d
000003f0: e1ac b83d 7283 6fbd 2ff2 73bc 5ae4 0e3d

edge_layers.0.lstm.weight_hh_l0 f4 [256, 64]
0.10232338 0.091744654 -0.021321282 0.12558155 -0.0060703848 -0.13578486 -0.10348395 -0.097859085
0.013833476 -0.10651934 -0.027319152 0.0151143465 0.040255323 -0.07445093 -0.15882097 0.02538782
-0.086943276 -0.0111367535 0.116261445 -0.022058984 0.16324009 -0.052528102 -0.09920736 0.1381638
0.0387642 0.08127809 -0.11325797 -0.067624755 0.00870282 -0.029520243 0.18866585 -0.071382806
-0.06037132 0.04082148 -0.030794457 0.05803788 0.14685212 -0.08959113 -0.016813077 -0.033624593
-0.084735595 -0.066748865 -0.003410076 0.111094266 -0.048614576 0.07482348 0.068267144 -0.07055345
0.075755596 0.0017172229 0.038104847 -0.042031217 -0.008976652 0.029841948 0.07591675 -0.07706641
-0.05027697 0.065679565 -0.12787478 0.01727009 -0.013034939 -0.10468766 0.020380449 0.0815294
0.008125332 -0.050194867 -0.12568234 -0.0070654885 -0.115104415 -0.09976532 -0.0038664022 0.07501973
0.011773379 -0.0038242175 -0.06381018 0.10035297 -0.040599093 0.0749027 -0.070517905 0.04832094
0.060603093 0.04767308 0.08302203 -0.11402636 0.12553884 -0.10067394 -0.040671322 -0.023195576
-0.15506527 0.10588281 -0.04562319 0.08066166 0.039084278 0.038018107 -0.023486964 -0.0127398595
0.06678244 0.060858127 0.11042149 -0.06664029 -0.06367255 0.027259765 -0.04249898 0.070616804
0.111383714 -0.037906565 -0.047693595 0.032283526 0.008429998 -0.09575956 0.10686577 -0.11616696
0.061336942 -0.0649821 0.04540727 -0.07461613 -0.01915257 0.12494749 0.045377947 -0.12455298
-0.052330345 -0.05588062 -0.027865194 -0.04711169 -0.111225985 0.0876097 -0.01249507 0.035847414
-0.06867949 0.051066145 -0.0014025242 0.15348375 -0.063591436 -0.014606781 0.08457504 -0.048820212
-0.010801354 -0.039056383 0.06583688 -0.05861195 0.0026258153 -0.048860963 0.041820787 -0.14476891
0.06778182 -0.0760741 0.09996672 -0.03898544 0.10193262 -0.13383137 -0.05813354 -0.033621643
0.030311994 0.089790575 -0.014452171 0.08696277 0.0423501 -0.012427948 -0.03596205 0.07722232
-0.15211397 -0.038211256 0.07568111 -0.0059228125 0.040773097 0.015460159 -0.012408725 0.09602605
-0.12938584 -0.074077144 0.040291652 0.06512795 -0.075793035 -0.10058078 0.035649557 0.034856103
0.045842562 0.004213714 0.096924976 -0.0674965 0.053235497 -0.06634604 -0.021702724 -0.14067328
-0.009669584 -0.0845252 0.09750889 0.06276808 -0.033126477 -0.022231532 0.12043557 0.052097343
-0.076305926 0.03134708 -0.032247826 0.009957763 0.096688844 0.017665226 0.13178968 -0.01329149
0.07526692 0.06628578 -0.12868975 0.0015641373 -0.046389427 -0.111402996 0.10527372 -0.08599118
-0.010213044 0.018264059 0.07512531 -0.1594173 -0.043064766 -0.019885346 0.011903135 0.14563788
-0.07451889 0.06996477 0.0066600074 -0.0994429 -0.11100426 -0.11442956 -0.095611334 -0.106345184
-0.10084855 -0.085995674 -0.02924046 0.0973445 0.11738095 -0.021823727 -0.092175305 -0.10757869
-0.054310143 0.095294036 0.0931744 0.0076417276 0.0427727 -0.04849055 0.033962194 -0.11283745
0.0057644416 -0.025893947 -0.054717883 0.062461477 -0.108949415 -0.10629572 -0.13313407 -0.020833276
0.094087556 0.042723015 -0.06754068 -0.02925979 0.07796154 -0.03311482 -0.04242168 0.045754284
00000000: ec8e d13d 9fe4 bb3d f8a9 aebc 7398 003e
00000010: 14ea c6bb 300b 0bbe 65ef d3bd 586a c8bd
00000020: cea5 623c d026 dabd 6acc dfbc 2aa2 773c
00000030: c4e2 243d bb79 98bd f7a1 22be 1efa cf3c
00000040: 510f b2bd ee76 36bc 7b1a ee3d 0bb5 b4bc
00000050: 6928 273e b527 57bd 3a2d cbbd d07a 0d3e
00000060: 36c7 1e3d 2175 a63d cbf3 e7bd d97e 8abd
00000070: 4696 0e3c 70d4 f1bc 9f31 413e 2631 92bd
00000080: eb47 77bd 6d34 273d a844 fcbc 21b9 6d3d
00000090: 6760 163e 8e7b b7bd 94bb 89bc f1b9 09bd
000000a0: db89 adbd a1b3 88bd 957b 5fbb 6485 e33d
000000b0: 1420 47bd 0d3d 993d a5cf 8b3d 547e 90bd
000000c0: c025 9b3d 7014 e13a d413 1c3d ed28 2cbd
000000d0: cf12 13bc 1a77 f43c 3e7a 9b3d fed4 9dbd
000000e0: 39ef 4dbd 0283 863d 9bf1 02be 017a 8d3c
000000f0: 7f90 55bc 7c66 d6bd e6f4 a63c e3f8 a63d
00000100: 1d20 053c 2299 4dbd dfb2 00be 9d85 e7bb
00000110: ddbb ebbd c351 ccbd 7763 7dbb f2a3 993d
00000120: 21e5 403c b99f 7abb e9ae 82bd dc85 cd3d
00000130: 3c4b 26bd 9666 993d b16b 90bd 2eec 453d
00000140: f33a 783d d944 433d 7407 aa3d a786 e9bd
00000150: 418d 003e 232e cebd f996 26bd a604 bebc
00000160: 6ec9 1ebe 16d9 d83d 62df 3abd f131 a53d
00000170: d616 203d e0b8 1b3d bc67 c0bc d8ba 50bc
00000180: 3bc5 883d 5f46 793d aa24 e23d b47a 88bd
00000190: c166 82bd df4f df3c 6913 2ebd 8b9f 903d
000001a0: 251d e43d ea43 1bbd 5c5a 43bd bb3b 043d
000001b0: f91d 0a3c 971d c4bd 71dc da3d f1e8 edbd
000001c0: 723c 7b3d 5615 85bd f9fc 393d 57d0 98bd
000001d0: dae5 9cbc 78e4 ff3d 3ade 393d a215 ffbd
000001e0: 5858 56bd 14e3 64bd 8c45 e4bc 30f8 40bd
000001f0: 73ca e3bd b76c b33d 1fb8 4cbc bdd4 123d
00000200: d5a7 8cbd bc2a 513d e7d4 b7ba d82a 1d3e
00000210: 3a3c 82bd 4851 6fbc ae35 ad3d b4f7 47bd
00000220: 2af8 30bc 96f9 1fbd 7cd5 863d 1613 70bd
00000230: df15 2c3b 6f22 48bd 464c 2b3d 4d3e 14be
00000240: 32d1 8a3d bdcc 9bbd 5abb cc3d 32af 1fbd
00000250: 0dc2 d03d 170b 09be 6f1d 6ebd d9b6 09bd
00000260: dc50 f83c 1fe4 b73d ccc8 6cbc 8919 b23d
00000270: 4c77 2d3d 989e 4bbc f14c 13bd bc26 9e3d
00000280: c4c3 1bbe 6883 1cbd b3fe 9a3d 2714 c2bb
00000290: b101 273d 9b4c 7d3c f74d 4bbc 4ea9 c43d
000002a0: b97d 04be c2b5 97bd dc08 253d cd61 853d
000002b0: 6139 9bbd 4cfd cdbd 4505 123d 46c5 0e3d
000002c0: 69c5 3b3d 3213 8a3b 9a80 c63d 9b3b 8abd
000002d0: 770d 5a3d 6fe0 87bd e9c9 b1bc a80c 10be
000002e0: 2d6d 1ebc 8c1b adbd beb2 c73d 8d8c 803d
000002f0: a1af 07bd e71e b6bc eda6 f63d 0664 553d
00000300: 4846 9cbd cc65 003d 4c16 04bd e325 233c
00000310: cd04 c63d aab6 903c e0f3 063e 8dc4 59bc
00000320: 8b25 9a3d d7c0 873d 3fc7 03be bd03 cd3a
00000330: d702 3ebd 4127 e4bd c099 d73d 251c b0bd
00000340: 9c54 27bc 829e 953c 4cdb 993d 4a3e 23be
00000350: ae64 30bd 98e6 a2bc 5e05 433c 1922 153e
00000360: 5c9d 98bd b049 8f3d 313c da3b b8a8 cbbd
00000370: 3456 e3bd 0c5a eabd e0cf c3bd 81cb d9bd
00000380: af89 cebd 801e b0bd b089 efbc 8e5c c73d
00000390: 6c65 f03d acc7 b2bc 68c6 bcbd 3752 dcbd
000003a0: 5074 5ebd 8529 c33d 38d2 be3d 7567 fa3b
000003b0: 6d32 2f3d 079e 46bd f11b 0b3d 5217 e7bd
000003c0: a4e3 bc3b 8b1f d4bc dc1f 60bd 9bd7 7f3d
000003d0: df20 dfbd 92b1 d9bd 4c54 08be 8caa aabc
000003e0: fab0 c03d 54fe 2e3d c552 8abd 3ab2 efbc
000003f0: 4daa 9f3d 68a3 07bd 5bc2 2dbd d868 3b3d

edge_layers.0.lstm.bias_ih_l0 f4 [256]
0.013740352 0.06847131 -0.05213422 0.13693845 0.010632102 0.1642396 0.027200585 0.08972666
-0.1506247 0.08911066 0.18830875 0.073360056 0.07069871 0.18330058 0.0702607 -0.0636133
-0.13562152 0.043314327 0.0021622563 0.022363404 0.012969433 0.22100997 0.048770748 -0.17226517
0.06475896 -0.020370655 0.12627521 -0.21277353 0.056516662 0.100875765 0.19276732 0.06310941
-0.13729103 -0.05291111 0.08304924 -0.06378981 0.03285013 0.16029218 -0.06101156 -0.15054925
-0.103617325 -0.021108689 -0.026809985 0.12438382 0.052019577 -0.097932056 0.09977336 -0.08001607
0.18171445 0.0387533 0.082432464 0.061855078 0.0120449895 -0.0202841 0.17390262 0.077623025
-0.07736505 -0.09232608 0.09083149 -0.12296887 -0.037929617 0.046576116 0.0025625597 0.012654564
-0.09292943 -0.078210734 -0.16592242 -0.110880174 -0.07641725 -0.047466975 -0.037673898 -0.12850073
0.08675686 -0.16056089 -0.13836655 -0.13025591 0.048913218 -0.15995422 -0.091371894 -0.02097248
-0.0730331 0.029368477 -0.04826061 -0.07438639 0.004150596 0.05337384 -0.088509455 -0.023239689
-0.11908654 0.009319933 -0.040147863 -0.04317383 -0.0029563573 -0.057547975 -0.14700346 0.032699514
-0.08268625 -0.09196322 -0.16500169 -0.06054095 0.007035519 -0.08235305 0.04263995 -0.0059332303
0.037044797 0.06743502 -0.13366365 0.017903512 -0.07863888 -0.16129981 -0.07760635 -0.06157967
-0.031840194 -0.03053961 -0.011911041 -0.054122075 -0.17132805 -0.12918355 -0.04870108 -0.140129
0.04558682 -0.031586125 -0.14844133 0.032453977 -0.16803242 -0.029065223 -0.046160504 -0.07963016
-0.045384727 0.08273572 -0.08607539 -0.16845134 -0.096033975 0.037604656 0.12225782 0.11488418
0.064098395 0.18350044 -0.051777896 -0.1701403 0.016961358 0.12042692 0.089173846 0.09266821
-0.11463561 0.13030325 0.02607712 -0.07155721 0.026510712 0.11170981 0.12192572 0.09151455
-0.0038486933 -0.048775908 0.10366308 -0.022038722 0.028033525 -0.019600894 -0.038986403 -0.10567417
0.04645984 -0.037036177 0.064507484 0.001413204 -0.19695131 0.109606735 0.04758404 -0.11763103
0.13097404 -0.020055203 0.11047462 -0.15465423 0.03281634 0.09817921 -0.022686917 0.084135376
-0.041656073 -0.11302732 0.0669525 0.04090124 -0.1471003 -0.0044311457 -0.20279996 0.14138922
0.06271532 0.07536857 0.04255277 -0.09817272 -0.050293356 -0.07062724 -0.11773765 -0.080655545
-0.06828225 0.074461 -0.019837698 -0.020668317 -0.008453761 0.103911325 0.006897613 0.049765777
0.03169019 0.13478109 -0.102636814 0.0607167 0.08862065 0.058538247 0.10800518 -0.115556195
0.13464995 0.14015459 -0.1406013 -0.017020281 0.0881612 0.0373205 0.087931596 -0.039816175
-0.1244456 -0.10986733 0.09017788 -0.0057415357 -0.10239025 0.004122815 -0.094193816 0.14042296
-0.04264903 0.07680837 0.17761976 -0.11404095 -0.07708449 -0.028908076 0.096657865 0.07035585
0.019170716 -0.1322676 0.095529266 -0.053752158 -0.1527104 0.028952805 -0.05772404 0.07766297
0.036726505 0.11981965 0.054653946 0.046127968 0.0418264 0.11873345 0.073202536 0.08145289
-0.14041695 0.0031709834 -0.05005381 -0.034502916 -0.083364554 -0.06840931 0.043852456 0.06848642
00000000: 371f 613c b03a 8c3d b18a 55bd 9839 0c3e
00000010: 4532 2e3c 6d2e 283e c3d3 de3c 9cc2 b73d
00000020: 5d3d 1abe a67f b63d 02d4 403e cc3d 963d
00000030: 7cca 903d 26b3 3b3e d8e4 8f3d b147 82bd
00000040: 5ee0 0abe 5d6a 313d a4b4 0d3b 7533 b73c
00000050: bf7d 543c 7050 623e d6c3 473d 4866 30be
00000060: 58a0 843d 5ce0 a6bc 4a4e 013e 4ee1 59be
00000070: 047e 673d f497 ce3d cc64 453e 823f 813d
00000080: 0596 0cbe 52b9 58bd b815 aa3d 3ba4 82bd
00000090: dc8d 063d a223 243e 42e7 79bd 9529 1abe
000000a0: 5235 d4bd 21ec acbc 9da0 dbbc f2bc fe3d
000000b0: 7b12 553d 9a90 c8bd fa55 cc3d 77df a3bd
000000c0: 5a13 3a3e c8bb 1e3d 5ad2 a83d c05b 7d3d
000000d0: 5958 453c d72a a6bc 8713 323e d2f8 9e3d
000000e0: 9171 9ebd 7515 bdbd dc05 ba3d 1ad7 fbbd
000000f0: 165c 1bbd 99c6 3e3d 9ef0 273b 1755 4f3c
00000100: c951 bebd f32c a0bd 91e7 29be 2515 e3bd
00000110: a680 9cbd bb6c 42bd f24f 1abd b295 03be
00000120: 95ad b13d 136a 24be f6af 0dbe ce61 05be
00000130: 3a59 483d 0acb 23be 3021 bbbd 7ace abbc
00000140: 6192 95bd 2996 f03c ebac 45bd e457 98bd
00000150: b901 883b 879e 5a3d 7244 b5bd 2961 bebc
00000160: a5e3 f3bd a2b2 183c 1672 24bd 0bd7 30bd
00000170: 72bf 41bb 6db7 6bbd 1388 16be edef 053d
00000180: 6957 a9bd 3657 bcbd 34f6 28be caf9 77bd
00000190: 368a e63b b7a8 a8bd 3aa7 2e3d 8b6b c2bb
000001a0: 49bc 173d 5f1b 8a3d 20df 08be 63aa 923c
000001b0: 6c0d a1bd c72b 25be 14f0 9ebd f73a 7cbd
000001c0: dd6a 02bd 342e fabc 8726 43bc 1caf 5dbd
000001d0: 9f70 2fbe b148 04be c97a 47bd fa7d 0fbe
000001e0: 3fb9 3a3d 7460 01bd 0101 18be 76ee 043d
000001f0: b110 2cbe 311a eebc cc12 3dbd 2315 a3bd
00000200: 56e5 39bd 5871 a93d 4b48 b0bd 827e 2cbe
00000210: 76ad c4bd 5707 1a3d 4f62 fa3d 6648 eb3d
00000220: 0546 833d 8ae7 3b3e 0f15 54bd 4239 2ebe
00000230: 8cf2 8a3c 64a2 f63d c7a0 b63d d5c8 bd3d
00000240: 13c6 eabd 376e 053e af9f d53c 968c 92bd
00000250: fe2c d93c 1dc8 e43d 31b4 f93d fb6b bb3d
00000260: 5c3a 7cbb 3fc9 47bd 4f4d d43d 8d8a b4bc
00000270: 90a6 e53c 0e92 a0bc 35b0 1fbd b36b d8bd
00000280: ac4c 3e3d 3fb3 17bd 801c 843d 423b b93a
00000290: 9bad 49be 7f79 e03d 7be7 423d 8ae8 f0bd
000002a0: 0f1e 063e cf4a a4bc 8440 e23d ae5d 1ebe
000002b0: 6d6a 063d 2f12 c93d ead9 b9bc 2b4f ac3d
000002c0: 8f9f 2abd de7a e7bd 641e 893d 0f88 273d
000002d0: 76a1 16be 2533 91bb cbaa 4fbe 56c8 103e
000002e0: e470 803d d65a 9a3d d04b 2e3d c70e c9bd
000002f0: 6800 4ebd 04a5 90bd 7020 f1bd bc2e a5bd
00000300: 90d7 8bbd 027f 983d ab82 a2bc 9a50 a9bc
00000310: a581 0abc 76cf d43d 5f05 e23b 33d7 4b3d
00000320: 93cd 013d 0e04 0a3e 4033 d2bd 13b2 783d
00000330: be7e b53d cdc5 6f3d d231 dd3d baa8 ecbd
00000340: ade1 093e af84 0f3e caf9 0fbe 1e6e 8bbc
00000350: dc8d b43d 61dd 183d 7b15 b43d 4916 23bd
00000360: 56dd febd 1f02 e1bd 2eaf b83d 7e23 bcbb
00000370: fbb1 d1bd ae18 873b b0e8 c0bd 09cb 0f3e
00000380: c0b0 2ebd b54d 9d3d f4e1 353e 4d8e e9bd
00000390: 79de 9dbd a1d0 ecbc 8ff4 c53d ba16 903d
000003a0: e80b 9d3c 2871 07be d9a4 c33d 392b 5cbd
000003b0: 1d60 1cbe 6f2e ed3c 0b70 6cbd c30d 9f3d
000003c0: 886e 163d 0164 f53d d1dc 5f3d aef0 3c3d
000003d0: 2952 2b3d 862a f33d 36eb 953d c6d0 a63d
000003e0: 76c9 0fbe 46d0 4f3b 3905 4dbd ee52 0dbd
000003f0: 09bb aabd 2e1a 8cbd a29e 333d 9c42 8c3d

edge_layers.0.lstm.bias_hh_l0 f4 [256]
0.04974579 0.029550044 0.07178941 0.10767667 -0.13096729 0.13653123 0.102204606 0.14275269
-0.11196186 0.06831354 0.10651668 -0.08264968 -0.036632113 0.1808853 0.1336715 0.08951612
0.023110192 0.09315467 0.07499566 0.116629586 0.16032751 0.14564055 -0.018419014 -0.022317702
-0.008662571 0.019332923 0.06539846 -0.01647112 0.04591525 0.13891475 -0.03044078 0.18340987
-0.06057109 -0.11474574 0.22812423 0.095985614 0.23286973 0.06084366 -0.08298608 -0.0917587
0.13116413 0.0066672927 0.18345731 0.063617356 -0.030369291 0.08502457 -0.08487023 -0.026976096
0.012979235 0.06784793 0.07664272 -0.012110273 -0.07663052 0.14311245 0.035806786 0.072935335
0.05730491 -0.041449297 0.012660277 0.091052406 -0.09267104 0.06785508 -0.11444599 0.103533916
-0.14882994 -0.06144104 -0.03885071 0.10302448 0.056684423 -0.027617231 -0.017636834 -0.1898025
0.08911454 0.015899753 -0.14933202 -0.058130216 0.004152008 -0.1899892 0.044569004 -0.11290878
0.070746765 -0.003943822 -0.037223216 -0.061240956 -0.17297395 0.09515628 0.06713395 -0.027025972
-0.018568808 0.01411024 -0.17302957 0.051568165 0.00868179 -0.011687228 -0.07830682 0.07807676
-0.017716475 0.045627322 -0.017819019 0.056662988 0.053695247 -0.10510137 -0.0029480904 -0.09610666
-0.14457867 -0.11137464 -0.063134745 -0.121878505 0.028543305 -0.058774877 -0.052421086 -0.13323872
-0.077842295 -0.10593462 -0.039279982 0.021771885 -0.10414106 0.00969924 -0.023959158 -0.17099033
0.059206408 0.07028547 0.08068201 -0.030468186 -0.026780428 -0.060683288 0.028229948 -0.07804725
-0.025860984 0.024566537 0.030182691 -0.19878706 0.037965342 0.18175338 0.053106334 0.20519121
-0.088319436 0.16397028 -0.11212535 -0.093409345 -0.11379372 0.14254674 0.12677586 0.0005448196
0.11417022 0.0010083938 -0.073884726 0.019317333 0.015886704 0.15049392 -0.07016059 -0.049906913
0.089912206 -0.13832606 0.09641752 -0.081837974 -0.15109678 -0.1793982 -0.122959055 0.042988867
-0.0037790246 0.0011440788 0.08963904 0.11756212 -0.114446975 0.04017503 -0.062098645 0.07473214
-0.004421555 -0.0517646 0.18677944 -0.17461607 0.05981033 0.13099086 0.049612183 -0.14183687
-0.15560085 -0.12869346 -0.08893818 0.14165677 -0.06160211 -0.1981324 -0.028922476 0.15405425
-0.0042827236 0.08780315 0.039501328 0.07355241 -0.04973448 0.04284258 -0.02810551 0.06508209
-0.06434249 -0.045921452 0.09718595 0.08444561 0.018185358 -0.105359286 0.056523822 0.09371457
-0.03731095 0.2075183 -0.060455285 0.050253533 0.03682259 0.05869062 0.023588464 0.12129311
-0.037280925 0.17781031 -0.18189909 -0.036994673 0.014490919 -0.014651884 0.061644737 -0.08725915
-0.12286972 -0.031884506 0.05474992 -0.09108484 0.13207133 0.15638804 -0.03396264 -0.072881036
-0.04682309 0.06893102 0.054215636 0.06550654 -0.096648306 0.16095562 -0.10953801 -0.111022405
-0.01676905 0.062217657 0.02071753 0.050575655 0.051107746 -0.07389865 0.014415019 -0.112136826
0.13697417 0.0143002095 -0.046640366 -0.0072229835 -0.012186466 -0.04527864 0.120768905 -0.071876355
0.041389838 -0.019154312 -0.015022809 -0.084581584 0.08970687 -0.09122882 -0.058500838 -0.05185533
00000000: 3ec2 4b3d ef12 f23c 5406 933d 9685 dc3d
00000010: 4a1c 06be d8ce 0b3e a650 d13d c32d 123e
00000020: 424c e5bd f8e7 8b3d 6b25 da3d 3c44 a9bd
00000030: 8e0b 16bd ff39 393e 2fe1 083e 3a54 b73d
00000040: 9651 bd3c e0c7 be3d 5397 993d 7edb ee3d
00000050: e52c 243e cc22 153e 79e3 96bc 9dd3 b6bc
00000060: 75ed 0dbc 1460 9e3c a1ef 853d 71ee 86bc
00000070: a111 3c3d ab3f 0e3e f15e f9bc cccf 3b3e
00000080: 6419 78bd d1ff eabd 6699 693e 1b94 c43d
00000090: 6775 6e3e 3437 793d 9bf4 a9bd fceb bbbd
000000a0: e44f 063e 4e79 da3b 3cdc 3b3e d149 823d
000000b0: 05c9 f8bc 5d21 ae3d 71d0 adbd f9fc dcbc
000000c0: dba6 543c dbf3 8a3d dcf6 9c3d 2b6a 46bc
000000d0: 76f0 9cbd 128c 123e 23aa 123d 1f5f 953d
000000e0: 8eb8 6a3d bdc6 29bd 0d6d 4f3c af79 ba3d
000000f0: 50ca bdbd 9bf7 8a3d a962 eabd 9709 d43d
00000100: e066 18be 9aa9 7bbd ec21 1fbd 80fe d23d
00000110: ed2d 683d 883d e2bc 1f7b 90bc 965b 42be
00000120: af81 b63d 3340 823c 7eea 18be f319 6ebd
00000130: 910d 883b 878c 42be fd8d 363d b83c e7bd
00000140: aee3 903d 2d3b 81bb 5f77 18bd ccd7 7abd
00000150: 1520 31be 4ce1 c23d 867d 893d 9265 ddbc
00000160: 9d1d 98bc a32e 673c aa2e 31be 2439 533d
00000170: 113e 0e3c ca7b 3fbc 535f a0bd b5e6 9f3d
00000180: 2422 91bc b7e3 3a3d 31f9 91bc 7317 683d
00000190: 8cef 5b3d 633f d7bd c034 41bb 92d3 c4bd
000001a0: 6e0c 14be 6318 e4bd ca4c 81bd 709b f9bd
000001b0: a6d3 e93c edbd 70bd 7eb7 56bd bb6f 08be
000001c0: c86b 9fbd 40f4 d8bd 0ce4 20bd f45a b23c
000001d0: e847 d5bd 90e9 1e3c ff45 c4bc 1718 2fbe
000001e0: 6b82 723d d4f1 8f3d 9c3c a53d 6b98 f9bc
000001f0: a162 dbbc 0a8f 78bd 7e42 e73c 3dd7 9fbd
00000200: 6ada d3bc c33f c93c b141 f73c d68e 4bbe
00000210: 8c81 1b3d 8f1d 3a3e 0786 593d a51d 523e
00000220: d2e0 b4bd d3e7 273e faa1 e5bd 664d bfbd
00000230: af0c e9bd c6f7 113e 88d1 013e 39d2 0e3a
00000240: 14d2 e93d 152c 843a e050 97bd 623f 9e3c
00000250: d524 823c 141b 1a3e 5bb0 8fbd 316b 4cbd
00000260: e423 b83d 59a5 0dbe 8c76 c53d ab9a a7bd
00000270: 1db9 1abe 29b4 37be f5d1 fbbd 1815 303d
00000280: 83a9 77bb eaf4 953a ac94 b73d 69c4 f03d
00000290: 2d63 eabd 928e 243d 265b 7ebd 2a0d 993d
000002a0: b1e2 90bb 1e07 54bd 1c43 3f3e 8ece 32be
000002b0: adfb 743d 7822 063e 2536 4b3d af3d 11be
000002c0: d455 1fbe 38c8 03be 3825 b6bd 790e 113e
000002d0: 7e52 7cbd 38e3 4abe d4ee ecbc 66c0 1d3e
000002e0: 1756 8cbb 23d2 b33d 25cc 213d a5a2 963d
000002f0: 62b6 4bbd b37b 2f3d 873d e6bc c249 853d
00000300: ffc5 83bd 2218 3cbd 6d09 c73d d2f1 ac3d
00000310: 76f9 943c 9cc6 d7bd 8685 673d 6ded bf3d
00000320: 5ed3 18bd ad7f 543e f69f 77bd a6d6 4d3d
00000330: 49d3 163d 9365 703d 983c c13c 8668 f83d
00000340: e2b3 18bd e813 363e c143 3abe ba87 17bd
00000350: 526b 6d3c 750e 70bc 317f 7c3d edb4 b2bd
00000360: 1fa3 fbbd 5499 02bd 7441 603d b08a babd
00000370: b53d 073e 3024 203e 691c 0bbd a742 95bd
00000380: 92c9 3fbd b52b 8d3d 3711 5e3d 4b28 863d
00000390: 8cef c5bd 8dd1 243e 7755 e0bd b75f e3bd
000003a0: 3f5f 89bc f1d7 7e3d cfb7 a93c 6b28 4f3d
000003b0: 5b56 513d 2d58 97bd f92c 6c3c fea7 e5bd
000003c0: f542 0c3e 6d4b 6a3c f809 3fbd c7ae ecbb
000003d0: bea9 47bc 1876 39bd b055 f73d e933 93bd
000003e0: 6488 293d 81e9 9cbc 3a22 76bc 1c39 adbd
000003f0: 3cb8 b73d 2dd6 babd 939e 6fbd 4166 54bd

edge_layers.1.lstm.weight_ih_l0 f4 [256, 42]
0.060171325 -0.032430507 0.12967263 0.0060517034 -0.116674066 0.17112666 0.11559228 0.2565373
0.10011768 0.052689146 0.20822269 -0.16890542 -0.0051268153 0.12259899 -0.07874085 -0.032870602
0.12173537 0.00856603 0.1705549 0.15894437 -0.12226589 -0.005043675 -0.1599782 0.08628272
0.087396055 0.158559 0.02875882 0.016597308 0.15271886 0.14192045 -0.0031802214 0.040846303
0.14618888 0.13029642 -0.009891484 -0.06328842 0.014896469 0.069348834 0.03905424 -0.16351727
0.036669154 -0.16208494 -0.071528025 0.16206624 -0.05350998 -0.065131165 -0.08998152 -0.087201744
0.0076006176 0.16273141 -0.25705084 0.07612872 -0.06144352 -0.039621927 -0.039308272 0.0640776
-0.03336615 0.06974964 -0.006077945 -0.060262352 0.12860513 0.121229656 -0.13807628 0.029768165
-0.06057245 -0.1321139 0.13329393 0.058313407 0.044683598 0.09081832 0.13696621 -0.0045958087
-0.0047234376 0.10565672 -0.004524102 0.17304146 -0.061905976 -0.06935713 -0.018243136 -0.027589142
0.091362365 -0.084466495 -0.1488184 -0.13332465 -0.108837485 0.2518427 -0.06947707 -0.079741925
-0.1533831 0.08009498 0.005344556 0.09225304 0.17797418 0.044952355 -0.031656455 -0.14847058
-0.03524511 0.06978005 -0.11780043 -0.16775312 0.15923195 -0.009597785 0.11126463 0.07177829
-0.13907939 0.012191895 -0.071343906 -0.038905613 -0.01552744 -0.02895406 0.08578824 -0.017248029
0.110082805 0.15819773 0.104589686 0.07312299 0.17083524 0.14644744 0.10645321 0.037236307
-0.036395017 0.03696882 -0.048467234 -0.12685823 0.14615959 -0.03181955 -0.021220718 0.2840324
0.032266106 -0.22763358 -0.23220976 0.22087733 0.23971888 0.22102393 0.12322572 -0.049333975
0.03178088 0.036150135 -0.07052244 0.0008997692 -0.10852542 0.114609264 -0.024144657 0.020300418
0.01613447 0.052348286 0.054482177 -0.0010856136 0.13748448 0.0055765198 -0.11706831 0.024977675
-0.06567378 0.0803872 0.018064918 0.038661618 0.068095006 -0.05486829 -0.11919786 -0.11920316
-0.013559599 -0.04924794 0.0083909575 -0.116452396 0.053079545 0.004285413 0.041657995 -0.051068008
0.033326786 0.07168915 0.0020053845 -0.17414771 -0.10654428 0.14238325 0.12709415 0.13108702
-0.016385926 -0.080631495 -0.0043200324 -0.07365554 0.004851944 0.06100228 0.07331816 -0.0611397
0.11298028 0.008713317 -0.07176178 0.11397788 0.04281277 0.053562276 -0.0022251278 -0.12897938
0.054355554 0.06841382 -0.01166552 0.0573889 0.095649146 0.13422571 0.06990623 0.1695982
0.069362804 -0.05621078 0.1624076 -0.094953604 0.0047832984 -0.035175722 -0.04203322 0.031492345
-0.050766896 0.02348601 -0.060535192 -0.0037968575 -0.04567552 -0.08445894 -0.08804648 0.15345445
0.15299433 0.18611611 0.14534807 0.041769005 -0.025282566 -0.12718531 0.031903446 -0.057580445
-0.049592312 -0.035913527 -0.04336207 0.11507845 -0.041614983 -0.068787985 -0.124465846 0.102359176
-0.14592388 -0.14775765 0.12190357 -0.036664773 -0.017408915 -0.090614356 0.024588425 0.108987354
-0.036216795 0.08473003 -0.06648071 -0.034096412 -0.0069646016 -0.15533635 0.12208425 0.0054745036
-0.039351255 -0.009234492 0.039458055 -0.16321456 0.09592866 0.00865862 -0.110515386 -0.17874646
00000000: 3576 763d dad5 04bd e7c8 043e 5e4d c63b
00000010: d0f2 eebd d43b 2f3e a5bb ec3d db58 833e
00000020: 800a cd3d 93d0 573d 5438 553e 8bf5 2cbe
00000030: d8fe a7bb 2e15 fb3d e242 a1bd 53a3 06bd
00000040: 6550 f93d 8958 0c3c f2a5 2e3e 50c2 223e
00000050: 8a66 fabd 6a45 a5bb 53d1 23be ffb4 b03d
00000060: b4fc b23d 4a5d 223e 9e97 eb3c 14f7 873c
00000070: 5562 1c3e 9853 113e 436b 50bb 744e 273d
00000080: 8ab2 153e 6d6c 053e e40f 22bc 5c9d 81bd
00000090: 5210 743c c306 8e3d 57f7 1f3d 1271 27be
000000a0: 6532 163d 98f9 25be 497d 92bd b1f4 253e
000000b0: 482d 5bbd 7d63 85bd 3b48 b8bd d496 b2bd
000000c0: 9a0e f93b 10a3 263e 2b9c 83be 60e9 9b3d
000000d0: 33ac 7bbd 9a4a 22bd b601 21bd 1e3b 833d
000000e0: f2aa 08bd e6d8 8e3d 8029 c7bb a8d5 76bd
000000f0: 10b1 033e 4147 f83d de63 0dbe 5edc f33c
00000100: d11a 78bd de48 07be 347e 083e 0ada 6e3d
00000110: 2606 373d f5fe b93d df40 0c3e 7098 96bb
00000120: 11c7 9abb 8d62 d83d eb3e 94bb c831 313e
00000130: 1f91 7dbd 1c0b 8ebd a172 95bc a002 e2bc
00000140: 311c bb3d c5fc acbd da63 18be 4286 08be
00000150: 30e6 debd 87f1 803e fe49 8ebd bc4f a3bd
00000160: 7610 1dbe d608 a43d 6321 af3b 29ef bc3d
00000170: dd3e 363e f61f 383d 33aa 01bd ac08 18be
00000180: 2d5d 10bd d8e8 8e3d 5a41 f1bd 79c7 2bbe
00000190: b30d 233e 0740 1dbc b6de e33d 7f00 933d
000001a0: d46a 0ebe 84c0 473c c11c 92bd 7e5b 1fbd
000001b0: ce66 7ebc 1131 edbc bfb1 af3d bd4b 8dbc
000001c0: 1873 e13d 96fe 213e 1e33 d63d 82c1 953d
000001d0: 6fef 2e3e 51f6 153e 2404 da3d 1985 183d
000001e0: f112 15bd 9e6c 173d 9485 46bd 20e7 01be
000001f0: dcaa 153e 3755 02bd 12d7 adbc b26c 913e
00000200: 7729 043d c718 69be 65c8 6dbe ab2d 623e
00000210: de78 753e 1954 623e c45d fc3d 6c12 4abd
00000220: ab2c 023d 2a12 143d 126e 90bd 7dde 6b3a
00000230: 9342 debd 43b8 ea3d 04cb c5bc 104d a63c
00000240: 702c 843c 286b 563d b428 5f3d 264b 8eba
00000250: bbc8 0c3e 3dbb b63b 83c1 efbd fb9d cc3c
00000260: fa7f 86bd 0ba2 a43d e1fc 933c a55b 1e3d
00000270: 6575 8b3d 92bd 60bd 021e f4bd c920 f4bd
00000280: 1529 5ebc 35b8 49bd 3a7a 093c 987e eebd
00000290: f069 593d a66c 8c3b 93a1 2a3d b02c 51bd
000002a0: ab81 083d c3d1 923d c56c 033b c753 32be
000002b0: e333 dabd eacc 113e f824 023e ad3b 063e
000002c0: c73b 86bc 2022 a5bd 0f8f 8dbb b7d8 96bd
000002d0: 0efd 9e3b 87dd 793d d527 963d 9f6d 7abd
000002e0: 3462 e73d 4dc2 0e3c d7f7 92bd 3c6d e93d
000002f0: 715c 2f3d 1e64 5b3d 73d3 11bb 2c13 04be
00000300: eea3 5e3d 8b1c 8c3d bd20 3fbc a010 6b3d
00000310: b3e3 c33d 7772 093e ff2a 8f3d 27ab 2d3e
00000320: 160e 8e3d 463d 66bd 2e4e 263e 0977 c2bd
00000330: 37bd 9c3b 6b14 10bd 072b 2cbd 1efe 003d
00000340: f3f0 4fbd bc65 c03c c0f3 77bd b3d4 78bb
00000350: 4116 3bbd cff8 acbd b751 b4bd 2a23 1d3e
00000360: 8caa 1c3e 3995 3e3e 20d6 143e fa15 2b3d
00000370: 621d cfbc de3c 02be 30ad 023d 79d9 6bbd
00000380: 4f21 4bbd 101a 13bd 6d9c 31bd 40ae eb3d
00000390: 7974 2abd b7e0 8cbd f3e7 febd b0a1 d13d
000003a0: 126d 15be c84d 17be 94a8 f93d cd2d 16bd
000003b0: 249d 8ebc 0594 b9bd aa6d c93c c334 df3d
000003c0: 1058 14bd f086 ad3d 0a27 88bd aea8 0bbd
000003d0: 5037 e4bb 7e10 1fbe 4f07 fa3d 7763 b33b
000003e0: c82e 21bd 444c 17bc c59e 213d b821 27be
000003f0: 3f76 c43d e2dc 0d3c e455 e2bd 5009 37be

edge_layers.1.lstm.weight_hh_l0 f4 [256, 64]
-0.09676736 0.022681318 0.10272958 -0.014706742 -0.08087933 -0.01178283 0.05381381 0.04413503
0.08181327 -0.06263099 0.022051211 0.066714585 -0.050976396 0.018993111 -0.054121677 -0.036976147
-0.046644263 -0.0765378 -0.052309968 -0.09061599 0.08119059 0.05524778 -0.028943157 0.027958658
-0.067880556 -0.05116288 0.0723478 0.08756219 -0.018076306 0.11878431 -0.012925887 0.09535396
-0.0479916 -0.067510806 -0.056587156 -0.084865294 0.03657413 0.10917349 -0.020999532 0.056608144
-0.034713145 0.022227595 -0.03260734 -0.120748915 -0.04222183 0.049676586 0.0376204 -0.097887784
0.01434352 -0.11802521 0.079183064 0.05505506 -0.046715435 -0.10277964 -0.09088991 -0.095210984
0.14498094 0.03891642 0.050190743 -0.0034386734 -0.0356855 0.029465195 -0.11876987 -0.0125864055
0.06487929 -0.101359025 0.09483972 -0.05357584 -0.08233746 -0.126996 0.09744955 0.09970496
0.14256255 -0.072934486 -0.07133246 0.050707486 -0.052323822 0.023285186 0.08701297 0.1477059
0.1193417 -0.06768875 0.08912437 -0.021946955 -0.0034993032 -0.040917538 -0.104597494 0.08493093
0.063710384 0.13352501 0.055048887 0.104416 -0.00062708644 -0.01668588 -0.05063254 0.13122024
-0.042294234 0.10306305 -0.12305869 -0.09215097 0.04012489 -0.052554023 0.035797294 -0.098388076
0.07933858 0.026158998 -0.094241925 -0.08278744 0.07768606 0.07968436 0.056500755 0.117939815
-0.12971367 -0.006500414 0.023828778 -0.026647381 -0.07763283 0.11704924 -0.095078155 0.07656565
-0.059451655 -0.029176183 0.14607657 0.06301826 -0.13366938 -0.092643164 0.014802342 -0.14653356
-0.049750894 -0.12383463 -0.09751643 0.17074014 -0.12561052 0.07032195 0.056364644 -0.047424182
-0.034659658 -0.016618595 0.037543442 0.0027291048 -0.10102079 0.08178442 -0.00966578 0.093688
-0.036703706 -0.0068642627 -0.037128262 -0.06941699 0.09856799 -0.025297854 0.09221579 -0.08292996
-0.12515241 -0.014794199 0.035095274 0.076745495 0.09940852 -0.063935824 -0.070042774 0.030625802
0.057059035 -0.07249958 0.0011583609 -0.10247674 -0.055584025 0.0529934 0.050665334 -0.07044809
-0.11037348 -0.043126572 -0.057920143 -0.106002174 0.005432765 -0.0015009141 0.04038092 0.020817878
0.040256653 -0.028537543 0.119720265 -0.0059854733 0.014151926 -0.01100044 -0.007996712 0.0028744463
0.17375451 -0.11894263 0.038002063 -0.05004403 0.018088138 -0.11126719 0.10549483 -0.029650336
-0.06120649 0.15974538 -0.17403018 0.040639184 -0.09889972 -0.0072180377 -0.063207775 0.04779885
0.0009163893 0.036874935 0.07219167 -0.07616524 -0.031495698 -0.1746574 -0.026007706 0.0379259
-0.076294556 -0.15287282 0.100362994 -0.09811227 0.06801034 -0.115231864 -0.016586255 -0.045664806
0.1543201 -0.07479196 -0.019506903 0.014287423 -0.12909757 -0.0033542626 -0.08650136 -0.06467813
0.008850294 -0.17058468 0.066035524 0.030817404 0.07243867 -0.13332428 -0.092654906 0.06075426
-0.026930718 0.07334758 -0.030482128 0.16086043 0.024089001 -0.15512854 -0.08908451 -0.10056456
0.08406512 -0.079143286 0.057310104 -0.047545955 -0.10640668 -0.06202158 -0.008134772 -0.006423211
-0.12347111 0.06625996 0.015949301 -0.024061205 0.13177581 -0.10513904 -0.027843433 0.0161283
00000000: f72d c6bd 2cce b93c e363 d23d 8cf4 70bc
00000010: 10a4 a5bd c50c 41bc df6b 5c3d efc6 343d
00000020: b78d a73d ad44 80bd bea4 b43c a8a1 883d
00000030: a0cc 50bd 7197 9b3c b1ae 5dbd 4d74 17bd
00000040: 0e0e 3fbd dabf 9cbd fa42 56bd e094 b9bd
00000050: 4147 a63d 7f4b 623d 331a edbc 8e09 e53c
00000060: f604 8bbd 2b90 51bd 152b 943d ce53 b33d
00000070: c314 94bc 3045 f33d 19c7 53bc f048 c33d
00000080: d792 44bd 1b43 8abd efc7 67bd dbcd adbd
00000090: c1ce 153d 5a96 df3d 3607 acbc f1dd 673d
000000a0: 5f2f 0ebd a516 b63c 468f 05bd 354b f7bd
000000b0: ccf0 2cbd ad79 4b3d d917 1a3d 6479 c8bd
000000c0: 1501 6b3c 34b7 f1bd bb2a a23d 6a81 613d
000000d0: af58 3fbd 227e d2bd 7d24 babd fafd c2bd
000000e0: e275 143e d366 1f3d cf94 4d3d 5e5b 61bb
000000f0: f52a 12bd fe60 f13c 9e3d f3bd 3637 4ebc
00000100: 6fdf 843d 5295 cfbd 543b c23d 5772 5bbd
00000110: 8ba0 a8bd 3d0b 02be a193 c73d 1d32 cc3d
00000120: ebfb 113e ad5e 95bd c116 92bd a7b2 4f3d
00000130: 8151 56bd 93c0 be3c db33 b23d 3740 173e
00000140: 6c69 f43d 66a0 8abd d686 b63d 1aca b3bc
00000150: 9154 65bb 2699 27bd 3637 d6bd 44f0 ad3d
00000160: 977a 823d c8ba 083e f17a 613d 0ed8 d53d
00000170: 0f63 24ba d4b0 88bc 1164 4fbd 995e 063e
00000180: b83c 2dbd b812 d33d 3206 fcbd a6b9 bcbd
00000190: ff59 243d e342 57bd 2fa0 123d b07f c9bd
000001a0: 447c a23d 654b d63c e901 c1bd 768c a9bd
000001b0: de19 9f3d 8e31 a33d 566d 673d 6e8a f13d
000001c0: a9d3 04be 6d01 d5bb 9234 c33c 9c4b dabc
000001d0: f6fd 9ebd 83b7 ef3d 56b8 c2bd 74ce 9c3d
000001e0: 9483 73bd e402 efbc 1995 153e b80f 813d
000001f0: a0e0 08be b3bb bdbd 8685 723c e50c 16be
00000200: 98c7 4bbd 039d fdbd b2b6 c7bd 81d6 2e3e
00000210: 0ba0 00be f404 903d 9dde 663d dc3f 42bd
00000220: 49f7 0dbd b823 88bc 27c7 193d c8da 323b
00000230: fde3 cebd 977e a73d 385d 1ebc 7fdf bf3d
00000240: a056 16bd 9ced e0bb ce13 18bd 7f2a 8ebd
00000250: 04de c93d 723d cfbc a2db bc3d 2fd7 a9bd
00000260: f427 00be 5e63 72bc 10c0 0f3d be2c 9d3d
00000270: b296 cb3d c9f0 82bd 9672 8fbd f6e2 fa3c
00000280: bcb6 693d a97a 94bd 24d4 973a 53df d1bd
00000290: 13ac 63bd 9b0f 593d 7486 4f3d 1747 90bd
000002a0: 7e0b e2bd 7da5 30bd ac3d 6dbd ab17 d9bd
000002b0: 5605 b23b 52ba c4ba 7766 253d 418a aa3c
000002c0: 29e4 243d 91c7 e9bc e62f f53d ca21 c4bb
000002d0: 7bdd 673c 313b 34bc a404 03bc 3561 3c3b
000002e0: b4ec 313e 3298 f3bd 0da8 1b3d f8fa 4cbd
000002f0: 932d 943c 0de0 e3bd ac0d d83d 43e5 f2bc
00000300: a8b3 7abd 4b94 233e f834 32be 4675 263d
00000310: f08b cabd 4a85 ecbb 1473 81bd bac8 433d
00000320: d839 703a 2c0a 173d 3ad9 933d 85fc 9bbd
00000330: a201 01bd 64d9 32be 1d0e d5bc 3058 1b3d
00000340: 5240 9cbd b18a 1cbe 1d8b cd3d 16ef c8bd
00000350: 0149 8b3d affe ebbd e6df 87bc 050b 3bbd
00000360: 1706 1e3e 872c 99bd f1cc 9fbc cc15 6a3c
00000370: 2732 04be 30d3 5bbb a027 b1bd f875 84bd
00000380: d300 113c c0ad 2ebe a23d 873d c874 fc3c
00000390: ba5a 943d 2986 08be dbc1 bdbd 75d9 783d
000003a0: cf9d dcbc 4237 963d a8b5 f9bc 99b8 243e
000003b0: 4c56 c53c 04da 1ebe f171 b6bd cbf4 cdbd
000003c0: 552a ac3d e015 a2bd 00be 6a3d 8cbf 42bd
000003d0: bfeb d9bd 570a 7ebd b547 05bc cd79 d2bb
000003e0: 6cde fcbd 4db3 873d 1ca8 823c 011c c5bc
000003f0: 3df0 063e 2353 d7bd e917 e4bc 7f1f 843c

edge_layers.1.lstm.bias_ih_l0 f4 [256]
0.15492141 0.069229394 0.15646094 -0.05692522 0.13784817 0.0958058 -0.10290898 0.049206864
-0.04042624 0.050597724 0.20448072 -0.10511642 0.053509526 0.24477872 0.08542741 0.13099504
-0.03565741 -0.11387787 -0.027445825 0.19814892 0.07597287 -0.19551435 0.1592717 0.08990884
0.104975894 -0.019903058 0.058572277 0.10727932 0.123231985 -0.04638053 0.028521817 0.027465472
0.09155843 0.18313572 0.06994539 0.034342162 0.06321869 0.047487248 -0.06183624 0.07001232
0.13182753 0.13523759 0.077924386 0.08236138 -0.032595806 0.058229215 0.081287436 0.17406516
0.07635453 0.10311933 0.0690668 0.05002908 0.016415427 0.03541534 -0.10897798 0.050245028
-0.060914367 0.20036373 0.034495022 0.17425321 0.15382804 0.12686716 -0.11878068 0.14477733
0.059774257 0.00096639787 -0.06567707 0.08250128 0.113998234 0.011754592 -0.13982737 0.09030545
0.05491355 0.08235108 0.0020879433 0.0522975 -0.11277088 0.043635078 -0.079322115 0.15392512
0.08812758 0.011514958 0.02432631 0.057088636 -0.070344225 0.022397079 -0.009771813 -0.118370205
-0.037838522 -0.037017014 0.052814104 -0.1283677 -0.077442415 -0.014016387 0.03608862 0.0015777049
-0.034149066 -0.14585006 -0.14769678 -0.06493721 -0.072090715 -0.06391867 0.07845675 0.12936503
-0.03711476 0.013401368 -0.14126664 -0.06877824 0.12991416 -0.056518886 -0.07704484 -0.02835004
0.07469783 0.13593607 0.06401826 0.04899099 -0.021211376 0.07325977 -0.11737608 -0.054204334
-0.13870515 0.03742723 0.0322496 0.099394314 0.10792408 0.08471822 0.036786184 0.0982844
0.061220318 -0.17705806 0.15473586 -0.09684253 0.02290252 -0.13681175 0.1263961 0.121411026
0.14555356 0.053182594 0.21618183 0.011435146 -0.002016538 0.089380465 0.093196616 0.16609208
0.028655998 0.11021521 -0.062324148 0.016374586 -0.089415394 0.012055903 -0.18442602 0.03761321
-0.16496396 0.10403733 0.00028849315 0.0014119628 0.055659965 0.17755534 0.13762023 0.1984303
0.06504702 0.13899706 -0.11073043 0.008143318 -0.00083609077 0.11200258 0.15276852 -0.059087243
0.021361537 0.07097786 -0.11813616 0.04189608 -0.040479194 0.088063695 -0.02395943 -0.017186826
-0.10809375 -0.05465002 -0.043255813 0.15807919 -3.700744e-05 0.046936586 -0.09459477 0.18645933
-0.08588919 -0.06146667 0.14602053 -0.06782966 -0.11582791 0.012770923 0.063012935 -0.2183619
-0.07888704 -0.07760104 -0.079865865 0.07309783 0.11273147 0.067406386 -0.08266363 0.031635042
0.15362008 0.031855598 0.08852293 -0.04941622 0.094766535 -0.02695568 0.07186545 0.031225309
-0.019099673 0.035734713 -0.111545205 -0.0936918 0.06390571 -0.09749341 0.023388585 -0.013972896
-0.03543817 0.10178582 0.15215595 -0.03264192 -0.06842321 0.02958173 -0.063972555 0.0029849517
-0.11534821 0.0403623 0.0049858512 -0.07802134 -0.029093914 -0.064176925 -0.10608979 0.1596827
0.079157226 -0.034116283 0.035923865 -0.040170718 0.08326934 0.092467256 0.060471464 0.060970712
0.07362402 0.14732434 0.12748197 -0.09209576 0.11012433 0.028308747 -0.013131111 -0.011131114
-0.025890715 -0.034264885 0.08601186 0.06467106 0.16812374 -0.0015772101 0.06614508 0.1497388
00000000: b8a3 1e3e 24c8 8d3d 4c37 203e 6b2a 69bd
00000010: 1228 0d3e d535 c43d f1c1 d2bd 238d 493d
00000020: fc95 25bd 8f3f 4f3d 6563 513e 4747 d7bd
00000030: ce2c 5b3d 46a7 7a3e 91f4 ae3d 9023 063e
00000040: 810d 12bd cd38 e9bd 11d6 e0bc 8de7 4a3e
00000050: aa97 9b3d ea34 48be 1f18 233e 2022 b83d
00000060: 9afd d63d bd0b a3bc 7ce9 6f3d 43b5 db3d
00000070: 0d61 fc3d 83f9 3dbd 96a6 e93c 45ff e03c
00000080: fc82 bb3d ee87 3b3e 873f 8f3d 5eaa 0c3d
00000090: cd78 813d fd81 423d ff47 7dbd 9f62 8f3d
000000a0: ccfd 063e b97b 0a3e d296 9f3d 15ad a83d
000000b0: 2e83 05bd c281 6e3d 077a a63d 233e 323e
000000c0: c45f 9c3d 3a30 d33d e572 8d3d 4beb 4c3d
000000d0: a579 863c ad0f 113d d92f dfbd bbcd 4d3d
000000e0: 5881 79bd 262c 4d3e a74a 0d3d 6f6f 323e
000000f0: 1985 1d3e 77e9 013e 4943 f3bd 8240 143e
00000100: dad5 743d dd55 7d3a b381 86bd 6ef6 a83d
00000110: e877 e93d 5596 403c e82e 0fbe 10f2 b83d
00000120: 08ed 603d afa7 a83d e0d5 083b e735 563d
00000130: 6bf4 e6bd b2ba 323d a273 a2bd 8c9e 1d3e
00000140: 3c7c b43d 3ca9 3c3c f847 c73c c6d5 693d
00000150: a210 90bd 147a b73c f419 20bc 146c f2bd
00000160: 91fc 1abd 279f 17bd 9a53 583d d372 03be
00000170: 219a 9ebd fda4 65bc a9d1 133d feca ce3a
00000180: e4df 0bbd b859 15be d33d 17be cdfd 84bd
00000190: 4ca4 93bd cbe7 82bd efad a03d 4478 043e
000001a0: a605 18bd 6991 5b3c 34a8 10be 9bdb 8cbd
000001b0: 3808 053e 5980 67bd afc9 9dbd 583e e8bc
000001c0: 2dfb 983d d332 0b3e 011c 833d c7aa 483d
000001d0: 7bc3 adbc 3809 963d df62 f0bd 5d05 5ebd
000001e0: b908 0ebe 4c4d 193d 2818 043d 3f8f cb3d
000001f0: 4d07 dd3d bf80 ad3d 1cad 163d 5549 c93d
00000200: 28c2 7a3d b54e 35be 1473 1e3e 6055 c6bd
00000210: 119e bb3c 6118 0cbe fb6d 013e 58a6 f83d
00000220: fe0b 153e fed5 593d c55e 5d3e 7b5a 3b3c
00000230: e527 04bb 1b0d b73d dedd be3d 0b14 2a3e
00000240: fcbf ea3c 83b8 e13d 9b47 7fbd ff23 863c
00000250: 6b1f b7bd 1f86 453c 2dda 3cbe 4f10 1a3d
00000260: 50ec 28be 8611 d53d e540 9739 9c11 b93a
00000270: b4fb 633d 11d1 353e 51ec 0c3e 5031 4b3e
00000280: 5f37 853d 3f55 0e3e a3c6 e2bd 8d6b 053c
00000290: 1a2d 5bba 9c61 e53d 5a6f 1c3e 7705 72bd
000002a0: 64fe ae3c d75c 913d 5ff1 f1bd 399b 2b3d
000002b0: 83cd 25bd bd5a b43d 9146 c4bc 63cb 8cbc
000002c0: 4260 ddbd b3d8 5fbd 022d 31bd 83df 213e
000002d0: 7038 1bb8 9440 403d e7ba c1bd 32ef 3e3e
000002e0: ace6 afbd 7ac4 7bbd 6886 153e 47ea 8abd
000002f0: 2f37 edbd 223d 513c ed0c 813d 439a 5fbe
00000300: 878f a1bd 4bed 9ebd b790 a3bd 51b4 953d
00000310: c2df e63d 5c0c 8a3d 8d4b a9bd bf93 013d
00000320: 954e 1d3e 047b 023d 834b b53d aa68 4abd
00000330: f514 c23d 29d2 dcbc 312e 933d 38cc ff3c
00000340: eb76 9cbc 905e 123d d071 e4bd 7de1 bfbd
00000350: ffe0 823d a0aa c7bd 6b99 bf3c 93ee 64bc
00000360: 9d27 11bd 1675 d03d c5ce 1b3e 89b3 05bd
00000370: 7821 8cbd 6255 f23c 0b04 83bd 2e9f 433b
00000380: af3b ecbd f052 253d 5a60 a33b a7c9 9fbd
00000390: 5c56 eebc 316f 83bd 9b45 d9bd dd83 233e
000003a0: 2f1d a23d 84bd 0bbd e724 133d 0d8a 24bd
000003b0: 1e89 aa3d 795f bd3d edb0 773d 6dbc 793d
000003c0: 31c8 963d 31dc 163e a28a 023e b49c bcbd
000003d0: dd88 e13d bfe7 e73c df23 57bc 475f 36bc
000003e0: c418 d4bc 5659 0cbd fc26 b03d 4372 843d
000003f0: a128 2c3e 64ba ceba 1277 873d 2155 193e
