experiment/IBM_HI_S/GTEA-Trans+T2V/GTEA-Trans+T2V_checkpoint.pt (torch_old, 555902 bytes, 68 tensors)

time_layers.0.w f4 [1, 31]
0	0x3fa53e8c	1.2909713
1	0xbed5298e	-0.41633266
2	0xbe8dd0e9	-0.27698448
3	0x3d1ad329	0.037799034
4	0xbfc97059	-1.5737411
5	0x3f1031d5	0.5632604
6	0xbfae6ce0	-1.3626976
7	0xbfe6feba	-1.8046486
8	0x3e64217c	0.22278398
9	0x3e9595d1	0.29215863
10	0x3f1a0488	0.60163164
11	0x3fc36366	1.5264709
12	0xbf2c4616	-0.6729444
13	0xbd466cd7	-0.04844364
14	0x3ec5df0c	0.38646734
15	0xbf64ba1b	-0.89346474
16	0xbe8adc2a	-0.27121097
17	0x3eb32fe7	0.34997484
18	0xbfb7d60c	-1.4362197
19	0xbeec2c9d	-0.46127787
20	0xbf850229	-1.0391284
21	0x3f08cefd	0.5344084
22	0x3fea8f45	1.8324972
23	0xbdffae50	-0.12484419
24	0x3f51194b	0.8167922
25	0xbe952834	-0.29132235
26	0x3f376f19	0.71653897
27	0xc011b262	-2.2765126
28	0x3f892978	1.071578
29	0xbfba20e8	-1.4541292
30	0xbf0ed453	-0.5579273

time_layers.0.b f4 [1, 31]
0	0x3fa13a36	1.259589
1	0xbf8fdc44	-1.1239095
2	0xbeb5aac2	-0.3548184
3	0x3f9e9fb2	1.2392485
4	0xbedfab20	-0.43685246
5	0x3f7734ce	0.9656495
6	0xb99b0953	-0.0002957085
7	0xbfc1226d	-1.5088631
8	0x3ea54c79	0.32284907
9	0x3f54d033	0.83130187
10	0xbfa6891b	-1.3010591
11	0xbef16684	-0.47148526
12	0x3f7121b5	0.9419206
13	0x3ea88a55	0.3291804
14	0xbf223170	-0.63356686
15	0xbfb58dda	-1.4183915
16	0x3f57b902	0.84266675
17	0x3c3c3f9e	0.011489777
18	0x40476a71	3.1158717
19	0xbf1540e0	-0.58302116
20	0xbf0b6fa1	-0.5446721
21	0xbead3c87	-0.3383524
22	0xbebd1c8d	-0.36935845
23	0xbfde8e9b	-1.738727
24	0xbf05d752	-0.5228168
25	0xc001b61b	-2.0267398
26	0xbf67efd9	-0.90600353
27	0xbf0423e5	-0.5161727
28	0x3e2fd415	0.17170747
29	0xbe1f879e	-0.15579078
30	0x3f999e1c	1.2001376

time_layers.1.w f4 [1, 31]
0	0x3f18b632	0.5965301
1	0x3f1697af	0.588252
2	0x3e70cbce	0.23515245
3	0xbea16131	-0.31519464
4	0x3f606391	0.87651926
5	0x3fd4453b	1.6583627
6	0x3fa25d7c	1.2684779
7	0xbee33194	-0.44373763
8	0x3e87d977	0.265331
9	0xbf9fd261	-1.2486078
10	0x3e45b95d	0.19308992
11	0xbf15ed58	-0.5856528
12	0xbf0fa953	-0.56117743
13	0x3e13c0ee	0.14429066
14	0xbec49fec	-0.3840326
15	0xbf2d4d88	-0.6769643
16	0xbed29fd6	-0.4113757
17	0x3f666bc5	0.90008193
18	0xbf012462	-0.5044614
19	0xbfab1e74	-1.3368669
20	0xbe46c401	-0.19410707
21	0x3eb8275b	0.35967526
22	0x3e6e282d	0.23257513
23	0xbeae880d	-0.34088174
24	0x3ed8a0be	0.42310137
25	0xc0092447	-2.1428392
26	0x3f4cabd8	0.7994971
27	0x3fdf06e1	1.7423974
28	0x3dd8b144	0.10580686
29	0xbf3c252c	-0.7349422
30	0xbf3fb84a	-0.7489058

time_layers.1.b f4 [1, 31]
0	0x3f2fae25	0.686251
1	0xbdc8dd1a	-0.09807797
2	0xbf71e18b	-0.94484776
3	0x3f28f141	0.65993124
4	0x3dba0933	0.09083786
5	0xbfe5c54a	-1.7950833
6	0xc0011f03	-2.0175178
7	0x3f0cbed6	0.5497869
8	0xbf03c4e7	-0.51472324
9	0x3f834f6f	1.0258616
10	0xbfcef24a	-1.6167691
11	0xbed11cb0	-0.408422
12	0x3ec0205f	0.37524697
13	0x3ec10a30	0.37703085
14	0x3f3def36	0.7419313
15	0x4001eb1f	2.0299757
16	0x3fdb40f5	1.7129198
17	0x3e8179b0	0.25288153
18	0xbf92e22d	-1.1475273
19	0xbf02ba20	-0.51065254
20	0x3fc017ea	1.5007298
21	0xbe378989	-0.17923559
22	0xbf80d896	-1.0066097
23	0xbe7e1ed8	-0.24816453
24	0x3e8d1302	0.27553564
25	0x3f5be0dd	0.8588999
26	0x3f81ad96	1.0131099
27	0xbc248bbf	-0.010043084
28	0xbdad3fb3	-0.08459415
29	0x3e1ab8ba	0.1510953
30	0x3feadad4	1.8348031

edge_in_layers.0.weight f4 [64, 42]
0	0x3dcdae06	0.10042958
1	0xbdd30360	-0.10303378
2	0x3d9bbe13	0.07604613
3	0xbe01eebf	-0.1268873
4	0xbd3242e9	-0.04352084
5	0xbd21b2f2	-0.039477296
6	0xbe1fd01c	-0.15606731
7	0x3dc40062	0.095703855
8	0x3e5c664f	0.21523403
9	0xbcb350fc	-0.021889202
10	0xbd1328f7	-0.03592774
11	0x3cb8408f	0.022491721
12	0xbce40bff	-0.027837751
13	0x3d612f76	0.054976903
14	0x3e2757a5	0.16342027
15	0x3dc032fb	0.09384724
16	0x3d592d2d	0.0530216
17	0x3dee6e0d	0.11642084
18	0xbe48fc20	-0.19627428
19	0xbd6c43ab	-0.05768172
20	0x3c02cdf9	0.007983678
21	0x3ddebe34	0.10876122
22	0xbe50a78d	-0.20376416
23	0xbc819df4	-0.015822388
24	0x3d51cf53	0.05122311
25	0x3db08402	0.086189285
26	0x3d368385	0.04455902
27	0x3d8d1cb5	0.06890241
28	0xbdd957de	-0.106124625
29	0xbd4282cd	-0.047488023
30	0x3e259db4	0.1617344
31	0x3e15f7bf	0.14645289
32	0x3df1b84c	0.1180273
33	0x3e0e8d25	0.1392103
34	0xbd98da6f	-0.07463538
35	0xbc5835e7	-0.013196445
36	0xbb5cc088	-0.0033684094
37	0x3e029589	0.12752356
38	0xbe3a1cfc	-0.18175119
39	0x3e3c391d	0.18381162
40	0xbe17d25e	-0.14826342
41	0xbb44cccd	-0.0030029297
42	0x3d898fa3	0.0671685
43	0xbe7a16b5	-0.24422725
44	0xbd2f5b7b	-0.042811852
45	0xbdf28339	-0.11841435
46	0x3e1a1710	0.1504786
47	0x3e3eedbd	0.18645377
48	0x3e29b581	0.16573144
49	0x3e98da23	0.29853925
50	0xbe5de034	-0.21667558
51	0xbda5c577	-0.08094304
52	0x3dd51b7b	0.10405632
53	0x3cd2eca9	0.025747614
54	0x3d868bd5	0.065696396
55	0x3e3b5fef	0.18298315
56	0x3bc31098	0.005952906
57	0x3e129a00	0.14316559
58	0x3e291493	0.16511755
59	0xbd0db9ce	-0.034601025
60	0x3e5b4836	0.21414265
61	0x3dc5af01	0.0965252
62	0xbe6497fa	-0.223236
63	0x3d934e94	0.07192722
64	0x3e6b0b2f	0.22953485
65	0x3e011bb2	0.12608221
66	0xbc1e92d5	-0.009678562
67	0xbd2e3caf	-0.04253834
68	0xbd4f9678	-0.050680608
69	0xbb98f0c0	-0.0046673715
70	0xbe408f20	-0.18804598
71	0xbe09689f	-0.13418816
72	0xbd071a4c	-0.032984063
73	0xbd45dfb0	-0.04830903
74	0x3d6b3a31	0.057428543
75	0xbddda63c	-0.10822722
76	0xbd8bb345	-0.06821302
77	0xbe30eb74	-0.17277318
78	0xbbe77b0d	-0.0070642293
79	0xbb4dc381	-0.0031397047
80	0x3e0e03f0	0.1386869
81	0x3d909e6a	0.07061465
82	0xbcdbe6c7	-0.026843442
83	0xbd1ca272	-0.038240857
84	0x3cb27c95	0.021787921
85	0x3d0ba67e	0.034094326
86	0x3c58693b	0.013208683
87	0xbd81e92c	-0.06343302
88	0xbd1dea9f	-0.03855383
89	0xbcbdb60c	-0.023158096
90	0x3d32c800	0.043647766
91	0xbe818450	-0.2529626
92	0x3bee7274	0.0072768275
93	0x3d75f897	0.060051527
94	0xbde324cb	-0.11091002
95	0x3e001ab9	0.12510194
96	0xbd9e6a93	-0.07735171
97	0x3d8743bd	0.06604717
98	0x3d58f55f	0.05296838
99	0xbda871e9	-0.08224852
100	0xbd62a86b	-0.055336397
101	0x3dc6f2c4	0.097142726
102	0xbd485c5c	-0.048916206
103	0x3b1a644e	0.0023558321
104	0x3d80a907	0.062822394
105	0x3c2955ee	0.010335429
106	0xbe1c70e3	-0.15277438
107	0x3cd2d318	0.025735423
108	0x3d5f531f	0.05452263
109	0x3e2a4dd8	0.16631258
110	0xbe43d825	-0.19125421
111	0xbd74ed04	-0.05979635
112	0xbde8a518	-0.11359614
113	0x3cad6800	0.021167755
114	0x3e389a8e	0.18027708
115	0x3dd56ddf	0.10421347
116	0x3e39fa81	0.18161966
117	0x3d9ab82a	0.07554658
118	0x3d680d80	0.0566535
119	0xbd8b9b60	-0.06816745
120	0x3d030730	0.031989276
121	0x3db5e6ed	0.08881936
122	0x3daf6b38	0.08565372
123	0x3dbfc6bd	0.09364078
124	0xbd5ccd31	-0.053906623
125	0x3c2b5d7c	0.0104593
126	0xbde91a2c	-0.11381945
127	0x3d9134d0	0.07090151
128	0x3e2e630f	0.17029975
129	0x3d89b65f	0.06724238
130	0xbdd98f4f	-0.10623037
131	0xbe2ece11	-0.17070796
132	0x3e0d3183	0.13788418
133	0xbd1df161	-0.038560275
134	0xbd8f4891	-0.06996263
135	0x3e95923e	0.29213136
136	0x3d65d8fa	0.056115128
137	0xbe1a3bcd	-0.15061875
138	0x3d63da79	0.055628274
139	0xbdb19036	-0.08670084
140	0x3cf896db	0.030345371
141	0x3e302ab2	0.17203787
142	0x3d7a7ae7	0.061152365
143	0xbd118e40	-0.03553605
144	0x3c9460f5	0.018112639
145	0x3e1690ed	0.14703722
146	0xbd84a1de	-0.06476186
147	0xbdd0e110	-0.10199177
148	0x3e124efe	0.14287946
149	0x3d8a22a4	0.067448884
150	0xbe3b1114	-0.18268234
151	0x3cf62c8d	0.03005054
152	0x3dfd3130	0.123628974
153	0xbda6444f	-0.081184976
154	0x3dc733af	0.09726655
155	0xbe06e8cd	-0.13174744
156	0x3d94fcec	0.072748035
157	0xbde68877	-0.11256497
158	0xbdc53731	-0.096296676
159	0x3ddd62da	0.1080987
160	0x3dd583d2	0.10425533
161	0xbda21e8d	-0.07915983
162	0xbd3e11bd	-0.046403635
163	0xbcb24af5	-0.021764258
164	0xbe6aa576	-0.22914681
165	0x3cd26a70	0.025685519
166	0xbd1acdbb	-0.037793856
167	0x3cd4f2b7	0.025994642
168	0xbcae70a8	-0.021293953
169	0xbd894ea3	-0.06704452
170	0xbbbb2de0	-0.005712256
171	0xbe264ca9	-0.16240181
172	0xbd692755	-0.056922276
173	0x3d8fa2d9	0.070134826
174	0x3d1be8fc	0.038063988
175	0xbcc15a6d	-0.023602689
176	0x3e8b2dfa	0.27183515
177	0xbdd450e3	-0.103669904
178	0xbd3d1775	-0.04616495
179	0x3e277ce4	0.16356236
180	0xbccb661a	-0.02482896
181	0xbdf58597	-0.11988371
182	0xbdf655c7	-0.120280795
183	0xbe2f1257	-0.1709684
184	0xbde762e6	-0.1129816
185	0x3e212dba	0.157401
186	0x3dbfccea	0.09365256
187	0x3d8952e7	0.067052655
188	0xbda5583e	-0.080734715
189	0x3da4cb28	0.080465615
190	0xbe1afed5	-0.15136273
191	0xbe1c6ee6	-0.1527668
192	0x3dbc7e2d	0.092037536
193	0xbdb0265c	-0.086010665
194	0x3ccfe7f6	0.025379162
195	0xbcb50899	-0.022098826
196	0x3dda2fd8	0.10653657
197	0x3d8ea26f	0.069645755
198	0xbdccd30d	-0.10001192
199	0xbc88da00	-0.016705513
200	0xbc7981d8	-0.015228711
201	0xbb1d2fc4	-0.002398477
202	0xbca35447	-0.019937648
203	0x3c739397	0.014866731
204	0x3c2be720	0.010492116
205	0x3d1f08fd	0.03882693
206	0xbd6e4580	-0.05817175
207	0xbc8b8700	-0.017032146
208	0x3d877779	0.066145845
209	0x3dc970f3	0.098359965
210	0xbd0863b7	-0.03329822
211	0x3e5954a4	0.21223694
212	0xbe218917	-0.15774952
213	0xbd473310	-0.04863268
214	0x3d3788b5	0.04480811
215	0x3c4c06a5	0.012452756
216	0x3b823ec9	0.0039747697
217	0x3d9d7bc4	0.07689622
218	0x3e07114b	0.1319019
219	0x3c0dfaa9	0.008665719
220	0x3db7502d	0.08950839
221	0xbd3b2864	-0.045692816
222	0x3c5cb802	0.013471605
223	0x3d8c64e9	0.068551846
224	0xbc92fa4e	-0.01794162
225	0xbda5a68a	-0.080884054
226	0xbdfdc58f	-0.12391197
227	0xbd55fea7	-0.05224481
228	0xbd78eb1c	-0.060771093
229	0x3e00e3b9	0.1258687
230	0xbd925850	-0.071457505
231	0xbd77bd67	-0.060483363
232	0x3de27367	0.110571675
233	0xbdec2b02	-0.115316406
234	0xbd16acdb	-0.03678594
235	0xbd99286b	-0.07478412
236	0x3c5cb27b	0.013470287
237	0xbd3fb83a	-0.04680655
238	0x3dfb4808	0.12269598
239	0x3da2e2ee	0.0795344
240	0x3d83321e	0.064060435
241	0x3bd4b506	0.0064913062
242	0xbdce5290	-0.10074341
243	0xbc5f5532	-0.013631152
244	0xbd8bfc87	-0.06835275
245	0x3df0f5c0	0.11765623
246	0x3d52369e	0.05132162
247	0x3dbb8380	0.09155941
248	0x3e079f4b	0.13244359
249	0x3ddca40b	0.10773476
250	0xbd9fee92	-0.078091756
251	0xbe26146c	-0.16218728
252	0x3dc64715	0.096815266
253	0x3dac1595	0.08402554
254	0x3e55d8fb	0.20883553
255	0xbd0c731d	-0.034289468

edge_in_layers.0.bias f4 [64]
0	0xbe25d7e9	-0.16195644
1	0xbd1d62b0	-0.038424194
2	0xbdd60158	-0.10449475
3	0x3e070133	0.13184051
4	0xbe55653a	-0.20839396
5	0xbda2a0fd	-0.07940862
6	0x3d8d4058	0.06897038
7	0x3d19735d	0.037463535
8	0x3da50345	0.08057264
9	0x3cded039	0.027198898
10	0xbd5693ab	-0.05238692
11	0x3d64b207	0.055833843
12	0x3d9a29e1	0.07527519
13	0x3df464ff	0.11933326
14	0xbdbdb7fa	-0.09263606
15	0xbdfd600d	-0.12371836
16	0x3c9b6bef	0.018972365
17	0xbccee1ad	-0.025254095
18	0xbca00dc2	-0.01953781
19	0x3de79486	0.113076255
20	0xbe325fdb	-0.17419378
21	0x3de258d8	0.11052102
22	0x3da87971	0.08226288
23	0x3ab96791	0.0014145245
24	0x3da82344	0.082098514
25	0x3d97f2fb	0.07419392
26	0x3dc44737	0.09583896
27	0x3e31137a	0.17292586
28	0x3d667076	0.056259595
29	0xbe4c4161	-0.19946815
30	0xbe5a5814	-0.21322662
31	0xbdda5f04	-0.10662654
32	0x3dce4c8a	0.100731924
33	0x3dcbc8d4	0.09950414
34	0xbe02595b	-0.12729399
35	0xbda1453e	-0.07874535
36	0x3d86027a	0.06543441
37	0xbe0272f2	-0.1273916
38	0x3c0ecda0	0.008716017
39	0x3c99c685	0.01877142
40	0xbe0a4421	-0.13502552
41	0x3b3ed979	0.0029121323
42	0x3de0190d	0.10942278
43	0xbd8478ca	-0.06468351
44	0x3d58c723	0.052924287
45	0xbdc29085	-0.09500221
46	0xbd6fbade	-0.05852782
47	0xbcf1182e	-0.029430475
48	0xbd3ce937	-0.04612085
49	0x3dc7c7e7	0.09754925
50	0x3e565902	0.20932391
51	0xbd5c7284	-0.053820148
52	0x3d3519e2	0.044214137
53	0xbe3915cc	-0.18074721
54	0xbda03774	-0.07823077
55	0x3e4431e2	0.19159654
56	0x3dce1c9f	0.10064053
57	0xbde437ad	-0.11143432
58	0x3dbc6691	0.091992505
59	0xbd37a378	-0.04483363
60	0x3d133c3f	0.035946127
61	0xbc1b60d4	-0.009483535
62	0xbdcdda05	-0.100513496
63	0xbce09d69	-0.027418809

edge_in_layers.1.weight f4 [64, 42]
0	0xbbb3dd26	-0.0054890094
1	0xbda2f42b	-0.079567276
2	0xbdda4109	-0.10656936
3	0xbdaeaeeb	-0.08529457
4	0x3d020283	0.031740677
5	0x3d292c03	0.04130174
6	0x3da60fc0	0.08108473
7	0xbb2c36d3	-0.0026277795
8	0x3e6dd4f2	0.23225763
9	0xbe32830b	-0.17432801
10	0xbcce7fd6	-0.025207441
11	0x3e43aeca	0.19109645
12	0x3c4edda0	0.012626082
13	0xbde33dab	-0.110957466
14	0xbdfe0b5d	-0.12404511
15	0x3e103c7e	0.14085576
16	0xbda23cf4	-0.07921782
17	0x3daa0b9d	0.08302996
18	0xbc61d6ca	-0.01378412
19	0xbdc99738	-0.09843296
20	0xbd9a6cc0	-0.07540274
21	0x3dcd8bfa	0.10036464
22	0xbdf587df	-0.11988806
23	0xbd8681ee	-0.06567751
24	0x3e0ef5da	0.13960972
25	0x3d3fdbac	0.046840355
26	0xbe1003e0	-0.14063978
27	0x3de3902f	0.11111485
28	0xbdba05b0	-0.09083116
29	0x3dd5cd2a	0.104395226
30	0xbd52f338	-0.051501483
31	0xbc4159d3	-0.011801201
32	0x3e0d5101	0.13800432
33	0x3d803e51	0.06261886
34	0x3d786a15	0.060648043
35	0x3d9fc0a5	0.07800416
36	0x3bf71d0b	0.007541304
37	0x3dff52e4	0.12466982
38	0x3e19ea43	0.1503077
39	0x3cfa2613	0.030535733
40	0x3e04def5	0.12975676
41	0xbbfb05cf	-0.0076606045
42	0xbdf15c0e	-0.11785136
43	0x3e4831e5	0.19550283
44	0xbe1b2b14	-0.15153152
45	0xbc5317da	-0.012884105
46	0x3e13ae27	0.14421903
47	0xbd38a776	-0.04508158
48	0x3e076768	0.1322304
49	0xbc64caff	-0.013964414
50	0xbdd0e0e1	-0.10199142
51	0xbd0b9356	-0.034076057
52	0xbd145363	-0.036212336
53	0x3aa78a39	0.0012782282
54	0xbc590ffa	-0.013248438
55	0xbdb964f0	-0.090524554
56	0x3d1209d7	0.035653915
57	0x3e28cd03	0.16484456
58	0xbcc43860	-0.023952663
59	0xbd5c3f29	-0.05377117
60	0xbca4170b	-0.020030519
61	0xbce35f3b	-0.02775537
62	0xbdacd53e	-0.0843911
63	0x3da763b2	0.08173312
64	0xbe353f7e	-0.17700002
65	0x3cfb4c77	0.03067611
66	0x3d309e5c	0.043119773
67	0xbd3689f0	-0.04456514
68	0xbe2c0fa7	-0.16802846
69	0xbdda75ed	-0.10667024
70	0x3e3b553f	0.18294238
71	0xbda06715	-0.07832161
72	0x3d057674	0.03258367
73	0x3de3287b	0.110917054
74	0x3e21fb17	0.1581844
75	0xbcca44cf	-0.024691014
76	0xbd8aace9	-0.06771261
77	0x3d1b849a	0.037968256
78	0x3d02b644	0.031912103
79	0xbda4c9fc	-0.08046338
80	0x3dfd597e	0.12370585
81	0x3d8d7790	0.0690757
82	0xbe0c88e7	-0.13724099
83	0x3d422451	0.047397915
84	0xbddac4aa	-0.10682042
85	0xbdef32c2	-0.11679603
86	0xbdbe087d	-0.09278963
87	0xbe21b09d	-0.15790029
88	0x3cdaafa0	0.026695073
89	0x3e648304	0.22315603
90	0xbde02caa	-0.10946019
91	0xbe1b28e0	-0.15152311
92	0x3cf49c8a	0.0298598
93	0x3da9dd38	0.08294147
94	0xbd7c4f62	-0.061599143
95	0xbdc21fde	-0.094787344
96	0x3c5d1e9d	0.013496068
97	0x3da19ebd	0.07891605
98	0xbdea5acf	-0.114431016
99	0x3dd03196	0.10165708
100	0xbd1ad7bb	-0.037803393
101	0xbdba79d8	-0.09105271
102	0xbd4674fc	-0.04845141
103	0xbd9475b4	-0.072490126
104	0x3df21d73	0.11822023
105	0x3dd83474	0.1055688
106	0xbe38f66b	-0.18062751
107	0xbe2b6c84	-0.16740614
108	0xbcac1059	-0.021003889
109	0xbd098dfe	-0.03358268
110	0xbcde6f4e	-0.027152684
111	0x3d239c71	0.039944116
112	0x3e2b2192	0.16712025
113	0x3d0e29cd	0.034707833
114	0xbd50a64b	-0.05093984
115	0xbd03e539	-0.032201026
116	0xbd6a289e	-0.05716764
117	0x3c9a643b	0.018846622
118	0xbe114719	-0.14187278
119	0xbe580f33	-0.21099548
120	0xbdeaea4c	-0.1147047
121	0x3bcae988	0.00619239
122	0x3e27f76b	0.16402976
123	0xbd956df6	-0.07296364
124	0x3c1a80e1	0.009430141
125	0x3db338b1	0.087510474
126	0xbd14c177	-0.036317315
127	0xbe7ae738	-0.24502265
128	0xbc879f3a	-0.016555417
129	0x3da04607	0.07825857
130	0xbb766bc9	-0.0037600866
131	0x3dc52910	0.09626973
132	0x3e34f487	0.17671405
133	0x3d0ab44c	0.03386335
134	0xbe18577d	-0.14877124
135	0x3df68a05	0.12038044
136	0x3e006f1b	0.12542383
137	0xbd45a6b2	-0.048254676
138	0x3d4bf68b	0.04979567
139	0xbc2ad9de	-0.01042792
140	0x3d7f3b6b	0.062312525
141	0xbd9ce07f	-0.07660007
142	0xbe0b5a1e	-0.13608596
143	0x3d0f5c55	0.035000164
144	0xbdc11694	-0.094281346
145	0x3dd1a63e	0.10236786
146	0xbe52b7b5	-0.20577891
147	0xbe878aff	-0.26473233
148	0x3e18b364	0.14912182
149	0x3d662af3	0.056193303
150	0x3e4d38be	0.20041177
151	0x3e7f000a	0.24902359
152	0x3e036655	0.12832005
153	0xbdaae57b	-0.08344551
154	0xbe4c8c20	-0.19975328
155	0x3cc68c99	0.024236964
156	0x3cd6f3af	0.026239244
157	0x3d33f958	0.043938965
158	0xbe1e072e	-0.15432426
159	0xbe5e1faf	-0.21691774
160	0xbd67d45f	-0.056599017
161	0xbc76ee45	-0.015071456
162	0x3e507629	0.20357575
163	0xbe02da04	-0.12778479
164	0xbe2f29d1	-0.17105795
165	0xbd6c62ce	-0.057711415
166	0x3d8542c4	0.06506875
167	0x3e77bdb3	0.24193458
168	0x3e17908d	0.14801235
169	0x3b3ac3ee	0.002849813
170	0xbd094d8c	-0.03352122
171	0xbd952495	-0.07282368
172	0xbe257e54	-0.16161472
173	0xbd966997	-0.073443584
174	0x3df1b227	0.11801558
175	0xbc4b4089	-0.012405523
176	0xbd49b5d9	-0.04924569
177	0xbce76f98	-0.028251454
178	0xbd38684e	-0.045021348
179	0x3da5a6c5	0.080884494
180	0x3da49437	0.08036082
181	0xbd3a215b	-0.045441967
182	0xbd70407d	-0.05865525
183	0x3df864fa	0.12128635
184	0xbdc7c566	-0.09754448
185	0xbdd0a246	-0.10187201
186	0x3c3a7729	0.011380949
187	0xbd98b8a5	-0.07457093
188	0x3dd41438	0.10355419
189	0x3d131be8	0.035915285
190	0x3e1103a2	0.14161542
191	0x3e28ff03	0.16503529
192	0xbdd66179	-0.1046781
193	0x3e0c1f91	0.13683917
194	0x3db17be2	0.08666207
195	0x3e3ba78b	0.18325631
196	0x3d444530	0.047917545
197	0xbddebe32	-0.108761206
198	0x3c9ff901	0.019527914
199	0x3dd62821	0.10456873
200	0x3d5ddd8a	0.054166354
201	0x3dd02d58	0.10164899
202	0x3dd413a2	0.10355307
203	0xbc90adb1	-0.017660948
204	0x3da84777	0.08216756
205	0xbd8e2f1a	-0.06942578
206	0x3e4865e2	0.19570115
207	0xbdb7f9ac	-0.08983168
208	0xbd93ba4e	-0.07213269
209	0xbd416912	-0.047219343
210	0x3d47cc6d	0.04877894
211	0xbdcb12fb	-0.099157296
212	0x3da8a0dc	0.082338065
213	0xbe0dc256	-0.13843665
214	0x3d5d1c03	0.053981792
215	0x3c628bb8	0.013827257
216	0xbdd80e28	-0.10549575
217	0x3e2cfe23	0.1689382
218	0x3d956ff5	0.07296745
219	0x3e277bca	0.16355816
220	0x3d834a8f	0.06410705
221	0xbd705ff0	-0.058685243
222	0x3c1943bb	0.009354527
223	0x3cc9018e	0.024536874
224	0x3c466f55	0.012111505
225	0xbe07d581	-0.13265039
226	0xbe07ab94	-0.13249046
227	0xbcd01830	-0.025402158
228	0xbdc655b2	-0.09684314
229	0xbb9f7ed5	-0.0048674145
230	0xbdaadaab	-0.08342489
231	0xbe47bfcf	-0.19506763
232	0x3d8922f6	0.066961214
233	0xbddd6af5	-0.10811416
234	0x3e163f12	0.14672497
235	0xbd18f5fd	-0.037343968
236	0x3c90b708	0.017665401
237	0xbbc51087	-0.006013933
238	0x3d224e43	0.039625417
239	0xbe41f8da	-0.18942586
240	0x3e162824	0.1466375
241	0xbd224896	-0.039620005
242	0x3d631bb5	0.055446345
243	0xbe2dccda	-0.16972676
244	0x3d874e16	0.066066906
245	0x3db6d3e4	0.08927134
246	0x3e1ad4c2	0.15120223
247	0x3dc4886c	0.09596333
248	0x3de9cc58	0.114159286
249	0x3dd34c27	0.10317259
250	0xba50206d	-0.0007939402
251	0xbd36d845	-0.044639844
252	0xbc48e34d	-0.012261224
253	0x3df73ce3	0.1207216
254	0x3dd529b7	0.10408347
255	0x3dc1c09e	0.09460567

edge_in_layers.1.bias f4 [64]
0	0xbe1dd7df	-0.1541438
1	0x3d87811e	0.06616424
2	0xbe3cd147	-0.18439208
3	0x3d186ad3	0.03721125
4	0xbcf1c827	-0.029514385
5	0x3d55b0aa	0.052170433
6	0xbe24ea58	-0.1610502
7	0xbe15d367	-0.14631425
8	0x3e1f66ce	0.1556656
9	0xbcbb7717	-0.022883935
10	0x3d9d2ba1	0.07674337
11	0xbe07c508	-0.13258755
12	0x3e2fe222	0.17176107
13	0xbe0b5824	-0.13607842
14	0x3daac94c	0.083391756
15	0xbd12f6ad	-0.03587978
16	0xbd8ff54b	-0.07029208
17	0xbd6f8e75	-0.058485467
18	0xbdaca7d9	-0.08430452
19	0xbd0bb095	-0.03410395
20	0x3cb51476	0.022104483
21	0xbd4e903e	-0.05043053
22	0x3d41187f	0.047142502
23	0x3d036583	0.03207923
24	0x3df0cc97	0.117577724
25	0xbe190076	-0.14941582
26	0x3d89bd09	0.06725509
27	0xbdd9c6b6	-0.10633604
28	0xbc87c966	-0.016575526
29	0xbc84ca4b	-0.016209742
30	0xbce724db	-0.028215816
31	0x3dfb209b	0.122620784
32	0xbdec6cf1	-0.115442164
33	0xbce278b2	-0.027645443
34	0xbc31be2b	-0.010848562
35	0x3de2726a	0.11056979
36	0x3d26e530	0.040745914
37	0x3e0d8bf9	0.13822927
38	0x3dacb9ec	0.08433899
39	0xbd529e76	-0.05142065
40	0xbd8eb985	-0.06968979
41	0xbe468679	-0.19387235
42	0xbe5dbf78	-0.21655071
43	0x3bae5a15	0.005320797
44	0x3dd5aef2	0.10433759
45	0x3b42ceac	0.0029725237
46	0x3df1b4fe	0.118021
47	0x3d6d1997	0.057885733
48	0xbd8c13c9	-0.06839711
49	0xbdf48043	-0.119385265
50	0x3d383fe7	0.044982817
51	0x3dd4c2c5	0.10388712
52	0xbdb863b4	-0.09003392
53	0xbda65643	-0.08121922
54	0xbdfb49a3	-0.122699045
55	0xbe127b25	-0.14304788
56	0x3df8bab9	0.121449895
57	0x3dc1f99a	0.09471436
58	0xbda53a22	-0.080677286
59	0x3df6fe9f	0.12060284
60	0xbe01768d	-0.1264288
61	0xbc86138c	-0.016366743
62	0x3e27cf5e	0.16387698
63	0x3e129250	0.14313626

edge_layers.0.transformer_encoder.layers.0.self_attn.in_proj_weight f4 [192, 64]
0	0x3e530240	0.20606327
1	0xbc71eec3	-0.014766398
2	0x3b176930	0.0023103468
3	0x3dc8c3ea	0.09802993
4	0x3e117507	0.14204799
5	0xbd9db050	-0.076996446
6	0x3e334d35	0.17509921
7	0xbd34035a	-0.04394851
8	0x3e12c218	0.14331853
9	0x3cf333c5	0.029687772
10	0x3dc2e085	0.0951548
11	0xbd779a2e	-0.06044977
12	0xbde30e62	-0.11086728
13	0xbd90621b	-0.07049962
14	0xbc9fdf68	-0.019515708
15	0x3ddec71a	0.10877819
16	0x3de1f9f5	0.11034004
17	0x3c8f6421	0.0175038
18	0x3e5fe1e0	0.21863508
19	0xbe09484d	-0.13406487
20	0xbdd05805	-0.101730384
21	0xbdfa9508	-0.12235457
22	0x3d77f7c2	0.060539015
23	0x3d52163c	0.051290736
24	0x3e87f7c4	0.26556218
25	0x3e438e4b	0.19097249
26	0xbd49ad68	-0.04923764
27	0x3e3ff795	0.18746789
28	0x3ded990b	0.11601456
29	0xbdf26d49	-0.11837251
30	0xbdda0c41	-0.106468685
31	0x3e2bfd0f	0.16795753
32	0x3ddc9257	0.107700996
33	0x3d97b922	0.07408358
34	0xbd8fddb6	-0.0702471
35	0x3da965b1	0.08271349
36	0x3d4035aa	0.046926178
37	0xbe29cf3c	-0.1658296
38	0xbd847b5f	-0.06468844
39	0xbdbd0893	-0.09230151
40	0x3d956430	0.072945
41	0x3d14f0c2	0.036362417
42	0xbd0148c3	-0.03156353
43	0xbe4c4343	-0.19947533
44	0xbdca57a3	-0.09879997
45	0xbe1a374a	-0.15060154
46	0x3dfd1e7a	0.123593286
47	0x3d776522	0.060399182
48	0x3e12a4a8	0.14320624
49	0xbd9b2326	-0.075750634
50	0xbd4c1c8b	-0.04983191
51	0x3d47fa9b	0.04882298
52	0xbc04e6ee	-0.008111699
53	0x3e26673a	0.16250315
54	0x3e1242b3	0.14283256
55	0x3e4f9cd3	0.20274667
56	0x3708bc98	8.150142e-06
57	0x3df7bb3d	0.1209626
58	0xbd19fea0	-0.037596345
59	0x3de4597a	0.11149879
60	0xbdf8af21	-0.12142778
61	0xbe15733c	-0.1459474
62	0x3dbd5fac	0.092467636
63	0x3c199306	0.009373432
64	0x3d4239c9	0.04741839
65	0x3d9d597a	0.07683082
66	0xbd59fe1f	-0.053220864
67	0x3e45d3f3	0.19319133
68	0x3e24c418	0.16090429
69	0x3d593af6	0.053034745
70	0x3e14aa1e	0.1451802
71	0x3e1668ec	0.14688462
72	0x3e5cd437	0.21565329
73	0x3e1c9b76	0.15293679
74	0x3e228916	0.15872607
75	0x3e345235	0.17609484
76	0x3e02de15	0.1278003
77	0xbd90be61	-0.07067562
78	0x3d91f857	0.07127445
79	0x3cc00b7c	0.023442976
80	0x3dfa9267	0.12234955
81	0xbd9295ec	-0.071575016
82	0x3d872107	0.06598096
83	0xbd0760a5	-0.03305115
84	0xbc01af0c	-0.00791527
85	0x3e212be2	0.15739396
86	0x3e3f3a86	0.18674669
87	0x3d9bdfad	0.07611022
88	0x3daaba70	0.083363414
89	0x3d412000	0.04714966
90	0xbb279ace	-0.0025574449
91	0x3e8341c1	0.25636104
92	0x3d394d6d	0.045239855
93	0xbd1c8025	-0.038208146
94	0x3da25769	0.079268284
95	0xbd496dd9	-0.049177025
96	0xbd9c2fe7	-0.07626324
97	0x3d92062f	0.07130086
98	0x3e2a8913	0.16653852
99	0xbb44365d	-0.002993963
100	0x3d47c4c4	0.048771635
101	0x3ccc6c2c	0.024953924
102	0x3da82a2f	0.08211171
103	0x3da2ed75	0.079554476
104	0x3d8b39c1	0.06798125
105	0x3e013d68	0.12621081
106	0x3dc678e7	0.09691029
107	0x3db978f8	0.09056276
108	0xbe01d659	-0.12679423
109	0xbd74324b	-0.059618276
110	0x3d6f6e45	0.05845477
111	0x3d5ba9db	0.053628784
112	0x3ca08b05	0.01959754
113	0x3c0360fb	0.008018727
114	0x3cc772a9	0.024346666
115	0x3df06efc	0.117399186
116	0x3e0280a5	0.12744386
117	0x3d4df03c	0.050277933
118	0xbc9595ec	-0.018259965
119	0xbc941f95	-0.018081466
120	0x3df7be64	0.12096861
121	0x3dd83515	0.105569996
122	0x3e383af1	0.17991234
123	0x3d64773f	0.055777784
124	0x3d81a930	0.06331098
125	0xbcb88c26	-0.022527765
126	0x3e04ec1a	0.1298069
127	0x3bdc8b20	0.006730452
128	0x3cd12ea1	0.02553493
129	0xbdb55a17	-0.08855074
130	0xbda79821	-0.08183313
131	0x3e10d3be	0.14143273
132	0x3dc59ce0	0.09649062
133	0x3d5241ab	0.051332157
134	0x3e619158	0.220281
135	0x3e6d64df	0.2318301
136	0x3d8f2221	0.069889314
137	0x3e3afc34	0.1826027
138	0xbd1bcae3	-0.038035285
139	0x3c7e00a0	0.015503079
140	0x3db439ba	0.08800073
141	0x3ddbf1c7	0.10739475
142	0xbd766cad	-0.060162235
143	0x3e0f8484	0.14015394
144	0x3ccd0e7c	0.02503132
145	0x3b00a88b	0.001963171
146	0xbad2e01c	-0.0016088518
147	0x3e122e52	0.14275482
148	0x3bf54694	0.00748522
149	0x3da570c4	0.08078149
150	0x3cbf98ed	0.02338835
151	0x3e82826e	0.25490135
152	0x3da42ecd	0.08016739
153	0x3d91a021	0.0711062
154	0xbd8ea17c	-0.069643945
155	0x3e0d8de3	0.13823657
156	0x3dc94803	0.09828188
157	0x3d3f319a	0.046678163
158	0xbc8d896d	-0.017277444
159	0x3e0f5bbe	0.1399984
160	0x3dd4e2b2	0.10394801
161	0x3d092fe2	0.03349293
162	0x3e8ccb12	0.2749868
163	0x3e2d59e2	0.16928819
164	0x3c8e4a52	0.017369423
165	0xbdc9351c	-0.09824583
166	0xbd341919	-0.043969247
167	0xbdb37b9d	-0.08763812
168	0x3d3f40f1	0.046692792
169	0x3e01d81d	0.12680097
170	0x3e23e8ca	0.1600677
171	0xbbb3acb6	-0.005483235
172	0xbd812563	-0.06305959
173	0x3e0ae7bf	0.13564967
174	0x3e2077f2	0.15670756
175	0x3d99615b	0.07489272
176	0x3e30ee10	0.17278314
177	0x3db73d7f	0.08947276
178	0xbcf40f8e	-0.029792573
179	0x3e857c26	0.2607128
180	0xbd7c8799	-0.061652754
181	0xbdb87085	-0.090058364
182	0xbd990258	-0.0747115
183	0xbdbd3057	-0.09237736
184	0x3d1f6b11	0.038920466
185	0x3e005f25	0.12536295
186	0x3dd71ad0	0.10503161
187	0x3d98f7b7	0.07469123
188	0x3e700ec6	0.23443136
189	0xbd088dc7	-0.033338334
190	0x3d8bcfc5	0.06826738
191	0x3d10233e	0.03518986
192	0xbe344633	-0.17604904
193	0x3dc8db4e	0.09807454
194	0xbd7bee1e	-0.061506383
195	0xbe85bd7f	-0.26121137
196	0xbd92eadf	-0.07173704
197	0x3da0b530	0.07847059
198	0xbca10b37	-0.019658668
199	0xbd3f7898	-0.046745867
200	0xbd412b74	-0.04716058
201	0x3e612118	0.2198528
202	0x3cd0457a	0.025423754
203	0xbe9518ba	-0.29120427
204	0xbd0ba861	-0.034096126
205	0x3d285208	0.041093856
206	0xbcd7a1f5	-0.026322344
207	0x3dcf1f50	0.10113394
208	0xbc83f4c6	-0.016107928
209	0x3de25034	0.11050454
210	0xbde4fb8c	-0.11180791
211	0x3c4d6039	0.012535148
212	0xbdba32a1	-0.09091688
213	0xbd8c9025	-0.06863431
214	0xbe1431bb	-0.14472096
215	0xbd6ead26	-0.058270596
216	0xbe0ec259	-0.13941325
217	0xbe2de973	-0.16983585
218	0xbdd07d08	-0.10180098
219	0xbe381545	-0.17976864
220	0xbdadd541	-0.084879406
221	0x3d7ec831	0.062202636
222	0x3e036188	0.12830174
223	0x3cdb7032	0.026786897
224	0x3df0052e	0.11719738
225	0xbcf17e07	-0.02947904
226	0xbdf69383	-0.120398544
227	0xbd2d65ca	-0.0423334
228	0xbe32d82e	-0.17465279
229	0x3e1af1a0	0.15131235
230	0xbe6dc4fe	-0.23219678
231	0xbd1ec163	-0.038758647
232	0x3bb8ba64	0.005637454
233	0x3cfc9057	0.030830545
234	0xbd87cace	-0.06630479
235	0x3cbbe6cc	0.022937201
236	0x3e1feaf8	0.15616977
237	0xbd7cf259	-0.06175456
238	0xbe248f65	-0.16070326
239	0x3e2a541a	0.16633645
240	0xbd26a734	-0.0406868
241	0xbdb3228e	-0.08746825
242	0xbe8a3286	-0.2699167
243	0xbd531865	-0.051536936
244	0xbcd2cdf8	-0.02573298
245	0xbdc5c1e7	-0.096561246
246	0xbe75c8d5	-0.24002393
247	0x3ac0c0f8	0.0014705947
248	0x3d107fdf	0.035278197
249	0xbc253623	-0.010083708
250	0xbe17a0ff	-0.14807509
251	0xbd742cd1	-0.059613053
252	0xbe6fd873	-0.23422413
253	0xbdc23fb1	-0.094848044
254	0xbe2bf38f	-0.16792129
255	0xbdda7ace	-0.106679544

edge_layers.0.transformer_encoder.layers.0.self_attn.in_proj_bias f4 [192]
0	0x3d4be34f	0.049777325
1	0x3d82890f	0.06373798
2	0x3e033e7b	0.12816803
3	0xbdc61328	-0.096716225
4	0x3d044827	0.032295372
5	0x3d957701	0.07298089
6	0x3dc51312	0.09622778
7	0x3d8f9b17	0.07012003
8	0x3aa9dcd4	0.0012959489
9	0x3cba6494	0.022753038
10	0xbd076af0	-0.033060968
11	0xbdae518c	-0.085116476
12	0xbd106728	-0.035254627
13	0x3bcd795c	0.0062705707
14	0x3e25697f	0.16153525
15	0xbc379a6e	-0.0112062525
16	0x3cb2ddc4	0.021834262
17	0x3cd21eba	0.025649417
18	0x3d2f2c80	0.042767048
19	0x3db88290	0.09009278
20	0xbd1f8e56	-0.0389541
21	0xbc060b74	-0.008181442
22	0x3d9dc6fa	0.077039674
23	0xbdbc117b	-0.09183022
24	0xbd03ea7b	-0.03220604
25	0x3cbd216b	0.023087224
26	0xbd52c68e	-0.051458888
27	0x3d5b7c84	0.053585544
28	0xbd83e875	-0.06440822
29	0xbcff8062	-0.031189147
30	0xbdc96803	-0.09834292
31	0x3cd27fa1	0.025695624
32	0xbd588322	-0.052859433
33	0x3d9556b5	0.07291929
34	0xbdc1f5f0	-0.09470737
35	0x3d7e5b05	0.06209852
36	0xbcecd2ea	-0.028909165
37	0xbd40f449	-0.04710797
38	0x3d2f9807	0.042869594
39	0xbc83b4e9	-0.016077476
40	0x3dada50f	0.08478748
41	0xbdf71069	-0.12063677
42	0x3e1d7afd	0.15378948
43	0x3e1e5c07	0.15464793
44	0xbbe18b3e	-0.006883054
45	0xbd491ea0	-0.049101472
46	0xbda8155f	-0.08207201
47	0xbe458b4f	-0.19291423
48	0xbe017bb8	-0.12644851
49	0x3d68d36c	0.056842253
50	0xbddb5c73	-0.10710993
51	0x3d37b7f4	0.044853166
52	0x3d8d3b03	0.06896021
53	0x3c3c3a22	0.011488469
54	0xbde59790	-0.11210549
55	0x3c02fd2a	0.007994929
56	0xbcd3109c	-0.025764756
57	0x3d846c27	0.06465941
58	0xbc8ccc0e	-0.017187145
59	0x3d308965	0.04309978
60	0x3c91fc9f	0.017820654
61	0xbd94088a	-0.07228191
62	0xbddd1bc8	-0.107963145
63	0xbd6c6104	-0.05770971
64	0xb68c2817	-4.176992e-06
65	0xb70bdcee	-8.336485e-06
66	0xb601a534	-1.9318659e-06
67	0x36e2db32	6.7608426e-06
68	0xb6b1ace8	-5.29514e-06
69	0xb74bf5bb	-1.21569565e-05
70	0xb6b32aa6	-5.3395806e-06
71	0xb733cac9	-1.0716446e-05
72	0xb6656a6a	-3.41856e-06
73	0xb6eafcea	-7.0031865e-06
74	0x3727c8e0	1.00007455e-05
75	0x35ac629f	1.2843701e-06
76	0xb5bcf762	-1.4079089e-06
77	0xb660a943	-3.3477124e-06
78	0xb73b88ea	-1.1177946e-05
79	0x36128dda	2.1838264e-06
80	0xb73b0fa8	-1.1149714e-05
81	0x36f1968f	7.199887e-06
82	0xb33d2b8a	-4.404459e-08
83	0xb520066e	-5.9614e-07
84	0x35e2c513	1.6895668e-06
85	0xb7390cf1	-1.1029872e-05
86	0xb763f107	-1.3586373e-05
87	0x36be4132	5.670031e-06
88	0xb3f5e0d9	-1.1449601e-07
89	0xb6a7a93a	-4.9966884e-06
90	0x3690cbb8	4.3152504e-06
91	0x374ae866	1.2094248e-05
92	0x371588be	8.91293e-06
93	0x373167d4	1.05741965e-05
94	0x35c63dd4	1.4770144e-06
95	0xb6ce9eb5	-6.1577543e-06
96	0xb6aff40e	-5.243818e-06
97	0x3711b511	8.684831e-06
98	0xb708755d	-8.1335575e-06
99	0x372478b4	9.803265e-06
100	0x365fce71	3.3349754e-06
101	0xb6e7396e	-6.891022e-06
102	0x358dfd40	1.0579024e-06
103	0xb69900b9	-4.5598395e-06
104	0x36c0e5f3	5.7488155e-06
105	0xb70e071d	-8.465516e-06
106	0x37a8e2eb	2.0132828e-05
107	0x3735dadf	1.0839401e-05
108	0xb6ad0763	-5.1566617e-06
109	0xb61902f5	-2.2800498e-06
110	0xb71ab5f6	-9.221481e-06
111	0xb756a10c	-1.2792891e-05
112	0x377da932	1.5119369e-05
113	0xb7247b4d	-9.80387e-06
114	0x37048f7f	7.901223e-06
115	0x3580851e	9.575485e-07
116	0xb6e0b6fd	-6.697023e-06
117	0xb6827091	-3.8874064e-06
118	0x378296d3	1.556744e-05
119	0xb68497bd	-3.951571e-06
120	0x35c605b9	1.4753815e-06
121	0xb6737ee5	-3.6283684e-06
122	0x36e2af2a	6.7557166e-06
123	0xb53a4522	-6.9391e-07
124	0xb5a77bc8	-1.2478495e-06
125	0xb633204e	-2.6691882e-06
126	0x3713da00	8.81264e-06
127	0x37688bfd	1.3860871e-05
128	0xbc6bea8b	-0.014399181
129	0xbc1988c5	-0.009370987
130	0x3da80f85	0.08206085
131	0x3ddaab28	0.10677177
132	0xbd9e6697	-0.07734411
133	0x3da2e4c6	0.07953791
134	0xbc2738f0	-0.010206446
135	0xbdd8d1ae	-0.10586868
136	0x3d0529f6	0.03251072
137	0x3d0d9691	0.03456742
138	0x3bad078f	0.005280442
139	0xbd80eec4	-0.06295541
140	0x3ca20924	0.01977975
141	0xbd25bdd1	-0.040464226
142	0xbdeec2e0	-0.11658263
143	0x3d585124	0.052811757
144	0x3cb9f5ec	0.022700273
145	0x3da6ec71	0.08150566
146	0x3db7601e	0.0895388
147	0x3d3f26a0	0.046667695
148	0xbdbc68bd	-0.09199665
149	0x3d06dbb0	0.032924354
150	0xbe208e73	-0.1567934
151	0x3d6ee7ef	0.058326658
152	0xb9fcbe7c	-0.00048207107
153	0xbafca1fc	-0.0019274349
154	0x3ce604f0	0.028078526
155	0xbb1fcbcd	-0.002438295
156	0x3c899196	0.016793054
157	0x3c292036	0.010322621
158	0xbcfca52c	-0.030840479
159	0xbd95fd90	-0.07323754
160	0x3d0c9ff0	0.034332216
161	0xbb5ac4c4	-0.0033381442
162	0xbd7e2c9f	-0.062054273
163	0x3d4ee3aa	0.050510086
164	0x3dd12355	0.10211817
165	0xbd8deac1	-0.069295414
166	0xbbd73740	-0.0065678656
167	0x3bd01488	0.0063501038
168	0x3dbe4e89	0.09292323
169	0x3b1a13b4	0.002351028
170	0xbde4e4c4	-0.11176446
171	0xbe034770	-0.1282022
172	0xbc099546	-0.008397406
173	0xbc126ae4	-0.0089366175
174	0xbcedc657	-0.02902524
175	0x3bf2f974	0.007414991
176	0xbd498481	-0.04919863
177	0xbd3122c8	-0.04324606
178	0xbd244f2f	-0.040114578
179	0xbc8d0c3d	-0.01721775
180	0xbc17de91	-0.009269373
181	0x3b0b6b7e	0.0021273787
182	0xbdd042c6	-0.10168986
183	0xbb68b416	-0.003550773
184	0xbd0cbe84	-0.034361377
185	0x3c1be6dd	0.009515491
186	0x3d5caece	0.053877644
187	0x3d30d792	0.043174334
188	0x3c8291bb	0.01593863
189	0x3dba2ad1	0.09090198
190	0xbd0e0b55	-0.034678776
191	0x3d87ea11	0.066364415

edge_layers.0.transformer_encoder.layers.0.self_attn.out_proj.weight f4 [64, 64]
0	0xbd9ce210	-0.076603055
1	0x3d984254	0.07434526
2	0xbd33c696	-0.04389056
3	0x3d086d29	0.03330723
4	0x3d1a1727	0.037619736
5	0x3d0c4ca4	0.034252778
6	0x3cd2e0dd	0.025741989
7	0x3e1ac923	0.1511579
8	0x3d115385	0.03548004
9	0xbd393684	-0.045218006
10	0xbcb233fe	-0.021753307
11	0xbd8c7b6a	-0.06859477
12	0xbc38a804	-0.011270527
13	0x3dc8cb91	0.09804452
14	0x3e0d1d5a	0.13780728
15	0x3da1c106	0.078981444
16	0xbe0063fd	-0.12538143
17	0xbd54d653	-0.051962208
18	0xbd0c3ddc	-0.03423868
19	0xbdff11c1	-0.12454558
20	0x3d7c4d21	0.061596993
21	0x3db8dfbf	0.09027051
22	0xbda09042	-0.07840015
23	0xbd7fa244	-0.062410608
24	0xbd078356	-0.033084236
25	0xbd5db117	-0.054123964
26	0x3db8a4d7	0.09015816
27	0xbdd579af	-0.104236
28	0x3c10aa99	0.008829736
29	0xbe277484	-0.16353041
30	0x3d139e68	0.03603974
31	0x3d8977b8	0.06712288
32	0x3d04adad	0.032392193
33	0xbb842be7	-0.004033554
34	0xbe0954d0	-0.1341126
35	0xbc123be4	-0.008925412
36	0x3d4be840	0.049782038
37	0x3e01f0ae	0.12689468
38	0xbe1a81f6	-0.15088639
39	0xbd7a78b7	-0.06115028
40	0xbdff059f	-0.12452244
41	0xbc67a01b	-0.014137293
42	0xbdbf4fbe	-0.093413815
43	0x3cb90174	0.0225837
44	0xbc183003	-0.009288791
45	0xbdb25289	-0.087071486
46	0xbcf6b2d0	-0.030114561
47	0x3e015fa1	0.12634136
48	0x3dcdc5bc	0.100474805
49	0x3e0a5fa0	0.1351304
50	0x3dc501f4	0.09619513
51	0x3cbca83c	0.02302944
52	0xbd8e8a8e	-0.06960021
53	0xbe0648b4	-0.13113672
54	0x3d15fd2b	0.036618393
55	0x3dd0017b	0.101565324
56	0x3d349d50	0.044095337
57	0x3d8b85b5	0.06812612
58	0x3ce04664	0.027377315
59	0xbdc5135a	-0.09622832
60	0x3d7344e9	0.05939189
61	0xbd37f663	-0.044912707
62	0xbcb49eda	-0.022048403
63	0xbd603375	-0.054736573
64	0xbe3277b3	-0.17428474
65	0x3ce98f29	0.028510647
66	0x3db1a55e	0.086741194
67	0x3da4ce02	0.08047105
68	0xbd8656dd	-0.065595366
69	0xbd057acb	-0.032587808
70	0x3cc32d7d	0.023825401
71	0x3d1d452d	0.03839605
72	0x3d30bd3d	0.04314922
73	0x3d8f3b93	0.06993785
74	0x3dd07905	0.10179333
75	0xbd8ed9f6	-0.069751665
76	0x3d01669e	0.031592004
77	0xbd3e5f8e	-0.046477847
78	0xbb9ed812	-0.004847535
79	0xbd912d94	-0.070887715
80	0x3dd95ad3	0.106130265
81	0xbd83afcb	-0.06430014
82	0xbd6d8f87	-0.057998206
83	0x3d8dae86	0.06918053
84	0x3dc41a7f	0.09575366
85	0x3e019d31	0.1265762
86	0xbd52b34f	-0.051440533
87	0xbd47d6d4	-0.04878886
88	0x3c9baeec	0.019004308
89	0x3d5040db	0.0508431
90	0x3d05d936	0.03267785
91	0x3cc4a1b4	0.024002887
92	0xbd2ec48c	-0.04266791
93	0xbc528a6b	-0.012850384
94	0xbd2d2d85	-0.04227974
95	0x3e020884	0.12698561
96	0xbd948601	-0.07252122
97	0x3d8c631f	0.06854843
98	0xbe03cd9a	-0.128714
99	0xbddf21b0	-0.10895097
100	0x3d54545b	0.05183826
101	0x3ca6f4ee	0.020380463
102	0x3d468f8f	0.048476752
103	0x3d943c9d	0.072381236
104	0x3d0834a9	0.033253346
105	0xbde46d37	-0.111536436
106	0x3c052b3c	0.008127984
107	0xbc56d7d2	-0.013112979
108	0x3d47e658	0.048803657
109	0xbd0ed032	-0.03486652
110	0x3d019767	0.03163853
111	0xbe02b4d1	-0.12764288
112	0x3e0a7d24	0.135243
113	0x3e02cb48	0.12772858
114	0x3dbd3d6f	0.09240233
115	0xbd9bd896	-0.0760967
116	0x3d9f7bb8	0.07787269
117	0xbc9ec115	-0.019379178
118	0xbc474c54	-0.012164194
119	0xbd3d7cdd	-0.046261657
120	0xbbd4375c	-0.006476326
121	0xbcdb72f1	-0.026788207
122	0xbe158abc	-0.14603704
123	0xbdebf3a8	-0.11521083
124	0x3deb849c	0.114999026
125	0x3dfc40f5	0.12317077
126	0x3b6c0558	0.0036013927
127	0x3e07f017	0.13275181
128	0xbe23c1a9	-0.15991844
129	0xbd404d36	-0.046948634
130	0xbdf61257	-0.12015217
131	0xbcc9b3ab	-0.024621805
132	0x3c8f4093	0.017486846
133	0x3d3214af	0.043476757
134	0xbd8a2258	-0.06744832
135	0x3c9b85c7	0.018984688
136	0xbce11d2c	-0.02747973
137	0xbba2bc07	-0.0049662623
138	0x3d2edf74	0.04269357
139	0x3d1182d9	0.035525177
140	0x3c350422	0.011048349
141	0x3dad8353	0.08472314
142	0x3d73088c	0.059334323
143	0xbdcdadb5	-0.100428976
144	0xbc320703	-0.01086593
145	0x3d096d45	0.033551473
146	0x3b98b8a2	0.004660682
147	0xbdc540e2	-0.09631516
148	0x3dce7f37	0.10082858
149	0xbdbfd87e	-0.093674645
150	0x3da3a697	0.07990759
151	0xbe1c0f48	-0.15240204
152	0x3e2b7a4a	0.16745868
153	0x3e07aac0	0.1324873
154	0x3d859309	0.06522185
155	0x3c91347f	0.017725227
156	0x3a7553a1	0.000935847
157	0x3d942ac6	0.07234721
158	0x3e25d2a4	0.16193634
159	0xbc363233	-0.011120367
160	0xbe0a8f05	-0.1353112
161	0x3db15202	0.0865822
162	0xbd2a9d48	-0.0416539
163	0xbe70f5a2	-0.23531201
164	0x3c9bfabb	0.019040456
165	0x3e1181fe	0.14209744
166	0x3d4383c4	0.047733083
167	0xbbeda1e2	-0.007251964
168	0x3d361052	0.044449158
169	0xbdc4477d	-0.09583948
170	0xbd03ace3	-0.0321473
171	0x3dc1096a	0.09425624
172	0xbe0dd8d8	-0.1385225
173	0xbdda8eb5	-0.106717505
174	0x3d9486d2	0.072522774
175	0x3c477396	0.012173554
176	0x3da945fd	0.08265302
177	0x3e24a203	0.16077428
178	0x3e07cbb0	0.13261294
179	0xbd3a4b30	-0.04548186
180	0x3d74c567	0.05975857
181	0xbe38b0d4	-0.18036205
182	0x3d9a684b	0.075394236
183	0xbd352803	-0.04422761
184	0x3d6fbfdf	0.058532592
185	0xbd8968f2	-0.0670947
186	0x3ce2a237	0.02766524
187	0xbe3c9106	-0.18414697
188	0x3c523520	0.012830049
189	0x3dfde4ed	0.1239718
190	0xbd0e35ff	-0.034719463
191	0x3dc34ec1	0.095365055
192	0x3dcc7c28	0.099846184
193	0xbd952043	-0.07281544
194	0x3e4091b2	0.18805578
195	0x3df3985e	0.11894296
196	0x3bb638ea	0.005560984
197	0x3e06945b	0.1314253
198	0x3bee4d76	0.0072724177
199	0xbced32c7	-0.028954877
200	0x3d4b71ec	0.04966919
201	0x3e24d6d9	0.16097583
202	0x3d1d83c6	0.038455747
203	0xbd9a3598	-0.075297534
204	0xbe03ebee	-0.12882969
205	0xbde95d48	-0.11394745
206	0xbd5813d5	-0.05275329
207	0x39fd88e8	0.00048357924
208	0x3d81eb41	0.06343699
209	0x3e14f9ef	0.14548467
210	0x3e15d064	0.14630276
211	0x3d996b7a	0.07491203
212	0xbd2bc9f2	-0.041940637
213	0xbd6a865e	-0.05725705
214	0xbe22733b	-0.1586427
215	0x3dbcf624	0.09226635
216	0xbdb2392a	-0.087023094
217	0x3d330d34	0.043713763
218	0xbd98f46f	-0.07468497
219	0xbd306d83	-0.04307319
220	0xbbb19d03	-0.0054203286
221	0x3d563438	0.052295893
222	0x3c9f521d	0.019448334
223	0xbba26fe0	-0.004957184
224	0x3c52f1e5	0.012875055
225	0xbd70f3a0	-0.05882609
226	0xbce95898	-0.028484628
227	0x3d9d7cb2	0.07689799
228	0x3dbd4d86	0.09243302
229	0xbe4ba20b	-0.19886033
230	0x3c002ee2	0.007823678
231	0x3e15d287	0.14631091
232	0x3d6bdddc	0.05758463
233	0x3ce0acb7	0.027426107
234	0xbda0ecb9	-0.07857651
235	0xbe90a184	-0.28248227
236	0x3db6901d	0.08914206
237	0xbdd847d9	-0.10560579
238	0xbd4974b1	-0.04918355
239	0x3c0a859f	0.008454709
240	0xbdd5bab1	-0.10435999
241	0x3bbc643e	0.0057492545
242	0xbe06a64e	-0.13149378
243	0x3cc24620	0.023715079
244	0xbd6def36	-0.058089457
245	0xbbbb6dea	-0.00571989
246	0xbe020c42	-0.12699988
247	0x3d8895ee	0.06669222
248	0xbd6d5271	-0.05793995
249	0x3d7da7b3	0.06192751
250	0x3cbeee1d	0.0233069
251	0x3d4995a6	0.04921498
252	0xbdd7fc5a	-0.10546179
253	0x3dbc417b	0.09192177
254	0xbcec598d	-0.028851295
255	0x3de8f317	0.11374491

edge_layers.0.transformer_encoder.layers.0.self_attn.out_proj.bias f4 [64]
0	0xbcacf529	-0.021112995
1	0xbc0d3c07	-0.008620269
2	0xbd6daf17	-0.058028307
3	0x3df68c87	0.12038522
4	0x3c29d466	0.010365581
5	0xbbdd6a91	-0.0067570885
6	0x3cc59697	0.024119658
7	0x3de25215	0.11050812
8	0xbdda09b7	-0.10646384
9	0xbb818968	-0.0039531477
10	0xbd6ced4c	-0.05784349
11	0x3e0d5266	0.13800964
12	0x3d13e066	0.036102675
13	0x3cf01fa2	0.029311959
14	0x3c623651	0.013806895
15	0x3d5bfefa	0.05370996
16	0x3d8005d1	0.062511094
17	0xbccafc82	-0.024778608
18	0xbda9882f	-0.08277928
19	0xbdce8331	-0.100836165
20	0xbbf56d62	-0.007489846
21	0xbd68bfea	-0.05682365
22	0xbd28a1fd	-0.04117011
23	0xbc684043	-0.014175477
24	0x3d2da652	0.042394944
25	0xbdcf56d6	-0.101239845
26	0xbc8c29ad	-0.017109716
27	0x3d0bf5ca	0.03416995
28	0xbc3e1810	-0.011602417
29	0xbdb58298	-0.088627994
30	0x3d18e0c7	0.03732374
31	0xbd4cb594	-0.049977854
32	0xbd83dcf1	-0.064386256
33	0xbc8c9f19	-0.017165707
34	0x3d7da0b4	0.061920837
35	0x3c22972b	0.009923737
36	0x3d40521f	0.046953317
37	0x3cd25881	0.025676968
38	0x3c526d1f	0.012843399
39	0xbd641468	-0.055683523
40	0x3cb19685	0.021678219
41	0xbc8e797a	-0.017391909
42	0x3db83baf	0.08995759
43	0xbdec4297	-0.115361385
44	0xbd51641b	-0.05112086
45	0xbd547f64	-0.0518793
46	0x3d5968f5	0.05307861
47	0xbdc4fca4	-0.096185
48	0x3dfa98a1	0.12236143
49	0x3e167510	0.14693093
50	0xbb0c220a	-0.0021382594
51	0x3d5b312f	0.053513702
52	0xbb74abcb	-0.0037333842
53	0x3c57d01f	0.0131721785
54	0x3dcdfab5	0.10057584
55	0xbd7cf2aa	-0.06175486
56	0xbca28444	-0.01983846
57	0x3b96b739	0.0045994786
58	0xbcca8d3c	-0.024725549
59	0x3d841593	0.064494275
60	0x3d1b9f49	0.037993703
61	0xbdd03784	-0.10166839
62	0xbd36a517	-0.044591036
63	0xbd53b516	-0.05168637

edge_layers.0.transformer_encoder.layers.0.linear1.weight f4 [64, 64]
0	0x3d394e9b	0.04524098
1	0x3e0b9244	0.13630015
2	0x3e2bd3a8	0.16779959
3	0xbe2ed3c6	-0.17072973
4	0x3e212369	0.15736164
5	0xbb1d54f2	-0.002400693
6	0xbd38f2ba	-0.045153357
7	0xbe07884f	-0.13235591
8	0x3e456852	0.19278076
9	0xbd89fca8	-0.067376435
10	0xbd60743e	-0.054798357
11	0xbe4f8d75	-0.20268805
12	0xbe4f9b92	-0.20274189
13	0x3b448058	0.0029983725
14	0xbe040c7e	-0.1289539
15	0x3e5d58bb	0.21615879
16	0xbcb4e2b0	-0.02208075
17	0x3d5e99ac	0.05434577
18	0x3e233330	0.15937495
19	0x3de5b246	0.112156436
20	0x3e4bb1db	0.19892065
21	0x3db06217	0.08612459
22	0xbd9b4c41	-0.07582904
23	0x3c98ecdc	0.01866763
24	0xbddfd866	-0.109299466
25	0x3c2c4f39	0.010516935
26	0x3da53310	0.0806638
27	0xbddc418d	-0.1075469
28	0xbd542c62	-0.05180014
29	0xbd29d704	-0.04146482
30	0xbe2fc95d	-0.17166658
31	0x3d80c34e	0.062872514
32	0x3e062b40	0.13102436
33	0xbe04c1b6	-0.1296452
34	0x3d31a10d	0.04336648
35	0xbc8d0c04	-0.017217644
36	0xbd62c137	-0.055360045
37	0x3dbc13d9	0.09183473
38	0xbdb2aa14	-0.08723846
39	0x3e0b336c	0.13593835
40	0x3e047648	0.12935746
41	0x3e421115	0.18951829
42	0xbe328c89	-0.17436422
43	0xbc9c1329	-0.019052105
44	0x3d745bf4	0.059658006
45	0x3e3a2e37	0.18181692
46	0xbdc19e5b	-0.09454032
47	0x3e0a34cb	0.13496701
48	0xbe6b1da9	-0.22960533
49	0xbe22280a	-0.15835586
50	0xbc7e9164	-0.0155375935
51	0xbe8fc11a	-0.28077012
52	0xbc12cd64	-0.008960102
53	0x3d015501	0.031575207
54	0xbe7ae174	-0.24500066
55	0x3d0de656	0.034643494
56	0x3e40e2f7	0.1883658
57	0x3dbccaee	0.09218393
58	0x3d2db816	0.042411886
59	0x3d60345e	0.05473744
60	0xbda6af57	-0.08138912
61	0x3ddbc1ee	0.107303485
62	0xbe47e90f	-0.19522499
63	0x3e762daf	0.24040864
64	0xbdfe5841	-0.12419177
65	0xbb76ad55	-0.0037639935
66	0xbdd7170c	-0.10502443
67	0xbdb1f902	-0.086900726
68	0xbda37638	-0.07981533
69	0x3d628ad4	0.055308178
70	0x3d1934a1	0.037403706
71	0xbd8102bd	-0.062993504
72	0x3c8e890a	0.01739933
73	0x3da0d996	0.07854001
74	0xbd19f80b	-0.037590068
75	0x3d85ec8b	0.065392576
76	0xbd9a7de7	-0.07543545
77	0x3e099e83	0.13439374
78	0x3db8a6a9	0.09016163
79	0xbcec0798	-0.028812215
80	0xbe1a0539	-0.15041055
81	0xbd76960c	-0.06020169
82	0xbd64ada4	-0.05582966
83	0x3d69b575	0.057057817
84	0xbdf3a379	-0.11896414
85	0xbc1b3c7a	-0.009474868
86	0xbc9650ef	-0.018349139
87	0x3d9a7be9	0.07543165
88	0xbb890db8	-0.0041825436
89	0x3d009e0d	0.03140073
90	0xbd301e0b	-0.0429974
91	0x3d5ee516	0.054417692
92	0xbd9711c8	-0.073764384
93	0x3c4e8dd1	0.012607054
94	0xbdf63219	-0.12021274
95	0xbdd7883b	-0.10524031
96	0x3cfb1b7a	0.03065275
97	0xbd969783	-0.07353117
98	0xbbef3e29	-0.0073011112
99	0xbdcb9c90	-0.09941971
100	0x3d7536bf	0.059866663
101	0xbd824d9c	-0.06362459
102	0x3ba9dd46	0.0051838486
103	0x3de36355	0.111029305
104	0xbdff54b7	-0.1246733
105	0xbdd2121f	-0.102573626
106	0xbe007ef0	-0.12548423
107	0x3e1733ab	0.14765804
108	0xbe0d6ff7	-0.13812242
109	0x3cd513c5	0.026010403
110	0x3d07dc61	0.033169154
111	0x3da7a0b7	0.08184951
112	0xbd566f02	-0.05235196
113	0xbd44e768	-0.04807225
114	0x3dc48201	0.09595109
115	0xbda01c1e	-0.07817863
116	0x3c90e6f3	0.01768825
117	0xbd8c7b0b	-0.06859406
118	0x3de40209	0.11133201
119	0x3ddd3b0e	0.108022794
120	0xbdbdd705	-0.09269527
121	0xbd78f46e	-0.06077998
122	0xbd7d3752	-0.061820336
123	0xbd809d78	-0.06280035
124	0x3e05a94c	0.13052863
125	0x3da7a5bc	0.08185908
126	0xbcb566c8	-0.022143736
127	0xbd41e8de	-0.04734122
128	0x3e2e8034	0.17041093
129	0xbd90364c	-0.07041606
130	0x3dd8e4b8	0.105905
131	0xbdec756a	-0.115458325
132	0x3b346d6d	0.0027531043
133	0x3d90ffe2	0.07080056
134	0xbdca83de	-0.09888433
135	0xbd41ecd9	-0.047345016
136	0x3dad23b5	0.08454076
137	0xbe0687f2	-0.13137797
138	0xbdb9acd3	-0.09066167
139	0x3d16cfec	0.036819384
140	0xbe519991	-0.20468737
141	0x3da94f94	0.082671314
142	0x3dce4ed9	0.10073633
143	0x3d13805e	0.036011092
144	0xbdce483c	-0.10072371
145	0x3dca8765	0.09889106
146	0x3d9358c9	0.07194669
147	0x3cc8cb7b	0.02451109
148	0x3e22af7a	0.15887251
149	0xbb9767f7	-0.004620548
150	0xbe0c4ba5	-0.13700731
151	0xbc1a6860	-0.009424299
152	0xbcf00fd4	-0.029304422
153	0xbbfdc82e	-0.0077448105
154	0xbc102b70	-0.008799419
155	0xbe18e295	-0.14930184
156	0x3da60080	0.08105564
157	0x3af8535b	0.001894574
158	0x3dcf5d2c	0.10125193
159	0x3d45afd7	0.048263397
160	0xbbbbfbac	-0.0057367887
161	0xbdccd46e	-0.10001455
162	0xbd823b19	-0.06358928
163	0x3deff6b8	0.1171698
164	0xbda4c6bd	-0.08045719
165	0xbda1a668	-0.078930676
166	0x3de3acf0	0.111169696
167	0x3cbd5895	0.023113528
168	0xbd6161a8	-0.055024773
169	0x3def365e	0.116802916
170	0x3d5bf136	0.053696834
171	0x3a2fc2bc	0.0006704738
172	0x3e212abf	0.15738963
173	0x3e02c065	0.12768705
174	0xbe292fa8	-0.16522086
175	0x3e091f53	0.13390855
176	0xbdb0fc47	-0.08641868
177	0xbc4ce268	-0.012505151
178	0x3c34baba	0.011030847
179	0x3d0ef20a	0.034898795
180	0xbd28827c	-0.041140065
181	0x3df21a71	0.118214495
182	0x3c135e89	0.008994707
183	0xbccfcbff	-0.025365828
184	0xbd864241	-0.06555606
185	0x3db5acf0	0.08870876
186	0xbd135cc7	-0.03597715
187	0x3b70e7ba	0.0036759214
188	0xbd6d76d2	-0.057974644
189	0x3e199a78	0.15000331
190	0xbc9d88a5	-0.019230196
191	0xbcf7e9df	-0.030262886
192	0x3dc75296	0.09732549
193	0x3c4ec0ed	0.012619239
194	0x3e5f814a	0.21826664
195	0xbe333a89	-0.17502798
196	0x3d01426d	0.03155749
197	0x3db5b628	0.08872634
198	0x3cc1181b	0.023571065
199	0xbe15f553	-0.14644365
200	0x3e0d5d62	0.13805154
201	0xbe2bd18f	-0.16779159
202	0xbddec455	-0.10877291
203	0xbdebccc6	-0.11513667
204	0xbe24619e	-0.16052863
205	0x3d04bd0c	0.03240685
206	0xbd487c2c	-0.048946545
207	0x3e44e8cc	0.1922943
208	0x3c1181f9	0.008881086
209	0xbbee7524	-0.007277148
210	0xbc939322	-0.018014494
211	0x3e54930b	0.20759217
212	0x3daa9eb8	0.083310544
213	0x3c6290e9	0.013828495
214	0x3d773c8d	0.06036048
215	0x3d0462d5	0.032320816
216	0x3d9af038	0.07565349
217	0x3e44b74e	0.1921055
218	0x3d63b200	0.055589676
219	0xbe3d1f11	-0.18468882
220	0xbd8d85a7	-0.06910258
221	0x3df7052f	0.120615356
222	0xbd54c060	-0.051941276
223	0xbd3551f6	-0.044267617
224	0x3c9b7758	0.018977806
225	0x3d5512ab	0.052019756
226	0xbd332ac0	-0.04374194
227	0xbd9421a6	-0.072329804
228	0xbe0c8167	-0.13721238
229	0x3dd5147a	0.10404296
230	0x3d0b0053	0.033935856
231	0x3d58d60d	0.05293851
232	0x3d6d0b69	0.05787221
233	0x3deca09e	0.11554073
234	0xbd026841	-0.031837706
235	0x3ca2bf89	0.019866722
236	0x3cf12b65	0.029439637
237	0x3da7873e	0.08180092
238	0xbd87bde1	-0.066280134
239	0x3ce8a02d	0.02839669
240	0xbd5e81f2	-0.054323144
241	0xbe069ef2	-0.1314657
242	0x3dd6d898	0.10490531
243	0xbe37eef0	-0.17962241
244	0x3d9badde	0.07601522
245	0xbd5f921f	-0.05458271
246	0xbe10a35f	-0.14124821
247	0x3ca8dedc	0.02061408
248	0xbd7b4ab2	-0.061350532
249	0x3d9e0ace	0.077169046
250	0x3da2093b	0.07911917
251	0x3e07d33c	0.13264173
252	0xbdf7cb4f	-0.12099325
253	0x3e24a95d	0.16080232
254	0xbda0d3c4	-0.07852891
255	0x3e26efab	0.16302364

edge_layers.0.transformer_encoder.layers.0.linear1.bias f4 [64]
0	0x3df10ad4	0.117696434
1	0xbe57b81e	-0.21066329
2	0xbbf405bf	-0.007446974
3	0x3d19802d	0.037475754
4	0xbd011d86	-0.031522296
5	0xbdde4b7e	-0.10854243
6	0x3e3d1797	0.1846603
7	0xbd2ab8fd	-0.041680325
8	0xbddcd912	-0.107835904
9	0xbe1afe10	-0.1513598
10	0x3df5d7aa	0.12004025
11	0xbe79a594	-0.2437957
12	0x3c387fb3	0.011260915
13	0x3da6bdd2	0.08141674
14	0xbc98bfc0	-0.018646121
15	0xbe0091da	-0.12555638
16	0x3d359555	0.044331867
17	0xbc5dede6	-0.013545489
18	0xbdefebfc	-0.11714932
19	0x3c4bdc3a	0.012442643
20	0xbd6b9f72	-0.057525106
21	0xbd623372	-0.055224843
22	0xbca33e4a	-0.019927163
23	0x3c5361b6	0.012901714
24	0x3d3ba0a8	0.04580751
25	0x3db3c0eb	0.087770306
26	0xbcccfbd9	-0.025022434
27	0x3e5437c2	0.20724395
28	0x3c3df6f9	0.011594527
29	0xbdd8873b	-0.10572668
30	0xbdca365d	-0.0987365
31	0xbd340878	-0.04395339
32	0xbd3dc2bd	-0.046328295
33	0xbd42223e	-0.047395937
34	0x3ccf1ee6	0.025283288
35	0xbc3dced7	-0.011584959
36	0xbcb96407	-0.022630705
37	0xbc7b5168	-0.015339233
38	0x3d697e07	0.057004955
39	0x3dc0730b	0.09396943
40	0xbdd77917	-0.10521143
41	0xbcac09c5	-0.021000752
42	0x3b9029c2	0.004399509
43	0xbd7b07cc	-0.061286733
44	0xbc95a738	-0.018268213
45	0x3d533918	0.05156812
46	0xbe1f457a	-0.15553847
47	0xbc80221c	-0.015641265
48	0xbcd3f577	-0.025873883
49	0x3da2b8c7	0.079454
50	0xbdd525d6	-0.10407607
51	0xbe2b04de	-0.16701075
52	0x3e19b6be	0.15011117
53	0x3e4339e5	0.19065054
54	0x3dfe69aa	0.124224976
55	0xbd0cf4e7	-0.034413245
56	0xbddadf24	-0.10687092
57	0x3e072efd	0.13201518
58	0xbd42ee36	-0.047590457
59	0xbcb14337	-0.021638496
60	0xbe2687cf	-0.16262744
61	0x3e2a0f47	0.1660739
62	0xbdb6a99d	-0.0891907
63	0xbd962c16	-0.073326275
