experiment/saml_20/EGNN/EGNN_checkpoint.pt (torch_old, 91289 bytes, 6 tensors)

node_layers.0.weight f4 [64, 92]
00000000: 6205 883e 4480 b5be 0e81 0c3d a40f 92be
00000010: 9e04 0b3e 4c48 9b3e 08e0 df3d 15f3 363e
00000020: 4d6d abbe 4583 e5be d146 823d 988a d0bd
00000030: 7725 e0be 18d4 ebbe a7fc a23d 15ed 043e
00000040: b813 523f 704e d33e d625 02bf 24c1 7bbd
00000050: 736a a7bd f096 87be 7b93 823e 4b9e d73e
00000060: 3ccf d7be 52b8 83be 4aef 8b3e b904 223e
00000070: cfc2 96bf 05f5 38bd 14e0 363f 18bf 053f
00000080: 682c 593f d26b 383f 0d6a 3dbe 1854 be3c
00000090: 8ebf 5d3e 38f3 723e 14b2 c13e 342e b13d
000000a0: bc89 ecbe 8442 733e caaf 283f 2259 0b3f
000000b0: eceb e93e f7b4 193e d8c6 c0bc 9d18 bcbe
000000c0: 7e3f db3d b626 88bd fee8 d93e 77cb eb3e
000000d0: 9b00 873e 78fe 7cbb c22d 9bbe 7e47 05bf
000000e0: db8a 97bd 7650 0a3e eb84 6cbe a3ee cabd
000000f0: 6978 693e 38c6 fe3d 8e4c 5c3f 5155 0f3f
00000100: 7f05 acbe 97bb 993e 5e31 a53e 0a66 6dbd
00000110: f710 843e 2a67 293f 7919 bebe 2384 22be
00000120: 0baa 99be 2b69 603e ff49 dabd 3ad5 9abd
00000130: ff45 933e ee7f 95be 6677 acbe a338 873d
00000140: db18 cbbe 54f0 1cbf a5de c8be ddf6 e33c
00000150: 5219 3e3e 7ec6 ac3e 7c30 c9bd b8bf f7be
00000160: b29e 59be 1c20 3fbe 0eff b8be 330f f2bc
00000170: 152f dd3d 627c 603e e2f2 603c f048 2fbe
00000180: 841a d5be 9d73 b7be a150 17bc 4d7d 4f3e
00000190: eef0 45bc 5214 d23d c104 813e 637d 543e
000001a0: 67aa e53d a337 523d 1f84 ce3d 0076 8bbd
000001b0: 3141 f03c c008 4bbf 60b9 a73e cd54 273e
000001c0: f8d0 6e3e 52f1 cf3d 2dc1 403e 803e 41bc
000001d0: 62f4 53be a731 a4bd d2e6 8f3e 523e 3c3e
000001e0: 3364 9bbf a77d 0fbf 9860 e6be c743 383e
000001f0: 1275 913e 0de0 d43e da5d 14bf 6a31 a8be
00000200: 8e41 f2be f02c 8a3d 2c48 f8be ccb5 52bf
00000210: f7b5 3abe f00e 26bf 3fbf af3e fe85 393d
00000220: 778b 083e f3ee 05bf de25 85bd 5475 133e
00000230: f7d3 3c3e 229c debc e924 8fbe 29fe 9cbe
00000240: 2841 ccbc 89cd 853e a7a9 bc3b 93bb 24bd
00000250: 1f75 1f3e 9280 923e 398e b73d 1ad7 acbc
00000260: 4377 a73d 68ad aa3d f410 5a3e c272 03bf
00000270: 62f2 af3e 7094 5c3e d945 9b3e b24d 603e
00000280: d2b1 2e3e b870 4f3e 401c a33a b528 4c3d
00000290: 41a1 2ebe eacd 0abf 940c d3be 917a b0be
000002a0: 44dc 893d 2c2f 2b3d 6e69 94bd c4bf 503e
000002b0: 8897 0d3d 4466 fbbb ae58 2abd e682 023e
000002c0: 596c 02bc b00d 11bd 2147 5ebf 6a94 1e3e
000002d0: 0343 acbd 4028 3c3d 4a3f 043d 8239 0fbb
000002e0: 4197 6d3e 7da5 ad3d d57f bebd 6504 19be
000002f0: 5d2a 24bf 63bf 91be 778f f23d b543 1b3f
00000300: 2185 903e b348 3b3e 4838 083f c6d5 73bc
00000310: db0d 38be f2d3 22be a85e e43c 517e cebd
00000320: 5585 f03e 8354 73be d762 2ebe b5d5 503d
00000330: 9e87 3bbe deec 183e 5a01 1e3f c0a6 de3b
00000340: 9d59 15bf f620 3cbf 3398 07bf 7a0c f83e
00000350: f66a 87bf 31e1 79be ac14 30bd 3c52 50bd
00000360: d241 953e afeb dbbd 83a7 483e ebac 4bbf
00000370: 3e47 29bf 6cf9 9abe f9cb 66bf 3cb0 7cbf
00000380: 86b4 eebe f1f4 70bf c263 593e 1790 42be
00000390: 1402 c33d efdf 43bf 79ae 18bd ab71 803d
000003a0: b5e2 7f3e a675 313e 9415 7dbe b532 363c
000003b0: ed89 0e3e 402f 123f 67d1 893e 3fa8 5c3e
000003c0: ee19 0d3f d42c febd 234a 5e3d 49af bdbd
000003d0: 05e2 6b3e 1f0c 87bd 9f21 103f a921 89bd
000003e0: 1890 163e a20a 133e f91c 40bc c934 f33d
000003f0: c910 373f 3304 a33e 419b b8bd c106 a6be
0.26566607 -0.3544942 0.034302764 -0.28527558 0.1357598 0.30328596 0.109314024 0.17866166
-0.33481827 -0.44826713 0.063611634 -0.10182685 -0.43778583 -0.46060252 0.07958346 0.12981065
0.8206134 0.4127078 -0.50838983 -0.06146349 -0.081746005 -0.26482344 0.25503144 0.42112955
-0.42150295 -0.25726563 0.27331 0.15822114 -1.1778201 -0.045155544 0.71435666 0.5224471
0.84833384 0.7203952 -0.18497486 0.023233458 0.21655104 0.23725593 0.37831175 0.08651391
-0.46198833 0.23755842 0.6589323 0.5443288 0.45687807 0.15010439 -0.023532316 -0.36737528
0.107054695 -0.066480085 0.4256057 0.4605367 0.2636765 -0.0038603824 -0.30308348 -0.52062213
-0.073995315 0.13507256 -0.23097579 -0.099087976 0.22799839 0.12440151 0.86054313 0.5598956
-0.33597943 0.30025932 0.32264227 -0.05795864 0.25794193 0.6617304 -0.3712881 -0.15870719
-0.30012545 0.21915118 -0.10658645 -0.07560201 0.2876434 -0.29199165 -0.33684844 0.066025995
-0.396674 -0.6130421 -0.39232364 0.027827675 0.18564346 0.33745188 -0.09823701 -0.48388457
-0.21251944 -0.18664593 -0.3613209 -0.029548263 0.10799996 0.21922448 0.013729783 -0.17117667
-0.41621792 -0.35830393 -0.009235532 0.20262642 -0.012081368 0.10257782 0.2519894 0.20750956
0.11214142 0.05132259 0.10083794 -0.06809616 0.02932796 -0.79310226 0.32758617 0.16340943
0.23321903 0.1015345 0.1882369 -0.011794686 -0.20698693 -0.08017283 0.2810579 0.18383148
-1.2139953 -0.56051105 -0.4499557 0.17994605 0.2840963 0.41577187 -0.57955706 -0.328502
-0.4731564 0.067468524 -0.48492563 -0.8230865 -0.18233477 -0.6486654 0.34325597 0.0452938
0.13334452 -0.5231773 -0.06501363 0.14400226 0.18440233 -0.02717406 -0.27957848 -0.3066266
-0.024933413 0.26133373 0.005757529 -0.040217947 0.15572022 0.28613716 0.08962674 -0.021098662
0.08177044 0.08333856 0.2129553 -0.5134698 0.3436461 0.21541 0.30326727 0.21904638
0.1706002 0.20257843 0.0012444332 0.04984351 -0.17053701 -0.5422045 -0.41220534 -0.3446851
0.067314655 0.041793033 -0.072466716 0.20385653 0.03456834 -0.007672103 -0.041588478 0.12745246
-0.007960402 -0.035413444 -0.86827284 0.15486303 -0.08411219 0.045936823 0.03228692 -0.0021854346
0.2320223 0.0847883 -0.09301726 -0.14943083 -0.6412714 -0.2846633 0.1184377 0.6065019
0.2822657 0.18289451 0.5321088 -0.0148825105 -0.17974035 -0.15901163 0.027877167 -0.10082687
0.46976724 -0.23762707 -0.17029892 0.050985057 -0.18313453 0.14934108 0.6172081 0.0067947805
-0.58339864 -0.73487794 -0.5296661 0.4844702 -1.0579517 -0.2440231 -0.042988464 -0.050859675
0.2915178 -0.107383125 0.1959515 -0.79560727 -0.6612433 -0.3026842 -0.9015499 -0.9870641
-0.46622103 -0.9412375 0.21229461 -0.19000278 0.09521881 -0.7651357 -0.037275765 0.062716804
0.24988826 0.17330036 -0.24715263 0.011120488 0.13919802 0.5710335 0.26917574 0.21548556
0.5511769 -0.12410894 0.05426992 -0.092619486 0.23035438 -0.06594109 0.563013 -0.06695873
0.14703405 0.14359525 -0.011725658 0.11875302 0.7150999 0.3183914 -0.09013987 -0.32427028

node_layers.0.bias f4 [64]
00000000: 07d6 0abe 9b75 67bf 4ef9 8b3a 11be 6ebf
00000010: 4364 8dbf 0b96 85bf d2e0 f7bf 2836 b3be
00000020: 8803 cdbf 4408 a2bf 8ac1 cdbf 8afc aabf
00000030: fa8b dabf 493a d2bc d652 8dbe d9a6 20be
00000040: 3ebd 4fbe b344 f5be 9657 f2be bef5 49bf
00000050: 8f38 4ebf e1f9 c7bf 0db5 efbf 81a5 a7bf
00000060: e2c1 1bbd 60be e5be 0a3c 86be 73ed febe
00000070: 52be eebf 6b8b a1bf b36f 40bf b8f7 2c3e
00000080: 6dbf d4bb 0f6b eabd 3ba4 88be 12dd dfbf
00000090: 4561 f9bf de02 64bd e559 9bbe 8be8 cabf
000000a0: 5092 63bf 40f5 96bf 5988 85be ed8a 06bf
000000b0: 6051 3bbf a077 9abf f94a 35bf e624 17bd
000000c0: 32af d3bf 85ed 08bf 4e1c 3cbf 20b5 a1bf
000000d0: f52e 07be 96df 24bd da80 a2bf a9c4 03bf
000000e0: 6981 c0bd 6138 76bf bc4a 8cbf b1d2 94bf
000000f0: 8f88 65be 2f68 3ebf 4600 43be b70c 43bd
-0.13558207 -0.90413827 0.0010679157 -0.9325877 -1.1046222 -1.0436414 -1.9365485 -0.35002255
-1.6016703 -1.2658772 -1.6074688 -1.3358319 -1.7073967 -0.025662558 -0.2760226 -0.15688647
-0.20287034 -0.47903976 -0.47332448 -0.788906 -0.8055505 -1.5623132 -1.8727127 -1.3097383
-0.038026698 -0.44871807 -0.2621768 -0.49790534 -1.8651831 -1.2620672 -0.7517044 0.16891372
-0.0064925463 -0.11446201 -0.26687798 -1.748934 -1.9482809 -0.055666797 -0.30342022 -1.5852216
-0.8889513 -1.1793594 -0.26080588 -0.52555734 -0.73171043 -1.2067757 -0.70817524 -0.036900423
-1.653784 -0.53487426 -0.7348069 -1.26334 -0.13201506 -0.04025229 -1.2695572 -0.51471955
-0.09399683 -0.9617978 -1.0960307 -1.1626798 -0.22415374 -0.7437772 -0.19043073 -0.047619548

node_layers.1.weight f4 [64, 256]
00000000: 38a3 55be fcd5 7fbe 1aa0 adbe 1d6c 15be
00000010: bf52 90be 48a7 7fbd cf8c 36be c0b9 f23d
00000020: 85a2 033d 8ba2 b3be ea69 b63e 41fa 9cbe
00000030: a9f0 2dbe fa01 0e3d 2f7f dd3e 4c29 e63e
00000040: f134 4e3e 5505 ad3d 11aa 8f3e f70d d63d
00000050: 6ae0 e33e 4bff d83c 246a 003e d02b 843d
00000060: c140 0fbf a28a 623d 850a 8ebe 232b 143d
00000070: 0c48 0ebd 0c5b e23d a551 573f 9713 cbbe
00000080: a661 9ebe 6f57 c5be f606 113c 1fd8 a93d
00000090: 03a8 06be 422a 5d3e 57cb 3bbf 53a3 ae3b
000000a0: 5324 81be 9782 d8bc a40c c4bd c509 0bbe
000000b0: 54cb 08be 9de1 22be 9a56 493e 7fbe 893e
000000c0: 76f1 0d3e c8e3 f73e 8d3b 603e 321e a03e
000000d0: 2789 f2be 69ef b1be cbf2 d5bc b375 b0be
000000e0: 515c 29be c882 8ebe 3e36 c0be 7ff2 4abe
000000f0: 2815 553e 4244 843d 7ae5 ad3d 972c e3be
00000100: 1ccc 8e3f 948c 1a3f 817f 2a3f 90e4 e53e
00000110: 0920 4d3f 2950 2a3f 352c f73e d1c3 5c3e
00000120: 2143 343f 20c1 9b3e 78c1 b03f b661 9d3e
00000130: a6e9 9e3f d546 b53d 25e4 86be 30fc 203f
00000140: 44f8 e53e 041b 443f 32c7 0b3f 9b69 e23f
00000150: 9b44 763f 96ab a83f 7bdc 3d3f 8659 d43f
00000160: 008e 583e 66ec 963d b94f 513f 20e8 253f
00000170: 1fc8 c53f cf59 0d3e 6495 8b3f 1d60 f03e
00000180: 9d96 4e3e 20f8 ed3e 727f 3b3f 28cd c33f
00000190: aa99 d23f c31b bf3d 6345 49bd 5c70 af3f
000001a0: f88e 173f b523 563f 7dfd 893e 9e01 243f
000001b0: d6cd 0d3f 3894 453f bb31 e13e 2718 973e
000001c0: 6b82 9f3f 79f2 7c3f e1a1 de3f c2fc b23f
000001d0: 1042 bd3e be29 c23e 9d75 c63f 6db6 a03f
000001e0: b522 7dbe 826d c63e 073a f13f 318f 3f3f
000001f0: 4066 213f e92b 773f 3aea 1a3d e142 2a3d
00000200: 4abe 15be f682 e0bd d4a9 31be 8334 313e
00000210: 3074 d53d aa48 833d 8757 c63e d737 bd3e
00000220: 36fb c23e b55a 623d e2fb ee3e e294 1a3e
00000230: 4110 4cbd 2d31 d33e b158 863f f386 053f
00000240: c508 c33e 85ca c63e 284d f33e 7033 4c3e
00000250: 176a 193f ad00 ac3e c4f3 ee3e 8cad 173e
00000260: 5c4e 75bb 9099 923e c40f 45be 3d60 603e
00000270: 1e89 f93d c228 3f3f 116f 7e3f a5b6 c2be
00000280: 6dd8 463e 089e 87be 362e 483c 1fd4 cf3e
00000290: a7e3 b73d 537e 2d3f a0d0 bfbe 9397 8fbc
000002a0: c82e ecbd 2e6e ef3d 231d a43e 648a d83c
000002b0: 0b07 253d ae3f 34bb ccbb a73e f9a5 053f
000002c0: f578 763e 5440 243f 3973 933e 8a1a 133f
000002d0: 5195 8dbe 034a d03d 83d5 b2bc c57f 5fbe
000002e0: 5c0e 0c3f d210 b9bd 9c13 83be f355 353d
000002f0: b459 953e 44a9 9a3e 7247 b13e bdee 1ebe
00000300: 7378 99be dd08 d8be 3f5e 06bf ce50 c7be
00000310: 7345 f5be 00c9 93be 3fbb 57be f985 76bc
00000320: c0e9 debd 4ef7 f9be 1849 223e 0acc edbe
00000330: 28cb 9abd 5200 7abd 568d 08be 43d7 b03e
00000340: c9d8 7a3d 926c d23d c809 963e 43fe a63d
00000350: 7913 213e e489 68be 743d 213d b206 4abc
00000360: a306 2dbf e1ce f13c f848 d4be 4585 e5bd
00000370: dcf0 63be 3b0b 83be 5d78 423f c160 1ebf
00000380: 5ff3 05bf 23a3 03bf 9a33 7cbd 8476 043e
00000390: 96c9 21be 164d 61be 8dbc 50bf 9d05 0fbc
000003a0: e49d 96be 8adb 8cbe fa61 d4bc a582 96be
000003b0: 3a19 87be d8f8 94be 0218 513d 9b10 d3b9
000003c0: 5717 7e3d 817c c63e e4f9 0c3e e65b e53d
000003d0: 920c 03bf e553 f3be eec4 dabd 3d4f 7cbe
000003e0: 5198 ddbe 7663 d1be bae0 d4be 2847 a0be
000003f0: de79 ee3d 9734 013e b2e2 9fbe d260 17bf
-0.20863044 -0.24983972 -0.3391121 -0.14592023 -0.2818813 -0.06241539 -0.17827152 0.11851835
0.032137413 -0.35084948 0.3562768 -0.3065968 -0.16986336 0.034669854 0.43261096 0.44953382
0.20137383 0.08448283 0.28059438 0.10451882 0.44507152 0.02648892 0.1254049 0.06453669
-0.5595818 0.05530799 -0.277424 0.03617395 -0.034736678 0.11052522 0.84108955 -0.39663383
-0.30933875 -0.3854327 0.008851757 0.08293175 -0.13150029 0.21598151 -0.73357147 0.0053295284
-0.25223026 -0.026429458 -0.095727235 -0.13577946 -0.13358814 -0.15906377 0.19661942 0.2690315
0.13861641 0.4841597 0.21897717 0.31273037 -0.47370264 -0.34752968 -0.02611675 -0.34464797
-0.16539122 -0.27834153 -0.37541384 -0.19819067 0.20808852 0.06458332 0.08491035 -0.44369957
1.1156039 0.60370755 0.66600806 0.44900942 0.80127007 0.66528565 0.48275915 0.21559073
0.7041493 0.3042078 1.3809042 0.3073861 1.2415054 0.08851401 -0.26345935 0.6288481
0.44915974 0.7660372 0.5460082 1.7688478 0.96198434 1.3177364 0.7416455 1.658982
0.21147919 0.07369308 0.8176227 0.6480732 1.5451697 0.1380379 1.0904965 0.4694833
0.20174642 0.46478367 0.7324134 1.5296984 1.6453145 0.09331467 -0.049138438 1.3706164
0.5920253 0.83648235 0.2695121 0.6406497 0.55392206 0.7717929 0.43983254 0.29510614
1.2461675 0.98807484 1.7393152 1.3983386 0.36964464 0.37922472 1.5504643 1.2555672
-0.24720271 0.38755423 1.8845834 0.7482787 0.63046646 0.96551377 0.037821032 0.041567687
-0.14623371 -0.10962479 -0.1734994 0.17305188 0.10422552 0.06410344 0.38738653 0.36956665
0.38082284 0.055262286 0.46676546 0.15095857 -0.04982019 0.41248456 1.0495816 0.5215904
0.38092628 0.38826385 0.47519803 0.19941497 0.59927505 0.33594266 0.46670353 0.14812297
-0.003743074 0.28632784 -0.19244295 0.21911712 0.12184356 0.74671566 0.99388224 -0.38029972
0.19418497 -0.26487756 0.012218049 0.40591523 0.08978968 0.6777088 -0.37463856 -0.01752833
-0.1153236 0.11690937 0.3205348 0.026433177 0.04028992 -0.0027503776 0.32760465 0.5220638
0.24069579 0.64160657 0.28798845 0.5746237 -0.27652982 0.101703666 -0.021830326 -0.21826084
0.5470941 -0.09036411 -0.25600898 0.04427142 0.2917 0.30207264 0.3462482 -0.15520759
-0.29974708 -0.42194262 -0.5248756 -0.38928837 -0.47904548 -0.28864288 -0.21067522 -0.01504659
-0.10884428 -0.4882149 0.15848196 -0.46444732 -0.0755828 -0.06103546 -0.13335165 0.34539232
0.0612419 0.102746144 0.29304338 0.08153965 0.15730084 -0.22708851 0.039365247 -0.012330698
-0.6758825 0.029517593 -0.4146192 -0.1120706 -0.2225985 -0.25594506 0.7596491 -0.61866385
-0.5232448 -0.514208 -0.06157265 0.12935835 -0.15799555 -0.22002062 -0.81537706 -0.008729366
-0.29417336 -0.27511245 -0.025925625 -0.2939655 -0.26386434 -0.29096103 0.051048286 -0.00040257428
0.062033977 0.38766864 0.137672 0.11199169 -0.51191056 -0.47524944 -0.106820926 -0.24639602
-0.4328027 -0.40896195 -0.41577703 -0.31304288 0.11644338 0.12617718 -0.31227642 -0.5913211

node_layers.1.bias f4 [64]
00000000: b534 8a3f de10 a23f d8d2 a33f e54a 553e
00000010: 1b66 b2bc ce03 9dbf 81ba 9cbf a6cc d5bf
00000020: 44b4 1abf 9fb8 a6bf 0900 c3bc fe6a 5cbf
00000030: 4712 cb3f 7861 5c39 4d1c 323f 9346 0ac0
00000040: 2c4d c7bc 89da 903f 8326 00bf 0e82 88bf
00000050: 9093 c1bf 3c15 133f 139b c8bf 56e0 f0be
00000060: 97bb aebe 6a0c af3f 7b92 59bf e02d c4bf
00000070: ab81 e0be 060e d63f e4e4 81bc 0874 9bbe
00000080: 3dab f2be a9aa 9d3f c269 44bf c35a 94bf
00000090: eb6e 7fbf a818 5e3f e8f3 cfbf 8f21 a2be
000000a0: 5abe d8bc f4ad e2bf fc4c a5bf 7520 cfbf
000000b0: 7aec b13e 0776 a5be 6156 efbf 4d7c ecbf
000000c0: 56d8 ff3f e888 45bf 3c72 1bbd b1a1 e8bf
000000d0: 1959 7b3f b371 c43f ac74 c1bf 359c d7bb
000000e0: eca9 2fbc a87a 46ba 8a2e a1bf 566c bcbc
000000f0: f1e5 c0bf a004 74bf d71c c83f 8883 97bf
1.0797335 1.2661397 1.279872 0.20829351 -0.021777203 -1.2266786 -1.2244416 -1.6703079
-0.60431314 -1.3025092 -0.023803728 -0.8610076 1.5864953 0.00021017145 0.69574434 -2.1605575
-0.02432879 1.1316692 -0.50058764 -1.066469 -1.5123158 0.57454276 -1.5672325 -0.47046155
-0.34127495 1.3675663 -0.84989136 -1.53265 -0.4384893 1.672303 -0.015856214 -0.30361962
-0.4739627 1.2317706 -0.76723874 -1.1590198 -0.9977862 0.8675637 -1.6246309 -0.31666228
-0.026457954 -1.7709336 -1.2914119 -1.618178 0.3475073 -0.3231661 -1.8698236 -1.8475434
1.9987895 -0.7716203 -0.03795074 -1.8174344 0.9818283 1.5347198 -1.511373 -0.0065799006
-0.010721665 -0.0007571378 -1.2592328 -0.023000877 -1.5070173 -0.9531956 1.5633801 -1.1837015

fc.weight f4 [2, 64]
00000000: 1413 333e c28b 253e 3926 443e 310b 263e
00000010: a592 41be d648 9fbb 6e2a edbc 137c 8d3d
00000020: 7fab f6bc a1ec 67bc e7fb 91bd 56cc 84bb
00000030: 14b4 80bd 405e ecbd f402 54bb 5416 463d
00000040: 3671 0ebe 95a2 fd3d 5c72 103b d4ce 42bd
00000050: e969 6f3c 632c b0bc 4eca 2c3d 2caa 0c3d
00000060: 58d7 24bc 22fb 2d3c c099 09bd 7a9c 093d
00000070: 4303 20be d824 003f 40af 62bd 6b8b ddbc
00000080: 56cd cc3d d712 ba3d f3e3 30bd 836f 9b3c
00000090: b2c6 17bd 437f f93c 4927 b63d 7a99 9d3d
000000a0: 29a3 90bd 3884 723c a949 a4bc d154 423d
000000b0: 76e6 393b 1bf5 1eb9 1319 8e3d 84a5 e23c
000000c0: eb87 aa3e f8cc b0bc 085d d5bb de7f 48bc
000000d0: 37d4 0e3e c222 d83d 911d 14bd 7c4e 52bc
000000e0: 0d53 a4bc aaaa 07be fca1 b4bc 1dc4 dabd
000000f0: 67e3 bf3c 82d4 cd3d 8105 0d3e 6745 3c3d
00000100: b03c 2bbe 4aba 11be 8546 113c d769 aa3d
00000110: e3b9 7c3e 200c 8fbc 0017 51bd 7212 a03b
00000120: 2b0a 3abd 472f 9dbc b982 943d 2aa9 24bd
00000130: 3f48 12be c240 fa3d 72b7 2cbe 7b2a e03c
00000140: 2697 1a3e 165d 8fbd 1173 16bd 2c52 8fbc
00000150: b660 063b a81e 25bd ce76 153d 6b86 f33c
00000160: e90a 85bd 3ace 37be 6e56 46bd 0dcb 5fbc
00000170: b52e 64bd ca52 05bf 4f08 223d 7af5 ccbc
00000180: a1cb 513d 75f2 a83c eb66 eebc e30c acbc
00000190: bd69 50bd 4318 cabd 599c 3a3d 0b16 5b3d
000001a0: e3c1 4c3e 6723 afbc 0116 5e3c 84fe 383d
000001b0: d669 51bd 64e8 b4bc cba8 1a3d 6558 97bd
000001c0: 7aca 0bbf d98c d0bc 857f 8a3d 363a f2bb
000001d0: 36dc 93bd 01f7 b3bd bdf8 81bd 49f3 e238
000001e0: 1bc0 2b3c 6eac 223e 7a26 a7bc 9bd8 9d3e
000001f0: 7ad8 4bbd d977 033d 9232 153d 6d79 413d
0.17487746 0.16166595 0.19155206 0.16215207 -0.18903597 -0.0048609776 -0.028950896 0.06908431
-0.030111073 -0.014155538 -0.07128125 -0.004052679 -0.06284347 -0.11541414 -0.0032350393 0.048361138
-0.13910374 0.12384526 0.002204082 -0.047560528 0.014612653 -0.02150554 0.04218512 0.034341976
-0.010061108 0.010618957 -0.033593893 0.033596493 -0.15626244 0.5005622 -0.055342913 -0.027044019
0.10000102 0.09085625 -0.04318614 0.018974071 -0.037054725 0.03045619 0.08894212 0.07695289
-0.0706237 0.014802031 -0.020054655 0.04744417 0.0028366125 -0.00015159363 0.06938376 0.027666815
0.33306822 -0.021582112 -0.0065113343 -0.012237517 0.13948141 0.105535045 -0.03616101 -0.012836095
-0.020059133 -0.13248697 -0.022049896 -0.10681937 0.023423864 0.10050298 0.13771631 0.045964625
-0.16722369 -0.1423122 0.008866911 0.083209686 0.24680285 -0.017461836 -0.051047325 0.0048850114
-0.045419853 -0.019187583 0.07251496 -0.04020039 -0.14285372 0.12219383 -0.16866854 0.027364006
0.15096721 -0.070001766 -0.03673083 -0.017495237 0.0020504422 -0.04031244 0.036490254 0.029727181
-0.064962216 -0.17949763 -0.04842227 -0.013659251 -0.055708606 -0.5207945 0.039558705 -0.025019396
0.051219586 0.020623425 -0.02910181 -0.021002239 -0.05088209 -0.09867909 0.04555926 0.05348782
0.19995837 -0.021379186 0.013555051 0.0451646 -0.051126324 -0.022083469 0.03775863 -0.07389907
-0.5460583 -0.025457786 0.06762604 -0.007392193 -0.07219736 -0.08787347 -0.06346271 0.00010821835
0.010482813 0.15886089 -0.02040409 0.3082932 -0.049766995 0.032096718 0.03642518 0.04723494

fc.bias f4 [2]
00000000: c4bc dc3e eb3a 15bf
0.43112767 -0.58293027
