experiment/phish_eth/ECConv/ECConv_checkpoint.pt (torch_old, 107353 bytes, 10 tensors)

node_layers.0.layer.weight f4 [64, 4]
000000 95 d2 b8 3e 27 32 84 3e f3 7f b6 3e 06 39 c9 3e
       0.3609816 0.25819513 0.35644493 0.39301318
000010 e2 c5 0c 3e 6b 3e cf 3d b4 65 cf be a0 52 ce be
       0.13747361 0.10119327 -0.4050728 -0.40297413
000020 69 8e 6e 3c 66 2d 31 3d fe 0d 5d be be 8f 96 bd
       0.01456032 0.043256186 -0.21587369 -0.073516354
000030 f0 d0 0c 3e df 37 8c bc c3 75 ca be c8 74 ee bb
       0.13751578 -0.017116485 -0.3954297 -0.007277105
000040 3a 26 a3 3e 4f 8b 62 3e 0f 4d 5f 3d d1 25 98 be
       0.31865102 0.22123455 0.05451685 -0.29716352
000050 ff f7 ba 3d 42 0e 2a bd 88 65 0f 3d 89 ae 9e bd
       0.09129333 -0.041517504 0.035008937 -0.07748134
000060 8d 12 de bc 42 a0 81 be 6c d5 a0 3e 4c 1c 52 be
       -0.027108455 -0.2531758 0.31412828 -0.20518607
000070 bb 0d b6 be ba 13 95 3d 90 63 4f be 38 d1 e1 3d
       -0.3555735 0.07279153 -0.20252824 0.110262334
000080 ae ae e2 be cc 23 46 be d6 93 58 3d 34 69 0a 3e
       -0.44273895 -0.19349593 0.052875362 0.13516694
000090 60 90 b4 be a4 d0 59 3e e3 12 f9 bd 97 11 d1 be
       -0.352664 0.21270996 -0.121618055 -0.40833732
0000a0 91 ab e4 be 62 78 58 3d 36 a8 93 3e 0a db a9 3e
       -0.44662145 0.05284918 0.28839272 0.33174926
0000b0 01 32 d8 bd 98 55 2b 3d cb 24 de bc 05 95 c4 3d
       -0.105564125 0.041829675 -0.027117154 0.09598736
0000c0 a7 6e 96 3e c8 ad 9a be d2 f9 0b 3e 68 79 a9 be
       0.29381296 -0.3021071 0.13669518 -0.33100438
0000d0 db 9d 84 3e 5a d7 e0 bd b3 03 f4 be c0 db ac bd
       0.25901684 -0.10978575 -0.47659072 -0.084403515
0000e0 32 f9 96 3e 64 c8 ad 3e 8c 99 57 3e c7 42 bc 3e
       0.29486996 0.33941948 0.21054667 0.36769697
0000f0 a0 c1 3e be 8b 9d a2 be e4 3c d5 be 0e 79 83 3e
       -0.1862855 -0.3176082 -0.41648018 0.25678295
000100 ac f0 3d 3d 59 2b 64 be 8a e5 79 3e 09 ec 28 3d
       0.0463721 -0.22282161 0.24403968 0.041240726
000110 26 fa 68 bc d6 e8 e2 bd 4a d8 4c be 9d 3f d7 3d
       -0.014219796 -0.11079566 -0.20004383 0.1051018
000120 3b ab 70 be bb 1e a9 3b 22 89 c4 bd eb 25 ba be
       -0.23502819 0.005161134 -0.095964685 -0.36357054
000130 20 b2 9b be f6 69 ce 3d d9 49 e4 bd 08 a5 d6 be
       -0.30409336 0.10078804 -0.11146898 -0.41922784
000140 de a1 a4 be 80 ce ae bc ee 6d e2 be 20 5d 8d be
       -0.32154745 -0.021338701 -0.44224495 -0.2761011
000150 de 0c a6 bd db 18 73 3c ae 66 0c 3f 38 3f f9 be
       -0.08107923 0.014837469 0.54844177 -0.48681045
000160 66 e2 9b be c7 35 cf 3e ac 82 23 3d 7b 53 0b 3e
       -0.30446166 0.40470716 0.03991954 0.13606064
000170 fd 35 08 bf 0e 2f b0 bd ac 2f b4 be cd e1 94 bd
       -0.5320738 -0.08602725 -0.3519262 -0.072696306
000180 95 d1 92 3d fe 5c 1f 3e 43 6c 96 be ad 18 ba 3e
       0.07168881 0.15562817 -0.29379472 0.3634695
000190 22 2a 09 bf 7e c7 8c 3e 57 df 2d bd 29 ce ec be
       -0.53579915 0.2749595 -0.04244932 -0.46251038
0001a0 36 e0 ca 3e 3c 2d 80 3e bb 83 bd bc 11 e7 c2 be
       0.39624184 0.2503451 -0.023134103 -0.38066915
0001b0 47 7b ec be f5 90 a6 bd 2e c6 13 bf 2a 7a 7c 3e
       -0.46187803 -0.08133117 -0.57724273 0.24655977
0001c0 c5 51 09 bf 21 dd 3f bf 5b 74 be bc c1 44 af be
       -0.53640395 -0.7494679 -0.023248842 -0.34232143
0001d0 b8 34 b1 3e 1e bf d9 be 7e 66 b4 3e 5e 9d bb 3e
       0.34610534 -0.42528623 0.35234445 0.366435
0001e0 ac 91 48 bf 66 fd 67 3d 05 39 80 be 69 ff 47 bb
       -0.7834728 0.056638144 -0.25043502 -0.0030517227
0001f0 20 18 bb be ec c5 e4 be 65 30 a9 be 05 6d f2 be
       -0.36541843 -0.44682252 -0.33044735 -0.473488
000200 65 25 87 be 3e 96 c7 be 48 cf 52 be 77 8c 4a 3e
       -0.26395717 -0.38981813 -0.20586884 0.19780146
000210 a9 7f b6 be df 6e 94 be 18 5d 39 be f2 e8 30 3e
       -0.35644272 -0.28990838 -0.18101919 0.17276362
000220 68 8e 6c 3e d6 85 08 be 2d 72 c3 3e fe 3f f2 3e
       0.23101199 -0.13332304 0.38173047 0.47314447
000230 0f ff b6 bc eb a5 58 3e 8c 63 6b 3d 3d d9 ca be
       -0.022338418 0.21157043 0.057467982 -0.39618865
000240 73 60 9c 3e e9 c7 c8 3e a6 c1 a4 be 74 74 5b 3e
       0.30542335 0.3921502 -0.32178992 0.21431142
000250 02 a2 ff 3e df 5e 95 bd b1 f4 29 bd 07 d7 3d be
       0.4992829 -0.07293486 -0.04149312 -0.18539058
000260 53 70 2e 3e bf ce 77 3e 61 e2 dc bd 82 bf ec 3d
       0.17035036 0.24199961 -0.10785366 0.11559965
000270 ed 34 b1 3e 26 5e a5 3d ec 1b 24 bf 71 6e 84 3b
       0.34610692 0.08074598 -0.64105105 0.004041486
000280 b3 27 d1 be a5 1b de 3e 38 46 54 3e 4f 05 66 3e
       -0.408506 0.43380466 0.20729911 0.22462963
000290 1e 36 90 bd fa fc 12 3c 84 91 e2 be ea 19 2f 3d
       -0.07041572 0.008971447 -0.44251645 0.042749323
0002a0 d1 5a d2 bd 56 d6 0f be 75 21 fd bd 86 53 07 3e
       -0.10271228 -0.14046606 -0.12359897 0.13215455
0002b0 23 6f 5e 3d a9 d0 13 bf 34 12 64 3e 4f 94 2c be
       0.054305207 -0.57740265 0.22272569 -0.1685345
0002c0 f0 66 87 be 04 d2 fb be b0 39 aa 3d 20 79 24 be
       -0.26445723 -0.49183667 0.08311784 -0.1606183
0002d0 62 6f cc 3d 38 3a c6 be 41 ed 79 be e5 c8 50 3e
       0.09982182 -0.38716292 -0.24406911 0.20389135
0002e0 bf 74 a3 3e ed 4b 2c bf da 65 12 3d cb f1 be be
       0.31925008 -0.67303354 0.035741664 -0.37293848
0002f0 15 fc cd be 26 9f 20 be e1 d3 a4 3e 3f a6 4b bf
       -0.40231386 -0.1568571 0.321929 -0.79550546
000300 66 1c de be 58 e9 b8 3d 01 8f 61 be fd 14 ec 3e
       -0.4338104 0.09028882 -0.22027208 0.46109763
000310 8a 90 94 3e 25 d0 55 be 64 8e b0 be e4 b3 95 bd
       0.29016525 -0.20880182 -0.34483635 -0.07309702
000320 18 5a 6e 3e fa c8 ea be af 20 17 3d 53 39 7d be
       0.23276556 -0.45856458 0.036896404 -0.24728899
000330 f4 3a 40 be e9 88 64 be 24 6d be 3d af 95 47 3d
       -0.18772489 -0.22317852 0.09298161 0.048726734
000340 0d 15 98 3e 8d 95 95 be ca e1 92 bd 2f 5d 1c bf
       0.2970356 -0.2921566 -0.07171972 -0.61079687
000350 42 67 52 3e fa 9e af be a5 67 da 3d d3 7c 94 be
       0.20547202 -0.34300977 0.106643 -0.29001483
000360 75 95 44 be a6 57 6a bd c7 0d 74 be 26 5f 20 be
       -0.19197638 -0.057212494 -0.2383338 -0.15661296
000370 ae da b3 3c 2b bd 87 be 9b 2e 10 3e 32 6e a6 be
       0.02195486 -0.2651151 0.14080279 -0.32505947
000380 95 b5 1c 3e 99 46 ac 3c c3 35 18 be 81 73 94 be
       0.15303643 0.021029757 -0.14864258 -0.28994372
000390 60 85 f2 be 57 34 d5 3e e0 21 c0 be a9 fc 99 3e
       -0.47367382 0.41641495 -0.37525845 0.30075577
0003a0 0e 31 e9 bd 8e 76 41 3e 40 91 7b 3e 8c 4f 33 bd
       -0.113863096 0.18892881 0.24567127 -0.043777034
0003b0 a6 42 5d 3d 8b ad 46 be 53 81 80 3e d8 aa 76 3d
       0.05401864 -0.19402139 0.25098667 0.060221523
0003c0 94 bc 5c 3e 35 1d a7 3e d4 4f e1 be 39 b8 4d be
       0.21556312 0.3263947 -0.44006217 -0.20089807
0003d0 6e 29 64 be 34 7d f2 bd 42 5f b0 be 46 77 82 3d
       -0.22281429 -0.11840287 -0.34447676 0.06370406
0003e0 4b 36 b9 be df 63 a0 3e 38 cd dc be a0 ff 02 be
       -0.36174235 0.31326196 -0.4312532 -0.12792826
0003f0 91 e4 59 be f9 21 95 3e 5f 16 12 be ad 6f bb 3d
       -0.21278597 0.29127482 -0.14266346 0.0915216

node_layers.0.layer.bias f4 [64]
000000 29 8c 82 3e a7 31 bb be 05 cb 9a 3e 33 48 f9 3e
       0.2549756 -0.3656132 0.30233017 0.48687896
000010 72 67 b0 3e 8b 21 fd 3e c1 f2 3b 3f 62 2b b1 3c
       0.34453923 0.49439654 0.7341729 0.021627132
000020 91 a3 b8 be f2 1f 32 bf f0 ec 95 3e f1 2b 33 bf
       -0.3606229 -0.69579995 0.2928233 -0.69988924
000030 22 0d c6 be 80 91 fb be b5 6e 43 3f f1 ae 9d be
       -0.38681895 -0.49134445 0.763408 -0.30797532
000040 2b ec 23 3e 57 3d 05 3f 5d 8f e2 bc 21 f1 b3 bc
       0.1600806 0.5204672 -0.027656252 -0.021965565
000050 16 70 95 be 85 d9 cf 3d 77 35 0e bf b8 69 83 3e
       -0.29187077 0.101489104 -0.5555033 0.25666595
000060 33 0e 90 3e 35 c1 80 3e a7 92 2b 3f d9 48 86 3e
       0.28135833 0.25147405 0.6702065 0.26227453
000070 08 4d 78 3e cf 9c 17 bf 50 3d 44 3e 0d e0 3d 3f
       0.24248135 -0.59223646 0.19164014 0.7417
000080 60 b8 db be 9f 09 a8 bc 83 5c c6 3e 36 8b 31 bf
       -0.42914104 -0.0205124 0.38742456 -0.69353044
000090 5b 7a d3 3e 79 11 be 3d fe 9f 58 bf 7c ea 4b 3f
       0.41304287 0.092806764 -0.8461913 0.7965467
0000a0 f4 1e af bc 2e 5c e1 3e 72 6d 3e bf 5b 0d d2 3e
       -0.021377064 0.4401564 -0.7438575 0.41025814
0000b0 38 39 95 be b1 56 06 3f f1 fa f7 be 5f e2 cc 3e
       -0.29145217 0.5247603 -0.4843364 0.40016457
0000c0 e5 f9 4f 3e 95 95 fb be 11 d4 4e 3e a7 5c d7 bd
       0.20310171 -0.4913756 0.20198084 -0.10515719
0000d0 72 ff 25 3e 68 b6 4e be f1 c1 a8 3e 29 2b fd be
       0.16210726 -0.2018677 0.32960466 -0.4944699
0000e0 e8 22 4a 3f 87 54 be 3d 00 92 95 be 47 83 12 bd
       0.7895951 0.09293466 -0.29212952 -0.035769727
0000f0 3e 58 05 3f 16 9a 20 3f f8 35 e5 3e 5b 57 00 bd
       0.5208777 0.62735116 0.44767737 -0.03133331

node_layers.1.layer.weight f4 [64, 64]
000000 c3 e5 ca bc 70 be fc bd 49 20 ff 3d 01 68 37 bd
       -0.024767762 -0.123410106 0.1245733 -0.04477692
000010 17 31 a1 3d 2e ad d1 bb bf 5d 6e 3d e1 29 ea bd
       0.07870691 -0.0063988185 0.058194872 -0.11433769
000020 be 6c c9 3d da f5 87 bd 9b 03 d8 bb 24 cb be 3d
       0.09835194 -0.06638689 -0.0065922267 0.0931609
000030 ea a6 26 3e 0e 0f e5 bd 0f fe 25 3e fc ff b3 bc
       0.1627461 -0.11184512 0.16210197 -0.021972649
000040 a3 9a 5c bd 5d ee 0d bc d8 35 16 be 58 34 eb bd
       -0.05385841 -0.008662787 -0.14668977 -0.11484593
000050 5d 3f 42 bc 2f 82 75 bd f6 8b 6e bd 55 ce a1 3d
       -0.011855927 -0.059938606 -0.058238946 0.07900683
000060 0e 09 f7 3d fc c4 14 3d 04 25 21 3e 22 b4 9c bd
       0.12062274 0.03632067 0.15736777 -0.07651545
000070 75 9f 18 3d 02 c1 80 3d e8 f5 e8 bd ad 2a 6f 3e
       0.037261445 0.06286813 -0.11375028 0.23356123
000080 b8 a5 a1 3b 5f 8c 11 be ff 47 86 3c 2a 56 5c 3c
       0.0049330853 -0.14213704 0.016391752 0.0134482775
000090 3a c5 b5 bd 7e 93 0b bd ed 48 04 3d a2 fe b3 3d
       -0.088755086 -0.034076206 0.03229611 0.08788802
0000a0 6b 4b 98 bc b3 10 6a 3d c6 b4 0a bc 64 82 77 bc
       -0.01859065 0.057144832 -0.008465951 -0.015106771
0000b0 19 68 4c bd ba fd 73 bd d9 48 b3 3d e4 87 bb 3d
       -0.049903963 -0.059568144 0.08754129 0.091567785
0000c0 74 d9 98 3d e2 17 92 3d 62 20 43 3d 6d da 03 be
       0.07463351 0.071334615 0.047638305 -0.12876292
0000d0 92 56 ab bc 0b da 0f be c8 ea 28 3e 07 47 d3 bd
       -0.020915303 -0.1404802 0.16495812 -0.10316282
0000e0 a9 8b 30 3e 60 bc 86 3c e7 32 fd 3d 7d 3a ed bd
       0.17240776 0.016447246 0.123632245 -0.115834214
0000f0 29 c3 83 3e c4 5a 23 3e 23 0a 8b bb bb a2 d4 3d
       0.25734833 0.15952593 -0.0042431518 0.10382601
000100 4c 65 80 bc bc 66 c8 bd a1 37 0a 3d 2b e4 9c 3d
       -0.015673302 -0.0978522 0.033744458 0.07660707
000110 9f 8b 67 3d 0a 81 1c 3e 80 ed 82 3d 05 7b 1e bd
       0.056529637 0.152836 0.06392956 -0.03869154
000120 38 c3 bb bd 8f 7c fa 3c 17 ef 82 bc 19 9b d1 bd
       -0.091680944 0.030576972 -0.015983148 -0.10234661
000130 da a0 18 3e 8b 24 34 3d 56 8b 12 3e 20 d1 d2 bc
       0.1490511 0.043980163 0.14310965 -0.025734484
000140 5d 1e bb bd 1d 6f 8a 3d 86 10 0f be af d8 b3 3b
       -0.09136651 0.067594744 -0.13971147 0.005488477
000150 2c 5f 6b bd 19 b8 2c bd ed 46 02 3d 45 19 d2 3c
       -0.05746381 -0.042167757 0.03180592 0.025646815
000160 5d b2 d1 3c 7e c4 3d 3d bb 1c e6 3d b8 af 8c 3d
       0.025597746 0.046329968 0.11235949 0.06869453
000170 ba 27 1c 3d dd 3e 91 3d 5e b4 e6 3c 2f 28 5f 3e
       0.038123824 0.07092068 0.028162178 0.21792673
000180 0d a4 85 3d b3 30 9d 3d 17 2f 92 bd 7a ae 5b 3d
       0.06525431 0.07675304 -0.07137888 0.05363319
000190 32 e2 13 3d 5d d3 9a bc b4 ec a7 3d f8 46 77 3e
       0.03610439 -0.018899614 0.081994444 0.24148166
0001a0 eb a8 57 bd 2a 59 e6 bd 0a d5 94 bd 44 33 b0 bd
       -0.052651327 -0.112474754 -0.072671965 -0.08603528
0001b0 a5 7d cb bd 2d 86 9f 3d 92 a3 5e bd d9 ef 2b 3e
       -0.09936074 0.07789264 -0.05435521 0.16790713
0001c0 ff 38 a4 bd 35 34 c2 3d 94 1b 37 3c 93 1c ad 3d
       -0.08018684 0.09482614 0.011176009 0.08452716
0001d0 6a 19 75 3d e4 02 0f be 42 82 39 3c d3 e4 1b bc
       0.05983869 -0.13965946 0.01132256 -0.009515005
0001e0 ce ac ae 3e c0 ee 7d bd 55 0e 69 bd 35 1a 3c 3d
       0.34116215 -0.061995268 -0.056898434 0.04592343
0001f0 bd 6a b1 3e d5 6f ef 3d 1c e3 b7 3d 9b 0e 8f bc
       0.34651747 0.11691252 0.089788646 -0.01746302
000200 5e fe 18 3d c1 76 8a bd fe 6f aa bd c9 2f bb 3c
       0.03735196 -0.06760932 -0.08322142 0.022849934
000210 33 c4 38 3d 34 f5 8d bd 76 2e bf bd d2 c1 75 3d
       0.045108985 -0.069315344 -0.093350336 0.059999295
000220 05 94 8a bd 9c b6 bb 3d 15 7b 9c bd 32 6d ca 3d
       -0.06766514 0.09165689 -0.076406635 0.098841086
000230 38 1a 36 3d de 05 cf 3d 36 d5 b8 bd 90 f8 30 3c
       0.044458598 0.10108541 -0.09025042 0.010801449
000240 d7 ed a4 3c 3c 74 40 3d c6 1b 82 3d 8b 0f 68 3d
       0.020132942 0.04698585 0.063529536 0.056655448
000250 8d c0 71 bd 9b 73 a6 bc 80 7f b7 3d 2d a6 58 bd
       -0.05902152 -0.020318797 0.089598656 -0.052892853
000260 fc 4a ee bd b3 15 bc 3d d1 37 36 bd d7 4e b5 bd
       -0.11635396 0.09183826 -0.044486824 -0.08852928
000270 1b a3 72 3d 95 22 04 3d 47 88 98 bd ec 6e c3 b9
       0.05923758 0.032259542 -0.07447868 -0.00037275942
000280 8d 8b ae bd 57 75 99 bd 1e 7a 9a 3d ec 23 d2 bc
       -0.08522711 -0.07493084 0.07542823 -0.025651895
000290 af c6 85 3d ed 1f d9 bc a0 33 9c 3c f5 b1 2b 3d
       0.065320365 -0.026504481 0.019067585 0.04191776
0002a0 8d a6 90 3c c4 11 8e bd 90 db 2b 3a d4 ac 49 bd
       0.017657543 -0.06936982 0.00065558497 -0.049237087
0002b0 85 00 04 be 53 ab 90 bd c0 e4 9e 3d ed 06 d9 3d
       -0.12890823 -0.070639275 0.07758474 0.10597024
0002c0 16 09 ff bd a6 35 3b bd 0f 2e a0 3d 3d eb c8 3b
       -0.12452905 -0.04570546 0.07821285 0.006131558
0002d0 b1 db b4 bd a6 70 6f 3d f1 fe 35 3d f2 bc 1e 3d
       -0.08830965 0.05845704 0.044432584 0.03875441
0002e0 b8 f7 4c bd 47 e2 61 3d 10 df 0d bd 19 99 b3 3d
       -0.05004093 0.055147436 -0.034636557 0.087694354
0002f0 5a ff 15 3b 1d ae a0 3d 3d 03 93 bd 7b 6f 65 bd
       0.0022887797 0.078457095 -0.07178352 -0.05601452
000300 ea 3d 03 3b de 79 0a be f0 bb af 3d a3 1a ae 3d
       0.0020025917 -0.13523051 0.08580768 0.08501174
000310 56 06 80 3c 72 d0 a1 3c f8 bb c9 bd ac c0 9e 3c
       0.015628021 0.019752715 -0.09850305 0.019378982
000320 1a 50 e6 bd 5f a4 70 bd b3 b7 1f be 40 87 c0 3d
       -0.11245747 -0.058750506 -0.1559742 0.09400797
000330 09 d1 b4 3d 41 14 a5 bd 37 a8 ee bb 23 25 02 be
       0.08828933 -0.08060504 -0.0072832364 -0.12709479
000340 f2 ac 21 bd 07 b2 c4 bd 7b 54 ce 3d b7 40 32 3d
       -0.039471574 -0.096042685 0.10074707 0.043518748
000350 fe 45 e2 bd 04 34 88 bd b7 4e c4 bd dc 01 0f be
       -0.11048506 -0.06650546 -0.09585326 -0.13965553
000360 78 4b 50 3d 50 01 f8 bd b2 fd 20 bd ae 31 19 3d
       0.050853223 -0.12109625 -0.039304443 0.037400894
000370 bf 01 f4 bd 8e e5 14 be 6c 73 0c 3d 1b 32 d1 bd
       -0.119143955 -0.14540693 0.034289762 -0.10214635
000380 64 03 d1 bc d7 ec 34 bd a2 0c b7 3d c4 11 0f 3b
       -0.025514312 -0.04417118 0.089379564 0.0021830657
000390 0a bc 9a bd f4 b9 85 3d 38 00 90 bd 03 e7 93 bd
       -0.07555397 0.06529608 -0.07031292 -0.07221796
0003a0 16 7e b8 bd 4f 6a ee 3b 0a fe 9d bd 2b 55 84 3d
       -0.09008424 0.0072758566 -0.0771447 0.06461557
0003b0 28 c2 3d 3d ec ab 49 3c 57 2f f1 3d 3d 62 25 bd
       0.04632774 0.012309056 0.117766075 -0.04037689
0003c0 66 94 06 3d 4a de dd bd ea 4d 99 3d e6 74 45 3b
       0.032856368 -0.10833414 0.07485564 0.0030129491
0003d0 78 90 62 bd 4a ef 50 3d e4 fc a4 3d c2 3e 57 3c
       -0.055313557 0.051009454 0.080560476 0.013137521
0003e0 40 7b e1 bd 83 1a f2 bc 46 9d 26 bd 32 fd f5 bd
       -0.11009836 -0.029553657 -0.04067733 -0.12011184
0003f0 19 d9 f8 bd 8c 92 8c 3c 22 f1 90 bd e9 b6 17 3b
       -0.12150783 0.017159723 -0.070772424 0.0023149794

node_layers.1.layer.bias f4 [64]
000000 d6 50 8c 3e f9 c9 e4 3e 72 1e 96 3d bc 7d 0f 3c
       0.27405423 0.44685343 0.07330026 0.008758005
000010 c8 29 c1 3e 41 7d 73 3e ca 44 e0 3e 21 99 87 3d
       0.3772719 0.2377825 0.43802482 0.06621004
000020 37 9d c7 3d d9 9d e8 be fd f7 79 3e 74 cb f3 3e
       0.09746783 -0.45432928 0.24411006 0.4761616
000030 bc 33 c8 bd 26 c7 1a 3e b9 59 50 be 1c f9 f9 3e
       -0.097754925 0.15115032 -0.20346726 0.48822868
000040 51 aa 02 3f a3 e8 98 3d 54 bf 8c 3d 7d 9b 8e bd
       0.5104113 0.07466247 0.068724304 -0.06963251
000050 f2 89 ae 3e 9b d6 1d 3e f4 55 2b 3d f0 c2 16 bf
       0.3408962 0.15413897 0.04183002 -0.588912
000060 78 e0 c3 3e 90 d2 dd be 40 c0 2b bf 61 ec c6 3e
       0.38257194 -0.4332471 -0.67090225 0.38852218
000070 1e 96 11 bf 79 28 b7 3d 41 7b 20 bf 8c fc 8c bd
       -0.56869686 0.089432664 -0.6268807 -0.06884107
000080 8c fb 60 bd af 92 80 3e 3e f8 d5 3e 0c ce 36 bd
       -0.054927394 0.2511191 0.41790956 -0.044630095
000090 6c b3 a9 bd 1d 18 7e 3d e0 f8 da 3e 16 67 96 bd
       -0.08286175 0.062034715 0.42768002 -0.07343881
0000a0 cf e5 c9 3e cf af 1e be 5e ab c1 3e a8 68 1e 3e
       0.39433143 -0.15496753 0.37826055 0.1546961
0000b0 4c 33 8a 3e cc 02 63 bd c5 18 aa 3e 42 c6 8a bd
       0.2699226 -0.05542259 0.33222023 -0.06776096
0000c0 a7 44 06 3f e1 e3 82 bd ef ce 2d bf a9 2e 06 bf
       0.52448505 -0.06391121 -0.6789388 -0.5241495
0000d0 80 86 2e 3c 19 94 b6 bd 05 62 e5 3e 14 db 23 bc
       0.0106521845 -0.08914966 0.44801345 -0.010000963
0000e0 36 0d 96 3e 0e 8f b1 3e a1 d8 e1 3e a0 6a 9f 3d
       0.29306954 0.34679455 0.44110587 0.07784009
0000f0 b6 a9 99 3e 8d 1a e8 bd 36 75 e7 3e af 82 54 bc
       0.30012292 -0.11333189 0.45206612 -0.0129706105

edge_layers.0.weight f4 [256, 4]
000000 dd 2f eb 3e 76 87 01 bf ea eb 3c 3e 45 3f f4 be
       0.45934954 -0.5059732 0.18449369 -0.4770452
000010 1a 9d f2 3d 5d 40 fd bd f4 c2 db be 33 83 b0 3e
       0.11846371 -0.12365792 -0.42922175 0.34475097
000020 58 9e 11 be 59 4a 89 3d ed a6 dc be 0c ac d3 3c
       -0.1422056 0.06703634 -0.43096104 0.025838874
000030 ac 1e 22 3e 04 cd 7a be 58 55 c8 bd 0c bf 96 be
       0.15832013 -0.2449227 -0.09781903 -0.29442632
000040 54 7c ce be 48 f1 c5 3d c6 3d 87 3e 10 06 15 3d
       -0.4032923 0.09665161 0.26414317 0.036382735
000050 2c 5e 94 be 09 e5 fc be 1b a0 20 3f 2f c0 66 be
       -0.28978097 -0.4939349 0.627443 -0.2253425
000060 6c f8 ba be 2e 63 e2 be 00 77 fc bb e0 9c 58 be
       -0.36517656 -0.44216293 -0.0077046156 -0.21153593
000070 4f b9 94 bd b0 0c b1 be b7 54 9f be d7 0a 40 bd
       -0.07261907 -0.34579992 -0.3111932 -0.046885338
000080 80 05 71 3e e7 a5 7c 3c 50 2c 65 be e5 70 fe 3d
       0.23537254 0.015420414 -0.22380185 0.12423877
000090 0b f9 17 3f 5c d0 e8 bd 27 41 1b be 97 c4 ae bd
       0.59364384 -0.113678664 -0.15161572 -0.0853359
0000a0 c4 82 a2 3e dc 32 16 be cc 3f 88 be fc 5c fc be
       0.3174039 -0.14667839 -0.26611173 -0.4928969
0000b0 61 79 b5 be 12 5d e8 bd 4b e7 c5 bc 2a 77 f0 3e
       -0.35444167 -0.11345877 -0.02415814 0.46965915
0000c0 94 2c ef 3e 4b ea 97 bd 21 0a d9 bd 6f b3 f1 3e
       0.46713698 -0.07417735 -0.10597635 0.4720721
0000d0 18 f8 88 be 18 ba 47 3e 7a 3d c8 3e 54 1a 5d be
       -0.2675178 0.19504583 0.39109403 -0.21592075
0000e0 2b 5d 9f be 8a 7b b9 3e 9e 41 0b 3d 9d 42 11 bd
       -0.3112577 0.36227065 0.033998124 -0.035463918
0000f0 0a 9b 1d 3e 2d 82 d8 be 64 a0 81 3e c1 3d 11 3e
       0.15391174 -0.42286816 0.2531768 0.14183713
000100 c8 36 8e 3e c4 0f aa bd 2b ad e3 be 2f 08 c8 be
       0.2777617 -0.08303788 -0.44468054 -0.39068744
000110 a4 67 bb 3e f5 e4 8f 3e 48 dd 40 3e 9e ae 62 bd
       0.3660251 0.28104368 0.18834412 -0.05534231
000120 ff 60 85 be a1 37 10 3f f8 92 a2 be 5c fa b5 3e
       -0.26050565 0.5633488 -0.31752753 0.35542572
000130 53 64 a7 bd b4 69 ce be 84 7c 64 3e e7 35 a6 be
       -0.08173432 -0.4031502 0.22313124 -0.32463
000140 4e c5 c1 3e 96 23 3a bd 78 60 f5 3e 64 f3 5f be
       0.37845844 -0.045444094 0.47925162 -0.2187019
000150 68 c1 34 bd 99 01 8b be d1 88 42 3d 85 1f f5 3e
       -0.04412976 -0.27149656 0.04749376 0.4787561
000160 e2 27 7a 3e f5 7c 16 3d 0b 94 92 be be c0 e6 3d
       0.24429277 0.036740262 -0.28628573 0.112672314
000170 bf 71 01 3f e4 ed c6 be 17 81 16 be 66 08 a0 bd
       0.5056419 -0.3885337 -0.14697681 -0.07814102
000180 49 12 bd 3e f6 bc c3 3d 72 b7 6d 3e dc e0 91 be
       0.36928013 0.09557526 0.2321451 -0.28491867
000190 9c 20 2b 3d c3 21 e9 be fe b7 b1 bd eb d8 04 be
       0.041779146 -0.4553357 -0.08677672 -0.12973373
0001a0 49 82 0f 3f 5d f4 f0 3e 28 f0 cf be b4 3a 72 be
       0.56058174 0.47061434 -0.40612912 -0.23655206
0001b0 80 fe 81 3c f8 54 4b be 1e a1 e5 be a8 2d 42 be
       0.015868425 -0.19856632 -0.44849485 -0.18962729
0001c0 65 8f 7c 3d 5c f5 a1 3e 75 fc 4a 3e ce fe d3 be
       0.06166019 0.31632507 0.19822867 -0.41405338
0001d0 34 85 19 be 24 53 7c bd 0a f3 d6 bd af 9a be be
       -0.14992219 -0.061602727 -0.10495575 -0.3722739
0001e0 88 8d c5 3d 88 9a c6 be d8 ed 49 3e 9a 0b c0 be
       0.096461356 -0.38789773 0.19719636 -0.3750885
0001f0 1c 9e 40 3e 02 01 c3 be 48 d3 81 3d 80 c6 bb be
       0.18810314 -0.38086706 0.06339127 -0.3667488
000200 af 48 83 3e d5 e6 af 3e 1a 4f 0e be 24 fb 65 3e
       0.2564139 0.34355798 -0.13897362 0.22459084
000210 29 bd 5f 3d d7 d8 60 be 1f 3e 27 3f 92 d9 9f be
       0.054623757 -0.21957718 0.65329164 -0.3122068
000220 cb 53 34 bd 37 53 c2 3e a7 41 e8 3e 49 39 c5 3c
       -0.044025224 0.37954113 0.4536259 0.024075167
000230 23 45 4b 3d d9 64 16 be 00 cc ed 3c d2 8b a8 3e
       0.04962648 -0.14686908 0.029027939 0.32919174
000240 3c e3 81 be 9b e0 4f 3e 57 7b e4 bc 75 55 ae 3d
       -0.2536868 0.20300524 -0.027890844 0.085123934
000250 65 85 83 be d3 d7 a1 3c 9d 8c a3 3e c2 06 69 bc
       -0.2568771 0.019756233 0.31943217 -0.014222803
000260 d2 f9 fc be 58 f2 ef 3e da 69 cf 3e 00 35 a8 be
       -0.49409348 0.4686458 0.40510446 -0.32852936
000270 1f 2b 25 be 20 32 d3 3e 0e 8a 48 3d 3b f4 89 3e
       -0.1612973 0.4124918 0.048959784 0.26944146
000280 81 d4 e9 bd 62 fe 83 3d eb bd a2 3e ec 8a f5 3e
       -0.11417485 0.06445004 0.3178552 0.4795755
000290 86 3f 9c be 74 53 77 be d2 99 d0 3e da d7 f6 be
       -0.30517215 -0.24152929 0.40742356 -0.48211557
0002a0 5e f0 ff bd ec 0e db be ff 17 72 be 00 85 4c 3c
       -0.12497018 -0.42784822 -0.23641966 0.012482882
0002b0 58 20 cc 3e 74 0d f6 be ec 5f 40 be c8 b6 e2 be
       0.39868426 -0.4805714 -0.18786591 -0.44280076
0002c0 ae 3e 05 bd 63 83 4e 3e fd e2 49 be 12 92 e2 3e
       -0.03253048 0.20167308 -0.19715495 0.44252068
0002d0 48 91 97 bc d8 5e c8 bd 20 77 a4 3e 0e 64 25 3e
       -0.018501893 -0.09783715 0.32122135 0.16151449
0002e0 dc 99 bc be c0 cd 9a 3e 35 41 bf 3c 1e 03 bd bd
       -0.36836135 0.302351 0.023346523 -0.0922911
0002f0 8a 34 e8 bd a3 ba 93 be e7 6f f0 be da d0 91 3e
       -0.11338146 -0.2885333 -0.46960375 0.28479654
000300 b0 5f 1a 3d 60 e0 87 3c ac fc 5c be 58 78 ef bd
       0.03768891 0.016586483 -0.21580762 -0.116928756
000310 f0 c9 14 be fc c0 f2 be 00 71 41 3e 4c df 76 be
       -0.14530158 -0.4741286 0.18890762 -0.24108618
000320 77 12 bc 3d 67 d3 d6 3e 9f 9e f0 3e db 32 b0 bd
       0.091832094 0.41958162 0.46996018 -0.0860345
000330 0e c3 71 3e 98 5d e3 be 46 a1 46 3e 6d 2f cf 3e
       0.23609564 -0.44407344 0.19397458 0.4046587
000340 87 04 72 bd 8d 4c 0c 3e e3 9f d6 3e 38 cd a7 3e
       -0.05908635 0.13701077 0.4191886 0.32773757
000350 06 64 92 be 3c be f1 3e 08 2b 22 be ec 04 83 be
       -0.28591937 0.4721545 -0.15836728 -0.25589693
000360 00 a4 2f be 5c 5a ca 3e 48 1b c4 3d 50 3b 80 be
       -0.17152405 0.39522064 0.09575516 -0.25045252
000370 98 cd ee 3e 02 36 e4 3e 8f 29 98 bd 41 b6 a6 3e
       0.4664123 0.44572455 -0.07429802 0.32560924
000380 e9 f4 ed 3e e7 be e7 3d 58 47 64 be 66 89 83 be
       0.46475914 0.113157086 -0.2229284 -0.25690764
000390 ec 44 c6 3d bc c3 9b bd 9f 31 a3 3c 54 fc c7 be
       0.096811146 -0.07605693 0.019921122 -0.390597
0003a0 1a f7 d8 be 5d 6f ed 3e 20 0c 8f bc 2d ce 32 3e
       -0.42376024 0.46374026 -0.017461836 0.17461462
0003b0 8f 1f 7e 3d bf fe ce 3e 6f 91 bf 3e ef df e8 bd
       0.062041815 0.4042873 0.37415645 -0.11370837
0003c0 cb 61 ca 3e 23 7f b8 be 3a 2a 48 3e 4b 72 0d 3d
       0.39527735 -0.36034498 0.19547358 0.034532826
0003d0 43 29 41 bd 36 7b bb 3e 62 ce e7 3d 93 30 e6 3d
       -0.04715849 0.3661744 0.11318661 0.112397335
0003e0 92 74 fa be 5f b7 49 3e 07 7b 5a be 3d f8 37 3e
       -0.4891706 0.19698857 -0.21335994 0.17965789
0003f0 c0 4b dd 3e 50 98 5e bd 80 5d 58 be 2e 20 bb be
       0.43221855 -0.054344475 -0.21129417 -0.3654799

edge_layers.0.bias f4 [256]
000000 04 0d af be 25 69 e8 3c f6 79 d3 be f6 bb f5 be
       -0.34189618 0.02837045 -0.41303986 -0.47994965
000010 1a 17 af be 8d 78 f6 3c 7c 8f 8b be 1f a7 20 bc
       -0.34197313 0.03008678 -0.27257907 -0.00980547
000020 e9 31 83 3e 51 5d 8b ba ee ee d1 be 32 30 21 be
       0.25624016 -0.0010632669 -0.410026 -0.15741041
000030 8b d5 b9 3e cc a8 c8 be 33 83 83 3d 20 6f b7 3e
       0.36295733 -0.39191282 0.06421509 0.3582697
000040 61 76 b2 3e 0c 58 d5 be b7 1c c5 be 42 0b 8d 3e
       0.3485594 -0.41668737 -0.3849847 0.27547652
000050 76 c1 de 3c fa 71 ac 3a 7a 4b 70 bd e3 cb d6 be
       0.027191859 0.0013156526 -0.05866573 -0.41952428
000060 e8 40 8c bd 13 a1 ca bb 26 16 bd 3d e4 cb fe be
       -0.068483174 -0.0061837523 0.0923274 -0.4976493
000070 f7 e6 8b 3d 7c f0 11 3b f0 65 a7 be b6 bc 9f be
       0.068311624 0.0022268584 -0.3269496 -0.31198663
000080 68 88 94 3e c7 4a a4 3d 45 dd f1 bd e3 ea 0e 3e
       0.2901032 0.08022075 -0.11809782 0.1395679
000090 54 82 20 3e 7e 9d ad 3d 04 2f cf be 96 72 1f bd
       0.15674716 0.08477305 -0.40465558 -0.038927637
0000a0 d4 6c 98 be 54 da 96 be df b3 db 3e 02 c5 9e be
       -0.2977053 -0.29463446 0.42910668 -0.3100968
0000b0 bb c1 b6 3e 19 8e 6c bd 79 68 b7 3d 15 61 8f be
       0.3569468 -0.057752702 0.089554735 -0.28003755
0000c0 6c cb 3d be 00 6c b4 be 99 c6 a4 be 0f e6 59 be
       -0.1853463 -0.35238647 -0.32182768 -0.21279167
0000d0 04 61 29 be 72 1a c4 be 9c 96 c3 be f4 45 52 3d
       -0.16540915 -0.38301426 -0.38200843 0.051336244
0000e0 66 bb 97 be d2 ff 24 bc 7d 67 6a bd 3e f0 9b be
       -0.2963516 -0.010070758 -0.0572276 -0.30456728
0000f0 98 bf b9 be 1c 44 62 3e 7c 63 ed 3e 34 b5 c4 be
       -0.36278987 0.22096294 0.46364963 -0.38419497
000100 5d 02 cd 3e 42 6e 80 be ad 72 80 bd cb 1d dc bd
       0.40040866 -0.2508412 -0.06271873 -0.1074787
000110 c8 fb d3 3d 42 3d 15 bb 87 5c a7 3e d5 07 2b bd
       0.10350758 -0.0022772108 0.3268778 -0.041755516
000120 f5 0a 00 be ce 36 c3 3e ba 72 d3 3e e5 44 01 bf
       -0.1250418 0.3812775 0.41298467 -0.5049575
000130 23 bf 30 3e 4e 96 58 be bb 75 6f 3e bf c6 ee ba
       0.17260413 -0.21151087 0.23384754 -0.001821719
000140 6f 2b 59 be 94 e1 65 be 28 c0 ed be f7 80 55 bb
       -0.21207975 -0.22449332 -0.46435666 -0.003257809
000150 e5 42 30 3e 2d 55 ad 3d 41 8f 43 bb 1b 4f 04 3e
       0.17213018 0.084635116 -0.0029840025 0.12920801
000160 d6 e7 c6 be 7f da 0d 3e 8c 45 eb be 7a 2e 7a bc
       -0.38848752 0.13852881 -0.45951498 -0.01526987
000170 12 59 9a be 8c 66 02 bc 31 98 64 3e e6 99 80 3d
       -0.3014608 -0.007959019 0.22323681 0.06279354
000180 cb d5 dc 3e cc ac bb bb 79 da d4 3e 24 93 9f be
       0.4313186 -0.005727386 0.4157293 -0.31166947
000190 ee 42 c9 bb db bc f7 bd 37 dc a1 3d 0f e1 00 bc
       -0.006142012 -0.12096568 0.07903331 -0.007866158
0001a0 cc 17 91 be 45 5d 98 bc af 03 af 3e 03 8b d8 bc
       -0.28338468 -0.018599162 0.34182498 -0.026433473
0001b0 33 6e 06 3e 1c c0 9a be 40 db 15 bd 6a 8f 79 3e
       0.13127975 -0.30224693 -0.036586046 0.24371114
0001c0 5a be 21 be 4a cf a8 be e1 c4 8d 3e 14 75 e5 bd
       -0.1579527 -0.3297065 0.2768927 -0.112039715
0001d0 e4 63 42 3e b2 83 93 bb 9b bb d6 be a4 33 8d 3e
       0.18983418 -0.0045017833 -0.41940007 0.2757846
0001e0 33 75 9c 3d 4a 4c c7 be 86 8d 0d bf cb 75 56 3d
       0.076395415 -0.3892539 -0.5529407 0.05235843
0001f0 a2 ed 9b 3d 98 30 38 bc 26 78 c4 be 22 4b f0 be
       0.07613684 -0.011242054 -0.38372916 -0.46932322
000200 68 59 c5 bd 85 d1 30 3e cd 46 16 3c 35 4b 2b bc
       -0.096361935 0.17267425 0.009172154 -0.0104549425
000210 72 ac e1 3d 46 2d c0 be 82 df 70 3e 69 b6 fc be
       0.110192195 -0.3753454 0.23522761 -0.49357918
000220 4f 2c 19 3e b5 d7 b7 3d 54 83 ad bc 18 00 ec be
       0.14958309 0.0897669 -0.021180786 -0.46093822
000230 6e 32 c5 be a7 aa 2f bc 3d 4c f0 be 56 58 23 bc
       -0.38515037 -0.010721839 -0.46933165 -0.009969791
000240 8a a0 f9 3c 3f 01 b1 be 3a 16 f1 be 5b 5c ec 3d
       0.030472059 -0.34571263 -0.4708727 0.11541053
000250 b4 7e 5f bc 7d 5b 36 3d 4e 42 9a 3e ce b9 cf be
       -0.013641048 0.044520844 0.3012871 -0.40571445
000260 af ae 83 bc 6e 36 d3 be 63 87 4c 3e 08 01 40 3d
       -0.016074507 -0.41252464 0.19973521 0.046875983
000270 18 f4 53 be f2 76 ac be 86 5a 0c 3e 83 bd fe be
       -0.20698583 -0.33684498 0.13706407 -0.4975396
000280 84 be 70 3e a6 8f e2 3e 39 f7 db 3e ed ba 01 3e
       0.23510176 0.4425022 0.42962053 0.12668963
000290 92 18 dc be 4d 89 98 3e bb 60 9e 3e a9 30 80 be
       -0.42987496 0.29792252 0.30933174 -0.25037125
0002a0 8b 95 8a bd 4a f2 a7 be c4 72 25 3c 4c dd e5 be
       -0.06766804 -0.3280204 0.010098163 -0.448954
0002b0 47 01 c3 3e a9 83 ac 3e f5 66 60 3e e5 dd 6f 3e
       0.38086912 0.336942 0.21914275 0.2342449
0002c0 49 28 1b 3e b3 85 c9 bc 18 22 f7 bd da be 2f 3e
       0.15152086 -0.024599886 -0.1206705 0.17162648
0002d0 17 c5 2d 3e 4f 3a 32 3e 32 8a e0 be 09 2a fb be
       0.16969715 0.17405055 -0.43855435 -0.49055508
0002e0 e1 4f 10 bf ea 50 b9 be ad 7a 9f be f1 e0 33 be
       -0.56371886 -0.36194545 -0.31148282 -0.17566277
0002f0 7e 5b e5 bd 4c 3b 28 be f3 5a 8f be 38 40 00 bc
       -0.111990914 -0.1642887 -0.27999076 -0.007827811
000300 df f8 77 be e9 04 01 bd 8f d7 0e 3e 70 13 ec bd
       -0.2421603 -0.031498823 0.13949417 -0.11527145
000310 2c 55 cb 3e 55 c4 8c 3d 87 5d c6 b9 af d2 87 3e
       0.39713418 0.06873385 -0.00037835186 0.26527926
000320 54 9e a5 3d 48 10 ae be 23 0d 08 3e 30 9d 4d 3e
       0.08086839 -0.33996797 0.13286261 0.20079494
000330 3a 7b 1b bc 06 c0 ad 3e a0 9d c1 3e fb fa 68 3d
       -0.009489829 0.33935565 0.3781557 0.05687998
000340 72 22 c5 be ae a8 04 3b e1 24 00 3e e0 44 36 3d
       -0.38502842 0.0020242142 0.12514068 0.044499278
000350 cb 79 4b bb 34 74 79 3c 96 e7 02 3e 37 6f 97 ba
       -0.0031047936 0.015225459 0.12783656 -0.001155353
000360 c0 d7 e9 bd 14 c2 7e be 5b 0b 09 3e a8 4d fa be
       -0.11418104 -0.24878722 0.13383238 -0.48887372
000370 f2 df bf be 5c c1 91 bb e2 86 9e be 25 f4 9e bb
       -0.37475544 -0.004448099 -0.30962282 -0.0048508816
000380 0c 15 77 be 7a 66 86 be 2b 0d 32 be 60 b6 da be
       -0.24129122 -0.26250058 -0.17387836 -0.42717266
000390 6e 48 f3 be 52 9f 08 bc ab 24 79 be 7c a7 a5 3d
       -0.47516197 -0.008338766 -0.24330394 0.08088586
0003a0 ab dd cb be 86 83 d7 be b3 96 83 bc 83 9d ab bc
       -0.39817557 -0.42092532 -0.01606307 -0.02094913
0003b0 34 e1 ca be 8b d6 85 be be d7 a5 3e 6b ea 34 3e
       -0.3962494 -0.26140246 0.3239116 0.17667548
0003c0 ac 14 6e be c4 69 cf be ff 0b f4 be de 0d c4 be
       -0.23250073 -0.4051038 -0.47665402 -0.3829183
0003d0 4a cc e8 be 54 c6 cd be 2f 41 23 3e ba ca 93 be
       -0.4546836 -0.40190375 0.15942834 -0.28865606
0003e0 77 ea f2 bd d7 90 bb bd 0a 84 56 be 55 c4 58 3e
       -0.11861127 -0.091584854 -0.20948806 0.21168645
0003f0 c1 57 08 be 42 b6 d4 be 1a c1 5f be 9d 70 81 be
       -0.13314725 -0.41545302 -0.21851006 -0.2528123

edge_layers.1.weight f4 [4096, 4]
000000 c8 45 3b be 29 bc b6 3e 3b 79 9b be 8e 19 1e be
       -0.18288338 0.3569043 -0.3036593 -0.15439436
000010 c5 38 fe 3e 70 8e 60 be ec b7 8b be 75 18 5d bd
       0.49652687 -0.21929336 -0.2728876 -0.053978402
000020 a4 96 e8 3e ba d1 a2 be d4 7a 58 be ac 4e d9 be
       0.4542743 -0.31800634 -0.21140605 -0.42442834
000030 39 f7 95 3c ba c5 a4 be b7 f7 e9 be f1 4d bb 3e
       0.018306362 -0.32182103 -0.45696804 0.36582902
000040 2c 3f cf bd b2 f4 8d 3e e6 de 7c 3d 52 0e d7 bd
       -0.10119471 0.2772575 0.06173601 -0.10500778
000050 ed 9e c5 3e 85 7a df be d0 9d db 3e 02 1b 92 3e
       0.38597813 -0.43648162 0.4289384 0.2853623
000060 57 52 35 bd c7 a4 83 3e ea 40 83 3e 12 7b 6a bd
       -0.04426798 0.25711653 0.25635463 -0.057246275
000070 62 a2 12 be 07 ac 02 bd f4 91 f9 be da ab 18 3e
       -0.14319757 -0.03190234 -0.48744166 0.14909306
000080 c9 d1 f0 3d 4c 88 cc 3e f2 21 c3 be 46 f4 68 3e
       0.11758763 0.39947736 -0.38111836 0.22749433
000090 b8 24 a7 3e f6 93 e9 be 6b ac 80 3e 5f c9 a9 3e
       0.32645202 -0.45620698 0.25131544 0.33161446
0000a0 cc da bc 3e 32 da cc 3e 5c 6d 3c be 49 1f 3b be
       0.3688568 0.4001022 -0.18401092 -0.18273653
0000b0 9d 63 c2 bd 72 3a 79 be 80 a3 a0 bd b8 26 1e 3e
       -0.09491656 -0.24338701 -0.07843685 0.15444458
0000c0 02 0e d5 3e 8c e6 64 be 7a cc 98 be 42 70 b6 be
       0.4161225 -0.22353572 -0.29843503 -0.3563252
0000d0 e5 d7 d4 be 2d 69 7f be e2 91 e4 3e 37 31 bc be
       -0.41570964 -0.24942465 0.4464255 -0.36756298
0000e0 b7 63 22 bc d9 bc 38 3d c7 08 cb 3e e9 e7 0f 3e
       -0.009911469 0.045101974 0.39655134 0.1405331
0000f0 69 bc 61 be 21 ae 47 3d 38 16 8b 3e a0 f6 37 3d
       -0.22044529 0.048750047 0.2716539 0.044912934
000100 d0 8b d4 3e 83 46 db be 8c f9 57 3e bd fa b4 3d
       0.41512918 -0.42827234 0.21091288 0.08836887
000110 b0 f7 eb 3e 88 e2 78 be 5e bd 83 bd 68 a7 06 bd
       0.46087408 -0.24305165 -0.06432603 -0.032874495
000120 c0 c2 b0 3c ea 40 83 be da 43 9b be d6 2a d3 be
       0.021577239 -0.25635463 -0.30325204 -0.4124362
000130 b0 c9 51 be a0 2a 8f be e8 84 e0 be 4a 32 cd be
       -0.20487094 -0.27962208 -0.438514 -0.4007743
000140 d1 7a 99 be d5 90 c5 3e 1b de de be 72 d9 53 3c
       -0.29976514 0.3858706 -0.43528828 0.012930261
000150 60 7e 24 bd a2 33 fd be fe 08 a6 3e a0 9c f1 be
       -0.040159583 -0.49453455 0.32428735 -0.47189808
000160 79 12 bc be b5 f9 71 3e 49 24 ed 3e 63 67 a6 3e
       -0.36732844 0.23630412 0.46316746 0.32500753
000170 b5 99 ee bd 49 78 bd 3e f9 dd c7 3e 26 4d 86 be
       -0.11650411 0.37005833 0.3903654 -0.26230735
000180 ef b9 b9 be 01 e1 51 3d be 4b d1 3e 82 60 e6 3e
       -0.3627467 0.05123997 0.408781 0.44995505
000190 a8 bf 50 3e eb 0b ad be 73 7f fd be 14 4b 12 3e
       0.20385611 -0.33798155 -0.495113 0.14286453
0001a0 e6 2f e5 be 30 80 d9 3e 95 40 88 3e 31 02 d8 bd
       -0.44763106 0.42480612 0.26611772 -0.10547293
0001b0 08 28 07 3f eb 58 f1 3e 66 92 91 3e 32 87 24 3d
       0.5279546 0.47138152 0.28432006 0.040167995
0001c0 50 ea 31 3d b0 20 88 3d 38 56 fd bd 60 6f 0e be
       0.04343635 0.0664686 -0.123699605 -0.13909674
0001d0 b5 6f 1c bb fb fa a1 be 38 c5 7e 3e 7d ad c0 bd
       -0.0023870294 -0.31636795 0.2487992 -0.0940809
0001e0 2b 8b 1f be a5 7d fd 3e df 1f 9d be 6d d8 5b be
       -0.15580432 0.49509922 -0.30688378 -0.21469279
0001f0 ce 9b cf be 89 3a a0 3e 6d 74 d5 3e 95 9a 7f 3e
       -0.40548557 0.3129466 0.41690388 0.24961312
000200 0d 3f 9f be a2 d6 94 bd fe 3a de 3e 8d 1e d8 3e
       -0.3110279 -0.072675005 0.43404382 0.42210808
000210 ae f0 de 3e 0a 98 bb 3d 4d a7 d9 3e d3 ad 18 3e
       0.43543 0.091598585 0.42510453 0.14910059
000220 2b ca e4 3e b5 9c 9b be dc 76 ae be 51 c9 93 3d
       0.44685492 -0.30392995 -0.34075058 0.072161324
000230 74 00 ad bc c0 65 f4 3d a6 d2 20 3e 03 5c ab bd
       -0.02111838 0.1193347 0.15705356 -0.08367159
000240 7c f6 27 3e 1a 71 e2 bd af 72 3e 3c 39 b5 43 be
       0.1640262 -0.11056729 0.011624022 -0.191121
000250 17 27 a9 3e 96 dc 09 bd b4 5f cd 3e d3 cc c6 be
       0.33037636 -0.033657633 0.40112078 -0.38828143
000260 a9 52 0b be 35 c9 ab 3e 03 af 87 be ff 1b e8 3e
       -0.13605751 0.33551946 -0.2650071 0.4533386
000270 34 b6 7e 3e ce 46 42 3d ea 42 fc bd c6 0d 78 3d
       0.24874192 0.047430806 -0.1231745 0.06056001
000280 52 8f a1 3d ff 71 32 3e 57 78 24 3c 46 f1 ce 3e
       0.07888664 0.17426299 0.010038457 0.40418452
000290 d4 a2 9d 3d 1a 4e 18 3e dc a7 bb bd d9 c8 91 bd
       0.076970726 0.14873543 -0.09162876 -0.07118387
0002a0 17 94 ed be 7d e1 2a 3e b7 a2 e2 be 19 56 f5 3e
       -0.46402046 0.1668758 -0.44264767 0.4791725
0002b0 30 0b 85 3d c8 de 17 3e e0 dd c7 bc c8 5e df bd
       0.064962745 0.14831078 -0.02439779 -0.1090675
0002c0 8f 6c 03 3f de b9 d5 3e 27 03 c4 3d c1 b6 34 be
       0.5133752 0.41743368 0.09570914 -0.1764784
0002d0 97 c3 f0 3e 9e 44 a1 be 8c ef eb be ad 4b 75 3e
       0.47024223 -0.31497663 -0.46081197 0.2395465
0002e0 b6 46 db 3c 6e f8 25 3e d8 50 c7 be 5a ab d4 3e
       0.026767116 0.1620805 -0.38928866 0.4153698
0002f0 dd 04 b7 3e 68 15 d4 3d 1e 26 e7 3e 63 79 22 be
       0.35745898 0.103556454 0.4514627 -0.15866618
000300 c0 25 02 bd 35 dc b0 bd e6 f5 c5 be 8e 8b 3d 3e
       -0.031774282 -0.08635751 -0.38664168 0.18510267
000310 f8 d8 ad 3e 00 27 5a be d8 d9 03 be e0 cf 35 be
       0.33954597 -0.2130394 -0.1287607 -0.1775508
000320 6c 9c 8d be 20 29 d6 3c b0 44 a3 be c0 6c d2 be
       -0.27658403 0.026142657 -0.31888342 -0.41098595
000330 0a 71 cf 3e f5 af 49 bd 1d e6 3f 3e 09 9d 0a 3e
       0.4051593 -0.04924007 0.18740125 0.13536467
000340 77 94 92 be 49 91 4a be ce 2f 8b 3d 2b aa be 3e
       -0.28628895 -0.19781984 0.067962274 0.37239203
000350 4d 5f 0a be 33 c2 9c bc b3 c8 86 be 11 c0 d7 3e
       -0.13512917 -0.01913557 -0.26324996 0.42138723
000360 3a d2 b0 3e e3 d3 b8 bd a7 ec b4 be 8b 58 93 3e
       0.3453539 -0.09024789 -0.353368 0.2877849
000370 d8 ac 8a 3e d0 58 16 be 58 ff c3 bd 30 ec d2 be
       0.27084994 -0.14682317 -0.09570187 -0.41195822
000380 00 a0 9b be 10 1f 7e 3d 4c ca d0 3e fe f3 f3 be
       -0.30395508 0.062041342 0.4077934 -0.4764709
000390 9e 5a e9 be 64 e8 1e 3e 04 06 4b be da 54 90 be
       -0.45576948 0.15518337 -0.19826514 -0.28189737
0003a0 9e e3 da bc 12 77 c5 bd 9a eb c7 be 8e 27 e0 3e
       -0.026719864 -0.096418515 -0.39046937 0.43780178
0003b0 8d 1d 8a be 13 27 14 3e 26 25 87 3e 3d 36 6a 3e
       -0.2697567 0.1446803 0.2639553 0.22872253
0003c0 b7 35 a7 3e da 68 ea 3e 2c 95 99 be a2 e3 08 3f
       0.3265817 0.4578312 -0.29996622 0.5347234
0003d0 6f 18 9e bd 7b 1b ee be 47 27 21 3e 3f f1 f1 3e
       -0.07719504 -0.4650534 0.1573764 0.4725437
0003e0 91 6e 5f 3d f8 76 fc 3e d6 d2 f2 3e a7 75 85 be
       0.054548804 0.49309516 0.4742648 -0.26066324
0003f0 3b a1 fe 3e 43 dc dc 3d 59 6a 6c be d0 a5 93 3c
       0.49732384 0.10784199 -0.23087443 0.018023401

edge_layers.1.bias f4 [4096]
000000 84 70 7f 3e 8e 1d b0 3e 28 2e a5 bd 54 47 b8 3e
       0.24945265 0.34397548 -0.08065444 0.3599192
000010 00 1f 74 bc a1 e3 12 be 54 7c 52 3e fa a1 f1 be
       -0.014899969 -0.14344646 0.2055524 -0.4719389
000020 c1 7e 1e bc 9e cb 94 bd 3b ea a0 3e 54 3c bc be
       -0.009673775 -0.072653994 0.31428704 -0.36764777
000030 2c 4c 08 be d0 d2 6e 3d 69 17 a8 be e4 82 db 3e
       -0.13310307 0.058306515 -0.3283036 0.428733
000040 68 19 a0 be bb c7 94 3e f6 9a ff be f0 48 7f bd
       -0.31269383 0.29058632 -0.49922913 -0.062325418
000050 dc 98 c8 3e b0 85 c2 bd 72 e3 91 3e da e5 96 bb
       0.39179122 -0.09498155 0.2849384 -0.004605037
000060 b3 dd 50 be 3d 39 e1 3d 4d f0 bf 3e 63 4f 6c 3e
       -0.20397072 0.109972455 0.37488022 0.23077159
000070 88 b4 de be e6 36 cd 3d 5e 16 f6 3d a0 64 97 3e
       -0.4349711 0.10020237 0.12015985 0.29568958
000080 bb 69 18 be 4e 91 f3 3d db 28 27 3a b7 84 10 be
       -0.14884083 0.11892949 0.00063766324 -0.14113127
000090 ff 5c ab 3d 7c 73 dc 3e 68 cb 98 be dd f1 08 3e
       0.08367347 0.43056858 -0.29842687 0.13373514
0000a0 49 86 fd be 80 e4 d7 3e 1a 1d b0 3e 30 ab 35 be
       -0.49516514 0.4216652 0.34397203 -0.17741084
0000b0 82 ee 3d 3e dc 56 95 3e fd c8 95 bd ba 16 4b 3c
       0.18548015 0.2916783 -0.07313726 0.012395555
0000c0 29 1d 19 3e f0 d2 ad be de af ab be 12 96 e9 be
       0.1495253 -0.33949995 -0.33532614 -0.45622307
0000d0 70 73 39 bd 94 fd ae 3e 96 24 b3 bd a0 c2 b7 bd
       -0.045276105 0.3417784 -0.087472126 -0.08972669
0000e0 30 c5 eb bd ec 00 ec be 03 23 0a 3d f7 19 c7 3d
       -0.1151222 -0.46094453 0.033724796 0.09721749
0000f0 58 b7 14 3e 51 a5 d5 bc 49 19 82 3e 58 99 8a be
       0.14523065 -0.026079806 0.25409916 -0.27070117
000100 88 fc c6 bd 7d 53 e5 be 41 81 cd 3e 70 16 75 bd
       -0.09716135 -0.4479026 0.40137675 -0.05983585
000110 4c 5f c3 3e 00 3a e8 bb a1 01 8f be da 70 c6 be
       0.38158643 -0.0070869923 -0.2793093 -0.38757974
000120 87 16 c7 3d 4e 88 bf 3d 05 51 62 3e a0 bd 19 be
       0.097210936 0.0935217 0.22101219 -0.15013742
000130 64 88 9a be 71 1a c0 bd 3a 8d bd 3b 18 c1 18 be
       -0.30182183 -0.09380043 0.005784658 -0.1491741
000140 02 7c 38 bd 6b ca 8e 3b 70 d1 c0 be 77 86 1b 3d
       -0.045040138 0.004357626 -0.37659788 0.037970033
000150 4d 22 ba be 98 60 2d be 4a 31 c1 be 3d 93 b0 3d
       -0.36354294 -0.16931379 -0.37732917 0.086218335
000160 f7 fd 61 be 01 97 f0 be ee 9e 7d be c8 a7 c8 be
       -0.22069536 -0.46990207 -0.24767658 -0.39190507
000170 6f f5 84 3e 87 56 41 3e 98 23 92 bd 89 a0 52 3c
       0.259685 0.18880664 -0.07135695 0.012855657
000180 f5 3e 9c 3e 98 20 ff be 45 db 8b be 06 f1 d3 be
       0.30516782 -0.49829555 -0.27315727 -0.41394824
000190 83 dc 01 bf 86 90 78 3d 50 4c 71 be b0 fb c3 3c
       -0.507271 0.060684703 -0.23564267 0.023923725
0001a0 0e 15 b3 3e 1e bf cf 3d 24 c3 78 be 7c 50 fa be
       0.34977 0.101438746 -0.2429319 -0.4888953
0001b0 3b 0f 57 3e cd 12 06 bd a2 09 ca be cf 4a 77 be
       0.21001904 -0.032732774 -0.39460474 -0.24149631
0001c0 19 4b f4 3d d6 a0 6d be 56 87 e5 3e fe 0a e6 be
       0.11928386 -0.23205885 0.44829816 -0.4493026
0001d0 a7 bf d3 be 1b 48 93 3e 9a 97 28 3e 79 cb f3 be
       -0.41357157 0.2876595 0.16464081 -0.47616175
0001e0 e7 e9 91 be d0 c0 d5 3e 0e 5a ff 3d 98 45 ae be
       -0.28498766 0.41748667 0.124683484 -0.3403747
0001f0 a2 e1 d8 3e b1 21 22 be 09 5a e7 3e c9 a2 91 3e
       0.42359644 -0.15833165 0.4518588 0.28444508
000200 f4 cd a0 3e 1f 37 ea bd fe b0 7e 3e 2c ec 87 3e
       0.3140713 -0.11436295 0.24872205 0.26547372
000210 a8 06 bb be ff 59 1f 3e df 1b d2 3e ae 69 34 be
       -0.36528516 0.15561675 0.4103689 -0.17618439
000220 e6 0b 1f 3e 02 87 bc 3e c7 e5 57 3e d9 2e 69 be
       0.15531883 0.36821753 0.21083747 -0.22771777
000230 90 57 1b bd 40 e0 c4 3e 50 ae 49 bc 70 c0 7d be
       -0.037925303 0.3845234 -0.012309626 -0.2478044
000240 e4 eb 88 3e ac 8d c8 3e c1 fd e2 be 21 64 80 3e
       0.2674247 0.39170587 -0.44334224 0.25076392
000250 30 9f 66 3e 65 2d e1 be db d6 f7 be ba df f7 bd
       0.22521663 -0.43979946 -0.4840611 -0.12103219
000260 30 3e 39 be da ef 01 3e 1c 7f b4 be e8 18 2c bc
       -0.18090129 0.12689152 -0.35253227 -0.010503985
000270 6b c1 5a bc fa 37 a1 bc 65 b3 e6 bb c0 fc bc be
       -0.0133517785 -0.019680012 -0.0070404285 -0.36911583
000280 b0 ba 95 3b 23 46 b8 3e 53 14 07 3d 4e 00 66 3e
       0.004569374 0.3599101 0.032978367 0.22461054
000290 ec 9c fa bb 83 19 88 be 62 8f e8 3d ff e0 56 bc
       -0.007648101 -0.26581964 0.11355473 -0.013115167
0002a0 3a 1e cf bc 81 a1 b3 be 30 61 ae be 19 ca 70 3d
       -0.025282968 -0.35084155 -0.34058523 0.058786485
0002b0 14 51 9c bc 75 a1 ab be b5 e8 b6 3b cb ae fd be
       -0.01908163 -0.3352162 0.00558194 -0.4954742
0002c0 be d8 fa be f3 71 81 bd 2b f3 b5 3e 20 de ba bd
       -0.48993486 -0.06320562 0.35537085 -0.09124398
0002d0 34 f2 05 3c d8 e3 21 bb 6c f6 46 be e1 e6 a2 be
       0.0081754215 -0.0024702456 -0.1942994 -0.31816772
0002e0 f1 bd 50 3e 65 d5 96 be cf 90 bc 3e 33 bd 4c 3d
       0.20384957 -0.29459682 0.3682923 0.049985122
0002f0 7a 7d 63 3e 6b e2 ef 3e 08 eb 35 3e cf b9 a1 bd
       0.22215834 0.4685243 0.17765439 -0.07896768
000300 0c 49 80 3e c9 b0 88 3e b0 5d 6c bd 64 f9 03 bc
       0.2505573 0.26697376 -0.057706535 -0.008055065
000310 6b e9 1a 3e fe 72 4d 3d e0 17 c0 be ba 28 24 3d
       0.15128104 0.050158493 -0.37518215 0.040077902
000320 d0 ec b7 bd 58 30 d0 bd 82 84 a9 3e 6b 7e 5e be
       -0.08980715 -0.10165471 0.33108908 -0.21727912
000330 29 cb c8 be 6e 1f 8d 3e 1f e0 90 3d e7 f2 99 3e
       -0.392175 0.2756304 0.07073998 0.30068132
000340 52 4b ca 3e b5 f7 a5 3e 38 a3 88 3e 3e 06 5b 3e
       0.3951059 0.32415548 0.26687026 0.213891
000350 87 68 ae be 70 b8 0f 3e 5e 74 c0 be 6c 16 19 be
       -0.34064123 0.14035201 -0.3758878 -0.1494996
000360 f1 f3 60 be 82 8a 3d be 1b c5 29 3a 20 e0 24 bb
       -0.21968056 -0.18509868 0.00064762094 -0.0025158003
000370 c4 94 ce be 84 ac 6a be 58 ff dc be 30 ab df 3e
       -0.40347874 -0.22917372 -0.43163562 0.43685293
000380 52 14 27 be 40 8a 47 be d4 e4 42 3e 11 01 b8 3e
       -0.16316345 -0.19486332 0.19032604 0.35938314
000390 a6 c2 37 3d 9e 84 ca be db be 76 3e 8f 6d b6 3d
       0.044863366 -0.39554304 0.24096243 0.089076154
0003a0 4c c7 4e 3e de 4d 14 bc 95 5c 2c be 0c 7d fd be
       0.20193213 -0.009051768 -0.16832192 -0.49509466
0003b0 ee 62 c6 3e 5b 39 93 3e 0f e3 55 3d 16 4f e5 be
       0.38747352 0.28754696 0.052218493 -0.447869
0003c0 b1 c5 d1 3c 64 c6 1d be ca e9 df be 2e 39 14 bb
       0.025606962 -0.15407711 -0.43733054 -0.002261709
0003d0 53 1d 8f 3e 36 9e e4 be ce 5f 8a 3e a5 f4 f2 3a
       0.2795206 -0.44651955 0.27026218 0.0018536045
0003e0 6f 0e e4 3e 60 14 ce 3d d0 86 f0 be 7b 20 d3 3e
       0.44542262 0.1006248 -0.46977854 0.41235718
0003f0 f2 bc ae bb e0 ae 25 3e ab 70 f5 be 64 32 c1 be
       -0.0053325826 0.16179991 -0.4793752 -0.37733757

fc.weight f4 [2, 64]
000000 93 01 37 3c a2 3b c9 3d 74 81 b4 3d ff ff 3e 3d
       0.011169809 0.09825827 0.08813754 0.046630856
000010 ae 87 9d bc fe 3f dc bc 42 86 50 3d 47 2b cd bd
       -0.019229736 -0.026885983 0.05090929 -0.1001802
000020 1a 17 e7 bb ff 48 be bd b9 37 fe 3d 10 a7 65 3d
       -0.0070523145 -0.09291267 0.12412972 0.056067526
000030 3c 96 b8 bd b3 0d e5 3d 93 56 be bd 41 88 fb 3d
       -0.0901303 0.111842535 -0.092938565 0.12281848
000040 02 33 a2 bc 03 4d 9c bd 95 4a 82 3d 27 f6 ce bd
       -0.019799713 -0.07631876 0.06361882 -0.101055436
000050 de 17 83 3d 15 36 f7 bc ed 0a 8f bd 31 10 c3 bc
       0.06401037 -0.030177156 -0.06984506 -0.023811432
000060 f3 40 87 3c 6a 8f 9b bd dd 07 f5 bb 73 c9 ec 3c
       0.016510462 -0.075957134 -0.007477744 0.028904652
000070 ab df 56 3d 3f b8 2f bd c3 83 5c bd e5 e4 32 bd
       0.0524594 -0.04290032 -0.053836595 -0.043675322
000080 51 19 6f bd d3 45 f3 3c c7 96 85 bb 93 01 04 3d
       -0.058373753 0.02969638 -0.004076812 0.032228064
000090 7e b6 b3 bb 85 4b 60 bd c3 cc 7b 3d 3a 92 7e bd
       -0.0054844012 -0.05475952 0.061474573 -0.06215117
0000a0 4d 7c 61 bd ad 88 8c 3c 55 06 c9 3d 5c 6c f0 3d
       -0.055050183 0.017155016 0.09815661 0.11739418
0000b0 3d d0 4a 3d ad 41 29 bc 83 25 01 3d 58 9b b0 bd
       0.049514998 -0.0103306 0.031529915 -0.086233795
0000c0 09 1b bd bc e3 c5 7d bd dd 20 21 3d ce 4b 72 3d
       -0.02308418 -0.061956298 0.03933798 0.059154324
0000d0 07 f0 35 3c b8 66 fa bb 5d cb 4c bd a2 60 8f bd
       0.01110459 -0.0076416396 -0.04999863 -0.07000853
0000e0 d1 58 71 3d 53 c9 a1 3d a8 ee d0 3d cf cc b9 bc
       0.058922593 0.07899728 0.1020177 -0.022680668
0000f0 c2 93 ad 3d 16 dd ae bb ad 2c 64 bd ec 59 90 bd
       0.08475448 -0.005336414 -0.05570667 -0.07048401
000100 a4 a8 fb 3b a9 66 f3 bd c3 b8 b9 3d 8d a5 52 3d
       0.0076800156 -0.11884815 0.090684436 0.051427413
000110 44 ad 4c bd e7 ed 25 bd 17 18 cd bd aa 62 33 bd
       -0.049969926 -0.040510084 -0.100143604 -0.043795265
000120 e0 08 e0 3d 87 45 d4 3d cd b9 cb 3d f6 f2 ad bd
       0.10939193 0.10364824 0.09947548 -0.08493607
000130 7b 8f f7 3b 87 08 d2 3d 72 5b 4b 3d 23 3e 60 3d
       0.007554946 0.10255533 0.049647756 0.05474676
000140 18 98 8f bd 42 ba 82 3d 96 7d c1 3d bd f4 39 3d
       -0.070114315 0.06383182 0.09447782 0.045399416
000150 e4 01 c1 bd d1 53 bf bd 40 d9 8c bc 6e e5 70 3d
       -0.09424189 -0.093421586 -0.017193437 0.05881255
000160 c3 70 a6 bc 6f c0 41 bc dc dd 9f 3d 98 6e b1 3a
       -0.02031744 -0.011825665 0.07805988 0.0013536988
000170 aa 4e e5 3d 82 f2 e8 b9 73 7d 4a 3d 68 95 b0 3d
       0.111966446 -0.0004443117 0.049436044 0.08622247
000180 b8 13 ea 3d 20 82 ff bd 94 c8 b5 bd f4 86 bc bd
       0.11429542 -0.12475991 -0.08876148 -0.09205428
000190 38 a9 cb 3d 90 26 de bc 96 44 c9 bd 51 9c 6f bd
       0.09944385 -0.027117997 -0.09827535 -0.058498684
0001a0 25 00 fe bd d7 bf 35 3d 72 9a c4 3d 98 4d f4 bd
       -0.12402371 0.044372406 0.095997706 -0.11928862
0001b0 2b c7 de bd 92 6f 90 3d 11 3a 43 bd 72 07 ce bd
       -0.10877832 0.0705253 -0.0476628 -0.10060014
0001c0 c2 a0 8b bd 7d 0f 88 3d b4 d6 3e 3d e0 10 a9 3d
       -0.068177715 0.06643579 0.046591476 0.08255172
0001d0 10 d4 2b 3d 74 b2 ba 3c 44 64 d1 bd 13 f7 84 bd
       0.041950285 0.022790171 -0.10224202 -0.06492438
0001e0 72 e9 39 3d 23 9e f8 bb b8 94 7d 3d 25 d1 17 3d
       0.045388646 -0.0075872107 0.061909407 0.03706469
0001f0 c9 23 44 3d 56 42 de bb 42 06 f4 bd 40 f8 40 bc
       0.04788569 -0.00678281 -0.11915256 -0.011777937

fc.bias f4 [2]
000000 6d fc 0d 3f 11 06 b0 be
       0.55463296 -0.34379628
