experiment/IBM_HI_S/GTEA-LSTM/GTEA-LSTM_checkpoint.pt (torch_old, 432399 bytes, 28 tensors)

edge_layers.0.lstm.weight_ih_l0 f4 [256, 11]
00000000: 6410 b1bd b565 a03e 26fb 6ebe 3780 713e
00000010: a942 113f f51e f53e 0525 1abf 6511 773e
00000020: 71fa af3e fbfd 09bf e70c eebe 4bcf 7e3d
00000030: acaa 3ebe a609 f33e ef11 393d 1af8 d3be
00000040: 30e6 85bd 8dbd 82be 6231 04be 4b0b c3be
00000050: 6e5c 883e 2590 193e c898 563d df8b a63e
00000060: 6acf 11be 0820 3c3e 2815 283f 6eb3 7d3e
00000070: b20e 1cbe e7c3 4c3e 723c e83e f7b7 c9bb
00000080: 1385 fa3c 0d21 133e 2d12 993e 98d9 08be
00000090: 83c9 f63d a3a1 053f e40b 9c3d 25ee c6bd
000000a0: 53e3 9dbb ea53 903e 3e16 efbc f3a3 c1bd
000000b0: d3aa fabd 587c b83e 2591 2d3e a0be a33e
000000c0: fe64 b43e 6f48 49be dff8 9bbe a4f0 613e
000000d0: d7b7 c63e 6286 3c3e 329f 533e dde4 17be
000000e0: eebd b93e 3606 533e 857f 8b3e 823e 083f
000000f0: 0e7e a83e bc0e debd d9bb 183d 1a7a e83e
00000100: 1dd1 7bbe d348 bbbe eb91 07be 1cd8 b8bb
00000110: 16ad 7a3e c5f1 623e ddad dd3e 3456 163e
00000120: ac38 72bd cf05 fa3e 6709 273e d30e c2bd
00000130: c247 1fbd d74f 1dbe 9e87 35bc 6b25 1b3e
00000140: 55e4 abbe 4a1f 7a3e cd51 c93e ed38 26bc
00000150: 00b7 99be 96c3 183f 817c 0cbd 7297 f0bc
00000160: 9f45 0b3e 5ab8 09be 671e dabe 20b5 53bd
00000170: cc33 93bd 88e8 81bd 2f76 d93e c88f 01bd
00000180: 7784 ac3e fa3b 29bd 944c afbd 9307 873e
00000190: c67a 6d3e 0704 873d 46fb 11bb ab1f 063f
000001a0: d6a6 c23e 2a56 cfbe 5a47 b43c 18c1 093e
000001b0: 7285 813d 4d0a 2f3e 94ae 33bd 60bf d9bd
000001c0: 8ced e73b de95 8a3e 0124 843e b9ec 333f
000001d0: a42a b6be 26bf c33d 7e9a fc3e b461 96be
000001e0: bd45 47be e012 5dbd b9b4 ad3e 82ee 273e
000001f0: 3f24 963e 9b3f 1e3f 4473 b03e ecf6 e7bb
00000200: f689 9cbe 1e93 89be 0d01 9bbd efce e0bd
00000210: b8f2 5d3e ec2f f5bc 7d68 efbe 949a ed3d
00000220: 9c97 183f 9d01 ed3e c58d e5be 4e5d f73d
00000230: 08be 7b3e 3b6e 6bbe f103 39be bcfc 99be
00000240: 6f81 8a3d b1a5 c5bc 8bd4 b53b 035b 8a3d
00000250: cebc 343d d912 e83c eec0 6fbd 091b 413d
00000260: de20 503d 6a50 f9bc d306 9d3d cf4b 3c3e
00000270: b517 abbe 2280 343e fb4c 303f ac11 ee3e
00000280: 978c dabe 3cf5 e33d 4e55 cf3e 3d7a ddbd
00000290: 49da 99be 7aec ee3e 7067 083e 2ca8 a0be
000002a0: da0e 57bd 01c2 cdbc 9ead f93e 2fdc a0be
000002b0: 686b 97bb 43fc 973d 939f 663e 3eed b53d
000002c0: c84a 55be ecdc 8d3d 0f3b 5d3e 41cb 68be
000002d0: 352a 45be d02c 23be 30aa 9fbb 05bd 6f3c
000002e0: 335d 963e 6041 db3d f3b1 053e 6523 8cbe
000002f0: caa8 ce3e 68d6 c73a 597a 903d c577 a83e
00000300: 79a1 b43e 3ca6 65be c2d6 44be f4c0 4d3e
00000310: 55d7 4dbe 3ef0 83be 36da 1d3d 6a00 c83d
00000320: 6616 873d 7c56 11bd 8a05 a8bd 1237 d83e
00000330: 652d cebe ee15 b7bd a57e 393e 8d97 63be
00000340: 8b5a 8bbd 1c99 b7bd 756f e73b 3a39 d63d
00000350: 40da 23bd 5300 8f3e a2d2 5ebd b214 6fbd
00000360: c6f0 843e eb6e a73e 6319 81bd 7df5 fd3d
00000370: 204f 07be 65b4 f33e 8861 e73b 098d 61be
00000380: ffb1 2d3e 228d 193f 7f3f 18be 3953 563e
00000390: 680a f73e 234d 9dbe 1967 5dbe 94bf 18be
000003a0: 22ad b43d 2292 083e 04a1 61be ece5 273e
000003b0: d24c 873e e903 50be 48d9 dfbd f26f 043f
000003c0: 8c92 47be ce92 33be bf4b 1c3e de69 ff3e
000003d0: 1a72 4ebe 3715 e93e 0ab3 1c3f 753a d83e
000003e0: 5ed3 863d 0ed1 3c3e 8b17 873e b861 1cbe
000003f0: 604a c9bb f021 333e 19fd 503e f366 373d
-0.086457044 0.31327596 -0.23337993 0.23584066 0.5674234 0.4787518 -0.6021274 0.24127729
0.3437076 -0.5390317 -0.4649422 0.06220941 -0.18619794 0.474683 0.04518312 -0.41400224
-0.065380454 -0.2553524 -0.12909463 -0.38094553 0.26633018 0.14996393 0.052391797 0.32528588
-0.14239278 0.18371594 0.6565728 0.24775478 -0.15239981 0.19996606 0.45358616 -0.0061559635
0.030581033 0.14368077 0.2989668 -0.13364255 0.12050154 0.52199763 0.076194555 -0.09713391
-0.004818359 0.2818902 -0.02918541 -0.09455099 -0.122396134 0.36032367 0.169499 0.31981373
0.352333 -0.19656537 -0.3046331 0.22064453 0.38812134 0.18410638 0.20666197 -0.14833398
0.36277717 0.20607838 0.27245727 0.5322038 0.32908672 -0.10842654 0.03728852 0.45405656
-0.24591489 -0.36578998 -0.13239257 -0.0056409966 0.2448009 0.2216254 0.4329671 0.14681321
-0.059136078 0.48832557 0.1631218 -0.09475484 -0.038886793 -0.15362488 -0.011079697 0.15150993
-0.3357264 0.24425998 0.39320222 -0.010145408 -0.3002243 0.5967344 -0.034298424 -0.02936909
0.13600777 -0.13449231 -0.4260132 -0.051686406 -0.07187614 -0.0634318 0.4247298 -0.03163126
0.33694813 -0.041316964 -0.08559528 0.26372966 0.23191366 0.06592565 -0.0022275015 0.5239207
0.3801791 -0.40495425 0.02200668 0.13452566 0.06324281 0.17093773 -0.043867663 -0.10632205
0.0070778783 0.27067465 0.2580872 0.70283085 -0.35579407 0.09557943 0.49336618 -0.29371417
-0.19460197 -0.05397308 0.33926943 0.16399577 0.2932453 0.61815804 0.3446294 -0.007078996
-0.30574006 -0.26870054 -0.0756856 -0.109769695 0.21674621 -0.029930077 -0.46759406 0.11601749
0.5960634 0.46290293 -0.44834724 0.12078343 0.2458421 -0.22991268 -0.1806791 -0.30075634
0.06762969 -0.02412686 0.0055490187 0.0675564 0.04412537 0.0283293 -0.0585336 0.047144923
0.050812595 -0.030433852 0.07667317 0.18388294 -0.33416525 0.17627004 0.6886746 0.46497858
-0.42685387 0.11130759 0.4049477 -0.10814331 -0.3004935 0.46664792 0.13320708 -0.31378305
-0.052504398 -0.025116922 0.48765272 -0.31417987 -0.004620958 0.07421162 0.2252181 0.08883141
-0.20829308 0.06926903 0.2160456 -0.22733785 -0.19254382 -0.15935063 -0.004872583 0.014632468
0.2936798 0.10705829 0.13056163 -0.27370754 0.4036315 0.0015246393 0.07054586 0.32903877
0.35279444 -0.22426695 -0.19222549 0.20093137 -0.20101674 -0.25769228 0.03853818 0.09765704
0.06596069 -0.03548287 -0.082041815 0.42229515 -0.40269008 -0.0893973 0.18114717 -0.22225781
-0.06804379 -0.0896475 0.0070628473 0.10460134 -0.04000306 0.27929935 -0.054400094 -0.058369346
0.25964946 0.3270181 -0.0630367 0.12400339 -0.13213778 0.47598568 0.007061187 -0.22026457
0.16962431 0.59980977 -0.14867972 0.20930184 0.48250127 -0.30722913 -0.2162136 -0.14916831
0.08822085 0.13336995 -0.22034079 0.16396302 0.26425797 -0.20313992 -0.10930115 0.51733315
-0.19489497 -0.1753647 0.1526327 0.49885458 -0.20160714 0.45523998 0.6121069 0.422321
0.06583284 0.18439123 0.2638515 -0.15271652 -0.0061428994 0.17493415 0.20409049 0.044775914

edge_layers.0.lstm.weight_hh_l0 f4 [256, 64]
00000000: ae8e f2bd 495b f43e 75b7 17be 349e 4fbc
00000010: 11ca e5b9 8454 643e 0852 3c3e c1db 583e
00000020: 62e0 42be 977b 893d f2f6 e53d f300 1abc
00000030: 6cc5 ad3e 462f 8c3d 81e3 a73e 1044 bb3c
00000040: e750 21be 5a6c 6f3d b8a3 aabc 7b7b 9cbd
00000050: 21bc 60be 193d bd3e 8ca9 193d 27e4 5bbd
00000060: 858e 6c3d 763e 873e 5935 343e e9b8 8abe
00000070: cd0d 18be 714d 8cbe 5319 a03d 6eb3 04bd
00000080: 88c4 82be 9561 b5be 4fe2 63be 6d83 a53d
00000090: 944f a33e 9745 553e 90a0 fcbd 508f 69be
000000a0: 90d9 b23e eed4 2b3e 7fe2 36be 1a07 f33d
000000b0: 52a1 29be c3e5 f13d 1d9a c3bd 72e3 b8bd
000000c0: c43e 703e 149f e93c 369a 0fbe fe3c a83d
000000d0: cd34 08bd fbfb 14be 485c 6d3d 3e41 0b3f
000000e0: b33d 3f3e 3266 47be c942 963e be00 1bbe
000000f0: 7183 e53d e70f 1d3e 08ed ed3d be56 583e
00000100: 2ed1 103c c104 c43e f78c b73e 687e 483c
00000110: e803 c83d b2b3 14be 8e2b 1dbe ff7d 16be
00000120: 8ea7 5bbe db89 ccbd 2786 98be d7a3 70bc
00000130: 57d9 2e3e f6fb 2d3d 5f6d 23be 8f9c 923e
00000140: 16c8 fdbd 6f5b 0cbd 7fd8 21bf e1d0 03be
00000150: f450 2a3e e5a3 3abe 68bf 1bbd de73 f8bb
00000160: d5da 39bd c458 99bd 34b9 32be d3e2 eebc
00000170: 57f6 13bd 463e 643e 2bb0 d5bd 9d5d 93be
00000180: fbfd 36be 67ea d63c a162 85be 6e61 443e
00000190: 4364 1bbe 2eb6 9e3e e0ba 6cbc 7285 c83d
000001a0: 5d17 bbbe 2400 ebbd 18e5 223e bad5 e0bc
000001b0: 8035 11be a32f 5bbe dc96 5dbe 9a14 363e
000001c0: c9b5 9bbe d84d 2d3d 527f 223d 1af4 40bd
000001d0: fedf dc3d 0d7f 263d 1874 093e b5e0 633d
000001e0: 67c6 a7bd 3394 423e de2b f33d d151 2e3e
000001f0: 7a87 febe d3be 8ebe 8f82 49be e439 263e
00000200: b4d8 0fbe b1ff 133e 6d85 1dbe c5fb 7fbd
00000210: 015c 333d a4f3 cf3e 9db2 21bd 7230 78bc
00000220: 06bc ac3e 1a29 b63e 8676 133e 5c2e 1c3e
00000230: 847d 7a3e 927a 853e 8bb9 883e f67e 013e
00000240: fbad e3bc 4d65 853e 79ee b4bc 5851 1d3e
00000250: 6cc6 5dbe ba4a 51bc 77ad 2e3e 0352 9a3e
00000260: 2485 8fbe 9e3f b83e 036d 8c3e b2ed 48be
00000270: 7118 ca3e 9834 a7be d313 273d c4dd c13d
00000280: 9e1f 61be 75e6 07be f559 1c3e 3264 1d3e
00000290: f999 5a3e a180 3cbe 23f0 1cbe 9830 c6be
000002a0: 8ac1 723e 9fdf 84be 052d 50bd 86db 173e
000002b0: 6d62 b3bd bb40 b6bc 6ae9 f83d 8b3c 90be
000002c0: 0d24 6cbb 06d8 ca3c 5090 e73d 845e 48bd
000002d0: b8db c8bd 5f90 333e d860 52be e7b2 493a
000002e0: 1b14 a93e 2d3c 37bc 9b81 99be 15d5 efbb
000002f0: fa2f 103d 1c22 ac3e a87f 063d a9bc 52be
00000300: 4dcb b4bd bdf5 003e 39e6 863e 3577 823e
00000310: 8a15 b0be 2bc0 e4bd 632d 253e e878 c2bd
00000320: e641 6abe 0050 3cbe 8918 1ebd 4484 44be
00000330: b908 ad3e e1e1 be3d 1ff2 f83c 2d2b afbd
00000340: 699d f33e d7f0 883d 33db 12be 5ccd 03bf
00000350: c7a5 23be 8899 c43d 2b73 6ebe 189d 7cbe
00000360: d55a 4e3e 1b58 083e e17f 85be 552d 34be
00000370: ce2b cabe 21d5 a63d 6fd6 c6be 9a47 94be
00000380: f879 b0be 4e55 cabe d30d 7dbe b921 35be
00000390: baad 89be 3b6b 5d3e 504b c63e 6d86 9e3b
000003a0: d38b 2c3e 8e6d fa3d 7922 37be 49bd fabe
000003b0: 7a39 0f3e b44d 5cbe 6bca 243e bd75 09bf
000003c0: dbea 3a3e fd7d eabe ac8a 8bbe 3278 a0bd
000003d0: 3875 963e 57ec 993e 417d 3c3e 4bc0 3dbe
000003e0: 0bf3 22be ab8f 30be afd9 91be 3759 383e
000003f0: e057 b23e 04e1 41be 6b21 3abe 87f9 973d
-0.1184362 0.47725895 -0.14816077 -0.012671996 -0.00043828835 0.22297865 0.18390667 0.2117758
-0.19030908 0.06713026 0.11228742 -0.00939964 0.33939683 0.06844954 0.3279076 0.022859603
-0.15753518 0.05845294 -0.02083002 -0.076407395 -0.21946765 0.36960676 0.037515208 -0.05368438
0.057753105 0.2641484 0.17598476 -0.270942 -0.14849015 -0.27402833 0.0781733 -0.03239768
-0.25540566 -0.35426012 -0.22254299 0.08081708 0.3189665 0.20827328 -0.12335312 -0.22808576
0.34931612 0.16780445 -0.17859839 0.11866589 -0.16565445 0.11811402 -0.09550879 -0.09027757
0.23461443 0.028518237 -0.1402367 0.08214758 -0.03325348 -0.14549248 0.057949334 0.54396427
0.1867588 -0.19472578 0.29347828 -0.15137002 0.11206711 0.15338098 0.11617476 0.2112684
0.008838935 0.38284877 0.35849735 0.012237169 0.0976637 -0.14521673 -0.15348646 -0.14696501
-0.21450636 -0.09987231 -0.2978985 -0.0146875 0.17075096 0.042476617 -0.1595969 0.2863507
-0.12391679 -0.034266885 -0.6322097 -0.1287265 0.16632444 -0.18226583 -0.038024336 -0.007582172
-0.04537471 -0.07487634 -0.17453462 -0.029160893 -0.0361236 0.2228938 -0.10433992 -0.2878236
-0.17870323 0.026234819 -0.2605181 0.19177791 -0.15174966 0.30998367 -0.014448851 0.09791078
-0.36541262 -0.11474636 0.15907705 -0.027445663 -0.14180565 -0.2140489 -0.2163958 0.17781296
-0.3041213 0.042310566 0.039672203 -0.047107793 0.107849106 0.04064851 0.13423193 0.05563422
-0.08192139 0.19001846 0.118736014 0.17023398 -0.49712735 -0.27879962 -0.1967871 0.16233021
-0.1404751 0.14453007 -0.15382929 -0.062495966 0.043788914 0.4061557 -0.03947698 -0.015148269
0.337372 0.35578233 0.14400682 0.1525206 0.24461943 0.26070076 0.26704058 0.12646088
-0.027792921 0.2605385 -0.022086369 0.15363061 -0.21657723 -0.012774164 0.17058359 0.30140695
-0.28031266 0.35986036 0.2742692 -0.19621924 0.39471772 -0.32657313 0.04079039 0.094661266
-0.21984717 -0.13271506 0.15268691 0.15370253 0.21347798 -0.18408443 -0.1532598 -0.3870895
0.23706642 -0.2595186 -0.050824184 0.14829835 -0.087590076 -0.022247663 0.12153895 -0.2817119
-0.003603223 0.024761211 0.11306822 -0.048918262 -0.09807533 0.17535542 -0.20544755 0.00076942
0.33023152 -0.011183781 -0.29981694 -0.0073191025 0.035202004 0.33619773 0.032836586 -0.2057978
-0.08827839 0.12593742 0.2634752 0.25481573 -0.34391433 -0.11169466 0.16130595 -0.09495717
-0.22876701 -0.18389893 -0.038597617 -0.1919108 0.33795717 0.09320427 0.03038889 -0.08553157
0.47581032 0.066865616 -0.1434143 -0.5148523 -0.15981208 0.09599596 -0.2328612 -0.24669302
0.20151837 0.1331486 -0.26074126 -0.17595418 -0.39486545 0.0814612 -0.38835475 -0.28960878
-0.34468055 -0.39518207 -0.24712305 -0.17688645 -0.26890355 0.21622936 0.38729334 0.004837802
0.16850214 0.12227927 -0.17884244 -0.48972538 0.1398677 -0.21514016 0.16092841 -0.5369528
0.18253653 -0.45799246 -0.27254236 -0.078354254 0.29386306 0.30063125 0.18407156 -0.18530385
-0.15913026 -0.17242305 -0.28486392 0.18002783 0.34832668 -0.18933493 -0.1817681 0.074206404

edge_layers.0.lstm.bias_ih_l0 f4 [256]
00000000: f8b1 58be 44f4 803e 0e24 a23c 7f12 4fbe
00000010: 0891 2a3e 1c9b b0be 1f28 163e 5027 d7be
00000020: 0dca dabd 2773 173e 422d 84be 9094 83bd
00000030: b95f 813c 8d0c 803d 9bd6 0abb a8b5 4f3e
00000040: b363 723d 6fa4 0dbe 1000 36be 5518 2bbe
00000050: efc7 52bd 6335 b9be 2fc5 38be bf47 64bd
00000060: 2299 44be f694 b9bd ea05 65be bbd7 05be
00000070: 9a1d a9bd 1d6a a93e 95d1 9dbe 9268 82be
00000080: b914 0cbd 4de7 df3e f0f1 87be b9de 893d
00000090: a68b 663e a127 8abe f57c 03be ee71 5cbe
000000a0: 9243 473e fc18 19be ba69 b8bd 1181 be3d
000000b0: f5ef 14be b116 7b3e 4bae 3bbe e037 98be
000000c0: 525e 1abe 58d5 44be a321 a43e 3719 f8bd
000000d0: 9ca7 73be d522 893d ccb6 0bbe 8c42 233e
000000e0: 625f e3bd 199b 73be 578e cbbd 3624 b93e
000000f0: 0793 b2bd dabf f4bd 46ec 223b ab97 27be
00000100: 853b cbbd 4930 bcbd e479 54be cb31 e7bd
00000110: 3797 523e 19c3 f6bd 61d4 a4bb b61d 58be
00000120: 0262 b2bd 555d 3fbe 32c4 c8be 8548 5f3e
00000130: c430 edbb 3e20 dc3d 6126 01be 1ef2 fabe
00000140: c2b6 903d e7e9 773c ff5d bebd 6da6 c4bc
00000150: bbf9 04be c5f8 debe ea7c fdbd 50ad 86be
00000160: 8ad1 6dbe be71 a4be aff4 3b3e 6fad 4bbe
00000170: c45a 12bd 8616 de3e fbab 51bd a63f 0cbe
00000180: 7a86 86be c656 a8bd 4912 29be eaec c23d
00000190: 6f5e 753e fc3f b9bd e9d2 4fbe 177e 8abe
000001a0: cb4b 3dbe b6cc b6bb 7627 5d3e 3ac9 303e
000001b0: 9b20 26be 1a42 873e 31d9 9f3e 90e7 66be
000001c0: eb16 fabd 96bb 43bd a336 e33d fba1 6dbe
000001d0: f884 8fbe 2609 dd3e fcca a8bd 80d1 0a3e
000001e0: f541 8abe b19d 48be 0fac 093e 2fda 6e3e
000001f0: 478d 11be 56d1 21be efff 6c3e 1329 6c3d
00000200: d61c f23d d145 dfbe 192d 353e 0acb c23d
00000210: 39eb b2be 5605 11be ebf9 23bf d294 d4bd
00000220: 7da4 233c 2e9a c5be 73c9 30bd 6fc7 3bbe
00000230: 011c 9fbe 0cde 903e dded d7bd 461b c4be
00000240: 3e4a 613e 7e62 d9be 5ffb 213e c156 05bf
00000250: bffa b63e 23f1 7dbe e6ba 5bbe f8ef a3be
00000260: ea11 2a3e 824a d0be 293c 83be 39bf 8c3e
00000270: 7012 8ebe b1c2 173f 3a7c 033e 2a86 83be
00000280: ead5 473e 7283 2d3f efc2 8a3d 9ddd 69be
00000290: b931 1abf 0804 323e 41b5 8d3e c9f8 9b3e
000002a0: fed9 0bbf ea9c b53e 3743 dc3d 0a91 43be
000002b0: 3c9c 433e fbd3 05bf 4ee5 783d 2e17 1a3e
000002c0: 5790 4bbe d2b4 95bd 4898 dfbe b078 10bd
000002d0: 6ffe da3d 6daa 113f 4ac5 c73e 3d77 26bf
000002e0: bca2 17bf ac0f cf3d eb68 79be 022a e63e
000002f0: 9f7e a6be 7094 47be 535f 32be 736b 0ebe
00000300: 91f0 21be 1bd8 86be bf8c e4be 3264 6abd
00000310: 99da 433d ccc8 20be 47a4 9ebd 1518 9ebe
00000320: 6078 87be caa3 02be e119 debe 5faf 20bd
00000330: b15b 26bd a175 e2bd 433d 5bbe 1bc5 b6bc
00000340: 64f4 62be 9579 f03c 0335 4ebe 4a42 8abe
00000350: b3c5 0dbe 6ead a0be e60c 87be 3b04 f63c
00000360: 2457 28be 03da 5dbd adc6 a7be 938f 293e
00000370: 220d 1bbe e6be 803e 856e a2bd cdaf cabe
00000380: f984 18be 89e2 e43c 7742 7abe 23b9 8fbd
00000390: 2d27 60bd 5126 9dbe 8bd0 a6be 31a7 1ebe
000003a0: 9f8b 283b 10f7 27be 8a54 cf3d baee 793d
000003b0: 3739 18be 9554 ce3e fa22 6ebd e41a 5abe
000003c0: 2be7 86bd 1f13 38be 003b 28bd 8620 9abe
000003d0: 35fc b3be 44c9 713d 3b1a 9f3c 0f88 e53d
000003e0: 80c3 d6bb b5b1 4fbe b220 863e ead8 453e
000003f0: b26c 05be 70b9 c5bc 991f dc3d 6463 56be
-0.2116164 0.2518636 0.019792583 -0.202219 0.16656888 -0.3449334 0.14663742 -0.4202218
-0.106830694 0.14790021 -0.2581578 -0.064248204 0.015792714 0.06252394 -0.0021185044 0.2028414
0.05917711 -0.13832258 -0.17773461 -0.167085 -0.051460203 -0.36173543 -0.1804397 -0.055732485
-0.1919904 -0.09061615 -0.22365537 -0.13070576 -0.08257599 0.3308877 -0.3082396 -0.25470406
-0.03419945 0.43731156 -0.2655177 0.06731934 0.22514209 -0.2698336 -0.12840636 -0.21527836
0.1945937 -0.14950937 -0.09004541 0.09301961 -0.14544661 0.24520375 -0.18328206 -0.2973013
-0.15075043 -0.19222009 0.32056913 -0.12114184 -0.23794407 0.06696097 -0.1364395 0.15943354
-0.11102177 -0.23789634 -0.099392585 0.3616044 -0.087194495 -0.11950655 0.0024860068 -0.1636645
-0.09923462 -0.09188897 -0.20749623 -0.11288794 0.20565496 -0.12048931 -0.0050302004 -0.21105084
-0.087101 -0.18687947 -0.39212185 0.21805008 -0.0072384793 0.10748337 -0.12612297 -0.49012846
0.07066108 0.01513145 -0.09295272 -0.02400514 -0.1298589 -0.4354917 -0.12377341 -0.26304102
-0.23224464 -0.32118028 0.18355058 -0.19890378 -0.035731092 0.4337656 -0.051189404 -0.13696155
-0.26274472 -0.08219676 -0.16510881 0.09517844 0.23961805 -0.09045407 -0.202953 -0.27049324
-0.18485944 -0.0055786027 0.21597084 0.17264262 -0.16223375 0.2641762 0.3122039 -0.22549272
-0.122114025 -0.047786318 0.110944055 -0.23206322 -0.28031135 0.43171042 -0.08241841 0.1355648
-0.27003446 -0.19591404 0.13444541 0.23325418 -0.1421405 -0.15802512 0.23144506 0.05765636
0.11821906 -0.43607953 0.17692985 0.09511383 -0.34945086 -0.14162192 -0.6405322 -0.10379948
0.0099879475 -0.38594192 -0.043160867 -0.18337797 -0.31076053 0.28294408 -0.10543416 -0.38302058
0.22000977 -0.42457956 0.15818547 -0.520855 0.3573818 -0.24799018 -0.21458015 -0.3201902
0.16608396 -0.40681845 -0.25631836 0.2748964 -0.27748442 0.5928145 0.12840357 -0.25688297
0.19515195 0.67778695 0.06775462 -0.22838445 -0.6023212 0.1738435 0.27677348 0.30463246
-0.54629505 0.35471278 0.10755008 -0.19098297 0.19102567 -0.5227658 0.060765557 0.15047905
-0.1987928 -0.07309879 -0.4367087 -0.035271347 0.106930606 0.56900674 0.39017707 -0.65025693
-0.5923269 0.10110411 -0.2435643 0.44953924 -0.3251848 -0.19490218 -0.17419176 -0.13908176
-0.15814425 -0.2633675 -0.4463863 -0.05722446 0.047815893 -0.15701598 -0.07746177 -0.30877748
-0.26459026 -0.12757793 -0.4337912 -0.039229747 -0.040614787 -0.11057592 -0.21410088 -0.022310784
-0.2216354 0.02935485 -0.2013741 -0.270037 -0.13844948 -0.31382316 -0.26377028 0.030031314
-0.16439492 -0.05416299 -0.32768765 0.16558675 -0.15141729 0.25145644 -0.07931236 -0.3958725
-0.14894475 0.027940052 -0.24439417 -0.07017734 -0.05472486 -0.30693296 -0.3258098 -0.15493466
0.0025717986 -0.1640284 0.101235464 0.061018683 -0.14865576 0.40298906 -0.058138825 -0.2129932
-0.065870605 -0.17976044 -0.04107189 -0.30102938 -0.35153356 0.059029832 0.019421687 0.11207592
-0.006554067 -0.20282634 0.2619682 0.19321027 -0.13029745 -0.024136275 0.10748214 -0.20936352

edge_layers.0.lstm.bias_hh_l0 f4 [256]
00000000: bfae 36be bdb1 623e ab8e efbd e617 97bd
00000010: 7de3 293e 622f 8dbe 3540 043c b265 c9be
00000020: d977 8a3d a7dd a23e 94c2 c6be 52bd b0bb
00000030: 5c15 aa3d f84d f2bd 7307 2c3b 5b0a 7e3e
00000040: 52d6 95bd dbd5 a2bd 9883 c0be 15fe 0abe
00000050: b919 c53c 9f44 80be 3f2f 6fbe 0260 2ebe
00000060: 4239 60be 1902 003d 56c1 23be 441f 93bd
00000070: ef3c 49be 6ec9 913e 28fa 88be 4ca7 a2be
00000080: db6d 593d 94ab b13e 699d cbbe 66eb 313d
00000090: c042 4b3e 2ffb 42be df56 e9bd 2781 b8be
000000a0: 70f4 823e 5dbf 48be f864 4fbe 1892 453e
000000b0: 07f0 12be cf91 f13e c888 05be ff38 8bbe
000000c0: 0999 1abe 1219 4fbc 707c 023e 9729 31be
000000d0: f31d edbe 877e 983d ea9a 59bd d6b5 8a3e
000000e0: 113c 73bd 16d6 8cbe aa74 9abc 4167 763e
000000f0: 5f5f 10be 44ec 59bd 94b3 383d a1fb 8ebe
00000100: 2f54 aabd 3145 31be 2164 65be a3c0 75be
00000110: 16da 573d a0a0 55be 4d05 03be aa28 9cbd
00000120: c6db 813d 0186 45be 49ff b1be 1e55 533c
00000130: f9c3 36be 8d54 473e 0c8c 80be 0814 a2be
00000140: 243b 72bc f1f5 05be 933b 32be 0ddc 50bd
00000150: a0af 1ebd 9fdb e1be 40c5 01be 1cad 4abe
00000160: a91e 9bbe 60bc 6abe 50a5 473e 9b3a 25be
00000170: c61b d4bc aa95 a23e 1426 2cbe 16cf 513c
00000180: e064 0cbe 8bdc 80bd 1e2f 50be 09ae 4e3a
00000190: b0e7 483e 5857 a23d 05e8 3abe 84eb 7ebe
000001a0: 0ea9 6ebe 0fca 19be 2bbf 9a3e c72f 743e
000001b0: ee8d a5be 8d90 883e 2fd0 893e 9ea0 41be
000001c0: 4743 99be 8f5a 36be a7b0 17bd 4715 a6bd
000001d0: f911 e9be 60b1 e63e 837c 12be 624f aa3d
000001e0: dfe1 96bd 440b 293c 74c7 bc3d 7efa ae3e
000001f0: ade2 aabd 3314 1ebe 3294 693e 57f9 693e
00000200: 89ee 2c3d a6f9 debe cf3a d73d e3a1 613e
00000210: 252a a6be 9083 53bd 842a 10bf ba90 fa3d
00000220: 63cf bebd c451 68be 7b06 2ebe 9003 47bc
00000230: f10f acbe 63fe b33e 068c 9bbe bdec 5cbe
00000240: 64af 6d3e b3c9 acbe 0592 113d 7265 18bf
00000250: b086 7c3e deb7 75be 3eee e9bd 5d6a 9fbe
00000260: 3ec9 fd3d ffd6 8fbe 30a4 d3be f97b 8c3e
00000270: c510 49be a0eb f83e 2148 3cbd 6ee3 ecbd
00000280: f480 b43b b3a7 3c3f d066 303d 07ef 67be
00000290: 61a4 22bf 55b2 943e 1fd9 903e f045 bc3e
000002a0: a054 07bf 78b4 9c3e 9030 92bd 9635 e9bc
000002b0: dfe3 743e 679e 06bf 82e7 623e b72b 0a3e
000002c0: 9e2f a0be e481 20be 2e29 ffbe b8a3 afbd
000002d0: 8f9c 293e ee6f 0e3f f4cf de3e af1e 1bbf
000002e0: 4b62 00bf 864a 0b3e 85f8 c1be 3184 223f
000002f0: b905 adbe bbb2 94be c918 4bbe fd6f d3bd
00000300: 99af 123c d70e 21be 1842 cbbe ed38 81be
00000310: c935 313e 8539 babd 0f99 bebd 188b f0be
00000320: d8ca 55be 6919 1dbe 6984 d3be f48a c4bd
00000330: 929b c43c 48f3 3f3d 841c 7fbe b665 19be
00000340: 64bf 8dbd 4179 343d cb12 69be 8339 8dbe
00000350: ec75 5abd c39c a0be 4758 94be 88c8 d73c
00000360: e8d7 89be fc87 803d 2f35 07be 66a5 62bd
00000370: 26ee c3bd 26eb 733e 98bf 53be 8a19 c2be
00000380: 3f25 90bb 2d63 edba a2db 84be 8ffb 11be
00000390: 4c5d ebbd 9d64 bcbe ee7c 16be 10d2 f6bd
000003a0: 35f0 2abe abd7 08be 9531 343e 81f7 a2bc
000003b0: e962 83be d786 b73e 59ac 81bd b993 dabe
000003c0: bff8 aabd dae6 7bbe d8fe 103d 7d7c 4abe
000003d0: 2dc6 48be dc70 623d cf95 23be 9ab7 bdbc
000003e0: 5dac 5abe 23dd fcbd 36fd 713e e055 bf3e
000003f0: 60ab fcbd 4650 01be c11c 883d b11a 64be
-0.17840098 0.22138114 -0.11697134 -0.07377605 0.16590686 -0.27575213 0.008071949 -0.393354
0.067611404 0.31809732 -0.38820326 -0.0053936625 0.08304855 -0.118312776 0.0026249557 0.24808638
-0.07316269 -0.07950946 -0.37600398 -0.13573487 0.024060117 -0.25052354 -0.23357867 -0.17028812
-0.21896842 0.031252 -0.1599172 -0.07183698 -0.1965215 0.2847399 -0.26753354 -0.31768262
0.053083282 0.34701216 -0.39768532 0.043437384 0.19849682 -0.19041131 -0.113935225 -0.36036035
0.25577116 -0.1960425 -0.2025336 0.19294012 -0.14349376 0.47181556 -0.13040459 -0.27191922
-0.15097441 -0.012640255 0.12742782 -0.17301022 -0.46311912 0.07446008 -0.053126253 0.27091855
-0.059383456 -0.27507085 -0.018854458 0.24062826 -0.14098881 -0.053203836 0.045093134 -0.27926353
-0.08316838 -0.1731155 -0.22401477 -0.23999266 0.052698217 -0.20862055 -0.12794991 -0.076249436
0.063407466 -0.192894 -0.3476508 0.0128987115 -0.17848195 0.19465847 -0.25106847 -0.31655908
-0.014784608 -0.130821 -0.17405538 -0.050991107 -0.038741708 -0.4411287 -0.12672901 -0.19792598
-0.3029683 -0.22923422 0.19496655 -0.16135637 -0.02589215 0.3175481 -0.168114 0.012805721
-0.13710356 -0.06292065 -0.20330474 0.00078842096 0.19619632 0.07926816 -0.18252571 -0.2489453
-0.23306677 -0.15018485 0.30223975 0.2384635 -0.32334846 0.26672783 0.26916644 -0.18908927
-0.2993414 -0.17807983 -0.037033703 -0.08109527 -0.45521525 0.450572 -0.1430531 0.08315922
-0.073673 0.010317627 0.0921773 0.34175485 -0.08344016 -0.15437393 0.22810438 0.22849022
0.042219672 -0.43549842 0.10509264 0.22034411 -0.3245403 -0.05163914 -0.56314874 0.12234636
-0.093168996 -0.22687441 -0.1699466 -0.012146845 -0.33605912 0.3515502 -0.30380267 -0.21574683
0.23211437 -0.33747634 0.035539646 -0.59529793 0.24660754 -0.23995921 -0.11422394 -0.31135836
0.123918995 -0.28093717 -0.41336203 0.27438334 -0.19635303 0.48617268 -0.045967225 -0.11566816
0.0055085365 0.7369339 0.0430668 -0.22649775 -0.6353207 0.29042307 0.2829065 0.36772108
-0.528635 0.30606437 -0.07138169 -0.028467935 0.23915051 -0.5258545 0.22158626 0.13493238
-0.3128633 -0.1567455 -0.49836105 -0.08576149 0.16563629 0.5563954 0.4351803 -0.60593694
-0.50149983 0.13602647 -0.37884918 0.6348296 -0.3379343 -0.2904261 -0.19833674 -0.103240944
0.008952999 -0.15728317 -0.39698863 -0.25238743 0.17305674 -0.09093002 -0.09306537 -0.4698112
-0.2087816 -0.15341724 -0.41311958 -0.09596816 0.023999963 0.04686287 -0.24913222 -0.14980206
-0.069212705 0.04406095 -0.22761075 -0.2758294 -0.053335115 -0.313696 -0.289736 0.026340738
-0.26922536 0.06275937 -0.13203882 -0.055333517 -0.095669076 0.23820171 -0.20678556 -0.3791011
-0.0043989713 -0.0018111222 -0.25948817 -0.14256118 -0.11492404 -0.36795512 -0.14696094 -0.12051785
-0.16693194 -0.13363521 0.17597039 -0.01989341 -0.256614 0.35845062 -0.06331701 -0.42690828
-0.08348226 -0.24599782 0.035399288 -0.19774051 -0.19606848 0.055283412 -0.15975116 -0.023158837
-0.21354814 -0.12346866 0.23631749 0.37370205 -0.12337375 -0.12628278 0.06646109 -0.22275807

edge_layers.1.lstm.weight_ih_l0 f4 [256, 11]
00000000: db97 b23e 9789 ef3d 6ee3 afbe b263 a3be
00000010: 9a38 6a3d dc69 403f d2a3 24be cc23 3bbe
00000020: efe5 3c3d 30e0 863e 0f84 563e 818c fe3e
00000030: 1bcb 793e f72e 89be 8615 b0bd 9875 ecbd
00000040: b163 0e3f 9cb8 08bd 360b 6dbd a586 e13c
00000050: 7fc5 e73e 2d31 2b3f 7f43 333e e9d3 b13e
00000060: cfaa 143d 2508 8c3e 8131 993e 67ee b93e
00000070: 4ca8 013e 6eb5 c2bc 846b c93d f532 1b3f
00000080: 4a2a 003f 71cb e73e 3a7b 9f3e 922d 50bf
00000090: 8e9b 33be b34e 633e 1f69 4f3f 169c 23be
000000a0: f715 abbe 0af7 683d a930 113e 3bdf a3bc
000000b0: 8cf6 083d f982 f1be 2086 623e b4e4 2dbf
000000c0: 8547 d4be e613 66be 0e55 a53e bf1a dabe
000000d0: 79e0 b73e 0acc 1d3d 5836 353d cef6 d43e
000000e0: 134f dc3e 9399 5bbe f81c 8fbe a9e0 2bbd
000000f0: d84f 243f c8a7 e7be c298 15be e1fe 193d
00000100: a76a 7c3e a250 ce3e c906 123e df40 2b3f
00000110: 5401 1cbe b1e2 a63e 5b87 303e fa4b cc3e
00000120: 1b66 153e 6f65 11be 96a4 063e dc34 1a3e
00000130: 5960 4e3e 7dc3 123f 3f75 8f3e c3b8 1ebf
00000140: 3edf c4bd c946 89bd b88f 303f c43e 30be
00000150: 30d4 c5bd 09cd 01bd 37fe c33e cf45 dc3e
00000160: 0660 353e da9a c53e 9c74 ad3d df2f 86be
00000170: d6fd 003e c6ad 2b3f b2ec 4dbe 18f3 62be
00000180: 93f1 f6be 4e21 cc3e 96d3 8e3e 2ee8 0b3f
00000190: d71d 663e 2ae7 a8be 0119 d73e 5d81 9dbb
000001a0: 1d25 a93e a87f ab3e 06e2 1f3e 886a 103d
000001b0: 5a10 d83d b4b7 923e 0c0e b3be 5612 3e3f
000001c0: 968d b93e 29e5 bb3d dba8 b93c 35a8 c3be
000001d0: 21a9 0cbe 5de7 993e 8bbf f93e 578d 35be
000001e0: 1187 76bd 56eb 873e 850b 81be 1ad3 32bd
000001f0: 0a28 fbbe 2f4f bc3c 6144 3d3d 7e7c 6abd
00000200: b24a 86be b67a 6e3e e0bc 263f 049e f93e
00000210: b7aa f33e 5429 d03d 4889 6abe c588 28be
00000220: 1d67 903e c778 ea3e ba07 6dbe 78fb 4ebe
00000230: 49ff fcbd a6bf 9b3e cb38 cf3e 1e2e d83e
00000240: 33c9 88be 3b52 60bd 6a74 5abe 6746 013e
00000250: 0434 f63e ce10 373e 0013 c9be 91fe 3a3e
00000260: b740 023f 985e 213f b542 e63e 95af b03c
00000270: da15 76be 6e92 21be 8198 df3d 251b c73e
00000280: cdb9 5a3e c6c1 0dbe 13ff 313e b3c1 273f
00000290: e601 173f ea35 98be 0914 883e a243 663e
000002a0: 1f73 fa3d 5c0c 2c3d d637 93bd 8bd8 593e
000002b0: 4782 6b3e 8744 e93e 4c7f 17bf ca2b 0dbf
000002c0: 54b1 803e 6b44 f73e c3b4 be3d 30ac d8be
000002d0: 6ce4 553e d036 8d3e 204a 01be 620a a0be
000002e0: 5e3e d23d ac8c 1c3e 0b37 283d 6ec2 013f
000002f0: d347 cf3d 16b2 27be 883a d8be 175f a6be
00000300: 758a 933e b32b bbbc 7d7a 9cbe fce6 31bd
00000310: 198b 173f 506c e93e 0d43 193e 0748 353d
00000320: 0030 cb3e 02b3 a6be b92d 99be 3ee8 8e3e
00000330: 322e 93bd 748e 9ebe 2780 623e 860a 853e
00000340: fdcf 813e 6643 a63c a90a 953e 1e65 a43d
00000350: 4736 ccbe 2d5f 613e bebb c73e 8fd8 28bf
00000360: 499e 21bf bd0a 403e fc4b 3b3e 6bfa b53e
00000370: 86d8 ed3e 93a7 8b3c 49cf f0be 0a2f c93c
00000380: 1e09 893d 67fe 233f de4d bf3d 696a b3bd
00000390: f349 40bc 66b1 bd3e fb29 603e 8d46 b83e
000003a0: 9219 71be d3c9 093e f807 c3be 485c 123e
000003b0: cd5e b33e c11c 26bf ca25 54be 4368 e03d
000003c0: 1434 6a3f 83c8 613f 00d9 b83e 6886 af3d
000003d0: a5ac 7ebe d92b 86be 22a0 8f3c ed7b 373f
000003e0: 0285 bebe 3e98 373d 89fd 933d bfae 063f
000003f0: 08c7 f53e a952 613e aa4f af3d 7607 bdbe
0.34881482 0.11696165 -0.34353203 -0.31912 0.057182886 0.7516153 -0.16078117 -0.18275374
0.04611772 0.26342916 0.20948814 0.4971657 0.24393885 -0.26793644 -0.08597855 -0.11545867
0.55620867 -0.033379182 -0.05787202 0.027530024 0.45267865 0.6687191 0.17506216 0.34731987
0.03629571 0.27349964 0.2992058 0.363147 0.12661856 -0.023768153 0.0983496 0.6062463
0.5006453 0.452724 0.31148702 -0.81319535 -0.17539808 0.2219799 0.8101978 -0.15977511
-0.33415195 0.05687622 0.14178719 -0.020003906 0.03343825 -0.47170237 0.22121477 -0.679271
-0.41460815 -0.22468528 0.32291454 -0.4259853 0.35913447 0.038524665 0.04424128 0.41594547
0.4302908 -0.21445303 -0.2795179 -0.0419623 0.6418433 -0.45245194 -0.14609054 0.037596587
0.2465006 0.40295893 0.14260401 0.6689586 -0.15234882 0.32594827 0.17239134 0.39901716
0.14589731 -0.1419885 0.13148722 0.15059227 0.20153941 0.5732954 0.2801914 -0.62000674
-0.096128926 -0.06702954 0.689693 -0.17211443 -0.09659612 -0.031689677 0.38279888 0.4302201
0.17712411 0.38594705 0.08469507 -0.26208398 0.1259683 0.6706203 -0.20109823 -0.22163045
-0.48231182 0.3986916 0.27895802 0.54651153 0.2247232 -0.32988864 0.42011264 -0.004806681
0.33036128 0.3349583 0.15613565 0.035257846 0.10549994 0.2865578 -0.34971654 0.7424673
0.36240834 0.09174568 0.022663524 -0.3821427 -0.13736393 0.3005933 0.48778948 -0.17729698
-0.060187403 0.26546735 -0.252041 -0.043658353 -0.49053985 0.022986976 0.04620779 -0.05724763
-0.26228863 0.23288998 0.6513195 0.4875337 0.47591183 0.10164133 -0.22903931 -0.16458423
0.2820367 0.4579527 -0.23147479 -0.20213115 -0.12353379 0.30419654 0.40473017 0.42222685
-0.26716003 -0.05476592 -0.21333471 0.12624513 0.4808656 0.17877504 -0.39272308 0.18261172
0.50879997 0.63034964 0.44972768 0.021568099 -0.24031773 -0.15778515 0.1091776 0.38887897
0.2135994 -0.1384345 0.1738246 0.65529937 0.5898727 -0.29728633 0.26577786 0.22486737
0.12228989 0.042003974 -0.07188384 0.21274011 0.22998916 0.45560095 -0.59178615 -0.5514494
0.2513529 0.48294386 0.09311821 -0.4231887 0.20887917 0.2758088 -0.12625933 -0.3125792
0.10265802 0.15288037 0.041068118 0.506873 0.10121121 -0.16376528 -0.42232156 -0.32494423
0.28816572 -0.022847986 -0.305622 -0.043433174 0.5919662 0.45590448 0.14966984 0.044258144
0.3968506 -0.32558447 -0.29917696 0.27911562 -0.071865454 -0.30968058 0.22119199 0.2598459
0.25353995 0.02029581 0.29109696 0.08027099 -0.3988516 0.22008963 0.39010423 -0.6595544
-0.6313215 0.18754096 0.18290704 0.35542616 0.46454257 0.017047679 -0.47033146 0.024558563
0.06691192 0.6406006 0.09341024 -0.087605305 -0.011736381 0.37049407 0.21891014 0.35991326
-0.2354491 0.13455896 -0.38092017 0.14293015 0.35033265 -0.64887625 -0.2071754 0.10957386
0.91485715 0.8819658 0.36103058 0.08570558 -0.24870546 -0.26205328 0.017532412 0.7167347
-0.37210852 0.044822924 0.07226092 0.5261039 0.4800341 0.22004189 0.085601166 -0.36919755

edge_layers.1.lstm.weight_hh_l0 f4 [256, 64]
00000000: 97d7 35bc 58e2 6d3e fc98 593d 95cb aa3d
00000010: fd74 b3bd 167b 393e 687b bfbc 04d4 21bd
00000020: 887a 913e 3926 813d d78d 983c c937 30be
00000030: 8e79 b6be a01a 583d 4f8a 04bd 5e80 50be
00000040: 94f5 ea3d a01e 273d d8fb 39be 8902 acbc
00000050: f8fd 9b3c 6c28 953b e736 a23d 9008 f43c
00000060: a7e8 943d 0406 e3bd d03b 84be 8e84 98bd
00000070: c83c 43be 4f3c 963d 1e2b d1bd 48ae 963e
00000080: 91bd f63d 4970 283e d988 c9be e596 7dbd
00000090: 5dfd 66be 7f1e 9cbc 4f13 1f3c 4527 f8bb
000000a0: 2eb0 9fbd 15d4 40be cc9a 1cbe b2c9 2dbd
000000b0: c6b5 12be 2518 3fbe 1e1d 40be 8cd2 7f3d
000000c0: e33f 38bd 7b8a df3d 6959 733e a01b 383e
000000d0: ed73 ba3e 3d8a 633e 7877 eb3d 6f61 813e
000000e0: cf87 3a3e 26de f93d 2b77 b23d dad2 1b3d
000000f0: cd8d 003d 2f28 80be 81e4 8ebe 3b70 99bd
00000100: 0255 febe f666 7d3e fcb6 9c3a 6ca6 b43c
00000110: 1f9b edbe 9ee7 0f3d 38b8 c2bc 3ea0 2fbe
00000120: 1ab4 f13d 39dc c7bd bf5b d03e dce4 f13d
00000130: 35e1 40bf 0083 3e3e 1d38 713d 76d8 53be
00000140: 4120 1dbf 0a23 313e 0ecd e5be a631 a23e
00000150: a581 93be 94c8 5c3a a1a1 433e 7e6c cbbd
00000160: 85ab 9b3d bf17 36be 6ef4 f3bc 2d38 e1bd
00000170: c62c 3fbe ceaf 733d a1b8 11be 6c42 af3e
00000180: 65ff cd3e 9cc2 97bd c749 a7be 8b1e 5abe
00000190: 365e 81be 10e0 8d3d cd00 d7be 0d6c 9c3e
000001a0: 2c58 9cbe 97b0 eabd 8ea8 e9bb 544e 81bd
000001b0: c5fb 82be 97cc abbe c19b 9cbd 7cc3 43be
000001c0: 5fb8 3b3e fbe8 df3e f5ee 9d3e 73bb 63bd
000001d0: 9297 073f 1cf0 98bd 27d6 a3bc c501 373e
000001e0: 7a6d a43e a43a 9a3e aedd cb3d 5300 9a3e
000001f0: 521f f63d 3cd2 21bf 06c4 f7bd 350b c73d
00000200: e954 833e 2f2e b9be e331 583e 7093 373c
00000210: eced f13b fbfd f9bd d610 a83d e4dd 90bb
00000220: b739 3bbe a826 efbc c364 463e 01fc b9be
00000230: 07ff bf3d f2fa 8bbe 1ddc 833e 9817 f3be
00000240: af5c 283e 062d b1be 2cc3 48bd 0d16 973d
00000250: 5b25 c43e 0d0d 86be 3aab e9bd 04be 933c
00000260: 0957 16bd a3f6 e03b a751 b43e c44f cc3d
00000270: 4c26 073d d84a d2bd e293 503e 6879 623c
00000280: b306 22be 29fc a5be c865 803e 09f7 063e
00000290: b660 063e 8d82 133d 23d2 3e3e 265a b2be
000002a0: ca3b 95bd 45cd 3abd fd10 be3d 7cdb ec3c
000002b0: 7a78 5e3e fea7 cbbe fa82 1d3e 53c3 8f3d
000002c0: 2bdd 14be b57a acbd 1d18 18be 4d6d cabd
000002d0: 5e90 3cbd 315a 143e ac12 33be a862 9f3d
000002e0: daee a7bd ddd2 1abe 540c 883e 6447 24be
000002f0: 301f 8f3d f27e b83e 84b1 afbd 5074 b13e
00000300: 56d6 1ebe 4b8f a43a ca5d c13d aaf5 873d
00000310: 221a 75be 75c3 183e 4f3b 1fbe 6f90 34bd
00000320: 6f54 d23e 58da 293d 4fbb 21bd b61b 2d3e
00000330: 9063 dabe ef5f c73d 65b7 853d 497e fb3d
00000340: 0862 32be bf86 e73d 51b3 dfbd 41b0 b53d
00000350: dc2d 62be d493 a53e ba07 2d3e aecc 423e
00000360: bab9 6b3e 8628 23be 9838 d1be 90c9 1cbe
00000370: 703a 5abe 0866 883e 7a77 01bd 36c5 9c3e
00000380: 3428 a53e caf5 8c3e f678 9dbe b13c 73be
00000390: 69a2 22be 6a60 82be c170 ffbe 5f7e b3bd
000003a0: 823f efbd 02cc 00be 8da5 1f3d 8ff2 ed3b
000003b0: 508f c4bd 39d9 0a3e ecc5 f43c c5f0 e9bc
000003c0: c11e 4fbd e2eb bd3d 7dae ad3e 5711 bb3d
000003d0: f739 9a3e c05c 8b3d 01cd 47bd cc6d 533e
000003e0: ad75 1dbd 881e 193e 1588 7ebe 4fc4 4c3e
000003f0: 0e95 5d3d a330 25bd 6255 72be ecd9 a5be
-0.011098764 0.23230875 0.053124413 0.083396114 -0.08762548 0.1811336 -0.023374274 -0.039508834
0.28413796 0.063061185 0.018622322 -0.1720878 -0.35639614 0.052759767 -0.032358464 -0.20361468
0.114726216 0.04080069 -0.18162477 -0.020997303 0.019042 0.004551938 0.07920628 0.02978924
0.072709374 -0.11085132 -0.25826883 -0.07447158 -0.19066155 0.07335722 -0.10213302 0.2942984
0.12047876 0.16449083 -0.3936222 -0.061911482 -0.22557588 -0.01905751 0.009709193 -0.0075730407
-0.077972755 -0.18830903 -0.15293425 -0.04242868 -0.14327154 -0.18661554 -0.18761107 0.062456653
-0.044982802 0.10915085 0.23764576 0.17979288 0.3641657 0.22220702 0.11497396 0.25269648
0.1821587 0.122005746 0.08714136 0.03804288 0.03138523 -0.25030658 -0.2790871 -0.074921094
-0.4967423 0.24746308 0.0011956389 0.022052012 -0.4640741 0.035132997 -0.023769483 -0.17150971
0.1180193 -0.09758801 0.40694997 0.118112296 -0.7534364 0.1860466 0.058891404 -0.20688042
-0.6137734 0.17298523 -0.44883007 0.31678504 -0.28809848 0.00084222225 0.19104625 -0.099328026
0.07601074 -0.17782496 -0.02977964 -0.10997043 -0.18669423 0.059493832 -0.14230587 0.34230363
0.40233913 -0.07410166 -0.32673475 -0.21300714 -0.2526719 0.06927502 -0.41992798 0.30551186
-0.3053602 -0.11459463 -0.007130689 -0.06313768 -0.2558271 -0.33554527 -0.07646895 -0.1911754
0.1833205 0.43732437 0.30846372 -0.055598687 0.5296565 -0.07467672 -0.019999577 0.17871769
0.32114774 0.30122864 0.099543914 0.30078372 0.120176926 -0.6321142 -0.120979354 0.097189344
0.2565072 -0.36168048 0.2111278 0.011204585 0.007383099 -0.12206646 0.08206336 -0.0044209827
-0.18283735 -0.029193237 0.19374375 -0.36325076 0.093748145 -0.27339894 0.2575387 -0.47478938
0.16441606 -0.34604663 -0.049014255 0.07377253 0.3830975 -0.26181832 -0.11409612 0.018034942
-0.036704097 0.006865339 0.35218546 0.099761516 0.032995507 -0.102681816 0.20368913 0.013822891
-0.15822868 -0.32418945 0.25077653 0.13180174 0.1312283 0.036013175 0.18634848 -0.34834403
-0.072867945 -0.045605917 0.09280584 0.028913252 0.21725646 -0.39776605 0.15381995 0.07019677
-0.14537494 -0.08421842 -0.14852948 -0.09884129 -0.046036117 0.1448753 -0.17487592 0.07782489
-0.08199854 -0.151195 0.26571906 -0.16042858 0.069883704 0.36034352 -0.0857878 0.34659052
-0.1551145 0.0012554912 0.09441717 0.066386536 -0.2393575 0.14918311 -0.15549968 -0.044083055
0.41080043 0.041467994 -0.039485272 0.16905102 -0.42654085 0.09735095 0.0652912 0.12279946
-0.17420208 0.11304998 -0.10922874 0.088715084 -0.22087806 0.32339346 0.16897479 0.19023392
0.23020068 -0.15933427 -0.4086349 -0.15311265 -0.21311355 0.26640344 -0.031608082 0.3061921
0.32257235 0.27531272 -0.30756348 -0.2375362 -0.15882267 -0.25464183 -0.49890712 -0.08764338
-0.11682035 -0.12577823 0.03897624 0.0072615813 -0.09597647 0.13559426 0.029879533 -0.02855719
-0.05056644 0.09273507 0.33922186 0.09134167 0.3012235 0.068048 -0.04877949 0.20647353
-0.038442302 0.14953053 -0.24856599 0.19996761 0.054097228 -0.040329587 -0.23665383 -0.32392824

edge_layers.1.lstm.bias_ih_l0 f4 [256]
00000000: 6230 203f f1f2 063f e5d2 ff3e 6cc2 453e
00000010: 6bf6 6fbd acb9 b63e edaf a53e b0eb e13e
00000020: b5e3 003f 019d cf3e 01e2 4dbd 682a 173e
00000030: eaa2 233f ce5d b83e e6f3 0c3f a6dc 58be
00000040: 71bf 603e eee7 e63e 4878 823e 0dc9 853e
00000050: 8917 043f 8c04 093f 7700 ff3e bc4e 2f3f
00000060: 2d3b d03d eff9 2a3e 0d58 0e3f f8c6 b63e
00000070: f0db a63e abb3 463f 3d2b 013e 2c76 823e
00000080: 07e4 aa3e 565b df3e c1d4 db3e 0692 c03d
00000090: 35c4 db3e ae46 0d3e a6c8 d93e 6443 103e
000000a0: e59c 693e 26a4 7a3e e6be cb3d f087 143f
000000b0: b0bc cf3e 5280 893d 3f81 ac3e bb24 183f
000000c0: e25b 443f b822 283e 381f 913e 7a41 023e
000000d0: f3d8 183f a563 c0bd 7435 813e 4763 b03c
000000e0: 483d d43e fe0b 743e 420e 043f 7eea 193e
000000f0: 0386 1d3d 966e 853e 13bf 8a3e 49a5 013e
00000100: 8ad9 b53e b301 c63e c400 ba3d 238f d63d
00000110: f62e a73c c9f2 a33e 2b72 dd3e 7fe6 6d3d
00000120: c914 2b3f 8956 0f3e afc5 ff3e 70c0 9abd
00000130: 871d 7d3e f812 a4bb fcaa 6d3e 83ee 9cbe
00000140: 2789 10be eb7a 903b b0f8 8d3e a7b3 1ebe
00000150: 23c2 0c3d 41f0 3dbd 6412 c33e 6b25 4e3f
00000160: d550 ae3d 76c9 203e fd52 e43d c1a4 8b3e
00000170: 56ac 823d 6863 cc3e c81d d03e 2544 803e
00000180: 2590 cc3e b7d9 8e3e c2bd 973e 85da 2e3e
00000190: 6779 323e 7a12 783d 8236 423d 76a9 b63e
000001a0: 4c9b 723e b478 7b3c 5a6a fc3d e08c 293f
000001b0: 5033 583e ce80 f2be aa63 f63e a815 b9bd
000001c0: f535 ce3e daf4 683e 5d78 57bb f7fb 913d
000001d0: dac7 4fbc 4ff5 a4bc 5411 913e b30f 30bd
000001e0: c94c 8f3e ffd3 c83e ba11 923e 39d2 48bd
000001f0: 9312 003f 61de 9c3e 70a4 a03c 1e1f 9a3d
00000200: 0602 03bf fd06 ba3e 37aa d9be ddc7 cc3e
00000210: 2454 88be cfab 493e 46d6 debe 6964 b0be
00000220: 1d77 f93e 4040 a53e b57b 293f 1b74 8bbd
00000230: 54e2 27bf 2fc5 9a3e ab0d 19bf 3e3b 83be
00000240: c2ea 03bf a3b0 c93e 2def c8be 1179 833e
00000250: 6eba e6be 3e0a 193d 87c3 ba3e 283a 2bbf
00000260: 2f79 04bf 3ab3 df3e c178 acbe 2080 d1be
00000270: 54ff aebe 1c72 0d3f 3481 c03e a20f 54be
00000280: 22b8 293f 22bc d83d bca1 00bf f89c cebe
00000290: eb47 0cbf ff38 26be be6e 7ebe 4c18 5d3d
000002a0: 0217 eebe 89fa e93e 1228 d53e bccf e5be
000002b0: 6696 b7be d613 75bb a483 ddbe b1d5 18bf
000002c0: ad6e 12bf 45df 213e 6422 003f edfe 893e
000002d0: cbbf d23e 81dd 963e 6cd9 b83e cab5 dc3e
000002e0: b76e de3e 5af5 aebe 8444 adbe b93c d73e
000002f0: 09f5 6f3e 7ecd 3c3e 7c14 c4be a0a4 66be
00000300: cd8f 0e3e 839f 8e3e a87c c03e ddd8 3b3e
00000310: 4173 2dbe e056 b23d 0d51 973e 9803 673e
00000320: 5607 673e 77eb 283e 0247 503e f7d0 b53d
00000330: 960b 893e 7c45 3c3e 0b7e 023f 00e6 1f3e
00000340: 8a9a c93d 3e72 213f 94a6 f63c a8b3 8f3e
00000350: 48b7 e53e cafe 0b3e b671 f13d 4f80 c43e
00000360: dda4 563e e8d9 de3e cab6 033f f2f5 313e
00000370: 3fee 9a3e 2e07 0e3f f18d e03d b0d4 d73e
00000380: f744 883e 8a0c f43e 42d8 133f 9661 e83d
00000390: e23b 993e bd7e 77bd 76da 0f3f eb9d ce3e
000003a0: de2d b93e e8b3 c83e 6992 173f 5e40 443e
000003b0: c8e1 b63d 048d ff3e 09c2 2c3e 566e 413e
000003c0: e2d0 ab3e d063 efbd d712 b63e 5b0c ae3d
000003d0: ad33 3c3e 244e 783d fa3f f03e 14db 613d
000003e0: f645 1c3e 9ee4 503e dd34 df3d 8f89 8e3e
000003f0: c6ee 5ebe de89 9a3e 4815 323f 20f7 1b3e
0.62573826 0.5271445 0.49965587 0.19312447 -0.058584612 0.3568853 0.32360783 0.44125128
0.50347453 0.40549472 -0.050264362 0.1476227 0.6392046 0.36009067 0.5505966 -0.2117792
0.21948029 0.45098823 0.25482392 0.26129952 0.5159841 0.53522563 0.49805042 0.68479514
0.10167537 0.16696905 0.55603105 0.35698676 0.32589674 0.776179 0.1261415 0.25480783
0.33377096 0.4362437 0.42935756 0.09402852 0.42923132 0.13796493 0.42535895 0.14088207
0.22813757 0.2447668 0.0994852 0.58019924 0.40573645 0.06713928 0.33692357 0.59431046
0.767027 0.16419494 0.2834413 0.1272029 0.5970604 -0.09394006 0.25236094 0.021531714
0.41453004 0.238327 0.51584256 0.15030858 0.03845788 0.26060933 0.27098903 0.12660708
0.35517532 0.3867317 0.09082177 0.1047652 0.020408135 0.32021168 0.43251166 0.058081146
0.6682859 0.13997854 0.49955508 -0.07556236 0.24718295 -0.005007144 0.23209757 -0.3065072
-0.1411482 0.004409184 0.27728796 -0.1549822 0.03436483 -0.046371702 0.38099968 0.80525845
0.08511511 0.15701851 0.11148641 0.27274135 0.06380527 0.3991959 0.4064772 0.2505199
0.39953724 0.27900478 0.2963696 0.17075546 0.17429124 0.060564496 0.047415264 0.35676163
0.23692054 0.015348602 0.123249725 0.66230583 0.21113324 -0.47363895 0.48122913 -0.09037334
0.4027554 0.22749653 -0.0032878139 0.071281366 -0.012681926 -0.020136504 0.28333533 -0.042983722
0.2798827 0.3922424 0.2852915 -0.04902861 0.5002834 0.30638412 0.01960966 0.075254664
-0.5117496 0.36333457 -0.42512676 0.39996234 -0.26626694 0.19694446 -0.43522853 -0.34451607
0.4872369 0.3227558 0.66204387 -0.06809255 -0.65579724 0.30228564 -0.5978648 -0.25631136
-0.51530087 0.39392576 -0.39244977 0.25678304 -0.4506411 0.037363283 0.364773 -0.66885614
-0.5174741 0.43691427 -0.33685878 -0.40918064 -0.34179175 0.5525224 0.37598574 -0.20709088
0.6629659 0.105827585 -0.5024679 -0.40354133 -0.5479724 -0.1623268 -0.24846932 0.05397825
-0.4650193 0.45698956 0.41632134 -0.4488505 -0.35856932 -0.0037395856 -0.43264496 -0.5970107
-0.5720013 0.15807827 0.50052476 0.26952305 0.4116195 0.2946587 0.3610338 0.43107444
0.43443844 -0.34171563 -0.33841336 0.42038515 0.23433317 0.18437764 -0.38296878 -0.22523737
0.13922043 0.27856073 0.37595105 0.18344446 -0.16938497 0.08707976 0.29554024 0.22559965
0.22561392 0.16496073 0.20339587 0.088777475 0.26766652 0.18385881 0.50973576 0.15615082
0.09843929 0.63064945 0.030108728 0.28066754 0.44866395 0.13671413 0.11789267 0.38379142
0.20961328 0.43525624 0.5145079 0.17378977 0.30259892 0.55479705 0.10964573 0.42154455
0.26615116 0.47665817 0.5775186 0.11346738 0.299285 -0.0604236 0.5619272 0.40354857
0.36167806 0.39199758 0.5920778 0.19165179 0.08929783 0.49912274 0.16870894 0.18889746
0.33557802 -0.116889596 0.3556125 0.0849845 0.18379088 0.060621396 0.4692381 0.05514057
0.15261063 0.2039971 0.10898755 0.27839324 -0.21770772 0.3018331 0.6956372 0.1523099

edge_layers.1.lstm.bias_hh_l0 f4 [256]
00000000: ea97 193f 32e4 273f 5e29 f53e 9f39 be3e
00000010: f96e 06be c807 3a3e 7c83 d63e ff16 d73e
00000020: 5b7b bc3e 628e 9a3e 1bd7 8ebd d4d4 8c3e
00000030: cda1 0f3f c15f a33e 8e3b c03e b146 fabc
00000040: b9dd ba3e cac2 1f3f a250 2f3e 23ba 183e
00000050: d5bc 233f b614 a83e f0b3 153f 3606 3a3f
00000060: 4560 243e e798 9f3e bb1e fb3e e708 c33e
00000070: 8e36 043f 65c3 243f 1c8b 8c3d c428 723e
00000080: b00e e73e eda1 243f e8d0 283f 2540 403e
00000090: 1ebf ce3e 8801 6dbc 776a a43e 6fdf 7d3e
000000a0: b89f a93e 0165 5a3e ee42 d43d 0e9f d53e
000000b0: 0268 ed3e c1d7 393e b5a3 b73e abb2 1c3f
000000c0: 848f 283f 65e5 493e 7fa7 c33e b3af 8ebd
000000d0: 152e 013f 231f 15be 5f0f a53e 30db f4bd
000000e0: 3579 823e a53c a43e 4867 1b3f 719d ca3d
000000f0: ebfa b23c 3001 4a3e 2ea0 733e 7fc5 cc3d
00000100: 42b3 b23e a79b 353e 824c 4c3e 9492 4e3e
00000110: bbfe d83c 228d 453e a260 df3e e9a0 cc3d
00000120: 2af5 253f 332c 4f3e 7903 a63e dccb bb3c
00000130: 0b12 893e 74fc 3c3d d5b6 b23e 9799 3bbe
00000140: 2362 1cbe ebc6 b63d 4e12 de3e 8f84 ff3a
00000150: 4da9 a1bd 9519 023d d586 b23e e7a3 273f
00000160: 2972 8bbc d57b 893d 8ea7 3b3e 5993 923e
00000170: 0a91 923e f49f e13e 87bb 963e 88d4 523e
00000180: 44fd ca3e 7015 573e 62d4 9f3e 107d f93d
00000190: 622c 263e d104 be3d 2e73 823e ecde 4a3e
000001a0: ec5d 343e aa73 953c 0a0a 393e bbc1 0b3f
000001b0: e7c8 b33e 6081 cfbe 9027 0c3f 0033 4abe
000001c0: ca86 b03e 6915 c93d 0065 e1bc a2ef 6ebd
000001d0: 690d 993d 93c0 423d 4b3f 143e 83f8 053d
000001e0: 9e7f 973e 2c14 b83e f7bf 603e f291 90bd
000001f0: a8a0 883e 7e84 dc3e fe81 3f3e 04b0 103d
00000200: 4b42 03bf f710 aa3e 1a0e 86be 183b dc3e
00000210: d207 34be 6739 dc3e 6dfa 95be 28dd f5be
00000220: b869 023f 2de5 f33e 9107 ee3e dc0d 2a3d
00000230: f996 27bf 35c0 8f3e 66fb bfbe 8f4b c4be
00000240: a62a bfbe 1f55 033f 5f14 babe ae1d 9a3e
00000250: 305c c1be 06f7 213d a0ae da3e 6697 21bf
00000260: 5592 d0be 3e14 103f 4b14 05bf b5ce e1be
00000270: b7a9 02bf ff27 e33e d0a8 3e3e 4ba9 a6be
00000280: c7e3 363f e5d4 923e de44 e1be 175a fabe
00000290: 7983 18bf 1ba6 f1bd 08e3 f2be 7db7 843e
000002a0: 286d ffbe 183b ef3e 4b92 fb3e c940 22bf
000002b0: df86 eabe c258 c6bd cc81 f6be b53a f2be
000002c0: 081f 03bf c027 6d3e 35d3 243f 4389 9b3e
000002d0: e6af e63e e6d4 003e 5351 be3e d285 153f
000002e0: 78ee b23e d78a 7fbe fd4e c0be a6f7 a63e
000002f0: da76 1b3e c860 a43d 5e6c e6be 3ef1 55be
00000300: 60d8 d73d 2aeb d73e 77df f63e 85ad 323c
00000310: 94d5 fbbd 91cb d33c 8025 313e c88c 3a3e
00000320: f892 413e bb57 1f3e db02 113e d2b9 093e
00000330: a3b3 623e 5371 d13d cc6f 0a3f b804 72bc
00000340: 34fb 8c3d e4cf 003f 47c9 953c cc3b ce3e
00000350: a08a b33e 6e6d fb3d 4e70 b33d b28e aa3e
00000360: d121 bf3d 793d a93e 7c21 043f 5336 933e
00000370: 1365 b43e 587f 073f 1bdc 223d c8f4 c43e
00000380: c61e 983e 6d33 f53e 2aa2 0b3f 7150 fa3d
00000390: 9083 c43e 6fb6 4ebe 0a09 113f 040e be3e
000003a0: 6ae4 ce3e 37dd 0c3f 1647 173f dd08 4b3e
000003b0: 2ace 0b3e 69b2 d93e 764d 5a3e b5ef c63d
000003c0: 488a c83e 4c39 8dbc 59e5 ea3e 4983 5bbc
000003d0: 90a0 9d3e 0440 753d 9ee2 013f ad6b ccbd
000003e0: b943 fc3d 4c41 2c3e 9b48 d53d b38e ae3e
000003f0: d219 46be 9046 843e b8e7 1e3f c31f b23d
0.5999743 0.65582573 0.47883123 0.37153336 -0.1312827 0.18167031 0.4189719 0.42009732
0.36812863 0.30186754 -0.06974622 0.27506125 0.56106263 0.31908992 0.37545437 -0.030551286
0.36497286 0.624066 0.17120603 0.14914756 0.6396001 0.328283 0.5847769 0.7266573
0.16052349 0.31171343 0.49046883 0.3809273 0.51645744 0.6436065 0.068624705 0.23648363
0.45128393 0.6430958 0.65943766 0.18774469 0.40380186 -0.014465697 0.32112476 0.24792264
0.33129668 0.21327592 0.10364328 0.41722912 0.46368414 0.1814871 0.35867086 0.61210126
0.6584399 0.19716413 0.38213727 -0.06967106 0.5046094 -0.14562659 0.3223829 -0.11955869
0.254831 0.32077518 0.6070447 0.09893311 0.021848163 0.19727015 0.23791572 0.09998607
0.34902388 0.17735158 0.1995106 0.20173103 0.026488652 0.19292119 0.43628412 0.09991629
0.64827216 0.20231704 0.32424524 0.022924356 0.26771578 0.046139196 0.34905115 -0.18320309
-0.15271811 0.08924659 0.4337334 0.0019494462 -0.0789362 0.03176268 0.34868494 0.6548447
-0.01702221 0.06713072 0.18325636 0.28628042 0.2862628 0.44067347 0.29439947 0.20588887
0.3964635 0.21004272 0.31216723 0.12182057 0.16227868 0.092782624 0.254785 0.198116
0.17613953 0.01824363 0.18070236 0.54592484 0.35114214 -0.40528393 0.5474787 -0.19746017
0.34477836 0.09818537 -0.02751398 -0.058334 0.07473261 0.047546934 0.1447727 0.032707702
0.29589552 0.3595289 0.21948229 -0.07059087 0.2668507 0.43069834 0.18701932 0.03532411
-0.5127303 0.33216068 -0.26182634 0.43013835 -0.17581108 0.43012545 -0.29292622 -0.4802029
0.50942564 0.47635785 0.46490148 0.041517124 -0.6546474 0.2807633 -0.3749649 -0.38338897
-0.37337226 0.5130176 -0.36343667 0.3010077 -0.37765646 0.03954222 0.42711353 -0.6312164
-0.40736642 0.5628089 -0.5198409 -0.44103017 -0.51040214 0.44366452 0.18619084 -0.32551035
0.7144131 0.2867805 -0.43997854 -0.48896858 -0.5957561 -0.1179926 -0.47438836 0.2592124
-0.49887967 0.46724772 0.4913505 -0.63380104 -0.45806023 -0.09684898 -0.48145902 -0.47310415
-0.51219225 0.23159695 0.64384776 0.3037816 0.45056075 0.12581214 0.3717142 0.5840732
0.34947562 -0.24955307 -0.37560263 0.32610816 0.15182057 0.08026272 -0.45004553 -0.20892808
0.10539317 0.42171603 0.48217365 0.010905628 -0.12296596 0.025853904 0.17299461 0.18217766
0.1890372 0.1556081 0.14161246 0.13449791 0.22138838 0.10226693 0.5407684 -0.014771633
0.06883851 0.50317216 0.018284453 0.40279996 0.350667 0.122767314 0.08761655 0.33311993
0.09332622 0.33054712 0.51613593 0.28752384 0.35233364 0.52928686 0.03976069 0.38468003
0.29710978 0.47890797 0.5454432 0.12222374 0.38381624 -0.2018678 0.5665442 0.37120068
0.4040864 0.5502505 0.59092844 0.198276 0.13652864 0.4251893 0.21318612 0.09713689
0.39168 -0.017239235 0.45878103 -0.013398 0.30786562 0.059875503 0.50736415 -0.09981475
0.123176046 0.16821784 0.10414239 0.34093246 -0.19345787 0.25835085 0.62072325 0.08697464
