experiment/phish_eth/GTEA-LSTM+T2V/GTEA-LSTM+T2V_checkpoint.pt (torch_old, 518752 bytes, 32 tensors)

time_layers.0.w f4 [1, 31]
000000 a5 83 b3 3f bc 3f 16 3f 86 12 21 3d 48 fa 11 3f
       1.402455 0.58691 0.039324306 0.57022524
000010 3c 57 ec bd 3d bc 2c bf a5 a3 c9 bf a8 ba 61 3e
       -0.11540076 -0.6747473 -1.5753065 0.2204386
000020 67 57 68 3f 93 be 15 be 61 94 76 be cd cb fc 3f
       0.90758365 -0.1462348 -0.2408004 1.9749695
000030 4e e7 01 bf 90 71 53 3f d4 17 a9 3d f3 9a 9d 3f
       -0.5074357 0.8259516 0.08256498 1.2312912
000040 de 02 1b 3f a2 90 a2 3d 73 76 36 3f 62 e3 95 3d
       0.6055125 0.07937743 0.7127449 0.073187605
000050 ac c6 64 3f b9 9d 04 bf 7d 9d 5c 3f 6f c4 92 3f
       0.8936565 -0.51803166 0.8617781 1.1466197
000060 cb 7f e9 be 6a f6 60 be 0b 2f 9d bf c9 4f f8 3f
       -0.4560531 -0.21969 -1.2279981 1.9399348
000070 4e 40 a1 bd 6b 43 bb be ba 8e 10 3e
       -0.07873593 -0.36574873 0.14116946

time_layers.0.b f4 [1, 31]
000000 14 9b 15 be e2 61 cc 3d 8c bc a3 bf e0 da c4 bf
       -0.14609939 0.09979607 -1.2791915 -1.5379295
000010 0d 63 d2 3f 29 20 3a bf df 50 03 bf d8 0e 00 3e
       1.6436478 -0.7270532 -0.51295274 0.12505662
000020 7a 02 53 bd 4f 78 57 3f 7f 6a 17 40 bd 38 70 3f
       -0.051516034 0.8416795 2.365875 0.93836576
000030 00 3c b8 be 8d 71 b8 bf b5 4e 5d be b8 21 7b bf
       -0.35983276 -1.4409653 -0.21612056 -0.98098326
000040 81 66 da be f0 71 77 be 8b 3d 80 be e0 2d 0b bf
       -0.4265633 -0.24164557 -0.25046954 -0.54366875
000050 62 cc 91 3e 9b 59 2c 3f 13 bb 9a 3f d9 45 3d bf
       0.28476244 0.6732423 1.208834 -0.73934704
000060 a9 51 ba 3f 5c e5 e1 3d 77 e3 82 3f 56 57 26 3d
       1.4556171 0.11030075 1.0225667 0.040610634
000070 aa 3d 11 3f a7 6b 0b bf ce 0a 90 bf
       0.56734717 -0.5446114 -1.1253297

time_layers.1.w f4 [1, 31]
000000 12 ad a1 3f 87 58 46 bf 4c e5 2f bf ec b1 77 3f
       1.2630942 -0.7747883 -0.68709254 0.9675586
000010 4e b6 17 bf 3f 86 80 bf 9f e5 cb be be 06 c5 bd
       -0.5926255 -1.0040969 -0.39823624 -0.096204266
000020 8d 70 a0 3f 69 f1 83 bf 3a c8 48 3e 06 d4 c7 bf
       1.2534348 -1.0308048 0.1960763 -1.561158
000030 2a b3 95 bd ee de de 3e 15 5c 0a 3d 34 0e 4c bf
       -0.073095635 0.43529457 0.033779223 -0.7970917
000040 10 ec ec 3d f3 15 7a 3f f2 d3 13 bf 8d 67 a8 3f
       0.11568463 0.9768974 -0.5774528 1.3156601
000050 68 23 17 3e de b3 1a 3f c2 49 d4 be cc 9d 0e 3e
       0.147596 0.60430706 -0.41462523 0.13927382
000060 27 77 12 bf ab 21 b8 be 46 71 cf bf 4c ac 63 3f
       -0.5721306 -0.35963187 -1.6206443 0.8893478
000070 e9 5c 12 bf fc 64 80 be de f5 f2 3f
       -0.5717302 -0.25077045 1.8981283

time_layers.1.b f4 [1, 31]
000000 86 e3 e0 3e f6 8b 62 3e 0a cc 65 bf df 07 a0 bf
       0.43923587 0.22123703 -0.89764464 -1.2502402
000010 30 e1 67 3f 33 3a 97 3c 0f 20 29 3f cc 29 1f 3f
       0.90577984 0.018460369 0.6606454 0.6217315
000020 f5 0a 09 bf b5 0f 27 c0 c3 cb 36 3e ba 83 08 3e
       -0.53532344 -2.6103337 0.17851166 0.133315
000030 83 aa fe be 7c ff e0 bf 1f 14 2a bf b6 bc 89 3e
       -0.49739465 -1.7577968 -0.6643695 0.26901788
000040 8b fb 5e 3f 0e b9 06 be 75 cb ee 3e a3 8b cc 3f
       0.87102574 -0.1315653 0.466396 1.5980114
000050 a0 81 43 bf cb 99 8c bd 20 41 04 bf 6e 31 78 be
       -0.7636967 -0.06865271 -0.5166187 -0.24237606
000060 05 39 b9 3e 54 41 a1 bf 15 be 92 bf 65 5e 49 3d
       0.36176315 -1.2598062 -1.1464258 0.049162287
000070 d3 f2 99 bf 6b 03 56 3c a1 c6 16 3f
       -1.2027229 0.013062338 0.58896834

edge_layers.0.lstm.weight_ih_l0 f4 [256, 34]
000000 76 f1 19 3e fb e4 9a 3e 8d 8e 12 3e 33 60 21 3e
       0.15033516 0.30252823 0.14312191 0.15759353
000010 c2 7c 5b be 63 8c 9d be e1 f2 c1 3d 46 73 f2 3c
       -0.2143431 -0.3077117 0.094701536 0.029595982
000020 ab 98 0f be c5 88 09 3e 1e 4c 4a 3c 57 11 0f 3e
       -0.14023082 0.1343108 0.012347249 0.13971458
000030 35 89 34 3e 09 43 9d 3e 0b a6 f7 bc 9f 8c 13 be
       0.17630465 0.30715206 -0.030230543 -0.14409111
000040 ff 00 39 3c 63 54 75 bd dd 0b d2 bd bf 1c e5 3c
       0.011291741 -0.05989493 -0.10256169 0.027967809
000050 2e ee df bd 59 2c 4c 3c 43 c7 58 3e e1 fa cf 3d
       -0.10934101 0.012461745 0.21169762 0.10155273
000060 23 56 e5 3d 38 c6 0d 3d cd e3 67 3e 4e 4e 3b 3e
       0.1119807 0.034612864 0.22645493 0.1829159
000070 d0 e2 08 3e f6 f1 4d 3d 5e f9 88 3e 4e bb 23 3d
       0.13367772 0.05027958 0.26752752 0.03997355
000080 13 73 01 be ba a0 15 be 4e 3a ec 3e cd 89 d9 bd
       -0.12641554 -0.14612094 0.46138233 -0.106219865
000090 5b 54 98 3c 1a 37 55 3e 92 c6 16 be 48 c4 0f be
       0.018594911 0.20821801 -0.14724186 -0.14039719
0000a0 43 32 97 3b 2c ac 4f bc 14 5f 18 be 2d 0c 60 bc
       0.004614146 -0.012675326 -0.1488002 -0.013674778
0000b0 ac 39 05 bd 11 90 83 3e 84 49 68 3d 69 de bd 3d
       -0.032525703 0.2569585 0.056710735 0.09270937
0000c0 f5 69 9e bd 81 3f 84 bd 33 2c c2 3d 7a 7d 4a be
       -0.077350534 -0.06457425 0.094810866 -0.19774428
0000d0 24 56 f1 bd 6c 1b 34 3b e0 d6 f7 bd 1e 34 47 3d
       -0.11784008 0.0027482165 -0.12101531 0.048633687
0000e0 17 22 83 3e 36 bf 59 3e b9 66 81 3e f8 68 04 bd
       0.25611946 0.21264347 0.25273684 -0.03232667
0000f0 e8 be 3d 3e 3b 9d 8c 3d fa 2f 1a 3e 8b 22 cf 3d
       0.18529856 0.06865927 0.15057364 0.101140104
000100 ac 42 6d 3d 19 b0 56 bd 95 1e 5b bd 04 fa aa 3d
       0.05792491 -0.052414034 -0.053495962 0.08348468
000110 44 e2 1a bf a4 c8 a4 3e 3c ea ac 3d 3d 9b 7f bd
       -0.60501504 0.32184327 0.08443114 -0.062403906
000120 f4 ff af 3e 31 11 8c 3e 13 dd a0 be 58 6a 98 3e
       0.34374964 0.27356866 -0.31418666 0.29768634
000130 ee 7e bb 3e ac ce bc 3d 80 0a 64 ba 52 b2 86 be
       0.36620277 0.09219107 -0.00086990744 -0.26307923
000140 8b 4f 71 be 0c f4 85 be 91 3f 27 3e 38 f7 94 3e
       -0.235655 -0.26162755 0.16332842 0.29094863
000150 ef 84 1c 3e 2c 97 49 3e ae d1 a8 3e 89 ef 43 3e
       0.15285085 0.19686574 0.32972473 0.19134344
000160 73 65 27 3e bb 22 0b 3e 7c 45 de 3c b6 ba c7 bd
       0.16347294 0.13587467 0.027132742 -0.09752409
000170 70 a7 ce be f5 60 b5 3e 07 f1 b2 be 0f 4f 9c 3d
       -0.4036212 0.35425535 -0.34949514 0.07632267
000180 30 ec 61 be b4 a8 57 bd 71 07 b4 bd 41 7c a8 3e
       -0.22062755 -0.052651122 -0.08790482 0.32907298
000190 37 76 82 3e 1e 42 6d be dc af 4d bf 56 96 ca 3e
       0.25480816 -0.23169753 -0.80346465 0.39567822
0001a0 96 b4 52 3e 0b 30 27 bc f0 44 3c bd 58 07 93 3d
       0.205767 -0.010204325 -0.04596418 0.07179135
0001b0 d0 e8 09 3d 62 fa 82 bb 1d e9 d6 3d 89 49 8c 3d
       0.033669293 -0.003997133 0.104936816 0.06849963
0001c0 cb 4a d8 bc 79 c0 0d bd 1b 92 32 be a1 b4 c6 3d
       -0.026402852 -0.034607384 -0.17438547 0.09702421
0001d0 17 60 b1 3d 94 b7 ad 3d f5 8f 61 bc b1 3b c5 bc
       0.08660906 0.084822804 -0.013767232 -0.024076315
0001e0 1c c7 b9 3d b4 17 44 bc 8a b5 dc 3d 5d c4 8a 3d
       0.0907118 -0.011968542 0.10776813 0.067757346
0001f0 66 60 fb 3c f6 3b 10 3e 16 74 c3 bd 77 54 0a bd
       0.030685615 0.14085373 -0.09543626 -0.03377196
000200 85 d3 e9 bd f3 af de 3d 38 bd b5 bd fe 26 c5 3d
       -0.11417297 0.108734034 -0.08873981 0.09626578
000210 99 2e ab 3d 7b ab ff 3d 55 b6 a0 3c 5f 83 6e be
       0.08358497 0.12483879 0.019618193 -0.23292302
000220 bf 84 6f 3e 86 e7 75 3e d6 47 a1 3d 92 23 2f bb
       0.23390482 0.240141 0.0787503 -0.0026724082
000230 60 eb 0a 3d 11 61 cc 3b ce 5e 84 bc f8 af 00 3e
       0.033915877 0.006237157 -0.016158488 0.12567127
000240 e4 70 d2 bc ed 24 1d 3e 2e 0e c0 bc ed 7b 05 3e
       -0.025688596 0.15346117 -0.023444261 0.13035555
000250 2c 71 b8 bd 0e 9c fc 3d a4 74 e3 3d 16 5d 8f 3d
       -0.09005961 0.123344526 0.11106232 0.070001766
000260 df ab 34 3b fc af 07 3e f6 0e e6 3b de 7a 17 3e
       0.0027568263 0.13250726 0.0070208265 0.14792964
000270 f2 23 6a 3d 66 b6 28 bd dc 0a dd 3d e4 dd 67 3d
       0.057163186 -0.041189574 0.10793087 0.056608096
000280 d0 ca d7 ba 73 e5 22 bc f4 ef f2 bd 32 7f 64 3d
       -0.0016463641 -0.0099424 -0.11862174 0.055785365
000290 52 d7 4e bd df d4 ac 3d 86 6a 3e 3e 96 8f 35 bd
       -0.050498314 0.084390394 0.18595323 -0.044326387
0002a0 5f 25 6b 3d 86 9c 30 3e 41 ba a9 3d be 82 22 3f
       0.057408687 0.17247209 0.08287478 0.63480747
0002b0 33 e1 35 bd 7c 31 c5 bd bb b7 00 3e 52 f9 06 3c
       -0.04440422 -0.09628579 0.12570088 0.0082381535
0002c0 c5 a1 ae 3d ca 09 71 3d 6d 69 45 3d fb a4 0a be
       0.08526949 0.058847226 0.048196245 -0.13539498
0002d0 cf 14 8b 3d 8f 32 16 be 9f 62 03 be 62 77 19 be
       0.06791078 -0.14667724 -0.1283059 -0.14986947
0002e0 cd 6c a1 bd ac 34 c3 3c 50 f4 16 bd df c7 6a bd
       -0.0788208 0.023828827 -0.03685409 -0.05731952
0002f0 5a c6 bc 3d 60 63 a3 bd 67 3c 59 3d e2 80 e7 3d
       0.0921752 -0.07977939 0.05303612 0.11303879
000300 15 63 72 bd ca 32 93 bd 6d e7 0f bd 95 28 ee 3d
       -0.059176523 -0.071874216 -0.035132814 0.11628834
000310 69 cf df bd 70 5d e1 bd 90 25 df bd e9 97 55 bd
       -0.10928232 -0.1100415 -0.10895836 -0.052146826
000320 06 9d 12 be 33 12 d9 bc 4c b5 9a 3d fe 30 30 bf
       -0.14317712 -0.026497936 0.07554111 -0.68824756
000330 3d f6 a7 3d 8e 10 27 3e 46 54 90 3d a2 82 e6 3d
       0.08201263 0.16314909 0.07047324 0.11255385
000340 f6 b9 83 be 0a 26 3d bd 05 db 09 3e 0a 65 ff bc
       -0.25727814 -0.046178855 0.13462456 -0.031176109
000350 9e ff ff bd c0 0e 30 3d be 0c 1a 3d ab ea 47 3e
       -0.12499927 0.042982817 0.03760981 0.19523112
000360 db 3b 84 3d fb 81 69 3d 87 ef 48 be e9 a5 27 be
       0.06456729 0.057008725 -0.19622622 -0.16371883
000370 94 28 13 3d 5c 94 77 be 6a 1b 59 be 8a de 25 bd
       0.03592737 -0.24177688 -0.21201864 -0.040495433
000380 a7 49 dc 3c 34 01 5a be 12 e8 7e 3d 19 ef 2a 3e
       0.026890589 -0.21289521 0.06223304 0.16692771
000390 5d 7b 57 3d b0 e1 28 be e5 a6 5b 3e ba 2c c4 bc
       0.052607883 -0.16492343 0.21450384 -0.023947109
0003a0 02 8c b8 3d 98 55 9c 3d 96 f7 11 3d 89 df 54 be
       0.09011079 0.07633513 0.035636507 -0.20788397
0003b0 28 d7 57 be 8e 36 b4 be ff 9a 2d bd dc 1e 1a bf
       -0.2107817 -0.35197872 -0.042384144 -0.6020334
0003c0 e9 03 1e 3e 93 3c 73 3e c2 6d 01 be ea ee c2 bd
       0.15431179 0.23753576 -0.12639526 -0.095182255
0003d0 f2 e1 1a 3e e2 cd e4 3b 41 a9 43 3d c9 93 4f 3e
       0.15125254 0.006982551 0.047768835 0.2027122
0003e0 97 02 29 3e b5 47 9c 3e d9 66 a5 3d ba a1 d2 3d
       0.16504894 0.30523458 0.08076257 0.10284753
0003f0 92 0f 8f 3c 2a b1 ad 3c e1 2e a9 3d 58 4f a8 3d
       0.01746348 0.021202642 0.082608946 0.082182586

edge_layers.0.lstm.weight_hh_l0 f4 [256, 64]
000000 82 52 8c 3d 61 15 c3 bd 8e 70 4f 3e d2 88 cd bd
       0.068516746 -0.09525562 0.2025778 -0.10035862
000010 4b 27 77 be 08 39 ac 3e e4 51 3e 3d 91 45 95 3d
       -0.24136083 0.3363726 0.046464816 0.07288659
000020 f9 ec 75 bc c3 6f 26 bd 3f 39 1d 3e e3 9e 35 3d
       -0.015010112 -0.040633928 0.15353869 0.04434098
000030 44 77 60 3e be b2 94 bd 9b c3 22 be c6 d7 d7 bd
       0.21920496 -0.07260655 -0.1589493 -0.105392024
000040 11 91 c6 bd ea cb 13 3e fe 85 b1 be 27 60 f5 3d
       -0.09695638 0.14433256 -0.3467254 0.1198123
000050 ef 37 4c 3e c2 93 75 3e 09 6f 2c be a2 31 ab bc
       0.19943212 0.23982146 -0.16839232 -0.02089769
000060 a6 e2 1c bd a7 9d 88 3d 4b 53 bb 3d f0 fc 9d be
       -0.038302086 0.06670695 0.09146746 -0.30857038
000070 e2 ab 2c 3d 7d c9 a3 3e cc d6 a1 3b 75 f6 16 be
       0.042156108 0.3198966 0.004938936 -0.14742453
000080 09 b1 78 3e 72 3a 77 be f0 81 7e be 47 43 27 bd
       0.24286284 -0.24143389 -0.24854255 -0.040835645
000090 e5 27 e5 3d 4e bf a4 bc 34 05 45 bd 58 66 88 3d
       0.1118925 -0.020110752 -0.048100665 0.066601455
0000a0 25 d7 17 3e 63 ed 60 3d 48 ac cb bd ee 56 34 bc
       0.14828165 0.05491389 -0.099449694 -0.011007054
0000b0 05 b9 06 3c c1 d4 29 3c d0 a2 77 be 07 e7 2e be
       0.008222823 0.010365666 -0.24183202 -0.17080317
0000c0 f1 26 eb 3d 20 36 66 bd 24 49 b2 3b 1a b9 e3 3c
       0.11482037 -0.05620396 0.005440848 0.027798224
0000d0 ba 4c 25 be dc cd a0 3d d9 9c a0 3e a7 73 db bd
       -0.1614255 0.078517646 0.31369665 -0.10715418
0000e0 19 b8 90 bd b4 7f c3 bc a7 62 ae bd c3 66 f5 3d
       -0.07066364 -0.023864605 -0.0851491 0.11982491
0000f0 34 d8 a4 3e 7a 36 5d bd 6a 5b b4 bd fd da 57 3e
       0.321962 -0.05400703 -0.08806498 0.21079631
000100 2b 4a f9 3b b9 94 46 3d c6 a6 97 3d f2 46 bf be
       0.0076077185 0.048481677 0.074048564 -0.37358814
000110 14 ea b5 bc d2 09 5a bc a0 df 43 3e c9 64 1a bd
       -0.022206344 -0.013308005 0.19128275 -0.037693772
000120 4e af 40 bd d6 ec 76 3e 0d bf 81 bc 80 a3 7f 3e
       -0.047042184 0.24113783 -0.01583817 0.24964714
000130 47 27 65 3e 56 d9 86 be 8f 1d 33 be 01 ac fa 3c
       0.22378264 -0.2633769 -0.17491744 0.030599596
000140 a2 c0 a2 3b 0c e5 27 be d4 a7 99 bd 96 c3 98 3d
       0.0049668113 -0.16395968 -0.07502714 0.0745918
000150 6f d0 08 3d 74 12 6a be 04 bb ca 3d b4 7d fc 3d
       0.033401903 -0.22858602 0.09898952 0.123286635
000160 93 b5 48 be 0c 1e e0 bd 24 9f f8 3d bf e4 5f 3e
       -0.19600515 -0.10943231 0.12139729 0.21864603
000170 a5 92 fd 3c 27 17 14 be a8 60 57 3d 55 a5 6f 3d
       0.030953715 -0.14461957 0.052582413 0.058507282
000180 99 13 88 be b0 03 7a bd 39 72 fc bd 46 46 ad bd
       -0.26577452 -0.061038673 -0.12326474 -0.08460669
000190 c8 1e 1b 3e 28 9f 9e be e5 a4 71 be a2 30 91 3e
       0.15148461 -0.30980802 -0.23598059 0.28357416
0001a0 d3 b9 76 be bf 5c 41 3e dc fc 35 3d ec 45 94 be
       -0.24094324 0.18883036 0.0444306 -0.28959596
0001b0 3a 9d c8 be a7 76 9b 3e 65 f6 84 bd 05 4f 97 3b
       -0.39182454 0.30363962 -0.064923085 0.004617574
0001c0 8a c3 85 3e b7 f1 8e be ed 9e 3c 3e 00 75 05 3c
       0.26125747 -0.2791879 0.1842 0.008145571
0001d0 45 4f 87 bd 3b 0b eb bd 59 4c ce 3c 3a d2 18 3e
       -0.06606916 -0.114767514 0.02518289 0.14923945
0001e0 b9 49 ae 3c ba e4 61 3e 32 e0 88 3c 7e ef 7a bd
       0.021275388 0.22059909 0.016708467 -0.061263554
0001f0 33 2c a9 3e 21 2d 38 be d6 3f 3f 3d 16 2b 18 3e
       0.33041534 -0.17985965 0.046691738 0.14860186
000200 8a 30 19 3e a5 1a ea bc c2 d4 b7 3e f8 9f fe 3c
       0.14959922 -0.028577158 0.3590451 0.031082138
000210 0c 5f 08 bc 53 59 06 3e 39 39 1c be 25 b5 66 bd
       -0.008323442 0.13120012 -0.15256204 -0.056325097
000220 6e c1 5a bb 47 31 ba bd 87 f6 38 3d cb 05 ff bc
       -0.0033379453 -0.0909143 0.04515698 -0.031130692
000230 89 93 10 3d c3 fd 03 be 7f 38 f4 3d 39 35 99 bc
       0.03529695 -0.12889771 0.11924838 -0.018702136
000240 db 4e a6 3b e6 9c 65 3c fe 49 e4 3d 24 23 c4 3a
       0.0050753183 0.014014458 0.111469254 0.0014964086
000250 c1 e9 7a bd 89 a9 ce 3c 72 74 3e bd 31 22 90 3c
       -0.06125808 0.025227325 -0.04649777 0.017594429
000260 c2 b3 3d bc f4 31 3d 3d e3 7b f3 bd f1 b8 27 be
       -0.011578502 0.046190217 -0.11888864 -0.16379143
000270 9e 67 be 3d fa 5e 04 3e 14 78 30 3b 39 0e 4b be
       0.09297107 0.12926856 0.002692704 -0.19829644
000280 a3 e9 2f bd 57 7e 9c bd 1a f2 79 bd 14 d7 e7 bc
       -0.042947423 -0.07641285 -0.0610219 -0.0283008
000290 4f 68 4f 3d 2d b2 e4 bd 1c 64 00 3e 0a c8 a5 bc
       0.050636586 -0.11166797 0.12538189 -0.020236988
0002a0 22 15 0e 3d d4 51 96 3d ee 1c 95 3d 5b ab 4c 3e
       0.034688123 0.07339826 0.072809085 0.19987242
0002b0 60 f1 d1 bd d8 0b 51 3d ca 96 b5 bd 31 31 88 3c
       -0.10251117 0.051036686 -0.08866651 0.016625019
0002c0 79 4d 37 be 66 21 d7 bd 52 7a ef 3d 4c 8b 88 bc
       -0.17900647 -0.10504417 0.116932526 -0.016667984
0002d0 83 47 ad 3d b8 10 50 3d 9c 1b dc 3d ba b5 11 3e
       0.084609054 0.050797194 0.107474536 0.1422948
0002e0 f5 02 49 bd 42 4b 50 3d 36 a7 0d 3d 7e 2f 5c 3d
       -0.049075086 0.05085302 0.034583293 0.05375623
0002f0 8c f3 1e be 93 bc 70 bc 21 bb 3d 3b e5 05 4e 3d
       -0.15522593 -0.014693397 0.002895065 0.05029859
000300 b3 f4 88 3e e8 cd 90 bc 2e eb d9 3e 55 6c 80 be
       0.2674919 -0.017676309 0.4256224 -0.2508265
000310 9e f1 fb 3c cb 94 3f 3d b4 25 1a bd a1 74 95 bd
       0.03075486 0.04677276 -0.037633613 -0.07297636
000320 00 ba 3b 3e 63 8b f9 3b 1d 28 95 bd ac 35 a1 be
       0.18332672 0.007615493 -0.072830416 -0.3148626
000330 0a d0 1b 3d a1 8d f8 bd a5 14 1c 3d 32 b2 44 be
       0.0380402 -0.121363886 0.038105626 -0.19208601
000340 5f 51 ad bd 48 bf 87 ba af bd 44 3d 2c 7c d2 bc
       -0.08462786 -0.0010356689 0.04803246 -0.025693975
000350 14 dc 91 3e 8c 23 0d be cf 99 ac 3d fb 81 1b be
       0.2848822 -0.13783091 0.08427774 -0.15186302
000360 8a d2 2d 3e ba e4 da bd 85 36 a1 3e 87 cc 9a be
       0.16974846 -0.106881574 0.31486908 -0.30234167
000370 65 4a 6a bd d4 14 a6 3e df 22 3a 3c fb 0e d4 bd
       -0.057199854 0.32437766 0.011360853 -0.1035442
000380 5d dd 2a 3d 73 53 27 bd ab d6 59 be b2 b2 ae 3e
       0.041715015 -0.040851068 -0.21273296 0.3412071
000390 99 a5 5d 3e 00 22 c9 bc be 0b a7 3d 75 86 49 bd
       0.21645202 -0.024552345 0.081565365 -0.049200494
0003a0 26 97 22 3e 4e 2d fa 3c a5 0f 8f be fd dc 60 3e
       0.15877971 0.030539181 -0.27941623 0.219593
0003b0 4d d9 4a 3d 72 07 4c be 66 f8 5a be e1 5f e0 bd
       0.04952364 -0.19924715 -0.21383819 -0.109557875
0003c0 ce f4 f2 bc c0 63 1f 3e 97 c9 dd 3d 5a 1c 53 3d
       -0.029657748 0.15565395 0.10829466 0.05154071
0003d0 af 0f ba bd 28 b4 20 3e c9 af d3 3d 00 3c cd 3d
       -0.09085023 0.15693724 0.10336263 0.1002121
0003e0 0d 96 16 be 51 29 98 bd bc 95 b8 3d 7b 03 9e bc
       -0.14705677 -0.074297555 0.090129346 -0.019288769
0003f0 99 24 0e bd 52 98 1c be 4f 68 bf bd 30 f8 a0 3e
       -0.03470287 -0.1529248 -0.09346067 0.31439352

edge_layers.0.lstm.bias_ih_l0 f4 [256]
000000 96 8a 80 3e d8 4a 19 3e ef bb 72 3e aa ef bd 3e
       0.25105733 0.14969957 0.23704503 0.37096912
000010 6f 47 c6 bd 59 33 25 3f a7 10 f9 3d 7a e2 b4 3d
       -0.096815936 0.64531475 0.12161379 0.088322595
000020 08 f1 8f 3d 13 4f 70 3d e4 37 c1 bd 19 2f ce bd
       0.07028395 0.05866916 -0.094344884 -0.10067577
000030 e8 b1 1b 3e ce 8f 90 3e 93 60 bf 3d 31 ae 1a 3e
       0.15204585 0.28234714 0.09344592 0.15105511
000040 e3 de 87 3e 7a d2 e9 3d 67 e5 80 bd 21 1c 4f be
       0.26537237 0.11417098 -0.06293755 -0.20225574
000050 4e 2c 79 3e 0a 52 a9 3d 7c 2f 04 3e b0 2a 23 3d
       0.24333307 0.08267601 0.12908739 0.03983563
000060 7d bd a1 3e 07 5c c5 3e a4 22 b5 3e a6 a6 5f 3e
       0.3158988 0.38546774 0.3537799 0.21840915
000070 a4 81 60 be fd 4b d7 3e a9 38 c6 3e 11 70 90 3e
       -0.21924454 0.42050162 0.38715103 0.282105
000080 f8 70 55 3e 37 99 ab 3e 57 ed e0 3e ac 44 b4 3c
       0.20843875 0.3351533 0.43931076 0.022005402
000090 46 45 1c 3e 00 b9 f0 3d 9d 9f 38 3c 18 f7 ba 3d
       0.152608 0.11754036 0.0112685235 0.09129161
0000a0 8a 19 52 3d 32 de 8d 3e 05 22 f7 3d 91 cb 8c 3e
       0.051293887 0.27708584 0.120670356 0.2749906
0000b0 d8 93 5a 3d 83 99 9f 3e ff 7f c3 3e c2 46 04 3e
       0.05336365 0.31171808 0.3818359 0.12917617
0000c0 24 4c f8 3e f3 7d 89 3d 41 25 cb bd 69 2e 37 3e
       0.4849559 0.06713476 -0.09919215 0.17888798
0000d0 95 c9 78 3e a8 97 88 3d b8 ba aa bd ad 9e 6a 3e
       0.24295647 0.06669551 -0.08336395 0.22912093
0000e0 3d 34 da 3d a1 72 11 bd 80 eb ac 3d 73 f6 a8 3c
       0.10654495 -0.03550971 0.084433556 0.020625329
0000f0 08 4d 8a 3e 18 78 14 3e 5e 63 82 3d bc 3e b9 3e
       0.27011895 0.14498937 0.06366609 0.36180675
000100 c2 26 1e 3e fa 0b 4b 3e 4f fd 59 3e cc bb 3c 3e
       0.15444472 0.19828787 0.21288036 0.18431014
000110 7e f7 ec 3c 5a 11 a0 3e 93 84 3a 3d d1 ba 53 bd
       0.028926607 0.31263238 0.04553659 -0.051691834
000120 9d c5 bf 3e 2f 63 49 3d 81 88 d6 3c 9a fa 0a 3d
       0.37455454 0.049166854 0.026188137 0.0339304
000130 89 84 6b be 93 44 f3 3d 47 ff cf 3d 41 31 1d be
       -0.22999777 0.11878314 0.10156112 -0.1535082
000140 4f df 1d 3e 83 ff 37 3d c3 f4 dd 3c 7f 5c 22 bd
       0.15417217 0.04492141 0.02709425 -0.039638992
000150 3c 71 57 be 27 0c 93 bd 2d be 44 be e6 67 e8 3d
       -0.21039289 -0.07180052 -0.19213171 0.11347942
000160 e1 76 73 3e 2b 57 b0 3e 01 32 63 3d d2 a7 60 3e
       0.23775817 0.34441504 0.05546761 0.21939018
000170 32 6e e6 bd de 7f b7 bc cd d0 c8 3c 8e 04 5d bd
       -0.11251487 -0.022399839 0.024513626 -0.05395942
000180 f1 b3 69 3d e0 02 ae 3d b4 6e 64 3e 48 38 d4 3c
       0.05705637 0.08496642 0.22307855 0.025905743
000190 25 1a 42 3e 1c ec 9d 3d 16 79 65 3c 3d e7 af 3d
       0.18955286 0.0771105 0.01400592 0.08589027
0001a0 c2 9f 8e 3d a6 da be 3d 78 4a 43 3e 61 98 91 3e
       0.06964065 0.09319048 0.19071376 0.28436568
0001b0 22 fb 49 3e 9b 0a fb 3d 35 a8 27 3d 3b 31 4a 3e
       0.19724706 0.12257882 0.0409319 0.19745342
0001c0 4d 13 44 3e 96 d8 33 be 25 62 d6 bd 17 87 0b be
       0.19147988 -0.1756309 -0.10467938 -0.13625751
0001d0 ab a6 05 3d d0 eb 49 3e ba 38 fe bc b2 2c e8 bb
       0.03262965 0.19718862 -0.031032909 -0.007085406
0001e0 55 9b e6 3d d0 d0 c3 bc da 2e 60 be 0a fa 60 bd
       0.11260096 -0.02390328 -0.21892872 -0.054925956
0001f0 16 4c ed 3d 03 cc 34 3e c4 1b 33 be 79 d0 17 3e
       0.11586778 0.1765595 -0.1749106 0.1482562
000200 ea 7c 95 3c 39 f3 5d 3d 1e bf ae bd f1 55 07 be
       0.01824804 0.054187033 -0.085325465 -0.13216378
000210 35 81 05 be 37 5f 16 be f0 64 2f be b5 f9 ba 3d
       -0.1303757 -0.14684759 -0.17128348 0.09129659
000220 3f ce e5 3c 97 31 b8 3d 6d 40 20 bc 9d 22 21 3d
       0.028052447 0.089938335 -0.009780985 0.03933965
000230 c7 8e 08 3c 8a ea 0a 3d 5a 5a 63 be 47 41 27 3d
       0.008334822 0.03391508 -0.22202435 0.040833738
000240 8a 52 0e be c4 2f 52 bd 7e a4 99 bc 32 ac bd 3d
       -0.13898674 -0.051315084 -0.018755194 0.09261359
000250 88 65 15 3e 17 59 cc bd 02 4f b2 3d 60 b9 16 3e
       0.14589512 -0.0997793 0.08706476 0.14719152
000260 b9 17 3a 3d 8b 1f 9a bd c6 2d d7 3d cb 90 74 3d
       0.04543278 -0.075255476 0.105067775 0.059708398
000270 81 6f a2 3d e4 86 78 bd 2a 9c b8 3d 00 d1 cf 3c
       0.07931424 -0.060675517 0.09014161 0.025368214
000280 d9 17 eb 3d cb 20 57 be 55 e8 01 3e ca 1b 39 3c
       0.11479158 -0.21008603 0.12686284 0.011298129
000290 5a 56 1b 3e 18 74 9f bd 1e 9a 8c bd 68 0b 0a bb
       0.1516966 -0.07785815 -0.06865333 -0.0021063928
0002a0 74 f0 ed 3d 37 05 04 3e fd 62 2a bd e8 3d 00 3d
       0.116181284 0.12892614 -0.04159831 0.03130904
0002b0 eb cd d3 3d a1 a8 75 bd 9d e3 a9 3d aa af f2 bc
       0.1034201 -0.05997527 0.08295367 -0.029624779
0002c0 61 72 1a 3e 8f 42 0a be 51 8c 59 bd 1a 0a 03 3e
       0.15082695 -0.13501953 -0.05311233 0.12796822
0002d0 57 e0 1d be 4b de 4d be c3 0d 4f 3c 72 cd 8e 3d
       -0.1541761 -0.2010433 0.012637558 0.06972779
0002e0 54 44 be bd db f8 9c bc 02 e2 ae 3d 12 5c c0 3d
       -0.09290376 -0.019161632 0.08539201 0.09392561
0002f0 da e1 2b 3d 82 4f c5 bd 74 eb c8 b8 a3 e3 dd 3d
       0.041963436 -0.096343055 -9.5806e-05 0.10834434
000300 6a b6 53 3e 76 ca 48 3d e4 6e 8a 3e 81 00 b7 3e
       0.20675054 0.049021207 0.27037728 0.35742572
000310 ef 87 b6 3c f5 35 f1 3e cf 1e 23 bd 86 37 82 bd
       0.022281615 0.47111478 -0.039824303 -0.063582465
000320 44 f8 ab 3d 56 ea a5 bd 40 08 72 3d 96 f5 4f be
       0.08396962 -0.08101337 0.0590899 -0.20308527
000330 51 95 3b 3e 67 1d 62 3e c9 51 d9 3d 7f ea b4 bc
       0.18318678 0.22081529 0.106113024 -0.022084473
000340 65 4b 37 3e 65 6b 9b bd 48 3b 38 3e 31 54 d7 bd
       0.17899854 -0.07588843 0.17991364 -0.10514105
000350 ef 9e c0 bd 41 ab e0 3d 0d 99 0f 3e 46 a4 58 bd
       -0.09405314 0.10970164 0.14023228 -0.05289104
000360 b7 96 be 3d b3 ab 05 3f 69 0d c0 3e 44 a8 99 3c
       0.0930609 0.5221512 0.3751023 0.018756993
000370 e7 a6 e2 bd 23 c5 d3 3e 07 dd f9 3e 6b 6e 14 bd
       -0.1106699 0.4136134 0.48801443 -0.036238115
000380 47 93 63 3e 78 f8 77 3e 88 d9 a9 3e 5d 6d 33 3d
       0.2222415 0.24215877 0.33173776 0.04380547
000390 1b 49 15 3e 48 c3 5c 3e 22 a4 eb bd 81 16 d8 3d
       0.14578669 0.21558869 -0.11505915 0.10551167
0003a0 1a 1f ae 3c 46 e8 9a 3e 55 a4 94 3e f0 6b 64 3e
       0.021255065 0.30255336 0.29031625 0.223068
0003b0 41 5a 14 3e 83 68 be 3e bc b9 04 3f 46 f8 84 3d
       0.14487554 0.3718911 0.5184591 0.06492667
0003c0 fb bb 08 3f 26 a6 99 3b 97 b5 13 3d 4f c7 1e 3d
       0.53411835 0.004688996 0.03606185 0.038764294
0003d0 60 5f 5e bd 32 f0 ad 3d 6b 10 7b bd e3 7f 4f 3e
       -0.054290175 0.08493079 -0.061294954 0.20263629
0003e0 60 48 5e bc ce a8 45 3e f4 ea a5 3e 16 0f 03 bd
       -0.01356706 0.19302675 0.32405818 -0.03199681
0003f0 6b 89 d6 3e cb eb a7 3e a3 93 28 bd 29 04 ad 3e
       0.41901717 0.32797083 -0.041156422 0.33792236

edge_layers.0.lstm.bias_hh_l0 f4 [256]
000000 eb 7c 3c 3e 3b c6 70 3d 30 7a ad 3e 60 38 61 3e
       0.18407027 0.058782797 0.33882284 0.21994162
000010 5c 69 1e be 61 4a 35 3f b1 d5 c0 3d a9 27 08 be
       -0.15469879 0.7081662 0.094157584 -0.13296379
000020 1e 8b 2a 3e f5 94 8d bd 22 ba b0 bc f4 74 a2 be
       0.16654631 -0.06913177 -0.02157313 -0.31729853
000030 61 73 e0 3d 39 e0 87 3e 1b a3 40 3e 51 5c c0 3c
       0.10959507 0.26538256 0.1881222 0.02348152
000040 8d 85 f6 3d e0 f1 c5 bc 8e 97 20 3e df 71 1d be
       0.120371915 -0.024163187 0.15682814 -0.1537547
000050 f1 d3 92 3d e2 f8 ac 3d 6d 3e f3 3c f1 a3 03 3e
       0.07169331 0.08445908 0.029692853 0.12855507
000060 ec 82 92 3e 0b 19 6c 3e 7c 46 cf 3e 42 76 95 3e
       0.2861551 0.23056428 0.40483463 0.29191786
000070 7e bc 49 bd 5c 5e ce 3e af 89 db 3e 01 c0 5a 3e
       -0.049252026 0.40306365 0.42878482 0.21362306
000080 8d 09 18 3e 61 87 14 3e b0 8b 73 3e 79 68 dd bc
       0.14847393 0.14504768 0.23783755 -0.027027356
000090 74 ab d2 3d a3 ed 51 bd e0 77 53 3d a4 44 a3 3d
       0.10286608 -0.05125202 0.051627994 0.079720765
0000a0 81 d8 a6 3d bf 75 bb 3e 96 12 21 3e c5 8e 42 3e
       0.081467636 0.3661327 0.15729746 0.18999775
0000b0 b9 22 68 3c a0 b6 ca 3e 02 16 f0 3e 98 78 93 bd
       0.014168435 0.39592457 0.4689179 -0.07200736
0000c0 43 85 c2 3e 4c 8b 70 bd f7 42 13 ba 0c 5a 3f 3e
       0.37992296 -0.058726594 -0.00056175835 0.18686694
0000d0 55 99 82 3e 3d ff 4b 3e 8c 18 15 be c2 8d f3 3d
       0.25507608 0.19921584 -0.14560145 0.118922725
0000e0 72 d9 16 3e dd 5c 1a 3e 72 d6 fe 3d 8e 61 75 3d
       0.14731386 0.15074487 0.12443246 0.05990749
0000f0 49 0d e4 3e ec 27 bd 3d a0 e4 c3 bd 88 23 a7 3e
       0.44541386 0.0923613 -0.09565091 0.32644296
000100 7b 3d 36 3d 6f 75 64 3e e5 1d e5 3d 3c 3f 85 3e
       0.044492226 0.22310422 0.111873426 0.26024806
000110 81 94 d3 bd 05 02 83 3e 8e 93 0b 3e 17 aa 1c bd
       -0.10331059 0.25587478 0.13630506 -0.038248148
000120 56 f9 98 3e 3e 6e 9f 3c 99 93 07 3d 15 4b bf 3c
       0.29877728 0.019461747 0.033099744 0.023351232
000130 ca d4 35 be e2 0a 31 3e f5 8a 30 3d 46 f4 79 be
       -0.17756954 0.17289308 0.04310127 -0.24409589
000140 dd 8c 0e 3d 52 0e 22 3e 83 9a 09 3e 73 2b 1a 3e
       0.034802306 0.15825775 0.13437848 0.15055637
000150 d8 bc a5 bd 81 70 5b 3c cf 3e 43 be 9b 83 8d 3d
       -0.0809266 0.013393522 -0.19066928 0.069098674
000160 66 e4 05 3e 61 21 9a 3e a8 50 7e 3e a0 a5 39 3e
       0.13075408 0.3010359 0.24835455 0.18129587
000170 da f9 d6 bd 6a 0d ff 3d 0b b4 47 3d 49 50 39 bd
       -0.10496874 0.124537304 0.048755687 -0.04524258
000180 94 c4 f2 bb 98 f5 27 3e a6 dc b1 3d 1d 10 0b be
       -0.007408688 0.1640228 0.086846635 -0.13580365
000190 b0 5d 8a 3d 2c 77 02 bd 0d ff 03 be e5 1e a8 bd
       0.06756151 -0.031851932 -0.12890263 -0.08209018
0001a0 c2 cc 11 3e dc 3f 16 bb e5 73 12 3e 1c e6 84 3e
       0.14238265 -0.0022926247 0.14302023 0.2595681
0001b0 1d cd 38 3e 31 b6 81 3e ed 71 24 3e 46 3f ff 3d
       0.18046995 0.25334314 0.16059084 0.1246324
0001c0 b0 8b 88 3d 15 99 1d be fb 7f 19 3d 69 02 2d be
       0.06667268 -0.15390427 0.037475567 -0.1689545
0001d0 12 4a 30 bd 2a 50 d0 3d a5 4a 0f 3d ab 27 a7 3d
       -0.04303939 0.1017154 0.034983296 0.08161863
0001e0 c9 54 4a 3e b9 6f 71 3d 73 bd 23 be 7b 40 28 be
       0.19758905 0.058944438 -0.15990238 -0.16430847
0001f0 4b 13 5e 3e 93 dc 9f 3e d7 ae c2 bd 1e de 3c 3d
       0.21687047 0.31222972 -0.09506004 0.046110265
000200 f6 03 70 bd f2 e7 44 3e d7 11 43 bc a4 69 b9 3c
       -0.058597527 0.19229105 -0.011906109 0.022633381
000210 c3 88 15 be f1 6d a0 bc 40 aa 0d be f9 9e ca 3c
       -0.14602952 -0.019583674 -0.13834476 0.024734007
000220 0f 52 37 3e 2b 13 2c 3e 9c 74 9b 3d 8f b0 1f 3e
       0.17902397 0.16804187 0.07590601 0.15594696
000230 bb a0 bf 3d fa ff bc 3d bc a9 20 be 39 6c cd 3d
       0.09356829 0.09228511 -0.15689749 0.100304075
000240 2b 62 07 3d 05 37 f4 3c 43 9e c5 3d e5 f2 91 bd
       0.033052605 0.029811392 0.09649327 -0.071264066
000250 db 84 b3 3b 91 b9 1f bc 2b 06 e9 3b 2a 6b d2 3d
       0.005478484 -0.009748832 0.007111331 0.10274346
000260 05 d6 ce bd 00 d4 cc bd 34 f4 2e 3e 23 46 86 bd
       -0.10099415 -0.10001373 0.17085344 -0.06556346
000270 16 5a d4 bc 3a 06 3e be 9e 6c d6 3d 40 5e b0 bd
       -0.025921863 -0.18557063 0.10469936 -0.08611727
000280 98 9c b7 bd 8c ed 27 be 8a c7 75 3b 51 b8 66 3d
       -0.08965415 -0.1639921 0.0037502968 0.05632812
000290 65 ec 04 3e 34 1c e1 bd 16 7d fe 3d 0d 07 41 bb
       0.12980802 -0.109917074 0.12426202 -0.0029453665
0002a0 1b 2b 3e bd 20 8f 15 bd 43 e4 5f bd 4c 53 ae bd
       -0.046427827 -0.036513448 -0.054661047 -0.08511981
0002b0 b5 38 7c bb 82 f0 0d bd 74 10 03 be e3 ae ab bd
       -0.0038485948 -0.034653194 -0.12799245 -0.08382966
0002c0 23 50 7a 3d bc d7 b1 bd ab 0e 04 be 98 87 ba 3c
       0.06111158 -0.08683726 -0.1289622 0.022769734
0002d0 9b 8a 2e be 66 5c 3b be 69 e9 d5 3d ba b1 30 bc
       -0.17045061 -0.18296966 0.1044491 -0.010784561
0002e0 e8 43 d7 bd 9a bf af 3d 9e 71 83 3b 06 42 fa bd
       -0.10510999 0.08581467 0.004011347 -0.12219624
0002f0 9c c0 06 3e 56 80 44 bd d0 c3 e9 bc 87 37 c9 3c
       0.13159412 -0.047973953 -0.028535753 0.02456261
000300 49 ff 03 3e 98 44 83 bc 21 0a a1 3e 0b b8 ce 3e
       0.12890352 -0.016023919 0.3145304 0.4037479
000310 54 dc 1a be 53 fa 1a 3f 91 12 f7 bc 9f e3 e0 bd
       -0.15123111 0.60538214 -0.03016022 -0.10980915
000320 26 c7 99 3d c2 f9 b7 bd 51 54 26 3c 00 09 5c be
       0.07508688 -0.089831844 0.010151939 -0.21487808
000330 a5 a6 06 3e 41 64 8f 3e 31 f3 17 3e 67 b5 26 3e
       0.13149507 0.28006175 0.14838864 0.16280137
000340 67 b7 0d 3d f1 3b 16 bd a3 c9 4f 3e 6b 23 39 be
       0.034598734 -0.03667826 0.20291762 -0.18079917
000350 1e 27 fe bd 89 52 09 3e 62 76 3e 3a ce 13 df bc
       -0.12409805 0.13410391 0.0007265565 -0.027231123
000360 1e 10 76 3e c3 95 f7 3e 4a f2 0a 3f d4 88 4f 3e
       0.24029586 0.48356447 0.54275954 0.2026704
000370 b0 32 26 be a9 c9 d2 3e 3d f2 87 3e 6a 30 b4 3d
       -0.16230273 0.4116948 0.26552 0.08798297
000380 81 43 29 3d 88 5e 66 3e e9 50 d2 3e 44 05 a1 3d
       0.041324142 0.22496998 0.41077355 0.078623325
000390 63 b6 28 3d 02 c9 b0 3d 87 e1 8f bc f1 20 b2 bd
       0.041189563 0.08632089 -0.017563595 -0.08697689
0003a0 90 85 89 bc 4e b9 ce 3e a6 21 8b 3e b1 ac c2 3e
       -0.01678732 0.4037575 0.2717411 0.38022378
0003b0 75 a1 c1 3d b3 ca 08 3f b0 bc 03 3f 63 8b 37 3e
       0.094546236 0.53434294 0.5145979 0.17924266
0003c0 97 3e 22 3f 8a 22 41 bb 04 4f e2 bc 75 d7 04 3e
       0.63376755 -0.002947005 -0.027625568 0.12972815
0003d0 d7 5d c6 bc 43 5d 13 3e 17 08 a6 bd b5 62 df 3c
       -0.024214668 0.14391045 -0.08107012 0.027268747
0003e0 ec 87 23 bd f2 d4 60 3e e1 9d 1f 3e f0 a3 6b ba
       -0.039924547 0.21956232 0.1558757 -0.0008988967
0003f0 58 29 a9 3e 5b f4 90 3e 7d 70 34 3b f1 42 8c 3e
       0.33039355 0.28311428 0.0027532869 0.27394822

edge_layers.1.lstm.weight_ih_l0 f4 [256, 34]
000000 48 c3 b2 3e c4 8f 1a bf 0c 92 01 3d b6 8e 1f 3e
       0.34914613 -0.6037562 0.03163342 0.15581784
000010 ed 1f 26 3d 12 dd 65 3d e7 99 3d 3e 4b cb 38 bd
       0.04055779 0.056119032 0.1851574 -0.04511575
000020 52 32 69 3e d8 ee f5 3d 01 19 c6 bd 39 c0 40 3b
       0.22773102 0.120084465 -0.09672738 0.0029411449
000030 5f 79 b8 3d e4 cf 2b 3e a8 b9 71 bd 56 a9 f5 bc
       0.09007525 0.16778523 -0.059014946 -0.029987972
000040 8b 35 f1 bb 40 c2 cd 3c db df 4f 3e 73 5d 79 3d
       -0.007361119 0.02511704 0.20300238 0.060880136
000050 3d d7 79 3d 85 41 10 3e a5 ce cd bc af 67 d6 bb
       0.060996283 0.14087494 -0.02512295 -0.0065431218
000060 b0 8b 02 3d 6d 9b a9 3d 45 ce 65 3e 45 86 4a 3c
       0.031871498 0.08281598 0.22441967 0.012361114
000070 3d 3a 2a 3d 05 2c bf 3b 72 f6 43 bd 61 74 55 3d
       0.041559447 0.005834105 -0.04784245 0.05211294
000080 f3 29 0f 3e a9 d6 29 3e 78 c6 48 bb a9 42 cd 3e
       0.13980846 0.16585793 -0.0030635875 0.4008992
000090 2d 35 1b be dd a2 b5 be 58 60 11 be ae 2f 86 bd
       -0.15157004 -0.35475817 -0.14196908 -0.06552063
0000a0 51 af bf bd 46 c6 d3 be 78 06 59 bd e6 17 31 bd
       -0.09359611 -0.41362208 -0.052984685 -0.043235682
0000b0 9f a9 30 be 65 79 1e 3e 4a 21 85 be 4c c5 97 be
       -0.17252205 0.15475996 -0.2600196 -0.29642713
0000c0 a8 17 05 be 87 a4 00 ba d7 48 b8 bd 57 de 8b be
       -0.12997305 -0.0004907329 -0.08998268 -0.2731807
0000d0 07 1e bf bd 8c 0e b2 be ea d6 18 be 42 e5 a7 bd
       -0.09331899 -0.34776723 -0.14925733 -0.08198024
0000e0 7d 77 34 bd 5e 1c b4 be 39 0a 1e be 15 aa 2d be
       -0.044059265 -0.35177892 -0.15433587 -0.16959412
0000f0 e7 ef 6c be 63 30 03 bd 66 ed 23 be 74 63 61 be
       -0.2313839 -0.032028567 -0.16008529 -0.22010595
000100 93 b2 28 3c 5b 44 93 be e0 9c fa bd f9 65 43 3f
       0.010296482 -0.2876309 -0.12236953 0.7632747
000110 16 c7 aa 3e c4 e4 8c 3c da 8a 03 be ae ff 4e bd
       0.33355016 0.017198928 -0.12845936 -0.050536804
000120 98 e9 d6 bd 8a 1c 3e be 84 ce 59 3d 01 03 6e bd
       -0.10493773 -0.18565574 0.053175464 -0.058108333
000130 18 77 a2 bd 10 62 eb 3d 79 38 3f be 06 c9 f0 3d
       -0.079328716 0.11493313 -0.18673886 0.11757092
000140 f8 7f 3c be c3 b1 f7 bb 33 8d ad bd ea 02 3a be
       -0.18408191 -0.0075590326 -0.08474197 -0.18165174
000150 be 9b 4c be 8c 06 e9 bd f0 af ca 3d 1e 5b eb bd
       -0.19981286 -0.11378202 0.09896839 -0.114919886
000160 ee aa c4 bc 55 78 2e 3e 04 26 8e be 66 ed 0b be
       -0.024007287 0.1703809 -0.2776338 -0.13664779
000170 c2 c2 37 be 30 2e 91 bd 9a 3d 51 bc f4 f1 9d be
       -0.17945388 -0.07088888 -0.012771035 -0.30848658
000180 60 5e 37 be 74 0e d9 3b c2 bd 9f be 72 56 9b bb
       -0.17907095 0.0066240374 -0.3119946 -0.0047405297
000190 4e bf e2 3d c9 2f fd 3e b1 28 53 3e 3a f0 51 bf
       0.11071645 0.4945052 0.20620991 -0.8200718
0001a0 b2 2b e8 bd 85 d7 19 bd c9 7b ba 3d 59 89 29 3d
       -0.11336459 -0.03755905 0.091056414 0.04139075
0001b0 1a b2 96 be d7 9c 6b be 49 7e 31 be 6a f4 16 be
       -0.29432756 -0.23009048 -0.1733333 -0.14741674
0001c0 44 9e 42 bb 4e 01 90 3e e9 80 81 be 99 9c cb bd
       -0.0029696384 0.28125995 -0.25293663 -0.09941978
0001d0 28 b6 af 3c d3 f9 4c 3e 94 4d a4 3c ce 5a 03 bd
       0.021449164 0.20017175 0.020056523 -0.03206902
0001e0 82 dd 72 be 84 5e fb bd ab be 0f be 31 68 2f bc
       -0.23717311 -0.12273887 -0.14037578 -0.0107059935
0001f0 3f 88 c2 bd d7 85 87 bd 89 57 9e 3c 8d 61 94 bc
       -0.09498643 -0.06617325 0.01932885 -0.018112922
000200 dc 22 43 be fe 5e 36 3e ed 0d c0 3d cd 4d e9 bd
       -0.19056267 0.17809674 0.09377656 -0.113917924
000210 c6 55 3f 3d a8 7f d6 bd 1a 55 83 be ef 5b b2 3d
       0.04671266 -0.10473567 -0.25650865 0.08708941
000220 06 08 0a 3f f0 19 02 bf 75 82 d2 3d 69 40 1b bd
       0.5391849 -0.5082083 0.10278789 -0.037903223
000230 65 6a 87 be 96 2e 38 be 0f 2f 83 3d 25 15 02 be
       -0.2644836 -0.17986521 0.0640546 -0.12703378
000240 c0 46 9e bc e1 b2 87 3c 44 44 5a be 6f 7b 9c bd
       -0.019320846 0.016564788 -0.21315104 -0.076407306
000250 30 44 9e bd 14 c2 aa bd 76 c7 63 bd ed d0 8e be
       -0.077278495 -0.08337799 -0.055610143 -0.27893773
000260 58 b5 3d be 0a 18 26 bd 9d f4 fc 3d 09 1f 07 3d
       -0.18526208 -0.04055027 0.12351344 0.03298858
000270 9c ef 19 3e a2 60 87 3e 9a a4 0f be d0 a0 dd bc
       0.1503281 0.26440912 -0.14027634 -0.02705422
000280 b4 18 6d be 12 4a f4 3b a2 3c 4e bd 16 f7 a4 bd
       -0.23153955 0.007455119 -0.050350793 -0.080549404
000290 4a 89 c9 bd b9 17 b5 3d 36 ba 75 be b1 2b 8c 3d
       -0.09840639 0.08842415 -0.23996815 0.06844271
0002a0 30 fe c2 3d 22 61 29 3e d7 9b 0a 3e 2c cd 7e bf
       0.09521139 0.1654096 0.1353601 -0.9953182
0002b0 ff 76 7b be e8 5d 90 be cc 53 4e bd 9f c5 ca b9
       -0.24557112 -0.28196645 -0.050372884 -0.00038675682
0002c0 7d 37 1f be ba 13 f3 bd ea 29 57 be 94 d7 c1 be
       -0.15548511 -0.11868997 -0.21012083 -0.37859786
0002d0 3b 6e 82 bd fe c5 69 3e 9a dd 00 be 69 b5 05 be
       -0.06368681 0.22829434 -0.12584534 -0.13057484
0002e0 77 1e b5 3d 7d a5 a8 3d bc a0 a1 bb 57 aa 77 be
       0.08843701 0.082346894 -0.004932491 -0.24186073
0002f0 96 1c 98 be c4 7c 87 bc 6d 13 22 be ec ad 41 bd
       -0.2970931 -0.016538985 -0.15827723 -0.047285005
000300 40 40 6b bd 21 a3 63 be f9 28 89 3c ae 7b 8f bd
       -0.05743432 -0.22230197 0.01674317 -0.07006012
000310 02 3f c7 bd 4a 17 22 3e 8e 10 e7 3d 00 22 3d bc
       -0.09728815 0.15829197 0.112824544 -0.011543751
000320 89 a9 dc 3d 23 65 fe bc 5e 10 04 be 51 17 ee bd
       0.10774524 -0.031054085 -0.12896869 -0.11625541
000330 f7 ff 59 bf 91 59 93 be fa b6 d4 3d c4 66 7a 3d
       -0.85156196 -0.2877927 0.103864625 0.06113316
000340 63 ab 96 be a9 1f 96 be e6 5e 62 3e 92 ac 27 be
       -0.29427633 -0.2932103 0.22106513 -0.16374424
000350 9b 9c 7d 3e 9d 31 2d 3b 2a 7d 32 be b7 94 7a bc
       0.24766771 0.0026427277 -0.17430559 -0.015294245
000360 03 95 f8 bd f3 9a 83 3c 39 36 86 bd a2 a8 db be
       -0.12137797 0.016065096 -0.06553311 -0.42902094
000370 7b db 53 be ed 9c d5 3d 16 c4 01 3e 1a a6 b1 bd
       -0.20689194 0.10430322 0.12672457 -0.086742595
000380 87 a3 34 3e 9a f8 bf 3e 04 82 a5 be 5e a0 45 be
       0.17640506 0.37494355 -0.32325757 -0.19299456
000390 e8 a8 3c be e0 45 eb bd ac 5b 02 3e a7 5b 6f be
       -0.18423808 -0.11487937 0.12730283 -0.23374806
0003a0 e4 0f af be fe de 14 be de b3 bd be 8f 85 4f bd
       -0.3419181 -0.1453819 -0.3705129 -0.05066448
0003b0 98 e3 c9 3c 36 8a f0 3b 0c 43 49 bf fc 8e cf 3d
       0.024644658 0.007340695 -0.7861793 0.10134694
0003c0 a5 0d 55 3e 5e c5 17 3d c0 92 3a 3d 2f 6c 00 3e
       0.20805986 0.03705346 0.045550108 0.12541269
0003d0 3e ec a7 3d 8e bd ba 3d 67 10 ce 3d 5d f3 29 3e
       0.081993565 0.09118186 0.10061722 0.16596742
0003e0 61 cd 96 3d 5f 58 1b be 8b ee 37 3e c2 e9 bd 3d
       0.07363392 -0.1517043 0.1796209 0.092731014
0003f0 43 de 47 bd 8a 3e d0 3c 10 c5 65 3d a2 36 9b 3d
       -0.04879595 0.025420446 0.056096137 0.0757878

edge_layers.1.lstm.weight_hh_l0 f4 [256, 64]
000000 83 ee 94 bd fe 3d 08 3e aa b1 0a bc 8d 50 c0 bc
       -0.07272055 0.13304898 -0.00846521 -0.02347591
000010 13 d1 3e 3e c6 cc 8e bd b7 8b 10 3e 10 26 de bb
       0.18634443 -0.06972651 0.14115797 -0.0067794397
000020 e3 4f 6b bd fe 1d e1 3d c7 e2 c4 bd 4a 21 04 bb
       -0.057449233 0.10992049 -0.09613567 -0.0020161443
000030 e2 96 44 bd 4b 2d 8e 3c c1 ca 92 bd e7 d5 e0 3d
       -0.047995456 0.017355582 -0.071675785 0.10978299
000040 1f 1e 3e 3e 1c 18 b8 bc 02 2c e0 bd 16 e9 21 3e
       0.18566178 -0.022472434 -0.10945894 0.15811571
000050 87 6b 23 bd b5 4c 0f bc 64 f8 39 be 03 59 a9 bd
       -0.039897468 -0.008746316 -0.1816116 -0.08268931
000060 90 95 97 bd 25 b8 40 bd a0 64 13 3d 15 da c9 3d
       -0.07401574 -0.047050614 0.035984635 0.09856049
000070 5b 2b 76 be 62 7b f3 3d 81 c2 7f bc 3c 2b 02 bd
       -0.24039976 0.11888768 -0.015610338 -0.031779513
000080 ff c4 02 3e f0 fc 35 3d ac 84 14 3e 5c ee 53 3e
       0.1277046 0.044430673 0.14503735 0.20696396
000090 be e7 69 bd 91 f2 38 bd 74 38 8f 3e c3 4b 14 be
       -0.057105772 -0.045153204 0.27972758 -0.14482026
0000a0 50 3b 9a 3d 64 99 ab bd 36 8a 93 3d be 71 9e be
       0.07530844 -0.08378866 0.07204096 -0.30946153
0000b0 78 fd b3 bc 80 ee 51 3c b8 cb a4 bb 45 02 10 3e
       -0.02197145 0.0128132105 -0.005029168 0.14063366
0000c0 6f ec 84 be e4 b7 a8 3c 0d e5 6b bd 81 5e b4 3d
       -0.25961635 0.020595498 -0.057591487 0.08807088
0000d0 91 32 1e be 2b 1d 28 be 18 63 cc bd 9a 22 80 bd
       -0.15448977 -0.16417377 -0.09979838 -0.062566
0000e0 02 5a c0 bd a5 32 02 be 2e 05 25 be a3 28 1f bd
       -0.09392168 -0.12714632 -0.16115257 -0.038857114
0000f0 98 15 b7 bb e5 a7 06 be 03 83 43 3d 06 be b0 3d
       -0.005587291 -0.13149984 0.047732364 0.08629994
000100 c0 d5 95 bd 14 cb c2 3d a0 26 34 3e ba 4c 88 be
       -0.0731616 0.0951139 0.1759286 -0.26621038
000110 ae 54 d9 3d 5b 42 f1 bd 26 c7 ce 3b 5b 12 47 be
       0.106118545 -0.117802344 0.0063103614 -0.19440596
000120 b5 3f 85 3d 3f 34 bd bd e6 70 b4 3c a6 e5 95 3c
       0.06506292 -0.09238481 0.02202649 0.018297981
000130 92 db e8 3d 19 b0 9e bc 70 22 64 bb 18 9c d0 bd
       0.11370005 -0.01937108 -0.0034810565 -0.101860225
000140 40 5b 9c 3b 1d 1c fb 3d 91 be 31 bd f1 5e c7 bc
       0.00477162 0.122612216 -0.04339463 -0.024337264
000150 1f 9b f3 3d b6 74 71 bd 6d e7 a7 bc 0a 1b 3c bd
       0.118948214 -0.058949195 -0.020496095 -0.045924224
000160 0e ac 2c bd 34 34 4d 3e bf c8 88 bd 2e 27 30 3e
       -0.04215627 0.20039445 -0.06678914 0.17202446
000170 cf eb 63 be ba 69 ca 3c 5b 46 6c 3e 28 af a1 3d
       -0.22257923 0.024708617 0.23073713 0.078947365
000180 d8 0b a7 3d 0a 51 af bd 90 a8 26 3e 57 85 40 3e
       0.08156556 -0.08560379 0.16275239 0.18800865
000190 91 fb 11 be 6e ed 7d bd 2f 0d da 3d a2 60 7f bd
       -0.14256121 -0.06199401 0.10647046 -0.062348016
0001a0 5c 1a a2 bc 64 9f 71 3d 42 15 01 be 25 e6 24 be
       -0.01978796 0.058989897 -0.12605765 -0.16103418
0001b0 ae 69 01 3e 9d fd f6 bd c6 2e 0e 3e c7 e6 1f 3d
       0.1263797 -0.12060092 0.1388503 0.039038446
0001c0 d4 bb fd bd 3c 21 9c 3c 2c 7e c2 3d 4e a6 c6 3c
       -0.12389341 0.019058816 0.094967216 0.024249222
0001d0 1e ac a5 3d b5 80 92 bd 31 21 35 3e c2 5a 27 bd
       0.080894694 -0.07153455 0.17688443 -0.040858038
0001e0 38 19 f8 bd 25 bb b5 3d d2 d4 16 bc 63 9e 8d 3d
       -0.12114185 0.088735856 -0.009206014 0.069149755
0001f0 fd e1 2c 3d 71 f8 06 3e 34 16 03 be eb 63 20 3e
       0.042207707 0.1318071 -0.12801439 0.15663116
000200 80 55 bf 3d bd 8d fe 3e 80 60 d5 3d 68 83 a4 be
       0.0934248 0.49717513 0.104187965 -0.32131505
000210 3e 02 ce bc 14 e2 b9 be 63 97 bf bd ad f2 04 3e
       -0.025147554 -0.36305296 -0.093550466 0.12983198
000220 1a ef 81 bd ec 91 62 be bb 83 31 be 6f a2 1f 3d
       -0.06344433 -0.22125977 -0.17335407 0.038973268
000230 95 38 37 be 8a 21 3b be 71 28 8b be 0b 42 29 3d
       -0.17892678 -0.18274513 -0.27179292 0.04132275
000240 50 b7 84 be 2b d8 08 be 06 cc be bd 87 d3 e6 3d
       -0.25921106 -0.13363712 -0.09316258 0.112708144
000250 d6 1a f9 3d 47 f8 ae bc 97 6b 5b 3e 7a ac 62 3e
       0.12163322 -0.021358622 0.21427761 0.22136107
000260 ed 10 a6 3e e1 68 15 3e 89 e1 bd 3d a4 70 a5 3e
       0.32434788 0.1459079 0.09271533 0.323125
000270 9f 93 63 3e d2 8b 63 bc 78 16 bf bb 70 f7 1e bd
       0.22224282 -0.013888316 -0.005831536 -0.038810194
000280 b7 eb 36 be 41 6a ec 3d da af 9e be 1a a0 3b bd
       -0.17863356 0.11543704 -0.3099354 -0.04580698
000290 66 e8 94 bd a6 1f 9c be a6 14 c4 3e 18 d5 2c 3e
       -0.07270889 -0.30492896 0.38297004 0.16878164
0002a0 0e 40 81 be a9 8e 84 3e 3a ee 24 3d 35 cd 41 3e
       -0.25244182 0.2589009 0.040266253 0.18925937
0002b0 17 a7 fa 3d de d0 08 3e 8c d7 0e 3e e1 5b e7 3d
       0.12238901 0.13360927 0.13949412 0.112968214
0002c0 8c bf 84 be 43 14 86 3e b7 64 d7 bc 8e 1c 85 be
       -0.2592739 0.26187333 -0.026293142 -0.25998348
0002d0 8d b0 30 3c 1a 9f 05 be 5e c5 22 be b3 0f 05 3e
       0.0107842805 -0.13048974 -0.15895602 0.1299427
0002e0 e5 8f 55 be f5 f0 23 3e 72 f3 27 3e 4a c1 cd bc
       -0.20855673 0.16009887 0.16401461 -0.025116581
0002f0 ad d7 90 be 87 cb 3f 3d 42 d6 2d be ca ad 79 be
       -0.28289548 0.04682496 -0.16976264 -0.24382702
000300 55 b9 1f be 68 f7 bf be 77 db 20 3d 2a a0 cb 3d
       -0.15598042 -0.37493443 0.039271798 0.09942658
000310 f3 a1 ed 3b 4b 7e a7 3e 74 1d 8a be b1 b5 23 ba
       0.007251972 0.3271354 -0.26975596 -0.00062450307
000320 32 be 2d 3d 9a db 3a 3d 64 93 9c bd 29 ec 95 3d
       0.042417713 0.045619585 -0.076453 0.073204346
000330 8e d3 e6 3d 60 40 96 3e 51 08 be bd 42 a4 87 3e
       0.112708196 0.2934599 -0.0927893 0.26492506
000340 50 e6 91 be d1 8c 18 3e e6 2b dc 3d 80 ef a5 3d
       -0.28496027 0.14897467 0.107505605 0.081023216
000350 6e 46 10 bd 9a c9 81 be e8 9d 85 3e b8 7a d1 bd
       -0.035223417 -0.25349122 0.26097035 -0.10228485
000360 a0 b3 cd 3d 1a 17 4c 3c c2 37 00 bd 6a f8 ba bd
       0.100440264 0.01245668 -0.031303175 -0.091294125
000370 67 be f6 3d 4d 90 fb bd d2 04 26 3e 55 54 16 bc
       0.12048035 -0.122833826 0.16212776 -0.00917538
000380 e2 55 10 3e 00 a4 10 be c4 0b ba bc 15 dc 11 be
       0.14095262 -0.14125061 -0.022710688 -0.14244111
000390 58 5f 17 3d 6b d7 ab 3d 9a 35 2b be 2f 72 02 be
       0.03695616 0.08390697 -0.16719666 -0.1273887
0003a0 f1 7e 17 3e de 91 f9 3b d5 e6 59 be b0 17 c0 3d
       0.14794518 0.0076162657 -0.21279462 0.09379518
0003b0 44 9d 56 3d 77 51 f4 3d 78 0c 33 3d 92 59 53 be
       0.052396074 0.11929601 0.043713063 -0.20639637
0003c0 90 7f 51 3e 42 a6 28 be 01 4f 6d 3d 75 d2 00 bc
       0.20458817 -0.16469672 0.057936672 -0.007862677
0003d0 83 f1 de bd 0b 7e fa bd c6 57 0f 3d f7 f3 de 3c
       -0.108859085 -0.12231072 0.034995817 0.02721594
0003e0 37 22 bd 3c 1c 9a 14 3e d7 f9 0c 3c d8 23 7b bd
       0.023087604 0.14511913 0.008604488 -0.06131348
0003f0 c8 30 d2 3d b4 4c 8a 3d 64 51 d4 3d 97 cd 81 bd
       0.102632105 0.06752911 0.103670865 -0.06338041
