experiment/phish_eth/GTEA-Trans/GTEA-Trans_checkpoint.pt (torch_old, 524331 bytes, 64 tensors)

edge_in_layers.0.weight f4 [64, 3]
00000000: ace2 203f 75ca 36bf 9109 d33e b85a 793e
00000010: aedf d63d 811f b5be ce55 fcbe b5f0 f13e
00000020: 439d 19bf 4076 463e 402a 003f 2df1 b6be
00000030: 41ce c2be 81e1 f9be 7388 c3be 0b55 acbe
00000040: 22e3 56be 86a8 11bf 0713 82bf e774 05bf
00000050: 2e8f 71bf 07ea ec3e 28c9 57be 16fa d7be
00000060: 6343 24bf 72f6 f73e 4b40 1bbf faba ab3d
00000070: 6314 07be edce 1abe a70d 3abf 8b08 8c3e
00000080: 3eed 90bf d37d 313e 6bbc a13d 0d86 563f
00000090: 465c 5d3e 29e4 bcbd bad0 453e a5aa c13e
000000a0: dea9 f43e fcd5 b13e 30e9 e23e 4b7f b83d
000000b0: 6384 abbe 6d2c 093e 320f f7be d861 123f
000000c0: bc94 b9bc 10ae c3bd 9ad0 273f cb32 9ebc
000000d0: 15dc bf3e 43ef 35be f560 5fbf 4edc 9b3e
000000e0: c95b 72be 1076 acbf 78fe 9a3d 973d 4dbe
000000f0: 4057 6bbd 72d6 90be 00b8 fc3c edce 323f
00000100: 117a e7be 869e 163f d94a 8c3e dddd c53e
00000110: 6643 b73d aef3 69bf 9593 44bf e8b8 7dbf
00000120: 636a 893e d091 12bc 3d18 7d3e 464b 19bf
00000130: b136 533e b3fa e2be 2a1c 103d e0b5 0cbf
00000140: 677e 68be 50fc 03bf b007 7abe 77c1 60be
00000150: ebea b0be 5f7e 34be 2f15 cb3e 0ceb 91bd
00000160: 527d f23e 6391 943e c8f1 66be 8cd7 f0be
00000170: 477a 48be 0012 97be 8b4c e33e a96b 00bf
00000180: a592 76be aa00 abbe 422d 323e 3492 f4be
00000190: 2d44 2b3e 9435 093f 3972 c43d 127e c3be
000001a0: 9a23 02bf aeb9 65be 6d63 84bd 2145 413f
000001b0: bc86 f4bd a09b ef3d 7824 9c3d e5ca b8bd
000001c0: 5bf2 c23e ed1f 08bf 21eb 4fbf f477 abbe
000001d0: 2109 2ebf 8ba5 073e 20d9 043e 4563 443f
000001e0: 9ac4 053f 4027 013e 5e06 9d3e 08d6 bbbe
000001f0: 8d8a 31bc f447 053e 6f22 16bf 06c3 2fbf
00000200: 8159 22bf f520 8bbe 8a0f 2dbf 0a26 aebe
00000210: 4d7f 80be 610e 20be bc8a fb3e 642b 40bf
00000220: b9da bcbe f667 fc3e c451 55be 2d88 86bb
00000230: 0b97 d03e 717b 4fbd 5f53 053f 5941 113f
00000240: 7bfe 843e 7c8d 313e ba8b 553e 5c85 c63d
00000250: d55e 13bf 6942 9fbe 7c0e a2bc 4fce dbbe
00000260: 8011 173f 710b a13e 6cc9 4abe 0906 153f
00000270: 57aa 203f 486a 60bd 57ff fb3d 9703 ab3e
00000280: 61ec c83e e4b3 02bf 1671 843e 6f32 a23e
00000290: 2c18 6ebf 363e 82bf 56b9 19be 0996 d3bd
000002a0: c977 893e d119 013f b154 00bf 39c7 50be
000002b0: cd4d be3d 579d bc3d 6d37 833f 39b0 d8be
000002c0: bf26 813d 2c0f acbd 10b1 cd3d 84e2 1c3e
000002d0: 4cbe 9dbf 0b13 0dbf dcd4 8cbf bebe 15be
000002e0: f568 153f 0d9c 133f 6128 bc3e 35b0 13bf
000002f0: d611 213f d7fc e5be 6863 37bf 3797 f13e
0.62845874 -0.71402675 0.41218236 0.24351013 0.10491882 -0.35375598 -0.49284214 0.47253957
-0.6000559 0.19381046 0.5006447 -0.35730878 -0.38047984 -0.48804858 -0.3819004 -0.33658633
-0.20985082 -0.5689777 -1.0162057 -0.52131504 -0.943591 0.462723 -0.21072829 -0.42182988
-0.64165324 0.4843021 -0.6064498 0.08385272 -0.1319137 -0.15117998 -0.7267708 0.27350268
-1.13224 0.17333154 0.07897266 0.83798295 0.21617231 -0.092232056 0.19317904 0.37825504
0.47785848 0.3473357 0.44318533 0.09008654 -0.3349944 0.13395853 -0.4825378 0.5718055
-0.02265393 -0.09554684 0.65552676 -0.01931133 0.37472597 -0.17767052 -0.8725732 0.30441517
-0.23667826 -1.347353 0.07568067 -0.20043026 -0.057456255 -0.2828861 0.030849457 0.69846994
-0.45210317 0.5883564 0.27400854 0.3864583 0.08948402 -0.9138745 -0.7678769 -0.9911027
0.2683898 -0.008945897 0.24716277 -0.59880483 0.20626332 -0.44331893 0.03518311 -0.5496502
-0.22704469 -0.51556873 -0.24416995 -0.21948801 -0.34554228 -0.17626332 0.396646 -0.0712491
0.47361237 0.2901717 -0.2255317 -0.4703945 -0.19577895 -0.2950592 0.44394335 -0.50164276
-0.24079378 -0.33398944 0.17400077 -0.47767794 0.16725226 0.5359738 0.09592099 -0.38182122
-0.50835574 -0.22434112 -0.064642765 0.7549611 -0.11939761 0.11699605 0.07624143 -0.09023074
0.38075528 -0.53173715 -0.81218153 -0.33489954 -0.6798268 0.13246743 0.12973452 0.76713973
0.52253115 0.12612629 0.3066892 -0.3668673 -0.010836256 0.13015729 -0.5864629 -0.6865696
-0.6341782 -0.27173582 -0.67601836 -0.34013397 -0.25097123 -0.15630485 0.49129283 -0.7506621
-0.36885622 0.49298066 -0.20831972 -0.004105589 0.40740237 -0.050654832 0.5208034 0.5674034
0.25975403 0.17339128 0.20854083 0.09693405 -0.5756658 -0.31105354 -0.019782297 -0.42930838
0.5901108 0.31454042 -0.19803399 0.58212334 0.6275992 -0.054788858 0.123045616 0.33401176
0.39242843 -0.5105574 0.25867528 0.31679103 -0.93005633 -1.0175235 -0.15012106 -0.10331351
0.268492 0.5043002 -0.5012923 -0.20388497 0.09292183 0.09209698 1.025129 -0.42321947
0.06306218 -0.08401331 0.100435376 0.15320784 -1.2323699 -0.5510718 -1.100246 -0.14623544
0.58363277 0.5765999 0.36749557 -0.57690746 0.6291784 -0.44919464 -0.71636057 0.4718568

edge_in_layers.0.bias f4 [64]
00000000: a907 4b3e 3fba db3c 8584 8ebe 3ac9 21be
00000010: 8c41 093e 705e b6be 6656 623e 13c3 8abe
00000020: 33ea b83e 602c b23e 3000 823d 77f3 003e
00000030: bd7e 893e 542e d3be 46f9 04be 74ab 6dbe
00000040: 98be 933e a434 d7bd 7ba3 c33e 933f e7b9
00000050: f449 96be a317 fb3c 229d 853e 1c08 313e
00000060: 34bb d93e d8aa 93be 62a6 cf3e 5e7c 04be
00000070: 0c45 d3be 7da0 9fbe dd84 803e 3ab9 76be
00000080: 9847 ccbe 8f96 bbbe 66ae cfbe eca4 f53e
00000090: e886 06bf d4a5 58be 1589 f93c a9ac 583d
000000a0: 1ead 683d 53f1 c53e f8cc 8e3e 18ec e33e
000000b0: af1d 0abf 9aa0 173f c3f8 10bf a643 59be
000000c0: 88c7 94be 1986 193e 8bab e73d 353d 58be
000000d0: 0188 4abc ee07 87be ea87 803d 09e3 213e
000000e0: d859 cabe 3e3c 833d 9a1f da3e c6f9 0fbf
000000f0: 7354 4c3d d38c c5be 9d21 69be f34e 43be
0.19827141 0.026822207 -0.2783548 -0.15799418 0.1340391 -0.35618925 0.22103271 -0.27101955
0.3611618 0.3479948 0.06347692 0.12592874 0.26854506 -0.41246283 -0.12985715 -0.23209935
0.2885635 -0.10508087 0.38210663 -0.0004410712 -0.29353297 0.03065092 0.26096445 0.1728825
0.42525637 -0.2884128 0.40556628 -0.12938067 -0.41263616 -0.3117713 0.25101367 -0.24094096
-0.39898372 -0.36638305 -0.40562743 0.47977388 -0.525496 -0.21157008 0.030460874 0.052899037
0.056805722 0.38660678 0.27890754 0.44516063 -0.53951544 0.59229434 -0.5662958 -0.21217212
-0.2905848 0.1499256 0.11312016 -0.21117099 -0.012361527 -0.26373237 0.062759236 0.15809263
-0.3952167 0.06407975 0.42602235 -0.562405 0.049885225 -0.38584003 -0.22766729 -0.19073085

edge_in_layers.1.weight f4 [64, 3]
00000000: fc55 2ebe ac51 b9be 80ee 1dbc 2488 0dbf
00000010: 8101 58bd f763 11bf 2558 b03e d5d4 febe
00000020: d5b2 7ebe 7c30 113e 664a 25be 6b15 b83e
00000030: d6f9 dabe 9b3e bc3e b8da 28be 06c3 11bd
00000040: c8e4 903e 26ad f93e 1441 a03e 061a 0f3d
00000050: 809a 8b3d 24b0 a53e 7816 fb3d 0264 9bbe
00000060: 5261 c53e 3f75 5a3a a513 3abf 11e0 37be
00000070: af8c 093f 4b6e 923e 2e1a 013e 13aa 0dbe
00000080: f6c1 b7be c6ff 07bf a52b 253f ef5a b83e
00000090: 79a9 9d3e 3565 ecbe f7e2 35bf 840f 8b3e
000000a0: 2404 1fbf 828b e03e e1ba d2be 1a4c 483e
000000b0: 1fa3 11bf 6019 793d 67bb 89be d84f d03d
000000c0: 2382 e0be d6e9 c7be 3403 883e 44b5 663d
000000d0: d857 943e 8e97 d73c 16a9 b8bd 3cd3 7c3c
000000e0: 206f 1dbe 11e3 4e3d 70a9 f63e 940d 4dbe
000000f0: 3713 eebd b219 52be 4c1e 113e 4703 3ebe
00000100: 46b9 65be 2c75 30bf 6742 783c 3851 1cbe
00000110: abc9 e6be d121 a1be b085 c9be 52fe 8b3e
00000120: ea06 1f3e 9e09 b73e d132 3dbf 7a35 1b3f
00000130: 5ac0 e03e 8aec 1abf 1299 25bc 61ac 3fbe
00000140: 1fdc 0bbf c660 bebe a3e4 6a3e f0ac 0cbe
00000150: 08af 26bd a973 8ebd 7571 d73d 5e8c d8be
00000160: 8c85 163f f7ad 033e 9080 42bd b29a 913e
00000170: 3493 2cbf 198b ed3d c9aa d63e dc33 963b
00000180: 40b0 6c3d 46c6 a3be b0f6 603e c025 953e
00000190: 750d d53e 717a 15bf dca1 f7bd 0de6 c83d
000001a0: 198a cd3e ef76 9bbe d6e0 213f b8a9 813e
000001b0: 69b8 bebe 08eb 86be c045 dc3c f2fb a63d
000001c0: fd02 05bf a8c0 653e bec3 59be f355 c73e
000001d0: 6886 eabd 55e4 a73e 2b39 ec3e c3d7 003f
000001e0: 3d1c 25bd 0446 193d bbf4 ba3c f873 8bbe
000001f0: 4f16 89be c940 d9be 8862 abbe 2c43 97be
00000200: 003a ed3c 4862 fa3e 3acc b13e f185 0dbf
00000210: 90b2 8e3d 2116 ddbe 91f6 e73e 473d dabe
00000220: e273 983e 9fd7 8b3e c709 913e cd04 4d3e
00000230: f356 cebe d120 fdbe 1756 3abe 737e 9ebe
00000240: 312f 68bf 4d3b 35be 4d26 143f f674 3f3e
00000250: 4d4d 15bf 3aad 713e 9621 e5be 5197 a5be
00000260: cd08 0abf 6788 c43e 8ffa a1be c619 8d3c
00000270: cb17 08bf 48d8 20be cfa8 81be 041a 1a3f
00000280: 84d2 8b3e dbe5 313e 5987 41bc 2640 bcbe
00000290: 7925 1fbe 40e5 41bf 0332 d7bb f4e9 2fbe
000002a0: 6e4e 64be 931e e33e e835 d93e ca96 4f3d
000002b0: fe07 23bf 6e59 c4be 5a9a 7b3e fae5 1fbe
000002c0: 9b06 babe e5f3 3cbe 9ed5 673e 6203 32bf
000002d0: 0dc0 dc3e 45c5 4abe 3a52 dfbd 64b6 e93d
000002e0: 0c7c 0fbf ea61 ccbc 6df9 08bf ed41 c5be
000002f0: cbf2 8dbd 1da9 703e 9257 a1be 7a26 cd3c
-0.17024988 -0.36195123 -0.009639382 -0.5528586 -0.05273581 -0.5679316 0.3444225 -0.49771753
-0.24872907 0.14178652 -0.16141662 0.3595384 -0.42768735 0.36766514 -0.16489685 -0.03558638
0.28299546 0.48764914 0.3129965 0.034936927 0.06816578 0.32360947 0.12260145 -0.30349737
0.38550812 0.0008333511 -0.72686225 -0.17956568 0.5373029 0.28599772 0.12607643 -0.1383441
-0.35890168 -0.53124654 0.6451972 0.36006877 0.3079336 -0.46170965 -0.71049446 0.27160275
-0.62115693 0.43856436 -0.41158202 0.1956028 -0.5688953 0.060815215 -0.2690079 0.10171479
-0.43849286 -0.3904559 0.26564944 0.056325212 0.2897327 0.026317384 -0.090166256 0.015431222
-0.15374422 0.050509516 0.48176146 -0.20024711 -0.11624759 -0.20517614 0.14171714 -0.18555938
-0.22433957 -0.6892879 0.01515255 -0.15265357 -0.45075735 -0.31471112 -0.39359808 0.27342469
0.15529981 0.35749525 -0.73905665 0.60628474 0.43896753 -0.6051718 -0.010107296 -0.18718101
-0.54632753 -0.37183207 0.2293878 -0.13737845 -0.040694267 -0.06955654 0.10519687 -0.42294592
0.58797526 0.12859331 -0.047485888 0.28438336 -0.67412114 0.115987964 0.41927174 0.004583819
0.057785273 -0.31987208 0.21969104 0.29130363 0.4161183 -0.58389956 -0.12091419 0.09809504
0.40144423 -0.30364177 0.632337 0.25324798 -0.3725007 -0.2635119 0.026888728 0.081535235
-0.51957685 0.22436774 -0.21266076 0.38932762 -0.11451417 0.3279139 0.46137366 0.50329226
-0.040310133 0.037420288 0.022821775 -0.27236915 -0.26774833 -0.4243224 -0.3347361 -0.29543436
0.02895832 0.48903108 0.34726125 -0.55282503 0.06967652 -0.43180946 0.45305303 -0.42624876
0.29775912 0.27312943 0.28327772 0.20021363 -0.40300712 -0.494391 -0.18196903 -0.30955848
-0.9069701 -0.17698403 0.5787094 0.18696961 -0.58321077 0.23601237 -0.44752187 -0.32342008
-0.5391968 0.38385317 -0.31636474 0.017224204 -0.53161305 -0.15707505 -0.25324103 0.60195947
0.27309048 0.17372839 -0.011812055 -0.3676769 -0.15541638 -0.7574043 -0.006567241 -0.1717909
-0.22295544 0.44359264 0.4242394 0.050680913 -0.6368407 -0.3834948 0.24570599 -0.15615073
-0.36333165 -0.18452413 0.22640082 -0.6953641 0.43115273 -0.19801815 -0.10904355 0.114117414
-0.56048656 -0.024949033 -0.53505594 -0.3852686 -0.06931075 0.23502012 -0.31512123 0.025042761

edge_in_layers.1.bias f4 [64]
00000000: be4d 11be c81b 953e 0aea 20bd 6e0f 9d3d
00000010: eb8f f43e f339 4abe 2c2b 06bf 44e8 7d3e
00000020: b32b 283e 32ae c73e 61af 41bd 29a9 b53e
00000030: 2220 f2be fe24 2a3d 7390 c8bd ff12 9fbe
00000040: 17ad 67be 5593 e23e f505 813e 1c31 913e
00000050: 9e5c a6be 9423 0f3f 0d63 ba3e 661d bd3b
00000060: a1ba 64be 9cc3 5abe 464f e33e c766 b9be
00000070: 47a7 903e 2228 e7bb fb36 cf3e 851a d43e
00000080: 6666 12bf ea0b c43e 29ec 693d b08c f03e
00000090: 19e3 bebe a570 983e a834 39bd a420 09bf
000000a0: 52fa 0fbd cef9 10bf f828 9ebe d039 6dbe
000000b0: 7c9c bdbe b394 be3e 0387 e43d 5e9d 703e
000000c0: 2eca 07bf 2958 3fbe 48f2 c7be 639f 02bf
000000d0: 3dd5 3d3e 2e9e 4f3c 998c 053e c36f cdbe
000000e0: 5f7c 3abe 84e2 113e 70ca 13bf 19c9 20be
000000f0: ba45 8a3d 365d f93e 536c 6e3e ef7c f2be
-0.14189813 0.29122758 -0.039285697 0.076689586 0.4776605 -0.19748668 -0.52409625 0.24795634
0.1642292 0.39000088 -0.047286395 0.3548062 -0.4729014 0.041539185 -0.097931765 -0.3106918
-0.22624622 0.4425303 0.25199857 0.2835778 -0.32492536 0.5591366 0.36403695 0.005771327
-0.22336818 -0.21363682 0.44396418 -0.36211225 0.28252622 -0.0070543448 0.40471634 0.41426483
-0.571875 0.3829034 0.057109986 0.46982336 -0.37282637 0.2977344 -0.045216233 -0.5356543
-0.035150833 -0.5663117 -0.30890632 -0.23166585 -0.3703345 0.37222824 0.11158564 0.23497531
-0.53042877 -0.18685974 -0.39052033 -0.51024455 0.18538375 0.01267199 0.13041915 -0.4012433
-0.18211506 0.14246565 -0.5773077 -0.15701713 0.067515805 0.48703927 0.2328351 -0.47360942

edge_layers.0.transformer_encoder.layers.0.self_attn.in_proj_weight f4 [192, 64]
00000000: 9c1d b23e f55d eabd b11c b73d 7c70 633e
00000010: 12e4 3cbe b49e 8ebe 20d2 1bbe 53dd afbe
00000020: ceb0 813e 1ae1 043e 1341 b93d b7cf 963e
00000030: 9ba1 e03e d027 b73e f025 b4bd e04c af3e
00000040: 4104 d33e d3b4 8b3e 5c5a 753e d454 443d
00000050: e8d7 b23d 829f d13e b9b9 0c3e 3298 32be
00000060: 3094 cd3e 038d 2c3e 2df3 983e c2ff 71bd
00000070: 1541 0c3e c7c9 563e a72f 053e 697d 873e
00000080: cf70 8fbd aecb 0a3f bd0d 993d c15d be3e
00000090: 0c61 20bd d051 583e ea79 56be 434c 113f
000000a0: b674 f63e 7bcd 1b3e 1ee5 b6bd 946b 823e
000000b0: c842 3f3e c576 723e 3a36 243e dfb2 d93e
000000c0: e51d a53e 340c 91bc 2a65 dd3e 4767 123f
000000d0: eb9a ac3e a34a 3b3d d504 0fbe 7ab1 a93e
000000e0: 91d4 b53e 0bef 5f3e 6962 a43e 2ab5 f53d
000000f0: b4a3 a6be aad2 6d3e d615 ff3e 5131 223e
00000100: 64af 733e 3b1c 463e 415c 0b3e 14b6 54bb
00000110: c7cf ebbd f3d8 03bf c826 3fbe 2db5 b7be
00000120: 2cbf 913d e356 c83e 5c36 263e 7bb9 023f
00000130: 4f5a d53e ad41 9b3e b72d 2cbe 7eae c43e
00000140: a8f5 013f dee2 813e 4793 4d3e 0ccf 1f3e
00000150: 2872 06be 2a7b cf3e 6872 623e 9fff 37bd
00000160: 7cee b13e af4c fcbd 1615 b83e f735 28be
00000170: 15dc aa3d 978c 993e c55c 983e 0e4c 643d
00000180: 039f 0e3e da2d 0a3f cc35 25bd a3f9 023f
00000190: 94d6 003d 40bc 26bd 3875 89be e3e4 1a3f
000001a0: 0ae5 a63e e0c0 a93e f685 f5bc daa0 9c3d
000001b0: 890e 033e 44d2 9e3e 2bc9 5a3e 50be f13e
000001c0: 66ed 933e abd2 d2bd 76bc 063f f692 a83e
000001d0: 2b5c dc3e e6e5 923d dd4d 00be a0f6 533e
000001e0: 159d 043e a6dd b43e b57c 6a3e 307b 38bc
000001f0: 31f7 c7be f891 a33e 101c 8a3e 36c9 b33e
00000200: ba42 743e 64d1 febd 01e9 d1be ac12 3fbe
00000210: 7e58 5abd 0d0a 20bf bbe6 2abd ec4e 31bf
00000220: 8e4d 05bd e8fa 273e 288a 1dbe 0034 b43e
00000230: 176f 3e3e cf8d d03e d7ab 45be d573 d73c
00000240: 39d2 a93e e04e f2bd b01a 643e fde6 1fbe
00000250: c0df 883c ee0d 6f3e 2679 743e b065 02be
00000260: 090e 153e 9800 70be 7017 003e 6d1e 42bf
00000270: e1f2 d73d 8740 9b3e 369f 2b3e 8377 96be
00000280: 256c d73d e50b 0c3f af59 f7be 0847 dd3e
00000290: d4b0 71bd e5e4 47be bc88 d0bd 178d aa3e
000002a0: f172 c23e c9a0 9f3e 4ea4 9d3d 276e dabc
000002b0: 7ebf a53e 8df2 953e 011f 953e 9ba4 f83e
000002c0: 8b63 c43e 2337 68bc 9273 c13e 7bbd 393e
000002d0: f4a8 093e 0645 d4be e71b 61bc 7925 cc3d
000002e0: 2214 85be fdf5 913e 39f0 d93c b213 67bd
000002f0: d257 f53c 79f2 073f 8fa5 3e3e 9b47 293e
00000300: df45 9dbe ce2e ef3d 2ba1 123e 080b 2ebd
00000310: 3106 003c 1907 483f 0aa8 1a3e 7b7c 0f3f
00000320: bdd0 c0bd 71f3 b4bd e9a7 153e 0c64 e8be
00000330: f5b3 94be dd62 1fbf b036 683e b979 24be
00000340: 1f00 f9be 7fd8 c63b 9518 80be 2ce5 a73d
00000350: 5b8b 1b3e 7c8a a0be 7a7f a3be 9176 b53e
00000360: 417b adbe 0880 d73d 70ed 82bc 61c0 e13e
00000370: 66a4 64be 0076 adbe 2252 48be 1823 103e
00000380: 946c ed3d 12e6 26bf 6b4c 7c3e 47a7 f5be
00000390: 6c20 61bd 34f7 803e 5016 3d3e 5191 9fbe
000003a0: dee6 88be 4e0d cdbe d16a 93bc cce2 29bc
000003b0: 6723 cbbe 828e e5be 8259 adbe 3ad5 0ebf
000003c0: 8bcf 24be c6c2 f4bd ee92 a4be 058b 8ebe
000003d0: 2aee 1dbe 3b93 c63d fcf8 2f3e aa70 01be
000003e0: 8ae2 e23d ed02 fabe 263d 46be 4ae7 e4bd
000003f0: 45f8 2b3e 160c b0be 6e81 6fbe 6abd 6bbe
0.34788215 -0.11443702 0.08941019 0.22210878 -0.18446377 -0.27855456 -0.15216875 -0.34348544
0.25330204 0.12976494 0.09045615 0.2945535 0.43873295 0.35772562 -0.087962985 0.34238338
0.41214183 0.27286395 0.2396025 0.04793246 0.08732587 0.40942007 0.13742723 -0.1744087
0.4015212 0.16850667 0.29873028 -0.0590818 0.13696702 0.2097541 0.13006459 0.26462868
-0.070039384 0.5421704 0.074733235 0.37180904 -0.03915505 0.21124959 -0.20944944 0.5675699
0.48135918 0.15215103 -0.089304194 0.254727 0.18677819 0.2367812 0.16036311 0.4251928
0.3224937 -0.017706014 0.43241245 0.5718884 0.33711943 0.045725476 -0.13966687 0.33143216
0.35513738 0.21868531 0.3210633 0.11997445 -0.3254677 0.23224893 0.49821347 0.15839125
0.23797375 0.19346707 0.13609411 -0.003245716 -0.1151424 -0.51502913 -0.18667138 -0.35880414
0.07116541 0.3912879 0.16231674 0.5106427 0.41670462 0.30323544 -0.16814314 0.38414377
0.50765467 0.25368398 0.20075713 0.15606326 -0.13129485 0.40523654 0.22113955 -0.044921514
0.34752262 -0.12319314 0.35953587 -0.16426836 0.083427586 0.29990074 0.29758278 0.055736594
0.13927846 0.53976214 -0.040334508 0.51162165 0.031454638 -0.040706873 -0.26847243 0.60505503
0.32596618 0.33154964 -0.029971104 0.076478675 0.12798513 0.31019795 0.21365802 0.4721551
0.28892058 -0.10294088 0.5263132 0.32924622 0.4303907 0.07172756 -0.12529702 0.20699549
0.12950547 0.35325354 0.22899134 -0.011259839 -0.3905578 0.31947303 0.26974535 0.3511445
0.23853579 -0.12442282 -0.4099808 -0.18659467 -0.05330705 -0.62515336 -0.041723948 -0.6926105
-0.032544665 0.16404307 -0.15384734 0.35195923 0.18597065 0.4073319 -0.19303833 0.02630035
0.331682 -0.118314505 0.22275805 -0.15615459 0.016708255 0.23345158 0.2387434 -0.12734103
0.14556135 -0.23437726 0.1250894 -0.75827676 0.10544372 0.30322668 0.16759953 -0.29388055
0.10518674 0.5470565 -0.4831061 0.43218255 -0.059006527 -0.1952091 -0.1018233 0.33310768
0.37978318 0.31177357 0.07697354 -0.026663853 0.3237266 0.29286614 0.29125217 0.48563084
0.38357195 -0.014173302 0.37783486 0.18138687 0.13443357 -0.4145891 -0.013739563 0.09968085
-0.25991923 0.28507987 0.026603805 -0.056415267 0.029949103 0.5310436 0.18617843 0.16531222
-0.3071737 0.11678849 0.14319293 -0.04249099 0.007813976 0.7813583 0.15103164 0.5604932
-0.09414814 -0.08835495 0.14614834 -0.4538883 -0.29043546 -0.6226023 0.22677112 -0.16062059
-0.48632905 0.006068289 -0.25018755 0.08198008 0.15189879 -0.31355655 -0.31933194 0.3544202
-0.33883098 0.10522467 -0.01598236 0.44092086 -0.22328338 -0.3387909 -0.19562581 0.14075887
0.11592975 -0.6519481 0.24638526 -0.47979185 -0.05496256 0.251886 0.18465543 -0.31165555
-0.26738638 -0.40049213 -0.01799527 -0.010369014 -0.39675447 -0.44835287 -0.33857352 -0.5579411
-0.16094796 -0.119512126 -0.32143348 -0.27840438 -0.15422884 0.09696051 0.17184824 -0.12640634
0.11078365 -0.48830357 -0.19359264 -0.111769274 0.16793926 -0.3438422 -0.23389217 -0.23021474

edge_layers.0.transformer_encoder.layers.0.self_attn.in_proj_bias f4 [192]
00000000: 4b9d 913e 51f1 9f3e e4aa 423e e720 8fbe
00000010: eed2 a3be 09c7 963e 523e a2be c0c4 abbe
00000020: b0b0 833e f58c 793e e7f8 963e 320e a3be
00000030: c550 953e 01b9 ab3e 7796 72be b9c7 7b3e
00000040: aaf3 033d e15f 82bd 390e 29be a63d db3d
00000050: d010 843c 8166 eebd b2d6 aebd 2bfc 093c
00000060: 4823 adbd ab17 833d 213e b73d 680a 16be
00000070: 81a9 143e 84e5 44bd be24 963d a471 4f3c
00000080: 8755 8bbd 83ab 5e3d f5aa b6bc 28ca b6bd
00000090: 44d8 f7bc b384 9abd e9c1 75bd 90f2 ecbc
000000a0: e2c4 123d c2a5 333d 0292 5dbd 81f5 cc3d
000000b0: 1e2d 1b3d d633 7a3d baa2 1fbd 89ef 5e3b
000000c0: 882a 603e bcca ce3c 37ac 11be 6275 c93d
000000d0: a652 493e c121 58be f450 06be 89a4 b4bd
000000e0: 83dd 3cbe e97b 533e 1ff9 30be 1f2e 56be
000000f0: 9ad4 ea3d 2d33 083e 6c6b 423e 3ddd 3dbe
00000100: c89e 933a ee15 5b3a cde1 123a 78ca 85ba
00000110: e8a3 8eba 56ee 5a3a fe74 16ba 99ef 71ba
00000120: 3d80 873a 2b4e 433a 563c 603a 46ec 80ba
00000130: 7f3c 683a df0a 8c3a 0632 52ba 8c0b 493a
00000140: 9588 c7b8 7f22 aab9 bb0c 50ba df8a 5a3a
00000150: 4fe2 7739 f02c 2fba 2c24 91b9 591a 68b9
00000160: 1e10 29ba 8ae0 1b3a a9a9 643a 9ea8 3eba
00000170: dab5 563a df44 6cb8 f702 1d39 d43d e5b8
00000180: 0be4 c638 a0bd 6937 604f 1e39 8d2f 85b9
00000190: af45 98b9 06c0 f938 e10e 8038 8b3f 84b9
000001a0: 5fdb b339 0d38 ae39 bd87 02b7 17ac 043a
000001b0: 3a0f 9d38 3524 043a 8240 06b9 aaa7 79b8
000001c0: ec1b d139 ebf7 9437 0728 bcb9 d066 1639
000001d0: 7a6a 1e39 f6cb 92b9 d4fe 52b9 63ce 6bb9
000001e0: 6e27 9fb9 9765 1739 9220 dcb9 b94a a9b9
000001f0: e30a 8039 cfe5 aa39 8c86 ac39 9dab c0b9
00000200: 5b11 41bc 0d7f acbc 1a27 9b3c 43a8 413d
00000210: 8a77 1e3d 855c 953b f838 7e3a 50fb b73c
00000220: d4f7 093c b2b1 543a 4227 d4bb 9c4a 77bc
00000230: 0f03 bcba c251 213c e3f0 dd3b 70ae 4d3c
00000240: 2189 e0bc f29a 473c 5248 c73a ad96 66bb
00000250: e55c d13c 2026 ebbc f771 873c 0d4a e23c
00000260: 31fd 3a3c 8230 173d 1f88 6c3c 9a61 a2bc
00000270: ae14 0ebd 7fb4 37bd a993 5a3b 72df 203c
00000280: 908d afbc 27ea 1bbd 1b4e 323d 2863 e13c
00000290: d860 cdbb 30cb f83c 419a e13b a3b9 c13c
000002a0: 8b14 543b 2410 8cbc 2f3f 13bd 14e5 a1ba
000002b0: 52b7 823c 2781 993a 651c 86b9 e58a 8f3b
000002c0: 6d4d 2b3b 8250 ff3b 5238 963c 5838 db3c
000002d0: 4ed3 923c 34b0 57bc ee54 c23b 8d55 02bd
000002e0: 3551 2e3c bcab 3ebc 1642 0bbd 8cac 8e3c
000002f0: 155a 33bc 744f 393c 747b fc3c daa6 b1bb
0.28440318 0.31238797 0.19010502 -0.2795479 -0.31996864 0.29448727 -0.31688172 -0.33548546
0.2572074 0.24370177 0.29486772 -0.31846768 0.29163185 0.33539584 -0.2369021 0.24587907
0.032214798 -0.06365944 -0.16509332 0.10705118 0.016121298 -0.11640645 -0.08537044 0.008421938
-0.08453995 0.06400999 0.08947397 -0.14652407 0.14517786 -0.048070446 0.07331227 0.012661371
-0.068034224 0.054362785 -0.022298316 -0.08925277 -0.03025449 -0.075448416 -0.05999938 -0.028924257
0.035832293 0.04385925 -0.054094322 0.10007764 0.037884824 0.06108459 -0.038973548 0.0034017286
0.21891224 0.025243156 -0.14225851 0.09836842 0.19660434 -0.21106626 -0.13116819 -0.08820445
-0.18443875 0.20652737 -0.17282532 -0.20916031 0.11466332 0.13300772 0.1898629 -0.18541427
0.001126253 0.0008357455 0.0005603105 -0.0010207435 -0.0010882588 0.0008351555 -0.0005739479 -0.0009229123
0.0010337901 0.00074503076 0.00085539126 -0.000983604 0.0008859112 0.0010684392 -0.00080183183 0.0007669262
-9.5145e-05 -0.00032450628 -0.00079364673 0.00083367334 0.00023640062 -0.00066824164 -0.00027683505 -0.0002213506
-0.000644924 0.00059462397 0.0008722791 -0.0007273051 0.000819055 -5.6330926e-05 0.00014973791 -0.00010931087
9.483852e-05 1.3932033e-05 0.00015097624 -0.00025403165 -0.00029043618 0.000119090124 6.106287e-05 -0.00025224345
0.00034304985 0.00033229627 -7.780208e-06 0.0005061044 7.4891796e-05 0.00050407957 -0.00012803267 -5.9522376e-05
0.0003988439 1.775842e-05 -0.00035887977 0.00014343415 0.0001510772 -0.00027999253 -0.00020122092 -0.00022488231
-0.0003035622 0.00014438327 -0.00041985937 -0.00032289865 0.00024422174 0.00032596148 0.00032906642 -0.00036748956
-0.011783923 -0.021056676 0.018939544 0.047279608 0.03868822 0.0045581483 0.000969782 0.022458702
0.008420903 0.0008113637 -0.0064744065 -0.015093472 -0.0014344173 0.009846153 0.0067731007 0.012553796
-0.027409138 0.012182938 0.0015204048 -0.0035185025 0.02555699 -0.028704703 0.016533835 0.0276232
0.011412905 0.036911495 0.014436751 -0.01982193 -0.03468769 -0.04484987 0.0033352172 0.0098188985
-0.021429807 -0.038065102 0.04353152 0.027513102 -0.006267648 0.030370325 0.0068848436 0.023648089
0.0032360877 -0.01709754 -0.03594893 -0.0012351596 0.015956555 0.0011711464 -0.00025579627 0.004380571
0.0026138679 0.0077915797 0.018337402 0.026760265 0.017923024 -0.013164569 0.0059305346 -0.03181987
0.010639478 -0.011637624 -0.03399857 0.017416261 -0.01094677 0.011310447 0.030820586 -0.0054215016

edge_layers.0.transformer_encoder.layers.0.self_attn.out_proj.weight f4 [64, 64]
00000000: 0d4a 8cbd 243e e3bd 56d7 d03d 967e 103e
00000010: 21c8 d73c 560f 0bbe 8735 14be 808a d7bc
00000020: be2b ea3d aa33 37bc ce9c 84bd 1892 103e
00000030: 4b77 00be a54f c93c 646f 173d 3f9d 103e
00000040: fe8e 4bbe 219e 33bc e9f0 f03d a45c adbd
00000050: cd49 cc3d abe4 24bd c0be 193e c94d 793e
00000060: fcb2 463e 6a9c da3d 2242 f83d 64fa 073d
00000070: 792f 893b 430b 653c 145a ffbd 5bb4 ad3c
00000080: 7cee ef3d 285a 1ebe f8f2 193e 8c36 4a3e
00000090: 0afc 243b 2344 7e3d e593 143d aca4 fcbc
000000a0: af1b b73d 54dc 2abe c2b8 09be 9621 593d
000000b0: 1625 16bd 5018 fdbd 1a75 7ebc 84cd 5f3d
000000c0: d83c a0bd 3ada fa3c dc4a 203d 5735 083e
000000d0: 8544 cd3d 3294 3cbd 76e2 6fbc 9905 6dbe
000000e0: b0c9 22bd bdc8 e23d f676 cebd c45f ccbc
000000f0: 11c4 e93d 30dc 0a3d 27fb 713d cc6a 82bd
00000100: c84d 2ebc ee53 fabd 91c8 9bbd 668e ad3d
00000110: 2346 17bd 933b ec3d fc8d a7bd 9b97 973d
00000120: 4fcd bb3c 789e 4abd 7772 0abe 6e8a 6d3c
00000130: cfc9 153e f972 11be b5fb 77bd 4952 12bc
00000140: 4a40 613e af74 7e3d e01b 05bd 5520 47bd
00000150: f5c6 05bd c6ae c33d f83f c8bd 814c 4ebc
00000160: 8298 8f3d b609 d23c 7c5c 7a3d 0bde 74bd
00000170: 27d1 ce3d 3e0e 2cbd 2ef3 0e3c de48 433d
00000180: 41b7 ba3c 9632 d73d 88f9 003d 653f 58be
00000190: cd44 ec3d f20b b33d a2f3 043e 2a11 0b3c
000001a0: ee31 cc3d 2546 3bbd a4cf a73d 4278 7a3d
000001b0: be4f a8bd 99a9 06be 0b34 22be b635 b23b
000001c0: 4dd1 df3c 702e 8d3d b97d c63d 78d4 d03d
000001d0: 5375 f8bd 773f 2eb9 0c9b 6d3b bfa6 f13d
000001e0: 7c7f 69bd efb3 523d 3533 c4bd aac7 43bd
000001f0: 09b0 f03c e1ef e1bd ad6c e73d 21de b53d
00000200: d028 9e3d ec53 37bd ccef adbd ba14 58bc
00000210: b894 ddbd c468 e13d b43c 27bc 954c aebd
00000220: 2a93 c43d c07b f2bd ac54 16be 9da6 b63a
00000230: 90ce 0dbe 8645 77bd 008d adbc 5aa6 b83d
00000240: c39e 83bd 0012 593d a2f8 013d 7809 e33c
00000250: 6ed9 21be eb3d 10bd 7b69 61bd 3b76 df3b
00000260: e33c c0bd badf d8bd 9671 113d 14c8 a5bc
00000270: 4638 4a3c ab3e 5cbd c8f9 08bd 6276 f7bd
00000280: 5072 c13b c88b 903b b13c 613c f00b a83c
00000290: 0931 20bc 6dd6 9fbd 9867 cbbd 5985 11be
000002a0: db23 2fbe b459 293d e541 22bc db4b 10bd
000002b0: d45a edbc d30c a5bd 1396 8ebd 4583 1c3d
000002c0: 7638 003d 2609 78bd 8377 0e3d cbe9 98bd
000002d0: cdf7 e1bd 20f7 fe3d 773c a9bd d78c 7fbd
000002e0: 85a3 9bbd a41c 5d3d a03d 893c 5804 dbbd
000002f0: 5469 353e afaf da3c 247e c0bd e881 73bd
00000300: da01 7fbd 30e3 f13d 5c18 b3bd 9c0a e63b
00000310: b957 a33d a546 d43d 8d35 92bd 4614 803d
00000320: d8fd 3ebd 555c 963d 891f 483d 2678 ef3d
00000330: 68dc 7e3d 2a57 a0bd 5352 5bbb 0f5d 153d
00000340: d71c de3d 0b52 f83d 2a92 12bd ea39 e83d
00000350: e01c 26be 949b 643c 85ba c13b 4ffd 0d3d
00000360: 81d6 27be 56c2 f4bd 8d45 9b3d 8412 f9bb
00000370: 9ba5 0d3d 0355 b4bd f3f3 b93d e13c 4abc
00000380: 5c74 d2bd 315a f43c 3cf0 70bd 68f3 1abe
00000390: e753 733c 3ac3 9cbb e13f 46bd 501b 48bd
000003a0: fec3 1ebe 6e67 9ebd 4342 0a3e 1c6a 653d
000003b0: 11d1 4abd 6204 dcbc 00af 3ebd a67b df3c
000003c0: efba 833d f54c 28be 3528 95bd e92d c9bc
000003d0: 4755 93bd 8171 c3bc d317 8d3d 81af 2e3e
000003e0: fa0a 8fbc 363d 703d 892d 9dbc b494 863c
000003f0: 0618 133e c0f6 803d 6bed fd3d df45 a3bd
-0.068500616 -0.11095837 0.10197322 0.14110789 0.026340546 -0.13580069 -0.14473544 -0.02631116
0.114341244 -0.011181751 -0.064752206 0.1411823 -0.12545507 0.02457411 0.036971465 0.14122485
-0.19878766 -0.010962994 0.117647 -0.084649354 0.09975014 -0.040257137 0.15014172 0.24346079
0.19404215 0.10674365 0.12121989 0.033197775 0.0041865674 0.013979736 -0.12468353 0.021204164
0.11715409 -0.1546408 0.15034091 0.1974737 0.002517464 0.0620767 0.036273856 -0.03084024
0.08940827 -0.16685611 -0.13449386 0.053010546 -0.03665646 -0.12358153 -0.015530849 0.054639354
-0.07824105 0.030621637 0.03913389 0.13301598 0.10022835 -0.046039768 -0.014641395 -0.23146667
-0.039743125 0.11073444 -0.10081284 -0.024948008 0.1141435 0.033901393 0.05907741 -0.06368026
-0.010638662 -0.122230396 -0.076066144 0.08474426 -0.036932122 0.115348004 -0.08181378 0.07401963
0.022925047 -0.049467534 -0.13520227 0.014498336 0.14627765 -0.14204015 -0.06054278 -0.008930751
0.2199718 0.062122997 -0.032497287 -0.04861482 -0.032660443 0.0955482 -0.09777826 -0.012591482
0.070115104 0.025639396 0.061123356 -0.05978207 0.100984864 -0.04200577 0.008724971 0.047676913
0.02279246 0.105076954 0.03148797 -0.21117933 0.1153656 0.08742513 0.12983564 0.008487979
0.09970461 -0.045721192 0.08193901 0.061149843 -0.082183346 -0.13150634 -0.15840165 0.0054385317
0.027321482 0.06893623 0.096919484 0.10196775 -0.12131753 -0.00016617576 0.0036255745 0.117993824
-0.057006344 0.05144113 -0.095800795 -0.047797836 0.029380815 -0.110320814 0.11300025 0.08880258
0.07722628 -0.04475777 -0.08493003 -0.013188535 -0.108193815 0.110063106 -0.010207344 -0.085107006
0.09598382 -0.1184001 -0.14680737 0.0013935153 -0.13848329 -0.060369037 -0.021185398 0.09016104
-0.06426766 0.05299568 0.031731255 0.027714476 -0.15805599 -0.0352153 -0.055032235 0.006819514
-0.09386613 -0.105895475 0.035508715 -0.020237006 0.012342518 -0.053770702 -0.033441335 -0.120831266
0.0059035197 0.0044111945 0.01374738 0.020513505 -0.009777316 -0.0780457 -0.09931868 -0.14211024
-0.17103522 0.041345313 -0.009903406 -0.03522859 -0.028973974 -0.08059087 -0.06962218 0.038211126
0.031303845 -0.0605556 0.034781944 -0.074664675 -0.110335924 0.12449479 -0.08263486 -0.062390175
-0.07599548 0.053982392 0.016753018 -0.10694188 0.1771596 0.0266951 -0.093990594 -0.05945006
-0.062257625 0.11810911 -0.087448806 0.0070203077 0.07975716 0.10365037 -0.0713912 0.06253867
-0.046628803 0.0734183 0.0488582 0.11692838 0.062221915 -0.07829125 -0.0033465817 0.0364657
0.108453445 0.121250235 -0.035783924 0.11339171 -0.16221952 0.013953108 0.0059121274 0.034665402
-0.1639042 -0.11951129 0.07581625 -0.007601084 0.03458176 -0.08805277 0.09079733 -0.012343616
-0.102761 0.029828163 -0.058822855 -0.15131915 0.014851547 -0.004784015 -0.048400763 -0.048854172
-0.15504453 -0.077345714 0.1350184 0.056009397 -0.049515788 -0.026857559 -0.04655361 0.02728064
0.06432139 -0.16435607 -0.072830595 -0.024558024 -0.07194 -0.023857834 0.0688931 0.17059137
-0.017461289 0.058652125 -0.019186752 0.016428329 0.14364633 0.06297064 0.123987995 -0.07972311

edge_layers.0.transformer_encoder.layers.0.self_attn.out_proj.bias f4 [64]
00000000: 13d0 99bc 613f a2bb b5c7 0a3c fc7b 943c
00000010: 96ee 6dbc 0fd3 823d d682 66bd 5964 e53c
00000020: cd6b 4a3d dacf 763d d6d2 e9bc 9e4d 06bd
00000030: c60c 4d3d c867 39bd e1fb 00be b604 75bd
00000040: b70b 803c 1e0b 36bd 547d c2ba debd 653d
00000050: d729 cb3d b2f1 00bd 7be2 303d d7f4 1abd
00000060: 596b 29bb 1726 cc3d b750 cfbb f5d8 043d
00000070: 3a50 893d 4970 06bc 3113 f43c 7a54 333c
00000080: 5639 4a3b 85e0 333d d78a ec3d eaba 883c
00000090: 842e 94bc 007e 823d 2301 7cbd e4d9 c4bc
000000a0: 1151 913d dedc 423d ee4a bdbc bb70 823c
000000b0: c38d 373b c993 99bc c145 09bd 8ac8 25bd
000000c0: b3b4 ef3d 106e 613d 9e3a 053d d80e e1bc
000000d0: 9d60 11bc 5b16 2cbd 7f20 65bd a98b 073c
000000e0: f903 3fbd acf5 323d bb08 933c d0c3 b23c
000000f0: d426 62bb 34e0 df3c 51ae 05bd 6985 efbd
-0.018775975 -0.004951403 0.008470465 0.018125527 -0.014522215 0.063879125 -0.05627712 0.028001951
0.049419213 0.060256816 -0.028542917 -0.032788865 0.05006101 -0.04526499 -0.12596084 -0.059818946
0.015630586 -0.044444196 -0.0014838376 0.056089275 0.0992009 -0.0314805 0.04318474 -0.037831154
-0.0025851338 0.099682026 -0.0063267606 0.03243347 0.06704755 -0.008205482 0.029794307 0.010945434
0.0030856929 0.04391529 0.11549919 0.01669069 -0.018088587 0.06371689 -0.06152452 -0.02402968
0.0709554 0.047573917 -0.023107018 0.015922895 0.002800808 -0.018747227 -0.033513788 -0.040474452
0.117043875 0.055036604 0.032526605 -0.027472898 -0.008873132 -0.042013507 -0.055939194 0.008273044
-0.046634648 0.043691322 0.017948499 0.021821886 -0.0034508007 0.027328588 -0.032636944 -0.11695368

edge_layers.0.transformer_encoder.layers.0.linear1.weight f4 [64, 64]
00000000: 5995 0b3e c669 7abd c07b 5cbd 6b98 efbd
00000010: d072 5d3d 938d 2f3e 14f3 d93d 592e 463d
00000020: 6f73 fabd 5ffd 73be 705d 9f3d ad6f 653b
00000030: e3b7 22be 47fa 483e 6d0c be3e 9a69 83bd
00000040: 2c5e 28be 6028 293e 9ae0 6dbe b8eb d5bd
00000050: 3b4c 06be 4690 823d 3959 d4bd 1ea1 0a3d
00000060: 0bc5 66be 08c2 bf3c c033 75bd e43a 853e
00000070: beb5 f3bd 1937 0dbc acb1 77be b84a 5f3d
00000080: 9ed7 073e d298 aebd 1549 03bd e3dd 0fbe
00000090: fa60 033e 50f0 363e 6a3b 343e f3e9 cf3d
000000a0: 4f2b 88be 8d64 2dbe bcd3 7e3d 1261 6e3d
000000b0: 95a0 be3d edfa 6dbd 8a56 d4bc a591 7bbd
000000c0: 4e26 d3bd 7028 ccbd 3ea4 babc 1613 9ebd
000000d0: 36e0 bc3b 421b f33d 2009 6c3d b589 2f3e
000000e0: 4086 623e 700b e8bd dc07 1abd ef0c c63d
000000f0: e867 fc3d 6ec0 09be b6a2 b33d 6485 fe3d
00000100: 5b6b 4e3d 9bf7 a43d fb9f 2bbd e92d e43b
00000110: 406c b43d 45df 8dbd a5f7 a13d 6c48 d9bd
00000120: c4e1 dabd ae32 a1bc b7cb 8b3d 9577 f53c
00000130: b767 64bd b4fc 2e3e 77f8 093e 1a51 263e
00000140: dde2 2fbe 41bd d8bd 0eb5 db3c a5d2 353d
00000150: 5aa3 dc3c 0986 553d 7c0e 1fbe 2068 8cbc
00000160: 36f9 05be cd05 233d ea66 c5bd 3809 b3bd
00000170: 6de6 ccbd bf4e f63c a607 27bd f3d7 17bc
00000180: 2240 c23d eeb4 d0bc bd94 ea3c fb52 12be
00000190: 672c 473d 21a3 ff3d f759 41bd a9d9 853c
000001a0: 8b5d 6bbc f9d3 a2bd 6110 4a3d b7eb 9e3b
000001b0: a233 163d 8967 683b fab9 51bc 2499 f3bd
000001c0: cd73 40bd 4295 9a3d fb6c 5abc 096a 27bd
000001d0: 1141 18be 98fe 313d 71bc b03d 16af c93d
000001e0: b681 c53d e109 d43d 1277 03bc 3e02 9cbc
000001f0: 5e68 d03b 386a 723d 15cb bebd 0dde d23d
00000200: 6439 08be 091e b33d 9f4b c03d 238a 743e
00000210: 89b5 a83d a30b 543c fc65 8e3e 7387 4d3e
00000220: 6d7c c4bd 5f15 78bc 3f51 093f ecdd 64be
00000230: dba2 e13d 716d a33d 840f 063e 99ce 4e3d
00000240: 80d5 9cbe 17d3 b83d 2e9d 503d fa39 45bd
00000250: 43a0 05bd cc40 42be 9d08 69be 93d1 a93e
00000260: 0774 79be 3090 5abd 583a babd 6d54 103d
00000270: 4ce1 263e 8136 053e 98f6 933d 810d ce3d
00000280: 2342 dc3d d843 81bc 1e30 afbd 442e 90be
00000290: 43cf 41bd ee9c f93b ff52 b1bd 3875 35bd
000002a0: 19d9 06bb 6405 8dbd 04e6 3e3e 2b5d f53d
000002b0: 386a 0dbe b8a4 8ebe 105c 7a3c 3a4b 20bd
000002c0: 4356 c2bc 0eb6 eb3d e0bb f6bd 3181 4e3c
000002d0: 1767 cf3d a946 633e 3964 ba3d 9494 083e
000002e0: f0c3 fc3c 22d2 ed3d 29e7 3abd 59c0 aa3d
000002f0: d2e1 a03e 4d14 753e f9e1 a13d 4b4f d53d
00000300: 21aa 323e 9de3 4dbd ab42 17bd de99 29ba
00000310: 760c 02be 1a24 72bd 116a e5bd 4b18 87bd
00000320: 8916 1ebe ddd0 90b9 9f70 14be 9b72 e43d
00000330: d209 903c 71b5 95bb 82d8 08bd 8125 77bd
00000340: 819f 61bd d17a d7bc 02fb dfbd cbbd 7abd
00000350: d4a7 20be cce5 2cbd 443f e73d 1812 dd39
00000360: 2949 fcbd 48f0 37be de85 1e3c 5028 273d
00000370: 72bd 163e f04f 063e 824d 10be d7f2 9ebc
00000380: e72e 90bd a86c 2f3d 5013 03be 26f3 c53d
00000390: 66e9 b7bd 8333 05be ee73 e03c 9e6a 893d
000003a0: 644f 4c3d e221 043e f21e 22be 7136 d4bd
000003b0: 1d85 813d 6697 d63d e791 e63d b42d a33d
000003c0: 30bd 653d 8217 49be f07e cb3d d82d 54bd
000003d0: 8fb2 033d 473e 3a3c 7f6c 84bd f087 0a3e
000003e0: 2983 ce3c 8aa0 06bd 2dcf abbd 721b 4e3d
000003f0: e931 0fbe 7dd4 87bd 2a04 acbd 1fb2 133e
0.1363119 -0.06113603 -0.053828955 -0.11698993 0.05406457 0.1714385 0.106420666 0.048384044
-0.122290485 -0.23827122 0.07781494 0.003500919 -0.1589046 0.19626723 0.37118855 -0.06416626
-0.16442174 0.16519308 -0.2323021 -0.104453504 -0.13115017 0.06375174 -0.1036858 0.03384506
-0.22536103 0.023407951 -0.059863806 0.26021492 -0.11899899 -0.008619093 -0.2418887 0.054514617
0.13265845 -0.08525242 -0.03205212 -0.14049487 0.12829962 0.1786511 0.1760079 0.10152044
-0.26595542 -0.16932888 0.062213644 0.058198042 0.09307972 -0.05810063 -0.025920171 -0.061418194
-0.103100404 -0.0996865 -0.022783395 -0.07718484 0.0057640327 0.118704334 0.05762589 0.17142375
0.22121525 -0.113303065 -0.03760515 0.09670436 0.12324506 -0.13452312 0.08771269 0.12427786
0.05039535 0.080550395 -0.041900616 0.0069634807 0.088097095 -0.06927351 0.079085626 -0.106095165
-0.106875926 -0.019677486 0.06825965 0.029964248 -0.055762973 0.17088586 0.13473688 0.16241875
-0.17176385 -0.10582972 0.026819732 0.04439034 0.02693336 0.05212978 -0.15532869 -0.017139494
-0.13083348 0.039800454 -0.0963877 -0.08741993 -0.10004888 0.030066846 -0.04077878 -0.009267795
0.094848886 -0.025476899 0.028635377 -0.14289467 0.04862633 0.12482286 -0.047204938 0.01633914
-0.014365564 -0.07950587 0.049332026 0.0048498767 0.036670335 0.0035462102 -0.012800688 -0.11894444
-0.046985436 0.07548 -0.013331647 -0.040872607 -0.14868571 0.04345569 0.08629692 0.09847848
0.09643881 0.10353447 -0.008023994 -0.019044038 0.006360098 0.05918333 -0.093160786 0.10296259
-0.13303143 0.08745963 0.093894236 0.2388082 0.0823775 0.012942228 0.27812183 0.20071201
-0.09594045 -0.015141814 0.53639597 -0.22350281 0.1101739 0.07979859 0.13091856 0.050489996
-0.30631638 0.09024637 0.05093115 -0.048150994 -0.03262354 -0.1897003 -0.22757192 0.33167705
-0.24360667 -0.053360164 -0.090931594 0.035236765 0.16296881 0.13009073 0.072247684 0.100611694
0.10754802 -0.01577942 -0.085540995 -0.28160298 -0.0473168 0.0076175844 -0.086584084 -0.04430124
-0.0020576178 -0.06885794 0.18642431 0.11980661 -0.1381005 -0.27860045 0.0152807385 -0.03913424
-0.023722773 0.115093336 -0.12047553 0.012604044 0.10127085 0.22194923 0.09101147 0.13337928
0.030855149 0.11612345 -0.045630608 0.08337469 0.31422287 0.23933525 0.07904429 0.104155146
0.17447712 -0.050265897 -0.036928814 -0.00064697664 -0.12700066 -0.05911646 -0.11201871 -0.065964304
-0.15438284 -0.00027621436 -0.14496087 0.11154672 0.017582808 -0.0045687486 -0.033409603 -0.0603385
-0.055083755 -0.02630368 -0.10936548 -0.061216157 -0.15689021 -0.04221134 0.11291364 0.00042165886
-0.12318642 -0.17962754 0.009675471 0.04080993 0.14720705 0.13116431 -0.14092067 -0.019402904
-0.07040196 0.042828232 -0.12800336 0.096655175 -0.08980064 -0.13007931 0.02739903 0.06709789
0.0498804 0.1290355 -0.15832117 -0.103619464 0.063242175 0.10478096 0.112582974 0.079677016
0.056088626 -0.19637874 0.09936321 -0.051801533 0.03215271 0.011367387 -0.064660065 0.13528419
0.025209026 -0.032867946 -0.08389125 0.050319143 -0.13983883 -0.06632326 -0.08399232 0.14423417

edge_layers.0.transformer_encoder.layers.0.linear1.bias f4 [64]
00000000: 173a febd 1dde e9bd 470a 8b3d da95 1c3d
00000010: 9db5 b8bd 7f21 4ebe 7d0f 963b 465b b1bc
00000020: 8a76 dbbd 92c3 edbd a83c 0abe 979d 55be
00000030: 9a7f bbbc 9663 a93c dc0a d3bd eb54 c1bd
00000040: 75b9 9e3d 723a 1dbd a111 7abd e369 01be
00000050: 311f 5dbe f97d 06be fad4 4abd ac58 08be
00000060: d4bb 2ebe 08d2 47be 3cdf b7bc 993a 11be
00000070: 271c 93bd d9dd ebbd 8810 1cbd a907 1cbd
00000080: 9f56 f93c 5666 44be 3bfc 99bd c27b 06be
00000090: 24a9 eabc 1f54 4cbe 0593 96bd eb5e 1dbd
000000a0: 8a23 dbbd 3048 1abe 72a3 783d 1cf8 f8bd
000000b0: 457a 5abe d049 a9bd 1e99 dcbb 0448 f3bd
000000c0: 6f5f 72bd 34c1 bdbd e31f 523c bbee 0dbd
000000d0: 3c19 a73d 57cb 893d 8a1b 023e 2bf9 62bc
000000e0: 7c6c abbd d94a ebbc 687d aebd 538a aebd
000000f0: 9953 6f3a a862 cebd a1a4 abbd aa41 70be
-0.124134235 -0.11419318 0.067890696 0.038228847 -0.09019015 -0.20129965 0.004579483 -0.021649968
-0.10715969 -0.11609568 -0.13499701 -0.20860897 -0.022887994 0.02067737 -0.10304806 -0.09440025
0.07750217 -0.038385816 -0.06105197 -0.12638049 -0.2159393 -0.13133992 -0.049519517 -0.13315076
-0.17063838 -0.19513714 -0.022445314 -0.1418251 -0.07183104 -0.115169235 -0.038101703 -0.038093243
0.030436812 -0.19179663 -0.07518812 -0.13133147 -0.028645106 -0.19953965 -0.073522605 -0.0384206
-0.10700138 -0.150666 0.06070275 -0.12156698 -0.21335705 -0.08266032 -0.00673212 -0.1187897
-0.059173044 -0.09265366 0.012824985 -0.0346515 0.0815911 0.06728237 0.12705818 -0.013853352
-0.08370301 -0.028722214 -0.08520013 -0.08522477 0.00091295835 -0.10077411 -0.0838101 -0.23462549

edge_layers.0.transformer_encoder.layers.0.linear2.weight f4 [64, 64]
00000000: c243 a33c 6e12 63bd 0533 76be 2096 fe3c
00000010: b6a8 1bbe 8a86 b53d c906 103d 9ada adbc
00000020: ebb7 d1bd a4d1 113e f975 5a3d 6036 de3b
00000030: fda8 6bbd 5425 713d 71ad 123e 9278 603c
00000040: 2b2d fe3c b4d7 713d 11c9 ca3d 2e4b bdba
00000050: 78c8 17bd 5dfb 07be 8dee 15be 834f 2fbe
00000060: 7781 1b3d 9718 a23d cf2d 2a3d 3a8a 073e
00000070: 0e72 c0bd a4b0 9b3c d841 8cbd ee5c 4b3e
00000080: b2f1 acbd 9f6f 13be 571e 9dbd a743 a5bd
00000090: f6bd 2abe 9d44 a33c 080f ad3d 2f1f 783d
000000a0: 9e4a 9d3d eb7a 8e3d 3436 19be 1b69 9e3d
000000b0: 41db 60bd a678 cbbc f91c fb3b a1b8 8bbd
000000c0: c472 46bd 0d8a b1bd 76d4 3bbd 3b34 ccbd
000000d0: 5c4b 56bd 6b75 e8bd ac9e 2c3e 8d0d 17bd
000000e0: e4ca 16be 69d9 db3d 48bf cbbd 1f86 2fbd
000000f0: 8901 093d 7e0c 523d d5c0 573d 6e98 973d
00000100: 7289 29bd 1f4b b23d 723f 5dbd 0656 6ebd
00000110: dd9a 6d3d c07d 993d f6b0 d63d bcd7 e8bc
00000120: 8042 663d cf1b 46bc 2b51 0e3d 52dc c73d
00000130: 9e01 a4bd 358a 49bd cad5 66be 3b34 883c
00000140: 9bbf 903d 8da0 a33d 57bf 9abd 1695 983d
00000150: 38db 59bd 454c 87bc 28c9 3bbd 8336 b7bd
00000160: 3c21 f23c 5942 0cbe 69e6 a4be d8fd a3bd
00000170: 4b9e 81bd c7d4 873d 014c d93d 551f b53c
00000180: a566 31be 40d8 3ebe f67c 893d b9a5 ac3b
00000190: d411 c93d 2f75 e93d 73cb 913d 0c26 4c3d
000001a0: e6e7 d73d 26b5 42be b1b8 563e eb92 163e
000001b0: 4514 1b3e c00f 9bbd 7018 5b3d 4c7b abbd
000001c0: be7e 50bd 1175 033e c9b4 edbd c829 a43b
000001d0: 9f4b 6e3d 81a9 773d 7364 b9bd 8551 00bd
000001e0: 0f9d 14be 27b0 48bc fee9 f3bd c6e3 11bd
000001f0: 07ac 5dbe 8c12 ddbd 6bac 08bc 63e6 23be
00000200: adc8 823d 380b 38bd dc81 62bd f455 94bd
00000210: eceb aabc d5ae 5c3c 1e82 7dbd 89fe 8dbd
00000220: 2dab 94bd 33ac b8bd d665 e33d 92c2 da3c
00000230: d7e7 b63d 9df2 053d 9145 0b3e ce0b 033e
00000240: b4a3 f33c 5f32 d1ba ce2b 94bd ec0b 18bd
00000250: ff07 e2bd 72b2 443c 0555 e4bc a01b 9cbd
00000260: 22d1 4fbb 8dc6 a13d 7147 853d c39f 8e3c
00000270: af61 2c3d d1ef c5b9 57aa 08bd fb6d b03d
00000280: c283 f4bd 3b0b 323e a99e bb3d 134d 03be
00000290: c5cd 13bd b0c2 353b a588 7c3c a3cc ad3d
000002a0: 23c4 7dbd 9f6d f93a 8336 c33d 23d0 aebd
000002b0: 554c b0bb 356e 973d 0362 a73d 807f 5f3c
000002c0: fb74 b23c 63f9 25bd 7eec 413d dd32 3b3d
000002d0: 2ac4 c3bd bc1c d8bd e811 363d 1a75 dbbc
000002e0: f60f 7cbb 1d4b efbd 2348 8e3d 378f 883d
000002f0: 921e 033e 35ef 143e 6f52 0bbe a103 24bd
00000300: 932f c83e 2073 813e 5127 0a3f c820 33bb
00000310: 6e15 8bbd b85c 11bd b636 4c3e c3dc c2bc
00000320: 4018 023f ed55 eb3d 8d34 64bd 8b15 e3bd
00000330: c882 323e 1fc1 7a3e 3bd6 86bd bb79 d53c
00000340: 1027 953e bad2 bf3d 218d d5b8 0b6b 86bc
00000350: 5822 cd3d 3087 a03e f8c2 993d 241f ef3e
00000360: ac92 dabd a88f 33bc 0106 f03d 3921 8a3c
00000370: d08e c23e dc3c 2f3c e3e6 a53e 547f 183e
00000380: cd98 503e 1b17 ca3d 7e34 d63d 2299 1d3d
00000390: 6be4 bc3e 4f39 573d 15ed a4bc 0305 51bd
000003a0: 12d2 e5bd 1aee 74bd 74a0 97bd 107e 3d3d
000003b0: d7b1 ae3c e8c5 e23d 7e50 6f3d d167 7f3e
000003c0: da9e b03d 442a aa3a 1ba2 c53d 257e 2abd
000003d0: a9d5 c83e c685 e73e ce74 1d3e 9cd5 a43d
000003e0: bfb5 943e 3745 ebbb eab1 093d acf8 7cbd
000003f0: 44be e93d 2842 02bb b844 e13d 8949 9e3d
0.01992977 -0.055437498 -0.240429 0.031077445 -0.15201077 0.08863552 0.03516272 -0.021222401
-0.10240158 0.14240128 0.053335164 0.0067813843 -0.057534207 0.05887349 0.14323975 0.013700621
0.031027397 0.0590436 0.099016316 -0.0014441961 -0.037056416 -0.13279481 -0.14641781 -0.17120175
0.037965264 0.079148464 0.041547593 0.13236323 -0.09396754 0.019005127 -0.06848496 0.19859669
-0.08444537 -0.14398049 -0.076718025 -0.08069544 -0.16674027 0.019930178 0.084501326 0.060576614
0.07680248 0.069570385 -0.14962083 0.07734891 -0.054896597 -0.024837803 0.007663366 -0.068223245
-0.048449293 -0.08668909 -0.045856915 -0.099709 -0.052317962 -0.11350521 0.16857404 -0.036878157
-0.14725834 0.10734827 -0.099485934 -0.042852517 0.03344873 0.051281445 0.052674133 0.074021205
-0.041390844 0.087057345 -0.054015584 -0.058187507 0.058009017 0.07494688 0.10482971 -0.028423183
0.056215763 -0.012091591 0.034745377 0.0975882 -0.08008121 -0.04920407 -0.22542492 0.016626468
0.07067796 0.07989607 -0.075560264 0.07450311 -0.05318758 -0.01651586 -0.045846134 -0.08945944
0.029556863 -0.13697185 -0.3220704 -0.08007401 -0.0632902 0.06632381 0.106102 0.022109667
-0.17324312 -0.1863718 0.067132875 0.005268779 0.098178536 0.11399304 0.07118883 0.04984097
0.10542278 -0.19014415 0.20968892 0.14704482 0.15144451 -0.075713634 0.053490102 -0.083731264
-0.05090212 0.12837626 -0.11606748 0.0050098635 0.058177587 0.060464386 -0.09052362 -0.031327743
-0.14513038 -0.012249029 -0.11909865 -0.035617612 -0.21647654 -0.10794553 -0.008341889 -0.16005854
0.06385932 -0.044932574 -0.055299625 -0.07242957 -0.02086445 0.013469418 -0.061891668 -0.06933314
-0.07259212 -0.090172194 0.11103408 0.026704106 0.08930939 0.032702077 0.13600756 0.12797472
0.029741146 -0.0015960446 -0.072349176 -0.037120745 -0.110366814 0.012005435 -0.027872572 -0.076224566
-0.0031710346 0.07899199 0.06507767 0.017410165 0.042085346 -0.00037753445 -0.033365574 0.08614727
-0.11939193 0.17387097 0.091611214 -0.1282237 -0.03608491 0.002773445 0.015413438 0.08486297
-0.06195463 0.0019029862 0.09531882 -0.08535793 -0.0053801932 0.07394067 0.08172991 0.013641238
0.021784296 -0.040521037 0.047344677 0.045702804 -0.095589 -0.10552356 0.04445067 -0.026789237
-0.0038461662 -0.116842486 0.06947353 0.06667941 0.1280463 0.14544375 -0.13605665 -0.040042523
0.39098796 0.25283146 0.5396624 -0.0027332772 -0.06791197 -0.035488814 0.19942746 -0.023786908
0.5081825 0.114909984 -0.05571418 -0.11088093 0.17432702 0.24487732 -0.0658383 0.026059022
0.29131365 0.09366365 -0.00010182919 -0.016408464 0.10016316 0.3135314 0.075078905 0.46703446
-0.10672507 -0.010959543 0.11719895 0.016861545 0.37999582 0.010695662 0.32402715 0.14892322
0.20370789 0.09867688 0.10459231 0.038476117 0.3689302 0.052544888 -0.02013258 -0.05103017
-0.11221708 -0.059797384 -0.07403651 0.0462628 0.021325035 0.11072904 0.058426373 0.24941947
0.086240485 0.0012982567 0.0965006 -0.041624207 0.3922551 0.4521925 0.15376589 0.08048555
0.2904491 -0.007179882 0.033616938 -0.06176059 0.114132434 -0.0019875858 0.10999435 0.077288695

edge_layers.0.transformer_encoder.layers.0.linear2.bias f4 [64]
00000000: 9fda bd3d 7dc8 33bc c449 28bd 5eee 573c
00000010: 5534 76bd 6e4c 923d 9d4c 7ebd 3b2e 993d
00000020: 414b 943d d1bd ca3d 5dbb 803d cdc9 c8bc
00000030: 9c1e 663c 9195 33bd fc40 a0bd 204b 053d
00000040: ad65 d7bd 01b0 ff3d 9900 b0bd 3828 a13c
00000050: 1dec 223d 96ad febd 5777 c4ba 2ed1 4cbd
00000060: 54fd ddbd fcda 5ebd a423 b9bc 72a4 27bd
00000070: 009b 43bc a925 27bd 46c1 b3bd e317 033d
00000080: bd08 dc3c f19a 99bd e6a4 933d 1b02 fcbd
00000090: 2ba0 ccbd 1f6b 8cbd d0ea 7a3d 24b8 1d3c
000000a0: 7ecf ed3d 7dc9 9f3d a8e5 c1bd 9dc3 25be
000000b0: d5dd 7ebd d2bb 99bd d330 57be d3d6 273d
000000c0: 378a 773d 479d 8c3d d9e6 6ebd 2e77 07be
000000d0: bf1f bd3d 365a 993d fa11 85bd b36e f73c
000000e0: eda3 423d acc9 88bd 131c 09be fd9c 84bb
000000f0: b125 973c 0826 2a3e 3d39 7fbd 72c0 c43c
0.09270214 -0.010973093 -0.041085973 0.01317939 -0.0601085 0.07143484 -0.062084783 0.07479521
0.07240916 0.09899486 0.06285737 -0.024510289 0.014045384 -0.04384381 -0.07824895 0.032542348
-0.1051744 0.12484742 -0.08593864 0.019672498 0.039775956 -0.12435453 -0.0014989179 -0.050004177
-0.10839334 -0.05440806 -0.022600003 -0.04092831 -0.01193881 -0.0408074 -0.08777098 0.032005202
0.026859635 -0.07500256 0.07209186 -0.12305089 -0.09991487 -0.06856369 0.06125909 0.009626422
0.116118416 0.07802103 -0.094676316 -0.16187902 -0.062223274 -0.07506527 -0.21014719 0.040976357
0.060434546 0.06865936 -0.058325622 -0.13229057 0.09234571 0.074879095 -0.064975694 0.030204153
0.047519613 -0.06679091 -0.13389616 -0.004047035 0.01845059 0.1661607 -0.062310446 0.024017546

edge_layers.0.transformer_encoder.layers.0.norm1.weight f4 [64]
00000000: 2e72 7e3f 606d 4e3f a3fb 583f 7c9d 523f
00000010: fd19 803f 9a69 4a3f 6294 8d3f 821e 423f
00000020: ce4b 833f ca44 823f e3bf a13f e101 933f
00000030: 18b3 823f 7aa6 7b3f 61d6 813f 32c3 783f
00000040: 3530 823f b12d 6e3f c547 5d3f 92be 663f
00000050: 6c63 683f 0004 8d3f c7d5 843f eb93 973f
00000060: c506 7c3f ac5b 293f 2525 793f b6f7 443f
00000070: 058b 623f 7fea 833f 8bb3 803f f063 413f
00000080: 4342 603f eef0 703f 6411 4b3f aedb 893f
00000090: 527a 733f 619b 323f 2817 763f 69ea 8b3f
000000a0: a5b8 803f 39c0 7d3f bac0 893f 95db 883f
000000b0: d485 773f a3bd 853f 7626 713f a98e 843f
000000c0: d333 503f 2006 823f 31eb 863f 2494 883f
000000d0: 8925 4f3f a59f 713f 68e7 823f 1360 703f
000000e0: 3877 6b3f ade9 4f3f 885d 883f 737c 513f
000000f0: 4990 913f 099c 823f daf2 813f 5518 8d3f
0.99392974 0.80635643 0.8475897 0.8227155 1.0007931 0.79067385 1.1060908 0.758278
1.0257509 1.0177243 1.2636684 1.1484948 1.0210905 0.983009 1.0143548 0.97172844
1.0170962 0.9303847 0.86437637 0.9013454 0.90776706 1.1016846 1.037774 1.1842016
0.9844783 0.66155505 0.97322303 0.76940477 0.88493377 1.0305938 1.0054792 0.7554312
0.8760111 0.9411763 0.7932341 1.0770166 0.9510852 0.6976834 0.96129084 1.0930911
1.0056349 0.99121433 1.076194 1.0692011 0.9668858 1.0448498 0.9419931 1.0356036
0.8132908 1.0158119 1.0540525 1.0670209 0.8091665 0.94384223 1.022687 0.938966
0.9197879 0.81215936 1.0653543 0.8183052 1.1372157 1.0203868 1.0152237 1.102305

edge_layers.0.transformer_encoder.layers.0.norm1.bias f4 [64]
00000000: 2d1b 92bd 73cc 4c3d da5e 273b a3c1 3a3d
00000010: ff27 82bc 5547 a73d 062f 16bd fd48 843d
00000020: c881 1fbd 5be9 54bd 35a1 c1bc b68f f1bb
00000030: 8849 78bc c3d9 253c 5d52 cbba d19e aebb
00000040: efc2 21bd 5b44 453d cb4a c7bd e982 9e3d
00000050: 8fc8 a83d 112d 313c 21da 0cbd 7bb8 72bc
00000060: a341 84bd 35be c23d 1cc2 9abd 50f9 b03d
00000070: 143f 8e3c 257a b93c 7751 60bc 9bdd 693d
00000080: c041 923d 613a 493d d4f0 b43d c6ad c9bc
00000090: 5924 3c3d f954 1d3e c1df 76bc bba9 e6ba
000000a0: f066 c9bc 87ba 94bd 6f64 49bd b11f a9bd
000000b0: 56a2 9a3c c21e dabc be2f a7bc 45dc 25bc
000000c0: 35d7 343d ef76 023d e1ee 203d 00b4 e93c
000000d0: 6bf1 9c3c c024 c23c 9c82 043c 804e f6bc
000000e0: 1f4a 233d feda 5e3b c37d 78bd 53da 3f3d
000000f0: e071 d93c 464a cb3c 4077 473d a313 e2bc
-0.071340896 0.049999665 0.0025538714 0.045594823 -0.015888212 0.081679024 -0.03666594 0.06459234
-0.03894213 -0.051980358 -0.02363644 -0.007371868 -0.01515425 0.010122719 -0.0015512217 -0.005328991
-0.039492544 0.048160892 -0.097310625 0.07739813 0.082413785 0.010813967 -0.03438771 -0.014814491
-0.06457832 0.09508935 -0.07556555 0.086413026 0.017364062 0.02264125 -0.013691298 0.057096105
0.07141447 0.04912794 0.08834997 -0.024618994 0.0459331 0.15364446 -0.0150679955 -0.0017598191
-0.024585217 -0.0726214 -0.049168047 -0.08257998 0.018876236 -0.026625995 -0.020408507 -0.010123317
0.04415055 0.031851705 0.039290313 0.028528214 0.019158086 0.023699164 0.00808778 -0.030066729
0.03986561 0.0034005041 -0.06066681 0.04683907 0.026543558 0.02481569 0.04869771 -0.027597254
