experiment/phish_eth/GTEA-LSTM/GTEA-LSTM_checkpoint.pt (torch_old, 389903 bytes, 28 tensors)

edge_layers.0.lstm.weight_ih_l0 f4 [256, 3]
0.044598073 -0.010410836 -0.35729268 0.078198135 0.4000965 0.11223938 0.008848025 -0.15761207
-0.36105582 0.15795651 -0.112670764 -0.5608874 0.22103111 0.23724817 -0.33197892 -0.08693187
0.21728979 -0.17655535 0.34955993 0.08936154 -0.31918803 0.04230594 -0.1554616 -0.29688156
0.23513459 0.12527953 -0.05230512 -0.3826524 -0.19223697 0.2636191 -0.04235582 0.23262003
0.016443357 0.031526983 0.33567786 0.13484666 0.080581374 0.2052759 -0.32414976 0.067094564
0.10371174 -0.2918942 -0.037377585 0.41970617 0.09894667 -0.0022646873 0.41227105 0.14984752
0.12085481 0.24890459 -0.0023237478 0.02645197 0.07016603 -0.10899174 -0.07118002 0.30080056
0.039997686 -0.021918971 0.18234143 0.23850134 0.09155269 0.16152261 -0.17284863 0.12444564
0.19013391 -0.024318472 -0.06820043 0.28684035 -0.041576896 -0.12503186 0.1183835 -0.125289
0.09559302 0.4144894 0.19282858 -0.36262077 -0.12734912 -0.01387571 0.42033815 0.10209945
-0.32281005 0.03067199 0.014749641 -0.46956897 0.053556256 0.29457116 0.07636698 0.057666685
0.26614568 -0.1910781 -0.09259185 0.30813307 0.1636439 0.00046139362 0.055371575 -0.04225988
0.04064292 0.22966845 -0.20936115 0.07212196 0.08522923 -0.08317325 0.12708713 0.3143657
-0.06667932 0.08702583 0.16932195 -0.060794715 0.09128487 0.13643025 -0.15121503 -0.042419113
0.19529788 -0.1339176 0.05797281 0.18467285 0.14169236 0.098608755 0.40047377 -0.062610514
-0.13752618 0.36807466 0.2262568 -0.10890613 0.1858744 -0.38536692 0.08108211 0.25051424
0.08206328 0.09385307 0.33733824 -0.08785045 0.052091572 0.15193546 -0.122877434 0.031143399
0.2202511 0.08174925 0.16908804 0.2761143 -0.14420763 -0.009920372 0.13788748 -0.16980043
-0.117187776 0.3232655 0.11095357 0.034460902 -0.022194585 -0.42529088 0.09451285 0.35711837
-0.16262048 0.28861538 0.3399572 -0.10996866 -0.043272022 0.42063782 -0.11602213 -0.09093919
0.33648914 -0.02545013 0.29748702 0.28959084 -0.16106921 0.120018825 -0.023728417 -0.23428321
-0.25301856 0.047139186 -0.16050057 0.19397604 0.049923427 -0.4729974 0.23006211 0.1822903
0.10386534 -0.07330835 0.17850913 0.234621 0.017324911 0.27889434 0.006284808 0.23679696
0.34194523 0.000692268 -0.105458446 0.13487512 -0.096106105 0.051768195 -0.05295262 -0.4644962
0.072238564 0.014881168 -0.10088697 -0.15826002 0.025432425 -0.11941266 -0.089078255 0.042803623
0.028934697 0.21236123 -0.13864118 0.073286295 -0.049986754 0.15015276 0.12515956 -0.067621924
0.009503756 -0.03548054 0.13829154 -0.22076064 0.12898684 0.06487384 -0.19620475 -0.13133027
0.0052286657 0.20983885 0.069851235 0.09233665 -0.15349358 -0.13926801 0.074573174 0.08607226
0.034446824 -0.01743149 0.14970729 0.10129185 0.03172043 0.11138658 -0.19185251 -0.14184365
-0.027324056 0.0058180215 -0.08027781 7.0498376e-05 0.030085059 -0.108851455 0.10615813 0.05106495
-0.1284668 0.14804122 -0.06652431 0.007102985 0.03356173 -0.002410686 -0.035970178 0.15512133
-0.044408657 -0.031897955 0.011082781 -0.06312126 0.018206218 0.2124936 0.008970457 -0.15044552
00000000: 78ac 363d 3692 2abc 11ef b6be 5826 a03d
00000010: 73d9 cc3e c3dd e53d 4ff7 103c 0f65 21be
00000020: 4fdc b8be 5abf 213e eebf e6bd 5196 0fbf
00000030: fb55 623e 2ff1 723e 24f9 a9be 5609 b2bd
00000040: 3781 5e3e edca 34be 85f9 b23e 2f03 b73d
00000050: 9d6c a3be fe48 2d3d 5331 1fbe dc00 98be
00000060: 1fc7 703e 4749 003e e53d 56bd 04eb c3be
00000070: c5d9 44be 15f9 863e 4c7d 2dbd f233 6e3e
00000080: 38b4 863c 7022 013d f8dd ab3e 3e15 0a3e
00000090: d907 a53d d833 523e f5f6 a5be e068 893d
000000a0: d266 d43d 2873 95be 3d19 19bd bae3 d63e
000000b0: 8da4 ca3d 266b 14bb 3115 d33e a171 193e
000000c0: ba82 f73d d8e0 7e3e 054a 18bb cdb1 d83c
000000d0: 35b3 8f3d 1037 dfbd d5c6 91bd 8802 9a3e
000000e0: 9dd4 233d 6a8f b3bc b6b7 3a3e b239 743e
000000f0: fa7f bb3d 2f66 253e 3bff 30be 5bdd fe3d
00000100: 77b2 423e 8837 c7bc abac 8bbd bddc 923e
00000110: 894c 2abd 5a08 00be 0c73 f23d c24b 00be
00000120: 46c6 c33d f437 d43e db74 453e 6ea9 b9be
00000130: cf67 02be f256 63bc 9036 d73e 8419 d13d
00000140: 5c47 a5be d343 fb3c 7aa8 713c 586b f0be
00000150: ce5d 5b3d 08d2 963e 4b66 9c3d e733 6c3d
00000160: 3f44 883e faa9 43be cca0 bdbd 9ec3 9d3e
00000170: 4492 273e 34e7 f139 4ecd 623d b218 2dbd
00000180: 3179 263d 352e 6b3e c562 56be aeb4 933d
00000190: aa8c ae3d bd56 aabd 2123 023e 8bf4 a03e
000001a0: 2b8f 88bd 993a b23d bc62 2d3e e103 79bd
000001b0: 90f3 ba3d 5fb4 0b3e 1dd8 1abe aabf 2dbd
000001c0: 2bfc 473e b221 09be e674 6d3d e11a 3d3e
000001d0: cd17 113e 63f3 c93d e60a cd3e f139 80bd
000001e0: aad3 0cbe 4874 bc3e ddaf 673e 2d0a dfbd
000001f0: dc55 3e3e d04e c5be 610e a63d 6743 803e
00000200: cb10 a83d 0a36 c03d 99b7 ac3e f0ea b3bd
00000210: f95d 553d f894 1b3e 2aa7 fbbd 7120 ff3c
00000220: 8189 613e 276c a73d 6a25 2d3e db5e 8d3e
00000230: 2aab 13be 0e89 22bc 6032 0d3e 2ae0 2dbe
00000240: 2500 f0bd 0e83 a53e a03b e33d e026 0d3d
00000250: 6bd1 b5bc babf d9be f48f c13d 38d8 b63e
00000260: fc85 26be 65c5 933e df0e ae3e 4037 e1bd
00000270: 013e 31bd d75d d73e 039d edbd 533e babd
00000280: 4e48 ac3e cb7c d0bc 3850 983e 4045 943e
00000290: 54ef 24be 6ecc f53d 1962 c2bc f0e7 6fbe
000002a0: a68b 81be 0515 413d 435a 24be a8a1 463e
000002b0: 827c 4c3d b72c f2be 6795 6b3e 4faa 3a3e
000002c0: 5ab7 d43d b022 96bd 19cb 363e 7d40 703e
000002d0: f9ec 8d3c 3dcb 8e3e caf0 cd3b e77a 723e
000002e0: 7213 af3e 5279 353a 99fa d7bd b41c 0a3e
000002f0: 47d3 c4bd e30a 543d d9e4 58bd 72d2 edbe
00000300: d0f1 933d 24d0 733c d49d cebd ea0e 22be
00000310: a957 d03c a08e f4bd a96e b6bd da52 2f3d
00000320: 7508 ed3c 3975 593e f4f7 0dbe 2017 963d
00000330: e9be 4cbd a5c1 193e d429 003e 5d7d 8abd
00000340: a4b5 1b3c 0b54 11bd 4c9c 0d3e 140f 62be
00000350: 2015 043e 93dc 843d e6e9 48be 717b 06be
00000360: 3a55 ab3b ffdf 563e 2a0e 8f3d ff1a bd3d
00000370: 6c2d 1dbe 469c 0ebe d2b9 983d a746 b03d
00000380: 1d18 0d3d 7ccc 8ebc de4c 193e 1a72 cf3d
00000390: 48ed 013d a61e e43d fc74 44be 763f 11be
000003a0: b3d6 dfbc 1aa5 be3b b168 a4bd 87d8 9338
000003b0: f174 f63c 83ed debd 6f69 d93d 7b29 513d
000003c0: cd8c 03be 1e98 173e e63d 88bd 28c0 e83b
000003d0: 0678 093d 9afc 1dbb 7755 13bd 20d8 1e3e
000003e0: dae5 35bd 6ea7 02bd 8d94 353c b845 81bd
000003f0: 3525 953c ec97 593e d3f8 123c 640e 1abe

edge_layers.0.lstm.weight_hh_l0 f4 [256, 64]
-0.0739643 0.016008582 0.088462695 -0.028586552 -0.0831034 0.010530035 -0.028031776 -0.065420255
0.018608637 0.08362079 0.13401484 0.18442656 0.09003409 0.04645856 -0.096208856 -0.009652694
0.10598957 0.034984898 0.18105097 -0.080587536 -0.046886288 -0.15802236 -0.006594592 -0.05358851
-0.033847414 -0.12240282 0.014273479 -0.026267521 0.107730635 -0.021980854 0.04614126 0.0032969848
0.10585126 0.087930895 0.012143907 -0.19663714 -0.12529938 0.022255296 -0.0034175508 -0.030223224
0.21527839 -0.0049158074 0.17144717 -0.007264086 -0.14881082 0.060367525 -0.12775804 -0.22588617
0.036145233 -0.16546284 0.15548465 -0.0020511823 0.00072752003 0.13058665 -0.12538303 -0.13020524
-0.16024648 -0.09565612 -0.20477931 -0.19317849 0.012946729 -0.005522859 0.22904208 0.09636959
0.10406991 0.054872215 0.048147388 -0.026037555 -0.096029945 0.1168041 0.04968729 -0.0790203
0.02392895 -0.08298537 -0.020626826 0.05680195 -0.08482936 -0.06369816 -0.022937944 -0.062191825
-0.04181244 -0.095005125 0.07897423 0.017561374 0.015585822 -0.107232876 -0.09620403 0.110570975
-0.06282663 -0.06554577 -0.09685175 0.03920034 0.07865666 0.048952706 -0.07728631 -0.006757005
0.13783619 -0.07699724 0.0527905 0.12337832 0.104973555 0.037279043 0.013593957 0.038617052
-0.060136743 -0.07317159 -0.111839846 0.030293705 -0.027932009 0.004367039 -0.030150687 0.010122417
0.07555671 -0.062056746 -0.113438495 0.07397369 -0.023918737 0.035346165 0.028333372 -0.10187934
-0.1452461 -0.13226539 0.063625805 0.077651106 -0.10765096 0.05602887 0.008075456 0.10881626
-0.12687925 -0.03534211 -0.11023484 -0.08184955 0.02921276 -0.13045782 0.15875043 0.0704972
-0.09499749 0.18229567 0.27838764 0.019116668 0.068987 -0.042327065 -0.099113695 0.122352794
-0.026151355 -0.11821178 -0.06250355 -0.12895383 0.11975086 -0.0013335122 -0.0891073 -0.11672845
-0.13341825 -0.109638564 0.15952934 0.06998326 0.15761025 0.06044075 0.092278644 -0.0820769
0.07907132 -0.0011068817 -0.15102541 -0.099198155 -0.14343582 -0.044868007 0.14368907 0.084589355
0.06911772 -0.031953007 0.12010912 -0.05310384 -0.05268951 -0.013424079 -0.07847467 -0.102004364
0.11557176 -0.07619964 0.07439536 -0.04572731 -0.125294 0.14355403 -0.028697025 -0.030118866
-0.11004543 -0.08208531 -0.029670702 -0.057161137 0.041143436 0.007575401 -0.005198122 -0.11501363
0.038473915 0.038218528 -0.105754085 -0.08075535 -0.24540603 -0.23359275 0.02037638 0.0043039005
-0.050101116 0.046664674 0.2457266 0.112378165 -0.1804898 0.018332904 -0.15050119 0.29172543
0.23795705 -0.09350284 0.22789 -0.0941406 0.22881094 -0.13064227 -0.27995557 -0.0564622
-0.25193998 -0.1574096 0.11199486 0.009241592 0.054963697 0.22008409 0.13695264 -0.13523334
-0.14681871 0.032562256 -0.18169823 -0.23809455 -0.16557765 0.03861683 0.085917205 0.044582825
0.27946258 -0.14455491 0.24842404 0.12792236 -0.19029261 0.11816361 -0.07134293 -0.039820645
0.18791075 0.13810922 0.16023424 -0.035401538 -0.17891383 0.11803436 -0.09349724 0.012227479
0.07783082 0.067675754 -0.228607 -0.24138139 0.1567028 -0.18558419 0.23134498 0.01611471
00000000: 987a 97bd 6e24 833c ee2b b53d 582e eabc
00000010: 1e32 aabd 2b86 2c3c e5a2 e5bc 0efb 85bd
00000020: 2471 983c 6041 ab3d 303b 093e 51da 3c3e
00000030: cb63 b83d 554b 3e3d 2609 c5bd 5526 1ebc
00000040: 0f11 d93d 534c 0f3d 6d65 393e 140b a5bd
00000050: d60b 40bd 9dd0 21be 7217 d8bb a07f 5bbd
00000060: 96a3 0abd 54ae fabd 4fdb 693c fc2e d7bc
00000070: e1a1 dc3d 3111 b4bc 9efe 3c3d 3a12 583b
00000080: 8cc8 d83d 1d15 b43d 3df7 463c 3f5b 49be
00000090: 7b4e 00be bd50 b63c fdf8 5fbb b296 f7bc
000000a0: f071 5c3e c814 a1bb d98f 2f3e 9207 eebb
000000b0: dd61 18be f043 773d 01d3 02be b44e 67be
000000c0: 060d 143d 176f 29be 5e37 1f3e 216d 06bb
000000d0: 0bb7 3e3a 82b8 053e 6964 00be 8654 05be
000000e0: a717 24be 5be7 c3bd abb1 51be 95d0 45be
000000f0: 841e 543c 19f9 b4bb 028a 6a3e 6b5d c53d
00000100: 9b22 d53d b0c1 603d 3236 453d b64c d5bc
00000110: 59ab c4bd fd36 ef3d e684 4b3d 65d5 a1bd
00000120: a506 c43c 3cf4 a9bd 97f9 a8bc 29a9 683d
00000130: 04bb adbd 2e74 82bd 5be8 bbbc dbbc 7ebd
00000140: 8543 2bbd 0c92 c2bd 3ebd a13d dfdc 8f3c
00000150: ad5b 7f3c e99c dbbd 9e06 c5bd 0973 e23d
00000160: 40ab 80bd dc3c 86bd 365a c6bd 8990 203d
00000170: be16 a13d a282 483d 4948 9ebd de69 ddbb
00000180: ee24 0d3e bbb0 9dbd da3a 583d c6ad fc3d
00000190: 60fc d63d e9b1 183d 30b9 5e3c ea2c 1e3d
000001a0: f251 76bd fdda 95bd 4a0c e5bd 812a f83c
000001b0: abd1 e4bc 6119 8f3b 93fe f6bc 7ed8 253c
000001c0: 7abd 9a3d 372f 7ebd 7152 e8bd 857f 973d
000001d0: 3af1 c3bc 24c7 103d 631b e83c 1ea6 d0bd
000001e0: 65bb 14be 9470 07be 3f4e 823d 8b07 9f3d
000001f0: 1b78 dcbd 877e 653d eb4e 043c 0fdb de3d
00000200: a2ec 01be e3c2 10bd cec2 e1bd bda0 a7bd
00000210: 994f ef3c bc96 05be 798f 223e d660 903d
00000220: 0b8e c2bd b7ab 3a3e d388 8e3e 8f9a 9c3c
00000230: 0e49 8d3d 255f 2dbd 1ffc cabd 1a94 fa3d
00000240: 5e3b d6bc 0519 f2bd dc01 80bd 790c 04be
00000250: f03f f53d 3fc9 aeba e37d b6bd 530f efbd
00000260: cb9e 08be 2f8a e0bd a95b 233e 6253 8f3d
00000270: 9564 213e b890 773d 96fc bc3d ef17 a8bd
00000280: 25f0 a13d c914 91ba 68a6 1abe 6728 cbbd
00000290: d7e0 12be 84c7 37bd 3a23 133e 2f3d ad3d
000002a0: 978d 8d3d 28e1 02bd c5fb f53d 6a83 59bd
000002b0: f5d0 57bd abf0 5bbc 54b7 a0bd aae7 d0bd
000002c0: e3b0 ec3d 8f0e 9cbd 985c 983d 8f4c 3bbd
000002d0: 124d 00be d4ff 123e 0616 ebbc d7bb f6bc
000002e0: 805f e1bd 581c a8bd f90f f3bc cc21 6abd
000002f0: 0586 283d 123b f83b 0255 aabb 448c ebbd
00000300: d396 1d3d 088b 1c3d 9995 d8bd 1063 a5bd
00000310: b84b 7bbe f032 6fbe 5eec a63c bc07 8d3b
00000320: d436 4dbd 7523 3f3d c19f 7b3e 8626 e63d
00000330: 51d2 38be e32e 963c fc1c 1abe 095d 953e
00000340: 03ab 733e 6b7e bfbd ff5b 693e c9cc c0bd
00000350: 6a4d 6a3e 16c7 05be 5656 8fbe e844 67bd
00000360: 47fe 80be fb2f 21be 905d e53d 0c6a 173c
00000370: 9d21 613d b95d 613e 503d 0c3e 9c7a 0abe
00000380: a557 16be 0060 053d 1a0f 3abe 0fcf 73be
00000390: 308d 29be ae2c 1e3d 5cf5 af3d 7b9c 363d
000003a0: b815 8f3e 3406 14be df62 7e3e 14fe 023e
000003b0: 11dc 42be c3ff f13d 3e1c 92bd f91a 23bd
000003c0: ad6b 403e 816c 0d3e 7214 243e 3401 11bd
000003d0: 3035 37be 00bc f13d 7b7b bfbd c455 483c
000003e0: c465 9f3d 9699 8a3d f417 6abe af2c 77be
000003f0: b376 203e c809 3ebe b3e5 6c3e ff02 843c

edge_layers.0.lstm.bias_ih_l0 f4 [256]
0.2351768 0.070531294 0.15888648 0.27360785 0.12684393 -0.00048089313 0.1748028 0.254122
0.051545676 0.23875625 0.15577948 0.12849967 0.31075034 0.26370534 0.07108585 0.100583516
-0.0025063169 0.28460234 0.20763661 0.21844102 0.24304219 0.2610936 0.11072909 0.21091838
0.13830286 0.39360794 0.19839047 0.25242266 0.058728766 0.06269327 0.258588 0.16397963
0.07952043 0.10564081 0.025048178 0.11596687 0.07211068 0.26332426 0.072182894 0.096448965
0.21169665 0.26979205 0.1295382 -0.03994007 0.1922345 0.1726419 0.22721235 0.40789852
0.015291898 0.27940702 0.012987651 0.05405472 0.25626665 -0.008570789 0.11279829 0.1810597
0.14991114 0.21891144 0.07725474 0.035171527 0.19332293 0.16837832 0.017753115 0.14583611
0.09060799 0.05965454 -0.08950409 -0.17225496 0.0517063 -0.04193353 -0.035007086 -0.12469983
0.13897268 0.016238475 0.05405661 -0.10248756 -0.09074384 -0.11016327 0.048285935 -0.04094926
0.04641726 0.017183907 -0.047938786 -0.20678453 -0.03379391 0.08293103 -0.089625075 0.08322578
-0.09782164 -0.014547541 0.020573752 0.07384045 0.09397293 -0.066941746 -0.06266473 -0.0021236173
0.014593482 -0.046358448 -0.12993789 -0.039263092 0.01265778 0.16166036 0.05257737 0.010850779
0.061800245 0.06527752 -0.02195414 -0.16773383 0.09636128 -0.091477 -0.020530304 0.1015226
0.041855384 -0.06826494 0.123025626 0.07832429 0.04210908 -0.13847172 -0.018392948 0.033214603
-0.043862358 -0.04897198 0.120487384 -0.033461805 -0.045136478 -0.08139332 -0.030873183 -0.14638582
0.009194871 -0.015329311 0.043430228 0.12931418 0.11373225 0.019187426 -0.1487603 -0.07698217
0.04867536 -0.07520414 -0.04676958 0.06613837 -0.04768221 0.031102156 -0.013954084 0.011040628
-0.09107684 0.0851084 -0.06274538 0.1472337 -0.14256652 0.11355923 0.020319698 0.067466445
-0.045317642 -0.023733536 -0.17058131 0.12923928 -0.10182725 -0.1509096 -0.10766223 0.09175172
0.15481462 -0.019492483 0.17425779 0.15419272 0.05956476 0.0044046007 -0.024726965 0.05183994
0.028959606 0.05002086 -0.028823214 -0.057720814 0.12769677 0.0077029048 0.14027907 -0.018858364
-0.12709098 -0.02616192 -0.121775076 0.14139295 0.14481317 -0.16896226 0.2165374 -0.06258183
0.1284794 -0.15136608 0.057050873 -0.12425796 -0.018186549 0.16351913 -0.020171301 0.1745145
0.33331683 0.12884341 0.26050103 0.2148831 0.17720503 0.23460814 0.14592671 0.25844106
0.17260216 0.12067902 0.11140014 0.15364102 0.33168727 0.29441968 0.16713639 0.05615883
0.0776665 0.2183908 0.15407296 0.102866076 0.11800909 0.03774422 -0.015583559 0.2596387
0.14775145 0.2954616 0.08482785 0.30739203 0.2089099 0.17597336 0.20585683 0.014572348
0.06157004 0.081970066 0.20916492 0.21189395 -0.006306949 0.042299565 0.121010445 0.09203286
0.1995219 0.26184043 -0.016602999 -0.0077337525 0.2012434 0.2598015 0.07259501 0.17911871
0.017882373 0.29095042 -0.005525154 0.25070816 0.24550769 -0.003276272 0.1373928 0.29307932
0.0065520057 0.13210465 0.23862359 0.082793914 0.067021325 0.06254511 0.059595924 0.27715406
00000000: 30d2 703e b672 903d 23b3 223e 5416 8c3e
00000010: 60e3 013e 6220 fcb9 81ff 323e 471c 823e
00000020: 8f21 533d 857c 743e a884 1f3e 6b95 033e
00000030: ab1a 9f3e 6304 873e 7595 913d bbfe cd3d
00000040: 0541 24bb 66b7 913e b19e 543e 01af 5f3e
00000050: 0de0 783e 0fae 853e efc5 e23d fdfa 573e
00000060: 449f 0d3e fb86 c93e df26 4b3e 8b3d 813e
00000070: 938d 703d 5465 803d a565 843e 47ea 273e
00000080: 9bdb a23d 365a d83d d631 cd3c 0a80 ed3d
00000090: c4ae 933d 70d2 863e a0d4 933d 0987 c53d
000000a0: 02c7 583e 2f22 8a3e a9a5 043e 3398 23bd
000000b0: 1fd9 443e 0ac9 303e 5baa 683e 13d8 d03e
000000c0: de8a 7a3c 700e 8f3e 28ca 543c 7b68 5d3d
000000d0: 6235 833e 7f6c 0cbc ca02 e73d b767 393e
000000e0: 4e82 193e 522a 603e bc37 9e3d 0510 103d
000000f0: 72f6 453e 5e6b 2c3e fb6e 913c 1056 153e
00000100: af90 b93d 5258 743d ec4d b7bd 9b63 30be
00000110: fcc9 533d 7ec2 2bbd 9763 0fbd a062 ffbd
00000120: db4e 0e3e 8d06 853c 776a 5d3d ffe4 d1bd
00000130: e8d7 b9bd 489d e1bd 79c7 453d 69ba 27bd
00000140: 0620 3e3d 44c5 8c3c 765b 44bd 53bf 53be
00000150: 7c6b 0abd bed7 a93d 5a8d b7bd 4772 aa3d
00000160: b656 c8bd cf58 6ebc 498a a83c a939 973d
00000170: e174 c03d c118 89bd 5e56 80bd 632c 0bbb
00000180: 8019 6f3c 5be2 3dbd 700e 05be 56d2 20bd
00000190: 9462 4f3c 4b8a 253e 5e5b 573d 77c7 313c
000001a0: 4122 7d3d 38b0 853d 2bd9 b3bc 6bc2 2bbe
000001b0: 1059 c53d 4b58 bbbd 2b2f a8bc 15eb cf3d
000001c0: 8d70 2b3d 7dce 8bbd dcf4 fb3d 7c68 a03d
000001d0: 927a 2c3d 88cb 0dbe cfac 96bc 090c 083d
000001e0: 04a9 33bd d896 48bd 17c2 f63d 3f0f 09bd
000001f0: 07e1 38bd 8ab1 a6bd c2e9 fcbc 2ae6 15be
00000200: 16a6 163c ca27 7bbc e5e3 313d f06a 043e
00000210: 74ec e83d f32e 9d3c 9f54 18be d4a8 9dbd
00000220: d05f 473d a104 9abd 7691 3fbd 8e73 873d
00000230: 6c4e 43bd f3c9 fe3c ac9f 64bc c0e3 343c
00000240: 7f86 babd 504d ae3d a680 80bd 6ec4 163e
00000250: f5fc 11be be91 e83d 7f75 a63c d92b 8a3d
00000260: fe9e 39bd d56c c2bc deac 2ebe 4d57 043e
00000270: ce8a d0bd 0c88 1abe 047e dcbd 53e8 bb3d
00000280: b987 1e3e b3ae 9fbc a270 323e b2e4 1d3e
00000290: 2efa 733d 7854 903b 3490 cabc 1e56 543d
000002a0: b23c ed3c ace2 4c3d a91e ecbc a96c 6cbd
000002b0: f1c2 023e a668 fc3b 51a5 0f3e db7c 9abc
000002c0: 2324 02be 8651 d6bc 3665 f9bd 50c9 103e
000002d0: e749 143e 7104 2dbe fbbb 5d3e e72a 80bd
000002e0: 1b90 033e b6ff 1abe 2dae 693d f57a febd
000002f0: f5fb 94bc 8f71 273e 493e a5bc eeb3 323e
00000300: 81a8 aa3e 87ef 033e 6460 853e 510a 5c3e
00000310: 3c75 353e 1e3d 703e d06d 153e 6352 843e
00000320: 9fbe 303e 9026 f73d c225 e43d 1254 1d3e
00000330: ead2 a93e 2dbe 963e cd25 2b3e cd06 663d
00000340: 9d0f 9f3d d6a1 5f3e 4dc5 1d3e 73ab d23d
00000350: c0ae f13d af99 1a3d 2f52 7fbc 5def 843e
00000360: 284c 173e be46 973e 39ba ad3d 7d62 9d3e
00000370: 7aec 553e 5c32 343e 22cc 523e dcc0 6e3c
00000380: de30 7c3d ecdf a73d 542f 563e bafa 583e
00000390: 86aa cebb 4f42 2d3d 53d4 f73d b97b bc3d
000003a0: 784f 4c3e f30f 863e 0303 88bc 6b6b fdbb
000003b0: c012 4e3e b404 853e b1ac 943d e56a 373e
000003c0: 0e7e 923c 74f7 943e 5a0c b5bb d25c 803e
000003d0: 5e66 7b3e b9b6 56bb b3b0 0c3e 7e0e 963e
000003e0: 35b2 d63b 7146 073e be59 743e db8f a93d
000003f0: 7a42 893d a717 803d db1a 743d 23e7 8d3e

edge_layers.0.lstm.bias_hh_l0 f4 [256]
0.26182756 0.10337617 0.075453535 0.39720044 0.075019665 0.086641565 0.01870587 0.34733075
0.13856733 0.105151795 0.18364209 0.20069191 0.26444754 0.29626682 0.17298394 0.11929454
0.14636636 0.09426013 0.28657842 0.09213219 0.2020372 0.1608967 0.13972206 0.28086296
0.061702505 0.25379118 0.20902416 0.14044254 0.017709395 0.23210908 0.17940643 0.19992647
0.18930426 0.16813703 0.07203791 0.018345233 0.0016351173 0.17004272 0.05419886 0.13617535
0.31508166 0.2245734 0.074782275 0.09408569 0.2880976 0.1546347 0.29693615 0.17464845
0.1884093 0.14941055 0.15726258 0.14797916 0.22898242 0.1556343 0.22024421 0.122782655
0.18910196 0.2246224 0.14393541 0.11311898 0.14884701 0.13838996 -0.04382824 0.26004598
-0.13201678 -0.07129107 -0.044381697 -0.18690695 0.10478927 0.028439725 0.06710766 -0.060028467
0.10644894 -0.042916812 0.032479912 0.010505502 0.12662762 -0.05539112 0.027182125 -0.02423337
0.01847042 -0.09637148 0.071746804 0.025805276 0.108991064 0.03916253 0.11149283 -0.06905676
0.03771592 0.0038140824 -0.066806786 0.12518127 -0.07070251 -0.11260632 0.1698766 0.14583105
-0.029880708 0.03851992 -0.02961455 -0.15335399 0.07610636 0.060828242 0.063266695 0.04020479
-0.082863875 0.0063612415 0.020882703 0.027954921 0.0025081318 -0.07451564 -0.10372262 0.0727729
-0.13240905 -0.091774754 0.10403042 0.005566292 0.13043264 -0.047127273 -0.13526137 0.06488056
0.13060178 -0.027293282 0.045330666 -0.06959768 -0.07118839 0.022127401 -0.06361582 -0.16515219
-0.05075318 -0.09693203 0.03041103 0.046610184 0.20213678 0.16589217 -0.1687668 -0.046748333
0.12328972 -0.15601814 -0.18585482 -0.0599186 0.13833737 -0.102781765 0.009951485 -0.12385268
-0.08082992 0.022553688 0.0038574985 0.1704646 -0.10526825 0.12454031 0.13477433 -0.039285414
0.12738672 0.069469966 -0.18333009 0.011873992 -0.032441806 -0.18375145 -0.10402545 0.08213643
0.088503435 -0.021194372 -0.053896368 0.15788734 0.018594999 0.095614344 -0.06343722 0.10871878
-0.053111993 0.09987928 -0.091622315 0.0384937 -0.00031508916 0.070830226 0.06756394 -0.028908873
0.012525528 -0.110352494 -0.0077695847 0.08301619 0.031905055 0.06991276 0.1992737 -0.025587477
0.12936907 -0.002549125 0.14255574 0.028487282 -0.12678006 0.022555085 0.020679869 0.040626574
0.19742872 0.13757673 0.15854564 0.3943161 0.11253673 0.1272863 0.22319816 0.18866092
0.15250726 0.28954592 0.22396469 0.076848134 0.12365849 0.3027263 0.14950041 0.08905105
0.17374185 0.0013000914 0.20599212 0.06451063 0.10736508 0.080776 0.11271215 0.16267744
0.25323045 0.2235454 0.01828397 0.17801699 0.054371078 0.09163148 0.20357706 0.17717284
0.1606842 0.23187722 0.076659895 0.09980774 0.14643168 0.1301283 0.12628287 0.24924399
0.16754533 0.0884892 0.13646434 -0.02588878 0.106676444 0.2187563 0.082341515 0.3299747
0.22555554 0.31527394 0.005254727 0.17922415 0.22331297 0.15596145 0.23215318 0.15584262
0.043906238 0.28034255 0.1032426 0.008527281 0.1821372 0.0766021 -0.059005387 0.17328021
00000000: 430e 863e e3b6 d33d 6287 9a3d db5d cb3e
00000010: e9a3 993d 2271 b13d 0d3d 993c 56d5 b13e
00000020: 98e4 0d3e d359 d73d ac0c 3c3e 2e82 4d3e
00000030: ab65 873e 49b0 973e b422 313e b250 f43d
00000040: 10e1 153e 740b c13d 68ba 923e cdaf bc3d
00000050: d7e2 4e3e 1bc2 243e 4d13 0f3e 45cd 8f3e
00000060: c4bb 7c3d ebf0 813e 6e0a 563e 2bd0 0f3e
00000070: 4b13 913c 01ae 6d3e 52b6 373e 86b9 4c3e
00000080: fad8 413e 1d2c 2c3e 9d88 933d be48 963c
00000090: 6f51 d63a ae1f 2e3e a0ff 5d3d 8d71 0b3e
000000a0: 6252 a13e 92f6 653e 7327 993d 00b0 c03d
000000b0: 8781 933e 8f58 1e3e 0408 983e 0bd7 323e
000000c0: 5eee 403e 14ff 183e 7109 213e d987 173e
000000d0: 5e7a 6a3e 995e 1f3e b387 613e 7975 fb3d
000000e0: f2a3 413e 6a03 663e ce63 133e ecaa e73d
000000f0: 5a6b 183e 19b6 0d3e 3e85 33bd bf24 853e
00000100: 682f 07be 0d01 92bd 95c9 35bd 8964 3fbe
00000110: c29b d63d 6dfa e83c be6f 893d 69e0 75bd
00000120: e701 da3d 8ac9 2fbd a809 053d 451f 2c3c
00000130: acaa 013e cde1 62bd 0cad de3c 0f85 c6bc
00000140: 474f 973c 695e c5bd fdef 923d 9665 d33c
00000150: b536 df3d e468 203d 5a56 e43d a16d 8dbd
00000160: 027c 1a3d aff5 793b ffd1 88bd 852f 003e
00000170: 7acc 90bd 249e e6bd 22f4 2d3e bc54 153e
00000180: 63c8 f4bc 10c7 1d3d 369a f2bc d408 1dbe
00000190: a7dd 9b3d 0927 793d f891 813d c7ad 243d
000001a0: 89b4 a9bd f671 d03b 3412 ab3c b801 e53c
000001b0: 785f 243b a89b 98bd 866c d4bd f509 953d
000001c0: 3d96 07be 67f4 bbbd e70d d53d 7165 b63b
000001d0: 2290 053e 8708 41bd f581 0abe 19e0 843d
000001e0: 79bc 053e 2996 dfbc a6ac 393d 3a89 8ebd
000001f0: 38cb 91bd 8644 b53c 0349 82bd a81d 29be
00000200: 91e2 4fbd 4d84 c6bd 8d20 f93c 52ea 3e3d
00000210: f2fc 4e3e a3df 293e 34d1 2cbe 2e7b 3fbd
00000220: 527f fc3d 38c3 1fbe ba50 3ebe 356d 75bd
00000230: 50a8 0d3e 3f7f d2bd 8e0b 233c 79a6 fdbd
00000240: 288a a5bd 83c2 b83c 16ce 7c3b 468e 2e3e
00000250: e196 d7bd fd0e ff3d 4802 0a3e bee9 20bd
00000260: aa71 023e 4546 8e3d e2ba 3bbe 228b 423c
00000270: b3e1 04bd 5729 3cbe 4c0b d5bd 2537 a83d
00000280: 4a41 b53d d29f adbc 70c2 5cbd 38ad 213e
00000290: 8a54 983c 74d1 c33d 60eb 81bd f4a7 de3d
000002a0: f68b 59bd 828d cc3d 7ba4 bbbd 92ab 1d3d
000002b0: 8d32 a5b9 700f 913d f75e 8a3d 4dd2 ecbc
000002c0: df37 4d3c 7d00 e2bd 0098 febb 6404 aa3d
000002d0: e0ae 023d 6c2e 8f3d 680e 4c3e d49c d1bc
000002e0: 5379 043e 390f 27bb 22fa 113e 295e e93c
000002f0: a2d2 01be 71c5 b83c d468 a93c 0d68 263d
00000300: c12a 4a3e eae0 0c3e ca59 223e cde3 c93e
00000310: a879 e63d 5757 023e 0f8e 643e 5430 413e
00000320: dd2a 1c3e 5d3f 943e 0057 653e 8e62 9d3d
00000330: aa40 fd3d f1fe 9a3e a316 193e 6660 b63d
00000340: 62e9 313e d467 aa3a 99ef 523e 261e 843d
00000350: 39e2 db3d e36d a53d a1d5 e63d ea94 263e
00000360: 6ca7 813e 16e9 643e 44c8 953c 164a 363e
00000370: 35b4 5e3d 49a9 bb3d 8176 503e cc6c 353e
00000380: 668a 243e 3971 6d3e ddff 9c3d 0068 cc3d
00000390: 30f2 153e 5a40 053e 4c50 013e d139 7f3e
000003a0: 0191 2b3e d339 b53d 4fbd 0b3e b514 d4bc
000003b0: 2e79 da3d a701 603e aba2 a83d 72f2 a83e
000003c0: 08f8 663e 966b a13e d82f ac3b 8986 373e
000003d0: 28ac 643e 5cb4 1f3e 90b9 6d3e 3595 1f3e
000003e0: 07d7 333d 0f89 8f3e db70 d33d 02b6 0b3c
000003f0: 2d82 3a3e 90e1 9c3d a2af 71bd 5e70 313e

edge_layers.1.lstm.weight_ih_l0 f4 [256, 3]
-0.111181535 0.18983583 0.050524402 -0.10957653 -0.019953497 -0.0013473204 -0.07991198 0.074193835
-0.10666579 0.06901424 -0.05843169 -0.14679436 -0.2826506 -0.035354357 -0.09542499 0.09454142
0.0038806591 -0.18529618 -0.011942195 0.033808637 -0.20690426 0.04516391 0.21145861 -0.15598425
0.070389785 0.15199156 -0.032599017 -0.10749639 -0.024327606 -0.12034135 0.06692419 0.12332326
-0.050737828 0.04788367 0.18219164 -0.23251262 0.0020408342 0.1739299 -0.15086187 0.088140495
0.020352008 -0.26852062 0.0017116527 -0.100660294 -0.08842951 0.09549458 0.17595918 -0.112891324
-0.12837343 0.0037739815 -0.12666474 -0.10572452 -0.18832678 -0.11932163 -0.12541191 0.09118141
-0.077732176 0.15231477 0.10773509 0.10086712 -0.049444713 0.16032617 -0.05568009 -0.020641962
0.13019814 -0.0069218636 0.16351928 -0.009199497 -0.2682999 -0.13474329 -0.049900565 -0.015009567
0.07999067 -0.053299226 -0.096221484 -0.08266902 -0.12074735 0.069461085 -0.025749149 0.071394585
-0.26966628 0.118340515 0.16127847 0.06606067 -0.28477594 0.04712303 0.22936358 0.0070260935
0.14995459 -0.07579317 0.00788568 0.18191904 -0.111503 0.079370506 0.14024736 -0.25273317
-0.09402358 -0.031732205 -0.046053965 0.100444674 0.012516787 -0.17514825 0.04974241 -0.00068412576
-0.07522074 -0.1688716 0.06125919 0.12891628 -0.02276402 -0.011441642 0.042615682 0.056184173
0.13466875 -0.019086951 -0.08257724 0.04559754 -0.05276291 -0.25067922 0.08282819 0.00852925
-0.106153056 0.097496256 0.096952334 0.1736627 0.107945554 -0.020112872 -0.0032807097 0.06669455
-0.20314842 0.039752074 0.16149023 -0.009410855 0.054890495 0.18803714 -0.10900621 -0.15460698
-0.030247431 -0.12907194 0.029915554 0.07508328 -0.26897252 0.123581536 0.17469041 -0.2895415
-0.08370812 -0.054866035 -0.023448331 -0.0067301346 -0.025166659 -0.251231 0.097465105 0.023056053
0.07925837 -0.13113348 0.024450745 -0.1271594 -0.17430043 0.019038646 0.14540991 -0.088222146
0.117388315 -0.20331386 -0.0073266444 -0.01761602 -0.0040359595 -0.14630508 0.020135693 0.0765201
-0.021038065 0.049308516 -0.051022362 -0.063402176 0.11620539 -0.013751766 0.17409566 0.05676155
-0.19342606 -0.10636826 0.1247088 -0.23322871 0.092649035 -0.09264229 -0.022233155 -0.1009882
-0.07071129 0.021279894 0.17283757 0.046885815 -0.030016473 -0.09394039 -0.018113306 -0.1220937
0.015273427 -0.10029464 -0.04860295 0.073582955 -0.2718128 -0.043595847 -0.10248682 0.15157992
-0.07234315 -0.01625883 0.06679928 -0.16428183 -0.011382601 0.066458926 -0.040756695 0.104679786
0.06624676 0.016129032 0.14057721 -0.10680031 -0.03455592 0.088252984 0.027261877 -0.033914793
0.05571193 0.0067601097 -0.049667574 -0.057228636 -0.026684582 -0.08117247 0.09689445 -0.029404994
-0.067263424 0.08263536 -0.028684862 -0.0074736318 -0.11969778 -0.038744267 -0.13488358 0.07665469
0.039128225 -0.047296684 0.048850562 0.11958146 0.06296137 0.034151796 -0.049186066 0.048874285
0.053889543 0.08701081 0.01539904 0.20132734 -0.03325717 -0.18256485 -0.07309144 -0.04925134
0.00718278 0.11656449 -0.075456955 0.113425374 -0.015540824 0.019433126 0.06378813 0.08120906
00000000: 25b3 e3bd 5364 423e adf2 4e3d a969 e0bd
00000010: 8475 a3bc 9298 b0ba e4a8 a3bd f0f2 973d
00000020: 9873 dabd 5657 8d3d 1156 6fbd 4351 16be
00000030: 94b7 90be bbcf 10bd 2d6e c3bd ef9e c13d
00000040: a852 7e3b 48be 3dbe 32a9 43bc ed7a 0a3d
00000050: b6de 53be cbfd 383d 9b88 583e 56ba 1fbe
00000060: 8528 903d ada3 1b3e 8c86 05bd 1127 dcbd
00000070: b04a c7bc 8775 f6bd 8d0f 893d e890 fc3d
00000080: 78d2 4fbd ab21 443d 7290 3a3e ca17 6ebe
00000090: 84bf 053b ae1a 323e 897b 1abe 0183 b43d
000000a0: 41b9 a63c 897b 89be 8959 e03a fc26 cebd
000000b0: 881a b5bd aa92 c33d a52e 343e 9133 e7bd
000000c0: 5374 03be e754 773b 67b4 01be 1986 d8bd
000000d0: bcd8 40be e65e f4bd fb6b 00be 52bd ba3d
000000e0: 0c32 9fbd 67f8 1b3e 37a4 dc3d 6c93 ce3d
000000f0: 8a86 4abd 8b2c 243e ce10 64bd 5519 a9bc
00000100: a952 053e cdd0 e2bb 9971 273e 7db9 16bc
00000110: 9b5e 89be 25fa 09be 8964 4cbd b0ea 75bc
00000120: 26d2 a33d 4a50 5abd c50f c5bd 604e a9bd
00000130: 634a f7bd 9d41 8e3d e1ef d2bc 5337 923d
00000140: b311 8abe 835c f23d 2f26 253e d14a 873d
00000150: 27ce 91be 1404 413d 49de 6a3e 253b e63b
00000160: b28d 193e 7339 9bbd f032 013c fc48 3a3e
00000170: af5b e4bd 018d a23d 019d 0f3e 3e66 81be
00000180: 6f8f c0bd a1f9 01bd 15a3 3cbd f0b5 cd3d
00000190: 3613 4d3c 105a 33be b3be 4b3d e756 33ba
000001a0: 550d 9abd adec 2cbe ebea 7a3d a102 043e
000001b0: 9c7b babc ba75 3bbc c88d 2e3d 6021 663d
000001c0: 9be6 093e 3d5c 9cbc 421e a9bd 7cc4 3a3d
000001d0: ec1d 58bd 0759 80be d3a1 a93d 44be 0b3c
000001e0: c666 d9bd 1eac c73d f28e c63d a3d4 313e
000001f0: 8f12 dd3d c0c3 a4bc 2d01 57bb 2797 883d
00000200: 2406 50be 12d3 223d b25d 253e fd2f 1abc
00000210: dbd4 603d cf8c 403e a63e dfbd 4b51 1ebe
00000220: 76c9 f7bc 6f2b 04be 7711 f53c 43c5 993d
00000230: c4b6 89be 5118 fd3d 0be2 323e c93e 94be
00000240: 2a6f abbd 35bb 60bd b716 c0bc 7688 dcbb
00000250: 4f2a cebc 5aa1 80be c99b c73d 0ce0 bc3c
00000260: 3652 a23d db47 06be ee4c c83c 1336 02be
00000270: d07b 32be eff6 9b3c 56e6 143e d0ad b4bd
00000280: 4969 f03d 8231 50be 5914 f0bb 794f 90bc
00000290: 1540 84bb 00d1 15be 9cf3 a43c 92b6 9c3d
000002a0: 0558 acbc baf7 493d d3fc 50bd 00d9 81bd
000002b0: 17fd ed3d 164f 61bc 2246 323e cd7e 683d
000002c0: 7b11 46be 9ad7 d9bd 5467 ff3d 82d3 6ebe
000002d0: c7be bd3d 3ebb bdbd 4e22 b6bc e7d2 cebd
000002e0: 15d1 90bd 2c53 ae3c 55fc 303e 570b 403d
000002f0: 1be5 f5bc d263 c0bd 5b62 94bc 430c fabd
00000300: 653d 7a3c 4767 cdbd e313 47bd a9b2 963d
00000310: 0c2b 8bbe 8f91 32bd 9ce4 d1bd c437 1b3e
00000320: a528 94bd 3d31 85bc 10ce 883d 7f39 28be
00000330: 177e 3abc 9e1b 883d 7ef0 26bd 5b62 d63d
00000340: 62ac 873d 0821 843c 79f3 0f3e 1fba dabd
00000350: 828a 0dbd fbbd b43d 4d54 df3c 3dea 0abd
00000360: 3132 643d e983 dd3b 3a70 4bbd 9368 6abd
00000370: a099 dabc c03d a6bd 9970 c63d bee2 f0bc
00000380: 68c1 89bd ba3c a93d 84fc eabc 5ee5 f4bb
00000390: 1c24 f5bd 4fb2 1ebd ec1e 0abe 22fd 9c3d
000003a0: eb44 203d 2bba 41bd 8717 483d 20e7 f43d
000003b0: e4f1 803d c1e2 0b3d 5477 49bd 6730 483d
000003c0: 48bb 5c3d b932 b23d 414c 7c3c c128 4e3e
000003d0: ac38 08bd 48f2 3abe f7b0 95bd c6bb 49bd
000003e0: 875d eb3b 5db9 ee3d 2d89 9abd 904b e83d
000003f0: f19e 7ebc 3832 9f3c 5aa3 823d f050 a63d

edge_layers.1.lstm.weight_hh_l0 f4 [256, 64]
0.08849021 -0.024128031 -0.032534357 0.07724946 0.027980445 -0.090850554 0.09871207 -0.07002267
0.10725239 0.025440548 -0.020379348 0.00021417638 0.09984537 0.051496748 -0.07272314 0.1156382
-0.038411465 0.024727112 0.0063032983 0.06737178 0.02969677 -0.070198104 -0.063189715 -0.115796186
0.09807776 0.038167875 0.067972854 0.0023745713 -0.018895954 0.08975512 -0.08496546 -0.0075144023
-0.045444466 0.057227235 -0.018653424 0.033653095 -0.039104525 -0.061245598 -0.085628696 0.016023302
-0.111465454 0.09972415 -0.050340313 0.10965599 0.029216208 -0.038864225 -0.11068507 0.14226949
0.0038601817 -0.021240244 0.18945529 -0.07246983 0.037937123 0.056698877 -0.07050273 -0.012637072
-0.09510383 0.11683981 -0.04626322 0.060601838 0.07725271 -0.0923556 0.044008747 0.108510695
-0.09566511 0.024422517 -0.12171304 -0.069441095 0.115969375 0.102672026 -0.06882553 -0.053844362
0.12805529 0.0987233 0.14704347 -0.039598394 0.069329515 -0.12485276 -0.18706837 0.0071311286
0.21819441 -0.0065320055 0.089232214 0.0058943755 -0.12141557 -0.08216684 -0.09291793 -0.15812439
0.19649512 -0.045228165 -0.13682255 0.06864705 0.08879415 0.041225374 -0.19700553 0.14748025
-0.1556291 -0.008474051 -0.09435471 -0.084961444 -0.02807688 0.07571683 0.10005501 0.19556119
0.0596529 -0.14422779 -0.019130684 -0.028200142 -0.038854204 0.009417637 -0.04953737 0.115247145
-0.13033633 -0.07462512 0.055987 -0.15240707 -0.07950282 0.0660214 0.18626475 -0.02794377
-0.18792543 -0.05220981 -0.06893277 0.13314798 0.19310832 0.084364064 0.043503597 0.055565357
-0.10075386 -0.29635042 0.09139299 -0.07691354 -0.19386847 -0.06200222 -0.10128519 -0.05747115
0.022198042 0.0073087146 -0.2807227 0.043005016 -0.1669661 -0.09103723 0.1593544 0.1001423
-0.1271612 -0.21477138 -0.17644723 0.061918266 0.041916963 0.18315944 0.020985117 0.11062307
-0.027168302 0.058953702 0.079201475 0.0058041597 -0.19347247 -0.004763902 0.006833497 -0.1259166
-0.15581879 -0.115812056 0.107094094 -0.20253056 0.014854487 0.039139155 0.059963886 -0.11744841
-0.016391909 -0.0068533123 0.06685115 0.09606339 0.050260335 -0.09268843 -0.08231882 -0.045328878
-0.12405217 -0.058001857 -0.12039254 -0.1032354 -0.09484008 -0.15542763 -0.06004263 -0.16733247
0.050312586 0.018849665 0.01921403 -0.08222469 -0.10735359 -0.14238869 -0.0046621435 0.09118941
-0.13676673 -0.06039684 -0.057356995 -0.08355363 -0.17555691 -0.09488883 -0.06882809 0.008403974
0.10069489 -0.082566485 -0.111896835 0.05792727 -0.10693922 -0.028310461 -0.08232986 0.050114725
-0.07785075 -0.020067435 0.002928538 -0.1124407 -0.0321144 -0.102512605 0.08173262 0.03966463
-0.06868817 -0.094953716 0.013745317 -0.12444275 0.009686693 -0.076622985 0.01805862 -0.13712633
0.014535885 -0.019083304 -0.049712922 -0.06816911 0.038935382 -0.0357372 -0.042642098 0.028804408
0.023882287 0.017853528 -0.013284849 -0.06024733 0.016027909 0.030296374 0.09293672 -0.00022404669
-0.10876602 -0.041003883 -0.04534754 0.0139588555 -0.07097845 0.022504525 0.019469056 -0.12884016
-0.019380758 -0.01327798 0.075080976 -0.03509554 -0.099045366 -0.025523279 -0.03717836 -0.11678242
00000000: 5b3a b53d 26a8 c5bc bf42 05bd f734 9e3d
00000010: 3f37 e53c db0f babd 8e29 ca3d 0c68 8fbd
00000020: 24a7 db3d b268 d03c 97f2 a6bc 8994 6039
00000030: bb7b cc3d 41ee 523d dfef 94bd b8d3 ec3d
00000040: 5755 1dbd 8390 ca3c e68b ce3b 37fa 893d
00000050: a446 f33c 06c4 8fbd 9c69 81bd 8d26 edbd
00000060: fedc c83d eb55 1c3d 5a35 8b3d b29e 1b3b
00000070: b0cb 9abc 88d1 b73d 5f02 aebd 603b f6bb
00000080: fa23 3abd 1b67 6a3d 11cf 98bc d4d7 093d
00000090: 112c 20bd aadc 7abd 195e afbd 4d43 833c
000000a0: 0048 e4bd 2d3c cc3d a531 4ebd 5293 e03d
000000b0: d456 ef3c 1830 1fbd dbae e2bd 18af 113e
000000c0: 1afb 7c3b 0500 aebc 9100 423e 106b 94bd
000000d0: f563 1b3d 153d 683d bc63 90bd b90b 4fbc
000000e0: ccc5 c2bd b649 ef3d 817e 3dbd a239 783d
000000f0: ab36 9e3d ef24 bdbd 8442 343d db3a de3d
00000100: 12ec c3bd bb11 c83c b044 f9bd 2237 8ebd
00000110: 5a81 ed3d b645 d23d 66f4 8cbd e88b 5cbd
00000120: ed20 033e 712f ca3d 9092 163e ed31 22bd
00000130: a2fc 8d3d ceb2 ffbd da8e 3fbe 3eac e93b
00000140: 5b6e 5f3e 6f0a d6bb 61bf b63d 9b25 c13b
00000150: baa8 f8bd 1747 a8bd c14b bebd 5ceb 21be
00000160: 0436 493e 2b41 39bd 361b 0cbe d396 8c3d
00000170: b5d9 b53d f0db 283d d1bb 49be 1005 173e
00000180: 3c5d 1fbe bfd6 0abc 0b3d c1bd 4400 aebd
00000190: 7c01 e6bc 6d11 9b3d a4e9 cc3d 3141 483e
000001a0: 9956 743d 73b0 13be f4b7 9cbc fc03 e7bc
000001b0: 9625 1fbd 6f4c 1a3c b3e7 4abd b206 ec3d
000001c0: e376 05be 0ed5 98bd a052 653d 9910 1cbe
000001d0: 60d2 a2bd 3a36 873d 30bc 3e3e 55ea e4bc
000001e0: 866f 40be f4d9 55bd a02c 8dbd f257 083e
000001f0: 30be 453e 11c7 ac3d d430 323d 8098 633d
00000200: 0a58 cebd 3ebb 97be 3f2c bb3d d984 9dbd
00000210: 7585 46be 0af6 7dbd 9c6e cfbd de66 6bbd
00000220: abd8 b53c f17d ef3b e3ba 8fbe 0726 303d
00000230: 29f9 2abe ba71 babd cd2d 233e 6817 cd3d
00000240: 8c36 02be 07ed 5bbe 95ae 34be 029e 7d3d
00000250: 1fb1 2b3d 268e 3b3e fbe8 ab3c 598e e23d
00000260: 0f90 debc 7079 713d 6234 a23d d230 be3b
00000270: a61d 46be 821a 9cbb 87eb df3b 48f0 00be
00000280: f68e 1fbe df2e edbd 2654 db3d 2c64 4fbe
00000290: 3c60 733c 6150 203d b19c 753d cb88 f0bd
000002a0: 5348 86bc c091 e0bb 41e9 883d e2bc c43d
000002b0: c8dd 4d3d 6ed3 bdbd c596 a8bd c6aa 39bd
000002c0: 100f febd 5b93 6dbd 5d90 f6bd 156d d3bd
000002d0: 843b c2bd 6c28 1fbe 43ef 75bd 3459 2bbe
000002e0: 9214 4e3d 9d6a 9a3c be66 9d3c 6b65 a8bd
000002f0: 33dc dbbd 57ce 11be e5c4 98bb 83c1 ba3d
00000300: 940c 0cbe ad62 77bd 2bef 6abd 2a1e abbd
00000310: 31c5 33be 1355 c2bd bef5 8cbd d2b0 093c
00000320: 1f39 ce3d 9e18 a9bd 2b2a e5bd 2545 6d3d
00000330: f302 dbbd 57eb e7bc 8f9c a8bd 1945 4d3d
00000340: 3770 9fbd 7664 a4bc b7ec 3f3b 4f47 e6bd
00000350: 648a 03bd 21f2 d1bd 6f63 a73d 6177 223d
00000360: 62ac 8cbd 1877 c2bd 0a34 613c d7db febd
00000370: efb4 1e3c 83ec 9cbd acef 933c d86a 0cbe
00000380: ec27 6e3c 9754 9cbc c79f 4bbd 3f9c 8bbd
00000390: b57a 1f3d 2c61 12bd 7ba9 2ebd 39f7 eb3c
000003a0: c9a4 c33c 9041 923c b2a8 59bc e8c5 76bd
000003b0: f64c 833c 1a30 f83c 9b55 be3d 13ee 6ab9
000003c0: b8c0 debd b0f3 27bd 58be 39bd afb3 643c
000003d0: 265d 91bd 695b b83c 927d 9f3c adee 03be
000003e0: 65c4 9ebc e28b 59bc 0ec4 993d 57c0 0fbd
000003f0: 4cd8 cabd 3216 d1bc 5648 18bd 9f2b efbd

edge_layers.1.lstm.bias_ih_l0 f4 [256]
-0.034565426 0.29832286 0.19453305 0.09133778 0.20300992 0.1160385 0.026095958 0.0008923439
0.20212743 0.26249054 0.12765734 0.17401761 0.17662336 -0.008616496 0.05378813 0.16302352
0.0019649197 0.02359873 0.23714608 0.11452839 -0.013526531 0.12203409 0.15431732 0.24928771
0.16681044 0.18000238 0.06506235 0.2331684 0.10848736 0.15650216 0.22575925 0.17667466
0.13180278 0.05766349 0.31282783 0.07273013 0.12772848 -0.061012514 0.16551054 0.28364596
0.12941056 0.18636431 0.051658776 0.16827032 0.053500764 0.14143677 0.3019746 -0.0021753449
0.14220239 0.2067668 0.25477725 0.07213902 0.07983816 0.29011196 0.18705866 0.2079545
0.18503775 0.10928019 0.023112092 0.17527874 0.031171195 -0.009551409 0.06827343 0.021693062
0.089539416 0.03647545 -0.043684904 -0.066157736 -0.11145335 -0.011187255 -0.050066296 -0.11802104
0.10772847 -0.0008027281 -0.022860546 -0.14484128 -0.02438291 0.090605766 0.14027011 -0.13990721
-0.11389779 -0.110618144 -0.02896226 0.069390245 -0.10938649 -0.1301391 -0.107923836 0.07119741
-0.07210162 -0.016902033 -0.058049876 0.052612614 -0.060472727 0.022703793 -0.010739362 0.106734544
-0.06259846 -0.020770406 -0.048931014 0.031528044 -0.02742611 0.087340616 0.011236197 -0.062755264
-0.05920243 0.11346184 -0.1348207 -0.001175055 0.042410843 -0.17940623 -0.19826016 -0.15101875
-0.017233707 -0.12264957 0.08625318 0.053028252 0.06972867 -0.07135018 -0.02551298 0.0416749
0.0018732087 0.132975 0.059409425 -0.026126629 0.065126985 -0.08373217 0.09086771 0.02182661
0.07905691 -0.024319734 0.048128992 0.09571991 0.079169214 0.038870547 0.1612168 -0.13183472
-0.10158017 0.054932654 0.2184242 -0.1760183 -0.093077384 0.13803853 0.086178824 -0.10573992
-0.013267494 0.093369976 -0.055141702 0.11671816 -0.10166753 0.119229674 0.099267945 0.015528751
-0.09917241 0.055051755 0.12384219 0.16323404 0.02317251 -0.14708708 0.110426225 0.21165195
0.11782802 -0.16391188 0.13973841 0.24454571 -0.14692228 0.020909347 -0.09008135 0.081155956
0.027450787 0.041987855 -0.027644638 -0.024242554 0.1338799 0.00045329006 -0.098244235 0.015085486
0.027391367 0.06549503 -0.14037453 0.052475054 0.10641432 -0.11930581 0.0030330904 0.26727208
-0.018759886 0.14583695 0.08328919 -0.123862006 -0.1623779 0.1844701 -0.097073644 -0.07107352
0.07046663 0.23845497 0.2517646 0.21710394 0.08611335 0.16618939 0.04942592 0.2041314
0.07385867 0.19411442 -0.018097697 0.109609485 0.11666185 0.049616907 0.0818919 -0.037487518
0.1679036 0.2011125 0.06963984 0.19715832 -0.022912268 0.082009345 -0.026533287 0.07552894
-0.008787036 0.19340739 0.118692085 0.13189344 0.15128462 -0.00681209 0.17968576 0.07840166
0.22222333 0.052116483 0.29089004 0.114635505 0.055609338 0.03612769 0.12203233 0.22266442
0.091873854 0.19849977 0.06889652 0.12791277 0.20963728 0.31267413 0.31649798 -0.017907426
-0.049785063 0.067991704 0.09882349 -0.012644972 0.030760506 0.24152155 0.051395368 0.123964354
0.28140897 0.15549414 -0.045350756 0.018381808 0.21598224 0.14277631 0.06273696 0.009966792
00000000: 7a94 0dbd c6bd 983e ac33 473e 4d0f bb3d
00000010: d5e1 4f3e 98a5 ed3d 31c7 d53c 2fec 693a
00000020: 7efa 4e3e 2965 863e 9bb8 023e ac31 323e
00000030: c1dc 343e 342c 0dbc f150 5c3d a3ef 263e
00000040: e2c5 003b 2052 c13c 6cd6 723e dc8d ea3d
00000050: 629e 5dbc 02ed f93d 5c05 1e3e 4745 7f3e
00000060: 5bd0 2a3e 8b52 383e 693f 853d b2c3 6e3e
00000070: 9f2e de3d 1a42 203e 6f2d 673e 34ea 343e
00000080: 4ff7 063e 8d30 6c3d f82a a03e 89f3 943d
00000090: 41cb 023e 42e8 79bd 987b 293e 0b3a 913e
000000a0: 3484 043e 49d6 3e3e 2798 533d 0e4f 2c3e
000000b0: 9e23 5b3d cdd4 103e 6a9c 9a3e 3b90 0ebb
000000c0: 819d 113e adba 533e 2a72 823e 9fbd 933d
000000d0: 3082 a33d 8e89 943e 4e8c 3f3e 06f2 543e
000000e0: 897a 3d3e 4bce df3d 9255 bd3c 457c 333e
000000f0: bc5a ff3c 837d 1cbc f1d2 8b3d a6b5 b13c
00000100: 7160 b73d 4867 153d f1ee 32bd b57d 87bd
00000110: a741 e4bd c04a 37bc 5112 4dbd 04b5 f1bd
00000120: bea0 dc3d 2c6e 52ba 0a46 bbbc 4651 14be
00000130: abbe c7bc 848f b93d f8a2 0f3e d643 0fbe
00000140: 3f43 e9bd c48b e2bd 4342 edbc 791c 8e3d
00000150: 0606 e0bd 2f43 05be 2c07 ddbd f3cf 913d
00000160: 04aa 93bd 2276 8abc b5c5 6dbd 5380 573d
00000170: 40b2 77bd 4efd b93c 26f4 2fbc a497 da3d
00000180: 9f33 80bd b326 aabc e36b 48bd 8d23 013d
00000190: b9ac e0bc a3df b23d 0718 383c d585 80bd
000001a0: 3f7e 72bd ae5e e83d 700e 0abe 4e04 9aba
000001b0: feb6 2d3d 44b6 37be b604 4bbe a9a4 1abe
000001c0: b42d 8dbc b32f fbbd 82a5 b03d 2734 593d
000001d0: e8cd 8e3d 0b20 92bd 9900 d1bc 4db3 2a3d
000001e0: 7486 f53a 992a 083e 4c57 733d 8307 d6bc
000001f0: 4c61 853d c67b abbd da18 ba3d b8cd b23c
00000200: 97e8 a13d 2e3a c7bc e822 453d cd08 c43d
00000210: 7823 a23d b936 1f3d 0416 253e aeff 06be
00000220: 4409 d0bd 1001 613d 98aa 5f3e 243e 34be
00000230: 5b9f bebd f959 0d3e 867e b03d 2c8e d8bd
00000240: e75f 59bc c238 bf3d 44dc 61bd ee09 ef3d
00000250: 1137 d0bd b02e f43d fe4c cb3d 4d6c 7e3c
00000260: e81a cbbd f37d 613d f9a0 fd3d d326 273e
00000270: 47d4 bd3c ff9d 16be 2527 e23d 4abb 583e
00000280: d14f f13d 84d8 27be 9617 0f3e 316a 7a3e
00000290: cb72 16be 144a ab3c 927c b8bd 1835 a63d
000002a0: 79e0 e03c 75fb 2b3d 0277 e2bc 5298 c6bc
000002b0: d017 093e 90a7 ed39 4634 c9bd 1d29 773c
000002c0: dc63 e03c 4222 863d 57be 0fbe 15f0 563d
000002d0: c0ef d93d 9b56 f4bd d0c6 463b e3d7 883e
000002e0: 55ae 99bc 4856 153e 8693 aa3d 5dab fdbd
000002f0: 6446 26be bbe5 3c3e 8cce c6bd fe8e 91bd
00000300: cf50 903d 8a2d 743e 4ae7 803e 7f50 5e3e
00000310: 325c b03d 8d2d 2a3e d572 4a3d d207 513e
00000320: 3743 973d eec5 463e 9f41 94bc f07a e03d
00000330: 68ec ee3d 193b 4b3d f1b6 a73d 838c 19bd
00000340: ecee 2b3e 6ff0 4d3e 559f 8e3d dfe3 493e
00000350: 82b2 bbbc 84f4 a73d 565c d9bc ebae 9a3d
00000360: 80f7 0fbc 960c 463e d614 f33d 130f 073e
00000370: 5bea 1a3e f437 dfbb 8bff 373e 0d91 a03d
00000380: 838e 633e 1878 553d 8aef 943e 05c6 ea3d
00000390: 9ec6 633d a1fa 133d 16ec f93d 2402 643e
000003a0: 5c28 bc3d 8643 4b3e 9e19 8d3d 91fb 023e
000003b0: 28ab 563e d316 a03e 060c a23e 98b2 92bc
000003c0: 6ceb 4bbd 3c3f 8b3d f863 ca3d db2c 4fbc
000003d0: 75fd fb3c 6d51 773e f383 523d 06e1 fd3d
000003e0: d614 903e db39 1f3e b7c1 39bd 7295 963c
000003f0: 732a 5d3e f433 123e 3c7c 803d c14b 233c

edge_layers.1.lstm.bias_hh_l0 f4 [256]
-0.025750285 0.176602 0.24557787 0.15061958 0.090202555 0.12566972 0.078646146 0.13091975
-0.012799726 0.20226476 0.13371421 0.20514478 0.11251087 0.11708665 0.20468117 0.16090627
0.17186975 0.0722915 0.052795738 -0.018779777 0.16426483 0.2733864 0.18473512 0.07296293
0.19357938 0.1615758 -0.004355366 0.088382505 0.08683688 0.02300676 0.153474 0.020974737
0.17135513 0.06221136 0.10481573 0.10758204 0.06002289 0.051227547 0.18121438 0.35751954
0.2425421 0.10900236 0.1606185 0.1683105 0.21187563 0.18287 0.3049752 0.12794983
0.063103706 0.020346709 0.095511265 0.06560544 0.0169549 0.22930214 0.040382307 0.23453864
0.15916738 0.110804215 0.09328687 0.11775038 0.2235085 0.04906143 0.13029012 0.025455449
0.09704281 -0.064869575 -0.042576667 -0.11699634 -0.18938503 0.032805733 -0.088864855 0.0022691807
-0.07841323 -0.05793736 -0.050448794 0.012222749 0.05040269 0.038368113 0.09372108 -0.07629243
0.12999097 -0.13843612 -0.13526098 0.09441794 -0.09092072 -0.14918709 -0.06313069 -0.081925206
-0.085075215 -0.075141266 -0.0007023013 0.10212622 -0.09615004 -0.040079705 -0.023373988 -0.11358727
0.038651433 -0.00021721527 -0.13567968 0.027392566 -0.07550053 -0.11188862 -0.041332092 -0.0025973443
-0.0065901536 0.016663216 -0.081369795 -0.04021562 -0.08882654 0.025057321 -0.0034384597 -0.0062741213
0.08271141 0.06461824 0.07746298 -0.03873935 0.021230016 -0.1421514 0.010789552 -0.10434438
0.03862988 -0.050758444 -0.015537441 -0.08885199 -0.030959481 -0.09501699 -0.07908753 -0.020505305
0.14353852 -0.030561905 0.05860988 0.11301962 -0.032109894 -0.11757915 0.18674456 -0.20147511
-0.03336131 0.12118762 0.16201682 -0.12746446 0.07111479 0.13533424 -0.0033387013 -0.14575599
-0.019405125 -0.036810216 -0.021237573 0.09864173 -0.15282229 -0.07241545 0.114222765 -0.05404132
-0.078033485 0.20581822 0.06530224 0.02453458 0.21589941 -0.02936017 -0.06325244 0.2327624
-0.018922081 -0.16218211 -0.018063774 0.035515957 -0.060936235 -0.046714816 0.027869968 -0.094314314
0.006697458 0.09256246 -0.14011745 0.116182715 0.07793225 -0.034961604 -0.1372391 0.16079724
0.24317788 0.11866977 -0.10905893 0.1475659 0.14503543 -0.051487546 0.033359844 0.076706424
0.09219121 0.04924851 0.048757557 -0.049281828 -0.007482537 0.07400328 -0.1879545 -0.08265414
0.17434065 0.06780847 0.18797475 0.16767034 0.08781398 0.17332178 -0.005838624 0.2354388
0.15131064 0.079142794 -0.004141092 0.06824689 0.13250276 0.19087246 0.2837359 -0.03343213
0.06336045 0.14255035 0.22856867 0.0030593786 0.12518173 0.086102605 0.018278345 0.21442914
-0.0007839614 0.15356852 0.1081399 0.042871486 0.2041955 0.08039619 0.14781716 0.14522545
0.1287435 0.020345643 0.14510621 0.10688426 0.027490703 0.09655476 0.08481952 0.2293196
0.22930552 0.14643255 0.0640397 0.11505025 0.13917501 0.26129055 0.29631105 0.17989548
-0.0013493735 0.07525717 0.09287137 -0.013353137 0.021963798 0.2371363 0.01777226 0.08275334
0.22694074 0.02968493 0.15050471 0.13018143 0.17429073 0.11224169 0.20282464 0.18596691
00000000: 43f2 d2bc 28d7 343e c478 7b3e 053c 1a3e
00000010: 1ebc b83d 90af 003e 3b11 a13d d40f 063e
00000020: f1b5 51bc 7e1e 4f3e 61ec 083e 7911 523e
00000030: 196c e63d 20cb ef3d f197 513e 9dc4 243e
00000040: a0fe 2f3e 910d 943d 5840 583d 0cd8 99bc
00000050: 0a35 283e 4df9 8b3e 342b 3d3e 976d 953d
00000060: ac39 463e 2074 253e 75b7 8ebb e301 b53d
00000070: 89d7 b13d ac78 bc3c 4a28 1d3e 36d3 ab3c
00000080: b877 2f3e 57d1 7e3d a1a9 d63d f953 dc3d
00000090: 90da 753d fad3 513d 4390 393e cd0c b73e
000000a0: f55c 783e a13c df3d 2d79 243e 9659 2c3e
000000b0: edf5 583e 4642 3b3e b625 9c3e 4805 033e
000000c0: 843c 813d 24ae a63c 699b c33d 255c 863d
000000d0: 01e5 8a3c 2ece 6a3e eb67 253d e62a 703e
000000e0: c6fc 223e 52ed e23d 300d bf3d 1c27 f13d
000000f0: 6adf 643e a3f4 483d c66a 053e f287 d03c
00000100: 61be c63d 57da 84bd df64 2ebd c79b efbd
00000110: 26ee 41be 4e5f 063d c7fe b5bd 89b6 143b
00000120: 1e97 a0bd ba4f 6dbd 65a3 4ebd ed41 483c
00000130: 0d73 4e3d e227 1d3d d6f0 bf3d 353f 9cbd
00000140: 5a1c 053e 33c2 0dbe db81 0abe 315e c13d
00000150: a434 babd 80c4 18be aa4a 81bd 67c8 a7bd
00000160: ea3b aebd aae3 99bd a41a 38ba 8d27 d13d
00000170: 50ea c4bd 9e2a 24bd ce7a bfbc 71a0 e8bd
00000180: f750 1e3d 48c4 63b9 9def 0abe 6066 e03c
00000190: 06a0 9abd dc25 e5bd d74b 29bd 3538 2abb
000001a0: 37f2 d7bb 4c81 883c 35a5 a6bd 22b9 24bd
000001b0: b0ea b5bd 0345 cd3c c857 61bb 2597 cdbb
000001c0: 9a64 a93d 9156 843d e9a4 9e3d 27ad 1ebd
000001d0: 92ea ad3c 2390 11be a9c6 303c 82b2 d5bd
000001e0: 5d3a 1e3d 16e8 4fbd c090 7ebc 08f8 b5bd
000001f0: bd9e fdbc 4598 c2bd a5f8 a1bd befa a7bc
00000200: c3fb 123e f65c fabc ea10 703d d576 e73d
00000210: aa85 03bd 56cd f0bd f739 3f3e 7e4f 4ebe
00000220: dea5 08bd 3731 f83d bde7 253e 0b86 02be
00000230: a2a4 913d 0f95 0a3e 1dce 5abb 0f41 15be
00000240: 7ff7 9ebc 4fc6 16bd 6bfa adbc ad04 ca3d
00000250: 727d 1cbe 8d4e 94bd a0ed e93d 6e5a 5dbd
00000260: 05d0 9fbd 03c2 523e 2ebd 853d befc c83c
00000270: bc14 5d3e bd84 f0bc 7f8a 81bd 4459 6e3e
00000280: 7b02 9bbc 1113 26be 7bfa 93bc 2e79 113d
00000290: 4698 79bd 0958 3fbd 8f4f e43c dd27 c1bd
000002a0: 5a76 db3b 6391 bd3d f37a 0fbe 34f1 ed3d
000002b0: f29a 9f3d e633 0fbd 6888 0cbe 08a8 243e
000002c0: 9f03 793e 2309 f33d 4a5a dfbd 841b 173e
000002d0: 2b84 143e 9be4 52bd 55a4 083d 4218 9d3d
000002e0: bfce bc3d ceb8 493d 01b6 473d bedb 49bd
000002f0: 1230 f5bb 088f 973d 2577 40be 9346 a9bd
00000300: 5b86 323e 2bdf 8a3d 747c 403e c6b1 2b3e
00000310: d1d7 b33d 447b 313e ee51 bfbb de16 713e
00000320: 2df1 1a3e 9e15 a23d ffb1 87bb 07c5 8b3d
00000330: ceae 073e 1274 433e d545 913e 21f0 08bd
00000340: 20c3 813d b8f8 113e e80d 6a3e db7f 483b
00000350: a42f 003e 9056 b03d 78bc 953c 5093 5b3e
00000360: c282 4dba 1141 1d3e 7478 dd3d 039a 2f3d
00000370: a018 513e c2a6 a43d 625d 173e fbb5 143e
00000380: 56d5 033e e8ab a63c b996 143e 23e6 da3d
00000390: 2f34 e13c 81be c53d dbb5 ad3d c2d2 6a3e
000003a0: 11cf 6a3e 6af2 153e 3f27 833d 779f eb3d
000003b0: e583 0e3e e0c7 853e 15b6 973e 8536 383e
000003c0: 76dd b0ba 6e20 9a3d 5833 be3d 1ec7 5abc
000003d0: 6ced b33c dcd3 723e 2197 913c 957a a93d
000003e0: 2763 683e cf2d f33c e81d 1a3e 484e 053e
000003f0: 4579 323e f9de e53d 43b1 4f3e 1c6e 3e3e
