experiment/saml_20/GTEA-LSTM/GTEA-LSTM_checkpoint.pt (torch_old, 432399 bytes, 28 tensors)

edge_layers.0.lstm.weight_ih_l0 f4 [256, 11]
000000 7a d0 6c bd fc 90 b4 3d 40 f5 0a 3e 4f 74 21 bd
       -0.057816006 0.08816716 0.13570118 -0.03941756
000010 02 a9 ef bd 51 f2 49 bd 97 03 bd 3d ca da 66 3d
       -0.117021576 -0.049303357 0.092292 0.056360997
000020 f7 52 12 3e b6 90 81 3d f6 52 de 3d 5a 23 f5 3d
       0.14289461 0.063264295 0.10855667 0.119696334
000030 8a 7a 4e 3e 4b 11 7e be 3b eb 9e bd 26 f2 83 be
       0.20163932 -0.24811284 -0.077597104 -0.25770682
000040 75 f1 c7 bd 97 76 8a 3d 02 a8 99 bd a7 d8 3e 3e
       -0.09762851 0.067609005 -0.07502748 0.18637334
000050 cf 3a 1d 3e b6 f1 1d 3e 0c 2c 82 39 fb 8d b3 bd
       0.15354465 0.15424237 0.0002482835 -0.08767315
000060 77 0a d4 bc 80 55 66 3d 44 9d 61 bd 42 96 47 3c
       -0.025883896 0.056233883 -0.05508162 0.01218182
000070 62 41 33 3e 4a 4d 4c 3e 51 94 dd 3d 9f 8b 3c 3e
       0.1750541 0.19951358 0.10819305 0.18412636
000080 ee 69 cb 3d e1 30 32 3e 6a 24 ca 3d 5a 53 e7 3d
       0.09932314 0.17401458 0.09870227 0.11295195
000090 1f 26 37 be ca 44 b6 bd c4 59 50 3e 3d 4b 22 3e
       -0.17885636 -0.08899839 0.20346743 0.15849014
0000a0 49 30 42 3e 06 93 52 3d c3 c9 2f bd 12 c7 63 3d
       0.18963732 0.051409744 -0.042917024 0.05560977
0000b0 e0 98 99 3c 7a 8c 61 3e ab 97 84 be cc d1 94 be
       0.018749654 0.22026244 -0.25896963 -0.29066312
0000c0 51 dd 23 be 86 5f 55 3e 24 8e a7 3d c0 07 94 3d
       -0.16002394 0.2083722 0.08181408 0.07228041
0000d0 09 c5 e2 3d ac 1a 08 3e a3 26 51 3d 6f 71 ed 3c
       0.11072738 0.13291425 0.051062237 0.028984753
0000e0 f8 48 c6 3d ac 05 33 be bb a8 12 bd d6 39 05 bc
       0.096818864 -0.17482632 -0.035805445 -0.008131465
0000f0 c2 85 c5 bc f4 7c 76 bd ab a0 5e 3e 0d 95 34 3e
       -0.024111632 -0.06017776 0.21740977 0.17634983
000100 90 34 27 bd cb fd 45 bd d5 3d 0a be 76 38 f3 3c
       -0.040821612 -0.04833774 -0.1350015 0.029690009
000110 9c a2 4d 3d 0d 2d dc bd b2 11 29 be d6 28 39 3d
       0.050203905 -0.1075078 -0.16510656 0.04520496
000120 04 75 ae bc e3 5e 29 3e f5 c6 58 be 5d bd 3c 3c
       -0.021296032 0.16540103 -0.21169646 0.011519757
000130 83 42 00 bd 97 92 99 bc 4e 42 e3 bd 4e f6 96 bd
       -0.03131343 -0.018746657 -0.11096631 -0.07371198
000140 61 65 5a bd 03 4d 86 3e 5b b3 58 be cf 1e b0 bd
       -0.05331934 0.2623063 -0.21162169 -0.08599626
000150 0d 63 10 bd 4f d3 57 3e 5c 03 bf bd c4 0f cd 3c
       -0.035250712 0.21076702 -0.093268126 0.025031932
000160 94 97 1e be 8a 1b 3c 3e 71 4a 0f be 55 b4 dd bd
       -0.1548751 0.1836988 -0.13993241 -0.10825411
000170 78 b0 2d 3d 85 cb a7 bd af a1 80 bd 07 1e b6 bd
       0.04240462 -0.08193115 -0.06280839 -0.08892446
000180 30 2d e6 3d 1a 82 d1 3d 5a 09 4e 3e 46 cd 96 bc
       0.112390876 0.10229893 0.20120755 -0.018408429
000190 85 dd 35 bd 07 69 9e bc 41 35 2d 3e bb d7 17 3e
       -0.04440071 -0.01933719 0.16914846 0.14828388
0001a0 69 ed a4 be a4 df a3 be 5c 06 41 be 8b a8 bc bd
       -0.3221238 -0.32006562 -0.18850082 -0.092118345
0001b0 ad ae 39 3e 60 7a 08 3e 20 41 2e 3e a6 d8 f7 3d
       0.1813304 0.13327932 0.1701703 0.12101869
0001c0 35 58 cd bd 32 a8 0b 3e 77 6f b7 3d 80 72 a9 be
       -0.1002659 0.1363838 0.08956807 -0.3309517
0001d0 48 a9 53 be c4 56 af bd 71 75 6a 3e 7a 5b c6 3d
       -0.20670044 -0.08561471 0.22896363 0.096854165
0001e0 9c d9 77 3c 0c 29 91 bd 18 f7 88 3e 17 bd 8a be
       0.015127566 -0.07087907 0.26751018 -0.2709739
0001f0 c1 b0 06 be bf d1 d6 bd f0 f4 d3 3d 1a 2b 7e 3e
       -0.13153364 -0.10489225 0.103494525 0.2482113
000200 1c 94 8b 3d a3 3a e0 3d 47 ea 2a bd 1e 4e 0c 3e
       0.06815359 0.10948684 -0.04172733 0.13701674
000210 81 e0 1a be 23 e3 a6 3e 87 fd 80 3d d9 c5 5e bd
       -0.15124704 0.32595167 0.062983565 -0.0543879
000220 42 b1 5b 3e 20 82 cc bc b4 b0 b8 bd 5a 63 8c bd
       0.21454337 -0.024964392 -0.090180784 -0.06854887
000230 a1 92 24 3e 26 e1 a9 3d 24 95 21 be 3f c0 82 be
       0.1607156 0.08294897 -0.15779549 -0.25537297
000240 18 c8 42 bd 2b 6d 45 be 8a db 51 be b4 a6 50 be
       -0.047554106 -0.19279926 -0.20493904 -0.20376092
000250 a6 76 ff 3d 76 0f 0f 3d b3 64 d7 bd f4 93 f4 3d
       0.12473802 0.034926854 -0.10517254 0.11942282
000260 48 af f4 bd 50 f6 da bd 5b cb 4e 3e 9c 46 3f 3e
       -0.11947495 -0.10691512 0.20194761 0.18679279
000270 89 59 97 be a8 f9 53 3e 48 35 06 3e 86 b9 cd bd
       -0.29560497 0.20700705 0.13106263 -0.100451514
000280 1a 53 a7 be ce e4 ee 3d e6 8b 32 3e a8 c1 3b 3c
       -0.3268059 0.11664735 0.1743618 0.0114597455
000290 e8 52 23 3e 93 bb b5 3c e8 2f 8e bd c9 e9 44 bd
       0.15949595 0.022184169 -0.06942731 -0.048074517
0002a0 47 6b 58 bd 14 22 e2 bd ea 38 b4 3d 18 6b 04 3d
       -0.052836683 -0.11041656 0.08799918 0.032328695
0002b0 cc ea e7 3d 3c fb 97 3d 4f 05 8d 3d 42 cb 0a be
       0.11324081 0.07420966 0.06885778 -0.13554099
0002c0 6e aa 18 be 2b a9 a9 bd 02 b1 95 3d f3 b6 04 be
       -0.14908764 -0.08284219 0.07309152 -0.12960415
0002d0 d9 38 a5 be 89 33 26 3d 04 92 17 3e 8f 03 e0 3d
       -0.32269934 0.04057649 0.14801794 0.10938179
0002e0 50 0d cd 3d 12 61 1b be fe 79 ce bd 0f 61 74 3c
       0.10012305 -0.15173748 -0.10081862 0.014915719
0002f0 5f c1 7b 3d 2f cc 29 3d d1 31 aa bc 7d 0f 07 3d
       0.06146371 0.04145449 -0.020775707 0.032973755
000300 84 38 42 3c 86 a0 11 3d 3a af 81 3d dd 2e b1 bd
       0.011854295 0.035553478 0.0633225 -0.086515166
000310 65 22 5c 3d 29 1a 91 3d 96 1c 8d bc b0 1d 43 3e
       0.05374374 0.07085068 -0.017225545 0.19054294
000320 18 75 18 be 84 97 00 3d 56 67 2a be f6 e0 b9 3d
       -0.14888418 0.031394497 -0.16640982 0.09076111
000330 57 bc 42 3e ca c1 e5 3d c0 76 f9 3d 22 3b dc 3d
       0.19017158 0.11218603 0.12180853 0.10753466
000340 3c 34 42 3d a1 f7 23 3d d6 ec 33 3e 87 08 70 be
       0.047413096 0.04003108 0.17570814 -0.23440753
000350 0a 16 b8 bd ec 5b 5f 3d 57 75 4e 3e a5 7b 7a 3d
       -0.089885786 0.054531023 0.20161949 0.061153073
000360 cc f7 84 3c 1c 4f 0f 3e 54 5f b5 3d d6 14 7f 3e
       0.01623144 0.13995022 0.08856073 0.24910292
000370 aa 85 79 be f9 d8 06 3e 71 47 8d bb 7b 66 e5 3d
       -0.24367395 0.13168706 -0.004311495 0.11201187
000380 c2 7d 95 3e c2 8d d3 bd c7 b1 20 be 4a 4d 40 bc
       0.29197508 -0.103297725 -0.15692817 -0.011737177
000390 fa a4 d7 3d ee 6f 66 3e df f9 5d 3e 47 d9 e4 bd
       0.10529514 0.22503635 0.2167735 -0.11174255
0003a0 46 7a 4d 3e b0 91 5a be e9 60 7b bd 8b 88 85 be
       0.20066175 -0.21344638 -0.061371718 -0.26080737
0003b0 64 3e 28 3e dc 55 19 3e bf 17 99 3d 3c 6f 08 3e
       0.1643005 0.14974159 0.07475232 0.13323683
0003c0 f7 86 a2 3d 90 e3 6e bd a9 40 94 3b 74 4c 29 3e
       0.07935899 -0.05832249 0.0045243097 0.16533071
0003d0 54 dd 06 be 68 d1 33 be c3 39 94 bd d0 de ba 3d
       -0.13170367 -0.17560351 -0.0723758 0.09124529
0003e0 5c b7 9f 3c 6a fc e4 3d 49 e6 fe 3d 35 f3 2f 3e
       0.019496612 0.11180957 0.12446267 0.1718262
0003f0 44 e8 d7 3d a0 e9 5d bd c2 02 7c 3e 0b 1e 73 bd
       0.10542348 -0.05417788 0.24610427 -0.059354823

edge_layers.0.lstm.weight_hh_l0 f4 [256, 64]
000000 7b 28 47 bd 26 24 f5 3c ff c2 16 3d df a1 44 bd
       -0.04862259 0.029924463 0.036807057 -0.048005935
000010 90 fb 71 3d bd 7a b0 3d 0a 0f 53 3c d5 cb 9f 3b
       0.0590778 0.086171605 0.012882004 0.0048765936
000020 eb 4d b0 bd 53 a2 a6 bb 88 d4 5a bd 5d d7 23 be
       -0.08608612 -0.0050852685 -0.05342534 -0.16000123
000030 09 6b 05 bd 31 1e a3 3c c8 ce 83 3d ac 69 a3 bd
       -0.03257278 0.019911857 0.06435925 -0.0797914
000040 ca 0b 31 3c 45 3c ea 3d e7 35 a4 3c c1 33 c1 3d
       0.010806033 0.11437277 0.020045234 0.094336994
000050 75 a2 d3 bd d2 31 26 3e 8e e1 08 3e 09 f9 40 bc
       -0.103337206 0.16229942 0.13367292 -0.011778125
000060 b3 22 97 3c 45 12 88 bd 4b b9 bb bd 20 a5 9a 3d
       0.018449163 -0.0664411 -0.09166201 0.07551026
000070 42 70 4c 3d 3f 92 06 3e 3d 25 97 bd 6a 64 de bb
       0.049911745 0.13141726 -0.073801495 -0.0067868726
000080 4e cf 20 3d 53 96 77 3d 78 29 96 3d a4 d4 60 bd
       0.0392602 0.060446095 0.07332128 -0.05489029
000090 b3 c2 78 bd 54 9c a2 bd 48 96 74 3d 19 d9 98 3b
       -0.060732555 -0.079399735 0.059713632 0.004664552
0000a0 56 a8 f2 bc d0 69 21 be ba 16 b5 3d 0b 8f 38 bd
       -0.029621284 -0.1576302 0.088422254 -0.04505829
0000b0 2d 42 f8 bd 26 46 e3 3d 0b 21 a2 bd dc 37 01 3d
       -0.12121997 0.11097364 -0.07916459 0.031547412
0000c0 de cf 91 bc cc 9a 79 3b 34 20 76 bd 76 5f 31 bc
       -0.017799314 0.003808665 -0.060089305 -0.010825982
0000d0 d0 9c d1 bc a6 10 20 3d c2 08 ca bc 7f dc 11 bd
       -0.02558747 0.039078377 -0.02466238 -0.035610672
0000e0 07 d5 12 3e 11 c3 00 be 9b 3e 21 3d 56 19 65 bd
       0.14339076 -0.12574412 0.039366346 -0.055932365
0000f0 1d fb 0e 3e dd fb a5 bd 5b e7 8d 3d 2a 9a a9 bc
       0.1396298 -0.0810468 0.06928893 -0.020703394
000100 a4 6b 46 3e 66 bd 98 bd ab da 3c 3d 81 5c 86 be
       0.19376999 -0.07458 0.046106976 -0.2624245
000110 27 a9 90 3d 99 4a 83 3d 97 63 99 be 38 3a 49 be
       0.07063513 0.06410713 -0.29958794 -0.19651115
000120 2d f1 63 3d 5a 84 9d be 90 06 69 be 65 d1 d2 3c
       0.055649925 -0.3076504 -0.2275641 0.025734613
000130 95 cd 1b 3e ae bc ba b8 a1 19 36 be 85 f6 15 be
       0.15215142 -8.9043155e-05 -0.17783214 -0.14644821
000140 46 5c a1 3d b9 94 47 be e0 e5 27 be d0 da 55 be
       0.07878928 -0.19490327 -0.16396284 -0.20884252
000150 c1 58 dc 3d 93 9f 5a 3d 6c 57 7a be ea 79 32 be
       0.10759116 0.053374838 -0.24447411 -0.17429319
000160 db f5 a0 3d 7d 64 65 bd 27 02 a9 bd 16 15 8b 3d
       0.07859393 -0.056004036 -0.08252364 0.06791131
000170 72 d5 ad bd b6 bc 67 be 11 2b d3 3c e1 9f 83 be
       -0.08487977 -0.22630581 0.025777372 -0.25707915
000180 85 10 ae bd 8c 3a 38 be a6 89 8d 3d 72 00 90 3e
       -0.084992446 -0.17991084 0.0691102 0.2812534
000190 d9 b6 14 3e 33 7a 62 be 05 43 49 3e 59 79 4a bd
       0.14522876 -0.22116928 0.19654472 -0.049432132
0001a0 61 45 48 3e 72 f6 5b 3e 1d f9 19 bd 44 10 80 3e
       0.19557716 0.2148073 -0.03759109 0.2501241
0001b0 a3 c0 71 3d 71 3e a6 bd 1c e6 89 bc c6 88 1d 3e
       0.059021603 -0.081173785 -0.016833358 0.15384206
0001c0 7e ba 06 3e fc a6 dd 3a 85 4b 72 bc 55 10 53 3e
       0.13157079 0.0016910727 -0.014788513 0.20611699
0001d0 0f 4c 7e be 74 d1 5e 3e 69 ba fc bb e0 32 35 be
       -0.24833702 0.21759588 -0.0077126515 -0.17695189
0001e0 d2 d7 44 be 54 83 88 3e f6 94 5d 3e 6e 72 a6 3d
       -0.19222954 0.26662695 0.21638855 0.081272945
0001f0 78 92 6c be 4f 40 9f bd e1 44 83 3e 61 e8 c2 3d
       -0.23102748 -0.07775938 0.25638488 0.09516979
000200 0e ac a0 3d b0 28 1c 3d 43 6a 96 3c 95 a8 42 3d
       0.07845317 0.03812474 0.018361216 0.047524054
000210 bd 6d 31 3d 7f 91 c9 3d f8 58 61 3c c6 62 bc bd
       0.043317545 0.09842204 0.013754122 -0.09198527
000220 9f ab b2 3c 4f 19 19 be c7 a1 0b be 95 12 03 be
       0.021810351 -0.1495106 -0.13635932 -0.12800057
000230 44 8c 07 bd 18 6a 9f bd 09 69 1a be e7 ae a3 bd
       -0.033092752 -0.07783908 -0.1507913 -0.07992344
000240 5d 18 ec 3d fe 04 2e be f7 6d 89 bd 12 1e df bd
       0.115280844 -0.16994092 -0.06710427 -0.10894407
000250 3c d7 52 3e 7f ed dc 3d c0 92 22 bd de 9e 7c 3d
       0.20589918 0.10787486 -0.039690733 0.061674945
000260 ae c5 14 3e 98 ca 70 3d 49 c3 b6 3d d7 f2 21 3d
       0.14528534 0.05878696 0.089239664 0.03953823
000270 70 8a 11 be 4c 2d 55 bc 99 bf ff 3d 98 55 ea bd
       -0.14212966 -0.013011288 0.12487716 -0.11442107
000280 1a 43 99 3c 08 34 9a bd 87 43 e8 3d e4 a5 0d 3e
       0.018708754 -0.075294554 0.11341005 0.13832814
000290 87 81 8c bd 43 12 15 bd 10 09 a5 bd a7 a1 bc bd
       -0.06860643 -0.03639437 -0.08058369 -0.0921052
0002a0 ad c6 97 3d 71 80 98 bd 1c af e8 bc a9 34 d4 3d
       0.07410941 -0.07446373 -0.028403811 0.10361607
0002b0 db 42 ed 3c 27 ce 26 be ff 03 81 3d 8b 3f bb 3a
       0.028962543 -0.16289578 0.0629959 0.0014285905
0002c0 68 a1 30 3d 41 2d 9f bd 15 b2 b2 bd 1e a9 07 3e
       0.04312268 -0.077723034 -0.08725373 0.13248107
0002d0 eb 29 9e 3c f3 36 f7 bb e8 80 a9 bb dc 8a f2 bd
       0.019307097 -0.0075443923 -0.0051728375 -0.118428916
0002e0 42 ae d7 3d 8f f8 9d bc c0 c8 9b bd 6e ca 0e bc
       0.10531284 -0.019283561 -0.076066494 -0.008715255
0002f0 35 10 2f be da 5b a9 3d 4f fa 49 3d 1e 0f 26 3e
       -0.17096026 0.082694724 0.04931098 0.16216704
000300 59 7a 19 3e 74 39 0c be c5 bf 06 3d 91 d5 5d bd
       0.14988078 -0.13693792 0.03289773 -0.05415875
000310 7a dc 25 3e ec 28 0b 3c d5 81 16 be 92 8d 49 3d
       0.16197386 0.008493643 -0.14697964 0.049207278
000320 55 cc 7d 3d 94 e4 5e 3d bc b7 e6 bd 66 f5 28 be
       0.061962444 0.054417208 -0.11265513 -0.16499862
000330 fe 29 ae bd 7c 43 8d 3c a4 93 89 3d 0f e6 6b 3d
       -0.08504103 0.017244093 0.06717613 0.057592448
000340 35 6a ae 3d 6f 9f fd bd e8 1a 2d 3e d0 73 3b 3d
       0.08516351 -0.12383925 0.16904795 0.045764744
000350 1c 04 05 3e 03 7e 7c 3e a3 a6 9d 3d 31 25 2c 3d
       0.12989849 0.24657445 0.07697799 0.042027656
000360 4c 4d 58 3d 4c 89 8e bd 03 10 22 3d 5d f9 f8 bc
       0.05280809 -0.06959781 0.03956605 -0.030392343
000370 fc 28 91 bc 5a 8e e1 3d 08 3e d3 3d 6e b2 0d 3d
       -0.017719738 0.110134795 0.10314566 0.034593992
000380 a1 94 7f 3c 31 b7 41 3d 83 b2 40 bc 41 4b 40 bd
       0.015599401 0.047293846 -0.0117613105 -0.046946768
000390 a1 21 58 bd 20 54 47 3d 9e 97 b8 bc d7 b4 1d 3d
       -0.052766446 0.048664212 -0.022533234 0.03850254
0003a0 97 71 61 3d c3 06 79 bd 15 cf 89 3d f4 39 82 3d
       0.05503997 -0.060797464 0.06728951 0.0635871
0003b0 e2 e5 d1 bd ee e9 8c bd dc 4a 07 3d e9 8d a2 bd
       -0.10248925 -0.06880556 0.033030376 -0.079372235
0003c0 0c e6 78 3b ec 4f 92 bd 62 b1 19 bc 55 23 b9 3c
       0.0037978915 -0.0714415 -0.00938067 0.022599855
0003d0 a9 8c 13 be f7 70 ff 3d d5 e0 3f 3c fb fd 14 bd
       -0.14409126 0.12472718 0.011711319 -0.036375027
0003e0 7f ae 23 bd a4 3b 44 3d cb 65 a9 3d bd 0a 21 be
       -0.039961334 0.04790844 0.082713686 -0.15726753
0003f0 7a 8a af 3d 5d 2a 94 bd 0c d3 1c 3e 58 2e 7a 3d
       0.08571334 -0.07234643 0.15314883 0.061079353

edge_layers.0.lstm.bias_ih_l0 f4 [256]
000000 45 0e 03 3e 26 37 36 3e 8c 05 0e 3e a3 c8 a8 3c
       0.12798412 0.17794475 0.13869303 0.020603484
000010 46 4c f4 3c 29 24 6f bd f5 49 92 3d 17 b3 dc bc
       0.029821526 -0.058384094 0.071430124 -0.026940865
000020 be 10 8c 3e b5 93 02 3e fb e0 67 3e e0 91 52 3e
       0.27356523 0.12751658 0.22644417 0.2056346
000030 23 08 51 3d da c3 67 3e 5b 0c 0c 3e 95 db 3d 3e
       0.05103315 0.22633305 0.13676588 0.18540795
000040 78 0d 2f 3d 3f 8f 25 be c9 95 08 3e 41 02 bc 3e
       0.042737454 -0.16167925 0.13338389 0.3672047
000050 28 02 85 3e 0b 89 c0 3d 12 77 7d 3e 14 15 ac 3e
       0.25978208 0.09401139 0.24752453 0.3360983
000060 12 53 bc bd 58 eb 82 bd d1 90 e5 bd bc f7 53 3e
       -0.09195532 -0.063925445 -0.11209262 0.20699972
000070 93 aa c2 bc 93 a8 8c 3e 5f c2 66 be bc 4c 84 3e
       -0.023762977 0.27472362 -0.22535084 0.25839794
000080 d4 66 52 3e ce 20 78 3e 22 4e ba 3d 4c ee d3 3d
       0.20547038 0.24231264 0.09096934 0.10348186
000090 d7 71 05 3e 3a 01 6a bc 65 e5 03 3e 27 07 2e 3e
       0.13031708 -0.014282519 0.12880476 0.16994916
0000a0 d8 4f 11 3d b9 4d 1d 3e 8b c7 3d 3c 7a d2 8c 3e
       0.035476536 0.1536168 0.011583219 0.2750433
0000b0 91 78 08 bd 75 8e 26 3e c6 8d 2c be bc df 29 3e
       -0.033318106 0.1626528 -0.16850957 0.16589254
0000c0 02 69 fb 3d 51 8f bd 3d 5d 73 23 3e e7 74 c7 3c
       0.12275888 0.09255851 0.15961976 0.024347736
0000d0 d1 97 6f 3e 00 16 7b 3e 82 cd 19 3d c9 14 ce 3c
       0.23397757 0.24520111 0.037549503 0.025156396
0000e0 84 52 a3 3d e1 37 7a 3e 83 87 f4 3d 71 83 c5 3c
       0.07974723 0.24435379 0.11939909 0.024110528
0000f0 36 e0 d1 3d 63 11 7a 3d 03 ad 82 3e 40 7c 8d 3e
       0.10247843 0.061051738 0.25522622 0.27633858
000100 61 1a 9e 3d bf 70 e0 3d 60 41 5a 3d d7 9d 32 bd
       0.07719875 0.109590046 0.053285003 -0.04360756
000110 7a 8e c6 3c 75 c1 c0 bd 2d bd 10 bd 21 df 0b be
       0.02423786 -0.09411899 -0.035336662 -0.13659336
000120 b9 45 66 bd fd b4 fa bd f7 2e 84 bd 58 5b 1b 3d
       -0.056218836 -0.12241552 -0.0645427 0.03792891
000130 58 c6 0c be 1f 1b ec bd 2d a0 b4 3d 0a f5 a1 3c
       -0.13747537 -0.115286104 0.088196136 0.019770164
000140 d0 71 48 bd 3a 1e 04 bd 64 0e 8b 3b fb 44 dc 3d
       -0.048936665 -0.03225539 0.004243659 0.107553445
000150 e4 89 3e 3e e7 70 2c be f8 ba 27 be 36 6b 93 3c
       0.18607289 -0.16839944 -0.16379917 0.017995458
000160 90 d0 80 bd 78 75 10 be c6 11 a5 3c 14 db ce bd
       -0.0628978 -0.14107311 0.020150077 -0.101003796
000170 22 6a 28 be 6c be 5e bb ba 11 66 bd 8f ed 5d 3c
       -0.16446736 -0.0033988012 -0.05616925 0.013545408
000180 05 e1 7f 3d 97 85 57 3e 95 86 9c 3c aa 65 2e 3e
       0.062470455 0.21047054 0.019107142 0.1703097
000190 8a 70 56 be 22 9a e0 bd 67 f0 b3 bc 8e e9 5f bc
       -0.20941368 -0.109668985 -0.021965219 -0.013666524
0001a0 71 2f 34 3c b0 d9 4f be e1 c8 87 3c bb 01 ea bd
       0.010997639 -0.20297885 0.016575279 -0.11426111
0001b0 0a 18 e3 bd 05 07 1a bd ad 23 25 be 78 27 2e 3e
       -0.110885695 -0.03760435 -0.1612689 0.17007244
0001c0 5b 3e 51 3e 3a f7 9b bd 81 31 a5 bd 9f 3b 69 bc
       0.20433943 -0.07615514 -0.08066083 -0.014235406
0001d0 ee 14 b2 bd 68 ee 65 3d f0 23 29 bd 38 3f 0e 3d
       -0.08695398 0.056135565 -0.04129404 0.03472826
0001e0 e7 f7 ae bd b2 3b 0d 3e d6 3f 8f bc 9a 86 a5 bd
       -0.08543377 0.13792303 -0.017486494 -0.08082314
0001f0 9a 7f f8 3d ca df cb bd d0 7f ab 3d 09 80 c8 3d
       0.12133713 -0.09954794 0.08373988 0.09790046
000200 00 4e c2 3e de 33 b7 be b3 01 a5 3e 96 9e 87 be
       0.37950134 -0.3578176 0.3222786 -0.2648818
000210 f3 15 fd bd cc c1 e6 3d 36 8e 22 be af 09 25 be
       -0.12357702 0.112674326 -0.15874562 -0.16116975
000220 8b 17 97 3e 3a 86 7d be 23 62 49 be f2 16 c8 3d
       0.2951015 -0.24758235 -0.19666342 0.097700015
000230 f6 39 22 3e 98 2f 88 3e c4 e5 62 be 85 ce c0 bd
       0.15842423 0.2659881 -0.22157961 -0.094143905
000240 e7 21 80 be 01 14 2f bc 9c 6f 13 be a1 92 a5 be
       -0.25025865 -0.010685922 -0.14398044 -0.3233843
000250 fd 8c 46 3e e8 0f 36 be dc 18 87 be 4a e4 c0 be
       0.1938972 -0.17779505 -0.26386154 -0.3767417
000260 5d af 84 3d ac e0 28 3d ff 90 4e bd 9d 5e 3e 3e
       0.064787604 0.04122989 -0.050431248 0.1859078
000270 2b a0 84 be 47 7c 2f be a6 b0 d0 3d 7d 76 1a be
       -0.25903448 -0.17137252 0.10189943 -0.15084262
000280 02 eb 9b be a3 fe 61 be ca 51 c5 3d 85 89 13 3e
       -0.30452734 -0.22069792 0.09634741 0.14407928
000290 8e 4e 77 3e 5b bc 2e be b3 8b 56 3e f4 93 33 be
       0.2415106 -0.1706404 0.20951729 -0.17536908
0002a0 e4 2e 7b 3e cd f9 9e 3e 3c a1 89 bc 62 0b 9c 3e
       0.24529606 0.31049958 -0.016800515 0.30477434
0002b0 89 db 84 3e c6 34 9f be 0d c5 ad bc 3c 06 54 3e
       0.25948742 -0.3109495 -0.021212125 0.20705503
0002c0 3d 7f 8a 3e 6f 13 55 3e 3a a3 a4 3d 30 dd 4e 3e
       0.270502 0.20808195 0.080389455 0.20201564
0002d0 a2 9f 71 be 59 15 6a 3e 0a 94 a2 be b6 d0 4e be
       -0.23596051 0.22859706 -0.3175357 -0.20196804
0002e0 70 bd 3f bd 68 55 8c 3e b3 75 0f 3e 45 c4 0a 3e
       -0.04681152 0.2740891 0.14009742 0.13551433
0002f0 75 71 63 be 69 6c 2d be d2 e4 8b 3e f7 e6 8a 3e
       -0.22211249 -0.16935886 0.27323014 0.27129337
000300 c4 90 10 3d 47 20 43 3e 3f 04 0c 3e 17 20 49 bd
       0.03529431 0.19055282 0.13673495 -0.04910287
000310 74 59 bc 3d 10 fa ba bd 99 9e d5 bc f3 35 a4 bd
       0.09196749 -0.09129727 -0.026076602 -0.080181025
000320 2c 8b 51 bd 89 ae 38 3e 0c 9a 9f 3d 85 1f f2 3d
       -0.051158115 0.1803533 0.07793054 0.11822418
000330 98 32 a1 3c 25 31 30 3c 21 14 8f 3d 42 e1 c2 3c
       0.019677445 0.0107539045 0.06986261 0.023789052
000340 77 52 97 3d 2a 8d f3 3a 10 68 a6 bd 09 29 22 3e
       0.07388776 0.0018581499 -0.08125317 0.15835966
000350 00 b0 c1 bb ed ad 75 bd e6 a0 99 3c 65 68 24 3e
       -0.0059108734 -0.05998032 0.01875348 0.16055448
000360 3b 49 e8 bd 32 09 c5 3c 8f 88 16 be 27 e3 28 3e
       -0.113420926 0.024052236 -0.1470053 0.16492902
000370 10 d9 ae bb e7 cb 07 be b8 d0 2d be 9d 34 0d 3e
       -0.0053359345 -0.13261376 -0.16974151 0.13789602
000380 65 0b 2f 3e f7 2b 97 3d 47 48 0d 3e 70 ba a6 bd
       0.1709419 0.073814325 0.13797103 -0.08141029
000390 8d 08 4f 3d 90 05 e5 3c b9 f6 d8 3d 67 db e3 3a
       0.050545264 0.027956754 0.105939336 0.0017384113
0003a0 c2 da 26 3e 1f 62 b5 3d 72 b3 cf bd ff 36 e3 3d
       0.16294387 0.08856606 -0.10141648 0.11094474
0003b0 9a 29 81 3d 67 b4 4a 3e 9f 18 7c bd ac 51 c3 3d
       0.06306763 0.1979538 -0.061546918 0.09537062
0003c0 44 43 2a bd a2 d7 9e bd 82 72 20 3e 05 65 3d 3d
       -0.041568056 -0.077559724 0.15668681 0.046238918
0003d0 96 0d 0f bd 5e ed 22 3e 7f 41 2d 3d 69 83 af bd
       -0.034925066 0.15910861 0.04229879 -0.085699864
0003e0 37 0a 1b be eb 54 81 bd 28 42 f7 bc 1a 2c 94 bd
       -0.15140615 -0.06315025 -0.030182913 -0.07234974
0003f0 65 f9 86 bd bc ff ca 3d 84 88 ba 3d 8b a0 10 3e
       -0.06590537 0.09912059 0.091080695 0.14123742

edge_layers.0.lstm.bias_hh_l0 f4 [256]
000000 08 60 76 3e 85 76 3f 3e cd 76 e4 3d 83 5a 56 3e
       0.2406007 0.18697555 0.11155472 0.20932965
000010 b3 66 4f 3d 81 fa 91 bb ca 27 cc 3c bd 99 a6 bc
       0.05063505 -0.004454911 0.024921317 -0.02033698
000020 b1 e2 27 3e fd 25 48 3e ae 5d 02 3e 8d 3a 80 3e
       0.1639507 0.19545741 0.12731048 0.2504467
000030 65 a8 8e bb 9e ef 9a 3d d0 0b f0 3d 84 42 57 3e
       -0.0043535703 0.075652346 0.11721003 0.21021467
000040 55 ac 5a 3c 40 28 19 be 02 88 49 3e 29 e1 45 3e
       0.013346751 -0.1495676 0.19680789 0.19324173
000050 dc 64 95 3e 76 28 1b 3c 50 b6 53 3e 5d 34 98 3e
       0.29178512 0.009470096 0.20675015 0.2972745
000060 2d e8 88 3d 7c f1 c2 3d 5a 9e f3 3d 5d cb d6 3d
       0.06684909 0.09518716 0.118954375 0.10488007
000070 81 1b e9 3d 9e c0 1a 3e 09 0b 26 be 78 a0 d0 3d
       0.11382199 0.1511254 -0.16215147 0.10186857
000080 a1 cd b0 3e 49 69 de 3d 3a be 3c 3e 39 91 ac 3d
       0.34531882 0.10859925 0.1843194 0.084261365
000090 2e 4f 74 3e 4a bd 17 be 1a 47 4a 3d 28 8c 8a 3d
       0.2385833 -0.14818302 0.049384214 0.06765014
0000a0 cb f8 05 3e 5b ac 4a 3e d6 6c 25 3e dc 70 c5 3d
       0.13083188 0.19792311 0.16154799 0.09640667
0000b0 ca 79 33 3e 34 5e 19 3e 1c 21 4a bd bb 23 a4 3e
       0.17526928 0.14977342 -0.04934798 0.3205851
0000c0 e1 59 88 3d 9e 72 1a 3d fe f0 ee 3d 69 62 e6 3d
       0.06657768 0.037706964 0.11667059 0.11249239
0000d0 08 d8 8a 3e 78 e8 23 3e 5a eb b5 3d fa fc 95 3c
       0.27117944 0.16006649 0.088827804 0.018309105
0000e0 f7 9f e1 3d 4e 79 94 3e 24 c5 35 bd 46 4b c2 3d
       0.11016839 0.28998798 -0.04437746 0.094870135
0000f0 8a cc 9d 3e 90 25 1d 3e 18 22 6e 3e f3 24 be 3e
       0.30820113 0.1534636 0.23255193 0.37137565
000100 92 75 7f bd 24 5b 44 3e 8b 66 5d bc 7e cc 9d 3c
       -0.062367983 0.19175392 -0.013513218 0.019262549
000110 62 ed 18 3d 7b 70 47 be 64 b6 f8 bd a8 8a 39 be
       0.03733576 -0.19476502 -0.12144163 -0.181193
000120 03 ff af bc 04 d5 5b bc 84 f4 71 3c 92 21 14 3e
       -0.021483904 -0.013417486 0.01476777 0.14465931
000130 05 34 c7 3d 9d dd 4b bd 91 e4 27 3e 78 46 3e 3d
       0.09726719 -0.049771894 0.16395785 0.046453923
000140 60 dc 04 be 3a 9a 8a bd 15 73 0f be e8 99 c1 3d
       -0.12974691 -0.06767698 -0.14008744 0.094531834
000150 c9 64 9b 3d 45 eb 5b be 19 f1 a4 bc 2c 47 17 b9
       0.075875826 -0.21476467 -0.020134496 -0.00014426996
000160 62 14 2b 3d e0 09 f5 bd 1a b4 ae bd a4 c9 ac 3d
       0.041767485 -0.11964774 -0.085304454 0.084368974
000170 30 e7 af 3c e5 9f 0a be 77 4d f7 bd 85 93 de 3d
       0.021472543 -0.13537557 -0.12075322 0.10867981
000180 d7 bb 0b bc a5 69 24 3e 44 f0 89 bd 9d 8f 85 bb
       -0.008528671 0.16055925 -0.0673528 -0.004075958
000190 9b 29 06 be c3 ae 33 bc ce 23 1f be 87 9e 61 bd
       -0.13101809 -0.010966959 -0.15541002 -0.055082824
0001a0 2b e2 11 bd 25 6e ae bd 10 41 22 3d 9a a4 cd bd
       -0.03561608 -0.08517102 0.03961283 -0.10041161
0001b0 4f 89 5f bc 3c 69 93 bd fe 03 a6 bd c1 cb aa 3d
       -0.013643577 -0.07197806 -0.0810623 0.08339644
0001c0 8f 1d 70 3e 02 17 c1 3c 2b 06 55 be 3e 38 06 be
       0.23448776 0.023570541 -0.20803134 -0.13107392
0001d0 d1 e5 72 bd e5 b2 3e 3e 08 e1 56 be cf 46 80 3d
       -0.0593012 0.1862293 -0.2098428 0.06263506
0001e0 b9 86 0f be 50 04 d0 3d 72 d9 0e be 56 3b be bd
       -0.14016236 0.101570725 -0.13950136 -0.09288661
0001f0 18 72 24 3d e4 9b 27 bd e5 41 97 3d 80 8a 8a 3d
       0.04014787 -0.040920153 0.07385615 0.06764698
000200 22 7f b3 3e c4 55 c3 be 17 5e 46 3e 65 11 2f be
       0.35057932 -0.3815137 0.1937183 -0.17096479
000210 fb 39 3b bd 9f fd c6 3d aa c6 7f be cc 4a 6b be
       -0.04570959 0.09716343 -0.24978128 -0.22977751
000220 2c e4 33 3e 37 aa 8a be bc c7 94 be e4 42 45 3e
       0.1756751 -0.2708299 -0.29058635 0.19263798
000230 3d 7f 44 3e de 36 8a 3e 5c 1d a0 bd 36 1e 75 be
       0.19189163 0.26994985 -0.078181 -0.23937306
000240 9e 9b 9e bd 36 e4 ac 3d f3 71 66 be 41 fe de bd
       -0.077445254 0.08441965 -0.22504406 -0.10888339
000250 05 e6 99 3e be 4d 48 be 99 44 2f be 62 52 9c be
       0.30058303 -0.19560906 -0.17116012 -0.30531603
000260 cb a0 04 3e 0c ca 97 3c 0e 45 f6 bc 52 7c 92 3e
       0.12951963 0.01852896 -0.030062225 0.28610474
000270 34 03 87 be d8 61 21 be e3 1b b1 bd 7c 05 a9 be
       -0.2636963 -0.1575998 -0.08647897 -0.33011997
000280 4d c4 9d be 65 72 95 be ab f6 04 3e b2 48 35 3e
       -0.30813828 -0.2918884 0.12984721 0.17703512
000290 73 cf 1f 3e a2 de b7 bd a9 6d 2c 3e 96 6a 41 be
       0.1560648 -0.08978011 0.16838707 -0.18888316
0002a0 42 dd 86 3e bb 92 86 3e ac 79 74 3d f2 79 a9 3e
       0.2634068 0.2628382 0.059686348 0.3310085
0002b0 3a 54 5c 3e fb 63 b1 be 00 96 8d bc ea 1c 59 3e
       0.21516505 -0.34646592 -0.01728344 0.21202436
0002c0 9a 90 56 3e 99 4f 63 3e 13 cf 3e 3e 43 e3 41 3e
       0.20953599 0.22198333 0.1863368 0.1893435
0002d0 52 9b 67 be 6c ca 86 3e ba 68 84 be 66 bb 86 be
       -0.22617844 0.2632631 -0.2586115 -0.2631485
0002e0 49 86 eb bd e7 e1 74 3e 34 a9 0e 3e 00 52 54 3e
       -0.11500222 0.239143 0.13931733 0.20734406
0002f0 5b 4f 7f be 61 27 67 be 6f 42 68 3e dd 19 9d 3e
       -0.24932615 -0.22573616 0.22681592 0.30683795
000300 a8 db 0c 3e 11 8f bc 3d 58 0d 12 bd e5 85 89 bc
       0.13755667 0.09206975 -0.035657257 -0.016787479
000310 c9 bb 6e 3d e1 9c ed bd 33 70 c2 3b 5f 07 9f bd
       0.058284555 -0.11602188 0.0059337853 -0.07765078
000320 a2 03 84 bc 1b e6 24 3e bf 3d 87 bb 1a 14 3d bd
       -0.016115014 0.16103403 -0.0041272338 -0.04616175
000330 c1 52 2f bd e8 00 4d bd c7 fb 1e 3e b4 df 02 bd
       -0.04280353 -0.050049692 0.15525733 -0.03195162
000340 a2 ec 8b 3d 29 97 31 be cf 98 f3 3a 25 06 57 3d
       0.068322435 -0.1734282 0.0018584969 0.052496094
000350 0e 2f 29 3e ad aa 83 bd 70 62 1d 3e 0e 64 3a bd
       0.16521856 -0.06429038 0.15369582 -0.045505576
000360 1e 67 0f 3d 0c c6 93 3b 6b a0 5c be ab 61 b2 bc
       0.03501045 0.004509693 -0.2154557 -0.021775087
000370 bd 7d a1 3c 67 2d 9e 3d fd ad 1d be 37 b1 69 3d
       0.019713277 0.077235036 -0.15398403 0.05705377
000380 74 ef 8a 3d 68 9d 08 3e a2 00 81 3a ab 24 0f 3e
       0.06783953 0.13341296 0.0009842108 0.13978831
000390 25 12 4b 3e 4e 58 67 bb b1 ba a5 3d 63 9b 9f 3d
       0.1983114 -0.0035300436 0.08092249 0.077933095
0003a0 91 69 30 3e 3d 7b c6 3d 24 50 df 3d 46 bd 21 3e
       0.1722777 0.096914746 0.109039575 0.15794858
0003b0 5e 0e 45 bd 47 e1 af 3d 15 ce 95 bd d2 89 81 3d
       -0.048109405 0.0858789 -0.07314698 0.06325115
0003c0 a8 da 04 3e ac a4 15 3e 47 5d e3 3d 89 5e 01 3d
       0.12974036 0.14613599 0.111017756 0.031584296
0003d0 54 16 bf 3d ec d8 56 bc 9c a3 f1 b9 7a 14 d3 bd
       0.093304306 -0.013113242 -0.00046089 -0.1030664
0003e0 9c dd 39 3d ea b2 58 3d 46 fb 0d bd 84 89 36 3d
       0.04537736 0.052905 -0.03466346 0.04456474
0003f0 18 ec c4 bc 7d 50 a9 bd ac d1 22 bc d4 17 fc 3d
       -0.02403836 -0.08267305 -0.009937685 0.12309232

edge_layers.1.lstm.weight_ih_l0 f4 [256, 11]
000000 3f c6 0f be 4a d6 0e 3e 92 cd 7a be ae 3f ad bd
       -0.14040469 0.13948932 -0.24492481 -0.084594116
000010 5d 18 7d be 56 8d a1 3c 07 d4 c7 3d e0 05 46 bd
       -0.24716325 0.019720715 0.09757238 -0.048345447
000020 df e5 3a be 8d 75 86 3c 60 4a 1b 3e 3a 0c 7e be
       -0.18251751 0.016413474 0.1516509 -0.24809352
000030 c9 b7 ce 3d c2 4c af be d9 08 9d 3c c5 33 07 be
       0.10093648 -0.3423825 0.019169258 -0.13203342
000040 52 7f 54 be 39 81 ad bd 3a fc 18 3e d8 18 30 3e
       -0.20751694 -0.08471913 0.14939967 0.17196977
000050 f6 86 32 3e ff b8 5c 3e 20 76 13 3e be 61 73 3e
       0.17434296 0.21554945 0.1440053 0.23767754
000060 7d d1 71 bc 39 08 47 bc 7e 3a fd bc d7 88 f9 3d
       -0.014759419 -0.0121479565 -0.03091168 0.12184303
000070 25 63 f1 3d af 09 aa 3e 76 fd 1c 3e 06 86 d6 3d
       0.117864884 0.33210513 0.15331063 0.10474782
000080 9c 68 82 3e 68 63 e3 bd 70 dc 94 3e 86 9b 40 be
       0.25470436 -0.111029446 0.2907443 -0.18809327
000090 a7 c4 69 3d f6 17 e0 3d d5 4b 97 bd a7 f7 95 bd
       0.057072308 0.1094207 -0.07387511 -0.073226266
0000a0 af ef e8 bc db c7 27 3e 0f 83 1f 3d 74 f9 1e bd
       -0.028434603 0.16384833 0.038943347 -0.038812116
0000b0 02 ad a4 3d bf 1e 76 3e 63 ee 3a bc 11 ba ef bd
       0.08040811 0.24035166 -0.011409375 -0.11705411
0000c0 fe ed a0 be 5b e7 44 bd 23 10 f9 3b dc 38 38 3e
       -0.31431574 -0.0480722 0.0076008006 0.1799044
0000d0 0b df 20 3e 63 e9 14 3e 77 3f 6e bd 21 e4 0d 3e
       0.15710084 0.14542155 -0.058165994 0.13856556
0000e0 f7 6d 8c 3e 22 35 10 be d9 93 cc bd 9f 6d d3 bd
       0.27427647 -0.14082769 -0.09989137 -0.10323643
0000f0 46 dc 21 be cc 76 9b bd 64 c8 7c 3c de 57 2e 3e
       -0.15806684 -0.07591018 0.015428636 0.17025706
000100 0a 11 ae 3d b0 63 72 3d 6c 08 e8 3c 37 98 d7 bb
       0.08499344 0.0591771 0.028324328 -0.0065794247
000110 d6 68 14 be 56 63 c1 3c 01 e7 19 3d 5f 32 4d 3d
       -0.14493117 0.023606937 0.037573818 0.050096866
000120 65 14 7e bc a7 92 97 3e 7b 83 3f 3e a6 b5 d2 3d
       -0.015507792 0.29604074 0.187025 0.10288553
000130 a9 fe 79 3b 3e c1 dd bd b6 59 5d 3e 7b d5 a6 be
       0.0038146174 -0.10827874 0.21616253 -0.32584748
000140 91 ba b2 3d b6 99 57 3e 2f 92 79 be d5 be ba bd
       0.08726991 0.2105473 -0.24372171 -0.091184296
000150 e0 a6 89 3d 25 69 6e 3e bb 7d 1c 3e b9 5e 49 3e
       0.06721282 0.23282297 0.15282337 0.1966504
000160 09 16 a9 bd c4 00 8f 3c 70 55 95 3d 61 da 69 3d
       -0.08256156 0.01745642 0.072916865 0.057093028
000170 3a a7 00 be b4 b7 15 3d 92 29 25 bd 34 68 69 3d
       -0.12563792 0.036552146 -0.040322848 0.05698414
000180 e9 27 0e 3e e9 52 3d 3c f7 7b 40 3d fe 38 12 be
       0.13882412 0.011555412 0.046993222 -0.14279553
000190 c0 bb b9 3d d4 19 7d be 86 fe 0e 3e 9b fb 0d 3e
       0.090690136 -0.24716884 0.1396428 0.13865511
0001a0 66 53 ad be ed ff 8c be 76 15 88 bd 8d 30 42 3d
       -0.3385269 -0.27539006 -0.06644718 0.047409583
0001b0 ad 5a 37 3e 72 74 e3 ba 86 c2 87 bd 43 14 ab 3e
       0.17905684 -0.0017353429 -0.06628899 0.33413896
0001c0 e0 28 4e be 8c 13 e3 bc 7e 19 6d be a3 d0 72 be
       -0.2013278 -0.027719282 -0.23154256 -0.23712401
0001d0 6a 87 c1 bd d4 0d 4c 3e 35 b7 27 3e 8d 46 75 3d
       -0.09449656 0.1992715 0.16378482 0.059881736
0001e0 96 3c 38 3e b6 6e bd bd f3 0e 52 3e ac ad 08 3e
       0.17991862 -0.09249632 0.20513515 0.133475
0001f0 07 77 25 3d 00 a6 60 bd 24 b2 54 3d a2 a6 ae 3d
       0.040396716 -0.05484581 0.0519277 0.085278764
000200 97 77 a8 3e 9f 40 16 3e b2 72 58 bd 5f e6 d7 bc
       0.3290374 0.14673088 -0.052843757 -0.026354967
000210 b5 e9 36 be 65 44 e9 3d 45 d4 ac be 63 a3 c7 bd
       -0.1786259 0.11389998 -0.337557 -0.097479604
000220 e0 bd bd bd f2 ec 4b bc d5 6b b2 bd 24 dc 3c 3e
       -0.092647314 -0.012446629 -0.087119736 0.18443352
000230 af 28 03 3e b2 8d 0d 3d 8b 90 51 3e 75 60 6e be
       0.12808488 0.03455896 0.20465295 -0.23278983
000240 d6 5e dd bd ff a6 66 be ec 68 bb 3d 7a f7 87 3e
       -0.10809104 -0.22524641 0.09150872 0.26555997
000250 47 e9 46 be de fd f7 bd 62 cc 8c 3d 83 6f 0e 3e
       -0.19424926 -0.12108968 0.068749204 0.13909726
000260 50 a4 12 3e c0 bc 4d 3e 00 83 f0 3d e5 49 6e 3e
       0.14320493 0.20091534 0.11743736 0.23270376
000270 7c 1d 79 be 64 ad 31 bd c4 c9 ce bd c0 0e 94 bd
       -0.24327654 -0.04337825 -0.100970775 -0.07229376
000280 9c d9 28 3d dc f4 92 3d 9c ce 02 3e 98 34 23 3e
       0.041223153 0.071756095 0.12774128 0.15938032
000290 ae 1a 07 3e 7b da c5 bc 0b 8b b0 bd 09 0a a9 3d
       0.13193771 -0.024152031 -0.0862027 0.08253867
0002a0 a4 b6 a4 3b ab 5b 0a 3e b5 27 ef bc f0 c6 cb 3c
       0.0050266553 0.13511531 -0.029193738 0.024875134
0002b0 74 8f 04 bd c5 f0 e8 3d 86 34 06 3e 38 85 9d 3d
       -0.03236337 0.11374048 0.13105974 0.07691425
0002c0 32 3e 81 3c cb 46 22 3e 79 f9 3a be 66 f0 d2 3c
       0.015776727 0.15847318 -0.18259229 0.025749397
0002d0 c3 0e 31 3e 74 bc bd 3d ea fc 46 bd 20 29 fd bd
       0.17290787 0.0926446 -0.04858104 -0.123613596
0002e0 54 42 fd 3d 78 a5 03 3e 56 1b 97 3d e1 da e1 bd
       0.12366167 0.1285609 0.07378261 -0.11028076
0002f0 24 24 4e 3e 33 99 50 3d 80 6f 98 bc 83 94 65 bd
       0.20130974 0.050927352 -0.018607855 -0.056049835
000300 25 4f c9 3d be dd 30 3d 28 02 94 bd 53 11 56 3e
       0.09829549 0.04318022 -0.07226974 0.20905046
000310 29 38 e9 3d 4e c0 62 3d c9 59 83 3d f3 a4 ec 3d
       0.11387665 0.055359177 0.064136095 0.11554899
000320 06 b6 5e be 99 c3 4e 3d 6e 6e aa 3e cf 74 89 be
       -0.21749124 0.050479505 0.33287376 -0.2684693
000330 92 f8 90 be 54 d4 d0 3d 8c b9 b2 3d 45 85 8c 3d
       -0.28314644 0.101967484 0.087267965 0.06861357
000340 d6 b7 cc 38 81 8f c9 bc 2e 97 67 3e e8 28 c5 bd
       9.76172e-05 -0.02460456 0.22616264 -0.09626943
000350 ec a1 90 3e 17 80 37 3e a0 00 a9 be 5d 6b 4e be
       0.28248537 0.17919956 -0.3300829 -0.20158143
000360 92 4e fd 3d 26 c4 4c 3e 1c 23 36 3e ed 27 fb 3d
       0.12368502 0.199967 0.1778683 0.122634746
000370 ca 0e 9e bd a1 c8 c8 3d 4d 99 f8 bb 71 df a6 bc
       -0.077176645 0.09803892 -0.0075866343 -0.020370217
000380 cf a9 98 3e 40 a5 8e bd 36 fb ed bd fc b6 86 3c
       0.29817054 -0.06965113 -0.1162018 0.016444676
000390 e3 44 a7 3d ca 42 a5 3e a5 2e 5c 3e 38 00 ca bc
       0.08167436 0.3227752 0.21502168 -0.024658307
0003a0 d7 ea 38 3e c0 25 b7 bd 86 48 cf bc 8f 5a 46 be
       0.18058334 -0.08942747 -0.025303137 -0.19370483
0003b0 69 53 da 3c 84 c1 08 3e 0e 6f 59 3e 38 fe 48 3e
       0.026651101 0.1335507 0.2123377 0.19628227
0003c0 b6 c5 22 3d b7 4b 99 3d 28 75 bb 3c f3 1f db 3d
       0.039739333 0.074851446 0.022883013 0.10699453
0003d0 7e 62 87 be 5f c5 a7 3d da 20 83 3d 68 be 95 be
       -0.2644233 0.081919424 0.0640275 -0.2924683
0003e0 3c 25 c9 bd 0b 91 ef bd b9 37 72 3e 09 c1 8b 3e
       -0.09821555 -0.116975866 0.23654069 0.27295712
0003f0 3b fb 85 3e ad 04 89 bc 76 cc 1c 3d 9e f6 c1 3d
       0.26168236 -0.016725862 0.038280927 0.094708666

edge_layers.1.lstm.weight_hh_l0 f4 [256, 64]
000000 a5 d7 19 be 61 4c ea 3d c0 8c d8 bc af 6d 02 be
       -0.15023668 0.11440349 -0.026434302 -0.12737153
000010 9d 95 57 3b b4 c8 d5 bd 66 61 de 3d 19 17 16 3c
       0.0032895573 -0.10438672 0.10858421 0.00916078
000020 94 96 1f 3d 0c c3 22 bd 31 37 97 bd ca da 95 3d
       0.038961962 -0.039736792 -0.07383574 0.07317121
000030 4f b8 9b bc c7 c5 23 bd ec 46 77 bd 5a 82 2b 3d
       -0.019008784 -0.039983537 -0.06037037 0.04187236
000040 04 16 27 3d 6c 9e b8 bd 85 1d 05 bd bc 9b fc bd
       0.04079248 -0.090145916 -0.032498855 -0.123343915
000050 87 c8 d1 bb 1f 5a 5d 3e 91 74 ca bd fb 75 03 3e
       -0.0064020786 0.2161641 -0.098855145 0.12837975
000060 50 f4 11 3d 4a b6 e9 bc af 21 a5 3b 0a 83 1b be
       0.035633385 -0.028529305 0.005039416 -0.15186706
000070 89 50 0f 3e e6 cd cd 3d aa a2 a0 bc c5 4d 21 be
       0.13995565 0.10049038 -0.019608814 -0.15752323
000080 49 36 80 bc a7 83 0f 3e 55 04 a8 3d 42 ab 2d 3e
       -0.015650885 0.14015065 0.08203951 0.16959861
000090 75 7a 63 bc aa 87 50 bd d2 45 60 bd 06 ea ed bd
       -0.0138841765 -0.05091063 -0.054754086 -0.11616902
0000a0 a5 b2 b6 3b 1a ad 02 bd 14 7a 73 3c ca 24 ac 3c
       0.0055754953 -0.031903364 0.014860649 0.021013636
0000b0 b9 d4 9d bd 70 15 27 be 66 c1 d8 3d be a2 36 bc
       -0.07706589 -0.16316772 0.10583763 -0.011147199
0000c0 9b b8 02 3d f9 36 37 be 7d a3 34 be 0f de c9 3c
       0.031914335 -0.17892064 -0.17640491 0.024642019
0000d0 81 f9 e3 bd 10 32 c5 3c e4 c8 4c bd c0 be 4d bd
       -0.111315735 0.024071723 -0.04999627 -0.05023074
0000e0 ce 10 63 b8 43 08 88 bd e6 35 1b bd f9 54 e1 3c
       -5.4136668e-05 -0.06642201 -0.0378932 0.027506338
0000f0 79 3d 86 3c c7 be c2 3c 4e d1 1e be 40 51 40 be
       0.016386734 0.02377261 -0.15509531 -0.18780994
000100 64 d4 d6 3b bf 3f 55 3e 1c b5 b0 3d 70 fb 0a 3e
       0.0065560807 0.20825098 0.08628294 0.13572478
000110 50 d7 a2 bb 19 40 de bc b2 60 7f bd 89 3c 90 3d
       -0.004969515 -0.027130174 -0.062348075 0.07042796
000120 12 2a 5a 3d b6 97 70 3e 85 c7 ae ba f6 56 b5 3d
       0.053262778 0.23495373 -0.0013334608 0.08854477
000130 5f b0 cc 3d 50 3d c7 bd e5 09 2f bd f0 b1 a5 bd
       0.099945776 -0.09728491 -0.042734046 -0.080905795
000140 c2 04 62 3e fb b0 13 3e dd a2 21 be 66 2d 50 be
       0.22072127 0.14422981 -0.15784784 -0.20329818
000150 61 64 55 be 74 31 65 bd c8 6b 05 be 26 12 80 3d
       -0.20839073 -0.055955365 -0.13029397 0.062534615
000160 49 d2 21 be b7 88 a8 bd 17 36 69 be ca 2a 0c be
       -0.15802874 -0.08229201 -0.2277454 -0.13688198
000170 41 e5 0b be 2b 12 4e bb 1c 01 7f 3e a3 73 45 3d
       -0.13661672 -0.0031443934 0.24902767 0.048205983
000180 a9 4c 4b 3d e4 7c 12 3e 0e 50 8a 3d 3b 7b 5c be
       0.049633656 0.14305454 0.067535505 -0.21531384
000190 c8 04 2b 3e 7a 07 ea 3b 78 a5 94 3c 6e 25 3e 3c
       0.16701043 0.0071420046 0.018145308 0.011605604
0001a0 fe 17 3b be c9 af 8c 3d 0e b7 3f be 50 80 79 3e
       -0.18270871 0.06869466 -0.18722174 0.24365354
0001b0 31 ec f8 bd 8f cc 02 3e f5 71 0a 3e d1 66 b7 3c
       -0.12154425 0.12773345 0.13520034 0.022387894
0001c0 73 ff ac bc 22 65 42 3d 47 7c b7 bc b9 7a cc 3d
       -0.021117901 0.04745973 -0.022398127 0.09984345
0001d0 9f 0c 66 be 0a e7 53 3e 06 91 d2 3d b3 8e b9 3d
       -0.22465752 0.20693603 0.10281567 0.09060421
0001e0 4b 41 5a be 01 3e 76 bd a9 a6 e1 3c e3 36 64 3d
       -0.2131397 -0.060117725 0.02754529 0.055716407
0001f0 13 75 65 be b8 5d 4d 3e a9 a1 49 bd 7f 32 4c be
       -0.22407942 0.20055282 -0.049226437 -0.19941138
000200 b6 50 3f be 3a 26 22 3e 5c 87 1f bd 6d 09 7d 3d
       -0.18683133 0.15834895 -0.038947448 0.061776567
000210 11 a9 0c be 31 44 e3 bd 64 a9 10 3e 4f b2 56 3d
       -0.13736369 -0.11096991 0.14127117 0.052416142
000220 b0 f4 0a bd f8 ac 4e 3e 45 bc 1d 3d 40 5d 0e be
       -0.03392476 0.2018317 0.038509626 -0.1390276
000230 e3 6d c0 bb 14 f4 cf bd 56 17 87 3d a2 55 8a 3e
       -0.0058724745 -0.10153976 0.06596248 0.27018458
000240 c6 1b 37 bd 20 35 a8 3c e2 03 5d ba c7 a6 67 bc
       -0.04470422 0.020533144 -0.00084310595 -0.014138884
000250 e7 d5 02 be d7 20 57 3e 43 3e 52 be 24 08 f3 3d
       -0.1277691 0.21008621 -0.20531563 0.11866787
000260 95 99 68 be 22 1a 42 be a9 dd 80 be 9f 2b 40 be
       -0.22714837 -0.18955281 -0.25169113 -0.1876664
000270 05 2b b8 bc fa 5f 94 3e a4 16 9e bd 41 69 11 bd
       -0.02248145 0.28979474 -0.07719162 -0.03550077
000280 ee db 38 be 30 6b 5b 3d 91 4b 19 3e ab 36 40 3d
       -0.18052647 0.05356902 0.14970233 0.046927135
000290 7e 33 9b 3d c7 ef 0b be 02 f2 9a bd 91 55 ca bd
       0.07578181 -0.13665687 -0.075656906 -0.09879602
0002a0 33 31 3b be 37 4f 52 bd e7 12 02 be a0 fd ce bc
       -0.18280487 -0.051345076 -0.12702523 -0.025267422
0002b0 3d 1e 2e be 83 8c 24 be 22 25 09 bd 71 c5 f1 3d
       -0.17003722 -0.16069226 -0.03348268 0.11805237
0002c0 f6 03 cb bd 82 cd ca bd 6e 4c 4c be 6a c0 c8 bd
       -0.09912865 -0.09902479 -0.1995103 -0.09802325
0002d0 ab 30 a1 bd cf b2 4d 3e 30 a3 ce 3d 41 d5 22 3e
       -0.07870611 0.20087741 0.10089719 0.15901662
0002e0 79 f6 21 be 3d e7 e7 bd 15 37 00 bd 4d eb dc 3d
       -0.15816678 -0.11323402 -0.03130253 0.107870676
0002f0 3a 9f 2f bd f1 76 f8 bb 47 24 9a bd a4 eb b7 bd
       -0.04287646 -0.0075825383 -0.075264506 -0.08980492
000300 14 c8 56 3d ce d6 cd bd 6f a2 27 3d 0a 78 4f bb
       0.052436903 -0.10050736 0.040926393 -0.0031657242
000310 c0 71 f5 bc 1d a9 89 3d 21 40 d4 bd 9a 88 37 be
       -0.029961467 0.06721709 -0.10363794 -0.17923203
000320 b4 10 5c 3e ac 3e f3 bd d0 c8 1e be c1 31 7a 3e
       0.21490747 -0.11877188 -0.15506291 0.24433042
000330 8d 55 ee bd 56 16 53 3d fa 3d 22 be 3e 0b cf bb
       -0.11637411 0.051534973 -0.15843955 -0.006318479
000340 6d 29 2a be f2 0b c9 bd a4 d2 bc 3b aa ae 7c 3e
       -0.16617365 -0.098167315 0.005762415 0.24676004
000350 15 f8 35 3e ab 99 9b bd bf 5e b6 3d 8d 4e 45 bd
       0.17770417 -0.07597669 0.0890479 -0.048170615
000360 f4 8e b0 3d 0f 62 1b 3e 38 9d 87 3e 3c 63 25 3e
       0.08621016 0.15174125 0.26487136 0.16151136
000370 72 28 5d 3e a2 b8 40 bd 01 24 68 bd 22 af 87 3d
       0.2159746 -0.04705108 -0.05667496 0.06625201
000380 d1 43 38 3d d1 0a f5 bd 22 ff 2f be 79 c9 df bd
       0.04498655 -0.11964954 -0.17187169 -0.109271
000390 db 2c ea bd ea ea 79 3d 91 3c 80 3d 6f f4 98 3d
       -0.11434337 0.061015047 0.06261552 0.07468497
0003a0 1c 64 44 bc 0e af ec bd bf 58 17 3e cb 8f 2b bd
       -0.011986759 -0.115568265 0.14779948 -0.04188518
0003b0 71 81 ac bc 87 f8 e2 bc eb e9 e1 bd 64 94 ee bd
       -0.021057816 -0.027706398 -0.110309444 -0.11649397
0003c0 6f 81 fd 3d b5 78 ed 3d dd c3 a3 bd a9 c7 5f 3d
       0.12378203 0.11595289 -0.07996342 0.05463377
0003d0 06 2a c8 3c e4 e6 05 be bc 70 1c be be 0c 4a bd
       0.0244341 -0.13076359 -0.1527738 -0.04932856
0003e0 eb 7d 07 3e 82 31 65 3e 6a c6 04 be e0 05 2a 3d
       0.13231628 0.22382167 -0.12966314 0.04150951
0003f0 ed 61 92 3d 62 95 bd bd f4 c4 42 bd c7 a7 14 ba
       0.07147584 -0.09257008 -0.04755111 -0.0005670753

edge_layers.1.lstm.bias_ih_l0 f4 [256]
000000 db a7 e3 3d 0e f7 fb 3d ef 2f 17 3e fc 86 24 bd
       0.11116 0.12302981 0.14764379 -0.040167794
000010 8d fd 36 3e 4c 66 00 3e 8b 57 16 3e 25 7f 07 3e
       0.1787016 0.12539023 0.14681832 0.13232096
000020 b2 b0 bf 3d 93 8d 25 3e 70 b3 8d 3e 74 17 e3 3d
       0.09359874 0.16167288 0.27675962 0.11088458
000030 72 19 bf 3d f8 fa 42 3e db c4 91 3e 9a b3 0e 3e
       0.09331025 0.1904105 0.284705 0.139357
000040 a9 b4 33 3e 0f 97 49 bb 87 c1 18 3d 1a c2 8d 3e
       0.17549385 -0.0030760204 0.037293937 0.2768715
000050 76 42 6b 3d b3 ee 96 3e d5 8c ad 3d 7b 67 af 3c
       0.05743643 0.29478988 0.08474127 0.021411648
000060 25 10 9a 3e ff 7c bb 3e 18 27 43 3e 64 47 fd 3d
       0.30090442 0.36618802 0.19057882 0.12367132
000070 6e 4a 80 3e 12 87 52 3e 8b 95 1e be 02 e0 d2 3d
       0.25056785 0.20559338 -0.15486734 0.10296632
000080 ec af 82 ba bd 28 2a 3e 9a 6c 9c 3e cc 24 81 3e
       -0.0009970642 0.16617103 0.30551606 0.25223386
000090 37 d8 a6 3e a7 d0 30 be a6 45 83 3d 7e c2 61 3e
       0.32586834 -0.17267095 0.06409769 0.22046849
0000a0 83 c9 42 3e ce 93 64 3e cf bb 40 3e b1 3e 43 3e
       0.19022183 0.22322008 0.18821643 0.19066884
0000b0 53 89 a2 3c 16 89 09 3e 2a 14 83 3e 07 7f 4f 3e
       0.019840872 0.134312 0.2560132 0.20263301
0000c0 df d6 b6 3d e8 e3 5a bd 1f ad 12 3e c8 5b 40 3e
       0.08927702 -0.053440005 0.14323853 0.18785012
0000d0 0f af 0e 3d 8b ec 8f 3e 13 0c 94 bd bc 31 67 3e
       0.034834918 0.28110155 -0.072288655 0.22577566
0000e0 a9 d4 58 3d 9a d5 27 3e 29 87 6c 3e 1b 4c 07 3e
       0.052937184 0.16390076 0.23098435 0.13212626
0000f0 62 c5 16 3e aa df 4d 3e f1 1c 82 3e a9 92 5d 3e
       0.14723733 0.20104852 0.25412706 0.21637978
000100 0f 66 10 3e 93 4f 82 3d a2 52 4a 3d 1a c3 0f be
       0.14101432 0.06362834 0.04939521 -0.14039269
000110 68 91 75 bd 58 16 68 3e 6b 78 19 3d 64 09 16 bd
       -0.059953123 0.22664773 0.037468355 -0.03663005
000120 b2 99 2d 3e 7d ba 89 3b ed b5 3a 3e 1c 35 df bd
       0.16953161 0.0042031393 0.18233462 -0.10898802
000130 a8 5e c4 bd 9b 2e e7 3d d2 f0 0b 3e 9b 6f f6 bd
       -0.09588367 0.11288186 0.13666084 -0.12033006
000140 65 00 7e 3d 44 8c c3 bd 59 30 18 bd e7 e4 ae 3d
       0.062012095 -0.09548238 -0.037155483 0.085397534
000150 72 b9 64 bd 4a 1f 4f 3e 24 2e ba bc 19 5b c2 bd
       -0.055840917 0.2022678 -0.02272708 -0.09490032
000160 84 d5 25 3e 89 ca d8 3d 57 93 cb 3d 34 9f e6 bd
       0.16194731 0.105855055 0.09940212 -0.11260834
000170 b1 25 b0 3d 2c 4a 69 3e 8b 4e 6a be 2b 79 eb 3d
       0.08600939 0.227822 -0.22881524 0.1149772
000180 0d 42 58 be 2a 7c e6 3d 54 d0 03 bd 36 f6 37 be
       -0.21118946 0.11254151 -0.0321811 -0.17965016
000190 c0 9b 39 3e a1 20 b4 bd 2c f2 05 bc ef ef 61 3d
       0.1812582 -0.08795286 -0.008175414 0.05516046
0001a0 80 29 80 bd a2 77 24 be 29 13 73 bd 7f 16 b6 bc
       -0.062579155 -0.16061261 -0.059344444 -0.022227524
0001b0 af 9e 47 be ae f7 31 3d ec 9a f9 3b bb e4 51 3e
       -0.19494127 0.043449096 0.007617345 0.2049741
0001c0 50 73 41 bd 2d 23 10 bc 7e 75 91 3c 3d d0 b5 3d
       -0.04722911 -0.008797449 0.01775622 0.08877609
0001d0 ec bb 87 3d f5 16 00 bd 2b e8 5b bc ea 64 8d bc
       0.0662764 -0.031271894 -0.013422052 -0.017260034
0001e0 0e 7d 1e 3d 89 6b b9 bd 7b ad 31 be 2d 23 f4 bd
       0.03869348 -0.09053714 -0.17351334 -0.11920772
0001f0 83 71 9d bc 85 d7 31 3d 63 3d 89 bd fa 9d 3f 3e
       -0.019219166 0.043418426 -0.06701162 0.18712607
000200 50 94 c6 bd 0a 21 94 3e 95 1e 43 be b3 6c 57 3e
       -0.09696257 0.28931457 -0.19054635 0.21037559
000210 3e 98 29 be 42 d4 9d be c5 71 52 3d a1 0f 4e 3d
       -0.16561982 -0.30826002 0.05137803 0.050307874
000220 0f 9a 12 be ed 57 66 3e b7 dd 85 3e ab 8e fa bc
       -0.14316581 0.22494479 0.26145718 -0.030585608
000230 2e 4b 66 3e 80 b0 b0 bd 90 3e cd 3d 28 0c 39 bd
       0.22489616 -0.08627415 0.100216985 -0.04517761
000240 5b 74 37 3e 90 d9 52 3e 12 5b 77 be 6f b9 99 be
       0.1791548 0.20590806 -0.24155834 -0.30024287
000250 83 74 33 be 6c b8 92 3e d9 3b 17 be e5 30 e9 3d
       -0.17524914 0.28656328 -0.14768924 0.11386279
000260 54 dd 3c be b4 ee 9d be db e7 80 be 5e 7e 79 be
       -0.18443805 -0.3084618 -0.25176892 -0.24364612
000270 a2 3f 61 be 9e 46 56 3e cd f6 70 3e e9 98 74 be
       -0.2199693 0.20925376 0.23531647 -0.23886456
000280 3e 4b d4 bd 2a 06 8c 3e 50 81 69 3e 04 e9 6b 3e
       -0.10365914 0.27348453 0.22803235 0.23038107
000290 af 99 8c 3e d9 c2 db 3c e9 10 5b be b9 8e 1f 3e
       0.27461 0.026826309 -0.2139317 0.15581788
0002a0 72 1c 40 bd 4b ff 64 3e 6c a3 74 be 65 2d 52 3e
       -0.046902128 0.22363012 -0.23890465 0.20525129
0002b0 fa ae a2 3d dc 7d e1 3d 06 28 3f 3e 49 61 80 3e
       0.079435304 0.11010334 0.18667611 0.25074223
0002c0 90 36 47 be 6c 8d 26 3d 0f 13 10 be 46 5c 73 be
       -0.19454408 0.040662214 -0.1406977 -0.23765668
0002d0 c4 c5 4c be d7 5c 63 3e 7c c3 d2 3c 1b 13 c6 3d
       -0.19997317 0.22203384 0.02572798 0.09671613
0002e0 a7 48 3d be 2b 01 83 be 8f 88 81 3e 87 75 d0 bd
       -0.18484746 -0.2558683 0.25299498 -0.101786666
0002f0 6d db 04 be 2b 0a c3 3d 7e ee 64 3e cc a9 e9 bd
       -0.1297433 0.09523424 0.22356603 -0.11409339
000300 e2 9a e6 3c 41 78 7c 3d b7 a9 81 3d 99 e6 8c 3c
       0.028150026 0.06163812 0.06331199 0.017199801
000310 f3 27 0e 3e 63 3c 44 3d 4b 6f d0 3a 4b 98 1b 3e
       0.13882427 0.04790915 0.0015902309 0.15194814
000320 23 d7 b9 bd 94 5d 17 bd 68 43 35 3e 45 69 4d 3e
       -0.09074237 -0.036954477 0.17701495 0.20059688
000330 66 7f 9d 3c 45 e1 16 3c f3 0d 24 bd bc 46 90 bd
       0.019225787 0.009208982 -0.040052366 -0.070447415
000340 aa 9a ae bc 7c e9 3d bd fd 37 89 3d 55 82 89 3e
       -0.021313984 -0.046365246 0.06700132 0.26857248
000350 9a 85 b2 bc 27 d5 3c 3e 1d 89 8c 3e f1 3b 02 be
       -0.021792222 0.18440686 0.2744836 -0.12718178
000360 64 02 11 3e 27 94 3d 3e b0 69 84 3d 25 0c 1e 3e
       0.14161068 0.18513547 0.06465471 0.1543432
000370 8e 7f f6 3b 09 c0 29 3e 8d d7 be 3c 79 9d d0 3b
       0.00752253 0.16577162 0.023296142 0.0063664285
000380 6b 67 4c 3e 6d ec 26 3d 15 ea 9b bc bd a2 5f 3d
       0.19961326 0.040752817 -0.019032517 0.05459856
000390 a0 c3 d0 3d 9a 9f 28 bd 59 0d d7 3d 95 a4 9c 3d
       0.101935625 -0.041167833 0.10500593 0.07648579
0003a0 06 74 32 3e 28 ef ab 3c c2 69 90 3d a3 17 08 3e
       0.17427072 0.020988062 0.07051422 0.13290267
0003b0 02 7a ba bd c8 02 ff bc 70 50 50 3e b2 6b 26 bc
       -0.091053024 -0.031129256 0.20343184 -0.0101575125
0003c0 c1 58 6b 3e 89 76 68 bc e9 1b 10 3d 82 d2 03 3e
       0.22983076 -0.014188417 0.035182867 0.12873271
0003d0 41 f7 45 bd a2 07 5a 3d 46 6c 03 bd 1f ec ef 3d
       -0.048331503 0.053229935 -0.03208568 0.117149584
0003e0 02 89 f4 bd fd fd e6 bc cd 6a 06 bd f8 f3 95 3e
       -0.11940195 -0.028197283 -0.032816697 0.29287696
0003f0 07 1f 86 3d 83 a6 10 3d 9a a3 e9 3d 33 f0 be 3d
       0.06548887 0.035315048 0.11408158 0.09323158
