experiment/IBM_GCN/GCN_checkpoint.pt (torch_old, 24979 bytes, 6 tensors)

layers.0.linear.weight f4 [64, 23]
0	0xbe008bb3	-0.12553291
1	0xbf886587	-1.0655984
2	0x3e484f27	0.19561444
3	0xbe18b824	-0.14913994
4	0x3ce166ad	0.02751478
5	0xbf8c410c	-1.0957351
6	0x3cefadbf	0.029257653
7	0x3f98ce62	1.1937983
8	0x3eb54dea	0.35411006
9	0x3cc9e7e0	0.0246467
10	0xbf8d310b	-1.1030592
11	0xbf93c44e	-1.1544282
12	0x3ee1db81	0.4411278
13	0xbebf9d0e	-0.3742451
14	0x3eb32cae	0.34995025
15	0xbf1e88b3	-0.61927336
16	0x3db0f567	0.08640557
17	0xbea1b319	-0.31581953
18	0x3e2186f1	0.15774132
19	0xbf74fa75	-0.9569467
20	0x3eb63ed8	0.3559482
21	0x3fa91d5d	1.3212086
22	0x3ea578e7	0.32318804
23	0x3e0c54a8	0.13704169
24	0x3e85f87d	0.26166144
25	0xbd8204fc	-0.06348607
26	0xbe226bc0	-0.15861416
27	0xbe2ff6f8	-0.17184055
28	0xbda82af8	-0.08211321
29	0xbfb99603	-1.4498905
30	0x3e99b346	0.30019587
31	0x3d575fca	0.052581586
32	0x3ebf938f	0.37417266
33	0xbf76c03e	-0.9638709
34	0xbf484151	-0.78224665
35	0xbeea1191	-0.45716527
36	0x3ddec8a9	0.10878117
37	0x3d6da69a	0.05802021
38	0xbe74550d	-0.2386057
39	0xbd31c578	-0.04340121
40	0xbe6cebb7	-0.23136793
41	0x3f0e06b7	0.55478996
42	0x3ec01d7f	0.37522504
43	0x3e9d4794	0.30718672
44	0x3c176a8a	0.0092417095
45	0xbd8ed594	-0.069743305
46	0xbd530a4d	-0.051523495
47	0x3dde81f7	0.108646326
48	0xc0211390	-2.516819
49	0xc086ba0c	-4.210211
50	0xc09be22b	-4.8713584
51	0x3e3b7277	0.18305384
52	0xbf104a5a	-0.5636345
53	0xbccb701a	-0.024833728
54	0xbe6887f5	-0.22708113
55	0xbf914ed3	-1.135218
56	0x3e481bc7	0.19541846
57	0xbe2b45c7	-0.16725837
58	0x3f01b133	0.5066101
59	0xbefedde8	-0.49778676
60	0x3fc8a4b3	1.5675262
61	0xbea536df	-0.32268426
62	0xc0001b77	-2.0016763
63	0xbd33bc77	-0.043880906
64	0x3eb1ebfb	0.3475035
65	0xbcd43fc3	-0.02590931
66	0xbf9982a1	-1.199299
67	0x3ea120e3	0.31470403
68	0xbe96ca0e	-0.2945103
69	0x3e51bce4	0.20482212
70	0xbf2ad17d	-0.66725904
71	0x3d426165	0.047456164
72	0xbd34a2ae	-0.044100456
73	0x3c9f50b4	0.019447662
74	0xbf7f09c8	-0.996243
75	0xbed1888d	-0.40924492
76	0xbee33da3	-0.44382963
77	0x3fa1dc29	1.2645313
78	0xbf21dfc6	-0.63232076
79	0x3e69c785	0.22830017
80	0xbf10e3dd	-0.5659769
81	0x3cce28fd	0.02516603
82	0xbed3bba9	-0.4135411
83	0x3e58b626	0.21163234
84	0x3d2bb38a	0.04191927
85	0x3e656bd3	0.22404413
86	0x3e88e15f	0.26734444
87	0x3e1e1638	0.15438163
88	0xbf0f23b6	-0.55913866
89	0xbf9e5970	-1.2371044
90	0x3f310f62	0.691641
91	0x3e3b68cf	0.183017
92	0xbc4ab915	-0.012373229
93	0xbe973f70	-0.29540586
94	0xbd1329bc	-0.035928473
95	0xbf106a54	-0.56412244
96	0x3d67725b	0.056505542
97	0x3e68b78c	0.22726268
98	0xbf758417	-0.9590468
99	0x3e888ffb	0.26672348
100	0xbf84bcd7	-1.0370129
101	0xbdee9345	-0.11649183
102	0xbf830d7a	-1.0238488
103	0x3f0903d6	0.5352148
104	0xbfb15f94	-1.3857293
105	0xbad7707e	-0.0016436724
106	0xbd752190	-0.05984646
107	0xbe3b3bf9	-0.18284597
108	0xbeab0ab1	-0.33406594
109	0xbec764c4	-0.38944066
110	0x3f10b087	0.5651936
111	0xbfa6d9f4	-1.3035264
112	0x3f10f45d	0.5662287
113	0xbe92197d	-0.2853507
114	0xbeffeeed	-0.49986973
115	0xbf6b72ba	-0.91971934
116	0x3ecbd46a	0.39810497
117	0xbe348788	-0.17629826
118	0x3d20d575	0.03926607
119	0xbe61bc3a	-0.22044459
120	0xbe270434	-0.16310197
121	0xbf661d9c	-0.8988893
122	0xbeda4a77	-0.42634937
123	0xbe65a7ca	-0.22427288
124	0xbd107f1c	-0.03527747
125	0xbf8c21e5	-1.0947844
126	0xbf1ab2f6	-0.6042932
127	0xbe70a7be	-0.23501489
128	0xbc141997	-0.009039304
129	0x3e94ff19	0.29100874
130	0xbeb1aff7	-0.34704563
131	0xbf75d06e	-0.96021163
132	0xbe724272	-0.2365816
133	0xbe31c591	-0.17360522
134	0x3f22773f	0.63463205
135	0x3e884f36	0.26622933
136	0xbf06f223	-0.5271322
137	0xbd853ca3	-0.06505706
138	0xbe4748cf	-0.19461368
139	0xbf208dd8	-0.62716436
140	0xbde0368e	-0.109479055
141	0xbd2e4361	-0.042544726
142	0x3e0b8787	0.13625918
143	0xbd533b56	-0.05157026
144	0x3ebc6134	0.3679291
145	0xbf961525	-1.1725203
146	0x3d69501c	0.056961164
147	0x3e9c9671	0.30583528
148	0xbe805db6	-0.25071496
149	0xbfb06ed4	-1.3783822
150	0xbe1af49c	-0.15132374
151	0xbe5918cd	-0.21200867
152	0xbc7fd35d	-0.015614358
153	0x3e44a52e	0.19203636
154	0x3eace8ba	0.33771306
155	0x3e315ca8	0.17320502
156	0xbf871070	-1.0551891
157	0x3ee99588	0.45621896
158	0xbe8675dc	-0.26261795
159	0xbdbcabb3	-0.092124365
160	0x3f93955d	1.1529957
161	0x3e007938	0.12546241
162	0xbfc8ba98	-1.5681944
163	0xbda4413e	-0.080202565
164	0xbe97fd35	-0.2968537
165	0xbd02d16c	-0.031938
166	0xbd954fa9	-0.072905846
167	0x3f6dbb50	0.9286394
168	0x3f24981d	0.64294606
169	0xbf391b7d	-0.7230757
170	0xbe8cec9e	-0.27524275
171	0x3c916053	0.017746126
172	0x3e32bdc5	0.17455204
173	0xbf1ce866	-0.6129211
174	0xbee400b0	-0.44531775
175	0x3f28cc3e	0.6593665
176	0x3cb12240	0.021622777
177	0x3f27ce4a	0.6554915
178	0x3f1591fb	0.58425874
179	0xbf0dd01b	-0.5539567
180	0x3f12e1de	0.57375896
181	0x3e89c4c1	0.26907924
182	0x3de64daf	0.11245286
183	0xbf4ea438	-0.8071933
184	0x3ca26fcc	0.0198287
185	0xbefca8e0	-0.4934759
186	0x3dc7c8c4	0.0975509
187	0xbf0528ff	-0.5201568
188	0xbf818886	-1.0119789
189	0x3e250098	0.16113508
190	0x3f15e2c5	0.5854915
191	0x3ee39016	0.44445866
192	0xbeb9b5f4	-0.36271632
193	0x3dfe91ce	0.12430154
194	0xbcb391c8	-0.0219201
195	0xbf176ec4	-0.5915339
196	0x3eedd4a7	0.46451303
197	0xbe853452	-0.2601648
198	0xbfc0ede5	-1.50726
199	0xbf0fef13	-0.56224173
200	0xbf82e429	-1.0225879
201	0x3e2191b2	0.15778235
202	0xbfdfae32	-1.7475035
203	0x3ce7e4fc	0.02830743
204	0x3ed37f2f	0.4130797
205	0xbea604c6	-0.32425517
206	0xbfbd395e	-1.4783132
207	0xbda1056a	-0.07862361
208	0xbf8b91d1	-1.0903875
209	0xbe88d6df	-0.26726434
210	0xbf07eb3e	-0.53093326
211	0xc02d52ef	-2.7081869
212	0xbfdd7af2	-1.7303145
213	0xbe84f3b2	-0.25967175
214	0xbf2326f1	-0.63731295
215	0xbcdbd7a3	-0.026836222
216	0xbd805ca7	-0.06267672
217	0xbfc1a221	-1.5127603
218	0xbf62d377	-0.8860392
219	0x3e4d1e9e	0.20031211
220	0xbee6ee5c	-0.4510373
221	0x3f883df5	1.0643908
222	0xbf10d91c	-0.5658128
223	0x3f003ee7	0.5009598
224	0xbd47c755	-0.048774082
225	0x3e4ba1d0	0.19885945
226	0xbdec9e20	-0.115535975
227	0x3ec6b66c	0.38811052
228	0xbab953f1	-0.0014139396
229	0x3e8cf7e8	0.27532887
230	0xbf03a0a6	-0.51417005
231	0x3e5d0d97	0.21587215
232	0xbeb014f2	-0.3439098
233	0x3e072e98	0.13201368
234	0x3ebe0863	0.37115774
235	0xc000be4d	-2.011615
236	0xbe2199df	-0.15781353
237	0x3e18ed47	0.14934264
238	0x3e2dfb7c	0.16990465
239	0xbe392b77	-0.18082987
240	0x3eb4f2f5	0.35341612
241	0x3e8722a0	0.26393604
242	0xbdc81d97	-0.09771269
243	0x3ed0a062	0.40747362
244	0xbf88bb0d	-1.0682083
245	0xbd92ccc5	-0.07167963
246	0xbfd4b45b	-1.661754
247	0x3eabc419	0.33548048
248	0x3f19422a	0.59866583
249	0xbf37db49	-0.7181898
250	0x3e595735	0.21224673
251	0xbd1e2023	-0.038604867
252	0xbe0599e4	-0.13046986
253	0x3ea1c555	0.31595865
254	0xbf95d8b5	-1.1706759
255	0x3dbe45cd	0.09290657

layers.0.linear.bias f4 [64]
0	0xbf0693b0	-0.52569103
1	0xbecbadb6	-0.39780968
2	0xbea891d6	-0.32923764
3	0xbeef8c5a	-0.46786767
4	0xbf183cb9	-0.59467655
5	0xbf5eb9ed	-0.8700245
6	0xbf7f070e	-0.9962014
7	0xbf82b356	-1.0210979
8	0xbfac1384	-1.3443456
9	0xbece69dc	-0.4031514
10	0xbf812b10	-1.0091267
11	0xbe991564	-0.29899132
12	0xbf2bd012	-0.67114365
13	0xbfae42c7	-1.3614129
14	0xbf4639f2	-0.7743217
15	0x3e8c9d69	0.27463844
16	0xbf481c01	-0.7816773
17	0xbfac2cdf	-1.3451194
18	0xbf9a799f	-1.2068366
19	0xbdf187c5	-0.11793474
20	0xbf351992	-0.7074214
21	0x3e91f7d4	0.2850939
22	0xbefd757a	-0.4950369
23	0xbed44671	-0.41459993
24	0xbf487d4c	-0.7831619
25	0xbf66bec4	-0.90134835
26	0xbebe8363	-0.37209615
27	0xbd881700	-0.06645012
28	0xbf6f01a0	-0.93361855
29	0xbf22d0a2	-0.635996
30	0xbebc8fdb	-0.36828503
31	0xbf3aa20b	-0.7290351
32	0xbf345677	-0.70444435
33	0x3ee9dc64	0.45675957
34	0xbf4f8d34	-0.81074834
35	0xbf80d0c1	-1.0063707
36	0xbf220a44	-0.63296914
37	0xbef39d92	-0.47581154
38	0xbf58d94e	-0.8470658
39	0xbf18831f	-0.59575075
40	0xbec27a83	-0.37984094
41	0xbeb27fda	-0.34863168
42	0xbf0c4a9f	-0.5480136
43	0xbf1e5a68	-0.618567
44	0xbf4aa272	-0.7915412
45	0xbf6b8903	-0.9200594
46	0xbf1efd01	-0.62104803
47	0xbf491dac	-0.785609
48	0xbf0b5546	-0.5442699
49	0xbed0fb79	-0.40816858
50	0xbf21d6c6	-0.63218343
51	0xbf6e1f4a	-0.93016493
52	0xbf2cf991	-0.6756831
53	0xbde5ebfc	-0.11226651
54	0xbf1cf1ab	-0.61306256
55	0x3c4213af	0.011845513
56	0xbf1f4b39	-0.62224156
57	0xbe091e63	-0.13390498
58	0xbf7f53a4	-0.99737
59	0xbf4fdaa2	-0.8119298
60	0xbf47c505	-0.78035
61	0xbf498b3f	-0.787281
62	0xbf27e8ee	-0.655898
63	0xbdb122be	-0.08649205

layers.1.linear.weight f4 [64, 64]
0	0x3f48986c	0.7835758
1	0xbe54980d	-0.20761128
2	0x3d8e66df	0.06953215
3	0xbedc4b3f	-0.43026158
4	0xbeb9714f	-0.3621926
5	0x3de7ed21	0.113245256
6	0xbf158bba	-0.5841633
7	0x3e5d1522	0.21590093
8	0x3f6d1975	0.9261697
9	0x3ec4f50e	0.38468212
10	0xbf0dcce2	-0.5539075
11	0x3ed3bfac	0.41357172
12	0xbe8fcb46	-0.28084773
13	0x3ea93f11	0.33055928
14	0x3e4acb00	0.19804001
15	0x3dbff0d3	0.093721054
16	0xbea06082	-0.3132363
17	0xbf41ed65	-0.7575286
18	0xbee5b9ea	-0.44868404
19	0xbf27d768	-0.6556306
20	0x3e3f72d0	0.18696141
21	0xbe93e22f	-0.28883502
22	0x3e6ceb78	0.23136699
23	0xbe5e228c	-0.21692866
24	0x3f1639e1	0.58682066
25	0x3e8f8e74	0.2803837
26	0xbf0a910c	-0.54127574
27	0x3dc04337	0.0938782
28	0x3e8f5760	0.2799635
29	0xbf1fb18a	-0.6238028
30	0xbd6c1994	-0.05764158
31	0xbf39bca5	-0.72553474
32	0xbef9ddeb	-0.48802122
33	0xbe68c4c9	-0.22731318
34	0x3f0a5b37	0.5404543
35	0xbfb18fc5	-1.3872
36	0xbedec5b0	-0.435102
37	0x3d7de605	0.06198694
38	0x3f4e3241	0.8054543
39	0xbe41f72e	-0.18941948
40	0x3f0edf35	0.55809337
41	0x3ec261f7	0.37965366
42	0x3ef89dde	0.48557943
43	0x3eb2e1e2	0.3493796
44	0xbf06e55d	-0.5269373
45	0xbf5f5e0a	-0.8725287
46	0x3eced15b	0.403941
47	0xbef1173e	-0.47088045
48	0x3efbb96d	0.49164906
49	0xbeebc0bf	-0.4604549
50	0xbe84e7db	-0.25958142
51	0xbe25a372	-0.1617563
52	0xbe5b3fd7	-0.21411072
53	0xbf5ae95c	-0.8551233
54	0xbd742579	-0.05960605
55	0xbf0f75d0	-0.5603914
56	0x3d892693	0.066968106
57	0xbd11afa6	-0.035567902
58	0xbf462d23	-0.77412623
59	0x3e97bcc8	0.29636216
60	0x3f044dc5	0.51681167
61	0x3e4e360b	0.20137803
62	0x3dc2478d	0.094863035
63	0x3f4034ed	0.7508076
64	0xbe433b11	-0.19065501
65	0xbf25db65	-0.64787894
66	0xbed9fc99	-0.4257553
67	0x3d470a23	0.04859365
68	0xbd70961d	-0.05873691
69	0xbe1a3aca	-0.15061489
70	0x3e569f93	0.2095931
71	0xbe2869af	-0.16446565
72	0x3eab7417	0.33487007
73	0x3ec47a4b	0.38374552
74	0xbdb5d347	-0.088781886
75	0x3dc53b39	0.096304365
76	0xbead575e	-0.33855718
77	0xbd833346	-0.06406264
78	0xbee192d9	-0.44057348
79	0xbfcb73bd	-1.5894696
80	0xbe628c49	-0.22123827
81	0xbf078023	-0.52929896
82	0xbd591ba4	-0.053004876
83	0xbdac73f9	-0.084205575
84	0xbedfa76f	-0.4368243
85	0x3e567172	0.20941713
86	0x3f11b595	0.569177
87	0xbfb839f6	-1.4392688
88	0xbda76149	-0.081728525
89	0xbefce902	-0.4939652
90	0xbe603d1e	-0.21898314
91	0xbe081b00	-0.1329155
92	0x3f011f29	0.5043817
93	0xbe718866	-0.23587188
94	0x3e82f56f	0.25577876
95	0xbef81440	-0.4845295
96	0xbebcc349	-0.3686774
97	0x3ebae743	0.36504564
98	0xbeb8c10c	-0.36084783
99	0xbd3b1628	-0.045675427
100	0xbcaaa086	-0.020828497
101	0x3ea36d1b	0.31919178
102	0x3f050a10	0.5196848
103	0x3da4c54c	0.08045444
104	0xbcec9906	-0.028881561
105	0x3ef5278f	0.47881743
106	0x3e745ed8	0.23864305
107	0x3d2f2110	0.04275614
108	0xbe074d96	-0.1321319
109	0x3e486009	0.19567885
110	0x3e3eb135	0.18622287
111	0x3eceea63	0.40413198
112	0x3e83bede	0.25731558
113	0xbe81b14f	-0.25330588
114	0xbef9b186	-0.48768252
115	0xbf87a87d	-1.0598294
116	0xbed33d89	-0.41257885
117	0xbf404635	-0.7510713
118	0xbe4b276a	-0.19839254
119	0xbf1e233a	-0.617725
120	0xbd72fee2	-0.059325106
121	0xbf1c78d3	-0.61121863
122	0xbe7f3269	-0.24921574
123	0xbe7d24a3	-0.24721007
124	0xbe864f14	-0.26232207
125	0x3ed135f3	0.40861472
126	0xbf58c32e	-0.8467282
127	0xbe3d6c3a	-0.18498316
128	0xbefe8d1f	-0.49717042
129	0x3eced48e	0.4039654
130	0x3e55faa4	0.20896393
131	0xbf2da6d7	-0.678327
132	0xbf0578cf	-0.52137464
133	0x3e3a441e	0.18190047
134	0xbd8ac5a1	-0.06775976
135	0x3d7d9380	0.061908245
136	0xbecc0bd5	-0.39852777
137	0xbd5c54d4	-0.053791836
138	0xbef9d204	-0.48793042
139	0xbe339e4a	-0.17540851
140	0xbd9445c3	-0.072398685
141	0xbe499cac	-0.19688672
142	0xbf3213dd	-0.6956156
143	0x3d5765dc	0.052587375
144	0xbd98d7dd	-0.07463048
145	0xbe828577	-0.2549245
146	0x3eae0893	0.33990917
147	0x3e8b9095	0.27258745
148	0x3e6dbe97	0.23217236
149	0xbe906b4a	-0.28206855
150	0xbe125e2f	-0.1429374
151	0xbe389279	-0.18024625
152	0xbd6d2664	-0.05789794
153	0xbe4aa518	-0.19789541
154	0xbc44a7f3	-0.012002933
155	0x3daefba8	0.08544093
156	0x3ca6fe4a	0.020384926
157	0x3d8f5b5d	0.06999848
158	0xbea97271	-0.33095124
159	0x3aa0964b	0.0012251822
160	0xbee6e366	-0.45095366
161	0x3dded0f9	0.10879702
162	0x3e97b5e4	0.2963096
163	0xbecb80ab	-0.39746603
164	0xbdb65d5d	-0.089045264
165	0x3e84ff9a	0.2597626
166	0xbda4d3b9	-0.080481954
167	0xbef1f9b7	-0.4726083
168	0xbe902051	-0.28149655
169	0xbdf0bee6	-0.11755161
170	0x3e267160	0.16254187
171	0xbda47550	-0.08030188
172	0x3ed64184	0.4184686
173	0xbe1e1573	-0.1543787
174	0xbe083203	-0.13300328
175	0xbea6be6a	-0.3256715
176	0x3a60fb35	0.00085823546
177	0x3ddc783a	0.10765119
178	0xbeb6f32e	-0.35732406
179	0x3dd4d13b	0.1039147
180	0x3dc3bdf4	0.09557715
181	0x3eae8f04	0.34093487
182	0x3e5a8c5f	0.2134261
183	0xbeea5eca	-0.45775443
184	0xbe2a1181	-0.1660824
185	0xbe9f2857	-0.31085464
186	0x3ebdabda	0.37045175
187	0x3e7e7e38	0.24852836
188	0xbb805935	-0.0039168843
189	0xbdd3a137	-0.10333484
190	0xbefb1fa3	-0.49047574
191	0xbe237216	-0.15961489
192	0xbd985cce	-0.07439576
193	0x3dffa8cc	0.12483367
194	0xbdb5fc72	-0.08886041
195	0xbe71f8c2	-0.2363005
196	0xbc575183	-0.0131419925
197	0xbdd0a5db	-0.101878844
198	0xbe4fd587	-0.20296298
199	0xbd5346e8	-0.051581293
200	0x3f0e5e62	0.55612767
201	0xbe6a1f74	-0.22863561
202	0x3ed99431	0.42495874
203	0xbe858ef3	-0.26085624
204	0xbf762cbe	-0.9616202
205	0xbf3d9f1e	-0.7407092
206	0x3f040773	0.51573867
207	0x3dc23fd3	0.0948483
208	0x3ea49c61	0.32150558
209	0xbe5179f0	-0.20456672
210	0xbe4ca7b9	-0.19985856
211	0x3dbc0362	0.09180333
212	0xbea09d66	-0.31370085
213	0x3f1249b2	0.571437
214	0xbc9ec8ab	-0.019382795
215	0x3da2ed9a	0.07955475
216	0x3db7330c	0.08945283
217	0xbf0de501	-0.5542756
218	0x3d6bf29e	0.057604425
219	0xbe1e7902	-0.15475848
220	0xbddbf9e4	-0.10741022
221	0xbf1ba2f7	-0.6079554
222	0xbe0d79a1	-0.13815929
223	0xbe219196	-0.15778193
224	0xbe3ca4ec	-0.18422288
225	0xbc170742	-0.009218039
226	0x3e7c9f26	0.24670085
227	0x3e8f37fb	0.27972397
228	0x3e3ecf91	0.18633868
229	0xbdee89dc	-0.11647388
230	0x3f75ccb4	0.9601548
231	0x3ecc1e6e	0.39866966
232	0x3e410c99	0.18852462
233	0x3e0022a9	0.12513222
234	0x3f006c90	0.50165653
235	0x3d987467	0.07444077
236	0x3c500a12	0.012697713
237	0xbf639306	-0.88896215
238	0xbf0bd8ec	-0.5462787
239	0xbc8d49d3	-0.017247116
240	0xbe99b49c	-0.30020607
241	0x3edcfc12	0.43161064
242	0x3eb4a69f	0.35283372
243	0xbef919b9	-0.48652437
244	0x3d2330d9	0.039841507
245	0x3e253abe	0.1613569
246	0xbec07ce2	-0.37595278
247	0xbd5777a4	-0.052604333
248	0xbe1d53f1	-0.15364052
249	0xbea15380	-0.31509018
250	0xbef3f849	-0.47650364
251	0x3ecdcffc	0.40197742
252	0x3d8e437c	0.069464654
253	0x3e38da2f	0.1805198
254	0x3f1d1932	0.6136657
255	0x3f6f6a7a	0.93521845

layers.1.linear.bias f4 [64]
0	0x3d9973f5	0.0749282
1	0xbca6dd27	-0.020369126
2	0x3d8daca2	0.06917693
3	0xbe91e711	-0.28496602
4	0x3ea45109	0.32093075
5	0x3ea7e95e	0.32795233
6	0x3ea15e8c	0.31517446
7	0x3e05a585	0.13051422
8	0x3ef1db8f	0.47237822
9	0xbf212bd6	-0.62957513
10	0xbc1b2d06	-0.009471184
11	0xbd9b6a19	-0.07588596
12	0x3d01c6fa	0.0316839
13	0xbb9ac484	-0.0047231335
14	0xbc560a60	-0.013063997
15	0x3e80356c	0.25040758
16	0xbd174a15	-0.036935885
17	0xbce78904	-0.028263576
18	0x3d3882e3	0.0450467
19	0xbd8b75ee	-0.06809603
20	0x3e55b5fb	0.20870201
21	0x3ec6a3aa	0.3879674
22	0xbb6156d5	-0.0034384031
23	0xbda855a6	-0.08219461
24	0x3e1cd6f1	0.15316369
25	0xbdb43975	-0.088000216
26	0x3d22ae2b	0.03971688
27	0x3e0556cc	0.13021392
28	0x3e5f3fe2	0.21801713
29	0xbd9c949a	-0.07645531
30	0xbf1e7933	-0.61903685
31	0xbb45404f	-0.0030098145
32	0xbea5e14f	-0.3239846
33	0x3ea0cc16	0.31405705
34	0xbee74a28	-0.45173764
35	0x3c28de4f	0.010306909
36	0xbef9f792	-0.48821694
37	0x3d9fec46	0.078087375
38	0xbefcf408	-0.4940493
39	0x3f51ae0e	0.8190621
40	0xbd2b99fa	-0.04189489
41	0xbda230c6	-0.07919459
42	0xbd4b9712	-0.04970462
43	0xba8c946c	-0.0010725386
44	0x3e71c132	0.23608854
45	0xbd482036	-0.048858844
46	0xbc5d6309	-0.013512381
47	0x3f0e7171	0.5564185
48	0x3cecb955	0.028896967
49	0x3d0ebbfb	0.03484724
50	0xbe96f4c9	-0.2948363
51	0x3b79c5dd	0.003811232
52	0x3ebf09f3	0.37312278
53	0x3f3fb464	0.7488463
54	0xbdab9c98	-0.08379477
55	0xbb62f738	-0.0034632217
56	0xbdd70494	-0.1049892
57	0x3dd5f0bb	0.10446306
58	0x3f41a8f8	0.7564845
59	0x3d1c9869	0.038231287
60	0xbe0a2099	-0.13488998
61	0xbed58dfb	-0.41709885
62	0xbd8d5026	-0.06900053
63	0x3eaad5c1	0.33366206

fc.weight f4 [2, 128]
0	0x3e20cbb1	0.15702702
1	0xbcba7eef	-0.022765605
2	0x3d924054	0.07141176
3	0xbcab5678	-0.020915255
4	0xbd67913e	-0.056534998
5	0xbe08a310	-0.13343453
6	0xbdd9854b	-0.10621127
7	0xbcab84e5	-0.020937392
8	0xbdef74a2	-0.11692168
9	0xbd92fb1e	-0.07176803
10	0x3db9e71b	0.09077283
11	0xbd69f1aa	-0.057115234
12	0x3e0e33ac	0.13886899
13	0xbd27ed13	-0.040997576
14	0xbc3fbd8b	-0.011702905
15	0xbda3ff1a	-0.08007641
16	0x3dc51dfe	0.09624861
17	0x3d254796	0.040351473
18	0xbd465f08	-0.048430473
19	0xbc6f9044	-0.014621798
20	0xbe2cbabc	-0.16868109
21	0xbd3e0f7e	-0.046401493
22	0xbe44831e	-0.19190642
23	0xbc6d555c	-0.014485683
24	0x3dabf02c	0.083954185
25	0xbc9c7d8b	-0.019102832
26	0x3d6facb3	0.05851431
27	0xbdb0ab53	-0.086264275
28	0x3d8cbb5b	0.06871673
29	0x3d4bfb6a	0.049800314
30	0xbdddc78f	-0.108290784
31	0xbd4eb9ba	-0.05047009
32	0xbe01f101	-0.12689592
33	0xbd97deac	-0.07415518
34	0xbd24ad02	-0.040204056
35	0x3c0766bb	0.008264239
36	0xbc0da6a2	-0.008645685
37	0xba1fa510	-0.0006089965
38	0xbbf6f352	-0.0075363303
39	0xbc597ba1	-0.013274104
40	0x3bf26070	0.00739675
41	0x3ade62bc	0.0016966681
42	0x3d2a3cf0	0.04156202
43	0x3db056c4	0.08610299
44	0x3d7b20a0	0.06131041
45	0x3d9f79ff	0.07786941
46	0x3d0a463a	0.03375838
47	0xbd384f1c	-0.04499732
48	0xbcf43953	-0.02981249
49	0x3e06c887	0.13162433
50	0xbda04097	-0.078248195
51	0x3de87855	0.113510765
52	0xbdb0f5a6	-0.08640604
53	0xbd3189c8	-0.04334429
54	0x3c3850c7	0.011249728
55	0xbce20be0	-0.027593553
56	0xbd86fec2	-0.0659156
57	0xbdf66852	-0.12031616
58	0xbd041ef0	-0.032256067
59	0x3d0a031a	0.033694364
60	0xbd4f4ebd	-0.0506122
61	0xbc209abb	-0.009802516
62	0x3da941bc	0.08264491
63	0x3e641bf9	0.22276296
64	0xbec7f86b	-0.39056715
65	0xbef3df49	-0.4763129
66	0xbe45835b	-0.1928839
67	0x3e2bd416	0.16780123
68	0x3e1b9e8e	0.15197203
69	0x3e5d6904	0.21622092
70	0x3e8956a4	0.26823914
71	0x3d00427c	0.031313404
72	0x3e9a5f9a	0.30151063
73	0x3eaa936d	0.33315602
74	0xbf0dba3a	-0.55362284
75	0x3de83b7d	0.113394715
76	0xbf655536	-0.89583147
77	0xbd6111a6	-0.05494847
78	0xbdad87f1	-0.084731944
79	0x3ddb8f60	0.10720706
80	0xbe8d1332	-0.27553707
81	0x3cc9c8d6	0.024631899
82	0x3cab681a	0.020923663
83	0xbba755ae	-0.0051066494
84	0x3ebcd982	0.36884695
85	0x3e850acf	0.2598481
86	0x3e4b3846	0.19845685
87	0xbc7e156f	-0.01550804
88	0xbe792952	-0.24332169
89	0x3d9f1ddb	0.07769366
90	0xbf85f56c	-1.0465522
91	0x3e0373b7	0.1283711
92	0xbd12cf10	-0.035842
93	0xbdc810d3	-0.09768834
94	0x3e7b4908	0.24539578
95	0x3e42a8dd	0.19009729
96	0x3e32a62e	0.17446205
97	0x3e48a684	0.1959477
98	0x3e34f6f3	0.17672329
99	0x3d893111	0.06698812
100	0x3e7e222c	0.24817723
101	0xbd65f108	-0.05613807
102	0x3e5ab241	0.21357061
103	0x3eec4cc9	0.46152332
104	0xbcb741ef	-0.022370307
105	0x3b4934b8	0.003070159
106	0xbd9da123	-0.0769675
107	0xbcfe4ec6	-0.031043421
108	0xbda1e70d	-0.079053976
109	0xbe23152d	-0.15926047
110	0xbc339a15	-0.010962029
111	0x3e55ab3e	0.20866105
112	0xbb8ab002	-0.0042324075
113	0xbef71df9	-0.48265055
114	0x3e6c52c4	0.23078448
115	0xbf0bb947	-0.54579586
116	0x3ec1547b	0.37759766
117	0x3efc0f38	0.4923036
118	0xbe083853	-0.13302736
119	0xbd773298	-0.060350984
120	0x3d071b21	0.032984857
121	0x3e84bc30	0.25924826
122	0x3e9648de	0.29352468
123	0xbc95a798	-0.018268391
124	0x3f47592e	0.7787045
125	0x3da14e62	0.078762785
126	0xbe3473b8	-0.17622268
127	0xbebab76c	-0.36468065
128	0xbe2de97b	-0.16983597
129	0xbd6b947e	-0.05751466
130	0xbc599c54	-0.0132819
131	0x3d3fd47d	0.046833504
132	0x3c39c0ec	0.0113375
133	0x3dbe1a9e	0.092824206
134	0x3db52060	0.08844066
135	0x3d32bb29	0.04363552
136	0x3cead238	0.028664693
137	0x3e1f7535	0.15572055
138	0x3b26284b	0.0025353606
139	0x3db6770c	0.08909425
140	0xbe417190	-0.18890977
141	0xbb964b5b	-0.00458662
142	0xbcb2d681	-0.021830799
143	0x3d896bc6	0.06710009
144	0xbe1028d6	-0.14078078
145	0x3d1e5a3e	0.03866028
146	0xbd954423	-0.07288387
147	0x3c21dc51	0.009879188
148	0x3d028786	0.031867526
149	0x3e32d8c4	0.17465502
150	0x3d79b460	0.060963035
151	0x3bb98b6d	0.005662373
152	0xbe346936	-0.1761826
153	0x3c98ab85	0.018636474
154	0xbd82be26	-0.06383924
155	0x3d4c14c2	0.049824484
156	0xbc873382	-0.016504053
157	0x3cf5a5e3	0.029986328
158	0x3dac7db2	0.08422412
159	0x3ddf2469	0.108956166
160	0x3df5e203	0.12005999
161	0x3e02ab50	0.12760663
162	0x3d828798	0.06373519
163	0x3bc52907	0.0060168537
164	0x3d89931b	0.06717511
165	0xbe0095f7	-0.12557207
166	0x3dc17a68	0.09447175
167	0xbd14bdfd	-0.036314
168	0x3c2edf3a	0.010673339
169	0xbc2ae1c5	-0.010429804
170	0x3d61eab8	0.055155486
171	0x3d977f11	0.07397283
172	0x3ce33161	0.027733507
173	0xbda9601b	-0.08270284
174	0x3c71110d	0.014713538
175	0x3dc330a1	0.095307596
176	0xbd3b956d	-0.0457968
177	0xbde39931	-0.11113203
178	0x3e33c830	0.17556834
179	0xbe43d99e	-0.19125983
180	0x3e1fea14	0.15616637
181	0xbca6cd43	-0.020361548
182	0x3c04dfa3	0.00810996
183	0xbd0a0e66	-0.033705138
184	0xbd50ca23	-0.050974023
185	0x3d523763	0.051322352
186	0xbd87926a	-0.06619723
187	0xbcd59d46	-0.02607597
188	0xbcb508e6	-0.02209897
189	0x3dd7992a	0.105272606
190	0xbdc6b143	-0.09701779
191	0xbe1165f1	-0.14199044
192	0x3ecf3c1c	0.40475547
193	0x3f1b8124	0.6074393
194	0x3e0da4f7	0.1383246
195	0xbe0dc1f1	-0.13843514
196	0xbe3a69df	-0.18204449
197	0xbe51e871	-0.20498826
198	0xbe9e721e	-0.3094644
199	0xbc82f6d5	-0.01598684
200	0xbeaed751	-0.34148648
201	0xbe92dd2d	-0.2868437
202	0x3f11995f	0.5687465
203	0xbde9c54e	-0.11414586
204	0x3f6b00ee	0.91798294
205	0xbc97d104	-0.018532284
206	0xbbd53a40	-0.006507188
207	0xbe5d8b58	-0.21635187
208	0x3ea423ac	0.32058465
209	0x3d78a75c	0.06070648
210	0x3ccb501a	0.024818469
211	0x3d9451f0	0.07242191
212	0xbedb3ba4	-0.4281894
213	0xbeae42fe	-0.34035486
214	0xbe9b8419	-0.3037422
215	0x3c1f425c	0.009720411
216	0x3e8481d9	0.25880316
217	0x3d1f2054	0.03884919
218	0x3f85aae7	1.044278
219	0xbd0d7013	-0.03453071
220	0x3dba4692	0.090954915
221	0x3b62e89a	0.0034623505
222	0xbe1d0605	-0.15334328
223	0xbdfa0199	-0.12207336
224	0xbe8b0a17	-0.27156135
225	0xbe0f2192	-0.1397765
226	0xbe94ba76	-0.29048508
227	0x3ca49501	0.020090582
228	0xbe36afd5	-0.17840512
229	0x3e1da94a	0.1539661
230	0xbe73fa80	-0.23826027
231	0xbef57f21	-0.47948554
232	0x3bb2bc30	0.0054545626
233	0x3d832e97	0.06405371
234	0xbc4a35fb	-0.0123419715
235	0xbb2a65ac	-0.0026000543
236	0xbccc08d3	-0.024906551
237	0x3e7ae372	0.24500826
238	0x3cd4d532	0.025980566
239	0xbe64af92	-0.223326
240	0x3cf7440a	0.03018381
241	0x3f061e01	0.5238953
242	0xbe61f9bc	-0.22067922
243	0x3f1cee9c	0.6130159
244	0xbee4f824	-0.44720566
245	0xbeb89583	-0.36051568
246	0x3d00f18b	0.031480353
247	0xbc86d2a4	-0.016457863
248	0x3ca6cd93	0.020361697
249	0xbe981581	-0.29703906
250	0xbe9f499a	-0.3111084
251	0x3e01e4d0	0.12684941
252	0xbf44116f	-0.765891
253	0xbe4646fb	-0.19363014
254	0x3e37dbca	0.17954937
255	0x3eb2afdf	0.34899804

fc.bias f4 [2]
0	0x3e37aca7	0.17936955
1	0xbea00302	-0.31252295
