experiment/dynamic_eth/GTEA-LSTM/GTEA-LSTM_checkpoint.pt (torch_old, 413220 bytes, 28 tensors)

edge_layers.0.lstm.weight_ih_l0 f4 [256, 6]
000000 75 39 09 bb 84 5b 57 bd e9 fd b0 bd 53 b2 af bd
       -0.0020938788 -0.05257751 -0.086421795 -0.085789345
000010 3e 67 8c 3d 48 6c f5 bd 07 30 df 3c 24 45 c4 3d
       0.068556294 -0.11983544 0.02724458 0.095835
000020 bb e2 d9 3d 56 37 04 be fe 00 dd 3d 73 0e 5a 3c
       0.106389485 -0.12911734 0.10791205 0.013309109
000030 c0 7a b6 3c 54 ac a1 bd ac 41 e6 3d d9 d7 77 bd
       0.022275329 -0.07894197 0.11242995 -0.060508583
000040 9f cb a3 3d f3 f6 87 bd e9 de c9 bd a7 d6 7f 3d
       0.07997822 -0.06638899 -0.0985697 0.062460568
000050 84 70 ee bd 89 c0 a3 3d 61 28 ef 3c 29 4a 13 be
       -0.116425544 0.079957075 0.029194059 -0.14383759
000060 c1 d7 7e 3d 83 36 08 3e be 55 5c 3d ca 6e 90 bd
       0.062217478 0.13302045 0.053792708 -0.07052381
000070 5f b6 02 bd 82 5d c3 3d 59 1e db bc af c7 94 bd
       -0.031912204 0.095393196 -0.02674787 -0.07264649
000080 3c 02 ed 3c 2f 1b 1f bd 5a 59 bb 3d 66 e8 e2 bd
       0.02893173 -0.038844284 0.09147902 -0.11079483
000090 4f bb 05 be b1 06 0b bd 3d 0b c4 3d 72 7b 99 3b
       -0.13059734 -0.03394193 0.09572456 0.0046839053
0000a0 91 96 c2 3d 66 f4 be bc 4c 93 60 bd b4 95 41 3d
       0.095013745 -0.023309898 -0.054827973 0.04726191
0000b0 0b 7c 87 bd 25 cb ae 3d c6 87 aa bd b2 c1 6f bb
       -0.06615456 0.085348405 -0.08326678 -0.0036583957
0000c0 bd e7 d4 3d cd 5a 4d bb ff b8 40 bd 4c b6 92 3c
       0.10395763 -0.003133464 -0.047051426 0.017909192
0000d0 b2 f1 72 bd 7f 5b d1 3d 32 a4 84 bd 5c 7a b7 3d
       -0.05931253 0.102225296 -0.0647663 0.08958885
0000e0 d9 10 4a 3d 46 3e c0 3d 7c 75 ca 3d 26 10 e7 bc
       0.049332473 0.09386878 0.098856896 -0.028205942
0000f0 99 c8 cb 3d 4e 34 44 3c 1f 74 08 bc e7 97 81 3d
       0.0995037 0.011975361 -0.008328467 0.06327801
000100 94 d9 9e 3d 5a 72 08 3e 4d 7b 95 bd 24 69 04 be
       0.077563435 0.13324872 -0.072989084 -0.12930733
000110 71 ed cf bd c8 3d cb 3d 9d 62 45 bd e5 cf b6 3c
       -0.1015271 0.09923893 -0.048189748 0.022315929
000120 c4 aa 18 3d a4 57 51 bb a6 c9 05 be 64 26 e8 3d
       0.03727223 -0.0031943107 -0.13065204 0.113354474
000130 57 21 5c bd ac d2 6a bd 8b 10 9e bd 27 05 30 bd
       -0.053742733 -0.05732982 -0.07717999 -0.042973664
000140 1a 0e 3b 3c 66 6b 05 bc 73 1d 25 bd 3c 03 9b bd
       0.011416936 -0.008143282 -0.040311288 -0.07568976
000150 50 aa d4 bc f7 d2 42 bd b0 2d a1 bd 43 f7 33 3c
       -0.025960118 -0.047564473 -0.07870042 0.010984245
000160 bd 9c ce 3c 03 94 bd 3d a4 ff 2d 3d d2 41 9d 3d
       0.025221223 0.092567466 0.042480126 0.0767857
000170 c7 cc 6d bd ab fc 4b 3d c0 91 ab 3d 14 77 bd bc
       -0.05805662 0.04980151 0.08377409 -0.02312807
000180 76 a4 b0 3d 0e de 78 bd 77 9f da 3c 92 8d 7b 3d
       0.086251184 -0.060758643 0.026687367 0.06141431
000190 a5 a6 8c 3d ca c0 b6 bc bf 43 5e 3d d7 0e bf bc
       0.068677224 -0.022308726 0.054263826 -0.023322506
0001a0 3a 21 a0 3d 14 d7 55 3d ad 19 b4 bd ef 26 2f 3d
       0.078188375 0.052207068 -0.0879396 0.04276174
0001b0 22 91 11 3d 38 17 21 bd 73 bb 08 3d cb 64 a6 bd
       0.0355388 -0.039328784 0.03338189 -0.081246935
0001c0 ee fc a1 3d 35 a7 cd bc bb de c7 3d 88 e5 73 bd
       0.07909571 -0.025104145 0.09759279 -0.05954507
0001d0 58 f1 22 bd b2 b0 a6 3d 75 0e eb 3c 06 8e d2 bc
       -0.039780945 0.08139171 0.028693417 -0.025702488
0001e0 e6 45 06 3d e9 bd fa bc 04 27 c4 bb 6d 07 0c be
       0.032781504 -0.030608134 -0.0059860963 -0.13674708
0001f0 80 72 a5 3c 68 e8 c0 bd eb 64 cb 3d 2a 80 8f bd
       0.0201962 -0.09419328 0.09931358 -0.07006867
000200 e8 58 7a bd c8 66 7f bd e7 4d 2c 3c 5c d3 78 3c
       -0.061119944 -0.06235388 0.01051662 0.015187111
000210 7e c3 3c bd 8c 09 4b bd 3c b4 c7 bc 28 d7 af 3d
       -0.046084873 -0.04956965 -0.024377935 0.0858596
000220 4d 2f ec bd 36 fa 97 3d 32 36 9b 3d a3 5a 80 bb
       -0.115324594 0.07420771 0.07578696 -0.0039170547
000230 a4 06 1f 3e bc 40 8b 3d 18 1d b0 3d 1b f5 4e 3d
       0.15529877 0.067994565 0.08599299 0.05052672
000240 f0 bb f8 bd 64 0b bd bd 3f df b1 bd 62 13 1c bd
       -0.12145221 -0.09230688 -0.08685159 -0.038104422
000250 dd ec c9 bd 4d 46 57 3a 73 0d 15 be 1d d8 88 3d
       -0.09859631 0.0008212075 -0.14555912 0.06681845
000260 c6 0b 88 bc 3a 3f 33 bd ab 4b 81 bd a0 e9 58 bb
       -0.016607177 -0.04376147 -0.06313261 -0.0033098236
000270 3a e4 ee bc 30 52 10 3e 44 93 11 be db 61 bc ba
       -0.029161561 0.14093852 -0.14216334 -0.0014372425
000280 09 94 09 bd a5 23 d7 3c 39 8f bf bd 06 d3 c0 bd
       -0.033588443 0.026262114 -0.093534894 -0.094152495
000290 ed d1 dd 3d 72 c5 f3 bc 0d 4e ff bc ae 61 80 bd
       0.10831056 -0.029757235 -0.031165147 -0.06268631
0002a0 5e d2 d1 3d 54 fa f9 3d 26 7c 9d 3d 1c 8d 15 3e
       0.102452025 0.122059494 0.07689695 0.1460461
0002b0 25 be 37 3d ba 13 d2 3d f4 b8 fa bc d7 da c7 3d
       0.04485907 0.10257669 -0.03060577 0.09758537
0002c0 b2 15 04 3c bd a8 eb bc 3f a0 0f bd dd 31 49 bd
       0.008061813 -0.028766984 -0.035064932 -0.04911982
0002d0 45 90 62 3d 61 62 6e 3d 34 5e 8a bd 5d e5 f1 bd
       0.055313367 0.05819929 -0.06756249 -0.11811326
0002e0 75 df 2e bd e5 ec e8 3c 51 6b e8 bd 79 18 f8 bd
       -0.042693574 0.028433273 -0.11348594 -0.12114043
0002f0 6a 0c 04 3e 6c 7e 19 be 43 0f d9 ba 4d 08 45 bc
       0.1289536 -0.14989632 -0.0016560334 -0.012025905
000300 74 84 ac bc 3c a6 c9 bd 24 7f bc bd fe 1f af 3d
       -0.021059252 -0.0984616 -0.09203938 0.08551024
000310 16 08 b6 3d 9a fb ab 3d e9 aa 1d 3d 89 dd 91 bd
       0.08888261 0.083975986 0.03849307 -0.071223326
000320 72 fc 98 3d 14 9a c6 bd 49 53 75 3d 73 3b dd 3a
       0.07470025 -0.09697357 0.05989388 0.0016878679
000330 ae 6b f5 3c 36 06 38 bd 3c b5 d3 bc a1 6d e7 3d
       0.029958572 -0.0449278 -0.025843255 0.11300207
000340 f6 8b e3 3b 2d 74 c8 3c 5b ea 12 be 89 94 0d bd
       0.006944175 0.02446946 -0.14347212 -0.034565482
000350 07 10 6b 3d 81 02 85 bd 95 ce d1 bc 9a e0 3f 3d
       0.05738833 -0.06494618 -0.025611201 0.046845056
000360 2a 13 11 3d d1 1e aa 3c 53 b7 74 3d 45 13 31 3c
       0.035418667 0.020766648 0.059745144 0.010807817
000370 e2 28 e0 3d 9b f6 a9 bc f3 42 ac bc 5c 01 06 be
       0.10945298 -0.020747473 -0.021028018 -0.13086456
000380 c3 0e 4c bd 32 f9 d4 bd 45 f5 b9 bd c1 eb 84 3d
       -0.049818765 -0.10399093 -0.090799846 0.06490279
000390 65 df 05 be d8 f1 c2 3d 32 ba 3b bc 26 68 8d 3d
       -0.130735 0.09518784 -0.011457967 0.0690463
0003a0 c3 2a 08 3e 5e e8 2e 3c db ac ce bd 34 ef 0e bd
       0.13297562 0.010675518 -0.10091563 -0.03489609
0003b0 e7 76 4c 3d 64 38 fa 3c ac a4 15 3e 45 d1 fb bd
       0.04991808 0.030544467 0.14613599 -0.12295774
0003c0 c6 fb fe 3c f5 16 da bd 50 89 ea bd b9 a5 ed bc
       0.031125914 -0.1064891 -0.114519715 -0.029009687
0003d0 65 a7 75 3d f0 50 05 be 23 99 52 3d da 3e 00 3e
       0.059974093 -0.13019156 0.051415574 0.12523976
0003e0 0c 2f 86 bd dd 87 6a bd a7 fa a6 3c 76 81 00 3d
       -0.06551942 -0.057258476 0.020383192 0.031373464
0003f0 d4 e6 46 bc 8f d1 67 bd 02 34 d7 bc c6 9b 83 bd
       -0.012139995 -0.056596335 -0.026269916 -0.06426196

edge_layers.0.lstm.weight_hh_l0 f4 [256, 64]
000000 6d 98 18 bd 09 8c 97 3d 51 09 c6 bd 02 3a 84 3d
       -0.03725474 0.073997565 -0.09669746 0.064563766
000010 a5 3a 56 3d 1f 23 51 bd 96 64 f0 bd 6e c3 8a 3d
       0.05230202 -0.051058885 -0.11737935 0.067755565
000020 03 fb 3b 3c 7d 7a 83 bd de 1a dd bd 65 20 0f 3d
       0.01147342 -0.06419847 -0.1079614 0.034943003
000030 d2 03 0c 3d d0 3a cf bd 91 92 03 3e 8c 60 98 bd
       0.03418333 -0.101186395 0.1284888 -0.0744029
000040 58 15 35 bd 55 57 3d bc b8 70 02 be bc 6d 5e 3b
       -0.044209808 -0.011556466 -0.12738311 0.0033939919
000050 1c a7 62 bc b2 fa d5 bd 64 46 c0 bc 1f a2 fa bd
       -0.013833787 -0.10448207 -0.023471065 -0.122379534
000060 07 35 f0 bc 77 2c 09 be 73 ab cc 3d a9 16 2a 3d
       -0.02932216 -0.13395868 0.09993639 0.041525517
000070 5f d6 dc 3d 35 42 b9 bd ee 7f 76 bd e4 b6 99 bb
       0.107830755 -0.09045831 -0.060180597 -0.0046909917
000080 44 d0 a6 3b a1 07 93 3d 2f c3 f7 3d 94 85 86 3d
       0.005090745 0.071791895 0.12097775 0.06568447
000090 64 cd fc bd 23 61 06 3e 49 c3 15 bd 25 81 d9 bd
       -0.12343863 0.13122992 -0.03656319 -0.106203355
0000a0 20 9f f0 bd e1 ab b2 3d fd 7a d3 3d 38 12 49 bb
       -0.11749101 0.087241895 0.103261925 -0.0030681025
0000b0 48 98 e3 bc 40 b1 08 bc 45 a8 f3 3c d8 50 a4 bc
       -0.027782574 -0.008343041 0.029743323 -0.02005808
0000c0 42 2c f3 3d 85 84 c6 3d 5b 3e 8d bd 2d 14 8b 3d
       0.11873676 0.09693245 -0.06896659 0.067909576
0000d0 91 42 e8 3d da 5c 81 3d 4d f9 e3 bc fd fe 1c b9
       0.113408215 0.06316538 -0.027828837 -0.0001497231
0000e0 a1 54 ed bd 17 e7 ca bd 1d f2 51 3d f1 ad 9a 3c
       -0.11588407 -0.09907358 0.051256288 0.01888177
0000f0 6f 51 a6 bc 2c be 01 3d 5b 4f 03 be 1c 8d 1a bd
       -0.020302502 0.031675503 -0.1282324 -0.03773223
000100 fd 56 ad 3d dc 65 37 bc 88 18 c5 3d 7d e1 02 be
       0.08463857 -0.011193719 0.096238196 -0.1278133
000110 f2 3f d8 bd d0 24 ba bc 81 a6 0c bd 71 40 8c bd
       -0.105590716 -0.022722632 -0.034338478 -0.06848229
000120 c5 48 2d bd 3e 10 ce 3c 2a ea dc bd ef 51 78 bd
       -0.042305727 0.02515423 -0.10786851 -0.060625013
000130 c3 a2 a6 bc 72 8f 1a 3d dc 76 90 3d e1 78 b2 bc
       -0.020341283 0.037734456 0.070539206 -0.021786155
000140 aa 58 e3 bc ed a9 31 3d fe e1 e5 3c 16 7e 39 3d
       -0.02775224 0.043374944 0.028061863 0.04528626
000150 48 a5 88 3a 3b 21 a5 3d 7d b2 e6 3c be f4 89 3a
       0.0010425234 0.08062979 0.028161282 0.0010525209
000160 bf 59 8c 3d 92 ae a5 3c 81 f7 b0 bd 4b 79 f0 3c
       0.06853055 0.020224843 -0.086409576 0.029354712
000170 48 6c 10 3d 7d d9 46 3d d0 54 c8 3d 58 48 48 bd
       0.035259515 0.048547257 0.09781802 -0.048897117
000180 8a 36 65 bd 84 8d b6 bc 51 96 b6 3d 54 e4 cc bd
       -0.055960216 -0.022284277 0.08915389 -0.10004488
000190 d3 fe 69 3d 9c 5a a3 3b 3b 87 dc bd bb 4c 60 3d
       0.057127785 0.0049851667 -0.10767981 0.054760676
0001a0 5d d8 7f 3d 28 b2 c2 3d 4c 9e 99 bd fd 82 d9 bd
       0.0624622 0.09506637 -0.07500896 -0.10620687
0001b0 ef 0a 21 3d 25 36 c1 bd a6 dd 2d 3d 41 f9 05 bd
       0.039317068 -0.094341554 0.04244771 -0.03270841
0001c0 71 4a e8 3d b8 4b 02 be 4e 76 b3 bd 64 2b f5 bb
       0.113423236 -0.12724197 -0.08762799 -0.007481979
0001d0 21 23 a5 3d 6b eb 18 bd e7 03 80 3d 4e 10 9f 3d
       0.08063341 -0.037333887 0.06250744 0.07766782
0001e0 e9 9f 86 bb a9 ed c8 bc ff af c3 3d 15 66 62 3d
       -0.0041084182 -0.024527388 0.09555053 0.055273134
0001f0 56 2d 8d bd ab da 45 bc 4b db d1 bd 4d 34 95 3c
       -0.06893413 -0.01207606 -0.10246905 0.018213416
000200 e2 75 40 bd fd 23 c6 bb 31 49 d7 3c 48 9a b8 3d
       -0.04698742 -0.0060467706 0.026280018 0.09013802
000210 e6 18 59 3c f8 aa 3d bc 5e 5d a5 3d 19 c8 c5 3d
       0.013250565 -0.011576407 0.08074449 0.09657306
000220 d8 b4 9c 3d 48 a2 e9 3c 95 22 1c 3d 15 7e 91 3d
       0.07651681 0.028519765 0.038118917 0.07104126
000230 0b 7c 02 bc 03 47 e0 3d da 44 4b 3c a6 77 fa 3b
       -0.007964144 0.109510444 0.012406552 0.0076436577
000240 ed 51 59 3d 63 e5 ac bd 2b b7 f0 bd 41 f0 d2 3d
       0.053056646 -0.084421895 -0.117536865 0.10299731
000250 34 35 9a 3c 04 ed 4e 3d 80 d6 96 bc 2a 8a 06 bd
       0.018824197 0.050519004 -0.018412828 -0.032846607
000260 cf c9 d5 3d 9e 62 2d bd d2 e2 dc 3d b0 09 e5 bc
       0.104388826 -0.042330377 0.1078545 -0.02795872
000270 65 7e e9 3d c6 2e 28 bd e1 17 c1 3d 7d 64 be 3d
       0.11401061 -0.04106023 0.09428383 0.0929651
000280 b7 63 99 3d 2d 59 a4 3d 73 03 4f bd 53 0b fa bd
       0.07489722 0.080248214 -0.0505404 -0.12209191
000290 b9 87 a9 3d c8 c8 fc 3d 3b 17 dc 3d c8 92 f1 3c
       0.0827784 0.123429835 0.10746618 0.029488936
0002a0 72 3d 1e bc 8e f8 cb 3c 8f 9f 0e 3d b4 7a 2d bd
       -0.009658204 0.024898794 0.034820136 -0.042353347
0002b0 ec 6a 87 bd 71 4e a4 bd 75 04 82 3d ec 7a a5 bd
       -0.066121906 -0.08022774 0.06348506 -0.08080086
0002c0 83 44 36 3d 33 bf d6 3d a5 a0 ad bd 60 d9 1c bd
       0.04449893 0.10485687 -0.08477906 -0.038293242
0002d0 ea 09 2c bd 62 ef b2 3d e4 6f 4e bd fa d0 12 be
       -0.042001642 0.08737065 -0.050399676 -0.1433753
0002e0 06 ab 75 bc 98 2f 19 be a4 b9 14 bd 2d fa a6 3d
       -0.014994388 -0.14959562 -0.036309853 0.08153186
0002f0 99 59 a9 3d 42 84 f2 bd cd 08 fa bd cc 71 92 3d
       0.082690425 -0.118416324 -0.1220871 0.07150611
000300 7e e1 76 bd c3 8f a2 3d 53 8f d0 3d 0e 21 c4 3d
       -0.06027364 0.079375766 0.10183587 0.09576617
000310 e8 05 d6 3d b9 8f 03 3e fc 68 b7 bc 68 26 a3 3d
       0.10450345 0.12847795 -0.022388928 0.0796631
000320 1a b0 bb 3d dc ea 82 bd 55 b3 d9 bd 09 87 17 bd
       0.09164448 -0.06392452 -0.10629908 -0.036994014
000330 7f 32 28 bb 36 05 a7 3b 40 c6 84 3d e3 f3 c8 3d
       -0.0025664864 0.0050970567 0.06483126 0.09812143
000340 bf 42 4d bd c8 a4 94 3d ba 48 92 bd f8 78 c4 bd
       -0.050112482 0.07257992 -0.07142778 -0.095933855
000350 15 49 cf bd 97 51 54 bd 71 db e7 bd ab 35 d1 3d
       -0.10121361 -0.051835623 -0.11321152 0.102153145
000360 48 f7 c1 bd ad eb 59 bd 2a bc 88 3d dd 2e 94 3d
       -0.09470993 -0.053203274 0.066765144 0.07235501
000370 57 88 00 be 33 5a 90 3d 95 0e af 3d 35 d4 d0 3d
       -0.1255201 0.07048454 0.08547703 0.10196725
000380 70 02 07 3e c6 da 99 3d 93 bf ec 3c 5e 75 b9 3d
       0.13184524 0.07512431 0.028899943 0.09055589
000390 cb 3a 6c bd 21 b6 36 bd e5 4f 04 3e 8d 14 0d 3d
       -0.057673257 -0.044607285 0.12921102 0.034443427
0003a0 3b 3f 32 bc 0b ac c2 bd 68 e5 80 bc 2e 74 eb 3c
       -0.010879333 -0.09505471 -0.01573439 0.028741922
0003b0 ee a7 d8 bd 2f 50 92 3d 02 e2 83 bd 93 4c f9 bd
       -0.10578905 0.071442 -0.06439592 -0.121728085
0003c0 3f 26 2a 3d 40 cf cc bd fc 77 50 bc 81 cd 2d 3d
       0.04154038 -0.10000467 -0.012723919 0.042432312
0003d0 da 8f 88 3b 3f 09 e3 3d 16 0c a9 bd 12 99 f2 bd
       0.004167539 0.11085748 -0.08254258 -0.11845602
0003e0 1b 6d e3 3d e4 8f 93 3b 12 05 fa 3d 02 1f 91 3d
       0.111047946 0.004503237 0.12207998 0.070859924
0003f0 01 32 99 3d c7 cd fa 3d db 31 0a be e2 e5 00 3e
       0.074802406 0.1224628 -0.13495581 0.12587693

edge_layers.0.lstm.bias_ih_l0 f4 [256]
000000 25 ad 79 3c 59 05 48 bb 79 95 1e 3d 05 cf 3f 3d
       0.015239035 -0.0030520766 0.038716767 0.04682829
000010 29 9a 41 3d cf c7 6e 3c 00 26 3f 3d 4c 8e 98 3d
       0.04726616 0.014574005 0.0466671 0.07449016
000020 17 03 25 3d c4 6c f6 3c c0 af 56 3d 2b 8e 6f bc
       0.04028615 0.03008116 0.052413702 -0.014621298
000030 b2 c0 50 bd 4e 92 b7 bd 4f 0e 52 bd a4 2c 16 bd
       -0.05096502 -0.08963452 -0.051283177 -0.036663666
000040 55 4f 0b bd 6d 4f b2 3c cc 53 25 bd 5b 23 f9 3c
       -0.034011204 0.021766389 -0.040363118 0.030412367
000050 cf 32 a6 bd e2 70 e8 3d f5 5a 68 bd 03 8f e3 3d
       -0.0811516 0.11349656 -0.05672737 0.11111262
000060 a2 11 95 3d d4 e4 ce 3c 3d 04 c5 3d bd 8d 98 bd
       0.07278754 0.025255598 0.09619949 -0.074489094
000070 93 c4 48 bd a7 c1 7b 3c a0 52 aa 3d 6e 4f 0f 3d
       -0.049015593 0.015365995 0.08316541 0.03498786
000080 9e 63 4c 3d 6b 82 a4 3d 6d 29 90 3d 19 78 e9 3d
       0.04989969 0.08032688 0.07039151 0.1139986
000090 41 b0 6f 3c a6 60 5e 3d 37 13 0f 3e b4 73 9d bd
       0.014629425 0.05429139 0.13972174 -0.07688084
0000a0 ec 4d cc 3d 62 b8 b6 3d 6a 63 aa bd 0b fa a0 bd
       0.099758 0.08921887 -0.08319743 -0.07860192
0000b0 e4 35 ab bd dc d9 8a bd 8c 06 b5 bd 1c fc 5a 3d
       -0.08359888 -0.06779835 -0.08839139 0.053463086
0000c0 2c 9e 9a bb cc 1c 80 bc da 0f 66 bc 76 3c ca 3d
       -0.0047185626 -0.015638731 -0.014041865 0.09874813
0000d0 ee 78 c8 3d b1 80 8f 3d 40 22 1f 3d 03 91 d9 3c
       0.097886905 0.07006968 0.038851023 0.026558405
0000e0 cf 92 2b bd 44 a1 0d 3e 26 9b 2e bd 36 cf 12 bd
       -0.041888054 0.13831049 -0.04262843 -0.035842143
0000f0 aa cd 15 bd 17 33 cd 3d d4 53 cc 3d e1 06 e2 3d
       -0.03657309 0.1001951 0.099769264 0.11036468
000100 9b c0 9b bd 05 27 c3 bd 27 8c df bc 1f 32 4e bc
       -0.07605096 -0.09528927 -0.02728851 -0.012585192
000110 44 c4 03 3e 47 c0 fa 3d c4 de 2d bd 15 4d 33 bc
       0.12867838 0.12243705 -0.042448774 -0.010943671
000120 b1 c6 c3 bd ac c8 0e 3d 15 89 79 bb 6f 87 dd bd
       -0.09559382 0.034859344 -0.0038076092 -0.108168475
000130 82 cc c3 bc 72 c4 15 bd 4d d7 7e bd d7 03 02 bd
       -0.023901228 -0.036564298 -0.062217046 -0.031741943
000140 87 ce 92 bd 52 c4 d8 bd 39 83 e7 bc 7c 70 7a 3d
       -0.07168298 -0.1058432 -0.028260814 0.06114243
000150 e1 ca 0b 3e 01 b4 35 3d b5 dd cc 3d c3 5c 69 3d
       0.13651611 0.04436112 0.10003225 0.05697323
000160 b7 95 ad 3d b7 97 90 bd 24 3a c1 3d 0b 74 04 bd
       0.084758215 -0.07060187 0.094349176 -0.03233723
000170 54 da b9 bd a5 e0 4a 3d 70 71 3c bd 27 57 2c bd
       -0.09074846 0.049530644 -0.04600662 -0.042075302
000180 fb ea 57 bc 3a e0 90 bb a2 e6 41 bc aa b9 dd 3d
       -0.013178582 -0.004421261 -0.011834772 0.10826428
000190 cd 11 c1 bd 49 b2 0a 3e fa bd 8d 3d 92 6e 68 bc
       -0.09427223 0.13544573 0.06921001 -0.014186518
0001a0 f6 df b7 bd 3e 8d c0 3d b6 b9 85 3d 4a b6 a4 bc
       -0.08978264 0.0940194 0.06529562 -0.020106453
0001b0 89 3b bd bd d9 35 87 3d 36 78 9f 3d 9d d6 ba 3c
       -0.09239871 0.066020675 0.077866 0.022807414
0001c0 bd f9 82 3d ba 80 35 3b d2 bd 8f bd 4c af a8 bc
       0.0639529 0.0027695135 -0.07018627 -0.0205914
0001d0 f5 f8 da 3d 06 fa ec 3d c3 18 95 3d 24 6a 8c 3c
       0.10692016 0.11571126 0.072801135 0.017140456
0001e0 e6 a9 99 bd 92 8b 9d 3d ff f1 00 3e cb b9 8a bd
       -0.07503109 0.076926365 0.12592314 -0.067737184
0001f0 e9 3a 89 bd e6 48 7b bd f2 45 3c bd ab ba fa 3c
       -0.06700689 -0.06134882 -0.045965143 0.030606588
000200 d0 71 1a be ea 90 dd 3c df 95 ef bc 75 a6 d1 bd
       -0.15082479 0.02704664 -0.029246269 -0.10236827
000210 94 a7 8d bd 81 9a d1 bd dd 93 3a bd 1f 12 b7 bc
       -0.069167286 -0.102345474 -0.04555117 -0.022347508
000220 78 51 8b 3d e9 8c 8a bc e0 ee 42 bd f1 81 34 3d
       0.06802648 -0.016912894 -0.04759109 0.044069234
000230 27 62 a7 bd 91 ff a9 3c 3a 3d 97 3c ed 19 aa bc
       -0.08173018 0.020751746 0.018461812 -0.020764316
000240 30 c5 a5 bc 57 a9 89 3d 0b 1c 46 bd 83 c9 c0 3d
       -0.020235628 0.06721752 -0.048366588 0.09413435
000250 34 3f ce bd 6c 68 c2 bd 68 e8 34 3d 37 1c 5a 3d
       -0.10070649 -0.09492573 0.044166952 0.053249564
000260 6d ca a2 bb 71 3a 22 bd f2 67 86 3c 76 18 90 3d
       -0.0049679787 -0.039606515 0.016406987 0.070359156
000270 72 67 e3 bd e0 37 85 3d 39 fc e0 bd 17 56 83 bd
       -0.11103715 0.06504798 -0.10985608 -0.06412905
000280 2d 99 c9 3d 97 be cd 3d d0 3d 00 bd e6 4b 05 be
       0.09843669 0.10046118 -0.03130895 -0.13017234
000290 f9 12 e8 bd 50 82 fd bc 60 e9 81 3b 13 07 4a 3c
       -0.11331744 -0.030945927 0.003964588 0.012330788
0002a0 61 1c b2 3d 87 d4 c1 bd 36 89 3e bd 69 d4 a0 bd
       0.08696819 -0.094643645 -0.046517573 -0.07853014
0002b0 b8 3a be bd 6a ba 86 3d d4 a2 e1 bc e8 31 a2 3d
       -0.092885435 0.065785244 -0.027543463 0.07919675
0002c0 0d c8 47 bd d4 a3 be 3d 36 c9 a6 3d 4b ff b6 bd
       -0.048774768 0.093085915 0.08143847 -0.08935412
0002d0 24 9c 04 3e d5 8d b3 bd 32 b6 94 bc 46 93 be bc
       0.12950188 -0.08767287 -0.018153284 -0.023263585
0002e0 a6 cb 89 bd 49 d5 3d bd 72 5f f7 3d e6 94 0b bd
       -0.06728296 -0.046345983 0.120787516 -0.034077547
0002f0 e9 77 a8 3c 34 89 de bc 7c e5 c6 3c f1 64 e6 3c
       0.02056499 -0.027165033 0.024279349 0.028124304
000300 d6 11 8e bd 35 d8 ba 3c 20 46 7a bd f8 d6 c7 3d
       -0.06936996 0.022808174 -0.061102033 0.09757799
000310 88 bd bc 3b 91 df ca bd a6 d6 c8 3c d8 dd 02 3e
       0.0057598986 -0.09905923 0.024516415 0.12779939
000320 82 e7 52 3d 5a 71 99 3d f1 17 02 be e5 53 5c bd
       0.051490314 0.07492323 -0.12704445 -0.053790946
000330 c2 3e 05 3e 57 78 e7 bd 66 11 89 3c 3d e6 bb 3d
       0.13012221 -0.1130225 0.016731929 0.09174774
000340 a8 21 5f 3d c8 ad 48 bc 42 12 95 3d 11 d5 d0 3d
       0.054475456 -0.012248464 0.07278873 0.10196889
000350 87 8e 0e bc 39 ec 25 bd 87 90 60 3d 63 fe 0d 3e
       -0.008700973 -0.040508483 0.054825332 0.13866572
000360 34 b0 ac 3c 50 97 0a 3e d6 86 df 3d 32 24 81 3d
       0.021080114 0.13534284 0.1091439 0.06305732
000370 3d 81 d8 3d 3b 39 5e 3d c8 0e ae bb 9a ec 8f 3c
       0.10571525 0.054253798 -0.0053118207 0.017568875
000380 a1 b0 9f 3d d5 1f 16 3d 44 60 9e 3d 99 16 6e 3d
       0.07797361 0.03665145 0.07733205 0.05812702
000390 dd 12 7f bd 43 98 bb bd 20 6d ab 3d eb 4d 92 3d
       -0.06227385 -0.09159901 0.08370423 0.07143768
0003a0 f9 96 3d 3c b0 d4 00 bd 7c 60 f2 bb 40 23 9c 3d
       0.011571639 -0.031452835 -0.0073967557 0.07623911
0003b0 83 5b 20 bd 65 33 13 3c c1 fa 7d 3c 64 ae 61 3d
       -0.039149772 0.008984421 0.015501679 0.055097952
0003c0 99 9f 0c 3d e0 90 8b bd 61 36 c8 bc 2e 15 40 bd
       0.03433189 -0.06814742 -0.024439992 -0.0468952
0003d0 5d 14 84 bd 68 d0 9e bd 56 20 05 3e 05 1f c5 bd
       -0.064491965 -0.07754594 0.13000616 -0.09625057
0003e0 53 9f a1 bd b5 4e b9 3d ee ea ea 3c 52 2e d4 3d
       -0.07891717 0.09048215 0.028676476 0.103603974
0003f0 e4 fb 9c 3d 1e 1d 52 3d ef 82 9f bd a5 3e 6a bd
       0.07665232 0.0512973 -0.077886455 -0.05718865

edge_layers.0.lstm.bias_hh_l0 f4 [256]
000000 4f 25 f6 3d bb 97 dd bd a5 ed 71 bd 53 2f aa bd
       0.12018835 -0.10819956 -0.059064526 -0.08309808
000010 5f c2 16 3d b8 51 cd 3d 1a 7d d7 bc 4f 87 a5 3d
       0.03680646 0.10025352 -0.02630477 0.08082449
000020 32 19 fc bd a6 30 b5 bd 3a fc af bd 48 ed 66 3a
       -0.12309493 -0.088471696 -0.0859303 0.00088091614
000030 d6 07 48 3d 27 a0 78 3d d3 3c b5 bd e4 7f fd bb
       0.048835598 0.06069961 -0.08849492 -0.007736193
000040 c7 58 9e 3d ca 85 e2 bc 6c 18 a4 bc 49 a4 b1 bd
       0.07731777 -0.027651686 -0.020031177 -0.08673913
000050 06 0d 2e bd a4 46 a1 bd b7 44 53 bd e9 d6 0c 3e
       -0.04249289 -0.07874802 -0.051579203 0.13753857
000060 52 8c 9a 3d 09 d1 0b bc cd 64 8c 3d dd 8d e2 3b
       0.07546295 -0.008533725 0.06855164 0.006913884
000070 46 80 b0 ba 43 b5 d7 3d aa 1a 9d bd 30 38 51 bd
       -0.0013465963 0.1053262 -0.076711014 -0.051078975
000080 3e 85 43 3a df 43 a0 3d e1 9c 61 bc 6f 6e 8d 3c
       0.00074585143 0.078254454 -0.013770313 0.017264573
000090 67 12 56 bd 6a 32 36 3d bd cc c1 bd 22 19 86 bd
       -0.052263644 0.044481672 -0.09462879 -0.065477625
0000a0 63 de 0d 3e 74 eb e2 3d bd aa c4 bc ac f7 13 3d
       0.13854365 0.11080065 -0.024007196 0.03612487
0000b0 3a 43 12 3e f2 a6 84 bd c0 a4 d6 3d c5 5b fa 3d
       0.14283457 -0.06477155 0.10480642 0.12224535
0000c0 ff d3 6b bd 56 46 d7 3d d4 3b d0 bd 58 fd b6 3d
       -0.057575222 0.105114624 -0.10167661 0.0893504
0000d0 e6 0d ad bd ab c9 96 bd 45 1c a2 bc 9a 28 21 3d
       -0.084499165 -0.07362684 -0.01978887 0.03934536
0000e0 05 6e da bd 13 7b de 3d da 0a a1 3d 3f b4 0e bc
       -0.10665516 0.10863318 0.07863398 -0.008709966
0000f0 68 05 b3 bd 68 50 9a 3d b1 8e 94 3d df ec c3 bd
       -0.087412655 0.075348675 0.07253779 -0.09566664
000100 5f 3e a3 bd 88 3e 84 3d 1e 64 7d bc 8b 62 c8 3c
       -0.07970881 0.064572394 -0.015465764 0.024461051
000110 7d b1 bb 3d 5e db 12 3d d1 5c 86 3c 6d 23 85 3c
       0.091647126 0.035853736 0.01640168 0.016252244
000120 b0 cc 88 bc 14 63 51 bd 80 f7 97 3d c6 e0 76 3d
       -0.016699165 -0.05111988 0.07420254 0.060272954
000130 bf c3 1f bd 4c 14 ed 3d 4a 7f 52 ba da ee fe 3d
       -0.039005037 0.11576137 -0.0008029832 0.12447901
000140 44 2f 7d 3d 3c 39 88 bd 2e 28 0b 3d 25 b1 98 3d
       0.061812654 -0.066515416 0.033973865 0.07455663
000150 5e 2f 7a 3d 35 47 92 3c 9b 2d b3 bd a0 6e 77 bd
       0.06108033 0.01785622 -0.08748933 -0.060408235
000160 29 e5 b1 3d fa c3 1b 3d a0 51 b8 bd d1 0b c0 bd
       0.08686287 0.038028695 -0.08999944 -0.09377254
000170 c2 16 a5 3c c4 41 55 3d 87 10 06 3d 93 af 51 3d
       0.020152453 0.052064672 0.032730605 0.05119283
000180 06 b9 c8 3d 74 29 15 3d 13 7e f6 ba 3a 36 d5 3d
       0.098009154 0.036416486 -0.0018805884 0.104107335
000190 df 19 ee 3d 7a f4 a8 bc aa ab a5 bd 76 db 8c 3d
       0.11626028 -0.020624388 -0.08089383 0.06877796
0001a0 50 2f db 3d 8c 62 f2 bd 40 b2 84 3d aa 84 25 3c
       0.107023835 -0.118352026 0.06479311 0.01010243
0001b0 da f3 22 bc 04 28 04 3e 41 85 66 3c 73 db e4 bd
       -0.009945834 0.1290589 0.014069856 -0.11174669
0001c0 08 87 91 bd cc d9 9d bd b9 31 c4 3c 56 a5 2f bd
       -0.07105833 -0.07707557 0.02394949 -0.042882286
0001d0 27 f4 6e bc 58 7a e3 3a c1 cb d1 ba 3f aa d0 3d
       -0.014584578 0.0017355187 -0.0016006158 0.10188722
0001e0 60 df 7b 3d 20 6e 31 3d 3e 43 0c 3e 7f 2d 03 3e
       0.061492324 0.043317914 0.13697526 0.12810324
0001f0 a7 78 61 bd 02 cf 1b 3e 6e dc 04 bd c9 23 00 3c
       -0.055046704 0.15215686 -0.03243678 0.007821032
000200 a4 98 b7 ba 92 57 1c bd a9 52 fb bd 2e 10 22 3d
       -0.0014007282 -0.03816945 -0.122716255 0.03956621
000210 71 00 9c bd 59 ad b4 bd cc f5 be 3d 86 d2 c5 3d
       -0.07617272 -0.08822126 0.09324226 0.09659295
000220 64 a0 b1 3d 7b e5 68 bd 90 b8 db 3d a6 97 2c bd
       0.0867317 -0.056859475 0.10728562 -0.04213681
000230 e1 04 f6 3d 10 35 eb 3d 59 f5 ce 3d cb 0d f1 3d
       0.12012649 0.1148473 0.1010539 0.11770209
000240 83 d9 6a bd 37 70 9e 3d fb 27 37 bd a5 b2 29 3d
       -0.05733634 0.07736247 -0.044715863 0.041430134
000250 ee 45 77 3d 16 9e bf bd 76 0e cb bd f0 91 a7 3c
       0.060369425 -0.093563244 -0.099148676 0.02045533
000260 7e 97 78 bd 9c f9 ea 3b c9 38 65 3d 4c 73 0e be
       -0.06069135 0.007170869 0.055962358 -0.1391117
000270 7c 30 dc 3d 0a 79 1d bd 63 17 84 3d 93 52 6f 3d
       0.10751435 -0.03844551 0.06449773 0.05842836
000280 f4 c9 4f 3d 81 24 b1 3d 41 24 33 3c d2 28 dc bd
       0.050729707 0.08649541 0.010933937 -0.10749973
000290 2f 3e ee 3c 97 c7 8a 3c 8f 7c 9b bd b1 c0 84 3d
       0.029082386 0.016940875 -0.07592117 0.064820655
0002a0 97 0c d5 bc 25 12 c9 3d 6d 16 19 be 1a dd d9 3c
       -0.02600698 0.09817914 -0.14949961 0.026594687
0002b0 7c 7c 01 3e 32 7c 92 bd db 8f c3 3d a0 fd a9 3d
       0.12645143 -0.071525946 0.09548923 0.08300328
0002c0 01 6a 87 3d 75 42 67 3d e5 1f 09 3c e9 65 6f 3d
       0.066120155 0.056459863 0.008369421 0.0584468
0002d0 0f 13 f4 3d 2f 5c 3a 3d 79 b6 05 be 8b 22 a4 bd
       0.11917698 0.04549807 -0.13057889 -0.08014401
0002e0 a6 2d 13 bd 52 a6 b5 bd a8 e8 f9 3d bf fe 6f bd
       -0.035932206 -0.08869614 0.12202579 -0.058592554
0002f0 17 7d bf 3d 0d 5b 9a bd 7e fb 6f 3d f6 72 d0 bd
       0.09350031 -0.07536898 0.05858945 -0.10178177
000300 d1 8d c7 bb c0 8c 60 3c ec 8b ed 3d ae f5 6a 3c
       -0.006089904 0.013705432 0.115989536 0.014340801
000310 8c 31 ec 3d b1 f9 f2 bd 9c 34 95 3d 5a 44 ef 3d
       0.11532888 -0.11864031 0.07285425 0.11682959
000320 5a a4 d9 bd 48 ed f4 3d 7a e2 e1 3d 39 8a 2f bd
       -0.10627051 0.1195932 0.11029525 -0.04285643
000330 cb 58 09 3e 5a 57 2c 3d 22 d5 54 bc 1a 3e ba 3c
       0.13412778 0.042075492 -0.012990268 0.02273469
000340 92 55 b3 bc 2b 37 bd 3d 10 cf 91 bd 9b de c7 3d
       -0.021891389 0.09239038 -0.07119572 0.097592555
000350 9b 8c 31 3d 5c ec ee 3d 33 d7 f4 bc 11 af c4 3d
       0.043346982 0.11666176 -0.029887771 0.09603704
000360 65 b4 1f ba b2 a0 f1 3d 62 37 ff bc 07 17 6a bd
       -0.00060922495 0.11798228 -0.031154338 -0.057150867
000370 8b 8e a8 bd fa 88 48 bd 13 d2 8a bc 1e 11 15 3e
       -0.08230313 -0.048958756 -0.016945874 0.14557311
000380 8a 7d ac 3d 4e e9 aa 3c c0 88 46 bc 0e 48 97 3b
       0.08422382 0.020863201 -0.012117565 0.004616744
000390 09 07 e2 bd 87 eb 06 3d a2 9a bc bd ac b2 b4 3c
       -0.11036498 0.03293946 -0.09209181 0.022057854
0003a0 d8 a1 55 bd 77 08 b1 bd 38 ac 15 3d 70 82 aa 3d
       -0.0521563 -0.08644193 0.036541194 0.0832566
0003b0 fc 56 e6 bc 7d 5c 16 3e 8f aa 9b bd fb bb 99 3d
       -0.02811765 0.14683719 -0.07600891 0.075065576
0003c0 20 c3 3f 3d 98 7e c4 3d 30 04 dd 3b c7 ec 99 bd
       0.046816945 0.09594458 0.006744884 -0.07515865
0003d0 82 88 9f 3d 6d f9 09 3c 7c c1 d2 3d ec 8a dc 3d
       0.07789709 0.008421284 0.102908105 0.10768685
0003e0 91 f2 91 bd a0 1b 6e bc 44 92 8d bd ea 85 00 3e
       -0.07126344 -0.0145329535 -0.069126636 0.12551084
0003f0 b8 9f c9 3d 98 18 73 bc 93 2d ea 3a e3 8f cb bd
       0.09844917 -0.014837407 0.0017866365 -0.099395536

edge_layers.1.lstm.weight_ih_l0 f4 [256, 6]
000000 45 7a a0 3d 20 4d d5 bc 0f ab 5f bb 60 2d 2f 3d
       0.07835821 -0.026037753 -0.0034129058 0.042767882
000010 22 73 b9 3d ff 8c ef 3d 71 1b e2 3b 54 31 d2 3d
       0.09055163 0.11696815 0.006900244 0.10263315
000020 e3 e5 99 3d 7f f4 11 bd a4 82 c3 bd da da a1 3d
       0.075145505 -0.03563356 -0.09546402 0.07903071
000030 14 d7 e3 bd e7 87 e6 bb 16 2d c5 3d d7 07 24 bd
       -0.11125007 -0.007035244 0.0962774 -0.04004654
000040 3c db f6 3d 22 90 94 bd f9 d7 93 3c 18 c5 ca 3d
       0.120535344 -0.07254054 0.01804732 0.09900874
000050 78 10 df 3d 88 5e 4c 3d 4a 64 12 ba 3d d0 c8 3d
       0.10891813 0.04989484 -0.0005584402 0.09805343
000060 19 70 cf bc 16 07 dd bd b0 ed 33 3c ae fc 94 bd
       -0.025322007 -0.10792367 0.010981962 -0.07274757
000070 6b ab 99 bd 1a 06 dc bd 15 ed 89 bd 69 fa 8a 3d
       -0.075033985 -0.10743351 -0.06734673 0.06786043
000080 96 d8 2f 3d 4e 5c 05 3e 29 57 a1 bd c4 9a ed bd
       0.04293116 0.13023493 -0.078779526 -0.11601785
000090 a3 6f d6 bd 74 51 b1 3d f1 d3 bc bd 1e 1b 31 bd
       -0.10470512 0.08658114 -0.09220112 -0.04323875
0000a0 4c aa 1c bd 24 3f 0b bd 5d d0 3d bd dd db 42 bd
       -0.038248345 -0.033995762 -0.04634129 -0.04757296
0000b0 6f b7 16 ba 76 b8 08 3c f8 e5 ee 3d a9 f9 20 bd
       -0.00057493796 0.00834476 0.11664957 -0.039300594
0000c0 4b 85 f1 bd f0 1d c8 3d 59 a6 bf 3d 97 a3 a4 bd
       -0.11793002 0.09771335 0.093579 -0.08039015
0000d0 84 f2 c2 3d c5 e7 1e 3c 76 52 85 bd a4 d8 ac bc
       0.095189124 0.009698813 -0.06509869 -0.021099396
0000e0 c8 7a d7 bd 4f 0b fd 3d da 65 22 3c b6 09 56 bc
       -0.105214655 0.123556726 0.009911979 -0.013063839
0000f0 67 63 31 bb 2b 20 85 3d 26 55 b5 bd 36 b0 b5 bd
       -0.0027067305 0.06500276 -0.088541314 -0.088715
000100 0c 0b 2a bc 18 9f b4 bd 86 a7 d4 bd 19 fe 59 bd
       -0.01037861 -0.08819407 -0.10383515 -0.053220842
000110 de da 95 3d 20 a2 de b9 f1 88 c7 3d 61 d2 4b 3d
       0.07317136 -0.00042463932 0.097429164 0.04976118
000120 08 37 fd 3a ef 07 93 bc 0c f8 87 3c 6f 3e de bd
       0.0019318769 -0.017948119 0.01659777 -0.10851752
000130 26 8e c0 bd cc 0f e5 bd 4a d1 a8 3d 2b 36 d0 3d
       -0.09402113 -0.11184654 0.08243044 0.10166582
000140 b4 73 d9 bd 15 7f 7e 3b 01 69 90 bd 04 2f aa 3d
       -0.10617772 0.003883307 -0.07051278 0.08309749
000150 ac c3 06 3d 23 7e e6 bd 78 5a 54 3d 9f 65 e2 3d
       0.03290145 -0.112545274 0.05184409 0.11054539
000160 54 1c 6e bd 51 a3 5e bd 58 8d b8 bc a8 1d cb 3d
       -0.058132485 -0.05435497 -0.022528335 0.09917766
000170 32 89 e1 bd 89 c3 cb 3d 66 b3 47 bd 9a 1f cd bd
       -0.11012496 0.09949405 -0.048755072 -0.10015793
000180 8f ea a6 bc 8e 69 29 bc a7 09 0b 3e 34 31 cc 3d
       -0.020375518 -0.010340108 0.13577901 0.09970322
000190 d8 c3 71 3d 7a 77 e4 3d 49 fc 07 3d 29 a5 91 3d
       0.05902466 0.11155601 0.033199582 0.0711158
0001a0 8e 81 e2 3c 6e fc 69 3d bf bf cd 3d 54 db 54 bd
       0.027649667 0.0571255 0.10046338 -0.05196698
0001b0 67 5b 6e 3b 96 70 10 3d 7a e5 c0 3d 87 e2 e0 3b
       0.0036370398 0.03526362 0.09418769 0.0068629417
0001c0 1d 6c 58 bd d9 a2 12 3e fd 9b 89 3d ff 59 9d bd
       -0.05283748 0.14319934 0.067192055 -0.07683181
0001d0 2c b0 6f 3d 85 86 96 3b 94 87 f5 bd 4e b4 22 3d
       0.05851762 0.0045936727 -0.1198875 0.039722733
0001e0 7b b8 3b 3c 74 f2 45 bd b2 ba 87 bd 59 bf c5 bd
       0.011457558 -0.048326924 -0.06627406 -0.09655637
0001f0 89 d3 98 3c 60 5d d9 3b 2e 94 f8 bc d6 1d 96 bd
       0.018655555 0.0066334456 -0.030344095 -0.073299095
000200 da d7 17 bd 11 94 84 3d 1e af 4e bd 66 e2 f2 bd
       -0.037071086 0.06473554 -0.050459974 -0.11859588
000210 ef f1 e9 bd 22 35 13 3d 95 de bd bd 27 47 6c 3d
       -0.11423098 0.035939343 -0.0927097 0.057685044
000220 d5 15 56 3d 17 49 4c bd a0 f8 65 3d 18 43 a8 bd
       0.052266914 -0.04987439 0.05614531 -0.08215922
000230 9b 8c e6 bd ab 14 be bd 89 74 23 3d db f1 d0 bc
       -0.11257287 -0.09281286 0.03990606 -0.02550595
000240 2c 1e 05 3e 3e 92 ba bd 15 d0 f8 bc a2 45 c6 3d
       0.12999791 -0.09109925 -0.030372659 0.0968125
000250 87 d7 ba 3d 16 ae 35 bc 72 c6 8f 3d 88 1d 21 bd
       0.0912314 -0.011088869 0.07020272 -0.039334804
000260 a5 e1 94 bc 5c b0 74 3b 26 51 0a 3e bb fe d8 bd
       -0.018174002 0.0037336564 0.13507518 -0.10595461
000270 63 84 19 3b 8b 40 2c 3d b1 7a 2e 3d 03 a0 13 3e
       0.0023424856 0.04205374 0.042597476 0.14416508
000280 3a 53 b4 bd b1 18 07 be 94 df 4b 3d ce 48 02 be
       -0.08804937 -0.13193013 0.049773768 -0.12723085
000290 31 25 dc bd 94 2d 02 3e 29 0a 41 3d 71 40 cf 3b
       -0.10749281 0.12712699 0.04712883 0.0063248207
0002a0 e0 a7 8b 3d ae e3 c5 3d 6f 18 4c bd 19 42 ca 3d
       0.06819129 0.09662567 -0.04982799 0.098758884
0002b0 ee 24 64 bd c3 cd 56 3d 0c 20 d6 bb 4c dc 90 3b
       -0.05569928 0.052442323 -0.006534582 0.0044207927
0002c0 00 09 9e bc c9 d5 db 3d 53 fa ab bd 15 1a a0 3d
       -0.0192914 0.10734136 -0.08397355 0.07817475
0002d0 34 95 8c 3d f8 1f e8 3d d6 cb fa 3d a6 5a 58 3d
       0.06864396 0.113342226 0.1224591 0.052820824
0002e0 c1 78 53 3d 05 d9 31 3d 54 be 90 bb f1 b7 80 bd
       0.05162883 0.043419857 -0.00441722 -0.06285084
0002f0 ad c2 42 bd 3b 50 b6 bd 2e 37 83 3d d5 1f 26 3d
       -0.04754894 -0.089020215 0.06407009 0.0405577
000300 10 48 55 3c de 71 91 3c 61 ed 88 bd 9f b1 cf 3d
       0.013017669 0.017754491 -0.066859014 0.101413004
000310 1b 88 06 3d 2e db dc bd be b5 84 3d 44 f1 4c bc
       0.032844644 -0.10783993 0.06479977 -0.012508694
000320 23 3d 98 bd 49 8a 84 3d 35 48 10 3c b3 e8 35 3b
       -0.07433536 0.06471688 0.008806278 0.0027757108
000330 6b ef 5a bd c3 6d 29 bc dc de a7 3d bf 70 b5 3d
       -0.053450983 -0.010341111 0.08196804 0.08859395
000340 c3 15 fb 3c 52 46 51 bc f2 98 6f 3d c6 bf 49 3c
       0.030650025 -0.012773113 0.05849547 0.012313789
000350 69 0d ef 3d 3c 63 20 bc 24 61 ac bd ee 65 4e bd
       0.1167248 -0.009789284 -0.084169656 -0.050390176
000360 6d a9 49 3b f0 ab a5 3d 7c 34 ed 3d 0f ee e6 bd
       0.0030771152 0.08089435 0.11582276 -0.11275875
000370 ff 2f dd bd 06 58 8f bd 06 15 92 3d 63 74 a6 bd
       -0.1080017 -0.06999211 0.07132916 -0.08127668
000380 bb a7 bb 3c 4e 4f 6e bd 84 c7 84 3c c5 d1 ca bd
       0.022907129 -0.0581811 0.016208418 -0.099032916
000390 89 9a b8 bd cd 5b 23 bc 3d 59 e8 3d 02 78 d8 3d
       -0.0901385 -0.0099706175 0.11345146 0.10569765
0003a0 98 21 b6 bd 08 8b c1 bd f8 e7 86 3d b6 ab 13 be
       -0.08893126 -0.09450346 0.06587213 -0.14420971
0003b0 0b 00 09 bd 7b 03 69 bd 0b a1 38 bd 87 4e ff bd
       -0.033447307 -0.056888085 -0.045075458 -0.1246615
0003c0 5d 20 8d 3d 47 73 8e 3c 9b 94 9c bd 98 e8 91 bd
       0.068909384 0.017388953 -0.07645532 -0.07124442
0003d0 62 54 a1 3d 74 ac f6 bd 81 76 a5 3d ad 2c 81 bb
       0.07877423 -0.120446116 0.080792435 -0.0039420933
0003e0 e1 ee 53 bc af e9 e4 b9 4b d0 84 bd 0c 3c 46 bd
       -0.012935371 -0.00043661657 -0.06485041 -0.04839711
0003f0 de b6 c6 bd 9d 3c fa 3c a9 58 bd bc 41 26 ac bd
       -0.09702848 0.03054648 -0.023113566 -0.08405734

edge_layers.1.lstm.weight_hh_l0 f4 [256, 64]
000000 77 5a 4f bc 35 69 be bd c3 3c 43 bd af 08 95 3d
       -0.012655846 -0.092974104 -0.04766537 0.07277047
000010 f0 d5 a8 3c 2b b9 7b 3d 4c c0 3f bc 6a 52 2e 3d
       0.020609826 0.061455887 -0.011703562 0.042559065
000020 7f 00 e5 3c ed a4 84 bd 3e f8 bc 3d 0e 7b ee 3d
       0.027954338 -0.064767696 0.09227036 0.116445646
000030 e3 d3 8d 3d 2b 34 9a bc 89 0a c8 3c a7 f3 b6 bd
       0.0692518 -0.018823704 0.024419086 -0.08933192
000040 98 44 08 be 0d 9c af bc 3d 17 6a 3d ee 6a fb bd
       -0.13307416 -0.021436715 0.057151068 -0.122762546
000050 a5 6f e5 3d 62 74 bc bd 98 24 84 bb ae 08 ce bd
       0.11202935 -0.09201886 -0.0040326826 -0.10060249
000060 8c d8 b6 3d 1f 51 c1 3d e1 79 ad bc 4e 34 98 3c
       0.08928022 0.09439301 -0.02117628 0.018579628
000070 dc e4 85 bd 8c 96 17 3d 62 3e b7 ba c0 2d 96 3d
       -0.06537792 0.037008807 -0.0013980384 0.07332945
000080 a6 71 0e 3d 86 dd 8c bd 8c 7f b9 bd 8e 98 ae 3d
       0.034776352 -0.0687819 -0.09057531 0.08525191
000090 e2 db 46 bc 77 77 8b ba 95 fc 41 3d 11 66 97 bb
       -0.012137385 -0.0010640462 0.04736002 -0.0046203216
0000a0 7e a5 b0 3c 30 71 ca bd 8f d6 99 3d e6 1f 8a 3d
       0.021563288 -0.0988487 0.07511627 0.067443654
0000b0 1b 64 ec bc 86 9e d6 bd 06 54 00 be 0c 3e 02 bd
       -0.028856328 -0.10479455 -0.12532052 -0.031797454
0000c0 1a 7f c5 bd 00 71 c6 bd 2c 46 e3 3d 5b 9e 9e bd
       -0.09643383 -0.09689522 0.110973686 -0.07745048
0000d0 2e a0 f9 bb 92 42 ce 3d cd c6 47 3d df 33 a0 bc
       -0.007617972 0.10071291 0.048773576 -0.019555984
0000e0 cf b8 88 3c c8 09 83 3d d0 27 07 3d e0 8a 53 bd
       0.016689686 0.0639835 0.032996953 -0.051646113
0000f0 8e cb 06 bc a7 82 83 bc 56 9b 1e bd 17 42 04 be
       -0.008227242 -0.01605351 -0.03872236 -0.12915836
000100 58 8c 84 3d 99 47 b9 3d e9 17 4e 3d 81 f0 f1 bd
       0.06472081 0.09046859 0.05031577 -0.118134506
000110 68 d2 8f 3d f2 45 92 bd e3 74 4e 3d 4b ca c7 3d
       0.07022554 -0.07142247 0.05040444 0.09755381
000120 dc a5 9c 3c 7a 32 fd 3c 3d 76 0c 3d 35 1e 82 bd
       0.019122057 0.030907858 0.03429245 -0.06353418
000130 c5 cc 91 3d 3e 0a 79 3d 5b 26 94 bd 70 bd 10 3e
       0.07119135 0.060800783 -0.07233878 0.14134765
000140 9b ee de 3d 80 95 c7 3d c9 ce 9b 3c ee a2 b5 bd
       0.10885354 0.09745312 0.019019501 -0.08868967
000150 27 b7 c9 3c f9 c5 8d 3d 5c 47 a9 bc ba 0d 94 3a
       0.024623467 0.06922526 -0.02066391 0.0011295595
000160 42 df 1c be e9 dc f6 bd a5 7e ba 3c 44 c3 9e bd
       -0.15319541 -0.12053854 0.022765467 -0.07752088
000170 53 13 0e bc 11 64 14 3e 4c ee 0f 3c cd ab c7 3d
       -0.008671599 0.14491297 0.008784842 0.09749565
000180 7e 9e e5 bd 5f aa 97 3d a7 d8 ef 3c b8 7d 11 3c
       -0.112118706 0.074055426 0.029278113 0.008880071
000190 04 fa dc bd b2 d3 5c 3d 08 5d 2e 3d 97 08 20 bd
       -0.10789874 0.053912826 0.04256919 -0.039070692
0001a0 1b 6d ef bc 54 28 0f 3e 71 a1 35 3d eb e5 98 bd
       -0.02922683 0.13980228 0.044343416 -0.07465728
0001b0 cf 93 63 bd 42 16 bf 3d e9 07 35 bd 42 d3 97 3c
       -0.055560883 0.09330417 -0.044196997 0.018533353
0001c0 11 ff 3a bd 77 8d a4 3d ce a8 af 3d f9 05 b1 3d
       -0.045653407 0.08034795 0.08577119 0.08643717
0001d0 17 ed 5f bd 74 c8 05 3e bd 79 ae bd 72 bd 87 3c
       -0.054669466 0.13064748 -0.085193135 0.016569827
0001e0 1b 62 ba bd 28 53 8b 3d 4c f4 07 3d 22 37 ba 3d
       -0.091007434 0.0680297 0.033191964 0.09092547
0001f0 33 da 5e 3c 7c 79 27 bc a1 0a db 3d 08 07 ab bd
       0.013601827 -0.010221835 0.10695387 -0.083509505
000200 93 7b db bd 84 dc a4 bd c5 24 07 be 29 27 d8 bd
       -0.10716929 -0.080498725 -0.1319762 -0.10554344
000210 97 31 ba bd 8f 71 e0 3d 5e fa d1 3d 32 d3 1f 3b
       -0.0909149 0.109591596 0.10252832 0.0024387357
000220 3f 5e bb bd 43 42 72 bd 70 f1 12 be 89 b0 60 3d
       -0.091488354 -0.059145223 -0.14349914 0.054855857
000230 4e 05 b0 3c 33 84 f4 bd 57 09 a0 bc a3 f9 b0 3c
       0.021486904 -0.119392775 -0.019535704 0.021603411
000240 77 97 ee 3c b8 db 91 bd 8c 78 36 bd 26 a4 f3 3b
       0.029124958 -0.07121986 -0.044548556 0.0074353395
000250 21 bd 12 be ff 15 66 bd e9 73 9b bd 31 03 68 bb
       -0.1432996 -0.05617332 -0.075904675 -0.0035402293
000260 cd ae de bd 40 8c 0e 3d 80 c9 da 3b d0 3e e6 3c
       -0.10873184 0.03480172 0.0066768527 0.028106123
000270 f1 f5 e3 bd e0 19 74 bd 47 59 8c bd de 38 9f bd
       -0.11130894 -0.05959499 -0.06852966 -0.077745184
000280 81 8d 48 3d b8 c1 94 3d 75 e0 82 3d d3 c3 e2 3c
       0.048963074 0.072635114 0.06390468 0.027681267
000290 55 11 27 3d c7 13 20 bc ec 61 b7 3d c3 62 cb 3d
       0.040788013 -0.00977034 0.08954224 0.09930947
0002a0 56 0d ee bd 9a d1 58 bd 49 6a 0b 3e 69 8f 33 3c
       -0.116236374 -0.052934267 0.13614763 0.010959485
0002b0 7e e1 7f ba 08 e2 c1 3d 91 c8 37 3d f9 a9 13 3c
       -0.0009761079 0.0946694 0.04486901 0.009012693
0002c0 a0 fd 95 bd f0 f1 82 bd fc f2 5e 3c 05 f9 d9 3d
       -0.07323766 -0.06393802 0.013607737 0.106432
0002d0 54 06 8a bd f0 e1 be 3d 3b b5 81 3d 14 96 1b 3b
       -0.06739488 0.09320438 0.06333395 0.0023740577
0002e0 11 bf df 3d c8 6b a6 bd 85 67 bc bd 47 05 a0 bd
       0.10925115 -0.081260264 -0.09199432 -0.078135066
0002f0 e6 ab 15 3e c6 e3 72 bd f3 7a b9 bd c1 6a ac 3d
       0.14616355 -0.059299253 -0.09056654 0.08418799
000300 8a 9f 3d 3d 09 e5 0c 3d 1d 53 a4 bd f7 4b 7f bd
       0.046294726 0.034398112 -0.08023665 -0.062328305
000310 f6 18 db 3b 76 8e 6e bd 0f 7d 9a 3d 3a b0 97 bd
       0.006686325 -0.05824133 0.07543384 -0.074066594
000320 6a 29 37 bd 3f c7 5e 3c d7 29 db bd 18 65 3e bd
       -0.04471723 0.013597309 -0.1070134 -0.04648313
000330 65 7e b5 bd 72 da 1d bd 0a c6 c5 bd d8 77 7b bd
       -0.088619985 -0.038538404 -0.096569136 -0.06139359
000340 4f 26 5b bd 81 c2 8a 3b a6 bf 04 bd 49 4f b5 3d
       -0.05350333 0.0042346125 -0.032409333 0.08853013
000350 ec 80 d3 3d 83 42 7d 3d a3 ff 08 bd 56 72 c4 3d
       0.10327324 0.06183101 -0.03344692 0.0959212
000360 63 63 dc bd 8f f1 05 be db ad b0 3d 95 e2 08 3b
       -0.10761144 -0.13080429 0.0862691 0.0020887007
000370 b5 d6 51 3d 2e bc 8d bc e4 b8 b1 bd 0d fd 5e bc
       0.05123015 -0.017301645 -0.08677843 -0.013610137
000380 ef 04 c5 bb fd e6 10 3e ee 60 be bd 65 6d 9b bd
       -0.006012551 0.14150615 -0.092958316 -0.07589225
000390 03 a3 0a be e5 df 7e bd 17 6b 8d bd 67 e9 49 bd
       -0.13538747 -0.06222524 -0.069051914 -0.049294855
0003a0 7f 29 21 3d fd a3 b9 3c bb 94 a0 3d 54 a8 13 3c
       0.039346214 0.022661204 0.07840868 0.0090123005
0003b0 24 d5 5e bd e9 72 d7 3d 32 f6 bf 3d 16 2a 5d bd
       -0.054402485 0.10519964 0.0937313 -0.053995214
0003c0 a6 7a 49 3d 4d 0b f3 bc 37 53 84 bd 30 15 3b bc
       0.049189232 -0.029668475 -0.064611845 -0.011418626
0003d0 f5 b8 e4 3d c2 b1 89 bc b1 f7 0e bc 89 59 3f bd
       0.1116809 -0.016808394 -0.008726046 -0.046716247
0003e0 b4 9e ea 3d 92 90 84 bc f7 e7 c1 bb 8e 67 05 3e
       0.114560515 -0.016182218 -0.005917545 0.13027784
0003f0 be b6 b2 3c bc 5b e3 3d e9 d3 cd bd 34 e1 3b bc
       0.021815654 0.11101481 -0.10050184 -0.011467267

edge_layers.1.lstm.bias_ih_l0 f4 [256]
000000 23 94 df 3c c8 3a 83 bd c6 0f 4f 3d 19 32 d6 3c
       0.027292317 -0.06407696 0.050552152 0.026146935
000010 11 c4 b8 3d c1 75 84 3d 15 12 83 3d 75 2a d5 3c
       0.09021772 0.06467772 0.06399933 0.026021222
000020 91 74 da 3d 43 19 9d bd 9c d4 f1 3d 3f 29 da bd
       0.106667645 -0.07670834 0.1180813 -0.10652398
000030 bf 79 e1 bd 66 5d 8d bc 66 4e 91 bd f4 c4 62 bd
       -0.11009549 -0.01725645 -0.070950314 -0.05536361
000040 3a 2c 28 bd a7 ae 8e bc a4 73 dd bd fb 84 fa 3d
       -0.041057803 -0.017417265 -0.10813072 0.12232395
000050 3e 7f fd 3d 61 b7 05 be 00 8e 6d 3d 15 e8 14 3e
       0.12377785 -0.13058235 0.05799675 0.14541657
000060 e5 11 09 bd d7 73 82 bd 61 f0 98 3d 88 37 a4 3d
       -0.03346433 -0.06369751 0.07467724 0.08018404
000070 e6 b5 5c 3d 5b 18 0e bd 28 ad 98 3c 33 97 e7 bd
       0.05388441 -0.034691196 0.018637255 -0.11308136
000080 7a 07 6d bd 17 a7 0c 3e 49 c7 de 3c 8f 16 54 bd
       -0.05786846 0.13735615 0.027194636 -0.051779326
000090 a5 3d 01 3c 28 6f 03 be 81 4b 04 3e e9 52 3d bd
       0.007888232 -0.12835371 0.12919427 -0.046221647
0000a0 3e be 37 3d 74 a2 c5 3d 24 4a 23 3e 39 9b 09 3e
       0.044859163 0.09650126 0.15946251 0.13438119
0000b0 04 87 43 bd 6d 32 a2 bd 84 f5 87 3d 20 33 20 3d
       -0.047736183 -0.07919774 0.06638625 0.039111257
0000c0 a4 c8 f6 bd 1b 60 de 3d ac 6e 14 3e f9 6b 90 3d
       -0.12049988 0.108581744 0.14495343 0.07051844
0000d0 a9 af 1c 3e 04 ea 80 3b 6b 21 30 bd 40 8f a8 3d
       0.15301384 0.003934147 -0.04300062 0.08230448
0000e0 e5 bb 19 bd c4 aa de bc e7 78 a9 bd 3d 2f b0 bc
       -0.037532706 -0.027181037 -0.082750134 -0.0215069
0000f0 fb 62 78 3d 4f 5f 79 bc 03 26 b2 bc 60 44 95 3d
       0.06064127 -0.015220477 -0.021746641 0.07288432
000100 0b 64 87 3d 1b de 74 bd af 46 00 3e 16 16 b7 bd
       0.066108786 -0.05978213 0.12526964 -0.089397594
000110 e9 e1 5e 3d 06 3e d5 3c 54 52 b0 3c 0f ba 98 bd
       0.054414663 0.026030552 0.021523632 -0.07457363
000120 38 0b 02 bd 8e c2 7a 3d 35 30 97 bd 41 67 84 bd
       -0.03174898 0.061220698 -0.07382242 -0.064650066
000130 e7 9a f2 3d 29 c5 21 3d a9 d9 13 3e f0 11 d3 3d
       0.118459515 0.039494667 0.144385 0.10306156
000140 66 d5 31 3c 4b 8c 8a 3d 88 a6 a1 bd d8 61 8b bc
       0.010854101 0.0676504 -0.078930914 -0.017014429
000150 1b ea 92 3d 70 b2 8d bd ba e6 c2 3d 9b fa 11 bd
       0.07173558 -0.069188 0.09516664 -0.035639387
000160 51 ba f4 bd b8 3d d4 3d fd 95 5d 3c 73 c3 0e 3e
       -0.119495995 0.103633344 0.0135245295 0.13941745
000170 36 db c4 3c de 44 2e 3d 97 9e 59 3d 96 27 c2 bc
       0.02403031 0.042546146 0.05312976 -0.023700517
000180 86 1c 55 ba 33 54 f3 bc 28 20 96 3c b6 f7 d3 3d
       -0.00081295555 -0.029703235 0.01832588 0.103499815
000190 e7 e3 96 3d df 43 d7 bd d7 08 67 bd f8 0b 00 bd
       0.07367688 -0.10510992 -0.056404915 -0.031261414
0001a0 8f ee c4 bd 03 c5 0d 3d 6a ec a0 3d 88 99 70 bd
       -0.09615814 0.034611713 0.078575924 -0.05874017
0001b0 e2 d5 18 3d cd 70 b3 3d 47 63 43 3d 57 4e 90 bc
       0.03731335 0.087617494 0.0477021 -0.01761548
0001c0 6b a6 df bd e5 b4 1c 3d 9e ce e8 3d a1 41 2c 3c
       -0.109204136 0.038258452 0.11367534 0.010513694
0001d0 0f 90 97 bd 88 8f 0a 3e 8d a8 51 bd c1 aa 1c 3c
       -0.07400524 0.13531315 -0.051186133 0.009562195
0001e0 0f 1e 3c 3b cf 43 ce bd 9b b2 f9 3c db ce 3d bd
       0.002870444 -0.10071527 0.030480674 -0.04633985
0001f0 2d af a0 bd b6 10 d2 3d fd 9c 1d 3c 94 57 db bd
       -0.07845912 0.102570936 0.009619948 -0.107100636
000200 95 73 c5 3c cf 57 11 bc 5a 68 d7 3d 1a 99 3e 3d
       0.024102965 -0.008871033 0.1051795 0.046532728
000210 4e 9f 28 3d ba c5 e3 3d bb 06 99 bd 5d 07 12 bd
       0.04116755 0.11121698 -0.07471987 -0.035651553
000220 64 80 fa bb a7 85 45 bd 1e a3 25 3d 63 62 f0 bc
       -0.0076447 -0.048223164 0.040438764 -0.02934379
000230 0d df e8 3c 76 5f a6 bc a0 4c 11 3e f4 a8 c0 bb
       0.028426671 -0.020309191 0.14189386 -0.005879516
000240 3d 98 9a 3d 27 97 57 3d ef 56 cd 3d b5 63 f9 3d
       0.075485684 0.052634384 0.10026347 0.12177221
000250 18 dc 04 3d d1 fe 88 bd 41 35 d1 3d e2 6a 0c 3e
       0.03243646 -0.06689227 0.102152355 0.13712648
000260 16 f8 98 bd 5d 1d a2 3c 19 e3 1b bd 38 ff c4 bd
       -0.07469194 0.019789392 -0.038058374 -0.096189916
000270 c0 e0 bb bd 11 01 18 be a9 a0 94 bd b2 15 4b 3c
       -0.09173727 -0.14844157 -0.07257206 0.012395309
000280 e9 2e 12 3e 27 3a 9d 3c bb 4a 0b 3e ef 96 0d 3e
       0.14275707 0.019192768 0.13602726 0.13827108
000290 54 b8 53 bd 32 81 b5 bd bf 3b 90 3d 57 2e 0a bb
       -0.05168946 -0.08862533 0.07042646 -0.002108475
0002a0 98 61 b4 bd 84 07 2a bc 88 f0 47 bd f2 5c 0f bd
       -0.08807677 -0.010377768 -0.048813373 -0.03500075
0002b0 79 c8 5d bc 41 a7 92 bc f2 41 e0 bd f6 7d e4 bd
       -0.013536566 -0.017902019 -0.10950078 -0.11156838
0002c0 ff fa ba 3d 08 9a 27 3d 8d 2a 18 bd 19 7b 08 3e
       0.09129905 0.04091838 -0.037149955 0.13328208
0002d0 53 92 a3 bd 83 77 3c 3c 2d 8d bd bd 49 9e 8d bd
       -0.079868935 0.011503103 -0.09255443 -0.06914956
0002e0 86 44 b5 bc 84 da ef bd 7a 5a df 3d b3 de 9a bd
       -0.022127401 -0.117116004 0.10905929 -0.07562008
0002f0 29 4a c6 3d 26 2b 8a bc 44 c3 89 3d ea 98 8a bd
       0.09682114 -0.016866278 0.06726697 -0.06767447
000300 c8 8c a3 bc f1 65 a4 bd 31 20 1b 3e 8e 4a 8d bd
       -0.01996459 -0.08027256 0.15148999 -0.06898986
000310 09 a5 d3 bc 6d 4a 88 3d 11 5f e6 bd 76 c5 e4 3d
       -0.02583553 0.066548206 -0.11248601 0.11170475
000320 91 c7 24 3d ec a8 06 bb f5 33 cf 3d 37 97 0d 3e
       0.040229384 -0.0020547463 0.10117332 0.13827215
000330 25 b1 e7 3d 11 e6 a7 3d 77 ca b7 3d 85 00 2f 3d
       0.113130845 0.081981786 0.08974164 0.042725105
000340 9e b1 52 3d c4 b4 28 3d 72 94 bf 3d 57 35 ce 3d
       0.05143892 0.041188017 0.093544856 0.100687675
000350 54 69 9b 3d 49 8e 6f bd 3d d5 9a bd 17 88 ab 3d
       0.07588449 -0.058485303 -0.07560203 0.083755665
000360 b0 38 72 3c 97 af b1 3d fb ad 9d bc 58 a6 93 bb
       0.014784023 0.08676069 -0.019248 -0.0045059137
000370 b7 11 22 bd b7 8f ab bd cc 13 1b bd 88 e6 1f 3d
       -0.039567675 -0.08377021 -0.037860677 0.03903821
000380 29 ed f9 3d e9 23 61 bd e2 67 6a bd 05 a8 62 bd
       0.12203438 -0.054965887 -0.057227977 -0.055336017
000390 29 43 d0 bd 16 61 e2 3d 3c a4 54 3d 38 c4 7a bd
       -0.1016906 0.11053674 0.05191444 -0.061222285
0003a0 f3 3f c4 3d 1c f4 b2 bd 08 0f 0d bc a1 78 20 bd
       0.0958251 -0.087379664 -0.008609541 -0.03917754
0003b0 6a 6b ce bc be 4c 94 3d d8 9b d9 3c 1b a7 b8 bd
       -0.025197703 0.072412 0.02656357 -0.09016248
0003c0 f7 aa 1e bc 3a 8f 1f 3e eb cd 0e 3e 0e 98 12 3d
       -0.009684316 0.1558198 0.13945739 0.035789542
0003d0 f1 e1 1c 3d 7b 94 82 bd e5 13 ab 3d 7e 73 aa 3b
       0.038301412 -0.06375977 0.08353404 0.005201756
0003e0 7d 1e 85 bc 08 5b 29 bd 4b 7a bc bd e5 2e 7b 3d
       -0.01624989 -0.04134658 -0.09203013 0.06132402
0003f0 6b 8c c8 bd 5b 05 f9 3c 10 18 d6 3c 70 59 82 bd
       -0.097924076 0.030398061 0.02613452 -0.06364715
