experiment/phish_eth/GTEA-Trans+T2V/GTEA-Trans+T2V_checkpoint.pt (torch_old, 542078 bytes, 68 tensors)

time_layers.0.w f4 [1, 31]
0	0x3fde36ab	1.7360433
1	0xbfa9fd38	-1.3280401
2	0x3fe62778	1.7980795
3	0x3e9bb0dc	0.3040837
4	0xbfc4b8dc	-1.5368915
5	0x3f84d976	1.0378864
6	0x3fb65b3c	1.4246593
7	0xbf0a9b20	-0.5414295
8	0x40317eb7	2.773359
9	0x3d3e0ae7	0.046397116
10	0x3e8d8fc0	0.27648735
11	0x3f35f0c3	0.710705
12	0xbfc635d5	-1.5485178
13	0xbff2d10e	-1.8970048
14	0xbf1285e3	-0.57235545
15	0x3e5f459e	0.218039
16	0xbf8b4b1f	-1.08823
17	0x3f882c56	1.063853
18	0xbec5cb69	-0.38631752
19	0xbebaf948	-0.36518312
20	0xbf828c03	-1.0198978
21	0xbf7faba4	-0.9987128
22	0x3eb985dd	0.36234942
23	0xbf437e67	-0.7636475
24	0xbe1e25f2	-0.15444162
25	0x3ed90e3f	0.4239368
26	0xbf0775f1	-0.5291434
27	0xbf660261	-0.8984738
28	0x3f3f3799	0.7469421
29	0x3bfcc61a	0.0077140452
30	0xbe326bdb	-0.17423956

time_layers.0.b f4 [1, 31]
0	0x3f001e8a	0.500466
1	0x3d29bc42	0.041439302
2	0xbf849187	-1.0356911
3	0x4020a9da	2.510367
4	0xbe4a6282	-0.1976414
5	0xbd9c92db	-0.07645198
6	0x40043639	2.0658095
7	0xbe32a05d	-0.17443986
8	0xbf927c67	-1.1444215
9	0x3f186798	0.5953307
10	0xbd883cee	-0.066522464
11	0xbf8863ab	-1.0655416
12	0x3f4f96d6	0.8108953
13	0xbcd36c14	-0.025808372
14	0x3e068ead	0.13140364
15	0xbf01b412	-0.5066539
16	0x3f826694	1.0187554
17	0xc038e614	-2.8890429
18	0x3f8851c7	1.0649956
19	0xbfbf8234	-1.496161
20	0xbef359bf	-0.47529408
21	0x3dd81733	0.105513
22	0x4004fb79	2.0778487
23	0x3f9038b6	1.1267307
24	0x3f72fd86	0.94918096
25	0xbfcc59b3	-1.5964874
26	0xbed2ed14	-0.411965
27	0xbf1d4da9	-0.61446625
28	0xc002b23a	-2.042128
29	0xbdb0c467	-0.08631211
30	0xbf6ada90	-0.9173975

time_layers.1.w f4 [1, 31]
0	0x3e5bee78	0.21477687
1	0x3f0ebe37	0.55758995
2	0xbfd23d6a	-1.6424992
3	0xbf127485	-0.57209045
4	0x3e043681	0.12911417
5	0xbea9f30e	-0.3319325
6	0xbf91f23f	-1.1402053
7	0x3f383798	0.7195983
8	0xbf848c66	-1.0355346
9	0x3ffb22e9	1.9620029
10	0x3d17936e	0.037005834
11	0xc016083b	-2.3442523
12	0xbfd2bd68	-1.6464052
13	0x3d7bdc9a	0.06148968
14	0x3e96c39e	0.2944612
15	0x3e6058a0	0.21908808
16	0x3f62eea5	0.8864539
17	0x3fd65a0d	1.6746231
18	0xbed0cd39	-0.40781572
19	0x3e734f64	0.23760754
20	0xbfcad62a	-1.5846608
21	0x3f2b587d	0.669319
22	0x3f898a14	1.0745263
23	0xbe7fda9a	-0.24985734
24	0xc008eab0	-2.1393242
25	0xbe89c1b0	-0.26905584
26	0x3f503274	0.81326985
27	0xc00c4da4	-2.1922388
28	0x3ec48c0e	0.38388103
29	0x3e08bf44	0.13354212
30	0x3cb96410	0.022630721

time_layers.1.b f4 [1, 31]
0	0xbe9eb297	-0.30995628
1	0x3ed7e457	0.42166397
2	0xbf32de10	-0.6987009
3	0x3ffe6edb	1.987758
4	0xbbecd69c	-0.007227732
5	0x3e82bc34	0.25534213
6	0x3c745a79	0.0149141485
7	0x3ecadd17	0.39621803
8	0x40081344	2.1261759
9	0xbf40518e	-0.7512444
10	0x3cca9824	0.02473075
11	0xbf1f85c3	-0.6231348
12	0xbe829db9	-0.25510958
13	0xbf072a8b	-0.5279929
14	0x3f882c2b	1.0638479
15	0xbedc98ce	-0.4308533
16	0xbf8676bd	-1.0504986
17	0xbf8543be	-1.0411298
18	0x40174c19	2.3640196
19	0xbf529932	-0.8226501
20	0xbed5e9a9	-0.4177983
21	0xbf4d312f	-0.80153173
22	0xbf21a360	-0.63139915
23	0xbef077b1	-0.46966317
24	0x3f80b22f	1.0054377
25	0x3f2b7cab	0.66987103
26	0x3e50ec90	0.20402741
27	0x3f07772a	0.52916205
28	0x3f7edeef	0.9955892
29	0x400d18cc	2.2046385
30	0x3e091ad4	0.1338914

edge_in_layers.0.weight f4 [64, 34]
0	0xbd909315	-0.07059304
1	0xbb26a83b	-0.0025429863
2	0x3d262453	0.040561985
3	0xbda1a891	-0.078934796
4	0xbdda9837	-0.10673564
5	0x3e28109e	0.16412589
6	0x3bfb2d9b	0.0076653487
7	0x3dafc593	0.08582606
8	0xbe2dbd3c	-0.16966718
9	0x3b53f451	0.003234167
10	0x3df37b82	0.118887916
11	0x3d0a3877	0.033745255
12	0xbdd445c6	-0.10364871
13	0x3e138b8e	0.14408705
14	0xbcda8741	-0.026675822
15	0xbde7141a	-0.11283131
16	0xbc97b0a5	-0.018516848
17	0xbc8fc3e8	-0.01754947
18	0x3c3a1c5a	0.011359299
19	0x3cd2edb0	0.025748104
20	0xbe1013e2	-0.14070085
21	0x3e10e9ee	0.14151737
22	0xbe296eeb	-0.16546218
23	0xbe3ebf2c	-0.18627614
24	0xbd985fce	-0.07440148
25	0xbd5e97aa	-0.054343857
26	0xbe1dae68	-0.15398562
27	0x3d8e904f	0.069611184
28	0xbd594c68	-0.053051382
29	0xbd155400	-0.03645706
30	0x3d4d4338	0.050112933
31	0x3d2878df	0.041130897
32	0xbdd7ebb5	-0.105430044
33	0xbf242012	-0.64111435
34	0x3d6201d4	0.055177525
35	0x3ba717c6	0.0050992696
36	0xbe3e2e59	-0.18572368
37	0x3ba7b77e	0.0051183095
38	0x3bf79dbc	0.007556645
39	0x3d6c4f8a	0.05769304
40	0x3dfa57d5	0.12223784
41	0x3d9d8b8c	0.07692632
42	0x3e03c9de	0.12869975
43	0xbe362721	-0.17788364
44	0xbc21a1bc	-0.009865221
45	0x3d684d84	0.05671455
46	0xbe083e4c	-0.13305014
47	0x3d14a5fa	0.0362911
48	0x3ce87dd4	0.028380312
49	0xbe4081a6	-0.18799457
50	0xbdfd9c25	-0.12383298
51	0x3d95a88d	0.07307539
52	0xbdeafc09	-0.11473853
53	0xbdaa6710	-0.08320439
54	0xbe674337	-0.22584234
55	0x3e35e7c7	0.17764197
56	0x3bc64037	0.0060501355
57	0xbb6350cf	-0.0034685617
58	0xbd31e764	-0.043433562
59	0x3d34ff1c	0.044188604
60	0xbde88452	-0.11353363
61	0x3e1f865e	0.15578601
62	0x3dfc382f	0.12315404
63	0xbe1b8512	-0.15187481
64	0x3e0038f3	0.12521724
65	0x3dd99c5e	0.10625528
66	0x3dc17b67	0.09447365
67	0xbf21ead0	-0.6324892
68	0xbe56214b	-0.20911138
69	0xbe4e6cc6	-0.20158681
70	0x3ca05da2	0.019575898
71	0x3d35f542	0.04442335
72	0xbc99a3c5	-0.01875485
73	0x3d0af507	0.033925083
74	0x3c435a91	0.011923448
75	0xbe0e5c01	-0.13902284
76	0xbda3db62	-0.08000828
77	0xbe43e21d	-0.19129224
78	0x3e4e56ed	0.20150347
79	0xbdad5ba0	-0.08464742
80	0x3d5c8718	0.053839773
81	0xbd4c4731	-0.04987258
82	0x3d2cbaf7	0.04217049
83	0xbdf0b0f7	-0.11752503
84	0xbde10201	-0.1098671
85	0x3dc93d9b	0.098262034
86	0xbe3e666d	-0.1859376
87	0xbd2e5576	-0.04256197
88	0xbd3d9bb6	-0.046291076
89	0xbcb487d9	-0.022037433
90	0x3cb323c2	0.021867637
91	0xbd419dc2	-0.04726959
92	0xbdf39d07	-0.11895185
93	0xbe341921	-0.17587711
94	0xbe42891c	-0.18997616
95	0x3e160e50	0.14653897
96	0xbd4a6a16	-0.049417578
97	0x3e0f5985	0.13998993
98	0x3deae6db	0.114698134
99	0xbe1499d1	-0.14511801
100	0x3e07fb41	0.1327944
101	0x3e7ddc0b	0.24790971
102	0xbeb1bed9	-0.34715918
103	0x3c51538d	0.012776268
104	0xbd9a8057	-0.0754401
105	0x3d04d84f	0.03243285
106	0x3db7c74c	0.0897356
107	0xbdeacb6f	-0.11464583
108	0x3e878250	0.26466608
109	0x3d8c0ec0	0.06838751
110	0x3da8513c	0.08218619
111	0xbd9efc3d	-0.077629544
112	0xbdf1977d	-0.11796472
113	0x3d5e72ad	0.054308582
114	0x3e95938a	0.29214126
115	0x3e46f800	0.19430542
116	0x3ddae804	0.10688785
117	0x3d47a9a3	0.048745763
118	0xbd177c48	-0.03698376
119	0x3e109fe2	0.1412349
120	0x3dcf8d12	0.10134329
121	0xbe1489be	-0.1450567
122	0x3b9bcd2d	0.0047546835
123	0x3d5804a1	0.05273879
124	0x3d4e2286	0.050325893
125	0x3e7040cd	0.2346222
126	0x3d5d9ad9	0.054102752
127	0xbdb6108f	-0.08889877
128	0x3db84bac	0.08998808
129	0x3e13f512	0.14448956
130	0x3d79a175	0.060944993
131	0x3e3769cb	0.1791145
132	0xbe114c1d	-0.14189191
133	0x3e3a9293	0.18219976
134	0xbd97adfa	-0.0740623
135	0xbdebadfb	-0.115077935
136	0x3bc7333c	0.0060791057
137	0xbebb6714	-0.3660208
138	0x3dd55175	0.10415927
139	0xbde25924	-0.110521585
140	0xbda98185	-0.08276657
141	0xbd32d32d	-0.043658424
142	0x3e082ca4	0.13298279
143	0x3e0c7dc3	0.1371985
144	0x3d317b87	0.043330695
145	0x3de56e6c	0.11202702
146	0xbdaecda8	-0.085353196
147	0x3dc1b551	0.094584115
148	0x3d0ecc96	0.034863077
149	0x3db545ab	0.08851179
150	0xbe2f0ca2	-0.17094663
151	0x3e266689	0.16250052
152	0xbdd6ec76	-0.1049432
153	0x3dd9e929	0.10640175
154	0xbdaf33be	-0.08554791
155	0x3e252d9b	0.16130678
156	0xbe3be181	-0.18347742
157	0xbde577f4	-0.1120452
158	0x3e4f4a7c	0.20243257
159	0x3d9d6f44	0.07687238
160	0x3d602c71	0.054729883
161	0x3c951fb1	0.018203588
162	0x3d111dd2	0.03542883
163	0x3d5023ec	0.050815508
164	0x3d58d169	0.052934084
165	0x3de5eb07	0.112264685
166	0xbd9b0b77	-0.07570546
167	0x3e06f5e6	0.1317974
168	0xbd721fab	-0.059112232
169	0xbcbea586	-0.023272287
170	0xbebc6a93	-0.3680006
171	0x3eb326de	0.3499059
172	0x3d385858	0.045006126
173	0x3ddb6671	0.107128985
174	0x3e22ce1f	0.15898941
175	0xbe134557	-0.1438192
176	0x3e47c583	0.19508938
177	0x3e316cea	0.17326704
178	0xbc96d9c1	-0.01841438
179	0x3c11a231	0.008888767
180	0xbd5e9bdc	-0.054347858
181	0xbded2d34	-0.115808874
182	0x3d2af473	0.04173703
183	0xbe03b8a4	-0.12863404
184	0xbdf89a50	-0.12138808
185	0x3d532ac4	0.051554456
186	0x3df52e3c	0.11971709
187	0x3e0ecbc3	0.13944916
188	0x3ca63a50	0.020291477
189	0xbe257d28	-0.16161025
190	0xbb3cd19a	-0.0028811456
191	0xbd36eba0	-0.044658303
192	0x3cf76f0d	0.03020432
193	0x3db4b192	0.08822931
194	0x3d27a704	0.040930763
195	0xbd95703f	-0.072968
196	0x3db949ae	0.090472564
197	0xbdb734c0	-0.08945608
198	0x3e6206e2	0.22072938
199	0xbd87b43a	-0.06626172
200	0xbe26841d	-0.16261335
201	0x3e73e368	0.23817217
202	0x3e27bf9f	0.16381691
203	0xbe738734	-0.23782045
204	0xbd3ad17f	-0.045609947
205	0xbeb95d3d	-0.36203948
206	0xbdafe7dd	-0.08589146
207	0xbe1b9eef	-0.15197347
208	0xbe306d76	-0.17229256
209	0xbd3433e8	-0.043994814
210	0xbe129de3	-0.14318042
211	0x3dccd23d	0.10001037
212	0x3d9a48d8	0.07533425
213	0x3b5a6261	0.0033322799
214	0xbe3a4ea6	-0.18194064
215	0x3e0b210e	0.13586828
216	0xbd104e97	-0.0352312
217	0x3d8f01cc	0.069827646
218	0x3e218794	0.15774375
219	0xbd49ea80	-0.049295902
220	0x3dc5478d	0.09632788
221	0x3de56c1b	0.1120226
222	0xbd8b0b9c	-0.06789324
223	0xbddb1f4f	-0.10699331
224	0xbd59eff7	-0.053207364
225	0x3d078f5f	0.033095714
226	0x3ddfae96	0.109219715
227	0x3d895fa1	0.06707693
228	0x3d3283fe	0.04358291
229	0x3d7d4fa8	0.061843544
230	0xbdfccd50	-0.12343848
231	0xbccfc80b	-0.025363943
232	0x39bc68a9	0.00035936132
233	0xbe3c90c8	-0.18414605
234	0x3da50a4d	0.08058605
235	0x3e2ba516	0.16762194
236	0xbdce1713	-0.10062995
237	0xbd481382	-0.04884673
238	0x3ebc4d6b	0.36777815
239	0xbcdb3e2b	-0.026763042
240	0xbde10f96	-0.10989301
241	0xbe1041b1	-0.1408756
242	0xbe0458a0	-0.12924433
243	0x3db4295a	0.0879695
244	0x3c9bf9c1	0.01903999
245	0xbdbb3a58	-0.091419876
246	0xbc2a52f6	-0.010395756
247	0x3b5481ce	0.0032426002
248	0xbdb988ce	-0.090592965
249	0xbd929d9f	-0.0715897
250	0xbdeefb6e	-0.1166905
251	0x3d804d59	0.06264753
252	0xbdad3ca5	-0.08458833
253	0x3d6562f8	0.056002587
254	0x3cbdbab2	0.023160312
255	0x3e281632	0.16414717

edge_in_layers.0.bias f4 [64]
0	0xbd963208	-0.073337615
1	0x3e5246f7	0.20534883
2	0xbe0da032	-0.13830641
3	0xbe1d3688	-0.15352833
4	0x3d086191	0.03329617
5	0xbd7c5529	-0.061604653
6	0x3d9ae352	0.07562889
7	0xbdef028b	-0.11670407
8	0x3c79958a	0.015233407
9	0x3e515d61	0.20445777
10	0x3d560c63	0.052257907
11	0x3cf88e08	0.030341163
12	0x3dd88a91	0.105733044
13	0x3e2fae82	0.17156413
14	0x3cbecc29	0.02329071
15	0xbe3cc4d6	-0.18434462
16	0xbd3e2b72	-0.04642815
17	0xbe466d4a	-0.19377628
18	0x3dcd2d55	0.10018412
19	0x3d0e14db	0.034687858
20	0x3d4ac9f2	0.049508996
21	0xbe07b564	-0.13252789
22	0x3d9a9507	0.07547956
23	0xbdfd1056	-0.123566315
24	0x3d5c91b7	0.053849902
25	0xbc37d471	-0.011220084
26	0xbdbc3c32	-0.09191169
27	0xbdac6f0d	-0.08419619
28	0x3d72725e	0.0591911
29	0xbd64ebc3	-0.055888902
30	0x3da6d743	0.08146527
31	0x3d0e0d48	0.034680635
32	0x3e1f547f	0.15559576
33	0xbd65d957	-0.056115475
34	0xbd8b10d0	-0.06790316
35	0x3d9e5516	0.077310726
36	0x3d574964	0.052560225
37	0xbda4e880	-0.08052158
38	0x3d05f50f	0.03270441
39	0xbd25735f	-0.04039323
40	0x3d858f86	0.065215155
41	0xbde8716f	-0.11349761
42	0x3da8ae10	0.08236325
43	0x3e3df418	0.18550146
44	0x3d8f8135	0.07007066
45	0xbe47ecce	-0.19523928
46	0x3dff37e5	0.12461833
47	0xbe046fa5	-0.12933214
48	0xbdbaf44d	-0.09128628
49	0xbe8048eb	-0.25055632
50	0xbe45e801	-0.19326784
51	0xbd897704	-0.067121536
52	0x3afad139	0.001913584
53	0xbc4f3382	-0.012646558
54	0x3dd86487	0.10566049
55	0xbdef6d47	-0.11690765
56	0x3cea4d59	0.028601335
57	0x3cb0b21f	0.02156931
58	0x3e1e560d	0.15462513
59	0xbe4336d7	-0.19063888
60	0xbe64a083	-0.22326855
61	0x3af97adf	0.0019033811
62	0x3d6e4037	0.05816671
63	0xbe320fcf	-0.17388843

edge_in_layers.1.weight f4 [64, 34]
0	0x3f7806bf	0.96885294
1	0xbed28354	-0.4111582
2	0xbdf04d53	-0.117334984
3	0x3e3f6976	0.18692574
4	0xbd21fd14	-0.039547995
5	0x3e29cc4d	0.16581841
6	0x3d5b0ef5	0.05348106
7	0x3dfb3bed	0.12267289
8	0xbddca86f	-0.10774314
9	0xbcb8baf5	-0.022550086
10	0x3e1de738	0.15420234
11	0x3cf892a0	0.030343354
12	0x3d87c82d	0.066299774
13	0x3e234b4e	0.15946695
14	0x3e07daae	0.13267013
15	0x3db99330	0.09061277
16	0x3daffdd1	0.085933335
17	0xbe2b0a13	-0.16703062
18	0x3aa66f17	0.0012697902
19	0xbe15235c	-0.1456427
20	0x3e07b502	0.13252643
21	0xbe0d5363	-0.13801341
22	0x3dc57af9	0.09642596
23	0xbd798813	-0.060920786
24	0xbc9cb98a	-0.01913144
25	0x3d1741c4	0.036927953
26	0x3e2c9bcd	0.16856308
27	0xbca0633f	-0.019578574
28	0x3ce2dd06	0.027693283
29	0xbc0030da	-0.007824147
30	0x3dd31ecd	0.10308609
31	0x3d8a0b57	0.06740444
32	0x3df8bc06	0.121452376
33	0x3eb0de21	0.3454447
34	0x3eb9598b	0.36201128
35	0xbed75ca6	-0.42062873
36	0xbe23c59b	-0.15993349
37	0x3d05b33c	0.032641634
38	0x3ce078f5	0.027401427
39	0x3b29b39c	0.002589441
40	0x3de7467a	0.11292739
41	0xbd7dbab5	-0.061945636
42	0x3d641418	0.055683225
43	0xbe0436d5	-0.12911542
44	0xbcbeba02	-0.023282055
45	0x3dffef15	0.12496773
46	0xbddab4be	-0.10679005
47	0xbd9681da	-0.07348986
48	0xbd6c165e	-0.05763852
49	0xbe0fd56d	-0.14046259
50	0xbe1c05ad	-0.1523654
51	0x3e2716dc	0.16317314
52	0x3e2a50b3	0.16632347
53	0x3e312a9d	0.17301412
54	0x3d9b362e	0.07578693
55	0x3de425f7	0.11140054
56	0x3ddd630a	0.10809906
57	0x3e16342b	0.14668338
58	0xbe17e514	-0.1483348
59	0x3d59a56a	0.053136267
60	0x3cd37433	0.025812244
61	0x3d76b304	0.060229316
62	0x3d386bb2	0.04502458
63	0x3dd8ea5b	0.10591575
64	0x3c369aae	0.011145277
65	0xbdc88eca	-0.0979286
66	0xbd9d8e4d	-0.07693157
67	0xbc8be11d	-0.017075116
68	0xbefac44a	-0.48977882
69	0xbeee5cfc	-0.46555316
70	0x3cbf227f	0.023331879
71	0xbce17a88	-0.027524248
72	0xbd32cf8a	-0.043654956
73	0xbdf7b4c3	-0.120950244
74	0x3bc09803	0.005877496
75	0x3dd601a9	0.104495354
76	0x3dc54244	0.0963178
77	0x3cb9e4aa	0.022692043
78	0x3d297b05	0.041377086
79	0xba775a93	-0.0009435799
80	0x3e1084ae	0.14113113
81	0x3e14a9a3	0.14517836
82	0x3d9d079e	0.076674685
83	0x39cb59c8	0.0003878607
84	0x3c2e9fcc	0.010658216
85	0x3e4bd791	0.19906451
86	0x3d67703a	0.056503512
87	0xbdd31d64	-0.1030834
88	0xbe14a2c5	-0.14515217
89	0x3db3ba54	0.08775774
90	0xbde819b8	-0.113330305
91	0x3e288027	0.16455136
92	0x3c69c26a	0.014267543
93	0x3e23f1ff	0.16010283
94	0xbd129c3d	-0.03579353
95	0xbd5dc878	-0.05414626
96	0x3c516af5	0.012781848
97	0x3e14bb24	0.14524513
98	0x3cce42ca	0.025178332
99	0x3d922970	0.0713681
100	0x3dd2855d	0.10279343
101	0x3c2af06f	0.0104333
102	0xbec3dee0	-0.38255978
103	0xbd360afc	-0.04444407
104	0x3d6d609e	0.05795347
105	0xbdfcbe14	-0.12340942
106	0x3e08372e	0.133023
107	0xbe15a8e6	-0.14615211
108	0xbe05c357	-0.13062797
109	0x3dfa58db	0.12223979
110	0x3e242200	0.16028595
111	0x3e35df1c	0.1776089
112	0x3dde8ce9	0.1086672
113	0x3dfeebcb	0.12447318
114	0x3e008cd1	0.12553717
115	0x3dd5df78	0.10443014
116	0xbd581dbd	-0.052762736
117	0xbda40369	-0.08008463
118	0x3e3e552a	0.18587175
119	0xbb978b76	-0.0046247793
120	0x3e272918	0.1632427
121	0xbc447f7a	-0.011993283
122	0x3d9734a0	0.07383084
123	0xbe1239f9	-0.14279927
124	0xbcf541d3	-0.029938614
125	0xbe129c6f	-0.14317487
126	0xbcdc4908	-0.026890293
127	0xbc8fb70d	-0.01754334
128	0xbde6d083	-0.11270239
129	0x3c7bce05	0.015368943
130	0x3e3cbc40	0.18431187
131	0xbc71c000	-0.014755249
132	0xbe12a317	-0.14320026
133	0xbce81633	-0.028330898
134	0xbdbd4d0d	-0.09243212
135	0xbd5887b4	-0.05286379
136	0x3e49cf65	0.19708021
137	0xbeaba460	-0.33523846
138	0xbdbf4d17	-0.093408756
139	0xbdb95973	-0.09050264
140	0xbe085eed	-0.13317461
141	0x3adb43b1	0.0016728548
142	0xbb99a38c	-0.0046886858
143	0xbdd3ec0a	-0.10347755
144	0x3d65ae92	0.056074686
145	0xbd1a45cf	-0.03766423
146	0x3dbb42c2	0.091435924
147	0x3e282780	0.16421318
148	0xbd581a6a	-0.052759565
149	0x3e0eb430	0.13935924
150	0xbda6fd43	-0.081537746
151	0x3de5a02b	0.1121219
152	0xbe43f817	-0.19137608
153	0x3dca98aa	0.098923996
154	0x3dc2b6f0	0.09507549
155	0xbdf88d33	-0.121363066
156	0xbe24af01	-0.16082384
157	0x3e240549	0.16017641
158	0xbd83a86e	-0.0642861
159	0xbd2a9fc4	-0.04165627
160	0x3e24eaa3	0.16105132
161	0x3cc37215	0.02385811
162	0xbd621cf4	-0.055203393
163	0xbdb9d033	-0.09072914
164	0xbe07d40f	-0.13264488
165	0xbd1604aa	-0.03662554
166	0xbba0ac0b	-0.0049033216
167	0x3d9462e1	0.07245422
168	0xbc1b6c1b	-0.009486224
169	0xbc58efe0	-0.013240784
170	0xbeaa3023	-0.3323985
171	0x3ede6ea4	0.43443787
172	0xbe04d31a	-0.12971154
173	0x3dd015ec	0.10160431
174	0x3dcac02b	0.098999344
175	0x3e01ea95	0.12687142
176	0xbdbb20cf	-0.09137117
177	0xbdacd285	-0.08438591
178	0xbc408166	-0.011749601
179	0x3d363217	0.044481363
180	0x3b1985cb	0.0023425694
181	0x3d9c851e	0.076425776
182	0xbb9055e6	-0.004404771
183	0xbd70b4ff	-0.05876636
184	0xbdfd520e	-0.12369166
185	0x3dfecd64	0.12441519
186	0xbdfbde36	-0.12298243
187	0x3ddfb49f	0.109231226
188	0xbc5841a4	-0.013199244
189	0x3ddfa9d1	0.10921062
190	0xbe042725	-0.12905557
191	0xbb461440	-0.0030224472
192	0xbd812aad	-0.06306968
193	0x3d524bbf	0.05134177
194	0xbdac3195	-0.084078945
195	0xbdca47eb	-0.098769985
196	0x3e1b82f6	0.15186676
197	0xbd770197	-0.06030425
198	0x3e2cff17	0.16894184
199	0x3df5963a	0.11991544
200	0xbd255e05	-0.040372867
201	0xbd86fac7	-0.06590801
202	0x3da62a13	0.08113494
203	0xbcc61d43	-0.024183875
204	0xbee2b533	-0.4427887
205	0xbe84dbdf	-0.25948998
206	0xbc17e430	-0.009270713
207	0x3c63f70d	0.013913882
208	0x3dc08cfd	0.094018914
209	0xbdad5b56	-0.084646866
210	0xbcfdf3f3	-0.031000113
211	0x3d2c06b2	0.041998573
212	0xbde22c06	-0.11043553
213	0xbd9d4a34	-0.07680169
214	0xbd831fbc	-0.06402537
215	0x3d1f9106	0.038956665
216	0x3e20c32f	0.15699457
217	0x3be4f082	0.0069866786
218	0x3e36f3db	0.17866461
219	0xbd838e98	-0.06423682
220	0xbd56bc26	-0.052425526
221	0xbd8ba833	-0.06819191
222	0xbcbbbe1c	-0.0229178
223	0xbcd89038	-0.026435956
224	0xbdb66e73	-0.08907785
225	0x3d00c539	0.031438086
226	0x3daa48cf	0.083146684
227	0x3d6621b9	0.056184504
228	0x3c01a378	0.007912509
229	0x3dbe3d00	0.092889786
230	0x3e1b7a4b	0.1518337
231	0x3e3b16da	0.18270436
232	0xbd6de63f	-0.058080908
233	0x3e3c9237	0.18415152
234	0x3c8cb559	0.017176317
235	0x3e084f83	0.13311581
236	0xbd7ac3c1	-0.06122184
237	0xbead2378	-0.33816123
238	0x3e318d5d	0.17339082
239	0x3e871d44	0.26389515
240	0xbe453438	-0.19258201
241	0xbd631602	-0.05544091
242	0x3de6860c	0.11256036
243	0x3e26f53a	0.16304484
244	0xbd135c1b	-0.03597651
245	0xbda9a6b7	-0.082837515
246	0x3d50f6bc	0.051016554
247	0xbe06fb6d	-0.13181849
248	0xbd0a73c6	-0.033801816
249	0xbde2314f	-0.11044561
250	0xbe170df4	-0.14751416
251	0x3ca85e94	0.02055291
252	0x3daa0110	0.08300984
253	0x3d1254de	0.035725467
254	0x3bd98078	0.006637629
255	0xbdc6c2b8	-0.097051084

edge_in_layers.1.bias f4 [64]
0	0x3dd9ef5d	0.10641358
1	0xbdfadaa4	-0.12248734
2	0x3d82bc93	0.06383624
3	0xbe109572	-0.14119509
4	0x3cfd89e4	0.03094954
5	0xbe0f8c5b	-0.14018385
6	0x3dee0385	0.11621765
7	0xbda75145	-0.08169798
8	0xbb10f9d2	-0.002212156
9	0xbdf72327	-0.12067252
10	0x3da4d405	0.08048252
11	0x3cd8c629	0.026461678
12	0xbbdc41ab	-0.0067216954
13	0x3d9e4743	0.07728436
14	0xbd0b85ec	-0.034063265
15	0x3c39a70a	0.011331329
16	0xbe42bf36	-0.19018254
17	0xbdbdb376	-0.09262745
18	0x3d297e3c	0.041380152
19	0xbd26d6d1	-0.04073221
20	0xbe1850ba	-0.14874545
21	0x3d777fda	0.060424663
22	0xbe757b34	-0.2397278
23	0xbde7780c	-0.11302194
24	0xbd1ae24a	-0.037813462
25	0xbe0a05c9	-0.1347877
26	0x3db2ef1b	0.08737012
27	0x3d99157c	0.07474801
28	0x3df671bd	0.120334126
29	0xbdf16f11	-0.11788762
30	0xbcaa3e8e	-0.020781782
31	0xbe40b392	-0.188185
32	0xbde80c75	-0.11330501
33	0x3da7e77f	0.08198451
34	0x3cb95ab9	0.022626268
35	0xbe32d9d9	-0.17465915
36	0xbe32232e	-0.17396232
37	0x3e669d88	0.22521031
38	0xbc072116	-0.008247634
39	0x3dbb2ca4	0.09139374
40	0xbd71edbe	-0.05906462
41	0xbe88824e	-0.26661915
42	0x3c6dba0a	0.014509687
43	0xbdc30a08	-0.09523398
44	0xbe88933f	-0.2667484
45	0xbd0f69c1	-0.035012964
46	0x3e251e8e	0.16124937
47	0x3de7546a	0.112953976
48	0x3d0ca8d2	0.034340687
49	0xbe4389f8	-0.190956
50	0x3e22face	0.15915987
51	0x3d790fc4	0.06080605
52	0xbdf60a04	-0.12013629
53	0xbe2fc1c2	-0.17163756
54	0xbe24d62c	-0.16097325
55	0xbe8b03ae	-0.27151245
56	0xbe3625b9	-0.17787828
57	0xbe3d4176	-0.18482003
58	0xbdc56899	-0.09639091
59	0xbd78291e	-0.060586087
60	0xbd0094d4	-0.031391934
61	0xbe254657	-0.16140114
62	0x3dccc61d	0.099987246
63	0x3cc29782	0.023753885

edge_layers.0.transformer_encoder.layers.0.self_attn.in_proj_weight f4 [192, 64]
0	0xbde03dba	-0.109492734
1	0xbd7afa64	-0.061273947
2	0x3e215469	0.15754856
3	0xbe7b0b08	-0.24515927
4	0xbd3625be	-0.044469588
5	0xbe1c223f	-0.15247439
6	0x3dc2b5a3	0.09507301
7	0x3eec73e9	0.46182182
8	0x3f02e49b	0.51130074
9	0x3d626ce9	0.055279646
10	0x3e40d38e	0.18830702
11	0xbe38ff51	-0.18066145
12	0x39e5c6be	0.00043826358
13	0x3d65e347	0.05612495
14	0x3e505b48	0.20347321
15	0x3e76eec1	0.24114515
16	0xbd0a812a	-0.033814587
17	0xbd8076e8	-0.062726796
18	0x3d889691	0.06669343
19	0xbdf962a5	-0.12177018
20	0x3ed759c9	0.42060688
21	0x3dd30075	0.103028215
22	0xbcafc148	-0.021454468
23	0xbdc6b500	-0.09702492
24	0xbe0b3b3f	-0.1359682
25	0xbdae6af3	-0.08516493
26	0xbd7af1ac	-0.061265633
27	0x3dd719cb	0.105029665
28	0xbd3763ff	-0.044773098
29	0xbcba0654	-0.022708096
30	0xbe46e0d4	-0.19421703
31	0x3ee6527f	0.44984815
32	0xbdd6bf22	-0.104856744
33	0xbe6ef03e	-0.23333833
34	0xbd8f9e24	-0.07012585
35	0xbd8ab895	-0.067734875
36	0x3db19a52	0.086720124
37	0x3e6ba011	0.23010279
38	0xbe3aaee8	-0.18230784
39	0xbda6f253	-0.081516884
40	0x3f2971ff	0.6618957
41	0x3e90c6d4	0.28276694
42	0x3e7785b7	0.24172102
43	0x3e4770dd	0.19476648
44	0xbd88ce90	-0.06680024
45	0xbcf2fc8b	-0.029661437
46	0x3f068414	0.52545285
47	0x3d95332d	0.07285152
48	0xbd6cef45	-0.057845373
49	0xbc293ac3	-0.010328951
50	0x3ec44551	0.38334134
51	0x3f063e73	0.5243904
52	0xbe097bde	-0.13426158
53	0xbd74be78	-0.059751958
54	0xbe4c4846	-0.19949445
55	0x3ee0a265	0.43873897
56	0x3eadeb41	0.33968547
57	0xbe9c0bec	-0.30477846
58	0x3e910c74	0.28329813
59	0x3d2c4149	0.04205445
60	0xbe25e5e8	-0.16200984
61	0xbe736de9	-0.23772396
62	0x3e91eca1	0.28500846
63	0x3ed3c713	0.4136282
64	0xbd1e729a	-0.03868351
65	0xbdbee7e8	-0.09321576
66	0xbe4eef38	-0.20208442
67	0xbe833f06	-0.2563402
68	0x3cd7509b	0.026283553
69	0xbe6d31bb	-0.23163502
70	0xbbe97b6c	-0.0071253087
71	0x3ea2ff80	0.31835556
72	0x3e979b61	0.29610732
73	0x3e41d73c	0.18929762
74	0x3e71e9df	0.23624371
75	0xbd0ebc27	-0.034847405
76	0xbdf8973e	-0.12138222
77	0x3e43bb5d	0.19114442
78	0xbd21c484	-0.039494053
79	0x3ebffe6d	0.374988
80	0xbe631d99	-0.2217926
81	0x3d99198e	0.07475577
82	0xbdd0b71c	-0.10191175
83	0xbcd6c3e1	-0.02621645
84	0x3eb379f9	0.35053995
85	0x3cbdd591	0.023173125
86	0x39e4952d	0.00043598693
87	0xbe6f861b	-0.23391001
88	0xbdc440d4	-0.095826775
89	0xbe3aed1f	-0.18254517
90	0xbda67f25	-0.0812972
91	0x3dbde2ba	0.0927176
92	0xbdbcf854	-0.09227052
93	0xbe628da2	-0.22124341
94	0xbe642e5f	-0.22283314
95	0x3e8dffcf	0.2773423
96	0x3d27b8c2	0.040947683
97	0xbcc120fc	-0.023575298
98	0xbe4f4bcd	-0.2024376
99	0xbec04c22	-0.37558085
100	0x3c93eb30	0.018056482
101	0x3e1a63f2	0.15077189
102	0x3d7ee7cc	0.062232777
103	0xbdf15a37	-0.11784785
104	0x3eb530c0	0.35388756
105	0x3ec0a229	0.37623718
106	0x3e88a330	0.26687002
107	0x3d84438d	0.06458197
108	0xbec25a5f	-0.37959573
109	0xbddff4e9	-0.10935385
110	0x3e880ee0	0.2657385
111	0xbcb9608b	-0.022629043
112	0x3a675063	0.0008823929
113	0x3d1ec5cb	0.03876285
114	0x3ec556fc	0.38542926
115	0x3ed26ae8	0.41097188
116	0xbec1266d	-0.3772463
117	0x3e7a3f9b	0.24438326
118	0xbe56ba12	-0.20969418
119	0x3e588cc4	0.21147448
120	0x3ec46b38	0.3836305
121	0x3d016b29	0.031596337
122	0x3eb6cbf1	0.3570247
123	0xbc843cf1	-0.01614234
124	0xbd800dd3	-0.06252637
125	0xbd8ce103	-0.06878855
126	0x3e91a31b	0.28444752
127	0x3e1a071f	0.15041779
128	0x3dff652b	0.12470468
129	0x3d4910bc	0.049088225
130	0x3e104b76	0.14091286
131	0x3df06af3	0.11739149
132	0x3e0b5bdb	0.13609259
133	0x3e928446	0.28616542
134	0xbdafb077	-0.0857858
135	0xbe39acfe	-0.18132398
136	0xbe84318a	-0.25819045
137	0xbe853a3b	-0.2602099
138	0xbdda6da8	-0.106654465
139	0x3e0518da	0.12997761
140	0x3e888676	0.26665086
141	0xbea06538	-0.31327224
142	0xbd47a9b2	-0.04874582
143	0xbe1a098e	-0.15042707
144	0x3e79cadb	0.2439379
145	0x3e09e15b	0.13464873
146	0x3e38c1dc	0.18042701
147	0xbe1b71f9	-0.15180196
148	0xbdcdd1c3	-0.100497745
149	0x3c973c48	0.018461362
150	0xbd8f3ea0	-0.06994367
151	0x3e70f500	0.2353096
152	0x3e23eb29	0.16007675
153	0x3dc5b9a7	0.09654551
154	0xbc2afd43	-0.010436359
155	0xbea399eb	-0.31953368
156	0x3e5e6535	0.21718295
157	0xbeaf2dc8	-0.34214616
158	0x3e74f783	0.23922543
159	0xbe83be85	-0.25731292
160	0x3c76ace6	0.015055871
161	0xbd88b354	-0.06674829
162	0x3dd00ef6	0.101591036
163	0x3e17856d	0.14796992
164	0xbea102af	-0.3144736
165	0xbd835c78	-0.064141214
166	0x3e9c8967	0.3057358
167	0xbd0cc435	-0.034366805
168	0x3d55fc95	0.052242834
169	0xbe914969	-0.2837632
170	0xbdaa0dc0	-0.08303404
171	0xbe0aeda8	-0.13567221
172	0x3e2d005d	0.1689467
173	0xbd48150c	-0.048848197
174	0xbe038b84	-0.1284619
175	0xbe93acaa	-0.2884267
176	0x3dce8ff9	0.10086054
177	0x3e06c7ab	0.13162105
178	0xbd82d602	-0.06388475
179	0xbe056939	-0.1302842
180	0x3dc54236	0.09631769
181	0xbea5568e	-0.32292598
182	0x3e0b2dc2	0.13591674
183	0xbeb1ec03	-0.34750375
184	0xbe9571d2	-0.291884
185	0x3e0ee56b	0.13954704
186	0xbda4716b	-0.08029445
187	0xbd687043	-0.056747686
188	0x3eadfd27	0.33982202
189	0x3e4eccb2	0.20195273
190	0x3c112bed	0.00886057
191	0xbc42412c	-0.0118563585
192	0x3d43fbb1	0.047847454
193	0x3db6d2e7	0.08926945
194	0x3e71cf6b	0.2361428
195	0xbd83b931	-0.06431807
196	0xbd36cbad	-0.044627834
197	0x3d179e3b	0.037016135
198	0x3d03feb7	0.032225337
199	0xbe83ef0b	-0.25768313
200	0xbe77f072	-0.24212816
201	0xbe13ea73	-0.14444904
202	0xbe5c5e30	-0.21520305
203	0xbd8526c5	-0.06501535
204	0x3e34565b	0.17611067
205	0xbdce4965	-0.10072593
206	0xbd52f62a	-0.05150429
207	0xbe00ae56	-0.12566504
208	0xbd127966	-0.035760306
209	0x3e27dd7a	0.1639308
210	0x3d53b855	0.051689465
211	0xbdf5c309	-0.12000091
212	0xbebd180f	-0.36932418
213	0xbde6bd2e	-0.11266552
214	0xbdc80583	-0.09766676
215	0xbd62d4c7	-0.0553787
216	0x3e63d429	0.22248901
217	0xbcd39938	-0.025829896
218	0xbd18e357	-0.037326183
219	0xbe28a544	-0.16469294
220	0x3e0edb99	0.13950957
221	0xbe89a6e1	-0.2688513
222	0x3e02da6b	0.12778632
223	0xbdb208ff	-0.08693122
224	0x3d358de6	0.044324778
225	0xbda08d51	-0.07839454
226	0xbe26e727	-0.16299115
227	0xbd0e728a	-0.0347772
228	0x3d50973f	0.05092549
229	0x3e108f59	0.14117183
230	0x3dbf1824	0.09330776
231	0x3d06028b	0.03271727
232	0xbec9842a	-0.39358646
233	0xbdfc01a1	-0.12304998
234	0xbe76dc7b	-0.24107544
235	0xbd9ba683	-0.07600119
236	0x3cfd3bc9	0.030912297
237	0x3d2aa257	0.041658726
238	0xbea11dbe	-0.31468004
239	0xbe7a10f4	-0.2442053
240	0x3e131b68	0.14365923
241	0xbdf3ac83	-0.118981384
242	0xbe43ef98	-0.19134367
243	0xbe1bceac	-0.15215558
244	0x3dd9443f	0.1060872
245	0xbe5152fd	-0.20441814
246	0x3e0838a4	0.13302857
247	0xbeb2cdb6	-0.3492257
248	0xbeacdd03	-0.3376237
249	0xbd05c3a8	-0.032657295
250	0xbebbe9d9	-0.3670185
251	0x3d916e56	0.07101123
252	0x3d9097c7	0.07060199
253	0xbd14b89f	-0.03630888
254	0xbe0c594d	-0.1370594
255	0x3db94d28	0.090479195

edge_layers.0.transformer_encoder.layers.0.self_attn.in_proj_bias f4 [192]
0	0xbccb8719	-0.024844693
1	0xbd3899d5	-0.04506858
2	0xbc5a5ad8	-0.013327323
3	0xbc70d9ca	-0.014700362
4	0xbd78ca35	-0.060739715
5	0xbd91d642	-0.071209446
6	0x3dff11f2	0.12454595
7	0x3e177b09	0.14793028
8	0x3ca89ad5	0.020581642
9	0xbbc21799	-0.005923223
10	0x3bb7b48a	0.0056062387
11	0x3b60ffb7	0.0034332105
12	0x3c0c9442	0.008580269
13	0x3b12a324	0.0022375071
14	0x3d254c79	0.040356133
15	0x3deb2c3f	0.11483049
16	0x3acd94ee	0.0015684643
17	0xbd3e0ec8	-0.046400815
18	0xbde88209	-0.11352927
19	0xbe09f53b	-0.13472454
20	0x3e0fa90d	0.14029332
21	0xbdbce6e8	-0.09223729
22	0x3df31cca	0.118707255
23	0xbd11be6c	-0.03558199
24	0xbdc67624	-0.09690502
25	0xbcc8d12b	-0.024513802
26	0xbd989138	-0.07449573
27	0xbd490af8	-0.049082726
28	0x3d2f1de1	0.042753104
29	0xbded0f82	-0.115752235
30	0xbe67aec8	-0.22625268
31	0xbe154d1c	-0.14580196
32	0x3cf62ae1	0.030049743
33	0x3dd16123	0.102236055
34	0xbe0816db	-0.13289969
35	0xbcb30cd5	-0.021856705
36	0xbd8fc67d	-0.070202805
37	0xbdaa6e0f	-0.08321773
38	0x3ddaa1b9	0.106753774
39	0xbdcf2e72	-0.101162806
40	0x3e0d86c3	0.13820939
41	0x3cc43ec5	0.023955712
42	0x3d8f8f8e	0.07009803
43	0xbd5c6de8	-0.053815752
44	0x3cc287ae	0.023746338
45	0xbdc1b482	-0.09458257
46	0x3d748b03	0.059702884
47	0x3de5b2bd	0.11215732
48	0xbdc27cc5	-0.09496454
49	0xbddea646	-0.10871558
50	0x3d887a08	0.066639006
51	0xbdddb435	-0.108253874
52	0xbd3e2a5a	-0.04642711
53	0x3cf513f5	0.029916743
54	0x3c84a903	0.016193872
55	0xbda8e4a3	-0.08246734
56	0x3c822451	0.015886458
57	0x3df7d962	0.12102009
58	0x3d3c39c8	0.045953542
59	0x3dcb8c24	0.09938839
60	0xbcadb648	-0.021205083
61	0x3cbfe753	0.023425734
62	0xbd872a93	-0.06599917
63	0x3bc2bc03	0.005942823
64	0xba1a31c4	-0.00058820494
65	0xba368340	-0.0006962307
66	0x39b6a871	0.00034839244
67	0x39e331fd	0.00043334058
68	0x391a1a43	0.00014696368
69	0x39bf4376	0.0003648062
70	0xb7245c61	-9.79667e-06
71	0x39b8e3c8	0.00035264925
72	0x3a018aed	0.0004941661
73	0xb991b262	-0.0002778946
74	0xb900b435	-0.00012274164
75	0xb6e53932	-6.8313902e-06
76	0xb7ec2c31	-2.815397e-05
77	0x3a1c75d4	0.00059684855
78	0xb98f276a	-0.0002730445
79	0x3a4977c1	0.0007685386
80	0xbaa4a62c	-0.001256173
81	0xbac49619	-0.0014998346
82	0x3a93d9ce	0.0011280121
83	0x3a5af40c	0.0008352406
84	0xb9b6f16a	-0.00034893613
85	0x39c4bb04	0.0003752337
86	0xba98d981	-0.0011661501
87	0xba8c0acc	-0.001068437
88	0x3a9d028e	0.0011978911
89	0xbaab7919	-0.0013082355
90	0x3a325500	0.0006802827
91	0x3a71b140	0.0009219833
92	0x38dfcb1e	0.00010671302
93	0x3a6b989b	0.00089872786
94	0x3a17d077	0.00057912566
95	0x39c414c4	0.00037399505
96	0x395058d2	0.00019869514
97	0xbaa213d2	-0.0012365526
98	0x3a8209fa	0.0009921186
99	0x39fe3231	0.0004848405
100	0x3a89dfe8	0.0010519
101	0x3a4f8e09	0.0007917588
102	0xba6ffa8b	-0.000915446
103	0x3a88f39e	0.001044858
104	0xba86772a	-0.0010258902
105	0xb8aa7f23	-8.129913e-05
106	0xba47bc30	-0.00076192897
107	0x3a6e5c84	0.00090927654
108	0xba2f5afc	-0.0006689278
109	0x3a5d95e1	0.00084528147
110	0xba664207	-0.00087836426
111	0xba807f7e	-0.0009803621
112	0xbaa7019f	-0.0012741572
113	0xba815a7e	-0.0009868888
114	0x3a8ed546	0.0010897301
115	0xbabe5b05	-0.0014522976
116	0xba3f5afe	-0.00072996307
117	0x3a4c6113	0.00077964476
118	0xbaaa2b03	-0.0012982789
119	0xba9213c4	-0.0011144807
120	0xba0d53db	-0.00053912186
121	0x39f8187c	0.00047320488
122	0xba082cd3	-0.00051946676
123	0x3abea0c3	0.001454376
124	0xba55ffee	-0.00081634417
125	0x3ad90215	0.0016556407
126	0x3a45bc06	0.0007542971
127	0xba29f6b4	-0.00064836
128	0x3afd636b	0.0019331997
129	0x3d3f35cd	0.046682168
130	0xbc76f0c2	-0.01507205
131	0x3d032d26	0.03202548
132	0x3ba0d182	0.004907788
133	0xbbe694f1	-0.007036798
134	0xbcd2d3ee	-0.025735822
135	0xbc16a017	-0.009193442
136	0x3d289407	0.041156795
137	0xbca68f31	-0.02033195
138	0xbce1dcbc	-0.027571075
139	0xbc9f951b	-0.019480279
140	0x3ac0a920	0.0014698841
141	0x3701e62a	7.742588e-06
142	0x3ccdf8cb	0.025143048
143	0x3d92fe55	0.07177416
144	0x3ac5a265	0.0015078305
145	0xbc6ca93f	-0.014444648
146	0x3c31bb5d	0.010847894
147	0xbd1054ba	-0.03523705
148	0x3d41a3c7	0.04727533
149	0xbd3d3cc3	-0.046200525
150	0xbc2fb944	-0.010725323
151	0x3c937644	0.01800073
152	0xbd3ed619	-0.0465909
153	0x394ffeb0	0.00019835937
154	0xbccacb4a	-0.024755139
155	0x3d20f51f	0.039296266
156	0x3c168148	0.0091860965
157	0xbc3718f3	-0.011175382
158	0x3bd093a5	0.006365257
159	0x3c956f70	0.018241614
160	0x3bbb6a80	0.005719483
161	0xbbe07f63	-0.006851123
162	0xbc775870	-0.015096769
163	0xbc563087	-0.013073093
164	0xbaa9d9eb	-0.0012958621
165	0xbc2668fb	-0.010156865
166	0x3d00be16	0.03143128
167	0xbcf34262	-0.02969474
168	0xbce39b5f	-0.027784048
169	0xbcbc6a17	-0.022999806
170	0x3cac7bd2	0.021055136
171	0xbb625d28	-0.0034540389
172	0xb7237e08	-9.744901e-06
173	0x3d4da3bd	0.05020498
174	0x3c95a27e	0.018265959
175	0x39c5400d	0.0003762249
176	0xbd1b27c0	-0.037879705
177	0xbcf874c7	-0.030329121
178	0xbcbeea0d	-0.023304963
179	0x3c6a5bbb	0.014304097
180	0x3c57fbb7	0.013182572
181	0x3cf05753	0.029338514
182	0xbcec222c	-0.028824888
183	0xbcc936de	-0.024562296
184	0xbd3498d2	-0.044091053
185	0xbc0adef3	-0.008476007
186	0x3bca2641	0.006169111
187	0x3c88dc4c	0.016706608
188	0x3b181834	0.0023207786
189	0x3ccc0617	0.024905248
190	0x3bc38479	0.0059667197
191	0x3c07042a	0.008240739

edge_layers.0.transformer_encoder.layers.0.self_attn.out_proj.weight f4 [64, 64]
0	0x3d140c3c	0.03614448
1	0x3c1d0f4e	0.009586168
2	0x3d9bbd90	0.076045156
3	0x3dcabbc6	0.09899096
4	0xbda1303d	-0.07870529
5	0x3c74879e	0.014924912
6	0x3c910a03	0.01770497
7	0xbca284f7	-0.019838793
8	0xbc3f9f9d	-0.01169577
9	0xbd86d291	-0.06583131
10	0xbd203d10	-0.039120734
11	0xbd0e71d7	-0.034776535
12	0x3d92599f	0.07146
13	0x3c4c6a3b	0.012476499
14	0xbd6c1228	-0.057634503
15	0xbdd45ad8	-0.103688896
16	0xbaa260c1	-0.0012388454
17	0x3d94c501	0.07264138
18	0xbd84d72c	-0.06486353
19	0x3c807fe8	0.01568599
20	0xbd6c0a12	-0.05762679
21	0x3dd7f0c0	0.10543966
22	0x3de0b7db	0.10972568
23	0xbe20bc79	-0.15696897
24	0xbd330206	-0.0437031
25	0x3ca925d0	0.020647913
26	0xbde1b264	-0.110203534
27	0xbe013c4e	-0.1262066
28	0x3d9619ec	0.07329163
29	0x3cff885e	0.031192955
30	0x3d2e9da9	0.042630825
31	0xbd2ecb42	-0.04267431
32	0x3bc3c723	0.0059746667
33	0xbdf7b020	-0.1209414
34	0xbdd9d928	-0.106371224
35	0x3d73c9af	0.059518512
36	0x3d550d1a	0.052014448
37	0xbcc6e934	-0.024281122
38	0x3d9b9ef5	0.07598678
39	0x3d8a3047	0.067474894
40	0xbce9101f	-0.02845007
41	0xbac98620	-0.0015375055
42	0x3dbb1e45	0.09136633
43	0x3da12b46	0.07869582
44	0x3d39e93e	0.045388453
45	0x3dc36569	0.09540827
46	0xbcc62ee8	-0.024192289
47	0xbcabd16a	-0.02097388
48	0xbc2ecd03	-0.010668996
49	0x3d24c641	0.040228132
50	0x3cb55433	0.022134876
51	0x3d80db59	0.06291837
52	0xbd95700f	-0.07296764
53	0xbcf81494	-0.03028325
54	0x3da82956	0.08211009
55	0x3c597615	0.013272782
56	0xbd65c7cd	-0.056098748
57	0xbcf29c77	-0.029615624
58	0xbd4d4384	-0.050113216
59	0xbc64f0fa	-0.013973469
60	0x3d88296b	0.06648525
61	0xbce8fd04	-0.02844096
62	0x3cab897f	0.020939587
63	0x3c88d80f	0.016704587
64	0xbca54936	-0.020176511
65	0xbdb8f9a4	-0.0903199
66	0x3d3cd659	0.046102855
67	0x3c676f4a	0.0141256545
68	0x3d9d40e2	0.07678391
69	0x3dc76daa	0.09737714
70	0xbc19daae	-0.009390516
71	0xbd91aba1	-0.07112814
72	0x3d5679fe	0.052362435
73	0x3e386fa3	0.18011336
74	0xbab38f6e	-0.0013699362
75	0x3da24504	0.0792332
76	0xbd1aebfb	-0.037822705
77	0xbd31f40d	-0.043445636
78	0xbd3f78da	-0.046746112
79	0x3d37846b	0.044804018
80	0x3d898546	0.06714873
81	0x3cbd03cf	0.023073105
82	0x3dba3656	0.09092395
83	0xbdbb8577	-0.09156316
84	0x3d819ab8	0.063283384
85	0xbe04a9d2	-0.12955406
86	0x3d0f56a2	0.03499473
87	0xbce73f04	-0.02822829
88	0x3cb8dfa6	0.022567581
89	0x3de44aeb	0.11147102
90	0x3df04c90	0.11733353
91	0xbd6f3cc6	-0.058407567
92	0xbd84f3e2	-0.064918295
93	0xbe23195b	-0.15927641
94	0x3ce00778	0.027347311
95	0xbe387b31	-0.18015744
96	0xbdb6a074	-0.08917323
97	0xbd3bc9b1	-0.045846645
98	0xbc3f3d36	-0.011672309
99	0xbd9de0af	-0.077088706
100	0xbdab889f	-0.08375668
101	0x3e4012e2	0.18757203
102	0xbb7f0de2	-0.0038918187
103	0xbda190ed	-0.078889705
104	0x3dfbb3d5	0.122901596
105	0x3d756c8f	0.059917983
106	0x3bfa740e	0.0076432293
107	0xbd55a1f4	-0.052156404
108	0xbdbcd014	-0.09219375
109	0x3e02177c	0.12704271
110	0x3e068b9b	0.13139193
111	0x3dd32242	0.103092685
112	0xbd9cf634	-0.07664147
113	0x3e05345c	0.13008255
114	0xbdbc5c08	-0.09197241
115	0x3d942859	0.07234258
116	0xbdcb11fa	-0.09915538
117	0x3e282814	0.16421539
118	0x3db1a1d8	0.08673447
119	0xbcee9020	-0.029121459
120	0x3ce336ad	0.027736032
121	0xbe5c4727	-0.21511517
122	0x3dc7438d	0.09729681
123	0x3e0b85a9	0.13625206
124	0xbe1929f7	-0.14957415
125	0xbcf5e841	-0.030017974
126	0xbca3bd8c	-0.019987844
127	0x3b456ba0	0.0030123964
128	0xbde10647	-0.109875254
129	0xbd76c6d4	-0.06024821
130	0x3ca901e4	0.020630784
131	0xbccd4730	-0.025058359
132	0xbd9508af	-0.07277047
133	0x3d9f81a6	0.077884
134	0xbd7c0b9c	-0.06153451
135	0x3d13ae4a	0.036054887
136	0xbd663456	-0.056202255
137	0xbd5474b7	-0.05186912
138	0xbc912078	-0.017715678
139	0x3dcd4519	0.10022945
140	0x3ba429d3	0.0050098686
141	0x3da6009f	0.08105587
142	0xbd16d6bf	-0.03682589
143	0x3de5bd8e	0.11217795
144	0xbd30754b	-0.04308061
145	0x3dc055c2	0.09391357
146	0xbc494e66	-0.012286758
147	0xbab59af4	-0.0013855384
148	0x3be4525c	0.006967826
149	0x3c83d70e	0.016093757
150	0xbcd7f742	-0.026363019
151	0x3e223c3c	0.1584329
152	0xbd9033c4	-0.070411235
153	0xbc1bcf2c	-0.009509843
154	0xbcf28b4d	-0.02960744
155	0x3d854567	0.06507378
156	0xbe0839d2	-0.13303307
157	0xbd3d98d1	-0.046288315
158	0x3dddd177	0.10830968
159	0xbd5d5740	-0.054038286
160	0x3d5221ca	0.051301755
161	0xbc1731cd	-0.009228182
162	0xbd0d2075	-0.03445478
163	0x3d35caa9	0.044382725
164	0xbdb28efb	-0.087186776
165	0xbde7754f	-0.11301672
166	0xbd79bee7	-0.060973074
167	0x3d0a5b34	0.033778384
168	0x3ad53d57	0.0016268891
169	0x3d749576	0.05971285
170	0xbc84cd04	-0.01621104
171	0x3e0a8bda	0.13529912
172	0x3d945677	0.07243054
173	0xbd5b8b9f	-0.05359995
174	0x3d6110ae	0.054947548
175	0x3d7911fc	0.060808167
176	0x3d16f68d	0.036856223
177	0x3c01ab13	0.007914322
178	0xbd63b316	-0.05559071
179	0xbbb3cc8b	-0.00548703
180	0xbe25ab94	-0.16178733
181	0x3bee0494	0.0072637293
182	0xbd9228ad	-0.071366645
183	0x3ca4756d	0.020075524
184	0x3dc4b1cf	0.09604227
185	0x3d83d096	0.06436269
186	0xbbdc1767	-0.006716657
187	0xbd5085d6	-0.050908886
188	0xbddc40bd	-0.10754535
189	0x3d9161c6	0.07098727
190	0x3d1fe326	0.039034985
191	0xbd500e84	-0.050795093
192	0xbdfbe673	-0.12299814
193	0xbc37b0a9	-0.011211553
194	0x3cd15a52	0.025555763
195	0xbc020b0a	-0.007937202
196	0xbd196f41	-0.037459616
197	0x3dc49e8d	0.09600554
198	0xbddcd550	-0.10782874
199	0x3d8c9bb7	0.06865638
200	0xbc12a6bc	-0.008950885
201	0x3dc075c9	0.09397466
202	0xbd9765df	-0.07392477
203	0xbdf0e47f	-0.11762332
204	0xbd14615d	-0.036225665
205	0x3d7f4f0c	0.062331244
206	0xbd21b2c8	-0.03947714
207	0x3c318923	0.010835919
208	0xbba7be05	-0.0051190876
209	0xbd88b842	-0.066757694
210	0xbd0cbf8b	-0.034362357
211	0x3dc88491	0.0979091
212	0xbd6bed42	-0.057599314
213	0xbdc13156	-0.09433238
214	0x3d20d450	0.039264977
215	0xbce66fb6	-0.02812944
216	0xbd0ca266	-0.034334563
217	0xbc6bfc6c	-0.014403444
218	0xbe16bd8b	-0.14720742
219	0x3db3da75	0.08781902
220	0xbda58d47	-0.08083587
221	0xbcad5a89	-0.021161335
222	0xbbdab42b	-0.0066743097
223	0xbe059ca9	-0.13048042
224	0x3d8f9c45	0.07012228
225	0xbd96f22a	-0.07370408
226	0xbd8366e4	-0.06416109
227	0xbd7779e0	-0.060418963
228	0x3e101e1c	0.14073986
229	0xbb5d3ae2	-0.003375702
230	0xbdde990e	-0.108690366
231	0x3df39ea5	0.118954934
232	0xbde7dbf2	-0.11321248
233	0xbd4678e7	-0.048455145
234	0x3ca77876	0.020443182
235	0xbc50e67f	-0.012750267
236	0x3d958e12	0.073024884
237	0xbde267b2	-0.110549346
238	0xbe07fe11	-0.13280512
239	0xbd9e6136	-0.07733385
240	0xbda37a92	-0.07982363
241	0x3cc3ea3b	0.0239154
242	0xbbe10205	-0.006866696
243	0x3cc8f9ed	0.024533236
244	0xbc0a6a74	-0.008448232
245	0xbce42442	-0.02784932
246	0xbe3adeab	-0.18249004
247	0x3cdd4c1f	0.027013836
248	0x3c60bc1b	0.013716723
249	0xbe1f1ec4	-0.1553908
250	0xbc83f197	-0.01610641
251	0xbd07212a	-0.032990612
252	0x3ddb131c	0.10697004
253	0x3e1318c4	0.14364916
254	0xbde2e94c	-0.11079654
255	0x3dba0da7	0.09084635

edge_layers.0.transformer_encoder.layers.0.self_attn.out_proj.bias f4 [64]
0	0xbd97d2b9	-0.07413239
1	0x3d73f0e9	0.05955592
2	0xbbf02e75	-0.007329757
3	0xbcbe4e06	-0.023230564
4	0x3bb48566	0.0055090664
5	0xbdcb11dd	-0.099155165
6	0xbd227356	-0.039660774
7	0x3a81c16b	0.0009899562
8	0xbd5d0480	-0.05395937
9	0x3d3e0ade	0.046397083
10	0x3ccfef64	0.025382705
11	0xbb622712	-0.003450815
12	0xbd8611ad	-0.0654634
13	0x3d9bc0e5	0.07605151
14	0x3d996b31	0.07491148
15	0xbd4a41e6	-0.049379252
16	0xbc665bb7	-0.014059952
17	0xbce81aee	-0.028333154
18	0x3cb30387	0.021852268
19	0x3d25ce7e	0.04048013
20	0x3caed1fa	0.021340359
21	0xbb3544be	-0.0027659382
22	0x3de9ec4e	0.11422025
23	0xbdf4654c	-0.11933383
24	0xbd2b7c9e	-0.04186689
25	0xbca97158	-0.02068393
26	0xbaf3bfd3	-0.0018596597
27	0x3dca2eb9	0.09872193
28	0xbdd20934	-0.102556616
29	0xbce73076	-0.02822135
30	0xbd89d2db	-0.067296706
31	0xbd37e7ba	-0.044898726
32	0x3ce27c6d	0.027647221
33	0xbd6d5a34	-0.057947353
34	0x3be57fa7	0.0070037427
35	0xbbd48c89	-0.0064864797
36	0x3d0009c5	0.031259317
37	0xbdb38d74	-0.087672144
38	0x3cd8acd5	0.0264496
39	0xbc3b5c5c	-0.011435594
40	0xbd4876db	-0.048941474
41	0x3cc157a8	0.023601368
42	0x3d8d1ef9	0.06890673
43	0x3da82ce4	0.08211687
44	0x3d001319	0.031268213
45	0xbc5f491b	-0.01362827
46	0xbb08af10	-0.0020856299
47	0x3e423c5c	0.18968338
48	0x3db4a95d	0.08821366
49	0xbd67fc55	-0.056637127
50	0xbcb12db4	-0.021628238
51	0xbb8ea79f	-0.004353478
52	0x3d1e1700	0.038596153
53	0x3d3f0896	0.046639048
54	0xbd43efc5	-0.047836084
55	0x3d917398	0.07102126
56	0x3d640b58	0.05567488
57	0x3b081fc5	0.002077089
58	0x3d37ddb6	0.044889174
59	0xbdcd43f2	-0.10022725
60	0x3c217f5c	0.009857025
61	0xbcd7d094	-0.026344575
62	0xbe1dd189	-0.15411963
63	0xbccbde51	-0.024886282

edge_layers.0.transformer_encoder.layers.0.linear1.weight f4 [64, 64]
0	0x3df22311	0.11823095
1	0x3e0e3912	0.13888958
2	0x3d20d6d2	0.03926737
3	0xbc738eaa	-0.014865557
4	0x3dc9c8b0	0.09852731
5	0xbdfd4911	-0.12367452
6	0x3db12d28	0.08651191
7	0xbd96d576	-0.07364933
8	0xbe13c060	-0.14428854
9	0x3d92134c	0.07132587
10	0xbca1ab0b	-0.01973488
11	0x3d8edffb	0.06976315
12	0xbb81a0cb	-0.0039559356
13	0xbd49b3bf	-0.049243685
14	0x3d7f8993	0.06238706
15	0x3e0c3355	0.13691457
16	0xbcbd688b	-0.023121139
17	0x3c0064a2	0.007836493
18	0xbdb33720	-0.08750749
19	0xbd2d97de	-0.04238116
20	0x3c93f569	0.018061357
21	0xbdd3fb13	-0.10350623
22	0x3cd22c45	0.025655875
23	0x3e004dab	0.12529628
24	0x3db1897a	0.086688
25	0xbe099d45	-0.134389
26	0x3ddfe63b	0.10932585
27	0x3d101a4c	0.03518133
28	0xbdb4a0b8	-0.08819717
29	0x3d5479a1	0.051873807
30	0x3dfb6490	0.1227504
31	0xbdb1334a	-0.08652361
32	0x3c0d4d82	0.008624436
33	0xbd348f84	-0.04408218
34	0xbbae2641	-0.005314619
35	0x3e0a8ac4	0.13529497
36	0x3d3b956a	0.04579679
37	0x3de91adc	0.11382076
38	0x3e7cf81c	0.24704021
39	0xbc7800fe	-0.015136955
40	0xbdc104a9	-0.09424717
41	0xbe24c969	-0.16092457
42	0x3e046558	0.12929285
43	0x3dafccf6	0.08584015
44	0xbd8eb080	-0.069672585
45	0x3d8fcd4b	0.070215784
46	0x3caf396a	0.021389682
47	0x3d8eb387	0.06967836
48	0xbd89446f	-0.06702506
49	0xbdb6dc1f	-0.089287035
50	0xbdaf1d78	-0.085505426
51	0xbdfff424	-0.12497738
52	0x3c84e019	0.01622014
53	0x3d8407d9	0.06446809
54	0x3e222f78	0.1583842
55	0x3dd218a3	0.10258605
56	0xbddda309	-0.10822112
57	0xbddcdd7a	-0.10784431
58	0x3dc4f109	0.09616286
59	0x3d4b089c	0.049568757
60	0x3d65c122	0.05609239
61	0xbd8359f4	-0.064136416
62	0xbd88cefe	-0.066801056
63	0x3c960fe2	0.01831812
64	0x3e0984bb	0.13429539
65	0xbbf3d418	-0.007441055
66	0x3d4ff3a9	0.05076948
67	0xbd93accc	-0.07210693
68	0x3d56322d	0.052293945
69	0x3a0174c8	0.0004938361
70	0x3cd1bc6a	0.025602538
71	0x3d848f60	0.06472659
72	0xbd4d786d	-0.050163675
73	0xbcbb4df5	-0.022864321
74	0xbe040058	-0.12890756
75	0x3ce17517	0.027521653
76	0x3d8d0b48	0.06886917
77	0x3d848a44	0.064716846
78	0x3d659073	0.05604596
79	0xbcd0c72c	-0.025485598
80	0x3c98074c	0.018558167
81	0x3dc9dccf	0.09856569
82	0x3e03c53c	0.12868208
83	0xbdbb1bc6	-0.09136157
84	0x3d0eca86	0.03486111
85	0x3c031645	0.008000915
86	0x3d475476	0.048664533
87	0x3d981702	0.074262634
88	0xbc2ae648	-0.01043088
89	0xbd99e51e	-0.07514404
90	0x3d975b5c	0.07390472
91	0xbd183595	-0.037160475
92	0xbdb4f77b	-0.08836266
93	0x3d09ffd9	0.03369126
94	0x3da00dd3	0.07815137
95	0x3e66b027	0.22528134
96	0xbe020293	-0.12696294
97	0xbb609e5d	-0.003427408
98	0x3bd9b6b6	0.0066440953
99	0x3c82277a	0.015887965
100	0xbe10723a	-0.14106074
101	0x3dac27a5	0.08405999
102	0x3e13c33e	0.14429948
103	0xbc4882a0	-0.012238175
104	0x3d299634	0.04140301
105	0x3d1addc4	0.03780915
106	0xbe173e6f	-0.1476991
107	0xbe022858	-0.12710702
108	0x3bde6bfb	0.0067877746
109	0xbd8c2892	-0.06843676
110	0x3e01f603	0.12691502
111	0xbd326e1b	-0.043562036
112	0xbd50e314	-0.05099781
113	0x3d07a629	0.033117447
114	0xbcca704d	-0.024711752
115	0x3cf1fdfc	0.029540055
116	0x3d5d3d5a	0.054013588
117	0xbd87242a	-0.065986946
118	0x3db4d014	0.0882875
119	0xbdd6aa39	-0.10481686
120	0xbd64a158	-0.055817932
121	0xbd10f2fe	-0.035387985
122	0x3d94f497	0.07273214
123	0x3d577db1	0.052610103
124	0x3d174376	0.03692957
125	0x3da2071d	0.07911513
126	0xbcef3715	-0.02920107
127	0x3deadd1c	0.114679545
128	0x3dcccb9c	0.09999773
129	0x3e7d1145	0.24713619
130	0x3d4aaad3	0.049479317
131	0x3ac30908	0.0014880011
132	0x3d23bafc	0.039973244
133	0x3e98c5f1	0.29838517
134	0xbdbe0f5b	-0.092802726
135	0xbd8dbe96	-0.06921117
136	0x3db8675a	0.09004088
137	0xbd524564	-0.051335707
138	0x3e6ddd95	0.23229058
139	0x3ded4002	0.11584474
140	0xbda1a97d	-0.078936554
141	0xbdccf576	-0.100077555
142	0xbdcfcec3	-0.101468585
143	0x3e77810b	0.2417032
144	0x3e05bff4	0.13061506
145	0x3d24c89b	0.040230375
146	0xbdaa9ce3	-0.08330705
147	0x3e4c1841	0.19931127
148	0xbdb36067	-0.08758622
149	0xbd688375	-0.056765992
150	0x3cc9cf3a	0.024634946
151	0x3e3e2cfd	0.18571849
152	0x3e3fece6	0.18742713
153	0x3d31401c	0.04327403
154	0x3d4b3b21	0.049616937
155	0xbe56bc07	-0.20970164
156	0x3d63a7fc	0.055580124
157	0xbd92ef1d	-0.071745135
158	0x3e00c09e	0.12573478
159	0xbd2c7266	-0.042101286
160	0x3dcf2f51	0.10116447
161	0xbe3da7be	-0.1852102
162	0xbdc04c45	-0.09389547
163	0xbcb1f3f8	-0.021722779
164	0xbe0a7dbb	-0.13524525
165	0x3d17618f	0.036958274
166	0x3df79620	0.12089181
167	0xbc68bec1	-0.0142056355
168	0xbd247c98	-0.040157884
169	0x3dfacc61	0.122460134
170	0xbe29d7a4	-0.16586167
171	0x3d0abaf6	0.033869706
172	0x3e332ebd	0.17498298
173	0x3dc6c142	0.0970483
174	0x3b403b3a	0.0029332177
175	0xbd4f9437	-0.050678458
176	0x3e0bbe57	0.13646828
177	0xbe314098	-0.17309797
178	0x3dbb5717	0.091474704
179	0xbe593d72	-0.21214846
180	0x3d873a75	0.06602947
181	0x3d9b0606	0.07569508
182	0xbe1a210e	-0.15051672
183	0x3e07955e	0.13240573
184	0xbe655e17	-0.22399174
185	0x3e40972c	0.18807667
186	0xbe364867	-0.17801057
187	0x3d0269f4	0.031839326
188	0xbd9f8e33	-0.07790794
189	0x3cffaa06	0.031209003
190	0x3d8f39c0	0.06993437
191	0x3d9304eb	0.071786724
192	0xbdb89120	-0.090120554
193	0x3dc5e0e5	0.09662036
194	0xbd2f6adc	-0.04282652
195	0xbd1beae8	-0.03806582
196	0xbd0a30f5	-0.033738095
197	0xbc8b3606	-0.016993534
198	0xbdd9a0f7	-0.10626405
199	0xbd8583cb	-0.06519278
200	0xbda3d5f4	-0.07999793
201	0xbe7763d8	-0.24159181
202	0x3e980846	0.29693812
203	0x3d71ae8a	0.059004344
204	0xbe4eb314	-0.201855
205	0xbe63d6f5	-0.22249968
206	0xbcae1f6c	-0.021255217
207	0xbc7f2d46	-0.015574759
208	0x3d8b8c41	0.06813861
209	0xbdf91943	-0.121630214
210	0xbdaf1e4a	-0.08550699
211	0x3dd2018b	0.102542005
212	0xbe234ef7	-0.15948091
213	0xbdcd0f32	-0.10012664
214	0xbdcc9f21	-0.09991289
215	0xbd734c91	-0.05939919
216	0xbe1b5fd0	-0.15173268
217	0xbdc323b8	-0.09528297
218	0x3d44431f	0.047915574
219	0xbe00f9d0	-0.12595296
220	0xbdd60bd3	-0.10451474
221	0xbdf959ca	-0.12175329
222	0xbe057e5f	-0.13036488
223	0xbe1a7383	-0.15083127
224	0x3e5dafa1	0.21649028
225	0x3d4f4dc2	0.050611265
226	0xbe1c81ee	-0.15283939
227	0xbe04196c	-0.12900323
228	0x3e275547	0.16341124
229	0xbb95484c	-0.0045557376
230	0xbdf73b1a	-0.120718196
231	0x3de153e3	0.11002328
232	0x3e0ad7cb	0.13558881
233	0xbd928a1a	-0.07155247
234	0x3dcd41ca	0.10022314
235	0xbdd95b2b	-0.10613092
236	0x3c871534	0.016489603
237	0xbe0c34ed	-0.13692065
238	0xbe36f8e7	-0.17868386
239	0x3d63066b	0.055426043
240	0x3dbe261a	0.09284611
241	0xbdbe998b	-0.0930663
242	0x3ded0e36	0.11574976
243	0x3db46cf2	0.08809842
244	0xbd5c867c	-0.05383919
245	0x3d424349	0.04742745
246	0xbc50f3ef	-0.012753471
247	0xbc47b341	-0.012188734
248	0xbd4910b2	-0.049088188
249	0xbd5a84dd	-0.053349365
250	0xbcfeee74	-0.031119563
251	0xbe3dcc0b	-0.18534867
252	0xbd890dd5	-0.066920914
253	0x3d1dd6ef	0.038535055
254	0xbdc322f7	-0.095281534
255	0x3bb6e966	0.0055820225

edge_layers.0.transformer_encoder.layers.0.linear1.bias f4 [64]
0	0xbe07d232	-0.13263777
1	0xbd6caae0	-0.057780147
2	0xbd12c61a	-0.035833456
3	0x3d120fab	0.035659473
4	0xbdddf515	-0.10837761
5	0x3d315233	0.043291282
6	0xbe122660	-0.14272451
7	0xbdf60b0f	-0.12013828
8	0xbe7b4925	-0.24539621
9	0xbe9b0fc5	-0.3028547
10	0xbd855709	-0.06510741
11	0xbe6a6704	-0.2289086
12	0xbd9bcecf	-0.07607805
13	0x3dfa07a8	0.122084916
14	0xbcb81348	-0.022470132
15	0xbd283d5d	-0.041074146
16	0xbe18762a	-0.14888826
17	0xbd5fd688	-0.054647952
18	0xb9953be0	-0.00028464105
19	0xbd444ce2	-0.047924884
20	0x3de2d09d	0.11074946
21	0xbd9b33a1	-0.07578207
22	0xbdf306f8	-0.118665636
23	0xbd17bdd5	-0.037046272
24	0x3d2ab688	0.04167798
25	0xbe503047	-0.20330916
26	0xbe481e3c	-0.19542783
27	0xbe262995	-0.162268
28	0xbdf86716	-0.12129037
29	0xbe4906c7	-0.19631492
30	0xbe4d095f	-0.20023106
31	0xbe3aa2e2	-0.18226197
32	0xbe4be382	-0.19911006
33	0x3e0910bc	0.1338529
34	0x3b0e492e	0.00217111
35	0x3d5877e8	0.052848727
36	0xbb7e63d1	-0.003881682
37	0xbb7f257c	-0.0038932255
38	0xbbbbbcd5	-0.0057292976
39	0x3d0e1d87	0.03469613
40	0xbe2423c1	-0.16029264
41	0xbe424b20	-0.1897397
42	0xbcc1947c	-0.023630373
43	0xbacaa48b	-0.0015460415
44	0xbdb775f8	-0.08958048
45	0xbe9964d3	-0.29959735
46	0xbe9b9d8b	-0.30393633
47	0xbdc48f8c	-0.09597692
48	0xbd4f0063	-0.05053748
49	0x3befe0cd	0.0073204995
50	0xbdfcdb2b	-0.123464905
51	0xbdd43c1d	-0.10363028
52	0x3dc571bb	0.09640833
53	0xbe6ca61c	-0.2311024
54	0xbe36f22f	-0.17865823
55	0xbe654761	-0.2239051
56	0xbe30e097	-0.17273174
57	0xbc998325	-0.018739292
58	0xbdc16c50	-0.09444487
59	0xbe6a5128	-0.22882521
60	0x3e1c4e4b	0.15264241
61	0xbd9aeb58	-0.075644195
62	0xbd90d2e0	-0.07071471
63	0xbe2195b5	-0.15779765
