experiment/IBM_HI_S/GTEA-Trans/GTEA-Trans_checkpoint.pt (torch_old, 538157 bytes, 64 tensors)

edge_in_layers.0.weight f4 [64, 11]
0.11843109 -0.09658633 0.073468015 -0.12933567 -0.07566763 0.043592576 0.1295199 -0.50896317
-0.0013336113 0.050779387 -0.034386728 0.20744659 -0.15286155 -0.012985657 -0.13843186 -0.3294216
-0.3447094 0.091901354 -0.2154261 0.14854747 -0.1518444 0.22871055 0.086154126 -0.17365307
-0.101812035 -0.2845312 -0.30523703 -0.24865055 -0.08823448 0.27679363 -0.06537926 -0.03550448
-0.12544285 0.20380227 -0.06555272 0.2052366 -0.3528022 0.076257534 -0.29511833 0.1577515
-0.32391036 -0.28968218 0.33746982 0.2946403 0.19127649 -0.34576046 0.14316988 0.13373795
0.34732252 0.1462427 0.14123082 -0.3192797 -0.1480869 -0.18952721 -0.16808799 0.24171601
-0.08714226 0.12824696 -0.19030443 -0.13166894 0.09082716 0.1823468 0.04155766 -0.23142186
0.13491286 0.2469498 0.02407703 0.16524604 0.16132213 -0.3429995 -0.13351148 0.37435427
0.24639766 -0.31199658 0.107664324 -0.3360489 0.019519793 -0.18469252 -0.24156933 -0.23098095
0.20948045 0.2892901 0.25845546 0.32965064 -0.110329 -0.012108443 -0.013353668 0.026075343
0.09850211 -0.11044838 -0.23231584 -0.29710814 -0.28517103 0.16740863 0.009799632 0.011887185
0.37820256 0.21853065 -0.004989649 0.02580438 0.29824385 0.02178998 -0.17838116 -0.5526611
0.16800162 -0.17685664 -0.046137318 0.14854953 -0.16498907 0.06976306 0.30145818 -0.033001944
-0.4351048 0.18600133 0.31476268 0.03124984 -0.05721701 0.021617906 -0.26600987 0.34822208
-0.03462154 0.05509523 -0.014703215 0.19475916 -0.1347084 -0.3665198 -0.26852927 -0.12569517
0.12055427 0.57265806 0.07316501 0.045189176 0.059898686 0.26048467 0.0019353573 0.093803
-0.32218203 0.12695278 -0.060024466 0.13507688 0.061734475 0.23250218 0.071187824 0.20072359
-0.40635768 0.029840494 -0.12031126 -0.45986664 -0.23149753 -0.0029063025 0.12873903 -0.067170314
0.5057766 0.38342673 0.32214475 0.22891957 -0.2187543 -0.069169305 0.1392533 0.023744302
-0.060935408 -0.29957396 0.08083949 0.3303326 0.41514933 -0.1406188 -0.172064 -0.11027776
-0.14284164 0.35347036 0.022806797 0.15150078 0.010236391 0.3938921 -0.24583843 -0.3059084
-0.32512465 -0.32290265 0.44415942 0.40066484 -0.3360178 -0.3592338 -0.25815684 -0.060001954
-0.052408323 0.15100394 0.0016760791 -0.18003601 0.19453244 0.22121215 0.07290452 -0.028324604
-0.0012414287 0.25795227 -0.07756215 0.091877505 -0.014856705 0.19974239 -0.10236158 -0.13908589
-0.15891267 -0.32542148 -0.35336253 0.1791226 0.01881453 0.1123533 0.10652712 -0.2713211
0.18091501 0.023857743 0.22890519 0.20258391 -0.016496109 -0.2454056 -0.1718289 -0.33091402
-0.012444624 -0.39813942 0.08231026 -0.011550825 -0.07280052 -0.26081786 -0.006687876 0.18416928
0.4148188 0.32536826 0.24814393 0.12551722 -0.016174082 0.14020178 0.035750784 0.21504498
0.19280626 -0.058570515 -0.01933989 -0.41098768 0.0029456613 0.114476636 -0.11549724 0.2541978
0.3034028 -0.28041127 0.03660354 0.21258256 -0.17842695 -0.41874284 -0.29738986 0.03333209
-0.15685888 -0.025768388 0.57224804 0.10719667 -0.08890177 -0.17941396 0.2635806 0.29700357
00000000: 008c f23d 0ecf c5bd 6676 963d 9270 04be
00000010: a1f7 9abd 218e 323d dda0 043e 694b 02bf
00000020: 92cc aeba 0cfe 4f3d 19d9 0cbd e16c 543e
00000030: bd87 1cbe cbc1 54bc 15c1 0dbe f3a9 a8be
00000040: c07d b0be c736 bc3d a998 5cbe d41c 183e
00000050: 197d 1bbe 1933 6a3e 9371 b03d 1cd2 31be
00000060: d482 d0bd 13ae 91be 0748 9cbe 409e 7ebe
00000070: 47b4 b4bd e5b7 8d3e 90e5 85bd 256d 11bd
00000080: 1774 00be 8bb1 503e 8140 86bd 8b29 523e
00000090: 7da2 b4be e92c 9c3d c019 97be 9c89 213e
000000a0: 94d7 a5be 3951 94be d8c8 ac3e 18db 963e
000000b0: fcdd 433e 8407 b1be 209b 123e 9af2 083e
000000c0: 42d4 b13e a5c0 153e d09e 103e a178 a3be
000000d0: 18a4 17be 6c13 42be 421f 2cbe 6784 773e
000000e0: a477 b2bd 2c53 033e 2adf 42be 39d4 06be
000000f0: 9703 ba3d 1fb9 3a3e 5d38 2a3d daf9 6cbe
00000100: 9926 0a3e 69e0 7c3e 313d c53c 4236 293e
00000110: a131 253e a19d afbe 3cb7 08be 5dab bf3e
00000120: ab4f 7c3e 04be 9fbe 1d7f dc3d 9a0e acbe
00000130: f9e7 9f3c 0920 3dbe f35d 77be 4586 6cbe
00000140: 0b82 563e d51d 943e 4654 843e f8c7 a83e
00000150: 2cf4 e1bd 7e62 46bc 58c9 5abc f59b d53c
00000160: 79bb c93d c332 e2bd 34e4 6dbe 8f1e 98be
00000170: f001 92be 2b6d 2b3e a38e 203c 78c2 423c
00000180: c4a3 c13e 80c6 5f3e 3680 a3bb b563 d33c
00000190: 6bb3 983e e680 b23c 8da9 36be 337b 0dbf
000001a0: 9e08 2c3e e819 35be 7cfa 3cbd 5e1d 183e
000001b0: e5f2 28be efdf 8e3d ba58 9a3e 0c2d 07bd
000001c0: 0ec6 debe 2277 3e3e 9328 a13e aaff ff3c
000001d0: 625c 6abd 0918 b13c 7232 88be 2a4a b23e
000001e0: 51cf 0dbd 89ab 613d c1e5 70bc f26e 473e
000001f0: 00f1 09be 7ca8 bbbe ab7c 89be 3cb6 00be
00000200: 28e5 f63d b899 123f 89d7 953d 4918 393d
00000210: 5358 753d 3f5e 853e d1ab fd3a ca1b c03d
00000220: 0bf5 a4be e9ff 013e 37dc 75bd 9851 0a3e
00000230: 4add 7c3d 0d15 6e3e ecca 913d 7c8a 4d3e
00000240: 1d0e d0be 0d74 f43c c065 f6bd a473 ebbe
00000250: b00d 6dbe aa77 3ebb 2ad4 033e 9790 89bd
00000260: 937a 013f 8250 c43e 28f0 a43e e469 6a3e
00000270: 2101 60be a3a8 8dbd 6b98 0e3e 6983 c23c
00000280: 6897 79bd c261 99be 2d8f a53d 5b21 a93e
00000290: 748e d43e 60fe 0fbe 8c31 30be 4ed9 e1bd
000002a0: 1445 12be 11fa b43e 52d5 ba3c 0523 1b3e
000002b0: 89b6 273c 3aac c93e 12bd 7bbe 07a0 9cbe
000002c0: bd76 a6be 7f53 a5be dd68 e33e f123 cd3e
000002d0: 860a acbe 7eed b7be 222d 84be 9cc4 75bd
000002e0: 1caa 56bd c7a0 1a3e e2af db3a 5c5b 38be
000002f0: 8333 473e 7085 623e f74e 953d 0009 e8bc
00000300: 6fb7 a2ba 5212 843e e8d8 9ebd 462a bc3d
00000310: 8a69 73bc 4589 4c3e f3a2 d1bd 886c 0ebe
00000320: 01ba 22be a59d a6be efeb b4be ea6b 373e
00000330: ee20 9a3c 7d19 e63d e42a da3d 99ea 8abe
00000340: c941 393e 5071 c33c 1f66 6a3e 2872 4f3e
00000350: d922 87bc 9b4b 7bbe eaf3 2fbe 906d a9be
00000360: 89e4 4bbc eed8 cbbe 4892 a83d ac3f 3dbc
00000370: 7018 95bd eb89 85be f825 dbbb df96 3c3e
00000380: 2163 d43e ab96 a63e 7119 7e3e 9687 003e
00000390: 827f 84bc 0e91 0f3e 6a6f 123d c034 5c3e
000003a0: 016f 453e a3e7 6fbd b06e 9ebc fa6c d2be
000003b0: ff0b 413b ba72 ea3d d189 ecbd 3726 823e
000003c0: 9d57 9b3e 1192 8fbe 98ed 153d 3eaf 593e
000003d0: 8eb5 36be 7665 d6be 7c43 98be 3b87 083d
000003e0: 9d9f 20be 3a18 d3bc d97e 123f ed89 db3d
000003f0: 2212 b6bd 4bb8 37be 09f4 863e da10 983e

edge_in_layers.0.bias f4 [64]
-0.25750467 0.2614855 0.17198125 0.091301136 -0.025209796 -0.08614539 0.11614883 -0.053994063
-0.089428954 0.34376866 -0.16873357 -0.36189225 -0.27659327 0.33083475 0.18190412 -0.17105892
0.3416078 -0.53820026 -0.1405063 0.6814543 -0.20979087 -0.24258913 -0.017818114 0.19867028
-0.15108807 -0.088661954 0.3809082 -0.12584868 -0.011629228 -0.2058412 -0.15377706 -0.2546342
0.41823182 0.4185478 0.19948019 -0.15872797 0.07771297 0.21551389 -0.16815378 0.342363
-0.06270946 -0.09518032 -0.18348289 0.16388397 -0.20523492 -0.2785763 -0.10799701 0.45897126
0.27918047 -0.030027026 0.069308676 -0.12758134 -0.13673079 -0.092274904 -0.110418394 0.14478491
-0.16860905 0.54278946 0.106435254 -0.24771003 0.00916858 0.07342543 0.033412706 -0.18203123
00000000: a7d7 83be 6de1 853e da1b 303e 17fc ba3d
00000010: c684 cebc ff6c b0bd 70df ed3d e128 5dbd
00000020: 8726 b7bd 7202 b03e 7ec8 2cbe f149 b9be
00000030: a29d 8dbe 2c63 a93e 1345 3a3e 122a 2fbe
00000040: 38e7 ae3e 7ec7 09bf e2e0 0fbe ca73 2e3f
00000050: 6bd3 56be 4969 78be 4bf7 91bc 3970 4b3e
00000060: d5b6 1abe 6694 b5bd 6606 c33e 7ade 00be
00000070: 8488 3ebc 09c8 52be bc77 1dbe 6a5f 82be
00000080: 7b22 d63e e64b d63e 8944 4c3e 9689 22be
00000090: fa27 9f3d acaf 5c3e 8130 2cbe 344a af3e
000000a0: d16d 80bd e6ed c2bd f0e2 3bbe 33d1 273e
000000b0: 1a29 52be 8ea1 8ebe 892d ddbd 48fe ea3e
000000c0: bef0 8e3e 3dfb f5bc b5f1 8d3d afa4 02be
000000d0: 2803 0cbe a0fa bcbd 0a23 e2bd 7f42 143e
000000e0: daa7 2cbe 40f4 0a3f bafa d93d b3a7 7dbe
000000f0: d037 163c 1260 963d c3db 083d 6566 3abe

edge_in_layers.1.weight f4 [64, 11]
0.10533196 0.260563 -0.22710526 0.26194945 -0.31371382 -0.051743317 0.021757826 0.3486249
-0.3332182 -0.046461076 0.35103452 0.08149876 -0.49198383 0.25837523 0.15730955 0.05166103
-0.12226526 0.0058462266 -0.40295413 -0.284561 0.4726111 0.050376803 0.073130414 -0.27059847
-0.12910132 0.04831339 -0.16684602 -0.23493305 0.17308095 0.2345565 -0.18252595 -0.26544046
0.0021577082 0.041632533 -0.05653106 0.01228195 -0.03589969 -0.050099038 0.01889345 0.19505394
0.0728163 0.56699604 -0.36587095 -0.15347192 0.15232593 -0.016609805 -0.22345081 -0.040611453
-0.32078812 -0.12170256 0.112541616 -0.055400185 0.39117736 -0.020390343 -0.04731135 -0.22024307
-0.2915297 -0.007921209 0.52098984 -0.0032582171 -0.051043864 0.35268688 -0.024159875 0.27438396
-0.2762363 -0.026524963 0.07656727 -0.2585718 -0.018940652 -0.32984722 -0.2121631 0.16239606
0.01877307 -0.33171389 -0.34897768 -0.24587484 -0.1562765 0.1413419 -0.30853486 0.22177388
0.063336305 0.12239905 -0.29779992 -0.08257493 -0.18014902 0.38551068 -0.4818224 -0.45055962
0.042556513 -0.3367194 -0.21350467 0.015024358 0.14127368 -0.3141629 0.23523502 -0.13346668
-0.24660958 -0.14924096 -0.2593895 -0.06256247 0.12990186 -0.34592542 0.15111913 0.1130608
0.17147678 0.118633665 0.03355473 -0.25399247 -0.059867274 0.27919972 0.12381521 -0.06837954
-0.3715854 0.2104217 -0.49983394 -0.08893419 0.16426674 0.043767486 -0.24791154 0.22849028
0.12670073 0.08967167 -0.4315073 -0.23036076 -0.074516825 -0.2699514 -0.11087047 -0.3976635
-0.41200742 -0.40329513 -0.12173085 0.18766633 0.03451249 -0.18907657 0.28654903 0.055460203
0.22755401 0.4719289 0.01928757 0.08333454 -0.033817146 0.07611231 -0.03133248 0.16369526
-0.32125294 -0.39557624 -0.17984958 -0.24224266 -0.19018161 -0.2744281 -0.26123047 -0.06599513
-0.36831087 -0.09926447 0.13459106 -0.16898867 -0.24949746 0.2653592 0.21537784 0.10173655
-0.32987866 -0.09667716 -0.29690796 -0.15076391 0.21481982 0.035370495 0.016701547 0.03658431
0.29535282 -0.2655245 0.3159766 0.23565204 0.11620151 -0.30543813 -0.27296624 -0.31840426
0.13982606 0.0066474983 -0.4554143 0.2263404 -0.39990747 -0.0611223 0.2394145 0.18830195
0.38084626 -0.2715251 -0.29931423 -0.3969375 0.18232296 0.24204849 -0.20261362 0.25385717
-0.1975858 0.29894647 0.21641076 -0.051279258 -0.013186151 0.107564025 0.02907873 -0.120387904
-0.32412225 -0.14732094 -0.45894995 -0.10257415 -0.15053706 -0.38748366 0.0013580504 -0.08527138
0.15034452 0.014324342 0.3044459 0.09541876 0.24316986 -0.45541096 -0.2594396 0.08262659
-0.2748819 -0.030046841 0.046715043 0.0975599 0.03153761 -0.13310073 -0.36840808 -0.08217434
-0.48395076 0.299225 0.13960968 -0.10237994 -0.015849097 0.15078375 0.08402257 0.19908503
-0.2161894 0.39288896 0.36384872 -0.51634055 0.089997284 -0.2570482 -0.01838006 -0.5113185
0.5026433 0.22893511 0.108303264 0.14430545 -0.026240261 -0.019829597 -0.29500353 0.012737647
-0.08900529 0.13933297 0.39832246 -0.21926922 -0.23794219 0.13617077 0.2031748 0.14219438
00000000: 48b8 d73d 8368 853e 488e 68be 3d1e 863e
00000010: 199f a0be cdf0 53bd 783d b23c f77e b23e
00000020: 939b aabe f84d 3ebd ccba b33e d2e8 a63d
00000030: 4ee5 fbbe c249 843e c115 213e 849a 533d
00000040: 3566 fabd b491 bf3b 0150 cebe fbb1 91be
00000050: 15fa f13e e857 4e3d 66c5 953d e28b 8abe
00000060: 2333 04be 43e4 453d afd9 2abe 4a92 70be
00000070: 223c 313e 942f 703e 15e8 3abe d0e7 87be
00000080: 5668 0d3b e086 2a3d 1d8d 67bd 3b3a 493c
00000090: 8e0b 13bd a634 4dbd 70c6 9a3c 38bc 473e
000000a0: b620 953d a726 113f 7053 bbbe be27 1dbe
000000b0: 54fb 1b3e 4911 88bc 4ad0 64be 3258 26bd
000000c0: 573e a4be 313f f9bd 387c e63d 4eeb 62bd
000000d0: 6648 c83e a609 a7bc 8cc9 41bd 6687 61be
000000e0: 6143 95be f5c7 01bc 975f 053f d087 55bb
000000f0: 5f13 51bd 6093 b43e eeea c5bc 0e7c 8c3e
00000100: d86e 8dbe e14a d9bc 4dcf 9c3d 8663 84be
00000110: 6d29 9bbc bce1 a8be 4941 59be 274b 263e
00000120: fbc9 993c 67d6 a9be 34ad b2be 9dc6 7bbe
00000130: f206 20be eebb 103e 48f8 9dbe b118 633e
00000140: 77b6 813d 5aac fa3d 3b79 98be 0b1d a9bd
00000150: fc78 38be a861 c53e 6db1 f6be c0af e6be
00000160: bd4f 2e3d 7c66 acbe f8a0 5abe ba28 763c
00000170: 0caa 103e f6d9 a0be 73e1 703e 7dab 08be
00000180: 3987 7cbe 9fd2 18be b3ce 84be c120 80bd
00000190: fe04 053e 231d b1be f9be 1a3e 6c8c e73d
000001a0: 9c97 2f3e 35f6 f23d af70 093d 4d0b 82be
000001b0: 6337 75bd 44f3 8e3e d492 fd3d 930a 8cbd
000001c0: 7140 bebe c978 573e 3cea ffbe 2123 b6bd
000001d0: 8a35 283e 8945 333d 86dc 7dbe 5bf9 693e
000001e0: d6bd 013e c8a5 b73d 86ee dcbe b1e3 6bbe
000001f0: 479c 98bd 1237 8abe 0f10 e3bd 8d9a cbbe
00000200: a3f2 d2be b37c cebe 064e f9bd 9a2b 403e
00000210: f85c 0d3d 4a9d 41be 8eb6 923e 3d2a 633d
00000220: eb03 693e aaa0 f13e f700 9e3c 4dab aa3d
00000230: d983 0abd c5e0 9b3d 7d56 00bd bb9f 273e
00000240: 447b a4be f888 cabe 7d2a 38be 760e 78be
00000250: f8be 42be d781 8cbe 00c0 85be 7428 87bd
00000260: 3e93 bcbe 2c4b cbbd 3dd2 093e 5e0b 2dbe
00000270: 437c 7fbe 29dd 873e 028c 5c3e 415b d03d
00000280: dbe5 a8be adfe c5bd 5204 98be db61 1abe
00000290: baf9 5b3e a7e0 103d afd1 883c 6ed9 153d
000002a0: 7c38 973e d4f2 87be afc7 a13e c54e 713e
000002b0: 0ffb ed3d 6362 9cbe 3bc2 8bbe e205 a3be
000002c0: 902e 0f3e 42d3 d93b 102c e9be c7c5 673e
000002d0: acc0 ccbe 605b 7abd 1329 753e 3ad2 403e
000002e0: 48fe c23e 5705 8bbe b73f 99be 643b cbbe
000002f0: dfb2 3a3e 8fdb 773e f279 4fbe 91f9 813e
00000300: ef53 4abe 830f 993e c89a 5d3e 330a 52bd
00000310: ba0a 58bc 874a dc3d 8436 ee3c ef8d f6bd
00000320: 5af3 a5be 4ddb 16be 7dfb eabe 6512 d2bd
00000330: 6326 1abe 4264 c6be 9c00 b23a c3a2 aebd
00000340: eaf3 193e a5b0 6a3c 55e0 9b3e e96a c33d
00000350: 8501 793e a02b e9be 44d5 84be 2138 a93d
00000360: 52bd 8cbe cb24 f6bc 4658 3f3d 7ccd c73d
00000370: 952d 013d 8f4b 08be fc9f bcbe 054b a8bd
00000380: 65c8 f7be 0534 993e d7f5 0e3e 93ac d1bd
00000390: f7d5 81bc 0e67 1a3e 0614 ac3d f2dc 4b3e
000003a0: c160 5dbe be28 c93e 614a ba3e e52e 04bf
000003b0: 7f50 b83d d29b 83be c891 96bc c5e5 02bf
000003c0: 3bad 003f f76d 6a3e 1ace dd3d cfc4 133e
000003d0: d1f5 d6bc ae71 a2bc b40a 97be 90b1 503c
000003e0: 6848 b6bd 4dad 0e3e ecf0 cb3e 1c88 60be
000003f0: 1ea7 73be 5a70 0b3e 0e0d 503e 679b 113e

edge_in_layers.1.bias f4 [64]
-0.11273691 -0.04491342 0.123005584 -0.23758523 -0.31808802 0.23388468 0.13826764 -0.21552365
0.15326965 -0.3278813 0.35537058 0.38483387 -0.11040375 0.37545162 -0.037375357 -0.18663315
-0.26759562 0.12380403 0.13111326 0.14843515 0.3672052 0.050076276 -0.17257664 -0.17288518
-0.2690193 -0.3617331 -0.4073018 -0.14762604 -0.31913993 -0.10965652 0.06411801 0.0018592564
0.46852735 -0.22225337 0.30034894 -0.054658897 0.0897671 -0.09019629 0.26789007 0.38662416
-0.08518884 -0.24269989 -0.04023062 -0.29535884 0.19904724 -0.027673323 0.31166643 0.2902101
-0.07338972 0.026414467 0.11308798 -0.3461424 0.35370737 -0.017652854 -0.0540515 -0.012073852
-0.36970815 0.31865668 -0.052403167 -0.1161749 -0.0648083 0.009893775 -0.12415476 -0.03668907
00000000: 9ce2 e6bd 22f7 37bd 5aea fb3d 8b49 73be
00000010: 6fdc a2be 777f 6f3e 0896 0d3e 3bb2 5cbe
00000020: b8f2 1c3e 0fe0 a7be 22f3 b53e f208 c53e
00000030: 5c1b e2bd 323b c03e e716 19bd c31c 3fbe
00000040: 4b02 89be f88c fd3d 8e42 063e 62ff 173e
00000050: 5202 bc3e c81c 4d3d eeb7 30be d008 31be
00000060: e6bc 89be 1535 b9be dd89 d0be 482b 17be
00000070: 4f66 a3be 9993 e0bd 4e50 833d 4bb2 f33a
00000080: d1e2 ef3e 6396 63be 56c7 993e 02e2 5fbd
00000090: d0d7 b73d d5b8 b8bd e328 893e 9af3 c53e
000000a0: 7d77 aebd 5286 78be ddc8 24bd 4639 97be
000000b0: 0ad3 4b3e 2ab3 e2bc be92 9f3e 6b96 943e
000000c0: 594d 96bd 2763 d83c ac9a e73d 9439 b1be
000000d0: 2219 b53e b89c 90bc 1b65 5dbd 68d1 45bc
000000e0: 634a bdbe f826 a33e b4a4 56bd 1bed edbd
000000f0: 37ba 84bd 8019 223c da44 febd 4747 16bd

edge_layers.0.transformer_encoder.layers.0.self_attn.in_proj_weight f4 [192, 64]
-0.17141281 -0.08617942 -0.0005030063 -0.22753567 -0.1290253 -0.27304116 -0.12595269 -0.1415981
0.025411537 0.13045752 -0.26293188 -0.1708958 -0.1840965 -0.0877029 -0.38573197 -0.10698701
-0.11792561 -0.08744909 -0.11875439 -0.0038447292 -0.15891512 -0.08411775 0.045105178 0.011698952
0.12662475 -0.22862901 -0.19857109 0.09248137 -0.056474555 -0.22511959 0.07687987 0.010330714
-0.24094696 -0.15985967 -0.11312571 -0.00035501883 -0.105638 -0.08133559 -0.023154894 -0.18200435
-0.16629775 0.07077118 -0.053725783 -0.008573137 0.21761723 -0.15269266 -0.19224833 -0.21632315
-0.13968644 -0.017502908 0.02047647 -0.09154128 -0.052582104 0.033193618 -0.12764895 0.004324911
-0.04438254 -0.25606886 0.16932945 0.08701056 -0.04062394 0.02819765 0.08346487 -0.16118239
0.08932595 0.086701706 -0.0068087066 0.2870038 0.008546811 0.24331973 -0.09437412 0.14062344
0.03150442 0.07786071 0.06775613 0.17958176 0.027935006 0.29221997 0.26434043 0.15017356
-0.051791757 -0.047346268 0.0054152524 0.22100219 0.014096568 -0.040483806 0.05783898 0.019357368
0.11701386 0.03889588 -0.006154567 0.12077627 0.047268685 0.196052 -0.11552708 0.14366019
-0.069903724 0.07012201 0.10363371 -0.082131155 -0.10176827 0.11939816 0.20681386 0.08965023
0.039061517 0.0022556463 0.09858353 0.3321375 -0.06893297 0.17449056 0.19138202 0.15810457
0.21915123 0.2414054 -0.038579725 0.08997895 0.10818949 0.07434349 0.02752 0.100984365
0.15361598 0.37511396 -0.07945388 0.071830675 0.06328614 -0.056850802 0.16246065 0.11056874
-0.11044199 -0.19855826 -0.19315651 -0.2164555 -0.24596742 -0.3201527 -0.20655124 0.20823866
-0.00034770067 -0.002985136 -0.12662128 -0.12999843 -0.04362015 -0.042347066 -0.23536898 -0.13923097
0.11994079 0.055460993 0.15247479 -0.17440316 0.15300716 -0.18675575 0.10847931 0.014248399
-0.06476446 -0.15500493 0.082904264 -0.3122969 0.006025231 -0.123207726 -0.26872894 0.036309704
0.06355636 0.077445306 -0.18014261 -0.16077535 -0.21972845 -0.007991214 -0.1568794 -0.026604237
0.15063454 -0.028327163 -0.035445046 -0.083030514 -0.20223345 0.036525298 -0.27014652 -0.17198358
-0.052026305 0.16473578 -0.112310514 0.0544793 -0.24729258 0.027805975 0.0003331951 -0.24984972
-0.042284608 0.081848405 -0.23678982 0.0636389 -0.13066241 -0.13219279 -0.11051541 -0.115049124
-0.08665665 -0.18857858 -0.24246445 -0.25867453 -0.035507668 -0.36531147 0.061362673 -0.35080796
0.003490765 0.06537701 -0.2733955 -0.018364906 -0.15531576 -0.31635827 -0.28454217 -0.4119126
0.044675216 0.02924799 -0.12178708 0.06697327 -0.2670076 -0.05952832 -0.16226017 0.07715065
-0.031019283 -0.16722272 -0.04924966 0.041055206 -0.31840962 -0.023960818 0.08862385 -0.15767477
-0.31492895 -0.34917873 -0.07030058 0.028325055 -0.0417072 -0.0512686 -0.0800544 -0.14140397
-0.19332132 -0.13533653 -0.25544575 -0.32329628 -0.062142525 -0.16787685 0.12923601 -0.012480432
-0.32999045 -0.43806973 0.045813993 -0.16654107 -0.05122957 -0.09339516 -0.3093999 -0.10233537
-0.045373652 -0.47422403 0.13884215 -0.2519001 -0.044597726 -0.060282543 -0.09518973 -0.24469776
00000000: d786 2fbe d67e b0bd 2edc 03ba 1cff 68be
00000010: 351f 04be 0dcc 8bbe bef9 00be 18ff 10be
00000020: db2b d03c a896 053e 029f 86be 4fff 2ebe
00000030: cb83 3cbe 949d b3bd a97e c5be 011c dbbd
00000040: fb82 f1bd 8218 b3bd 8035 f3bd daf7 7bbb
00000050: a5ba 22be ed45 acbd 35c0 383d f6ac 3f3c
00000060: eba9 013e b91d 6abe 3856 4bbe df66 bd3d
00000070: dd51 67bd c085 66be 3173 9d3d 2842 293c
00000080: cdba 76be 41b2 23be 74ae e7bd d221 bab9
00000090: bc58 d8bd 4693 a6bd 55af bdbc 595f 3abe
000000a0: f549 2abe 7bf0 903d 910f 5cbd 5876 0cbc
000000b0: 0dd7 5e3e 775b 1cbe bfdc 44be d183 5dbe
000000c0: f609 0fbe 4262 8fbc 45be a73c ff79 bbbd
000000d0: 5560 57bd 08f6 073d 68b6 02be fcb7 8d3b
000000e0: 77ca 35bd 751b 83be b364 2d3e 9832 b23d
000000f0: 4a65 26bd c2fe e63c a1ef aa3d ff0c 25be
00000100: 86f0 b63d aa90 b13d 921b dfbb 29f2 923e
00000110: ec07 0c3c cf28 793e 3847 c1bd 97ff 0f3e
00000120: c70a 013d 7075 9f3d bac3 8a3d 48e4 373e
00000130: f4d7 e43c db9d 953e a157 873e 19c7 193e
00000140: 9823 54bd 29ee 41bd 6e72 b13b 664e 623e
00000150: 4bf5 663c 59d2 25bd 91e8 6c3d 5893 9e3c
00000160: f6a4 ef3d 4951 1f3d 40ac c9bb 8d59 f73d
00000170: cf9c 413d dbc1 483e 7699 ecbd a81b 133e
00000180: af29 8fbd 219c 8f3d e93d d43d 6134 a8bd
00000190: e26b d0bd 0687 f43d 03c7 533e 8a9a b73d
000001a0: f8fe 1f3d 77d3 133b 29e6 c93d ed0d aa3e
000001b0: bb2c 8dbd a7ad 323e a6f9 433e 2ae6 213e
000001c0: 2e69 603e fa32 773e c605 1ebd e246 b83d
000001d0: 7492 dd3d 6641 983d 9f71 e13c e4d0 ce3d
000001e0: 824d 1d3e f00e c03e b7b8 a2bd f61b 933d
000001f0: 2a9c 813d 63dc 68bd 165c 263e dd71 e23d
00000200: 692f e2bd db52 4bbe d2ca 45be 83a6 5dbe
00000210: e2de 7bbe 0eeb a3be 2b82 53be 843c 553e
00000220: 984b b6b9 45a2 43bb 02a9 01be 4f1e 05be
00000230: 0bab 32bd 1e74 2dbd 9104 71be 9092 0ebe
00000240: 84a3 f53d 112b 633d 5a22 1c3e be96 32be
00000250: e9ad 1c3e e63c 3fbe 672a de3d 1e72 693c
00000260: 3ba3 84bd 9db9 1ebe b6c9 a93d 61e5 9fbe
00000270: 4d6f c53b 5554 fcbd d796 89be 7cb9 143d
00000280: d629 823d a59b 9e3d 4e77 38be 4ba2 24be
00000290: 7f00 61be 95ed 02bc fea4 20be 21f1 d9bc
000002a0: f13f 1a3e 5e0e e8bc d32e 11bd e70b aabd
000002b0: 4916 4fbe 8d9b 153d a550 8abe 771c 30be
000002c0: 8919 55bd 7fb0 283e 0e03 e6bd b025 5f3d
000002d0: 443a 7dbe 5bc9 e33c b0b0 ae39 9bd8 7fbe
000002e0: a032 2dbd 23a0 a73d 0879 72be 1d55 823d
000002f0: 5ecc 05be 8c5d 07be e755 e2bd e09e ebbd
00000300: 0b79 b1bd be1a 41be 9a48 78be fd70 84be
00000310: 7d70 11bd 1b0a bbbe 6d57 7b3d 1a9d b3be
00000320: 52c5 643b 62e4 853d 7ffa 8bbe 0072 96bc
00000330: 180b 1fbe b6f9 a1be 83af 91be 35e6 d2be
00000340: 5cfd 363d 7b99 ef3c 816b f9bd 4829 893d
00000350: 38b5 88be f8d3 73bd 8827 26be 2901 9e3d
00000360: 271c febc 6f3c 2bbe 03ba 49bd 8129 283d
00000370: 9606 a3be 7a49 c4bc 6c80 b53d 7f75 21be
00000380: 5e3e a1be 8ec7 b2be c0f9 8fbd f209 e83c
00000390: 2bd5 2abd 06ff 51bd 90f3 a3bd 34cc 10be
000003a0: 06f6 45be a995 0abe c9c9 82be 1787 a5be
000003b0: 2989 7ebd e9e7 2bbe 7256 043e ba7a 4cbc
000003c0: 82f4 a8be ad4a e0be 74a7 3b3d be89 2abe
000003d0: 19d6 51bd f645 bfbd aa69 9ebe 3595 d1bd
000003e0: b9d9 39bd 7ecd f2be a32c 0e3e 0df9 80be
000003f0: 1bac 36bd d4ea 76bd d5f2 c2bd 0d92 7abe

edge_layers.0.transformer_encoder.layers.0.self_attn.in_proj_bias f4 [192]
-0.1557969 0.2094511 -0.10944632 -0.19837716 -0.30660465 -0.19627449 0.21699075 0.04518617
-0.16539393 -0.038054783 0.12985167 -0.052255634 -0.19980729 0.15083843 -0.14282803 -0.014748489
-0.185565 0.092683196 0.22373654 -0.12620974 0.118317835 -0.20181744 0.11174292 -0.206024
-0.15739079 0.12139541 0.039696425 0.12272459 0.04814024 -0.122072 0.20840845 -0.08710094
0.2301132 0.19409128 -0.07376647 -0.17775267 0.09123723 0.17240216 -0.09668233 -0.05718132
0.14355296 -0.15615809 0.15947321 -0.13550194 0.10550088 -0.051882483 0.26756242 0.13968207
0.16296257 -0.23298934 0.1358667 0.06177226 0.019802965 0.15077624 0.13784346 0.20261848
-0.011296641 -0.272553 -0.23622836 0.1980136 -0.11683564 -0.23590119 0.24677707 -0.2504276
2.4628493e-05 -1.2328951e-05 3.5146593e-05 2.9504543e-05 2.5871186e-05 1.4212339e-05 -5.2705404e-06 3.308335e-05
4.2500633e-05 2.9999963e-05 -1.2517406e-05 1.5623906e-05 1.1056709e-05 -1.9826046e-05 -1.8252233e-05 4.2523752e-05
-0.00020588037 5.679262e-05 0.0002709349 -5.9463246e-06 0.00016164189 -0.00023680326 -6.9068556e-05 -0.00021093039
-0.00011910004 0.00018867852 -0.00010402645 0.00016167255 -2.4556344e-05 -0.00012738207 5.0111914e-05 -0.00014841183
-0.00018532271 -0.000108006316 -8.884164e-05 6.795949e-05 -0.00011342748 -0.00013469014 3.216298e-05 -3.3675067e-06
-0.00026228887 1.7659155e-05 -0.0001258999 0.00013871597 -0.000108707536 3.541431e-05 -0.000117646945 -0.00010994847
4.395554e-05 0.00017374063 -0.00030326613 -0.00027412927 -3.3880533e-05 -0.00024902588 -0.0002576326 -0.00020764173
-4.5436474e-05 0.00027139505 0.0002850616 -0.0003029607 0.00027685083 0.0003611531 -0.00042149232 0.00037348887
0.006703278 0.033383265 0.05685218 0.10005438 0.24310537 -0.2455341 0.118073374 -0.107094795
-0.023759361 0.010937574 0.14931284 0.13924283 0.12509233 -0.036581837 -0.054615762 -0.075336725
0.008904427 -0.013618883 0.011382637 0.0142918015 -0.26940745 0.18589035 -0.034001056 0.24935062
0.18175286 0.14906232 0.021091567 -0.11485848 -0.00012038394 -0.24155249 -0.15437068 -0.18969886
-0.16074258 0.05875815 0.0670721 -0.01939046 0.055938676 0.14386733 -0.09556473 -0.12622161
0.11637782 -0.054842573 0.09243867 0.053332157 -0.06654234 0.15961067 -0.07971872 -0.21074985
-0.06514454 0.044650335 0.04597196 -0.08391966 -0.025751768 -0.013464558 0.11320821 0.007294713
-0.10266002 0.0014165329 0.06630988 0.05980666 0.14944446 -0.094150625 -0.07729651 0.016752731
00000000: 3989 1fbe 597a 563e 6425 e0bd 6223 4bbe
00000010: 49fb 9cbe 2efc 48be d332 5e3e 2215 393d
00000020: 075d 29be 55df 1bbd d6f7 043e 010a 56bd
00000030: 489a 4cbe 6475 1a3e 8341 12be a5a3 71bc
00000040: c004 3ebe b0d0 bd3d 311b 653e 203d 01be
00000050: 9f50 f23d 3ba9 4ebe 79d9 e43d f5f7 52be
00000060: 0d2b 21be 289e f83d b898 223d 0857 fb3d
00000070: b32e 453d e200 fabd 0669 553e fa61 b2bd
00000080: cba2 6b3e ddbf 463e e012 97bd cc04 36be
00000090: 96da ba3d 318a 303e 6301 c6bd f636 6abd
000000a0: 8cff 123e e8e7 1fbe f24c 233e 05c1 0abe
000000b0: d810 d83d ba82 54bd f1fd 883e d108 0f3e
000000c0: a9df 263e c294 6ebe a420 0b3e e904 7d3d
000000d0: d439 a23c 1665 1a3e d626 0d3e 387b 4f3e
000000e0: 8c15 39bc 118c 8bbe d9e5 71be 14c4 4a3e
000000f0: 8647 efbd 1590 71be 21b3 7c3e 0c38 80be
00000100: 4999 ce37 71d8 4eb7 5e6a 1338 8680 f737
00000110: f305 d937 8871 6e37 99d9 b0b6 fac2 0a38
00000120: b542 3238 6ea8 fb37 d901 52b7 1510 8337
00000130: 3480 3937 1c50 a6b7 5f1c 99b7 885b 3238
00000140: 97e1 57b9 9d34 6e38 440c 8e39 8a86 c7b6
00000150: 6a7e 2939 644e 78b9 e6d8 90b8 322d 5db9
00000160: 59c5 f9b8 01d8 4539 c628 dab8 a586 2939
00000170: 59fe cdb7 dd91 05b9 422f 5238 ff9e 1bb9
00000180: 3053 42b9 7381 e2b8 7e50 bab8 7985 8e38
00000190: eadf edb8 9c3b 0db9 bde6 0638 53fd 61b6
000001a0: d183 89b9 bf22 9437 ff03 04b9 4974 1139
000001b0: eaf9 e3b8 d389 1438 39b9 f6b8 2394 e6b8
000001c0: e75c 3838 252e 3639 b1ff 9eb9 02b9 8fb9
000001d0: f21a 0eb8 b08f 82b9 dd12 87b9 67ba 59b9
000001e0: 0b93 3eb8 074a 8e39 5274 9539 b2d6 9eb9
000001f0: 4a26 9139 2659 bd39 befb dcb9 d4d0 c339
00000200: 2ca7 db3b e4bc 083d d5dd 683d 50e9 cc3d
00000210: 9df0 783e 4b6d 7bbe 74d0 f13d 8454 dbbd
00000220: fea2 c2bc 8333 333c 77e5 183e ac95 0e3e
00000230: 3418 003e d6d6 15bd c7b4 5fbd 244a 9abd
00000240: e0e3 113c bc21 5fbc 3d7e 3a3c 2928 6a3c
00000250: c6ef 89be 0a5a 3e3e b144 0bbd c555 7f3e
00000260: 6c1d 3a3e cba3 183e 39c8 ac3c ec3a ebbd
00000270: a376 fcb8 8959 77be 5913 1ebe 6b40 42be
00000280: b499 24be 63ac 703d 195d 893d bed8 9ebc
00000290: f41f 653d f551 133e 71b7 c3bd 3d40 01be
000002a0: 7f57 ee3d 9ba2 60bd 7c50 bd3d d272 5a3d
000002b0: 5a47 88bd fb70 233e 9143 a3bd cfce 57be
000002c0: 806a 85bd 45e3 363d 184d 3c3d 12de abbd
000002d0: 5ff5 d2bc 739a 5cbc b5d9 e73d 7d08 ef3b
000002e0: 6b3f d2bd f5aa b93a 79cd 873d d4f7 743d
000002f0: f807 193e 0bd2 c0bd a24d 9ebd 063d 893c

edge_layers.0.transformer_encoder.layers.0.self_attn.out_proj.weight f4 [64, 64]
-0.28868136 0.26717862 -0.21346006 0.41075417 0.6444956 -0.5008457 0.31474414 -0.36188927
-0.040641457 0.0032436454 0.43268093 0.23739588 0.336796 0.30671424 -0.32308713 0.033390116
0.0063589048 -0.484061 0.0578577 0.029918235 -0.61436373 0.37039196 -0.086344406 0.43361303
0.6344963 0.2772239 0.24080443 -0.45937845 -0.3041135 -0.38962945 -0.37154227 -0.404294
-0.55232185 0.27223375 -0.063207604 -0.1654498 -0.040549632 0.47420588 -0.33767962 -0.2454855
0.20232743 -0.21636175 -0.15402246 0.26731008 -0.16343391 0.35441157 -0.3930983 -0.42434323
-0.20085616 0.14568345 -0.008873026 -0.3807369 -0.45557505 -0.302036 0.500554 -0.31870514
-0.25840056 -0.42905697 -0.016574038 0.4259566 0.10650764 -0.5188334 0.25510728 0.16612671
-0.04559108 0.16070127 -0.2195891 0.15055488 0.09947456 -0.068907596 0.033956233 -0.16274053
0.14114037 -0.080493085 -0.1759595 0.019086212 -0.10830907 0.13029261 -0.06293326 0.19698606
-0.020389605 -0.21827693 0.14244238 0.09488623 -0.11741075 -0.11594172 0.1148543 0.091384746
0.09751024 -0.088273786 0.009971459 -0.15851328 -0.20832622 0.014469043 0.1314485 0.291012
-0.111863606 -0.12065383 -0.119150475 -0.12629142 -0.19708739 0.07339015 -0.001985925 0.02838603
0.0312624 0.03519768 0.030559238 0.035240937 0.21399887 -0.08748033 -0.0051206336 -0.01960861
0.014394752 0.03215828 -0.13295013 -0.09526923 -0.21893437 0.026321376 0.15561579 -0.047086824
-0.041832 -0.21227804 -0.19837898 -0.08795948 -0.18094985 0.070868015 0.2048468 0.017934334
-0.13130376 -0.03889412 -0.08659964 -0.07581537 -0.011977316 -0.13006037 -0.09596851 0.0091810515
0.027336512 -0.01972958 -0.06890602 0.2340161 0.1127754 0.27770734 -0.1329159 0.020849794
-0.0016152903 -0.01970687 0.10312306 0.03071229 -0.087088995 -0.0020078297 -0.04640186 0.024056626
0.035132322 -0.17494112 -0.07234654 -0.032221865 -0.10419332 -0.112941615 0.06691932 -0.021761972
-0.03830123 0.028295264 0.04354612 0.071434245 -0.13502853 0.059619166 -0.09527475 -0.07870309
-0.08723127 0.0018264406 -0.30519596 -0.005741193 -0.08102009 -0.10442516 0.017411273 -0.011657699
-0.054659788 0.13185412 -0.13669565 -0.08880405 -0.11145295 -0.107592516 -0.04284745 -0.09956641
-0.09131278 -0.010989744 -0.20366639 -0.022974158 -0.15046056 0.028194923 -0.18790345 -0.055675685
-0.056440305 0.047732357 0.1867039 -0.040863212 0.13606188 0.08375563 0.047731884 0.05237495
0.06612695 -0.00037849718 -0.11140441 -0.0887198 -0.06929523 -0.052593715 0.043851435 0.008762522
0.118803315 -0.008895622 0.12611298 0.026206141 -0.00895513 -0.020596027 0.075645804 0.09110537
-0.09052257 0.0046581957 0.033683904 -0.055126674 0.009772972 -0.043346778 0.0042853593 0.108765684
-0.0886413 -0.10558614 0.16245854 -0.073462896 -0.04400609 -0.08383091 0.057065606 -0.0055719023
0.13110214 -0.06458459 0.12066495 0.00853093 0.079619475 0.08752844 0.0076699676 -0.021978602
0.04632123 0.094753474 0.03448866 0.07958216 0.17565732 -0.03464161 0.12054455 -0.042478375
0.13216764 0.11599482 0.07689005 0.0033570242 0.03828907 0.1264106 -0.0036711488 -0.041796368
00000000: 0bce 93be a3cb 883e 4695 5abe 5f4e d23e
00000010: aafd 243f 6c37 00bf 2526 a13e 8d49 b9be
00000020: a877 26bd 5793 543b 5b88 dd3e e817 733e
00000030: 8670 ac3e a609 9d3e ad6b a5be 13c4 083d
00000040: 5c5e d03b d8d6 f7be 32fc 6c3d 1617 f53c
00000050: f146 1dbf 04a4 bd3e 56d5 b0bd 8702 de3e
00000060: 596e 223f 4bf0 8d3e 7095 763e a733 ebbe
00000070: c4b4 9bbe 837d c7be ca3a bebe a0ff cebe
00000080: f764 0dbf 3962 8b3e fd72 81bd ac6b 29be
00000090: 5f17 26bd 1dcb f23e 58e4 acbe 8d60 7bbe
000000a0: ec2e 4f3e ef8d 5dbe 10b8 1dbe dedc 883e
000000b0: 385b 27be 6f75 b53e 2e44 c9be 8443 d9be
000000c0: 3dad 4dbe 0b2e 153e 2b60 11bc f2ef c2be
000000d0: 2241 e9be 76a4 9abe 4f24 003f 522d a3be
000000e0: 144d 84be 5bad dbbe 47c6 87bc fc16 da3e
000000f0: ad20 da3d 44d2 04bf 6c9d 823e 1f1d 2a3e
00000100: b6bd 3abd e08e 243e f7db 60be 0f2b 1a3e
00000110: 51b9 cb3d 6d1f 8dbd b115 0b3d 74a5 26be
00000120: 1a87 103e 8fd9 a4bd ba2e 34be b05a 9c3c
00000130: 25d1 ddbd 6d6b 053e 27e3 80bd b7b6 493e
00000140: 1a08 a7bc fd83 5fbe 6adc 113e b653 c23d
00000150: 0c75 f0bd da72 edbd bb38 eb3d ed27 bb3d
00000160: 73b3 c73d e3c8 b4bd 555f 233c 4e51 22be
00000170: 7853 55be 910f 6d3c 709a 063e 86ff 943e
00000180: bf18 e5bd 5b19 f7bd 2a05 f4bd 8a52 01be
00000190: 47d1 49be 934d 963d 4b26 02bb d289 e83c
000001a0: 010d 003d 712b 103d 5e57 fa3c cd58 103d
000001b0: 8522 5b3e e328 b3bd fdca a7bb 3ca2 a0bc
000001c0: f7d7 6b3c 67b8 033d 1424 08be 841c c3bd
000001d0: 5530 60be ed9f d73c bf59 1f3e 1dde 40bd
000001e0: 0858 2bbd 6a5f 59be dc23 4bbe 1a24 b4bd
000001f0: eb4a 39be 4023 913d 5cc3 513e 06eb 923c
00000200: 7e74 06be 714f 1fbd 275b b1bd 1745 9bbd
00000210: 813c 44bc 8c2e 05be 238b c4bd 1f6c 163c
00000220: d2f0 df3c ee9f a1bc 991e 8dbd eba1 6f3e
00000230: caf6 e63d a82f 8e3e 1b1b 08be 30cd aa3c
00000240: 26b8 d3ba 4d70 a1bc 2f32 d33d 5798 fb3c
00000250: b75b b2bd cb95 03bb e00f 3ebd 6712 c53c
00000260: e9e6 0f3d c423 33be 6c2a 94bd 13fb 03bd
00000270: 4f63 d5bd ef4d e7bd ff0c 893d 2a46 b2bc
00000280: c0e1 1cbd 78cb e73c 6b5d 323d 1e4c 923d
00000290: eb44 0abe 3a33 743d 681f c3bd 162f a1bd
000002a0: 4fa6 b2bd 2d65 ef3a a542 9cbe 9e20 bcbb
000002b0: dced a5bd dcdc d5bd 16a2 8e3c efff 3ebc
000002c0: f1e2 5fbd c404 073e f2f9 0bbe e6de b5bd
000002d0: 7241 e4bd 7759 dcbd cf80 2fbd 79e9 cbbd
000002e0: 3202 bbbd 540e 34bc ec8d 50be 4d34 bcbc
000002f0: 5512 1abe 0af9 e63c c369 40be 300c 64bd
00000300: f32d 67bd 0183 433d 4f2f 3f3e 2f60 27bd
00000310: ce53 0b3e 1288 ab3d 8282 433d 1e87 563d
00000320: 916d 873d 0871 c6b9 ff27 e4bd bab2 b5bd
00000330: a8ea 8dbd 826c 57bd 909d 333d ae90 0f3c
00000340: 274f f33d f1be 11bc c323 013e 43ae d63c
00000350: 8ab8 12bc 00b9 a8bc 30ec 9a3d 7495 ba3d
00000360: e663 b9bd c7a3 983b 22f8 093d 82cc 61bd
00000370: d11e 203c 648c 31bd 336c 8c3b 8bc0 de3d
00000380: 9289 b5bd 8c3d d8bd 885b 263e b773 96bd
00000390: bb3f 34bd 8aaf abbd a0bd 693d 8194 b6bb
000003a0: a43f 063e ed44 84bd 2f1f f73d 50c5 0b3c
000003b0: 890f a33d 1c42 b33d 5a54 fb3b 780c b4bc
000003c0: 54bb 3d3d 1c0e c23d fb43 0d3d f9fb a23d
000003d0: 83df 333e 5ce4 0dbd 10e0 f63d cefd 2dbd
000003e0: f456 073e b18e ed3d 8878 9d3d 8501 5c3b
000003f0: 00d5 1c3d c871 013e a897 70bb ab32 2bbd

edge_layers.0.transformer_encoder.layers.0.self_attn.out_proj.bias f4 [64]
0.35028955 0.024769425 0.054314658 0.09950376 -0.03453502 0.11982924 0.005590034 -0.04387889
0.025042381 -0.024044504 -0.060343474 0.1448891 -0.12061977 0.023752024 0.06528493 0.017793491
-0.028880276 0.05668855 -0.07110074 0.06489072 -0.3678657 0.11953192 -0.029924892 -0.1692826
-0.17000082 0.119253516 0.18201672 0.55743873 0.12444423 -0.13002844 -0.08147925 -0.07355942
-0.02632154 0.3677141 -0.16514947 -0.46302333 -0.022241794 -0.16343024 -0.053361427 -0.055224426
-0.0039079096 0.11085113 0.09425054 0.17532149 0.15506841 -0.06349817 0.10455239 0.10252614
0.1422822 -0.09826958 -0.23233365 -0.0014244071 -0.034222256 0.01900652 0.0325207 0.07533225
-0.04603465 0.009977685 0.10553328 -0.19480495 0.0024330372 -0.06390368 -0.018576778 -0.03839232
00000000: 2759 b33e 40e9 ca3c 0c79 5e3d a1c8 cb3d
00000010: 9874 0dbd 0869 f53d 9b2c b73b 5aba 33bd
00000020: ae25 cd3c fbf8 c4bc b82a 77bd cf5d 143e
00000030: 7f07 f7bd 9b93 c23c 1bb4 853d a8c3 913c
00000040: 5496 ecbc 4132 683d 449d 91bd 6de5 843d
00000050: e558 bcbe 27cd f43d 0c25 f5bc 6b58 2dbe
00000060: b214 2ebe 303b f43d 9762 3a3e 4eb4 0e3f
00000070: 9edc fe3d 2d26 05be 98de a6bd 52a6 96bd
00000080: 45a0 d7bc 0645 bc3e f11c 29be 6511 edbe
00000090: 6c34 b6bc 425a 27be 8391 5abd 0233 62bd
000000a0: ec0d 80bb eb05 e33d 6d06 c13d 7a87 333e
000000b0: 41ca 1e3e 540b 82bd 901f d63d 3af9 d13d
000000c0: 6db2 113e 9041 c9bd dfe8 6dbe 2cb3 baba
000000d0: a32c 0cbd 90b3 9b3c 6d34 053d cb47 9a3d
000000e0: d48e 3cbd 7279 233c d521 d83d f37a 47be
000000f0: 9773 1f3b efdf 82bd 542e 98bc 4441 1dbd

edge_layers.0.transformer_encoder.layers.0.linear1.weight f4 [64, 64]
0.055636678 -0.22064567 -0.014819105 -0.1871498 0.03288209 0.036460772 -0.10648221 -0.10387299
0.14980024 -0.11175397 0.099507205 -0.03703945 -0.024915187 0.079710856 -0.08356438 0.021893097
0.106414214 -0.0029262833 0.017441623 -0.05577813 0.13414124 -0.069323055 0.084877856 0.11892412
0.06613504 -0.020495845 -0.063599594 -0.056366064 -0.040308807 0.043462124 0.025461018 0.07190793
0.0031429606 0.015637306 0.0051828134 0.17658758 -0.06843378 0.14711262 -0.038966097 0.11027436
-0.039373662 0.1084865 0.08185952 0.036302358 -0.047046363 0.114319965 -0.2215258 0.019738995
-0.07004775 -0.10550344 0.09241079 0.06655737 0.042232286 0.16374819 0.03480583 -0.21068197
-0.1417936 -0.016156234 -0.013234694 0.10019016 -0.060757957 -0.0010998911 0.16256382 -0.034989726
-0.12321399 -0.057979327 0.08829601 -0.19674273 0.034998983 -0.1430522 0.012102722 0.070632905
0.13331088 0.10774034 -0.033752684 -0.08371394 0.18598542 0.07218241 0.03561788 0.08498523
-0.06056824 0.16159645 0.04543694 0.105503224 0.00699666 -0.14959249 0.07292818 0.0812263
0.032623835 0.031372555 -0.098881274 0.098349884 -0.011040585 0.004862837 -0.08088655 -0.04811501
0.06647758 0.002120769 0.059105743 0.06518819 -0.1147677 0.115172714 0.0065314947 0.10574006
-0.019448476 0.22471607 0.021545008 -0.1454813 0.055295575 -0.08043194 -0.08615968 0.02026474
0.097629316 0.1998329 -0.007566321 0.07732638 -0.09185103 -0.0639892 0.0508908 -0.018327279
0.005458693 0.17807613 -0.04092377 0.0075720493 0.051081106 0.048596628 0.016509663 -0.08510877
0.18550138 -0.11270939 0.12446405 -0.0809241 -0.0978082 0.11947623 -0.036968715 0.07207945
0.21693729 -0.12963144 0.06784585 0.033030387 0.072316974 0.057264443 0.069569185 0.13024214
0.03426854 -0.05267064 -0.04396136 0.06015283 -0.09345363 -0.037091542 0.026661726 -0.036269512
0.020738525 -0.079205945 0.114905715 0.13535812 -0.04513569 0.079997264 -0.04756513 0.019713433
0.02026684 0.117114834 -0.20886184 -0.067672275 -0.0703777 -0.057171352 0.15197773 -0.038478494
-0.030143684 -0.008740783 -0.09670601 0.18190639 0.029756462 -0.030006038 -0.10864827 -0.053783294
-0.02313143 -0.2236016 -0.20767874 -0.05093421 -0.2131475 0.08218201 0.14115496 0.12111797
0.086534 -0.09163644 -0.11176694 -0.12811655 -0.014761317 -0.028617335 0.0076470426 -0.080439135
0.22479415 0.06630565 -0.013509835 0.039400373 -0.12473518 0.022996435 0.025358764 0.06749107
-0.030344186 0.16873509 -0.048917286 0.053108346 -0.022587873 0.08257934 0.14195962 -0.09578095
0.02606704 -0.16093057 0.024334311 0.25935206 -0.097943194 0.05753969 -0.065495126 -0.050657924
-0.21137756 0.1567805 0.22586308 0.24922593 0.06700477 -0.010741225 -0.032218166 -0.09240495
0.16396017 0.18903446 -0.2258039 -0.06094164 -0.17534614 -0.04480693 0.024523683 -0.07389477
0.040484205 0.28763106 -0.17147642 0.07358787 0.16775177 -0.06765545 0.16135652 0.18550082
0.11014949 -0.20826893 -0.23064089 -0.011572065 -0.13318004 -0.14676121 -0.01292427 0.004242813
-0.12065936 -0.14180373 0.14678863 -0.05380787 -0.07699559 -0.15625508 -0.007300531 -0.011940245
00000000: 49e3 633d f0f0 61be d5cb 72bc 32a4 3fbe
00000010: 5faf 063d e457 153d 5813 dabd 5dbb d4bd
00000020: 3c65 193e 44df e4bd 6fca cb3d aeb6 17bd
00000030: ef1a ccbc 723f a33d cd23 abbd 2759 b33c
00000040: b2ef d93d e3c6 3fbb bce1 8e3c 9c77 64bd
00000050: 525c 093e 3ff9 8dbd 71d4 ad3d 7d8e f33d
00000060: cf71 873d e7e6 a7bc 8140 82bd 1ae0 66bd
00000070: d91a 25bd 5705 323d a093 d03c 7744 933d
00000080: 21fa 4d3b cf19 803c 97d4 a93b 60d3 343e
00000090: 0227 8cbd b1a4 163e ea9a 1fbd 86d7 e13d
000000a0: 4746 21bd 2c2e de3d f7a5 a73d c8b1 143d
000000b0: b0b3 40bd 9620 ea3d a9d7 62be acb3 a13c
000000c0: 3275 8fbd 3012 d8bd de41 bd3d 3b4f 883d
000000d0: c3fb 2c3d 9bad 273e 8f90 0e3d 04bd 57be
000000e0: 5732 11be 145a 84bc 54d6 58bc 8030 cd3d
000000f0: 56dd 78bd 392a 90ba 2177 263e 6351 0fbd
00000100: 9e57 fcbd bb7b 6dbd 8ad4 b43d ed76 49be
00000110: 185b 0f3d 477c 12be 7f4a 463c fca7 903d
00000120: a682 083e f8a6 dc3d 4140 0abd 3772 abbd
00000130: f672 3e3e 5fd4 933d 0ee4 113d bc0c ae3d
00000140: 6716 78bd 8a79 253e 161c 3a3d 1312 d83d
00000150: 3d44 e53b c62e 19be 5f5b 953d f959 a63d
00000160: 92a0 053d 8280 003d 4482 cabd aa6b c93d
00000170: 92e3 34bc 6f58 9f3b d9a7 a5bd 3f14 45bd
00000180: 6625 883d 99fc 0a3b dd18 723d 6381 853d
00000190: 540b ebbd acdf eb3d 2606 d63b 3f8e d83d
000001a0: 6952 9fbc f81b 663e 287f b03c 0df9 14be
000001b0: 9d7d 623d 80b9 a4bd 7c74 b0bd 3d02 a63c
000001c0: e1f1 c73d ffa0 4c3e e7ee f7bb 4b5d 9e3d
000001d0: 651c bcbd c50c 83bd df72 503d 1723 96bc
000001e0: d6de b23b 9759 363e af9f 27bd f41e f83b
000001f0: 6c3a 513d 420d 473d 463f 873c 824d aebd
00000200: 13f4 3d3e 2ed4 e6bd 02e7 fe3d 89bb a5bd
00000210: aa4f c8bd f4af f43d 826c 17bd 649e 933d
00000220: cf24 5e3e 1bbe 04be c4f2 8a3d df4a 073d
00000230: ec1a 943d 1f8e 6a3d 4a7a 8e3d 325e 053e
00000240: 2b5d 0c3d 2bbd 57bd d410 34bd d062 763d
00000250: 9e64 bfbd 4ded 17bd b169 da3c 578f 14bd
00000260: d7e3 a93c ba36 a2bd b053 eb3d 529b 0a3e
00000270: 34e0 38bd 9bd5 a33d a7d3 42bd 117e a13c
00000280: a506 a63c e7d9 ef3d e1df 55be c397 8abd
00000290: 2f22 90bd 822c 6abd 0da0 1b3e a09b 1dbd
000002a0: e3ef f6bc 8035 0fbc cd0d c6bd ab45 3a3e
000002b0: d3c3 f33c 39cf f5bc fc82 debd df4b 5cbd
000002c0: 207e bdbc d1f7 64be bca9 54be 64a0 50bd
000002d0: 5743 5abe 0b4f a83d ed8a 103e b30c f83d
000002e0: bd38 b13d e3ab bbbd 11e6 e4bd fc30 03be
000002f0: 73d9 71bc e76e eabc 0b94 fa3b 46bd a4bd
00000300: 7030 663e 42cb 873d 5b58 5dbc 4962 213d
00000310: 2875 ffbd 0563 bc3c 2fbd cf3c c238 8a3d
00000320: 5f94 f8bc e4c8 2c3e 7e5d 48bd 2388 593d
00000330: 340a b9bc 5b1f a93d dd5d 113e cd28 c4bd
00000340: 8c8a d53c fcca 24be c058 c73c cbc9 843e
00000350: 7196 c8bd bdae 6b3d 4f22 86bd af7e 4fbd
00000360: 5c73 58be 118b 203e a748 673e 1535 7f3e
00000370: cc39 893d f7fb 2fbc 32f7 03bd ce3e bdbd
00000380: 2de5 273e 4092 413e 2339 67be f19d 79bd
00000390: f08d 33be 7987 37bd e4e5 c83c 2456 97bd
000003a0: c4d2 253d 6144 933e 8497 2fbe 3db5 963d
000003b0: 1fc7 2b3e f18e 8abd a53a 253e edf3 3d3e
000003c0: 0e96 e13d 7344 55be 202d 6cbe c298 3dbc
000003d0: 5960 08be 9248 16be 51c0 53bc 4c07 8b3b
000003e0: 411c f7bd ff34 11be c24f 163e a465 5cbd
000003f0: ddaf 9dbd 5501 20be 4b39 efbb 04a1 43bc

edge_layers.0.transformer_encoder.layers.0.linear1.bias f4 [64]
-0.06445274 -0.09656227 0.07404464 0.27012813 -0.15470998 -0.20435217 0.008712127 -0.020918006
0.23633088 0.09888021 0.36083522 0.44496575 -0.15748829 -0.1352205 -0.106995836 -0.10115104
0.21003048 -0.046009876 0.045479264 -0.04885723 -0.11142041 0.083360486 -0.06636788 -0.3009705
0.46875396 -0.12455698 -0.17661859 -0.119138554 -0.26420236 -0.11090168 -0.17410065 -0.19903775
0.2520027 -0.10289537 -0.027921434 -0.07580383 -0.08975342 -0.09515953 -0.1369573 -0.003462813
-0.1811771 -0.10021906 -0.044308662 0.36115515 -0.16332953 -0.018327588 -0.1975291 0.0067210086
-0.21858382 -0.1855805 -0.074631 -0.24109218 -0.29212406 0.23761047 0.0075949277 -0.108301364
-0.008178561 0.077528656 -0.18860051 -0.0621701 -0.24664126 0.043951914 0.1764222 -0.11390696
00000000: ccff 83bd 70c2 c5bd b7a4 973d 3c4e 8a3e
00000010: 4b6c 1ebe b241 51be 4fbd 0e3c 3d5c abbc
00000020: b900 723e b581 ca3d 65bf b83e 8dd2 e33e
00000030: 9c44 21be 3e77 0abe a220 dbbd 4728 cfbd
00000040: 3b12 573e da74 3cbd 7748 3a3d 851e 48bd
00000050: 6230 e4bd e7b8 aa3d e2eb 87bd ce18 9abe
00000060: 8500 f03e bb17 ffbd 81db 34be eafe f3bd
00000070: 8845 87be 6c20 e3bd 7147 32be 8dd0 4bbe
00000080: 7f06 813e cfba d2bd 7ebb e4bc 0a3f 9bbd
00000090: a4d0 b7bd 00e3 c2bd 893e 0cbe 5df0 62bb
000000a0: 7d86 39be a73f cdbd 007d 35bd 54e9 b83e
000000b0: db3f 27be bd23 96bc 1245 4abe e83b dc3b
000000c0: 70d4 5fbe d108 3ebe 23d8 98bd dee0 76be
000000d0: 4991 95be 2950 733e dfde f83b 1bcd ddbd
000000e0: 5fff 05bc 58c7 9e3d 7e20 41be 13a6 7ebd
000000f0: 878f 7cbe ec06 343d 05a8 343e 0d48 e9bd

edge_layers.0.transformer_encoder.layers.0.linear2.weight f4 [64, 64]
-0.23648676 0.26978707 0.687607 0.7254714 0.05235664 0.2743217 0.42249873 0.44557774
-0.1214488 -0.124195114 0.71967506 0.7262071 -0.018251253 0.021019662 0.45315564 0.1185139
0.6591421 0.2637768 0.7049461 0.31026992 0.17380622 -0.06656034 0.5632144 -0.09518379
0.8071211 0.084347114 0.115768485 0.03124746 0.082120076 0.3135019 0.3422273 0.21490851
0.71694094 0.06203877 -0.006993838 0.5187835 0.5682637 0.106692895 0.5412242 0.68775946
-0.020351399 -0.107272014 -0.20548849 0.70737106 0.2747428 0.15007676 0.44016474 0.30268592
0.14870532 0.025181571 0.6053362 0.18644083 -0.050189096 0.67521656 0.5117884 0.08285458
0.4351719 0.6495911 -0.12644587 0.043585964 -0.06539995 0.60168785 -0.24718745 0.59970844
-0.04605377 0.07039142 -0.006733575 0.079022 0.063163206 -0.09200738 0.14314818 -0.02505352
-0.083919406 -0.20960535 0.15421133 0.101474844 -0.016993413 -0.0616366 0.0040338165 -0.039068956
-0.0370647 0.089190155 0.08347239 0.01124744 -0.06029993 -0.18809097 -0.088373415 0.037628893
0.07752917 -0.049948715 0.08826882 -0.14818472 -0.08364007 0.020410914 -0.017815027 -0.0072526275
0.06686655 -0.042083472 -0.062643334 0.0649574 0.027951036 0.10901157 -0.05745584 0.11897449
-0.17275329 -0.15270138 -0.07621501 0.075547695 -0.018605862 0.06808959 0.07161351 0.17238271
-0.107273325 -0.02198888 -0.042468563 -0.066221066 0.090004586 -0.04148509 0.019597061 0.09833731
-0.16311567 0.006002245 0.0011223088 -0.18620287 -0.067179576 -0.034068957 -0.23694667 0.13490796
-0.13755195 0.111451425 0.0331205 0.060088336 -0.0024612388 0.06482479 0.165296 0.017880226
-0.05781004 -0.08940912 -0.0068151345 0.011649019 -0.012753563 -0.12613247 0.052609865 -0.0021380372
-0.007850706 0.039665204 0.022240492 0.06329639 -0.040973995 -0.16866143 0.0865524 0.017381284
0.017259896 0.030323869 0.027617812 -0.157447 0.012489217 -0.006560535 -0.041411024 -0.06831352
0.14298914 0.05787683 -0.002630768 0.009262937 0.029319586 0.026833449 0.009737036 0.05809847
-0.07507268 0.040921517 -0.20881404 -0.03777128 0.16002251 0.15849562 0.113914415 0.059665475
-0.004654108 0.0400362 -0.015972752 0.042576153 0.055513445 0.07741196 0.12999772 0.09861683
0.17399491 0.10977036 0.050157137 -0.11318095 0.02960578 -0.084627695 -0.24818051 0.09728357
0.027971782 -0.028178865 -0.092424504 0.06502795 -0.02203564 -0.024247134 -0.07357432 -0.13397051
0.07868734 0.23283607 -0.12137226 0.02424569 0.11933043 0.1573679 0.087480016 -0.121285826
-0.07690942 -0.06747457 0.0150454035 -0.013110847 -0.19268116 0.1119281 0.05957914 0.06766727
0.033415828 0.08564674 -0.077768505 -0.046786975 0.060999464 -0.12516196 -0.060838934 -0.114208646
-0.0072922497 0.14798895 0.20681903 -0.024991319 -0.09517125 0.00747692 -0.08303894 0.032783866
0.072820514 0.11648683 0.08244217 -0.14884359 -0.014656785 -0.18148467 0.048112705 0.04027266
-0.23245257 0.026028045 -0.0067621977 -0.09461756 0.017587006 -0.065322414 -0.11295334 0.14067665
-0.17912169 -0.039142385 -0.08105467 0.07141693 0.20973891 -0.09358444 -0.017188305 -0.1417612
00000000: 9629 72be 8821 8a3e 0307 303f 7eb8 393f
00000010: eb73 563d e573 8c3e c151 d83e c422 e43e
00000020: 26ba f8bd 025a febd a03c 383f b5e8 393f
00000030: a783 95bc 6d31 ac3c 0404 e83e 6ab7 f23d
00000040: 89bd 283f c10d 873e 5977 343f b3db 9e3e
00000050: 42fa 313e ca50 88bd d22e 103f b8ef c2bd
00000060: 7d9f 4e3f 2ebe ac3d 0718 ed3d acfa ff3c
00000070: 922e a83d 5283 a03e 6b38 af3e fa10 5c3e
00000080: 7189 373f 5e1c 7e3d 912c e5bb ffce 043f
00000090: bb79 113f ce81 da3d ab8d 0a3f 0111 303f
000000a0: fab7 a6bc 6eb1 dbbd 936b 52be 4516 353f
000000b0: 17ab 8c3e b9ad 193e 465d e13e a6f9 9a3e
000000c0: 3546 183e 9549 ce3c 50f7 1a3f 58ea 3e3e
000000d0: 1593 4dbd feda 2c3f 9104 033f a9af a93d
000000e0: dace de3e 9a4b 263f 077b 01be 3287 323d
000000f0: 69f0 85bd 3708 1a3f b51e 7dbe 7e86 193f
00000100: e1a2 3cbd 6029 903d 52a5 dcbb 49d6 a13d
00000110: b65b 813d 5e6e bcbd 7095 123e 0a3d cdbc
00000120: f0dd abbd c9a2 56be 93e9 1d3e 0bd2 cf3d
00000130: c535 8bbc a976 7cbd 1b2e 843b c506 20bd
00000140: 28d1 17bd 54a9 b63d 93f3 aa3d 2f47 383c
00000150: 0ffd 76bd eb9a 40be 1ffd b4bd c120 1a3d
00000160: 9dc7 9e3d 0697 4cbd 48c6 b43d bcbd 17be
00000170: 7c4b abbd ca34 a73c d2f0 91bc 73a7 edbb
00000180: 54f1 883d b85f 2cbd 264b 80bd 6308 853d
00000190: 92f9 e43c 7541 df3d d156 6bbd e6a8 f33d
000001a0: 3de6 30be c05d 1cbe 9d16 9cbd c0b8 9a3d
000001b0: 526b 98bc 8e72 8b3d 1baa 923d 1885 303e
000001c0: 1eb2 dbbd 0622 b4bc 84f3 2dbd e99e 87bd
000001d0: 5354 b83d 45ec 29bd 048a a03c 1265 c93d
000001e0: cb07 27be 7bae c43b 6f1a 933a f7ab 3ebe
000001f0: 7295 89bd e48b 0bbd 26a2 72be 5025 0a3e
00000200: 6bda 0cbe a540 e43d 5da9 073d 301f 763d
00000210: bc4c 21bb dcc2 843d 5b43 293e 8d79 923c
00000220: 38ca 6cbd 211c b7bd 7e51 dfbb 87db 3e3c
00000230: 52f4 50bc df28 01be 717d 573d 501e 0cbb
00000240: 3fa0 00bc fb77 223d b131 b63c 8aa1 813d
00000250: 59d4 27bd 95b5 2cbe 6242 b13d 3263 8e3c
00000260: a064 8d3c c369 f83c c03e e23c c939 21be
00000270: 939f 4c3c c2f9 d6bb 9b9e 29bd f5e7 8bbd
00000280: bf6b 123e 4110 6d3d f768 2cbb 93c3 173c
00000290: a12f f03c d2d1 db3c 1788 1f3c a9f8 6d3d
000002a0: b5bf 99bd 529d 273d 59d3 55be 0fb6 1abd
000002b0: f1dc 233e ad4c 223e f64b e93d c963 743d
000002c0: 7d81 98bb 00fd 233d 4ad9 82bc 5564 2e3d
000002d0: 1162 633d 298a 9e3d 1f1e 053e 9ff7 c93d
000002e0: b92b 323e 48cf e03d 9271 4d3d 6acb e7bd
000002f0: d287 f23c 4951 adbd 0823 7ebe 9c3c c73d
00000300: 1425 e53c 5dd7 e6bc 0f49 bdbd 602d 853d
00000310: 1684 b4bc eda1 c6bc 22ae 96bd 912f 09be
00000320: d426 a13d 946c 6e3e 0592 f8bd e69e c63c
00000330: 8363 f43d 0d25 213e b928 b33d b464 f8bd
00000340: b082 9dbd 1b30 8abd ff80 763c e1ce 56bc
00000350: 364e 45be 8f3a e53d 4209 743d 2395 8a3d
00000360: 09df 083d 8f67 af3d 1845 9fbd b3a3 3fbd
00000370: 93da 793d 752a 00be 3f32 79bd 39e6 e9bd
00000380: d3f3 eebb 6a8a 173e 5ec8 533e 98ba ccbc
00000390: 25e9 c2bd f300 f53b 5210 aabd 6048 063d
000003a0: ec22 953d a690 ee3d 71d7 a83d 746a 18be
000003b0: 0323 70bc 1ed7 39be d411 453d f2f4 243d
000003c0: 0c08 6ebe c438 d53c 6d95 ddbb dac6 c1bd
000003d0: a012 903c c2c7 85bd 1554 e7bd 8a0d 103e
000003e0: ad6b 37be c453 20bd feff a5bd 0a43 923d
000003f0: ccc5 563e 33a9 bfbd 7dce 8cbc d929 11be

edge_layers.0.transformer_encoder.layers.0.linear2.bias f4 [64]
0.45781392 -0.056459453 -0.03546159 -0.06939068 -0.03078701 0.023006316 0.070802465 0.053938184
0.025165912 -0.0343092 0.042788632 0.120131336 0.05453507 -0.020278005 -0.08436501 0.094582744
-0.05000228 0.04729523 -0.052909877 -0.045473058 -0.15782477 -0.10853398 0.05225423 -0.105076976
-0.061018858 -0.008015805 0.12397905 0.44972 0.017933745 0.0018226412 0.15458268 -0.046190582
-0.0114225205 0.34687394 -0.12646909 -0.48288634 -0.12124704 -0.011991633 0.025873818 -0.1436618
0.055836555 -0.09407889 0.08602728 0.01889388 0.025999693 0.06659047 -0.022317946 0.0038727587
-0.04296203 -0.16937432 -0.16507858 0.019848723 -0.07457073 -0.00819603 -0.07275165 -0.13004427
-0.085480504 0.043047085 -0.083127275 0.08941256 -0.03313777 0.061095163 0.069794446 -0.031091072
00000000: 9666 ea3e 0742 67bd 2c40 11bd b31c 8ebd
00000010: 0a35 fcbc be77 bc3c e200 913d 49ee 5c3d
00000020: be28 ce3c ce87 0cbd 2243 2f3d 6b07 f63d
00000030: 2a60 5f3d 0f1e a6bc 90c7 acbd 99b4 c13d
00000040: 31cf 4cbd a5b8 413d 07b8 58bd f541 3abd
00000050: d19c 21be 1047 debd 8808 563d 9932 d7bd
00000060: e9ee 79bd b954 03bc bae8 fd3d b341 e63e
00000070: cae9 923c b1e5 ee3a ec4a 1e3e 5632 3dbd
00000080: 8625 3bbc 7699 b13e 1d81 01be e13c f7be
00000090: 5e50 f8bd 8e78 44bc 54f5 d33c 141c 13be
000000a0: dfb4 643d 6fac c0bd 122f b03d 57c7 9a3c
000000b0: 4ffd d43c 9660 883d 20d4 b6bc 1cce 7d3b
000000c0: f4f8 2fbd 7670 2dbe 5c0a 29be ca99 a23c
000000d0: 8ab8 98bd a448 06bc d1fe 94bd 532a 05be
000000e0: 6710 afbd 2452 303d a23e aabd ef1d b73d
000000f0: 78bb 07bd ec3e 7a3d 64f0 8e3d b4b2 febc
