experiment/IBM_HI_S/GTEA-LSTM+T2V/GTEA-LSTM+T2V_checkpoint.pt (torch_old, 561248 bytes, 32 tensors)

time_layers.0.w f4 [1, 31]
1.420883 1.0241092 0.11805799 -0.68331516 0.71482193 0.41837478 -0.41619176 -0.90970033
0.6808664 1.176889 1.937119 2.0568573 1.1434176 0.8460091 -0.637507 0.023741014
1.2407259 -1.3452107 -1.243904 -0.9323324 -1.724742 0.9752397 1.2279518 -1.9829007
0.23903832 2.395688 -0.26086098 -0.20905316 -1.0573874 -1.1694112 1.2653809
00000000: 7fdf b53f 0316 833f 63c8 f13d beed 2ebf
00000010: 92fe 363f 3835 d63e 1617 d5be 1fe2 68bf
00000020: 434d 2e3f 4ca4 963f 84f3 f73f 8da3 0340
00000030: 825b 923f 0d94 583f a933 23bf 847c c23c
00000040: 1bd0 9e3f dd2f acbf 3f38 9fbf 56ad 6ebf
00000050: 59c4 dcbf 4fa9 793f 862d 9d3f b1cf fdbf
00000060: 76c6 743e f452 1940 928f 85be 0812 56be
00000070: 7858 87bf 44af 95bf 00f8 a13f

time_layers.0.b f4 [1, 31]
-0.1646766 0.027760329 -0.40941778 -0.94200635 -2.763368 -0.20693094 -0.103543274 -0.029895354
0.004090195 0.8093704 -0.07374763 2.5614107 0.32373762 -0.016260922 -1.9277865 -0.18173909
-0.09245304 -0.29635605 0.08664148 -0.76612335 -0.13132347 0.030367967 -0.32331407 -0.14318755
-0.28590256 -0.010933766 -0.5027703 -0.31674746 0.27293408 -0.41450715 -0.15162219
00000000: fca0 28be a169 e33c 359f d1be 5427 71bf
00000010: 05db 30c0 b4e5 53be 7f0e d4bd 1ae7 f4bc
00000020: 0b07 863b e632 4f3f ff08 97bd 27ee 2340
00000030: f0c0 a53e a035 85bc b5c1 f6bf d019 3abe
00000040: 0558 bdbd fbbb 97be 1771 b13d a920 44bf
00000050: a979 06be 3ec6 f83c 6c89 a5be c29f 12be
00000060: d261 92be 8a23 33bc 8eb5 00bf b92c a2be
00000070: 04be 8b3e 483a d4be d942 1bbe

time_layers.1.w f4 [1, 31]
-0.21346836 0.5595669 1.0714121 -0.17027275 1.541308 -2.134631 0.20371018 1.4194648
2.1700432 1.6775604 -1.2936072 1.5053678 -0.0044852546 0.10879801 -2.0856915 1.7943448
0.77049816 -1.2613968 0.61830765 1.5122552 0.37464055 -1.2903388 2.1657612 -0.9645523
1.1995845 0.7072744 -1.0115651 -1.1571447 -0.9078922 -1.04723 0.915642
00000000: 7397 5abe c73f 0f3f 0824 893f fb5b 2ebe
00000010: 9549 c53f cb9d 08c0 6799 503e 06b1 b53f
00000020: fde1 0a40 4dba d63f ec94 a5bf e4af c03f
00000030: 0bf9 92bb 7ed1 de3d f87b 05c0 17ad e53f
00000040: 5e3f 453f 7375 a1bf 6949 1e3f 9491 c13f
00000050: e3d0 bf3e d229 a5bf d59b 0a40 e6ec 76bf
00000060: fc8b 993f ef0f 353f f77a 81bf 511d 94bf
00000070: a06b 68bf a20b 86bf 8467 6a3f

time_layers.1.b f4 [1, 31]
-0.08193568 0.000916015 -0.18316673 0.50746965 0.012287928 -0.57157373 0.040540688 2.7345004
0.43251288 -0.56537825 -0.9455249 0.2563749 -0.18448089 -0.27533007 -0.826526 -0.8588516
-0.22632629 -1.1188964 2.3182235 -0.96225697 -1.1486208 0.024056926 -0.41381016 -0.07425754
0.71818286 0.03519719 -0.17113599 1.031884 0.19429195 -0.12706569 1.4312135
00000000: e5cd a7bd ba20 703a 0f90 3bbe 88e9 013f
00000010: 4e53 493c a852 12bf fe0d 263d 0e02 2f40
00000020: 5472 dd3e a1bc 10bf eb0d 72bf 9243 833e
00000030: 8fe8 3cbe 10f8 8cbe 3597 53bf b3dd 5bbf
00000040: 14c2 67be ff37 8fbf c65d 1440 7956 76bf
00000050: 0206 93bf 0813 c53c edde d3be 5614 98bd
00000060: d5da 373f ee2a 103d 463e 2fbe c614 843f
00000070: 78f4 463e 821d 02be 0132 b73f

edge_layers.0.lstm.weight_ih_l0 f4 [256, 42]
0.14044453 0.2220376 -0.0651435 -0.19403553 0.121495426 0.07052428 -0.0717755 0.4157581
0.30440247 0.03759959 0.035204466 -0.057332344 -0.06965009 0.062581114 0.13066578 -0.03997616
0.029065156 -0.026564388 0.12290894 -0.18745299 0.029898075 0.021438947 -0.28335303 0.1093624
0.064403065 0.02905064 0.13176134 0.027022844 -0.2019264 -0.022757795 -0.09377508 -0.028759563
0.012248787 0.072888106 -0.052758325 0.033767942 -0.020793289 -0.040947177 -0.31401286 -0.07585665
0.081044726 0.10103719 -0.27462077 0.48572624 0.17106457 0.25542894 0.651249 0.5010581
-0.07099425 -0.026668075 0.48326623 -0.32010853 0.06633175 0.18997647 0.13322589 0.057083506
-0.11466601 0.15433621 0.32846472 0.19318874 0.2251632 -0.08310892 0.20670077 -0.07752423
0.037953466 0.04224875 0.09006641 0.06513961 0.15185244 0.21051191 0.23947453 0.23224899
0.13369013 0.12402086 0.26785278 0.2876929 0.21979144 0.21517949 0.11642564 0.091717854
0.13216753 0.05950425 0.04360093 0.36183366 -0.6072498 0.09247921 0.060472112 0.014665748
-0.12182821 -0.28420553 0.15508139 -0.016231352 0.29664856 0.07078616 0.08840556 -0.07495601
-0.08066877 -0.17972316 -0.32503232 -0.022166526 -0.09531935 0.08141701 0.014102934 0.20019148
-0.10834448 0.042274967 0.20913516 -0.13687076 -0.21726556 -0.0052202977 -0.084375165 0.072765
0.20550755 0.039104242 -0.016166613 0.06415583 0.0239596 0.022636198 -0.090057395 -0.09101519
-0.056001306 0.12036537 0.20151132 0.12600698 0.13277495 -0.15447228 0.102124594 0.3706316
-0.26858214 0.14249292 0.3077728 0.54971296 -0.30463868 0.4452868 0.22050495 -0.21930495
0.037221093 -0.11432238 0.031145036 0.21139047 0.22685488 0.12082352 -0.057121985 -0.03709609
-0.102353364 -0.13950337 0.0028218275 -0.018575925 -0.0005916432 -0.16021992 -0.022431087 0.009107254
0.12282406 0.034571294 -0.27281806 0.16312203 0.03642214 -0.007041956 -0.045190133 -0.016417155
0.12501965 -0.043407977 0.074886516 0.059689943 -0.1159051 0.031571202 -0.06994048 0.011129928
0.17052437 -0.0027775099 -0.24703772 0.04140352 -0.5765435 -0.42334944 0.5873134 0.08816222
0.2541044 -0.2741148 0.061868947 0.16392672 0.08135344 -0.06177533 -0.23338407 0.13552111
0.11305469 0.08041588 0.15328215 0.13606822 0.10503043 0.030864416 0.30372584 0.15764001
-0.115958355 0.14421181 0.050388176 0.15486358 0.41595706 0.028974248 0.119744495 0.01109447
0.08384672 0.0963906 0.046701577 0.061617944 0.009597349 0.06817929 0.3108367 0.15205434
0.033394873 -0.0075446125 0.30611897 0.14716478 -0.13416104 0.29476494 0.17834632 0.093595155
-0.06724282 0.30590147 0.07388208 -0.112412594 -0.0025556674 -0.021483304 0.122317895 -0.015055957
0.033949386 0.016784184 0.13542664 0.17539288 0.13942844 0.027196677 0.0744477 -0.075352825
-0.021162504 0.065118104 -0.118428975 0.14234771 0.13403386 -0.06514559 -0.12208066 -0.080745414
-0.06861711 0.11026431 0.00020458577 -0.033533026 0.053541586 0.12591243 0.055274308 0.08294911
-0.055241674 -0.09749371 0.01521366 -0.16918814 -0.26340184 0.45708823 -0.07667562 0.5288041
00000000: b1d0 0f3e d35d 633e f569 85bd 40b1 46be
00000010: 98d2 f83d 096f 903d 09ff 92bd 3fde d43e
00000020: a4da 9b3e 0702 1a3d 8f32 103d 52d5 6abd
00000030: b5a4 8ebd 872a 803d 40cd 053e 0bbe 23bd
00000040: 0d1a ee3c 8f9d d9bc afb7 fb3d adf3 3fbe
00000050: cfec f43c bba0 af3c a613 91be 65f9 df3d
00000060: c1e5 833d 9cfb ed3c 72ec 063e 035f dd3c
00000070: cbc5 4ebe 8e6e babc 260d c0bd 2d99 ebbc
00000080: 23af 483c 5c46 953d 1d19 58bd 4150 0a3d
00000090: b056 aabc 3ab8 27bd 4bc6 a0be bb5a 9bbd
000000a0: c7fa a53d 96ec ce3d 189b 8cbe 1cb1 f83e
000000b0: 8d2b 2f3e 95c7 823e 41b8 263f 5845 003f
000000c0: 6f65 91bd 0277 dabc ac6e f73e 44e5 a3be
000000d0: f1d8 873d 3189 423e 5e6c 083e 65d0 693d
000000e0: 03d6 eabd 500a 1e3e 872c a83e 45d3 453e
000000f0: 2f91 663e 0235 aabd 5ea9 533e 06c5 9ebd
00000100: 1875 1b3d 060d 2d3d bd74 b83d ea67 853d
00000110: 357f 1b3e 6f90 573e d038 753e aed2 6d3e
00000120: 11e6 083e a6fe fd3d 0024 893e 7c4c 933e
00000130: 0211 613e 0358 5c3e 9170 ee3d 92d6 bb3d
00000140: ed56 073e baba 733d e496 323d 4342 b93e
00000150: b974 1bbf bd65 bd3d 9bb1 773d 9b48 703c
00000160: 1281 f9bd 6383 91be a8cd 1e3e 9df7 84bc
00000170: 52e2 973e 56f8 903d f90d b53d 8982 99bd
00000180: ab35 a5bd 5909 38be a36a a6be 9396 b5bc
00000190: cb36 c3bd f6bd a63d fe0f 673c fffe 4c3e
000001a0: b6e3 ddbd 8428 2d3d 8727 563e d927 0cbe
000001b0: dd7a 5ebe 080f abbb e3cc acbd d105 953d
000001c0: 9270 523e c52b 203d d86f 84bc 2264 833d
000001d0: ec46 c43c 8c6f b93c 0370 b8bd 2c66 babd
000001e0: a061 65bd 1e82 f63d fc58 4e3e f907 013e
000001f0: 28f6 073e fb2d 1ebe b326 d13d 6dc3 bd3e
00000200: 9983 89be aae9 113e 6594 9d3e fdb9 0c3f
00000210: 9af9 9bbe a2fc e33e 0dcc 613e 7a91 60be
00000220: 2575 183d da21 eabd e023 ff3c be76 583e
00000230: a54c 683e 5272 f73d bef8 69bd 12f2 17bd
00000240: a49e d1bd f9d9 0ebe 69ee 383b 8a2c 98bc
00000250: 8118 1bba b110 24be 66c1 b7bc 9836 153c
00000260: 2e8b fb3d a19a 0d3d cfae 8bbe 7609 273e
00000270: 622f 153d 35c0 e6bb 4a19 39bd 457d 86bc
00000280: 2705 003e 90cc 31bd 1a5e 993d 717d 743d
00000290: a75f edbd ce50 013d f43c 8fbd 4d5a 363c
000002a0: f19d 2e3e e206 36bb 75f7 7cbe bd96 293d
000002b0: 5b98 13bf 42c1 d8be 2c5a 163f 658e b43d
000002c0: f919 823e c658 8cbe 4b6a 7d3d 68dc 273e
000002d0: a29c a63d 2108 7dbd 3cfc 6ebe 0cc6 0a3e
000002e0: 3889 e73d 15b1 a43d fff5 1c3e 7855 0b3e
000002f0: 321a d73d 5fd7 fc3c f481 9b3e 626c 213e
00000300: 937b edbd 43ac 133e d563 4e3d 8f94 1e3e
00000310: 53f8 d43e 675b ed3c 9a3c f53d 94c5 353c
00000320: d4b7 ab3d 6f68 c53d 274a 3f3d 1963 7c3d
00000330: 333e 1d3c 95a1 8b3d fd25 9f3e 22b4 1b3e
00000340: 10c9 083d cc38 f7bb a0bb 9c3e 5db2 163e
00000350: 8361 09be 6eeb 963e 6ba0 363e d1ae bf3d
00000360: 9bb6 89bd 1e9f 9c3e 7d4f 973d 9338 e6bd
00000370: fc7c 27bb c1fd afbc ce81 fa3d 43ad 76bc
00000380: 830e 0b3d fc7e 893c 48ad 0a3e 319a 333e
00000390: 54c6 0e3e 91cb de3c 0978 983d 9552 9abd
000003a0: fd5c adbc a45c 853d e48a f2bd 99c3 113e
000003b0: 2c40 093e 0d6b 85bd 6d05 fabd da5d a5bd
000003c0: 2187 8cbd 41d2 e13d 1386 5639 ed59 09bd
000003d0: 6c4e 5b3d 30ef 003e 5067 623d 39e1 a93d
000003e0: 1845 62bd c8aa c7bd b742 793c a83f 2dbe
000003f0: 9bdc 86be 7807 ea3e 1c08 9dbd b55f 073f

edge_layers.0.lstm.weight_hh_l0 f4 [256, 64]
-0.013542291 0.061975442 -0.6476629 -0.050973963 -0.1619164 0.008219172 0.13830386 -0.008691072
0.19155209 -0.031012496 -0.25657186 -0.27110445 -0.22516507 0.098081976 0.2144068 0.048300363
-0.18115692 -0.017380176 0.04147025 0.07960578 -0.20855446 -0.31259042 0.023401482 -0.48102796
-0.003593585 -0.035158277 0.2528212 -0.2778012 -0.11153454 -0.07897175 -0.3851277 0.03773395
-0.5703526 -0.14382944 0.05553119 0.28169894 -0.33681762 -0.09528213 0.14461415 0.10987768
-0.3331612 0.2799751 -0.32405683 0.1588143 -0.058859807 0.00040975347 -0.06479737 -0.16038543
-0.45478654 0.1208195 0.07772778 0.24165154 0.29698724 0.1433965 0.107977554 -0.29161337
0.009226088 0.357441 0.048353978 -0.020942405 -0.18724221 0.33418703 -0.28783044 -0.035293773
0.04208908 -0.20629652 0.112618856 0.31831402 -0.3461413 0.34186736 0.109054804 0.15697995
-0.046313036 -0.45867434 -0.6096617 -0.027384084 -0.29285812 0.3019636 0.06598994 0.28088656
-0.35975182 0.40644902 0.36769125 -0.6268009 0.42889982 0.37788793 0.052515745 -0.12661818
0.07084374 0.063318625 0.003969058 -0.004017328 0.14206679 -0.09573339 -0.23693626 0.2675651
0.34378028 0.47922784 -0.07977415 0.37212756 0.0036860749 0.18066475 0.50564444 -0.42872742
0.38258466 -0.044238452 -0.37630993 0.35456708 0.090080775 0.12988265 -0.31270662 -0.21660532
0.29790193 0.27111998 0.25919908 0.069843516 -0.19199426 0.37661794 0.3638618 -0.3913872
0.4663346 -0.29768863 -0.10468719 -0.28277114 -0.2989865 0.41528374 0.032515764 -0.06418279
0.018185422 -0.0029945683 0.26645985 0.21725023 0.28716385 0.35800043 0.13346732 0.3496133
0.1007264 0.23095965 0.060975485 0.13230829 -0.18315463 0.18531981 -0.24507478 0.4260857
-0.42905506 0.36752373 0.11673129 -0.5146324 0.73177433 0.98851407 -0.058182415 -0.42235804
-0.12070934 0.15567704 0.08559044 0.048167847 -0.16712202 -0.061349794 0.12662014 0.3995707
0.07943716 0.4704606 0.260751 0.11821068 -0.05443814 0.24471404 0.25311664 -0.05595376
0.25866482 -0.20899239 0.26508176 0.26283744 -0.16582412 -0.14318152 -0.18165419 -0.07236218
0.009598268 0.32256064 0.1277063 0.14777172 -0.42313156 0.42099217 0.47825357 -0.11711806
0.48159525 0.015736183 0.23657244 -0.4125138 -0.06761508 -0.11822937 0.46947142 -0.011733476
-0.2011879 -0.149279 -0.13892908 -0.23657107 -0.08740079 -0.15972981 0.12662028 -0.18548277
-0.061637744 -0.14475657 0.21497604 0.025451306 -0.09764633 0.26669595 0.3097049 -0.12003875
0.048321377 0.027741289 0.013215147 -0.04247826 0.05251429 -0.22685106 0.22010678 -0.15595272
0.05505429 0.19053546 0.013662931 -0.29569697 0.08858898 0.1213027 -0.38795337 -0.5373376
-0.22924256 -0.05959288 0.065425135 0.12917013 -0.16508177 0.06923333 0.21206678 -0.04544656
-0.159886 -0.090801395 -0.2831321 0.08489413 -0.07350338 -0.010007997 -0.12730849 -0.22934599
-0.08741071 0.16410644 -0.14382143 -0.05973273 0.012929878 -0.07089086 0.1567004 0.06800733
-0.21181548 0.16485319 -0.022482133 -0.2513903 -0.013653607 0.055141535 -0.16500047 -0.05936803
00000000: 7ce0 5dbc f6d9 7d3d 3ccd 25bf 13ca 50bd
00000010: 6acd 25be b5a9 063c 879f 0d3e 0065 0ebc
00000020: 3b26 443e eb0d febc 635d 83be 34ce 8abe
00000030: ac91 66be 34df c83d 758d 5b3e 9ad6 453d
00000040: 3381 39be df60 8ebc b5dc 293d 5b08 a33d
00000050: 4d8f 55be da0b a0be 77b4 bf3c 4c49 f6be
00000060: 5a82 6bbb 2002 10bd c871 813e f53b 8ebe
00000070: 396c e4bd f1bb a1bd 752f c5be ea8e 1a3d
00000080: a102 12bf 0648 13be ac74 633d d83a 903e
00000090: 5c73 acbe 4723 c3bd bb15 143e 8d07 e13d
000000a0: 1b94 aabe e558 8f3e c7ea a5be 37a0 223e
000000b0: fb16 71bd 2ed4 d639 7cb4 84bd 143c 24be
000000c0: c8d9 e8be 3770 f73d be2f 9f3d 8073 773e
000000d0: b60e 983e 88d6 123e 5623 dd3d 594e 95be
000000e0: 0529 173c 8202 b73e d20e 463d 688f abbc
000000f0: 6cbc 3fbe 901a ab3e 835e 93be 3490 10bd
00000100: 9965 2c3d 653f 53be b7a4 e63d 0efa a23e
00000110: 6f39 b1be 3d09 af3e 2058 df3d 5abf 203e
00000120: bdb2 3dbd 5dd7 eabe ca12 1cbf 9654 e0bc
00000130: 80f1 95be f99a 9a3e bc25 873d 5dd0 8f3e
00000140: 6431 b8be 161a d03e 0742 bc3e 0676 20bf
00000150: c298 db3e 877a c13e c01a 573d 32a8 01be
00000160: 8616 913d 32ad 813d df0e 823b caa3 83bb
00000170: f579 113e de0f c4bd 6b9f 72be 4bfe 883e
00000180: f803 b03e 5a5d f53e a160 a3bd 8187 be3e
00000190: 1392 713b 2e00 393e ea71 013f 2982 dbbe
000001a0: 23e2 c33e 6133 35bd b2ab c0be d189 b53e
000001b0: 457c b83d f5ff 043e 151b a0be c9cd 5dbe
000001c0: 9a86 983e 3dd0 8a3e beb5 843e 1e0a 8f3d
000001d0: 259a 44be 11d4 c03e 184c ba3e e763 c8be
000001e0: 69c3 ee3e a56a 98be 3d66 d6bd 61c7 90be
000001f0: c214 99be 12a0 d43e 402f 053d 4472 83bd
00000200: 98f9 943c 8540 44bb 6d6d 883e d876 5e3e
00000210: 2407 933e d54b b73e a8ab 083e 8400 b33e
00000220: a549 ce3d b080 6c3e 6ec1 793d d37b 073e
00000230: e38c 3bbe 7ac4 3d3e e2f4 7abe e827 da3e
00000240: 1bad dbbe 122c bc3e d110 ef3d f3be 03bf
00000250: 9055 3b3f 420f 7d3f af50 6ebd 503f d8be
00000260: 7536 f7bd cd69 1f3e 0a4a af3d a64b 453d
00000270: 0922 2bbe ec49 7bbd b6a8 013e 8894 cc3e
00000280: f3af a23d 36e0 f03e 2881 853e 7118 f23d
00000290: 87fa 5ebd 5196 7a3e 8198 813e c52f 65bd
000002a0: b76f 843e 1a02 56be ccb8 873e a192 863e
000002b0: cccd 29be 2d9e 12be 8e03 3abe 9f32 94bd
000002c0: 0e42 1d3c ab26 a53e 71c5 023e 7851 173e
000002d0: b3a4 d8be 498c d73e a7dd f43e 98db efbd
000002e0: a793 f63e 2be9 803c 0c40 723e 0235 d3be
000002f0: c679 8abd 3d22 f2bd 8f5e f03e c43d 40bc
00000300: 3304 4ebe 98dc 18be 6d43 0ebe b03f 72be
00000310: 2fff b2bd 3690 23be bfa8 013e 32ef 3dbe
00000320: dc77 7cbd 113b 14be ae22 5c3e 427f d03c
00000330: cdfa c7bd 5f8c 883e a491 9e3e e0d6 f5bd
00000340: a3ec 453d b341 e33c 5884 583c affd 2dbd
00000350: 3919 573d a54b 68be ac63 613e 12b2 1fbe
00000360: 9b80 613d ba1b 433e 7cda 5f3c 9865 97be
00000370: 246e b53d 8d6d f83d d3a1 c6be f58e 09bf
00000380: 90be 6abe aa17 74bd 9dfd 853d 2d45 043e
00000390: 320b 29be 34ca 8d3d 0928 593e 2c26 3abd
000003a0: 28b9 23be 15f6 b9bd b1f6 90be f9dc ad3d
000003b0: f188 96bd 95f8 23bc 285d 02be add9 6abe
000003c0: 6304 b3bd 850b 283e ed45 13be 4faa 74bd
000003d0: d7d7 533c 3a2f 91bd 1276 203e 6d47 8b3d
000003e0: 28e6 58be 46cf 283e 732c b8bc 3bb6 80be
000003f0: 61b3 5fbc 17dc 613d e2f5 28be e42b 73bd

edge_layers.0.lstm.bias_ih_l0 f4 [256]
-0.00042165373 -0.28376102 -0.08527299 -0.017381633 -0.0395134 0.020325176 0.12301329 -0.1622414
-0.124184765 -0.20661089 -0.578278 -0.18585569 -0.16403458 -0.087480806 -0.36799696 -0.40555337
-0.19338818 -0.18464282 -0.21092711 -0.39109766 -0.14206204 0.33137548 -0.5032349 -0.011216395
0.39877775 -0.4409742 -0.25356975 0.5653721 -0.29917717 -0.20641847 -0.29071674 -0.25402576
-0.13408658 -0.10686477 -0.17562056 -0.4532472 -0.37266174 -0.06631253 -0.34745035 -0.14942516
-0.108749166 -0.3339919 -0.101984724 -0.53874326 0.5453789 -0.005885752 0.1555476 -0.31565204
0.3353097 0.091380365 -0.33312058 -0.5812669 -0.075436674 0.07439618 -0.20447406 -0.43276924
-0.039794274 0.5043109 0.052286103 -0.21230924 -0.44798762 -0.59956837 0.30199888 -0.43439728
0.03672531 -0.069177665 0.16123505 -0.026998818 0.36185795 0.10383842 0.6009155 -0.05714703
0.24064419 -0.063425004 0.16247652 0.38883576 0.020982882 0.2245983 0.057001073 0.25125125
0.14680132 0.004887294 0.25731495 -0.23611413 0.14965354 0.11428597 -0.093818605 -0.11708072
-0.23260683 0.2903609 0.17364149 0.19591875 0.20790593 -0.05573943 -0.01366128 0.14908943
0.0017451117 -0.11315383 -0.16508247 0.0553852 0.18266182 -0.2964231 -0.19863018 0.023336558
0.0533884 0.15185925 0.1121785 -0.039733842 0.5119335 0.49809328 -0.1520884 0.137788
-0.038890786 0.0075153382 0.11727321 0.12101425 0.17865938 0.328871 0.2748496 -0.0777767
0.07001615 0.41512635 0.15582927 0.07285949 0.0023037249 0.06709424 0.16026264 0.22540517
-0.10686351 -0.09733428 -0.21362224 -0.37991068 0.012424061 -0.4068786 0.44970462 -0.08853081
0.12606223 0.00946454 -0.014242878 0.056433138 -0.14594987 -0.13048479 0.055685535 -0.007639711
0.20334114 -0.5577445 0.053154726 0.013786037 -0.048079837 -0.092950225 -0.040208858 0.39753821
-0.4179336 -0.10978204 0.110811755 -0.1810781 0.114882484 0.050337803 -0.080418445 -0.025534375
-0.03479027 0.07344292 -0.11086043 -0.03618708 -0.17197865 -0.034443107 -0.045315474 0.3718008
-0.1230797 -0.2782788 -0.2108806 -0.05372838 -0.32899162 -0.603508 0.16053167 -0.22710405
-0.098298885 -0.30142343 -0.245057 -0.10465019 0.22861847 -0.098771594 -0.001086547 0.22114155
-0.16037096 0.51356876 0.026911117 0.18177266 0.07851316 0.050351057 -0.07123935 0.11749376
-0.23451799 -0.24986343 -0.19486952 -0.23933077 0.20249663 -0.14709723 0.25501475 -0.21086244
-0.24209116 -0.599055 -0.34679535 -0.012074158 -0.39001828 -0.40032086 -0.32308728 -0.3433609
-0.41358694 -0.33674076 -0.44570723 -0.33645073 -0.02477567 -0.06709981 -0.18326685 -0.47501746
-0.19096798 -0.3358112 -0.5068286 0.7414677 -0.40888956 -0.29126972 -0.71175045 -0.114416786
-0.17826934 -0.39595065 -0.5327505 -0.6569885 -0.43199584 -0.18519296 -0.44698855 -0.18156753
-0.009174515 -0.14654529 -0.23835087 -0.49132255 0.47883007 0.18664628 -0.3543204 -0.29871958
0.43402803 -0.28369796 -0.16255578 -0.32350516 -0.06951646 0.005117931 -0.29999888 -0.45060223
-0.20767629 0.19742122 -0.23667595 -0.16533431 -0.18480928 -0.47465622 -0.20118816 -0.44788137
00000000: 6811 ddb9 2049 91be 9ba3 aebd ed63 8ebc
00000010: ced8 21bd fc80 a63c 64ee fb3d 9c22 26be
00000020: 9554 febd ce91 53be 070a 14bf f450 3ebe
00000030: aef8 27be 2329 b3bd 196a bcbe b1a4 cfbe
00000040: 8d07 46be 0213 3dbe 47fd 57be f43d c8be
00000050: b678 11be 0caa a93e 01d4 00bf f8c4 37bc
00000060: 992c cc3e 5fc7 e1be e5d3 81be 3abc 103f
00000070: c02d 99be 5d5f 53be d3d8 94be aa0f 82be
00000080: fe4d 09be ebdb dabd e0d5 33be 0410 e8be
00000090: 85cd bebe ddce 87bd 03e5 b1be e902 19be
000000a0: e2b7 debd fc00 abbe 5edd d0bd 14eb 09bf
000000b0: f49d 0b3f 44dd c0bb df47 1f3e 259d a1be
000000c0: b7ad ab3e a125 bb3d c88e aabe e8cd 14bf
000000d0: 8b7e 9abd 065d 983d a661 51be ee93 ddbe
000000e0: 52ff 22bd 851a 013f f429 563d 9867 59be
000000f0: a25e e5be 507d 19bf 999f 9a3e 5269 debe
00000100: 476d 163d 05ad 8dbd cd1a 253e a02c ddbc
00000110: 7245 b93e 3da9 d43d 99d5 193f 0113 6abd
00000120: 6e6b 763e f8e4 81bd 3f60 263e 7b15 c73e
00000130: 4be4 ab3c 19fd 653e f579 693d 01a4 803e
00000140: 1653 163e 9825 a03b c9be 833e e7c7 71be
00000150: c73e 193e c30e ea3d f823 c0bd 04c8 efbd
00000160: 7c30 6ebe 2faa 943e 13cf 313e ed9e 483e
00000170: 4be5 543e 074f 64bd 90d3 5fbc e6aa 183e
00000180: 3bbc e43a 32bd e7bd 610b 29be 97db 623d
00000190: b30b 3b3e c5c4 97be b665 4bbe 4f2c bf3c
000001a0: cbad 5a3d fe80 1b3e d7bd e53d f4bf 22bd
000001b0: 130e 033f 1506 ff3e 10bd 1bbe 4c18 0d3e
000001c0: f24b 1fbd 3a43 f63b f02c f03d 52d6 f73d
000001d0: 7cf2 363e c861 a83e 16b9 8c3e 6449 9fbd
000001e0: a164 8f3d 718b d43e b591 1f3e 5b37 953d
000001f0: 17fa 163b b468 893d e41b 243e 9dd0 663e
00000200: 42db dabd 3257 c7bd cabf 5abe a783 c2be
00000210: 4a8e 4b3c 6452 d0be af3f e63e a44f b5bd
00000220: 7516 013e 2811 1b3c f65a 69bc 6f26 673d
00000230: e273 15be ce9d 05be 8416 643d 8a56 fabb
00000240: a938 503e 58c8 0ebf c5b8 593d d5de 613c
00000250: 5def 44bd b05c bebd 0bb2 24bd 218a cb3e
00000260: 65fb d5be 68d5 e0bd 46f1 e23d 8a6c 39be
00000270: 8247 eb3d 032f 4e3d 6db2 a4bd 772d d1bc
00000280: 3e80 0ebd 3e69 963d cb0a e3bd e738 14bd
00000290: 2c1b 30be 3714 0dbd b89c 39bd ad5c be3e
000002a0: 3611 fcbd 8f7a 8ebe 16f1 57be 4a12 5cbd
000002b0: 9771 a8be 807f 1abf 6a62 243e f78d 68be
000002c0: ed50 c9bd 2c54 9abe 39f0 7abe d752 d6bd
000002d0: f61a 6a3e c348 cabd 786a 8eba ee72 623e
000002e0: 4938 24be 3e79 033f b474 dc3c 9d22 3a3e
000002f0: 82cb a03d e93c 4e3d f0e5 91bd 92a0 f03d
00000300: 7c25 70be 33dc 7fbe e08b 47be 2013 75be
00000310: 475b 4f3e a8a0 16be 4b91 823e 53ec 57be
00000320: bfe6 77be ab5b 19bf 298f b1be b0d2 45bc
00000330: 7ab0 c7be dbf6 ccbe b26b a5be 00cd afbe
00000340: abc1 d3be 4969 acbe bd33 e4be 4543 acbe
00000350: 59f6 cabc a06b 89bd 4eaa 3bbe 7d35 f3be
00000360: 1c8d 43be 72ef abbe 85bf 01bf d4d0 3d3f
00000370: f959 d1be 4e21 95be 4735 36bf 5953 eabd
00000380: 3d8c 36be 0bba cabe 5662 08bf 6630 28bf
00000390: 8f2e ddbe 39a3 3dbe afdb e4be d7ec 39be
000003a0: b450 16bc f80f 16be 4012 74be a18e fbbe
000003b0: 3729 f53e 3420 3f3e 7c69 b5be c6f1 98be
000003c0: ec38 de3e dc40 91be 0675 26be 78a2 a5be
000003d0: a55e 8ebd 51b4 a73b 7499 99be 56b5 e6be
000003e0: 18a9 54be ca28 4a3e 2e5b 72be 664d 29be
000003f0: a53e 3dbe 2406 f3be 4504 4ebe b550 e5be

edge_layers.0.lstm.bias_hh_l0 f4 [256]
-0.06920196 -0.339875 0.10549837 0.017274138 -0.08571229 0.031493552 0.0250657 -0.27573627
-0.22298566 -0.051214747 -0.41594797 -0.17264703 -0.23841083 -0.16925558 -0.34365556 -0.6298427
-0.14623363 -0.22404924 -0.2388643 -0.2748202 -0.22000496 0.18823272 -0.5040453 -0.07990149
0.216941 -0.44382626 -0.29220685 0.5130675 -0.18595764 -0.2308025 -0.1979251 -0.34802544
-0.28611967 -0.14940031 -0.19765358 -0.49400184 -0.42794988 -0.121630654 -0.2594802 -0.25288275
-0.14346345 -0.38423592 -0.12357624 -0.50807923 0.46948314 0.006375176 0.14357233 -0.33104044
0.20560363 0.074348785 -0.29103354 -0.36509582 0.12418887 -0.007851029 -0.28574753 -0.3742177
-0.23653714 0.4810449 0.00776936 -0.28127715 -0.31559733 -0.5614001 0.112434514 -0.34547842
-0.1928113 -0.048598405 0.29815075 -0.05381952 0.5112565 0.10920665 0.56563723 -0.027591271
0.052837007 -0.03949808 0.32686237 0.4551608 0.06321038 0.16637486 0.048010625 0.2887891
0.0899144 0.019202966 0.40882778 -0.17406046 0.038841646 0.11979889 -0.15668066 0.031844247
-0.1727589 0.32728362 0.2060353 -0.045013655 0.045771684 -0.06409262 0.090684965 0.030481458
-0.10204222 -0.2432488 -0.070151895 -0.016343214 0.2903369 -0.07282112 -0.24676503 -0.02739044
0.16063863 0.12256907 0.095411174 0.19053093 0.5823937 0.5618005 0.056375068 0.02985646
-0.03150669 0.13835672 0.1833641 0.14642718 0.09888347 0.2177613 0.2697759 -0.28901157
-0.025878381 0.38370016 0.17043166 -0.123385064 0.07225766 -0.0336694 0.16405065 0.015229457
0.031935893 0.07752348 -0.075608365 -0.31355095 -0.10170261 -0.3612033 0.62469226 -0.25241572
0.059981205 0.021132566 -0.08640655 0.09653034 -0.22179441 -0.06079277 0.02205663 -0.07340561
0.31518716 -0.47349447 -0.011941435 0.06650496 -0.19348302 -0.11090569 -0.19219396 0.5084713
-0.44945493 -0.064622305 0.074893646 -0.26184192 0.0115486225 0.04397791 -0.062567435 -0.098673806
0.06575599 0.055107296 -0.024467615 -0.060911305 -0.18074097 -0.05691286 0.044649236 0.32368484
0.053297006 -0.2131932 -0.25524154 -0.021659434 -0.41063288 -0.6718437 0.24861458 -0.39153117
-0.17930926 -0.370933 -0.43250805 -0.17708331 0.26929343 -0.05266039 -0.07419771 0.22701952
-0.09749649 0.5056268 0.077895515 0.30097747 -0.025169468 -0.030689977 -0.13205132 0.15871038
-0.062951796 -0.31285593 -0.26841655 -0.23776813 0.24202931 -0.12848343 0.18470764 -0.20537345
-0.1849832 -0.5945061 -0.14405723 -0.2574224 -0.41326085 -0.23639727 -0.3825465 -0.3396678
-0.5457988 -0.5455083 -0.2735057 -0.46896958 -0.08069972 -0.11188664 -0.26768252 -0.46853426
-0.071378894 -0.32675612 -0.596783 0.64100844 -0.47723538 -0.22610009 -0.73257047 -0.13588376
-0.123368286 -0.30449867 -0.32782695 -0.59474725 -0.42396978 -0.24661765 -0.4206974 -0.057196684
0.02743556 -0.27995843 -0.25151995 -0.43128154 0.38766056 0.19881079 -0.2582537 -0.2885138
0.3678941 -0.16215675 -0.21927583 -0.3877859 -0.2810439 -0.059618093 -0.2756809 -0.44812316
-0.21921082 0.33930647 -0.27252412 -0.28440553 -0.3136417 -0.37660807 -0.189033 -0.5217762
00000000: c2b9 8dbd 1904 aebe 880f d83d 7e82 8d3c
00000010: ed89 afbd 62ff 003d 9556 cd3c 4e2d 8dbe
00000020: 5a56 64be 8ec6 51bd 22f7 d4be 62ca 30be
00000030: f821 74be 5651 2dbe 9ff3 afbe 5f3d 21bf
00000040: 45be 15be 2a6d 65be d898 74be 3cb5 8cbe
00000050: fb48 61be 14c0 403e 1d09 01bf 64a3 a3bd
00000060: c825 5e3e 323d e3be 239c 95be 6458 033f
00000070: ae6b 3ebe 7e57 6cbe e1ac 4abe 6430 b2be
00000080: 477e 92be 65fc 18be b365 4abe cfed fcbe
00000090: 3f1c dbbe 7e19 f9bd 97da 84be d979 81be
000000a0: 15e8 12be 92ba c4be 8a15 fdbd 7b11 02bf
000000b0: 1860 f03e dae6 d03b a004 133e 227e a9be
000000c0: c289 523e 2d44 983d 5902 95be d7ed babe
000000d0: bc56 fe3d 9aa1 00bc 804d 92be 7699 bfbe
000000e0: cb36 72be 844b f63e 1e96 fe3b 8f03 90be
000000f0: f995 a1be ebb7 0fbf 1144 e63d 8ce2 b0be
00000100: 5370 45be 1f0f 47bd 37a7 983e db71 5cbd
00000110: b5e1 023f bca7 df3d 9acd 103f 1707 e2bc
00000120: 9e6b 583d bdc8 21bd 815a a73e d60a e93e
00000130: 7274 813d 2c5e 2a3e caa6 443d 2adc 933e
00000140: 0a25 b83d 8a4f 9d3c e051 d13e e83c 32be
00000150: 6b18 1f3d 1f59 f53d e570 20be 1d6f 023d
00000160: b6e7 30be b891 a73e ebfa 523e 3d60 38bd
00000170: 177b 3b3d fe42 83bd 0ab9 b93d 40b4 f93c
00000180: 83fb d0bd 3716 79be ccab 8fbd 34e2 85bc
00000190: 0aa7 943e 3d23 95bd f9af 7cbe eb61 e0bc
000001a0: 747e 243e 7e05 fb3d ef66 c33d 8a1a 433e
000001b0: c117 153f 28d2 0f3f 8be9 663d 8995 f43c
000001c0: 290d 01bd 62ad 0d3e ccc3 3b3e 02f1 153e
000001d0: 6b83 ca3d d1fc 5e3e 1120 8a3e 53f9 93be
000001e0: e6fe d3bc 5974 c43e a385 2e3e 4fb1 fcbd
000001f0: d3fb 933d ede8 09bd e5fc 273e f984 793c
00000200: 36cf 023d a1c4 9e3d 8fd8 9abd c089 a0be
00000210: 7549 d0bd a4ef b8be d5eb 1f3f a23c 81be
00000220: daae 753d 341e ad3c ebf5 b0bd b3b1 c53d
00000230: 131e 63be d701 79bd 1bb0 b43c ae55 96bd
00000240: 3660 a13e de6d f2be 02a6 43bc c133 883d
00000250: 6a20 46be 8622 e3bd 7ece 44be 2d2b 023f
00000260: f51e e6be b358 84bd d761 993d 2510 86be
00000270: 6f36 3d3c 2e22 343d 5b23 80bd 7e15 cabd
00000280: 14ab 863d 30b8 613d 4f70 c8bc 227e 79bd
00000290: 2914 39be 761d 69bd 1ee2 363d 05ba a53e
000002a0: f64d 5a3d 514f 5abe 05af 82be 206f b1bc
000002b0: 793e d2be f3fd 2bbf d294 7e3e c676 c8be
000002c0: d99c 37be eeea bdbe b271 ddbe 5455 35be
000002d0: d4e0 893e 6cb2 57bd f8f4 97bd ce77 683e
000002e0: 3dac c7bd c270 013f af87 9f3d b819 9a3e
000002f0: 3330 cebc 8c69 fbbc 7638 07be f984 223e
00000300: dfec 80bd a72e a0be e56d 89be 7d79 73be
00000310: 88d6 773e 2991 03be 0024 3d3e 6b4d 52be
00000320: 3c6c 3dbe 8d31 18bf bd83 13be decc 83be
00000330: ed96 d3be 2012 72be 23dd c3be f0e8 adbe
00000340: 78b9 0bbf 6fa6 0bbf f008 8cbe c81c f0be
00000350: e545 a5bd d324 e5bd af0d 89be b9e3 efbe
00000360: 192f 92bd 944c a7be c5c6 18bf 2119 243f
00000370: 3258 f4be c886 67be bd89 3bbf 1d25 0bbe
00000380: 83a8 fcbd 40e7 9bbe efd8 a7be 5b41 18bf
00000390: 9112 d9be 5689 7cbe a665 d7be 1247 6abd
000003a0: 8ac0 e03c b656 8fbe 39c7 80be efd0 dcbe
000003b0: 727b c63e 0e95 4b3e d439 84be 15b8 93be
000003c0: 9e5c bc3e 6b0c 26be d889 60be e08b c6be
000003d0: fce4 8fbe 1a32 74bd 0c26 8dbe 6670 e5be
000003e0: cd78 60be 94b9 ad3e 4888 8bbe 9a9d 91be
000003f0: a595 a0be c6d2 c0be de91 41be 2093 05bf

edge_layers.1.lstm.weight_ih_l0 f4 [256, 42]
-0.008774594 0.681762 -0.69526 0.39687884 0.19266847 0.25681472 0.3938435 0.12027116
0.3539542 -0.23050743 -0.12730631 -0.14428362 0.1293697 -0.30355424 -0.124329865 0.111509785
0.011212281 0.004549987 -0.2034219 0.17800497 0.035627022 -0.18210828 0.1315612 -0.019034404
0.0852878 0.039268177 -0.011832218 0.18636306 -0.12046504 0.14063355 0.17015268 -0.105052635
0.122274734 0.07786117 -0.21269572 0.0032178925 -0.016156496 -0.04904721 -0.14608268 0.059222862
-0.04572338 -0.08385452 -0.24982966 0.5813604 -0.33709088 0.39435032 0.32713345 0.08980459
0.3315946 -0.2047101 0.019656958 -0.2353778 0.0094163 0.024488177 0.17565417 -0.06748561
-0.038031425 0.09182403 -0.055001516 -0.07823851 -0.24198812 0.18333615 0.15573229 0.06488559
0.00038486984 0.120370686 0.1767001 0.01153108 0.058674082 0.15021676 -0.097310044 0.09191381
0.17459609 0.1311532 -0.03815252 0.1507153 -0.19038041 0.11027616 -0.058195103 -0.25137722
0.020375488 0.18228936 -0.10215735 -0.041860085 0.40685403 0.12301429 -0.23960415 0.09405209
0.07113256 -0.13493282 0.16813318 -0.13849501 0.07037084 0.8550957 0.28456312 0.43030885
-0.20000087 0.65475065 0.22314544 -0.3594351 0.22609717 0.3825011 0.46773946 -0.33433658
-0.51019406 0.69073945 -0.18272254 -0.20880558 -0.5036959 -0.46991917 -0.25602263 -0.5882054
0.34180856 -0.5484164 -0.515534 0.118134536 -0.35732484 -0.07275749 0.6701955 0.38385522
-0.09086361 0.5545447 0.4550522 0.015443108 0.41453665 0.610511 0.0071471236 0.5872579
-0.109798744 0.31416735 0.93673134 0.16452833 0.3270968 -0.0697124 0.30189192 0.32449412
-0.4498455 -0.38666913 -0.06370144 -0.31746805 -0.3925162 0.08981647 -0.13028146 -0.05531534
-0.31931302 -0.13883741 0.1397568 -0.287718 -0.21827108 -0.083946496 0.0700218 0.0763193
-0.12554093 0.18226773 -0.18612099 0.17156906 0.059275374 -0.13145801 0.042635936 -0.23473227
-0.35775805 -0.43768868 -0.22146201 -0.22558506 -0.31546983 -0.14260201 -0.09997821 -0.11425575
0.26131788 0.10288752 0.27869195 -0.31886768 -0.0812746 0.12374797 -0.33443552 -0.35247004
-0.559627 0.3879688 0.21060117 0.22743148 -0.05213756 0.43011773 0.31784537 -0.14004458
0.23297039 0.012364769 0.40953204 -0.117552586 -0.29099417 0.38919356 0.094250396 -0.13427001
-0.3062073 -0.15589081 -0.07400847 -0.22877161 0.25100696 -0.11490026 -0.3261785 0.23646185
-0.08443109 -0.0552058 0.3587107 0.19045186 0.052756414 0.25956613 0.19014874 0.112223014
0.16195922 0.28983983 0.17746563 -0.27823335 0.06775432 0.0024571426 0.102968074 0.026286721
-0.021733152 0.054011155 0.36011717 0.29049554 0.008076392 -0.0879521 0.36205798 -0.25268638
-0.009841318 0.1489535 -0.0066557885 -0.30376756 -0.11567796 0.24814793 0.17669761 -0.18457422
0.36095577 0.36594033 0.2677563 0.29105386 0.19191973 0.13959533 -0.32392484 0.33332995
0.21504197 -0.03470294 0.21912076 0.26682255 -0.2212631 -0.28354135 0.2600864 -0.27092886
-0.2004636 0.10089516 -0.20239209 -0.17132826 0.51524854 0.42552567 0.21171546 -0.16654195
00000000: 51c3 0fbc f487 2e3f 8ffc 31bf b433 cb3e
00000010: e24a 453e 387d 833e dba5 c93e ba50 f63d
00000020: 7c39 b53e 240a 6cbe 965c 02be 16bf 13be
00000030: 7e79 043e 766b 9bbe a8a0 febd 3e5f e43d
00000040: b7b3 373c 0f18 953b d54d 50be ef46 363e
00000050: a4ed 113d 987a 3abe fbb7 063e 0aee 9bbc
00000060: 5fab ae3d abd7 203d ebdb 41bc f5d5 3e3e
00000070: 60b6 f6bd 3e02 103e 813c 2e3e d625 d7bd
00000080: 2d6b fa3d ad75 9f3d e8cc 59be 47e3 523b
00000090: a15a 84bc bae5 48bd b396 15be ac93 723d
000000a0: 7048 3bbd ebbb abbd 59d3 7fbe 09d4 143f
000000b0: 2d97 acbe 49e8 c93e 097e a73e 78eb b73d
000000c0: c4c6 a93e 869f 51be a107 a13c e106 71be
000000d0: d346 1a3c 6e9b c83c b0de 333e e535 8abd
000000e0: d7c6 1bbd 3d0e bc3d 4549 61bd 833b a0bd
000000f0: bccb 77be 79bc 3b3e 4978 1f3e bce2 843d
00000100: 5bc8 c939 e884 f63d dff0 343e dbec 3c3c
00000110: 3c54 703d 6cd2 193e 7d4a c7bd 4f3d bc3d
00000120: 51c9 323e 064d 063e d145 1cbd 1d55 1a3e
00000130: 15f3 42be 78d8 e13d fd5d 6ebd 84b4 80be
00000140: 7fea a63c 10aa 3a3e df37 d1bd 7b75 2bbd
00000150: 2c4f d03e ebee fb3d ca5a 75be 629e c03d
00000160: f3ad 913d d42b 0abe 1b2b 2c3e a3d1 0dbe
00000170: 961e 903d 8de7 5a3f 42b2 913e 7151 dc3e
00000180: 07cd 4cbe bd9d 273f 3d80 643e e107 b8be
00000190: 0486 673e 2fd7 c33e 8c7b ef3e 2a2e abbe
000001a0: 149c 02bf 4dd4 303f 9e1b 3bbe 21d1 55be
000001b0: 37f2 00bf 3f99 f0be 6615 83be a194 16bf
000001c0: 8801 af3e 0465 0cbf 09fa 03bf 85f0 f13d
000001d0: 48f3 b6be e101 95bd ef91 2b3f ac88 c43e
000001e0: b316 babd a4f6 0d3f 9afc e83e 1705 7d3c
000001f0: 263e d43e 734a 1c3f 6b32 ea3b 8956 163f
00000200: 2ade e0bd 8bda a03e a0cd 6f3f 1d7a 283e
00000210: 3b79 a73e 60c5 8ebd 9491 9a3e 1824 a63e
00000220: 2652 e6be 7ff9 c5be e775 82bd 2c8b a2be
00000230: e2f7 c8be b3f1 b73d 8168 05be 5792 62bd
00000240: ff7c a3be 652b 0ebe 681c 0f3e c64f 93be
00000250: 7482 5fbe 24ec abbd 9767 8f3d 4b4d 9c3d
00000260: cd8d 00be 64a4 3a3e 8096 3ebe cdaf 2f3e
00000270: bcca 723d ee9c 06be 05a3 2e3d a85d 70be
00000280: 102c b7be bb18 e0be f0c6 62be c5ff 66be
00000290: 4385 a1be 4306 12be 60c1 ccbd ebfe e9bd
000002a0: 75cb 853e b1b6 d23d b6b0 8e3e a042 a3be
000002b0: 4c73 a6bd 936f fd3d 223b abbe f476 b4be
000002c0: b743 0fbf d9a3 c63e d5a7 573e cce3 683e
000002d0: 328e 55bd 6438 dc3e a1bc a23e d967 0fbe
000002e0: ca8f 6e3e 9a95 4a3c 2fae d13e 69bf f0bd
000002f0: 30fd 94be 6144 c73e 5a06 c13d 147e 09be
00000300: 34c7 9cbe d7a1 1fbe c191 97bd 1b43 6abe
00000310: fc83 803e d450 ebbd de00 a7be 0e23 723e
00000320: 35ea acbd 7a1f 62bd eea8 b73e d005 433e
00000330: 1c17 583d dae5 843e 5ab6 423e 2ed5 e53d
00000340: a3d8 253e e365 943e 8db9 353e 9a74 8ebe
00000350: c7c2 8a3d 0308 213b ede0 d23d 4057 d73c
00000360: b909 b2bc cd3a 5d3d 4761 b83e d5bb 943e
00000370: d852 043c 3b20 b4bd aa5f b93e 1c60 81be
00000380: 7b3d 21bc 4487 183e cd18 dabb 6c87 9bbe
00000390: 91e8 ecbd 7e1a 7e3e 38f0 343e 0601 3dbe
000003a0: 32cf b83e 885c bb3e 5b17 893e 0305 953e
000003b0: 9b86 443e 14f2 0e3e 7ad9 a5be 39aa aa3e
000003c0: f633 5c3e ac24 0ebd 3161 603e f79c 883e
000003d0: cb92 62be 552c 91be 0b2a 853e 30b7 8abe
000003e0: 5446 4dbe 1fa2 ce3d df3f 4fbe ad70 2fbe
000003f0: 54e7 033f 80de d93e f0cb 583e f989 2abe

edge_layers.1.lstm.weight_hh_l0 f4 [256, 64]
0.030318912 -0.7345797 0.055392385 0.32276288 0.75316036 0.17567107 -0.39742368 0.80949765
-0.17300168 -0.59494686 -0.010026092 -0.16970012 0.06313435 -0.0011842727 -0.23178445 0.14869437
0.016988687 0.31551304 -1.1071886 0.044796966 -0.058077864 0.0384769 -0.09628803 -0.52835304
0.027003666 0.0656997 0.07125669 0.4415146 0.14231461 -0.4897521 0.86155295 0.13095991
0.12799758 -0.14436094 0.024992403 0.10101548 0.19074698 -0.16996425 0.14913827 0.6048658
-0.07086739 0.011504301 0.60216284 0.19597636 0.07974769 0.020921968 -0.2011996 -0.14459763
-0.42229298 0.27277988 0.117188066 -0.19854677 -0.027665053 0.30634794 0.17162815 -0.28011614
-0.5399434 -0.26677957 -0.22353104 -0.42848802 -0.055827223 0.22225605 1.128298 0.017992493
0.6140674 -0.5438499 0.036094267 0.4484252 0.22785157 -0.012159942 0.37302834 0.41107774
-0.18695945 -0.68096215 -0.32435173 -0.24591261 -0.5853035 0.3888377 -0.18930371 -0.340468
-0.35694912 -0.22922675 -1.3543189 -0.2529288 -0.0020294453 -0.0004165135 -0.13385083 -0.40659207
0.114439435 0.20277789 0.30701768 0.37500447 0.18955459 -0.44446433 0.17176458 -0.03192426
-0.22441584 0.1943328 -0.28737608 0.09699874 0.0801633 -0.14934269 0.043074768 0.46185705
0.12370432 -0.28763583 0.15903243 0.4639013 -0.10710387 -0.29292908 -0.0955775 -0.037726857
-0.4615051 -0.2508268 0.045214646 -0.036163002 0.06773665 -0.029178737 0.20151408 -0.048660025
-0.56593645 -0.34576368 -0.11683691 -0.20946334 -0.025826257 0.080506764 0.9597449 -0.5870049
-0.06625364 -0.093695335 -0.41271362 -0.1680094 -0.3700085 -0.17906328 -0.11037799 0.20357983
0.30744457 -0.26394525 0.20992625 0.36305058 -0.1919142 0.15675122 0.2903649 -0.23250999
-0.060938526 -0.05609351 -0.019205626 -0.2064666 -0.34899214 -0.3160398 0.3494712 -0.06148022
-0.35637712 -0.36126453 -0.13731828 -0.28503603 -0.39771712 0.3328165 -0.2109997 -0.26265085
-0.100679286 -0.022294592 -0.2090725 -0.41655323 -0.4652061 0.20947109 -0.31217068 -0.50040686
-0.17013387 0.25490305 -0.038797595 0.20811015 0.546506 -0.14586575 0.18693033 0.3478603
-0.122507796 -0.09084086 -0.3770303 0.49234277 -0.31034756 -0.022500735 -0.09335854 0.43263388
0.2480413 0.12529247 0.3587009 -0.057584234 0.34979463 -0.5249028 0.11138173 0.22951457
-0.17043653 -0.5853994 -0.020050066 0.055060778 0.028499717 -0.010475379 -0.15523721 0.36478594
-0.0072254557 -0.32100648 -0.023669086 -0.080547534 0.16804886 0.032632872 -0.0018698003 0.02428098
0.09474712 -0.10162644 -0.4606779 -0.05572809 0.08252398 0.09468794 0.018128978 -0.070018366
0.04287085 0.04601217 0.22622511 0.32791916 0.019458005 -0.39999938 0.25658134 0.22961614
-0.02904661 0.028727408 -0.17714386 0.18622668 -0.11281543 0.027992753 -0.06016184 0.033563104
0.33523142 -0.20905246 0.37073603 -0.1926838 0.1815033 -0.06587725 0.17286599 0.037960153
-0.2760309 0.023502013 0.1099929 0.13037811 0.045764558 0.24679281 0.32524267 0.029872159
-0.4616347 0.052495595 0.11743624 -0.37139586 -0.13652436 -0.44043887 0.62953466 -0.187971
00000000: 5e5f f83c 6a0d 3cbf 20e3 623d 2d41 a53e
00000010: 1ecf 403f 1ee3 333e 1e7b cbbe 3d3b 4f3f
00000020: 5a27 31be 704e 18bf 7a44 24bc dec5 2dbe
00000030: 954c 813d 9939 9bba e758 6dbe 5643 183e
00000040: dc2b 8b3c ed8a a13e 5bb8 8dbf 067d 373d
00000050: 0ee3 6dbd f499 1d3d a932 c5bd 2542 07bf
00000060: cb36 dd3c 908d 863d 07ef 913d 340e e23e
00000070: ecba 113e cac0 fabe bc8e 5c3f 5b1a 063e
00000080: cc11 033e 5bd3 13be debc cc3c 34e1 ce3d
00000090: 2d53 433e 1c0b 2ebe b4b7 183e 7cd8 1a3f
000000a0: ec22 91bd 897c 3c3c 5827 1a3f 07ae 483e
000000b0: c252 a33d 8c64 ab3c 4507 4ebe 6711 14be
000000c0: c936 d8be cea9 8b3e 4c00 f03d d84f 4bbe
000000d0: d2a1 e2bc a3d9 9c3e 4abf 2f3e 626b 8fbe
000000e0: bb39 0abf 5597 88be 52e5 64be c862 dbbe
000000f0: 16ab 64bd 1797 633e 126c 903f fe64 933c
00000100: 8533 1d3f bf39 0bbf 95d7 133d fd97 e53e
00000110: ec51 693e 7e3a 47bc 92fd be3e c878 d23e
00000120: 4c72 3fbe 8953 2ebf 6e11 a6be 84d0 7bbe
00000130: 73d6 15bf bc15 c73e d5d8 41be d251 aebe
00000140: 09c2 b6be 6bba 6abe 525a adbf e27f 81be
00000150: 7100 05bb 7f5f dab9 3110 09be d62c d0be
00000160: 395f ea3d 02a5 4f3e 6c31 9d3e 9600 c03e
00000170: 991a 423e d490 e3be 0ee3 2f3e 03c3 02bd
00000180: 44cd 65be 2dff 463e f522 93be 47a7 c63d
00000190: a82c a43d 4aed 18be 2b6f 303d 8778 ec3e
000001a0: b158 fd3d 0145 93be 66d9 223e 7984 ed3e
000001b0: 4659 dbbd cdfa 95be 23be c3bd 7a87 1abd
000001c0: 654a ecbe 5f6c 80be fe32 393d a81f 14bd
000001d0: 83b9 8a3d 3f08 efbc b559 4e3e bc4f 47bd
000001e0: 36e1 10bf f007 b1be 3148 efbd 8f7d 56be
000001f0: 9691 d3bc bbe0 a43d d7b1 753f f445 16bf
00000200: fdaf 87bd 57e3 bfbd 334f d3be a80a 2cbe
00000210: c171 bdbe 5d5c 37be db0d e2bd 3b77 503e
00000220: 6069 9d3e d523 87be e8f6 563e c4e1 b93e
00000230: 2885 44be 6483 203e b5aa 943e 1917 6ebe
00000240: ad9a 79bd 4fc2 65bd 1e55 9dbc fb6b 53be
00000250: 19af b2be f8cf a1be e4ed b23e afd2 7bbd
00000260: 1077 b6be aaf7 b8be 2a9d 0cbe 3ef0 91be
00000270: 94a1 cbbe ed66 aa3e 4e10 58be 2c7a 86be
00000280: f130 cebd 26a3 b6bc 1a17 56be 7746 d5be
00000290: 7e2f eebe 977f 563e d6d4 9fbe aa1a 00bf
000002a0: 9337 2ebe a782 823e 3aea 1ebd d41a 553e
000002b0: d1e7 0b3f d55d 15be aa6a 3f3e bf1a b23e
000002c0: 5ee5 fabd c60a babd 1e0a c1be 5a14 fc3e
000002d0: e0e5 9ebe 7653 b8bc c332 bfbd 3082 dd3e
000002e0: 8afe 7d3e ab4c 003e a5a7 b73e 72dd 6bbd
000002f0: 4818 b33e 0860 06bf 1b1c e43d de05 6b3e
00000300: ea86 2ebe bcdc 15bf 0940 a4bc 6987 613d
00000310: 3d78 e93c eda0 2bbc 81f6 1ebe 39c5 ba3e
00000320: 84c3 ecbb f65a a4be ace5 c1bc 1bf6 a4bd
00000330: 0015 2c3e 0caa 053d 1614 f5ba e8e8 c63c
00000340: c70a c23d 8621 d0bd f9dd ebbe 2343 64bd
00000350: 5502 a93d c0eb c13d 3983 943c ca65 8fbd
00000360: 5899 2f3d 4277 3c3d 8ea7 673e 05e5 a73e
00000370: 6566 9f3c b8cc ccbe a15e 833e 7e20 6b3e
00000380: 28f3 edbc be55 eb3c 3365 35be 35b2 3e3e
00000390: c70b e7bd 0f51 e53c 436c 76bd 7779 093d
000003a0: 74a3 ab3e d911 56be 1dd1 bd3e e74e 45be
000003b0: 00dc 393e a7ea 86bd c803 313e 1b7c 1b3d
000003c0: ec53 8dbe 4b87 c03c f543 e13d d781 053e
000003d0: 9e73 3b3d 41b7 7c3e 3586 a63e 75b6 f43c
000003e0: 625b ecbe 9f05 573d 6982 f03d 9927 bebe
000003f0: 0bcd 0bbe 3481 e1be 2f29 213f 787b 40be

edge_layers.1.lstm.bias_ih_l0 f4 [256]
-0.2973834 -0.08961245 0.83088416 -0.18025783 0.19237319 -0.35499486 0.047368348 -0.05134641
0.52035666 -0.015452398 0.47905815 0.3346907 -0.19040519 -0.017581986 0.27400714 0.31633708
0.13218302 -0.39428827 0.30109602 0.18125492 0.720212 0.6340775 0.87681305 -0.16051704
0.84494025 0.73572665 0.13271084 -0.09898685 0.6013841 0.60738844 0.74252695 0.8086809
-0.34160098 0.14624316 -0.30171728 0.8303752 0.23480646 0.70148665 0.40373322 0.27922368
-0.069623485 0.3764092 -0.066551305 0.24230923 0.68187535 -0.37633413 0.14631021 0.61401516
-0.113194846 0.030528214 0.9102202 0.16691673 0.47176316 -0.126178 -0.1727963 0.3770938
0.3656891 -0.26459226 0.17626734 -0.24508734 0.649177 0.44741637 -0.3640986 0.5833335
0.19697122 0.051991854 0.004324033 0.0867603 0.3094496 0.26274708 0.11295863 0.24361712
0.60440224 -0.010220157 0.27588233 0.5938981 -0.040702343 0.11803044 0.32307 0.1721084
-0.14313252 0.31614974 0.4018802 0.16825308 0.12272618 -0.07132613 0.6528309 -0.12373174
0.63627845 0.4674101 -0.051970255 -0.12908186 0.45179608 -0.1307757 0.07897706 0.36957428
0.13839535 0.08133396 0.15941846 0.00360072 0.2529653 0.63444614 0.43687636 -0.17892924
-0.11599895 -0.16325015 0.052247338 0.11752135 0.34119242 0.15670477 0.21246667 0.44348443
0.12474942 -0.052199222 0.29835156 0.40517613 -0.118955 0.2474475 0.1389318 0.42113096
0.3421088 -0.033558212 0.33895358 0.07356816 0.26798198 0.34091556 0.23874643 0.10937281
0.24709097 -0.25741088 -0.5022315 0.4073559 -0.3738593 0.10099565 -0.217972 -0.26140353
0.36687458 -0.08406831 0.37655917 0.4309534 -0.24740387 -0.19431476 0.5215517 -0.20879795
0.2735457 0.16924308 0.2509078 0.25511098 -0.43825915 -0.46106422 0.48951855 -0.11875688
-0.52230185 -0.6989891 -0.42519414 -0.22453567 -0.4995102 0.19462955 -0.50248605 -0.55327654
-0.06356219 -0.41655833 0.111962795 -0.44974878 -0.38115552 0.47030887 -0.43369043 -0.0015432126
-0.13835908 0.40113005 -0.02151315 0.23574576 0.5891842 0.2744338 0.40527755 0.52276504
-0.46497336 0.3344152 -0.63426846 0.4824373 -0.5224465 0.14061536 -0.27221325 0.6862715
0.08353024 0.09277959 0.54938704 0.026289733 0.5905394 -0.2891891 -0.09540167 0.27518594
0.13013926 0.024459137 0.7217815 0.121847965 0.65389776 -0.17734417 -0.15414771 -0.21815221
0.7928144 -0.059396405 0.19369929 0.87063813 0.09381744 0.0098525155 0.8261528 0.020857945
-0.18889733 0.16881803 -0.028637188 -0.05464383 0.91968364 0.70434123 0.9069572 -0.25261298
0.8108495 0.978902 0.1019592 -0.19795242 0.8017045 0.6894146 0.66629267 0.92829186
-0.12053285 -0.11827448 -0.111818925 0.86165446 0.49022815 0.92984277 0.70289457 0.5424475
-0.1139285 0.114815846 -0.10057066 0.021712998 0.76819545 -0.35916597 0.38089305 0.68264425
0.43846664 0.1888571 0.86904836 0.37205777 0.7740908 -0.23891579 -0.15886334 0.8429127
-0.14018032 -0.32929268 0.4823361 -0.19256145 0.83410835 0.0021175474 -0.16337076 0.16596738
00000000: a342 98be bb86 b7bd d3b4 543f 8295 38be
00000010: 7afd 443e e3c1 b5be 5005 423d 9d50 52bd
00000020: 1836 053f 0e2c 7dbc 1c47 f53e 945c ab3e
00000030: 94f9 42be 1908 90bc aa4a 8c3e eff6 a13e
00000040: fc5a 073e 27e0 c9be 4229 9a3e e49a 393e
00000050: d05f 383f e752 223f d276 603f 945e 24be
00000060: 014e 583f 9558 3c3f 5ae5 073e 9eb9 cabd
00000070: 4ff4 193f cf7d 1b3f 3f16 3e3f b605 4f3f
00000080: 53e6 aebe c4c0 153e b07a 9abe 7893 543f
00000090: 1b71 703e a194 333f 1fb6 ce3e 68f6 8e3e
000000a0: c296 8ebd b5b8 c03e 0d4c 88bd e91f 783e
000000b0: 628f 2e3f deae c0be 58d2 153e 1930 1d3f
000000c0: b3d2 e7bd 4e16 fa3c 3104 693f 38ec 2a3e
000000d0: f18a f13e ce34 01be 83f1 30be 7012 c13e
000000e0: 9a3b bb3e a378 87be 6d7f 343e 2df8 7abe
000000f0: 7730 263f c213 e53e 226b babe 5855 153f
00000100: d3b2 493e 69f5 543d 9eb0 8d3b 62af b13d
00000110: 2e70 9e3e c986 863e db56 e73d c476 793e
00000120: 1bba 1a3f 7272 27bc 7340 8d3e b509 183f
00000130: 80b7 26bd f1b9 f13d 6e69 a53e 2f3d 303e
00000140: 5591 12be 61de a13e 3ec3 cd3e 894a 2c3e
00000150: dd57 fb3d 6f13 92bd ed1f 273f 1167 fdbd
00000160: 25e3 223f 6050 ef3e c3de 54bd 092e 04be
00000170: d151 e73e 11ea 05be babe a13d d738 bd3e
00000180: 83b7 0d3e 6b92 a63d 983e 233e 0ffa 6b3b
00000190: ab84 813e 106b 223f 42ae df3e 3a39 37be
000001a0: dc90 edbd 0c2b 27be 4e01 563d 09af f03d
000001b0: c6b0 ae3e 3777 203e dd90 593e 6410 e33e
000001c0: a07c ff3d dace 55bd 89c1 983e 3f73 cf3e
000001d0: ae9e f3bd e162 7d3e 2344 0e3e 7a9e d73e
000001e0: e228 af3e 5674 09bd 538b ad3e e7aa 963d
000001f0: ef34 893e 7c8c ae3e f279 743e dafe df3d
00000200: 6a05 7d3e 5ccb 83be 3e92 00bf f490 d03e
00000210: 7c6a bfbe cfd6 ce3d 0d34 5fbe afd6 85be
00000220: fcd6 bb3e 022c acbd 5dcc c03e eda5 dc3e
00000230: 7157 7dbe 73fa 46be 6a84 053f 21cf 55be
00000240: 2f0e 8c3e 0f4e 2d3e fd76 803e e89d 823e
00000250: 8163 e0be 9c10 ecbe 2da2 fa3e cf36 f3bd
00000260: 93b5 05bf f3f0 32bf 0cb3 d9be aeec 65be
00000270: cdbf ffbe f84c 473e eda2 00bf 88a3 0dbf
00000280: e52c 82bd 2247 d5be c04c e53d 7945 e6be
00000290: d126 c3be 53cc f03e ac0c debe 9f45 caba
000002a0: 01ae 0dbe eb60 cd3e 583c b0bc 5667 713e
000002b0: c7d4 163f 9682 8c3e 8a80 cf3e eed3 053f
000002c0: fd10 eebe 7838 ab3e 6b5f 22bf 0602 f73e
000002d0: 0ebf 05bf 79fd 0f3e 895f 8bbe 7daf 2f3f
000002e0: e711 ab3d 3a03 be3d a1a4 0c3f 915d d73c
000002f0: 972d 173f 9810 94be f361 c3bd 2ce5 8c3e
00000300: 3a43 053e 875e c83c acc6 383f 6d8b f93d
00000310: d865 273f b699 35be e6d8 1dbe 4b63 5fbe
00000320: e2f5 4a3f a549 73bd 1b59 463e 24e2 5e3f
00000330: 5c23 c03d 726c 213c c07e 533f 48de aa3c
00000340: 4d6e 41be a2de 2c3e 8998 eabc 35d2 5fbd
00000350: 6370 6b3f b54f 343f 592e 683f 7d56 81be
00000360: d593 4f3f 5299 7a3f fccf d03d 0ab4 4abe
00000370: 823c 4d3f 7a7d 303f 2892 2a3f 89a4 6d3f
00000380: edd9 f6bd e439 f2bd 5201 e5bd 6395 5c3f
00000390: 2fff fa3e 2d0a 6e3f e6f0 333f d7dd 0a3f
000003a0: 5853 e9bd 9224 eb3d fdf7 cdbd 75df b13c
000003b0: 75a8 443f 9ae4 b7be 6a04 c33e c6c1 2e3f
000003c0: b37e e03e c163 413e f479 5e3f 5b7e be3e
000003d0: d12a 463f 57a6 74be 12ad 22be 20c9 573f
000003e0: 6e8b 0fbe 0d99 a8be c2f4 f63e d42e 45be
000003f0: 2088 553f 8dc6 0a3b aa4a 27be 5af3 293e
