experiment/saml_20/GAT+T/GAT+T_checkpoint.pt (torch_old, 70875 bytes, 14 tensors)

time_layers.0.basis_freq f4 [32]
000000 c4 63 8c 3f ba a0 49 3f 66 84 b3 3e 5f b9 a5 3d
       1.0967946 0.78760874 0.3506195 0.08091997
000010 9b f6 09 be f4 c1 00 bd ed 54 05 be a6 b2 54 3c
       -0.13472979 -0.031434968 -0.13020678 0.012982046
000020 9b 95 89 be 96 0b 44 be c1 bd fa be c6 23 ff 3d
       -0.26871952 -0.19145045 -0.48972896 0.12457995
000030 96 23 1e 3e 77 1f 18 3f 69 d4 cf bd fc 8e 1f 3e
       0.15443262 0.5942301 -0.10147936 0.15581888
000040 63 a4 f2 3e 29 bd fb 3d 12 95 b1 3e 4c 59 03 3f
       0.47391042 0.12291939 0.34684044 0.5130813
000050 8e dd 6d be 46 3c 35 3e 20 ca 9d 3d 33 ff 3a be
       -0.23229048 0.17698774 0.07704568 -0.18261413
000060 4c c2 eb be 93 60 18 be 68 1a 33 be e6 81 62 bd
       -0.46046674 -0.1488059 -0.17490542 -0.055299662
000070 93 8e b0 bd 6d 1b e6 be 0b 7c 31 3d 0c 27 82 bd
       -0.08620944 -0.449428 0.043331187 -0.06355104

time_layers.0.phase f4 [32]
000000 65 fb 2f 3e bc 79 1a 3f 63 b6 b9 be ec 2d aa be
       0.17185743 0.60342 -0.36271963 -0.3323816
000010 de ac 0a bf 74 87 95 be 0a ae 05 be cc 42 e4 be
       -0.54170024 -0.29204905 -0.13054672 -0.44582212
000020 b1 e1 62 bf 84 c9 86 be a8 ef 82 bf ab b5 00 3e
       -0.8862563 -0.2632562 -1.0229387 0.12569301
000030 fa 40 4b be 9f 11 8c 3f 39 f8 55 3e 4d 99 21 3f
       -0.19849005 1.0942878 0.2089547 0.63124543
000040 0e 7c 6e 3f fe f0 39 3e 2b 06 83 3f a1 c4 89 3f
       0.9315804 0.18158337 1.0236257 1.0763131
000050 7b ae 30 bf 59 fa 18 3f 67 8e 47 3e 90 e6 81 be
       -0.69016236 0.59757 0.19487916 -0.25371218
000060 21 3a a0 bf 68 ef 13 be b9 1e c6 be 68 70 29 be
       -1.251774 -0.14446795 -0.38695315 -0.16546786
000070 26 7c bb 3e 44 60 84 bf 7f 60 b3 be 74 c3 63 bd
       0.36618155 -1.0341878 -0.35034558 -0.05560632

time_layers.0.basis_frea f4 [32]
000000 c4 63 8c 3f ba a0 49 3f 66 84 b3 3e 5f b9 a5 3d
       1.0967946 0.78760874 0.3506195 0.08091997
000010 9b f6 09 be f4 c1 00 bd ed 54 05 be a6 b2 54 3c
       -0.13472979 -0.031434968 -0.13020678 0.012982046
000020 9b 95 89 be 96 0b 44 be c1 bd fa be c6 23 ff 3d
       -0.26871952 -0.19145045 -0.48972896 0.12457995
000030 96 23 1e 3e 77 1f 18 3f 69 d4 cf bd fc 8e 1f 3e
       0.15443262 0.5942301 -0.10147936 0.15581888
000040 63 a4 f2 3e 29 bd fb 3d 12 95 b1 3e 4c 59 03 3f
       0.47391042 0.12291939 0.34684044 0.5130813
000050 8e dd 6d be 46 3c 35 3e 20 ca 9d 3d 33 ff 3a be
       -0.23229048 0.17698774 0.07704568 -0.18261413
000060 4c c2 eb be 93 60 18 be 68 1a 33 be e6 81 62 bd
       -0.46046674 -0.1488059 -0.17490542 -0.055299662
000070 93 8e b0 bd 6d 1b e6 be 0b 7c 31 3d 0c 27 82 bd
       -0.08620944 -0.449428 0.043331187 -0.06355104

time_layers.1.basis_freq f4 [32]
000000 23 a1 c4 3f 4b d7 81 3f 62 10 33 3f 03 d0 3b be
       1.5361675 1.0143827 0.69946873 -0.18341069
000010 58 60 9d 3e 43 48 04 3f bd c0 7e be f3 4a 20 3f
       0.30737567 0.5167276 -0.24878211 0.62614363
000020 12 a4 21 3f 0e a8 b3 be 13 a3 3b 3f 12 fc d3 bd
       0.63140976 -0.35089153 0.73295707 -0.10350813
000030 29 16 df bd 0a 55 9d be de b5 8c 3e a0 40 0c 3e
       -0.108928986 -0.30728942 0.27482504 0.13696527
000040 ed c5 8b be 59 1c 37 bf a4 87 31 bf 2e 60 08 3f
       -0.27299443 -0.7152763 -0.69347596 0.5327176
000050 d3 81 72 be d3 dc 99 be 50 06 e1 be 9c 89 7d be
       -0.23682337 -0.30051288 -0.4395013 -0.24759525
000060 3b 2b 9c 3e 18 fa 16 3f f9 f0 36 bf d7 e1 2e 3e
       0.30501732 0.5897536 -0.71461445 0.17078339
000070 08 e7 30 bf 12 30 0a 3f d6 8d 9d be 23 8c 36 be
       -0.69102526 0.539796 -0.30772275 -0.17826895

time_layers.1.phase f4 [32]
000000 24 01 4f 3f 8e 04 4a 3f 92 a2 3c 3f 96 d8 4e be
       0.80861115 0.789132 0.7368556 -0.20199808
000010 ce 1e 3d 3e 12 0d 25 3f cb 45 1b be 4b 34 41 3f
       0.18468782 0.6447307 -0.15163343 0.7547042
000020 95 13 65 3f 7a 3e 4e be 97 b1 6a 3f 64 19 fe be
       0.89483005 -0.2014102 0.9167723 -0.49628747
000030 2e 7e c5 be 7e b1 71 be 9b fe a6 3e ed 56 c9 3e
       -0.3857283 -0.23602864 0.32616124 0.39324132
000040 43 4f 74 be a4 bb 6a bf b2 ee 65 bf 03 f5 3c 3f
       -0.23858361 -0.91692567 -0.89817345 0.7381136
000050 e8 43 db be ff 1e 8d be d5 f3 1e bf 58 ec 9d be
       -0.42825246 -0.2756271 -0.6209081 -0.30844378
000060 24 dd d0 3e 71 ab 3e 3f 20 97 5e bf 2f b4 4c 3e
       0.40793717 0.7448035 -0.8694935 0.1999061
000070 55 7f 5b bf 93 01 31 3f e7 c9 81 be 07 48 2d be
       -0.8574117 0.6914303 -0.25349352 -0.16922008

time_layers.1.basis_frea f4 [32]
000000 23 a1 c4 3f 4b d7 81 3f 62 10 33 3f 03 d0 3b be
       1.5361675 1.0143827 0.69946873 -0.18341069
000010 58 60 9d 3e 43 48 04 3f bd c0 7e be f3 4a 20 3f
       0.30737567 0.5167276 -0.24878211 0.62614363
000020 12 a4 21 3f 0e a8 b3 be 13 a3 3b 3f 12 fc d3 bd
       0.63140976 -0.35089153 0.73295707 -0.10350813
000030 29 16 df bd 0a 55 9d be de b5 8c 3e a0 40 0c 3e
       -0.108928986 -0.30728942 0.27482504 0.13696527
000040 ed c5 8b be 59 1c 37 bf a4 87 31 bf 2e 60 08 3f
       -0.27299443 -0.7152763 -0.69347596 0.5327176
000050 d3 81 72 be d3 dc 99 be 50 06 e1 be 9c 89 7d be
       -0.23682337 -0.30051288 -0.4395013 -0.24759525
000060 3b 2b 9c 3e 18 fa 16 3f f9 f0 36 bf d7 e1 2e 3e
       0.30501732 0.5897536 -0.71461445 0.17078339
000070 08 e7 30 bf 12 30 0a 3f d6 8d 9d be 23 8c 36 be
       -0.69102526 0.539796 -0.30772275 -0.17826895

attn_layers.0.weight f4 [1, 65]
000000 3d fe a4 3d 61 c8 60 3c bf f3 88 bd 37 e1 6c 3b
       0.080563046 0.013719649 -0.06687116 0.003614498
000010 32 58 80 bd 51 03 12 bc 8f 1d ae 3a 84 a6 5f 3d
       -0.06266822 -0.0089119235 0.0013283956 0.05460216
000020 10 c6 fc bc 54 98 6c bc 63 c4 04 bd 3a 64 d6 bc
       -0.030856162 -0.014440615 -0.03241385 -0.026170839
000030 ba fb 3e 3d 54 7f 95 bd 19 a8 7d bc 40 53 2f bb
       0.046626784 -0.072996765 -0.015481972 -0.0026752502
000040 9e e8 b5 bd 4e c8 fc bd 16 4a 97 bc 11 7d 19 bd
       -0.08882259 -0.123428926 -0.018467944 -0.03747279
000050 8b 06 14 3d 76 03 7f bd 32 7f d7 bc ec 0a 30 3d
       0.036139052 -0.06225916 -0.026305769 0.042979166
000060 56 a8 c4 bc ce 50 a8 3d 96 24 04 bd bb 49 ef 3c
       -0.02400605 0.08218537 -0.032261454 0.029209962
000070 1d cd bb 3d 2d fd fd bc 99 75 d1 3d 3d 7e be 3d
       0.09169982 -0.031004513 0.10227508 0.09301422
000080 e9 c7 2f 3d 71 4d f4 3d 96 57 7d 3d 2a e1 7f bd
       0.04291526 0.11928833 0.061851107 -0.062470593
000090 f3 4c 68 bd 9a 11 db bc a1 f0 6d bd 65 ec b7 bd
       -0.05671401 -0.026741792 -0.05809081 -0.089806356
0000a0 2d 3f a3 3d dd 57 4f 3d 40 2e 78 bd 5f 07 e7 3c
       0.07971034 0.050620902 -0.060590982 0.028201757
0000b0 1e 67 f7 bd 40 86 57 bd 16 86 45 3d 9e 21 99 bd
       -0.12080215 -0.052618265 0.048223577 -0.07477115
0000c0 63 65 d0 bc ea 41 27 3c 36 5a e7 bd ee 9c 49 3d
       -0.02543897 0.010208586 -0.11296503 0.049221925
0000d0 d3 83 2a 3d 60 27 72 bc 7e ad 94 3d 69 4b 9b bd
       0.041629624 -0.014779896 0.072596535 -0.07582743
0000e0 79 ed a9 bd 6d 54 3c 3d c9 41 67 bd 18 6e ce 3d
       -0.082972474 0.045978952 -0.056459222 0.100795925
0000f0 2b 60 f3 bd 33 86 c4 3d 19 67 0c 3d 79 d0 de 3d
       -0.11883577 0.09595909 0.03427801 0.10879607
000100 73 98 a5 bd
       -0.08085718

attn_layers.1.weight f4 [1, 106]
000000 54 92 1e 3d b9 44 07 bd 72 50 93 bc 48 c9 63 3c
       0.038713768 -0.033024523 -0.017982695 0.01390297
000010 ab d1 fa 3c f8 ab fb 3c cd a1 40 bd e6 a9 6c bc
       0.030617556 0.03072165 -0.047029305 -0.014444804
000020 84 0f 8d 3b 1e 8e a5 3c 68 5d 82 3b 2b c6 ff bc
       0.004304828 0.020209368 0.00397842 -0.031222424
000030 08 48 56 3c 5c f4 50 bc 86 61 b0 3b c1 e4 b9 bd
       0.013078697 -0.012753572 0.0053827194 -0.090768345
000040 7c 77 c6 3c cf 0a 0f bd 50 ab 3f bd 60 f7 41 bc
       0.024226896 -0.034922417 -0.046794236 -0.011838764
000050 59 19 1f 3d 65 b6 8d bc 3a 11 2d 3d b9 12 68 3c
       0.038842533 -0.017298887 0.042252757 0.01416462
000060 65 4d 25 bd 6b 7c 1e 3d a6 7d 10 bd 34 23 ca 3c
       -0.040357012 0.038692873 -0.035276078 0.02467499
000070 ae 04 9c 3c 7d b9 08 ba d0 6d 0d bd cc 7c 39 bd
       0.0190452 -0.0005215628 -0.034528553 -0.04528503
000080 41 08 d7 3c ee 5e 97 bb f6 08 04 3b d4 59 a7 3a
       0.026249053 -0.004619471 0.0020146943 0.001276786
000090 0a 54 ae 3b e7 81 dc bb 44 41 52 3c cc 60 7f bc
       0.005320077 -0.0067293528 0.012832943 -0.015587043
0000a0 94 fd a6 bc 20 80 64 3d e7 94 9e 3c bf 1d c2 bc
       -0.020384587 0.055786252 0.019358112 -0.023695825
0000b0 cd 01 dc bc 0c 5c ec 3d f9 1a 17 bd ab 0d 28 bd
       -0.026856327 0.11540994 -0.036890958 -0.04102866
0000c0 b9 a8 5b bd c8 b8 0c 3b 00 91 71 3b e8 b1 23 3c
       -0.053627703 0.0021472443 0.0036860108 0.009991147
0000d0 2c e9 5d 3c 74 78 b2 bc 29 3a 9d 3c 16 8c d7 3b
       0.013544362 -0.021785952 0.019192772 0.006577979
0000e0 17 16 4f bc bc eb 87 3b 89 3a c2 bc c4 41 dc 3c
       -0.012639544 0.004147975 -0.023709552 0.026886828
0000f0 06 f8 18 bd 0f 30 5a 3b 82 25 f7 bb b3 6e f9 bb
       -0.03734591 0.0033292805 -0.007542313 -0.0076120733
000100 41 d9 0b bd 71 fc 01 be c7 ac 8e 3d bd ff f5 bd
       -0.034142736 -0.12693955 0.069665484 -0.12011669
000110 d1 9a 2b be bc 44 45 bd a2 f0 af bd a4 ff 6d 3d
       -0.16758277 -0.048161253 -0.08590819 0.058105126
000120 c0 23 8c bf 09 c8 1d be 7d 2b 91 3d 00 b7 64 3c
       -1.094841 -0.15408339 0.07088373 0.013959646
000130 ee 9a a5 3b 0a 7c 19 be ee a1 05 be 87 67 97 bd
       0.0050538694 -0.14988723 -0.13050053 -0.07392793
000140 a5 1b 25 be 93 01 90 bd 6c 3f 30 3a 76 53 2c be
       -0.16123827 -0.0703155 0.0006723318 -0.16828713
000150 57 3e 3b bd cd 31 f6 bd 3f ad fa bd 3b 37 2e be
       -0.04571375 -0.120212175 -0.12240075 -0.17013256
000160 f4 31 05 be 80 b1 f8 bd 06 22 3a be 5d 2f 27 bc
       -0.13007337 -0.121432304 -0.18177041 -0.010204163
000170 82 37 3d bd 0d 11 9d bd 4a f6 de bd 36 a4 04 be
       -0.046195515 -0.07669268 -0.1088682 -0.12953267
000180 42 24 c2 bd 78 9c d8 bd c0 49 da bd fe fa a3 bc
       -0.09479572 -0.10576719 -0.10658598 -0.020017143
000190 ec 8d 42 bd f2 84 0c be db 3f ae bc 7d ab d4 3b
       -0.04749863 -0.1372259 -0.021270683 0.0064901696
0001a0 e3 66 2b be 15 df 30 be
       -0.16738467 -0.17272599

node_layers.0.weight f4 [64, 88]
000000 af 04 b1 3d 1d 77 bc 3d 1a 50 33 3e d9 ea 0b bf
       0.086434714 0.092024066 0.17511025 -0.54655224
000010 d7 f3 88 bd b6 66 d7 3d d3 8d 5d 3e d4 fe 01 3e
       -0.06687134 0.105176374 0.21636133 0.12694865
000020 b0 0b e0 bd 71 00 94 bd f3 8d ba be 16 b4 05 bc
       -0.10939729 -0.07226647 -0.36436424 -0.008160612
000030 59 2a ad 3d 47 f7 71 bc b6 6f 94 bb e3 a2 0c 3e
       0.08455343 -0.014768428 -0.0045299185 0.13734011
000040 33 be 82 3c 01 f1 ed bd 43 7c b8 3d a1 06 70 3c
       0.015959835 -0.116182335 0.09008076 0.014650018
000050 2d ea c2 3c cf 45 7b be 22 44 ba bd ce b9 30 3e
       0.023793304 -0.24538349 -0.090950266 0.17258379
000060 72 dd 20 3d 07 d3 ae bd ab bb 71 bd 77 ee d1 bb
       0.039273687 -0.08536344 -0.059016865 -0.006406601
000070 a4 d0 0e be c2 70 34 3d 5f cc f9 3c f3 a5 9d be
       -0.13946778 0.044052847 0.03049296 -0.30790672
000080 6c 1e c7 bc 8b 2c a8 bc 72 0d 02 3e 71 26 65 3c
       -0.024306498 -0.020529052 0.12700441 0.013986216
000090 58 50 2d bd ad ee 64 bd 20 f7 3d bd a6 65 8c bd
       -0.04231295 -0.05589168 -0.046378255 -0.068553254
0000a0 f9 a9 e2 3d cb 28 ad bc c3 19 d5 3d d6 00 6a 3d
       0.11067576 -0.021137616 0.10405304 0.057129703
0000b0 84 71 77 3d f0 f9 ae 3d d1 51 4b bc d6 82 c2 ba
       0.06041099 0.085437655 -0.012409643 -0.0014840018
0000c0 a2 7e 9d 3d cf 71 36 3c ef 11 9b bd b5 f4 88 bd
       0.07690169 0.0111355325 -0.0757178 -0.06687299
0000d0 7e 6c 17 3d 84 00 12 3d 64 25 88 3d 9f 15 83 3b
       0.0369687 0.035645023 0.06647757 0.00400038
0000e0 c0 79 89 bc 93 fd 05 bd 02 65 51 bb a7 b8 a1 bc
       -0.016781688 -0.03271253 -0.0031951074 -0.01974137
0000f0 fa 6f c2 3c 71 28 62 bd e8 d7 a6 bc b8 b2 92 bd
       0.023735035 -0.05521435 -0.020366624 -0.07162994
000100 c5 1f b5 3d 8a 5f 6a 3d 84 76 28 be e2 03 86 be
       0.0884395 0.05722002 -0.1645146 -0.26174837
000110 4a 1f ae 3d c0 02 d6 3e c1 b1 d4 3d bd b1 2a 3d
       0.08502062 0.41798973 0.10385466 0.04167341
000120 2b 64 87 bd 0f 30 56 be ce 63 7b be d7 31 1f 3e
       -0.066109024 -0.2091677 -0.24549791 0.15546356
000130 c3 40 1c 3e 75 1b 10 be a0 1e 90 bd 5f 96 90 bc
       0.1525908 -0.14072974 -0.07037091 -0.017649828
000140 80 72 39 3e 0c b5 7e bd fd e5 0f be a6 6a 0a 3d
       0.18110085 -0.06218438 -0.14052577 0.033793114
000150 00 2d 28 3c ea a6 9f 3c c0 0d 13 be 01 f4 db bd
       0.010264635 0.01948877 -0.14360714 -0.107398994
000160 8f 33 ba 3d e2 74 6c bd 5e 31 93 bd 2e a1 0e bd
       0.09091865 -0.057728656 -0.071871504 -0.03482168
000170 51 5d c9 3d 00 6b 2b bd a4 bd a4 bc 39 24 a1 3d
       0.09832252 -0.04185009 -0.020109959 0.07868237
000180 70 4e c9 3c 2f ed 9e 3d 79 df 41 3d 40 08 a3 bd
       0.024573535 0.07760083 0.04733226 -0.07960558
000190 e6 3e a7 bc 0e 76 8a 3c e6 d5 1c 3e 7c f9 fc 3d
       -0.020415734 0.016901996 0.15315971 0.12352273
0001a0 3c 5d 81 3d 5e 39 4f ba 26 05 d9 3c b3 18 ec bd
       0.06316611 -0.0007904972 0.026491713 -0.115281485
0001b0 b5 0e 98 bd 82 3d 78 3d 2f 27 e1 3d bc 1f 8d 3e
       -0.0742468 0.060605533 0.10993802 0.27563274
0001c0 00 72 17 be 8c 41 dd 3c 15 4e 4d 3e 1b f9 7c 3d
       -0.14789581 0.027008794 0.20049317 0.061761003
0001d0 4c 67 5f be c0 1b 48 be dc 02 44 3e 75 52 aa bd
       -0.21816748 -0.19541836 0.19141716 -0.08316509
0001e0 98 d4 29 bd 47 d4 67 3c 14 c2 47 bd e2 80 c8 bd
       -0.04146251 0.014149732 -0.04876907 -0.097902074
0001f0 98 d2 51 bb 99 dd 25 bd fe d3 88 3d 31 44 dc 3c
       -0.0032016393 -0.040494535 0.06681059 0.026887985
000200 dc 41 d2 3d 70 b8 bb bc d2 1a bb bd d6 33 f5 bc
       0.10266468 -0.022915095 -0.09135975 -0.029931944
000210 51 f5 c9 bd 2d 1b 71 3d d7 b2 a7 bd c7 60 3d bd
       -0.098612435 0.058863807 -0.08188408 -0.046234872
000220 4c 3e 8e 3d f4 1b 80 bd 77 5a 5b bc 8e 10 94 3d
       0.06945476 -0.06255332 -0.013388268 0.0722972
000230 16 94 64 bc 69 51 d8 3b 84 b8 a9 3d 21 10 bd 3d
       -0.013951322 0.0066015017 0.08287147 0.09231592
000240 ac c4 3b ba 5c 1b 43 bc 0e a0 41 bb 73 dd b5 bd
       -0.000716279 -0.011908378 -0.0029544863 -0.08880129
000250 68 c6 a9 bd eb 12 86 bd 49 3d c4 3d d7 0d 43 bd
       -0.08289796 -0.06546577 0.09582002 -0.04762062
000260 4a 46 88 bd 19 e6 91 3e 3f ea ad 3d 9f 41 e1 3d
       -0.066540316 0.28495863 0.084919445 0.10998844
000270 7c d5 55 3d b6 27 2c 3c 4c c4 8e 3c 25 82 86 3d
       0.052205548 0.010507515 0.017427586 0.06567792
000280 66 2f 5b bd b8 3b 7a bd eb 81 2a 3e e8 37 3e be
       -0.053512 -0.06109211 0.16651122 -0.18576014
000290 c1 f1 23 be 16 be c9 3c d4 01 45 3d 12 db c1 3c
       -0.1601019 0.024626773 0.048097447 0.023664031
0002a0 da 34 0a 3d 12 06 f9 bc 24 49 a7 be 7c 24 92 bd
       0.03374181 -0.030398402 -0.3267299 -0.07135865
0002b0 01 e8 83 3e 16 32 ba 3e 9f 63 81 3d 88 0e 79 3b
       0.25762942 0.36366338 0.06317829 0.0038003046
0002c0 57 e8 38 bc 08 50 c2 bd 02 86 a8 bd 56 30 6e 3e
       -0.011285863 -0.09487921 -0.08228685 0.23260626
0002d0 27 68 b1 bd d2 9a 4b bd 74 e9 a4 3c cf b3 18 bd
       -0.086624436 -0.049708195 0.02013085 -0.037280854
0002e0 5b 7d 16 be f2 2a e1 3b e7 85 6c 3e 3c b6 5c be
       -0.14696257 0.0068715746 0.23097955 -0.21553892
0002f0 9f 0e 92 3d 6e 55 d9 3d 5a 23 06 3e e4 6f b8 bd
       0.07131695 0.106119975 0.13099423 -0.090057164
000300 eb 08 8f 3d 46 b4 1a 3d c6 f2 4a 3e 4a 32 3b 3d
       0.06984123 0.03776958 0.19819173 0.045702256
000310 75 67 8d bc 0c 75 1a 3e 10 8c 44 3e 8f db 76 3e
       -0.017261246 0.15083712 0.19194055 0.24107192
000320 d7 16 2e 3d bf e9 dc 3e 63 9c ae 3c a4 c7 1d 3e
       0.04250225 0.43147084 0.021314805 0.15408188
000330 59 25 ca 3d 42 ea 2e 3e 02 d8 77 3e 74 1d f5 3c
       0.09870405 0.1708155 0.24203494 0.02992127
000340 e6 e2 d6 bd cc 4c 50 be 9d 1e 1b be 1a 44 c1 bd
       -0.10492496 -0.20341796 -0.15148397 -0.094368175
000350 58 1e 51 bd 7b 72 24 be 24 8e c4 bd 2e 59 eb bd
       -0.05105433 -0.16059296 -0.09597424 -0.11491619
000360 58 90 5b bc e3 66 57 be 26 44 cc bc e0 9c 2c be
       -0.013401113 -0.21035342 -0.02493484 -0.16856718
000370 77 09 0f be 5f 5c 1c be b8 ae c4 3c 9a 49 d5 bc
       -0.13968454 -0.15269612 0.024009094 -0.026036073
000380 b0 8a 18 be 94 1b 3f be 4a 39 dd bd d4 29 5f bd
       -0.14896655 -0.18662864 -0.10801943 -0.05448325
000390 2a fd 01 be 71 c4 5f be a4 ad 96 bd c0 1c 14 be
       -0.1269423 -0.2185228 -0.07357338 -0.14464092
0003a0 7f e9 5d be 75 1d 0f bd bf 4e fb bc 40 25 92 bb
       -0.21671103 -0.0349402 -0.030677198 -0.004460007
0003b0 56 a3 1c be 91 06 c2 bd 5f ec 96 bd 31 24 da bd
       -0.15296683 -0.09473909 -0.07369303 -0.10651434
0003c0 ac e8 50 bd ff 97 49 3c 42 af 0b 3d 86 5c 0f bd
       -0.051003143 0.012304305 0.034102686 -0.035000347
0003d0 4f 85 60 3b 7b 03 0d 3d 23 de 83 bd 5d d9 06 3e
       0.0034259146 0.034427147 -0.064388536 0.13168855
0003e0 db 09 3a be 15 62 48 bb 6a 21 99 3d 32 cb 50 3d
       -0.18167822 -0.003057604 0.07477076 0.050975032
0003f0 1c 89 4f 3c 78 6b 06 be 3d b7 90 bd 78 cb 91 bd
       0.012666967 -0.13126934 -0.070662 -0.07118887

node_layers.0.bias f4 [64]
000000 c5 99 bb 3e e7 ba e4 be ba 69 6a be 54 62 1e 3f
       0.36640754 -0.44673845 -0.22891894 0.61868787
000010 75 b1 9a 3d 36 0b 96 bd 5e 6a e5 be 75 c4 9d 3e
       0.075533785 -0.07326357 -0.44807714 0.30813947
000020 65 f7 28 bf a7 5c e8 be 0e 81 4a 3e 3a c8 a4 3e
       -0.66002494 -0.45383188 0.19775793 0.3218401
000030 fc 89 ac be 0c 3f ad be 67 cf ff be 8e 7d 37 be
       -0.33699024 -0.33837163 -0.49962923 -0.17918989
000040 03 7c 51 be 97 f0 2e be 4e 30 e6 3e dd 4d db bd
       -0.20457463 -0.17083965 0.4495873 -0.107082106
000050 ea 31 97 bc cc bf a9 be b3 07 3b be 35 d3 63 be
       -0.018456418 -0.33154142 -0.18264656 -0.22248538
000060 66 1c 2f bd 9e df d4 3e 8a c1 d6 be ee 39 85 3d
       -0.042751692 0.41576856 -0.41944534 0.0650519
000070 3f a7 0f bf 6a 76 ac be 7e c9 95 bd 84 a0 cb 3e
       -0.5611457 -0.33684093 -0.07313822 0.397709
000080 2b 79 2f 3f b3 22 c5 be 96 fc f2 be fb a9 3d 3e
       0.6854426 -0.38503036 -0.47458333 0.18521874
000090 ba da 2a be ce 2b 20 bf e7 13 16 3e 9a 05 00 3f
       -0.16685 -0.6256684 0.1465603 0.5000855
0000a0 2b 95 66 bd 4d ef f4 be ce dd 88 bd 8f c0 e5 bd
       -0.0562946 -0.47838822 -0.06682931 -0.11218368
0000b0 41 2d fe 3c 3e 40 96 3e 09 59 34 be 52 20 58 be
       0.031027438 0.29345888 -0.17612089 -0.21106079
0000c0 68 2c 30 3f 3b ba 21 3e db bc bb be ee 73 c6 be
       0.6881776 0.15793698 -0.36667523 -0.38760322
0000d0 df 3f b8 3e e8 3c 0b bf be 3d 00 be a8 83 15 be
       0.3598623 -0.5438981 -0.12523553 -0.14601004
0000e0 66 db 40 be ca 4b 39 3f ea 3b 1c 3d b0 d0 06 bf
       -0.18833694 0.7238127 0.038143076 -0.5266218
0000f0 0d f4 f1 be 89 71 8f be c0 14 4b bd 0f 30 27 3e
       -0.47256508 -0.28016308 -0.049580336 0.16326927

node_layers.1.weight f4 [64, 170]
000000 70 fe 47 bd ca 35 cd 3b 42 31 bf bd 5f b5 76 bd
       -0.048826635 0.0062625157 -0.09335567 -0.060231563
000010 21 08 30 bc a6 83 ed bd 41 3b 09 be 42 95 b1 3d
       -0.010744126 -0.115973756 -0.1340151 0.08671047
000020 88 ae 06 3e 50 82 62 bd 7a 13 3b be 56 72 5f be
       0.13152516 -0.055300057 -0.18269148 -0.2182096
000030 47 c4 5e 3d fb 92 1c bd dd 9e 27 be 34 2c a4 bd
       0.054386403 -0.03822611 -0.16369195 -0.080162436
000040 5f cd 06 be 88 fb 8d 3c 40 b0 8c 3d 70 55 e5 bd
       -0.1316428 0.017331854 0.068695545 -0.111979365
000050 a3 36 b7 bd 5f 44 07 bd 6a 22 82 3d f2 47 af 3c
       -0.08945968 -0.033024188 0.0635422 0.02139661
000060 9f f9 02 be 3b b6 09 3d f5 a7 28 bd c6 c8 98 3d
       -0.12790535 0.033621054 -0.0411758 0.074601695
000070 33 5c b6 bd 86 03 45 bd dc 3c 45 bd ca d8 f6 bd
       -0.08904304 -0.048099063 -0.048153743 -0.12053068
000080 c0 df c2 3d 62 d2 5b bb 37 88 b0 bd 81 cd a3 3d
       0.09515333 -0.0033542146 -0.08619731 0.07998181
000090 b7 a3 93 bd 37 53 82 bd 19 c5 25 bd ac fd 40 bd
       -0.072089605 -0.06363528 -0.04047117 -0.04711692
0000a0 f4 15 23 be a5 18 d3 bc e5 8e f3 bd 27 4a d4 3c
       -0.15926343 -0.025768587 -0.11892489 0.025914265
0000b0 1c b1 6f 3e ba 17 5a 3d e9 18 f3 bd f5 fc 56 3c
       0.23407406 0.053245284 -0.118699856 0.013121833
0000c0 ec e8 1e bd c8 18 0a 3d de 92 07 be 24 b8 54 3e
       -0.03879635 0.03371504 -0.13239619 0.20773369
0000d0 81 4d 94 3d 1a 54 d1 bc 62 e9 26 be 20 4a f6 bc
       0.07241345 -0.025552798 -0.16299966 -0.030064642
0000e0 40 42 66 bd ef 6a 3c 3e 74 fb c0 bd 25 b3 8c bd
       -0.056215525 0.18400167 -0.09422961 -0.068701066
0000f0 75 14 06 3e ae f5 fe bd ba d7 83 3e 5f 6d 86 3d
       0.13093741 -0.124492034 0.25750524 0.0656383
000100 80 9f 95 bd 78 4b 4e bd 8c 36 81 bd c6 f2 d1 bd
       -0.07305813 -0.05036494 -0.06309232 -0.102513835
000110 1c b5 be bd 11 35 48 3d 93 db 96 3d 08 06 16 3d
       -0.093118876 0.048878733 0.07366099 0.036626846
000120 a3 cc 99 3e e7 72 78 3d de a5 a2 3d e9 c9 95 3a
       0.30038938 0.060656454 0.07941793 0.0011427972
000130 e7 3a 18 3e 81 45 e6 3d 7a c0 a6 3d d1 dc 1d 3e
       0.1486622 0.112437256 0.08142181 0.15416266
000140 f1 b5 09 3d e9 18 c2 3c 20 3a f6 3c e0 0e 07 3e
       0.03362078 0.023693519 0.030057013 0.13189268
000150 2c 74 7a 3d 9d 21 85 3d 89 8c 10 3e d1 82 cd 3c
       0.061145946 0.06500552 0.1411611 0.025086792
000160 e2 7e 10 3e ad 7d 10 3e 34 35 ac 3d d3 d9 61 3c
       0.14110902 0.14110442 0.08408585 0.0137848435
000170 37 40 11 3d a9 c6 43 3d 28 e5 ea 3d c9 40 8d 3d
       0.03546163 0.04779688 0.11469489 0.068971224
000180 1e 43 d5 3d 8e 4b b6 3c 44 a0 a2 3d 9f 4a 93 3d
       0.10413192 0.022252824 0.079407245 0.07191967
000190 fa 30 36 3d 92 9e b1 3d 28 24 12 3b 41 5e 13 3e
       0.0444803 0.08672823 0.0022299383 0.14391424
0001a0 e1 84 ea 3d 14 3c 02 3e a4 60 1a 3d ad b6 d5 bd
       0.11451126 0.1271823 0.03768982 -0.10435233
0001b0 e6 94 38 be c1 f3 1f 3e f5 96 9b 3c b8 99 21 be
       -0.1802555 0.15620328 0.01899288 -0.15781295
0001c0 c2 2d a1 3b e8 fe a4 3d c4 6a 5e be 85 36 7e 3d
       0.004918785 0.08056432 -0.21720415 0.062063713
0001d0 2b f1 4f 3e 2e 85 c0 be 71 25 98 be 76 50 ae bd
       0.20306842 -0.37601608 -0.29716066 -0.085114405
0001e0 e2 71 19 be 73 6a 06 3d dc ef 29 be 96 b5 0d be
       -0.14984849 0.03281636 -0.16595405 -0.13838801
0001f0 98 3d d9 3e c1 d2 64 3e 16 b1 01 3e 54 88 9a 3e
       0.42429805 0.22346021 0.12665209 0.30182135
000200 b5 d9 c1 3d 12 93 22 3e c0 9e ee bb 75 b2 09 3d
       0.094653524 0.15876415 -0.007282108 0.033617456
000210 39 f5 c3 bd 81 b8 09 3e 86 90 4a be 4a aa d1 bd
       -0.09568257 0.13449289 -0.19781694 -0.10237558
000220 42 4b 94 be c7 ed b9 3e bc ce 93 3e 69 aa 55 be
       -0.28963667 0.36314222 0.28868663 -0.20865788
000230 cb 73 0a be 33 68 1e 3f 85 75 6c 3d 9e a4 16 bd
       -0.13520734 0.61877745 0.057729263 -0.036778085
000240 85 f0 01 3f 89 36 8e 3e 11 4b a7 3e d0 8c a0 be
       0.5075763 0.27775982 0.3267446 -0.3135743
000250 87 85 91 bd 19 06 d2 3e 12 74 0c 3e 4a dd 5e 3e
       -0.071055464 0.41020277 0.13716152 0.21764103
000260 d3 1a ca bd c5 69 1f be ef c1 c8 3d 4f 05 ef 3e
       -0.098683976 -0.15567692 0.09802615 0.46683738
000270 43 37 96 bd 1b b8 b2 bd e0 47 2e 3e 75 29 c9 be
       -0.07334759 -0.087265216 0.17019606 -0.39289442
000280 af 16 0a be 7a c9 1b 3c c9 2a a3 bb 76 8a e3 be
       -0.13485216 0.009508485 -0.0049794656 -0.44441575
000290 ad fd c6 3d a9 01 bd 3c 25 c2 b1 bd c9 37 7a 3c
       0.097163536 0.02307208 -0.08679608 0.015272089
0002a0 1f d5 d0 3e f1 30 f8 3c de 92 0e 3e da 8a 1a be
       0.40787598 0.030296775 0.13923213 -0.1509203
0002b0 65 1e ef bd d1 fc 9c 3e cd c2 ee bd 38 61 46 bd
       -0.11675719 0.30661634 -0.11658249 -0.04843256
0002c0 e4 eb 5a be 8b 88 0f be 33 0a eb bd b9 06 2b be
       -0.21379048 -0.14016931 -0.11476555 -0.16701783
0002d0 14 4b 5d be 3a 02 62 3e 16 e4 69 bd 07 ba 26 bd
       -0.21610671 0.22071162 -0.057102285 -0.040704753
0002e0 92 02 39 bd bd 77 56 3d ee 88 e7 3d e2 73 20 be
       -0.045168467 0.052360285 0.11305414 -0.15669206
0002f0 a1 b2 01 bd dd 42 4d be 3d 56 05 be 05 ce 04 be
       -0.031664494 -0.20045038 -0.13021179 -0.12969215
000300 64 7c a7 3d 80 08 37 be 83 ed 54 be 2c 03 bc bd
       0.081780225 -0.17874336 -0.20793729 -0.091802925
000310 8a ab 43 be f9 6d 20 bc ea 82 23 3e c7 7d d6 bc
       -0.19108406 -0.0097918445 0.15967909 -0.026183022
000320 45 05 b0 be ac c3 8d bd 9e c5 9c 3e 67 45 60 3d
       -0.3437902 -0.06922087 0.3061952 0.054753687
000330 5e 49 38 3d 18 1c 97 3d 56 21 5e 3c 03 be bf bd
       0.044991843 0.07378405 0.013557753 -0.09362414
000340 df 2b a6 3d b3 9c 76 bd 8b 0e 42 bd 50 16 a3 bc
       0.081138365 -0.060208034 -0.04737715 -0.0199081
000350 e9 63 c9 bc a7 48 08 3d 45 32 b0 3d 76 e5 26 3d
       -0.024583774 0.03327241 0.08603338 0.040746175
000360 30 8b 6e bd 5c 8a 8c 3d 45 ba 5e 3e 18 ce b7 3c
       -0.05823821 0.068623275 0.21750744 0.02243714
000370 c7 82 bd bc 8d b3 51 bd 72 86 66 bc 7e 4f 18 3e
       -0.023133649 -0.051196624 -0.01407014 0.14874074
000380 02 03 0d 3c 68 34 d4 bd a1 07 df bd ce ef 6b 3e
       0.008606674 -0.10361558 -0.10890127 0.23040697
000390 d8 a7 e0 bd 58 33 1f be 62 2d 1d be 47 af 2f bd
       -0.10969514 -0.1554693 -0.15349343 -0.042891767
0003a0 cf ed 11 3e d8 6d 28 3e ff c3 d8 3c 3b 7a c1 3c
       0.14250873 0.16448152 0.026460646 0.023617854
0003b0 f9 c7 07 bb 4b e5 af 3d 93 4d ab bd ff e9 4e 3d
       -0.0020718558 0.08588656 -0.083644055 0.050516125
0003c0 ce 30 86 3d d5 ce f4 3d cb a4 67 3f 2e c3 b9 3b
       0.065522775 0.119535126 0.9048583 0.005669019
0003d0 7a 35 d1 3d eb b5 d4 3d f2 01 2f 3d f0 03 8f 3d
       0.10215278 0.103862606 0.042726465 0.06983173
0003e0 5c 17 43 3c f8 bf 25 3d b7 35 50 3b 1f 22 9a 3c
       0.011907425 0.04046628 0.0031770298 0.018815098
0003f0 fe 42 09 3d 61 ff bb bc 03 f4 3a bc 60 50 38 3d
       0.033511154 -0.022948923 -0.011410716 0.044998527

node_layers.1.bias f4 [64]
000000 59 3d 49 bd c7 db df 3e 65 4f 9b 3e 98 28 70 3e
       -0.04913077 0.43722364 0.3033401 0.23452985
000010 bb ad b0 3e c2 01 28 be 8a bc c7 bc b7 4a d0 bd
       0.34507546 -0.1640692 -0.024381895 -0.10170501
000020 a3 de d9 3e 07 87 85 3e 93 b3 c9 3e 22 7c 48 be
       0.4255267 0.2607958 0.39394817 -0.19578603
000030 dc b9 d4 3e cc d1 1a be 92 9d eb 3d 8c 68 70 3e
       0.4154805 -0.15119094 0.115046635 0.23477381
000040 b1 1d 0f 3f de 76 25 be c0 19 e1 be 01 04 32 bd
       0.5590468 -0.16158625 -0.43964958 -0.04346085
000050 35 94 e7 3e f7 ca 31 3e 9a 89 ba be d3 4c ea bd
       0.4523026 0.17362581 -0.36433107 -0.11440434
000060 22 5f 06 3e b9 ca 40 3d 48 4e 91 3e ae 42 8d bc
       0.13122228 0.04706833 0.28380036 -0.01724371
000070 ba 54 90 be f1 a9 84 bd 66 d2 40 be 5a 76 c2 3e
       -0.2818964 -0.06477726 -0.1883026 0.3798092
000080 cb fa 3b 3d 9b 03 0e be 5c d2 18 be e9 b1 3a 3e
       0.04589347 -0.13868563 -0.14923996 0.1823193
000090 01 f3 e2 3d 9c 61 18 be 2b 6d 24 3e 6a dd 90 be
       0.110815056 -0.14880985 0.1605727 -0.28293926
0000a0 23 d7 bd be ef 22 42 be 33 45 f0 3b 5c 64 06 3e
       -0.370782 -0.18958639 0.007332468 0.13124222
0000b0 23 23 4d be 63 6f 2c be 1d d8 f3 3e 02 ed 85 be
       -0.20032935 -0.16839366 0.4762582 -0.26157385
0000c0 ba 98 c6 bd 51 b0 14 3f 0a 5c 80 3d 81 c2 c4 3d
       -0.09697099 0.5808154 0.06267555 0.09607411
0000d0 a5 d4 a1 3e 25 aa dd 3c 26 77 85 bc 2f e6 27 be
       0.31607547 0.02705867 -0.016292166 -0.16396402
0000e0 d5 ec e1 3e 3d cb b2 be 3b 7b 68 be 18 93 c2 bd
       0.44126 -0.34920684 -0.22703259 -0.09500712
0000f0 8e a8 c1 bd 28 8c a6 3e 5b 04 fe bd ff 53 67 3e
       -0.094559774 0.32528806 -0.124031745 0.22590636

fc.weight f4 [2, 64]
000000 89 45 f2 3d 6e be 4f 3d 30 1d 11 3e 90 9d 9d 3c
       0.11829669 0.050718717 0.1417129 0.01924017
000010 46 00 f5 3c f3 12 af bd 32 d1 15 be 61 dc 69 bd
       0.029907357 -0.08548536 -0.14630583 -0.057094935
000020 e7 fd 88 bd c8 f6 1e 3d fa f6 c1 3c 54 df e5 bb
       -0.06689053 0.038809568 0.023677338 -0.007015148
000030 05 e2 ca bc 62 7f c8 bd b8 09 84 3d a7 5d 12 bd
       -0.024765978 -0.09789921 0.06447166 -0.035733845
000040 e6 69 08 3e 59 98 32 bd d4 7e 5a 3c e5 96 07 3e
       0.13321647 -0.04360232 0.013335902 0.13241155
000050 75 e5 2e 3e d5 f3 88 bd fd 3f 51 3c 5d 0a 96 3c
       0.17079718 -0.06687132 0.012771604 0.018315488
000060 cb e1 f8 bc 18 c8 af bc 2d 52 23 3d fd 0b 80 3c
       -0.030381104 -0.021457717 0.03987329 0.015630716
000070 73 2e ac 3c 33 ed 0c be 7b f6 12 bd 3b e2 1c 3d
       0.021018242 -0.1376236 -0.035879593 0.038301688
000080 49 71 39 bd 24 20 8e 3d a6 16 be bd 13 48 3b 3d
       -0.045274053 0.06939724 -0.092816636 0.045723032
000090 a6 05 33 3d 34 fb 8c bd 71 ea 84 3a 7c 74 0d bd
       0.04370656 -0.06883851 0.001014067 -0.034534916
0000a0 59 ef d9 bc 22 b8 88 bd ef 94 91 bd ec 7d cb bd
       -0.026603388 -0.066757455 -0.07108485 -0.09936127
0000b0 8e 11 bb bd fe 06 00 be 8b a8 18 3c 89 6d 9e bd
       -0.09134208 -0.12502667 0.0093175275 -0.07735736
0000c0 96 0e 35 bd 17 73 e6 3c 0b 39 46 bd aa fb 5d bd
       -0.044203363 0.028131051 -0.048394244 -0.054195084
0000d0 9e d1 e0 bc 3f 30 c7 3a ab 3b 2c bd 3b b8 c0 bd
       -0.027443703 0.0015196874 -0.04204909 -0.09410139
0000e0 2b 99 3f bc 00 d0 03 3d ab 69 3e bd 37 c5 86 3c
       -0.011694233 0.032180786 -0.04648749 0.016451461
0000f0 dd e3 d2 3b 4a 0e e4 3d 5f 51 16 be 0e 59 72 3c
       0.006435855 0.11135538 -0.14679478 0.01479174
000100 fa bd 25 bb 18 40 39 3c b5 35 47 3d ea d8 fd 3c
       -0.0025290237 0.011306785 0.048635203 0.030987222
000110 28 5f 2b 3d 3b 77 b3 3c 41 89 81 bd 2d 7d 66 bd
       0.041838795 0.02190744 -0.06325007 -0.05627172
000120 08 18 64 bd 85 b8 a7 3c f9 25 ad 3c f3 5f 17 bd
       -0.05568698 0.020473728 0.02113627 -0.03695674
000130 16 df 8f bc c8 c7 dc bd 63 b1 b6 3d 61 81 40 3c
       -0.01756243 -0.10780293 0.089205526 0.011749596
000140 19 fd 38 3d 15 21 a6 3d 87 47 b7 3d 82 99 9b bb
       0.045163248 0.08111779 0.0894919 -0.004748524
000150 e7 2f 14 be 49 44 ab bc e2 25 36 bc 47 6a 9b 3d
       -0.14471398 -0.020906584 -0.01111743 0.0758863
000160 4f ad d4 bc 65 dd 2f 3b 62 67 93 bc 9b d0 d7 3d
       -0.025961546 0.0026834842 -0.017993633 0.10537835
000170 27 48 94 3c 5b 8a 19 3e be da 2f 3e 91 c0 10 3c
       0.018100811 0.14994185 0.17173287 0.008834974
000180 ca ad 4d 3d f7 f8 c8 3d 39 f2 b0 bd 9b 7d 34 3d
       0.050214566 0.09813111 -0.0863995 0.0440651
000190 06 d0 ac 3d 09 96 c8 bb 63 90 50 3d ae 93 df 3c
       0.08438115 -0.006121401 0.050918948 0.027292099
0001a0 30 79 f2 bb 78 87 fc 3c 98 54 a3 3b 93 3e 89 bd
       -0.0073997006 0.030826315 0.0049844496 -0.06701388
0001b0 99 52 73 3c 92 e3 1b bd ce 83 ba 3c a3 b5 c4 3d
       0.014851236 -0.038058825 0.022767927 0.09604957
0001c0 d4 60 05 be 69 ee af bd 2c 2c 70 bd cf 4a a7 bc
       -0.13025218 -0.08590395 -0.058635876 -0.020421414
0001d0 d5 e5 93 3b b1 ad 04 bd e7 13 62 3d 3f 6e b7 3d
       0.004513482 -0.032392208 0.05519476 0.08956575
0001e0 a6 49 ec 3c 36 ed d8 3d 56 bc e0 3c c1 74 a7 3d
       0.028843712 0.105921194 0.027433556 0.08176566
0001f0 8c 22 31 3e 9f 82 de bd f3 c3 fe 3d d9 af 2c 3d
       0.17298335 -0.10864758 0.12439718 0.04215989

fc.bias f4 [2]
000000 48 9a 3b 3f 20 85 38 bf
       0.7328229 -0.7207813
