experiment/phish_eth/GraphSAGE/GraphSAGE_checkpoint.pt (torch_old, 37098 bytes, 6 tensors)

gcn_layers.0.layer.weight f4 [64, 8]
00000000: 5f06 693e 75aa 1ebf 069f d1bf 9691 98bf
00000010: 2a62 33bf 569e 23be 70fa 553d df26 d93d
00000020: de64 c6bd f5f9 463d 1534 f83d be85 193d
00000030: 496a 46be d641 dcbe 4eb8 473e f89d 84c0
00000040: b74b 80be e9ca af3d 8ea9 d0bd 7e81 cabe
00000050: 8978 37bd f1d9 cbbb 7bee 083f aa79 cb3d
00000060: ed45 063d 3e99 d5bc cbdc e5bd eded 8d3c
00000070: 3627 09bf c0b2 69bd 444a c0bd 674d 953d
00000080: 443f 6bbf a623 7c3d 0a39 ab3e c843 f03c
00000090: 244e 6b3d ba0c 4dbe 3b29 043e cdb8 60b8
000000a0: 1fea fdbe af3d 8abc 937a 59bc 646f bfbc
000000b0: 0fa8 50bd cf8d eabf a27d b93e 209c 2cc0
000000c0: df2b 733e f719 1fbe 0012 b33d f0d2 05bf
000000d0: 509d 753d 5953 92bc 8827 213e d9ff 333b
000000e0: 50fb d83c 27de 90be 59ce b4bc 78d3 553e
000000f0: 8468 803d aa4f 85be 21c7 be3e e25b 103e
00000100: 7a2a 00bf 6fa5 c83d 6112 583e d3bc aabe
00000110: e8e0 57bf dfbc 09be 12e1 1bbf 69ee e23d
00000120: cb89 c53d 756c 443b e0de 88bc cd75 3b3d
00000130: 271f 193e 4e46 96be 9621 243e e1e8 09bf
00000140: cb01 88bf 4c9f b1be 8115 15bd 026b 3c3e
00000150: 7cfd f63d d0db 003e 2e2e 7abe 7c45 1b3b
00000160: 28ba b9bf d13d 3bbc 6d01 67be f1c9 44bd
00000170: d0db 6ebc c747 7c3e e96b 41be 4596 c1bf
00000180: e8b9 1b3c 7e3f b83c 6284 a5bf 1d64 8f3e
00000190: b90d d33c abc5 16be f66f f93d 797a d8bd
000001a0: 2ea5 03c0 60a5 5c3b c1d8 d5be b775 0cbe
000001b0: 5212 dabd 9acc df39 628f 9abd c059 8f3c
000001c0: 517a fd3d 95c4 583e 4428 6ebe c590 99be
000001d0: d5f6 443e d935 1c3e 6893 e63e 3bc1 0bbe
000001e0: 11eb 5ebe 7725 aebc d6ce 5ebe 916d 85bc
000001f0: 9ba5 143e 706b a6bc 8d36 843e d1db 323c
00000200: 0e7f 4d3d 8d7a ea3d f4cf 393e c354 25bd
00000210: 9a0d a3bc dabc 2b3d 496d 483b a8d5 69bf
00000220: 5e74 68bf c11f 813d 3286 19be d5bc faba
00000230: 12a1 b8bb 8692 d43c 7ed7 c2be 8f1e e3bc
00000240: 270e d43d fbce ac3d 35d6 1cbd ab52 14bd
00000250: 6ffa 963e 576e c73d aaba b4be 5b07 c63d
00000260: 5993 fd3d b163 a5be 1d03 4a3e 28ed 66be
00000270: 674a 333e fc88 07bf 37fd 253e 3ab8 69bf
00000280: 2d22 3f3e 8b02 b3be 9b55 22bf bfa3 88bf
00000290: cd18 00bf 3c01 fabd 6ee5 0b3e 9389 dc3c
000002a0: 1ee0 b5be 2192 633d 8e85 e13d 5ab3 86bd
000002b0: e328 3a3e 87ed 523d 9dd7 9f3e 1c34 b0be
000002c0: 321d 06be 3836 40bd f26d 85be b8be 6abd
000002d0: 9522 46be 7c2a 65be a8a2 313d dc23 91be
000002e0: ef3c c2bd afea 83be 81d6 82be 2e9d 5c3e
000002f0: 2bdf 873d 5e5f 3fbd 3556 b33d 9433 3d3e
00000300: ae6a 3e3d 4160 fcbf 4531 1bbd a96b 38c0
00000310: 2ca4 30bf e33e f93d 776c f03d f87f 4bbe
00000320: 96b8 1dbd 8c21 4cbd 57bd 82bb 269c 443c
00000330: aa8a 993e 764d 67be b69d ca3d c5cf 483d
00000340: 2d40 493e 4bf7 67be c22b 263e 079e cebd
00000350: 8ae3 3cbd 97eb c2bd b80d a13e 59c6 0c3d
00000360: 6617 193e d2c2 37be 0026 16be a998 86be
00000370: cfa9 01bd 9861 ccbd ca95 8d3e 503a 783e
00000380: b34f 87bd 89f6 aabc 9e65 babe b873 2fbd
00000390: d220 333e 99a8 1e3e 496f df3d 08f6 0abf
000003a0: e20e ce3d b14f e6bc a9a7 223e a041 5bbe
000003b0: 8cb6 6e3e 96d9 6d3d d0d0 73bd 350d afbe
000003c0: c1e9 06bc 37b9 70be dbd1 e7bd 2091 2a3e
000003d0: 02cc 02bf 7514 443e 9960 08bd 8d43 7abe
000003e0: 610d 8b3d acb8 bebd b17f 87be e82b 2c3c
000003f0: b8a3 9b3e 0c98 acbe 095f 59be 2ff7 85be
0.22756337 -0.61978847 -1.6376655 -1.1919429 -0.7007166 -0.15978369 0.05224079 0.10603117
-0.09687208 0.04857822 0.12119309 0.037481062 -0.19376482 -0.4301898 0.195039 -4.1442833
-0.25057766 0.08583624 -0.1018859 -0.3955192 -0.044792686 -0.006221049 0.5348889 0.09935315
0.03278153 -0.026074048 -0.112237535 0.017325366 -0.53575456 -0.057055235 -0.09389165 0.07290154
-0.9189341 0.061557434 0.33441955 0.029329196 0.057447568 -0.20024386 0.12906353 -5.357787e-05
-0.49592683 -0.016875116 -0.013273853 -0.023368545 -0.050941523 -1.8324527 0.36228663 -2.697029
0.23747204 -0.15537249 0.087436676 -0.5227499 0.059964478 -0.017862009 0.15737736 0.002746573
0.026487023 -0.2829449 -0.02207105 0.2088145 0.06269935 -0.2603734 0.37261298 0.1409755
-0.50064814 0.09797179 0.21100761 -0.33347186 -0.84327555 -0.13450955 -0.60890305 0.110806294
0.096454225 0.0029971872 -0.016707838 0.04576664 0.1495329 -0.29350513 0.16028437 -0.5387097
-1.0625547 -0.34691846 -0.03639746 0.18400195 0.12060067 0.12583852 -0.24431679 0.002369254
-1.4509935 -0.011428312 -0.22559138 -0.04804415 -0.014578775 0.24636756 -0.1888882 -1.5123984
0.009504773 0.022491213 -1.2931025 0.28006068 0.02576338 -0.14723842 0.12179558 -0.10570235
-2.0569568 0.0033667907 -0.41766933 -0.1371678 -0.106480256 0.00042686315 -0.07546879 0.01749885
0.12376846 0.2116874 -0.23257548 -0.29993263 0.19234784 0.15254916 0.45034337 -0.1364793
-0.21769358 -0.021258099 -0.21758589 -0.016287597 0.14516298 -0.020314902 0.2582287 0.010916666
0.050169997 0.11449156 0.18145734 -0.04036404 -0.019903947 0.04192815 0.0030582717 -0.9134164
-0.9080256 0.06304885 -0.14992598 -0.0019129763 -0.0056344355 0.025948774 -0.38055032 -0.027724532
0.10354262 0.08437916 -0.03829022 -0.03621165 0.2948794 0.097378425 -0.35298663 0.09669372
0.1238162 -0.3230262 0.1972775 -0.22551405 0.17508851 -0.52943397 0.16209875 -0.9129673
0.18665381 -0.34962878 -0.63411874 -1.0674971 -0.50037843 -0.12207267 0.13661739 0.02692107
-0.3552255 0.05555928 0.11011802 -0.06577177 0.1817966 0.051496055 0.31219187 -0.34414756
-0.13097075 -0.046926707 -0.26060444 -0.05731079 -0.1934913 -0.22379488 0.04336801 -0.2834767
-0.094842784 -0.25764987 -0.25554278 0.21544334 0.06634363 -0.04672181 0.08756677 0.18476707
0.046488456 -1.9716874 -0.037888784 -2.881571 -0.69000506 0.12170198 0.11739438 -0.19873035
-0.038506113 -0.04983668 -0.003989856 0.012000119 0.29988605 -0.22588143 0.09893362 0.04902627
0.19653387 -0.22652929 0.1622763 -0.10088735 -0.046115436 -0.095175914 0.3145578 0.034368847
0.14950332 -0.17945412 -0.14662933 -0.26288345 -0.031656083 -0.09979552 0.27653342 0.24240994
-0.06606998 -0.02086951 -0.36405653 -0.042834967 0.17492989 0.15494002 0.10909898 -0.54281664
0.100614324 -0.028114172 0.1588427 -0.21411753 0.23311824 0.058068834 -0.05952531 -0.34189764
-0.008234442 -0.23508154 -0.11319324 0.16656923 -0.5109254 0.19148429 -0.033295248 -0.24439831
0.06789661 -0.09312567 -0.26464608 0.010508515 0.30398345 -0.33709753 -0.2122766 -0.2616515

gcn_layers.0.layer.bias f4 [64]
00000000: fe4b 403e f2ca e23e c573 563f d7cb 22bf
00000010: 2fd6 08bc 9890 803e 9704 923f 6ba2 f13e
00000020: fb0c dcbe d4da a03e 6ea1 3dbe 7e53 113f
00000030: 8a70 f8bc 49ad eb3f 8a97 303f df32 803f
00000040: a714 ff3e 38fc 57bf a70f 98bf 1df4 773e
00000050: 2b64 a73d 6522 b6be 7ba3 34be 265e 23bf
00000060: 45bf 373f a33c 89bd f59e 92be ae03 e13f
00000070: 1f82 323f df69 4c3e 412f c33e ecf7 69bf
00000080: 9525 933e b8a7 09bd d6ee babc acb3 2e3d
00000090: 5e52 023f ba32 f7be 0bbb 84bb eaf1 dc3e
000000a0: 5e67 31bf eafe f0bb a845 b63e b36a ca3c
000000b0: f8a6 97bd cd1a 1c3d 73dc 74bf 0ebe 02bd
000000c0: 84a9 6b3e ecd1 0a3e e5e1 40bf bb4f ddbe
000000d0: bf22 e0be ef8d 43be 0873 5ebf 670d ad3f
000000e0: 8cce 603f 20df 653f 090f 5d3e ef78 3fbf
000000f0: 8675 71bf 27cb ca3f 282d 133f 6019 0f3f
0.18778989 0.4429546 0.837704 -0.63592285 -0.008351847 0.25110316 1.1407651 0.47194228
-0.42978653 0.31416953 -0.18518612 0.56768024 -0.0303271 1.8412257 0.6898123 1.0015525
0.49820444 -0.8436923 -1.1879777 0.24214216 0.081734024 -0.35573116 -0.17640488 -0.63815534
0.7177623 -0.06701019 -0.286369 1.7579248 0.697298 0.19962262 0.3812199 -0.91393924
0.2873961 -0.033607215 -0.022818964 0.042651817 0.5090693 -0.4828089 -0.0040506176 0.43153316
-0.6929835 -0.007354607 0.35600019 0.024709081 -0.07404894 0.038111497 -0.9564888 -0.03191953
0.23013884 0.13556641 -0.7534469 -0.43224892 -0.4377651 -0.19097112 -0.86894274 1.3519715
0.87815166 0.89793587 0.21587767 -0.74793905 -0.9431995 1.5843247 0.5749078 0.55898094

gcn_layers.1.layer.weight f4 [64, 128]
00000000: 544e 3b3d af1e 62be ec7d 3ebd f6d7 e73c
00000010: 8469 1fbe 63ee 013e ee54 943c 6185 b7bc
00000020: d84e 963d 3e07 1fbc 4f55 debd 4cf4 cd3d
00000030: b4e0 c83e 83c3 05be 3e9a 3abe a59e 82bd
00000040: 9f65 4bbd 876f 123d 3079 c7bc 729a ef3d
00000050: 9f53 9fbc 1f9c eebd 1bf8 11bd 2715 7fbb
00000060: 945d 8e3c 9c95 f0bc 3dd7 c9bd 1bde 8e3c
00000070: bf96 07be ba49 05be a9a2 78be 0bfc 18be
00000080: df19 08bd 817d 94be 2fa3 e0bd d2be 06bf
00000090: 3823 30bd 456c 3cbe eadb 1dbf 1c9a d0bc
000000a0: ca42 fcbd 8dd4 76be 95ba 6bbd f65d 86bd
000000b0: 5cf3 15bd 1b71 8abe 6ead 21bd a961 d4bd
000000c0: b6bb d83d 082b 6cbe a9b3 003d 4267 5cbd
000000d0: 3546 0abe 3917 c23d 8450 1abd fd1f 623b
000000e0: 2f30 5dbd 598e 9b3c 656f 31be c099 fbbd
000000f0: 0009 9cbd b167 5dbd 60d2 f0bd 869c 89be
00000100: 7bf2 7e3b e929 1d3e dbb1 1dbd 38c2 943d
00000110: 2fbb 263d eee7 e33e a4c1 243e 873b 8ebd
00000120: 1fdc bdbd fd34 19bd 7c01 e53c 0126 1e3f
00000130: d7c5 e13d 50d9 fd3e a1ef ca3d af53 493c
00000140: ce20 043d deb8 fb3c 7d06 03bd 815b 423e
00000150: 542b 063d 0349 2b3d 984a f83c 4277 00be
00000160: 4a83 59bd c6fb 14bd f04f 0f3d 0377 173e
00000170: 22c1 193b f02e b43d 2d58 cbbd 3ea9 8fbd
00000180: 20f6 a93c d2cd d03d 747a 453d 0523 743d
00000190: 82f2 e33d 11a2 bb3d 2681 26bd 5c84 69bd
000001a0: 578a c4bd 8891 743d c8df c73d d09e e5bc
000001b0: ed6d 683c b735 c0bd 3c9a 9f3d 77a1 ae3d
000001c0: 2a2c 4a3e 1631 6f3d b3e4 803d b455 64bc
000001d0: f528 cdbd e0dc 863e c18f 943c cddc 223e
000001e0: cfcd 84bc 9317 253e 339f 1abd e241 763d
000001f0: a305 2fbd b291 b13e 0943 72bd f21b dcbc
00000200: 48a9 15bd a4fa c6bd 551f 03bd 15dd cabc
00000210: b94c d6bc ad82 82bd 4f87 0dbe f95c 00be
00000220: db4a d8bd 9f97 83bc 7efb c2bd f38a 97bd
00000230: 4449 aebd e31e a2bc 6bce 82bd 8706 a9bc
00000240: 2244 6ebd f422 083d c782 863c 5446 11be
00000250: 71aa 333d 0a97 823d 88b1 9bbc cbba 04bd
00000260: f850 c6bb d0ce 0f3d cade fd3a 85fd 96bd
00000270: beb9 5dbd 4ba5 7cbd 4a83 8dbc 3468 43bd
00000280: 3999 a3bd 8544 54bc 7dcc 35bc f9ed b03b
00000290: 08e6 84bd 0711 b93d ed9f 6f3d c666 ccbd
000002a0: 620f 113c 1784 e9bc 94e6 80bc 94ad c2bd
000002b0: cef8 563d d8cd 833c 5171 8dbc ee59 403d
000002c0: 1342 8abd c072 80bd 6192 66bd 2cd4 02be
000002d0: 9816 c53b 15eb 3d3c 62ea 11bd 3175 e9bd
000002e0: 274d 95bd 4aa3 fd3c adc2 2e3b 9ad2 e13d
000002f0: d651 91bd 17a8 a33c 3171 86bd dd9f 8d3d
00000300: a4ee d7bd e326 86bd acab b03c 5886 153d
00000310: 8290 9abd 3366 90bd 9ae4 2b3d bb19 9cbb
00000320: a018 623d c11f 86bd 2ac9 af3b 7e64 debd
00000330: e770 1f3d 448a bfbb 0a53 433d 9448 a5bd
00000340: 7e83 2cbd 6982 9c3d 098f fe3c 0a59 a4bc
00000350: ec46 ecbd 7e12 df3a 1bd1 2abd 88dd d93c
00000360: 39f1 4f3c b634 10bd a9cf b5bd f048 48bd
00000370: 90ac 053e 666e febc f5d1 f0bc be87 433d
00000380: 5678 f0bb 028c 363d 84cc 503d cc3d 063c
00000390: 0e8a 1fbe d1e0 c2bd 963d 6e3d d2a0 bebc
000003a0: 13f0 cf3c a6a7 e5bc 2c3f 40bd e388 7d3b
000003b0: d9b5 e6bd bd7c e2bd 06c3 f0bd 7231 39bd
000003c0: bc2e 26be aa61 cfbd 30ac 693c b4cd 603d
000003d0: 9bea b1bd 56f1 0ebe c253 0c3c b711 3ebd
000003e0: 4dc3 83bb 6ef8 a7bd 7600 f33c 5add b9bd
000003f0: 0275 fcbd 585e a5bc 2a0a 56bd 11ef 0cbc
0.045728996 -0.22082017 -0.046506807 0.02830122 -0.15567595 0.12688594 0.018106904 -0.022402467
0.07339257 -0.0097063165 -0.10856115 0.100563616 0.39233935 -0.13062863 -0.18222901 -0.06377915
-0.04965746 0.035750892 -0.024349779 0.1169938 -0.019449053 -0.116508715 -0.035637002 -0.003892252
0.017378606 -0.029368214 -0.098555066 0.017439893 -0.13241099 -0.13016406 -0.242808 -0.14939897
-0.033227798 -0.29002002 -0.10968625 -0.5263492 -0.043002337 -0.18400677 -0.6166369 -0.02546411
-0.123174265 -0.24104519 -0.057550985 -0.065608904 -0.03660904 -0.27039418 -0.039472036 -0.1037019
0.10582678 -0.2306329 0.031421337 -0.05380941 -0.13503344 0.094770856 -0.037674442 0.003450393
-0.05400103 0.018988775 -0.1732765 -0.12285185 -0.07618904 -0.054053966 -0.11758876 -0.2687723
0.0038901854 0.15348019 -0.038499694 0.07263607 0.040705856 0.44512886 0.16089493 -0.06944948
-0.092705004 -0.03740405 0.02795481 0.6177674 0.11024063 0.4957986 0.09908987 0.012288018
0.032257847 0.0307278 -0.03198861 0.18980218 0.032756165 0.041817676 0.030309007 -0.12545493
-0.053103723 -0.036372922 0.034988344 0.14791493 0.0023461063 0.08798015 -0.099289276 -0.07014702
0.020747244 0.10195507 0.048212484 0.05960371 0.11130239 0.09161771 -0.04065051 -0.057010993
-0.09596699 0.059709102 0.0975948 -0.02802983 0.014186365 -0.09385245 0.0779309 0.08526891
0.1974341 0.05839642 0.06293621 -0.013936449 -0.100175776 0.2634039 0.018134953 0.15904541
-0.016211418 0.16122274 -0.03774948 0.060121424 -0.042729985 0.3468147 -0.05914596 -0.026868794
-0.036538392 -0.09715775 -0.032012302 -0.024763623 -0.026159631 -0.06372581 -0.13821147 -0.12535466
-0.105611525 -0.01606351 -0.095206246 -0.07399549 -0.08510068 -0.019790119 -0.06387027 -0.020632995
-0.058170445 0.03323646 0.016419781 -0.14186984 0.043863717 0.06376465 -0.019005552 -0.032404702
-0.0060521327 0.03510934 0.0019368764 -0.07372574 -0.054132216 -0.061681073 -0.017274518 -0.047706798
-0.07988209 -0.012955789 -0.011096117 0.0053994623 -0.064891875 0.09036451 0.058502126 -0.0998054
0.008853765 -0.028505368 -0.015734948 -0.09505764 0.052483372 0.016089365 -0.017265948 0.046960764
-0.06750884 -0.06271887 -0.05629194 -0.1277625 0.0060146563 0.011591692 -0.035623915 -0.113993056
-0.07290106 0.030961651 0.0026666329 0.11026497 -0.07095687 0.019977612 -0.06564558 0.06915257
-0.10543564 -0.06550386 0.021566235 0.036505073 -0.07547094 -0.07050743 0.04196606 -0.0047638095
0.055199265 -0.06549025 0.005364557 -0.10859011 0.03892603 -0.00584534 0.047686614 -0.08070484
-0.04211759 0.07642061 0.031074064 -0.020061988 -0.11536965 0.0017019061 -0.041703325 0.026594892
0.012691789 -0.03520652 -0.08877499 -0.048897684 0.13054109 -0.031058501 -0.02939699 0.047736876
-0.007338564 0.044567116 0.05097629 0.008193444 -0.15580007 -0.095155366 0.0581642 -0.023270044
0.025383031 -0.028034043 -0.046935245 0.0038686327 -0.112651534 -0.11058948 -0.11755948 -0.04521317
-0.16228765 -0.1012605 0.014262244 0.054883674 -0.086873256 -0.1395925 0.008564891 -0.046403613
-0.0040210844 -0.08201681 0.029663306 -0.090754226 -0.12327005 -0.020186588 -0.052255787 -0.00860192

gcn_layers.1.layer.bias f4 [64]
00000000: 72b2 66be 72e1 fcbb 1b05 a9bc f29a 043e
00000010: 3d79 ea3d 0ca5 6bbe c866 203f 57b2 313e
00000020: 87be b43e 6c59 9abe b21b 85bd 3399 d43c
00000030: 5af2 2f3f 1d74 003f c7d3 96be 7c5c 333f
00000040: df35 513d a566 003f 0573 153d 19c1 543e
00000050: 60e3 2e3e 8e84 c93d fa2a ecbe 4bad 283f
00000060: 1f4a 433f 33b8 e7bc 0498 e13e 24d0 70be
00000070: 75d5 0b3f 208e c8bd 36c4 333e 3744 c4bd
00000080: 271a 7f3c 81ef aa3c 5023 cc3b 6181 e5be
00000090: 478f 993e f948 233f eb15 a13e f180 573e
000000a0: ab76 3e3e 780b 173e 0df6 323f 9b64 253f
000000b0: ea58 0cbe 267e b33c d9db cfbe 23d9 02be
000000c0: 6344 8ebe bf8a ad3e 89f1 2abe 4b58 973e
000000d0: abf8 d2be 6cf7 e63c 5939 93bd d17d 1d3f
000000e0: f41e 9dbe 0d29 e2bc 817e 52be 579d 613e
000000f0: d32e d73e d081 953d 02c6 a73d 2a6d c8bd
-0.22529009 -0.007717305 -0.020632317 0.12949732 0.114489056 -0.23012179 0.6265683 0.17353188
0.3530161 -0.30146348 -0.06499423 0.025951957 0.68729174 0.50177175 -0.29458448 0.70062995
0.051076766 0.50156623 0.036486644 0.20776786 0.17078924 0.09839736 -0.4612654 0.65889424
0.76284975 -0.028286075 0.4406129 -0.235169 0.54622585 -0.09792733 0.17555317 -0.095833234
0.0155702 0.020866157 0.0062297955 -0.4482527 0.29992124 0.6378322 0.31462035 0.21045281
0.18599956 0.14750469 0.69906694 0.64606637 -0.13705793 0.021910738 -0.40597418 -0.12778144
-0.2778655 0.33894917 -0.16693701 0.2955955 -0.41205344 0.028194152 -0.071886726 0.61520106
-0.30687678 -0.027607465 -0.2055607 0.22032677 0.42027912 0.073001504 0.08192064 -0.097864464

fc.weight f4 [2, 64]
00000000: 512c 823b 653e bfbc f9cf 8abd 731e 823e
00000010: b53e 263e 9499 a8bd c3e8 f03d f30b 163f
00000020: 20c8 7c3e c350 32be 72fa 4f3c ddcf 5c3f
00000030: dd54 293e 908f 853d 1666 87bd 6270 d23d
00000040: 40fa 823d 2a2d 57bd 6b4b 11be 5d6a ea3d
00000050: 85dd 9b3e a3d9 603f 1828 97bd 59b9 2e3e
00000060: a542 813e 80e4 a83c bc6e 01bc 615e f3bd
00000070: a5a8 32bd f72d 9e3d 5e94 8abd c42c e23d
00000080: 31b5 3bbe 45c5 ce3e 9b92 923e be9b 05be
00000090: c00a 103e 1e12 9b3d fcc2 1d3e 0272 ab3e
000000a0: 9ae9 813e a820 0e3e abe9 4b3e cac0 a43d
000000b0: afe6 dc3b 3fe8 14be c9bf 3c3d 9c7b 2a3c
000000c0: 0478 87bd 6690 cb3d 2247 383d 98c6 5b3e
000000d0: 9083 c23c b0c1 703e 9bb1 22be d44e fa3d
000000e0: 2e1b 04be a77b 0b3d 79b7 733d 7734 fb3d
000000f0: d6c5 d83c 506a 583d fba8 a23e b26e 12be
00000100: f467 f83d 0fcc 81bd 4121 98bd 3800 4abe
00000110: 3e56 6bbe f66b 57bd b0a8 c9bd 3bda 42bf
00000120: 16cc a1be 2661 8a3d ac82 a53c 41b0 73bf
00000130: d32d c4bd b398 edbd e5ac ccbc 253d bebd
00000140: ccf9 cd3c 3019 27be 9fcc 933e ab01 7ebe
00000150: 3d71 26be a459 5fbf 2023 933c fa5b 79bd
00000160: e086 38be 3fc1 c8bc d54f 3bbe f17d 90bd
00000170: 7e22 23be fb61 c03d d1ea 00be f2d7 b93d
00000180: e1d1 d03d 9d4b 5bbe f141 99be 6c05 583d
00000190: 4bc1 95be d467 c1bc b345 d9bd dc66 60be
000001a0: b713 bbbe 8310 5abe 5143 92be e5a2 a0bd
000001b0: 1bd5 b53d ddad f93d 737b d33d 4fd3 2bbc
000001c0: 0d3e 543b c85f abbd 4b89 953d 83bb dcbe
000001d0: 63f2 933d 18f3 febd fd44 a43d c7fc 03be
000001e0: f7cf abbd 04b7 51be 4e03 ae3d 71b4 0cbe
000001f0: 49b3 f13b dd55 503d 9a2a c2be f8b7 e83d
0.003972568 -0.023345182 -0.06777949 0.25413856 0.16234858 -0.08232418 0.11763146 0.58611983
0.24685717 -0.1741362 0.012693988 0.86254674 0.16536279 0.06521523 -0.06611268 0.102753416
0.06395388 -0.052533306 -0.14188926 0.114460684 0.30442443 0.8783209 -0.07380694 0.17062892
0.25246158 0.02061677 -0.007899936 -0.11883236 -0.043617863 0.07723611 -0.0676658 0.110436946
-0.18330838 0.4038488 0.28627476 -0.13047692 0.14066601 0.07571815 0.15406412 0.3348542
0.25373536 0.13879645 0.19913356 0.08044584 0.006741367 -0.1454172 0.046081338 0.010405447
-0.06614688 0.09939651 0.044989713 0.21462476 0.023744375 0.23511386 -0.15888064 0.122220665
-0.12900993 0.03405347 0.059501145 0.12265866 0.026461523 0.052835763 0.31769547 -0.1430004
0.121292025 -0.06337749 -0.07428218 -0.19726646 -0.22982118 -0.052593194 -0.09846628 -0.76114243
-0.31601018 0.06756811 0.02020391 -0.9519082 -0.09579053 -0.11601391 -0.024984786 -0.09289006
0.025143526 -0.16318202 0.2886705 -0.24805324 -0.16254134 -0.87246156 0.017961085 -0.06087873
-0.180202 -0.02450621 -0.18292172 -0.070552714 -0.15931126 0.09393688 -0.12589575 0.090743914
0.10196281 -0.21415563 -0.29933122 0.052739546 -0.29249033 -0.02360908 -0.10608997 -0.21914238
-0.3653848 -0.21295361 -0.28566983 -0.0784357 0.08878537 0.12191365 0.103262804 -0.010487392
0.0032385618 -0.08367878 0.07301577 -0.4311181 0.07223966 -0.1244871 0.08020971 -0.12889396
-0.083892755 -0.20479971 0.08496724 -0.13740708 0.007376109 0.050863136 -0.37923127 0.11363214

fc.bias f4 [2]
00000000: dec1 9a3e a205 f5be
0.30226034 -0.4785586
